results/shared_dqn/models/checkpoint_ep1300.pth (torch, 615283 bytes, 28 tensors)

task_embedding.weight f4 [3, 8]
0.3013513 0.11346706 -0.054247394 0.22912177 0.045034956 0.061429877 -0.18670025 0.27929276
0.0920124 -0.06358394 -0.0258447 -0.45005694 -0.08584604 -0.001017508 0.3041672 0.17783953
-0.48356208 0.081463344 0.027094943 0.06404577 0.07269751 -0.36285272 -0.14184767 -0.13151114
00000000: b84a 9a3e 6b61 e83d 8432 5ebd e69e 6a3e
00000010: 9376 383d e59d 7b3d 5a2e 3fbe 76ff 8e3e
00000020: ff70 bc3d 4c38 82bd 44b8 d3bc dd6d e6be
00000030: 0cd0 afbd e75d 85ba cebb 9b3e 911b 363e
00000040: 7395 f7be 41d6 a63d 37f6 dd3c 6e2a 833d
00000050: 6fe2 943d d5c7 b9be 8440 11be dbaa 06be

fc1.weight f4 [256, 16]
-0.12001907 -1.5614688 -0.2999734 0.8576937 0.33271465 0.79772234 0.07615047 0.08718292
0.08019898 0.5146216 0.09519594 0.21118596 0.12338646 -0.45684147 0.008403796 0.041255463
0.2643044 -1.3734415 -0.026877848 -1.6723924 0.33864924 0.120618574 -0.23004994 -0.47139993
0.51440006 -0.38436794 -0.11768176 -0.45094958 -0.8870742 0.8188629 0.1174588 0.22679459
-0.07632418 0.01279339 -1.8283491 0.32536528 -0.07336086 0.009852351 -0.12131531 0.5215341
-0.10898687 0.34812358 -0.15318426 -0.013826214 -0.20333117 0.11636206 0.15010586 -0.073395096
0.89124185 0.12602131 -0.74438727 -1.299413 -0.43550175 0.10302071 0.6127835 -0.65087134
0.08773092 -0.3682728 0.37315747 -0.18384199 -0.08277663 0.35752478 0.93793863 0.14443006
-0.23653033 0.51538485 0.7408546 -0.5285738 -0.7499449 1.1819398 0.28926155 -0.07231044
0.43053833 -0.5946938 -0.32124192 0.36937997 0.06239356 0.09284623 0.82508665 -0.0899023
1.1341909 0.2602715 0.5400252 0.27711615 1.3237939 -0.25113136 -0.5980382 0.6265905
-0.21873322 0.06679656 0.1920577 -0.82463604 -0.23241583 -0.25151342 0.31640682 0.51186615
-0.10679165 -1.6805304 0.49999923 -0.8375838 0.37634566 0.45403135 0.029578626 0.19726531
-0.37254226 -0.7644454 0.55127376 0.16241433 -0.12959507 -0.15666424 -0.06592987 -0.6650508
-0.1396385 -1.664853 0.27373677 -0.5023202 0.44267213 -0.40111485 -0.51325005 -0.03304434
-0.07651118 0.024782067 -0.5444621 -0.5952847 0.2877853 -0.21705446 0.3718887 -0.167213
-1.1569042 0.32644615 0.8573275 0.6646281 0.08369844 -0.0076926593 -1.2851313 0.9865771
-0.79467416 0.27798393 0.40524653 0.82854044 -0.013288159 0.05806328 -0.60600406 -0.096651256
1.471293 0.19288632 1.2904412 0.9305162 0.27392954 0.3935119 -0.24315885 0.117801875
-0.0006606972 -0.5464796 0.055208884 -0.23068522 0.34091175 0.20567623 -0.15856631 0.14339152
-0.8870597 0.27435198 0.10795588 -0.813578 -0.5637564 0.55068076 0.7129264 -0.78153867
0.5470038 -0.98810077 -0.361965 -0.05620439 -0.28743914 0.584942 -0.46039656 -0.29064482
-0.022292143 0.6041756 -0.2226754 -0.519492 0.06926562 -0.36025187 0.75935763 -1.1261046
-0.59087276 -0.18892716 -0.06318468 -0.095862344 0.52167004 -0.14980926 -0.0015510982 0.32438672
0.07489785 -0.4794115 0.100462444 -0.9751024 -1.121549 -0.25485167 -1.8037759 0.0829014
1.0497274 -0.22146958 -0.1472031 0.07215011 -0.3337314 0.71671945 0.07605354 0.77985996
-0.7867055 0.25187552 0.18964925 -1.0354054 0.9827772 0.78045887 0.47795153 0.019392729
0.4363527 0.21408978 0.008021369 1.1466378 -0.19702663 -0.7027663 -0.24003576 0.29691145
-0.09351694 -0.26467216 -0.5724179 -1.7392099 -0.37099582 0.00093924924 0.4258105 0.048661537
0.18891878 -0.1372319 -0.3500176 -0.028834226 -0.22228579 0.5645617 -0.08889755 -0.544822
0.63217366 -1.9282136 -0.62872916 -0.8913708 0.34884134 0.24367316 0.06918978 -0.22784647
-0.017248556 0.04326556 0.026227081 -0.42901185 0.9598634 0.070282616 0.25333494 -0.29267564
00000000: 8fcc f5bd 36de c7bf 1d96 99be d091 5b3f
00000010: 9359 aa3e 8837 4c3f c7f4 9b3d f58c b23d
00000020: 5d3f a43d 3ebe 033f 17f6 c23d 2241 583e
00000030: 0ab2 fc3d 20e7 e9be 13b0 093c 7dfb 283d
00000040: e852 873e eecc afbf ef2e dcbc f410 d6bf
00000050: 6f63 ad3e df06 f73d 3692 6bbe 555b f1be
00000060: b9af 033f e0cb c4be 2203 f1bd dde2 e6be
00000070: 4b17 63bf 00a1 513f 3d8e f03d d73c 683e
00000080: da4f 9cbd 5e9b 513c 5807 eabf 4796 a63e
00000090: 383e 96bd c16b 213c 2974 f8bd 4283 053f
000000a0: 8234 dfbd 413d b23e 56dc 1cbe 5887 62bc
000000b0: 0c36 50be 3b4f ee3d 5ab5 193e 2b50 96bd
000000c0: 6d28 643f bb0b 013e 2a90 3ebf 2a53 a6bf
000000d0: 16fa debe 86fc d23d 61df 1c3f 819f 26bf
000000e0: 45ac b33d 418e bcbe 7f0e bf3e 1341 3cbe
000000f0: cb86 a9bd 7d0d b73e bf1c 703f 79e5 133e
00000100: 0235 72be 43f0 033f a6a8 3d3f 9d50 07bf
00000110: 64fc 3fbf ce49 973f 171a 943e 7f17 94bd
00000120: 856f dc3e da3d 18bf d279 a4be 5f1f bd3e
00000130: 6490 7f3d 2a26 be3d e138 533f b21e b8bd
00000140: 2b2d 913f 4e42 853e 173f 0a3f 2be2 8d3e
00000150: 1472 a93f 4a94 80be 0819 19bf 3c68 203f
00000160: 9afb 5fbe a3cc 883d c6aa 443e 591b 53bf
00000170: 6afe 6dbe 5ec6 80be 1300 a23e a909 033f
00000180: 95b5 dabd 9f1b d7bf e6ff ff3e e46b 56bf
00000190: 61b0 c03e cc76 e83e e04e f23c ebff 493e
000001a0: dcbd bebe b2b2 43bf 4720 0d3f f14f 263e
000001b0: 92b4 04be 976c 20be 3d06 87bd c540 2abf
000001c0: 65fd 0ebe e719 d5bf 3a27 8c3e 0e98 00bf
000001d0: eca5 e23e ed5e cdbe 5b64 03bf 8059 07bd
000001e0: e5b1 9cbd c303 cb3c de61 0bbf 9464 18bf
000001f0: 9858 933e 8643 5ebe 3268 be3e e239 2bbe
00000200: 7015 94bf f323 a73e d179 5b3f 1125 2a3f
00000210: 166a ab3d b412 fcbb 2f7f a4bf 5190 7c3f
00000220: c46f 4bbf e953 8e3e 797c cf3e 3a1b 543f
00000230: 94b6 59bc c3d3 6d3d 1523 1bbf 18f1 c5bd
00000240: 5453 bc3f fe83 453e 2d2d a53f 4f36 6e3f
00000250: 7e40 8c3e 647a c93e a2fe 78be 1c42 f13d
00000260: a332 2dba 16e6 0bbf b622 623d bf38 6cbe
00000270: fc8b ae3e ca9c 523e 355f 22be 3ad5 123e
00000280: 5816 63bf dd77 8c3e f917 dd3d a646 50bf
00000290: 5752 10bf 6af9 0c3f 5882 363f eb12 48bf
000002a0: 7108 0c3f 2cf4 7cbf 7a53 b9be 9336 66bd
000002b0: 392b 93be c2be 153f 19b9 ebbe 66cf 94be
000002c0: 039e b6bc 41ab 1a3f 0505 64be 6dfd 04bf
000002d0: 22db 8d3d ef72 b8be 4365 423f 3224 90bf
000002e0: 7043 17bf 1f76 41be f866 81bd 7a53 c4bd
000002f0: 2b8c 053f 9967 19be 384e cbba 0416 a63e
00000300: 0b64 993d 6d75 f5be 41bf cd3d 50a0 79bf
00000310: eb8e 8fbf eb7b 82be 21e2 e6bf 36c8 a93d
00000320: 785d 863f ecc8 62be 69bc 16be 70c3 933d
00000330: d8de aabe ed7a 373f f5c1 9b3d e7a4 473f
00000340: 8865 49bf d4f5 803e 6a33 423e 2a88 84bf
00000350: 4997 7b3f 27cc 473f 10b6 f43e 80dd 9e3c
00000360: 9f69 df3e 5a3a 5b3e 0f6c 033c 07c5 923f
00000370: 59c1 49be 7ee8 33bf efcb 75be c704 983e
00000380: cf85 bfbd 1c83 87be fb89 12bf 6e9e debf
00000390: 2af3 bdbe f337 763a d503 da3e 5251 473d
000003a0: ed73 413e 8586 0cbe 8235 b3be c135 ecbc
000003b0: e39e 63be 1e87 103f eb0f b6bd 7479 0bbf
000003c0: 22d6 213f b4cf f6bf 65f4 20bf e030 64bf
000003d0: 559b b23e 7585 793e 5fb3 8d3d 9650 69be
000003e0: d84c 8dbc 3a37 313d 2dda d63c 71a7 dbbe
000003f0: 9cb9 753f 55f0 8f3d 1eb5 813e 95d9 95be

fc1.bias f4 [256]
0.12308789 -0.031192753 -0.028186087 -0.45858312 -0.11757431 0.20696847 -0.16370928 0.57534164
-0.22766872 0.06989164 0.07433219 0.22751945 0.12132006 -0.19507922 -0.33627892 -0.024993088
-0.4676647 -0.48888552 -0.48793453 0.35122067 -0.5960794 -0.081211396 0.21609436 -0.044035625
-0.14538012 -0.32010257 -0.1686411 0.1835851 -0.10480329 0.2882068 0.076267265 0.0692516
0.12803842 0.2354163 -0.16024971 -0.3467202 -0.41558063 0.08820578 -0.31571826 0.08132952
-0.031992685 -0.011368944 0.2718481 -0.54358083 0.30420184 -0.17231905 0.12115207 0.29698956
0.11547517 -0.10492739 0.11674973 0.05049406 -0.16828007 -0.02240124 -0.6220306 -0.32071427
0.6641869 0.12277762 -0.21249668 -0.30670014 -0.41290262 -0.1952307 0.44222316 -0.53851724
-0.29832363 0.17133056 -0.12728754 0.25634578 -0.025938205 -0.09455289 -0.6468687 0.18252817
-0.34306762 -0.09247923 0.1954354 -0.7588453 0.007213802 0.08115566 -0.42739788 0.21000956
-0.18325104 -0.46803394 0.036412783 -0.39385244 0.1626445 -0.34745827 0.3798581 0.35518306
0.3640144 0.019441145 -0.06071487 0.12291364 -0.12801956 -0.017422948 0.05359625 -0.03357651
0.3190418 -0.054357864 0.10673468 -0.70710826 -0.23979008 -0.36184958 0.58183604 -0.1653239
0.3230788 -0.06904538 0.0992212 -0.2026911 -0.087923236 -0.22559021 -0.20872639 -0.3488735
-0.23273288 0.06928259 0.34860745 -0.4122147 -0.1637709 0.5494242 0.65969145 0.22013205
-0.3373248 0.0093824025 0.25479934 -0.055801027 0.5458177 -0.24588759 -0.54084426 -0.18969713
0.07356476 -0.24363348 -0.57456636 -0.054242324 -0.24907771 0.33398306 -0.015793407 -0.17844896
-0.044056337 -0.049383085 0.23296325 -0.11821067 0.34425563 0.34894344 -0.26055667 0.061507624
-0.28603062 0.4581843 0.06703353 -0.46837896 0.18636733 0.09017662 -0.056576055 0.41996375
0.0383591 -0.102447316 0.013228982 -0.841953 -0.9784458 -0.28364265 0.43402147 0.18103212
0.17295937 -0.30205247 -0.84566605 0.189146 0.20095767 0.12766166 0.12230238 -0.030368146
-0.07429384 0.32976532 0.35048178 0.27369425 0.22833507 0.1795824 0.3346117 0.059070855
-0.29707476 -0.4333985 0.18549903 -0.388782 -0.7126607 -0.33554575 0.26085186 -0.034465004
-0.34757617 0.22417079 0.13872845 0.33035108 -0.9272743 -0.49469626 -0.23543537 0.06588253
-0.53833467 -0.36462238 0.24163096 -0.4611545 0.126488 -0.032784596 0.5964479 0.09566823
0.081154265 0.23830737 -0.0012481984 -0.29763654 -0.5723253 0.6628832 0.7854521 -0.06118591
-0.07491581 0.050216477 0.5744374 -0.4111387 0.52710354 -0.09950484 -0.53346187 -0.24774756
0.13445222 -0.15352973 -0.3161075 -0.047686562 0.20156974 -0.18840887 0.279668 0.3153654
-0.076393664 -0.52413684 0.0076277363 0.053656526 -0.85729235 0.039571445 -0.38392442 0.020627018
0.14656173 0.0856514 0.057157375 0.0035363 0.16298273 0.1637545 -0.21429281 -0.51629037
-0.090349674 -0.22721462 -0.31050837 0.44328323 -0.33709997 -0.03899621 0.27455348 0.026431121
-0.29446527 -0.20868151 -0.25440305 0.18876114 -0.28336498 -0.33254987 -0.91165084 -0.017446866
00000000: 8115 fc3d f287 ffbc 82e6 e6bc 68cb eabe
00000010: cdca f0bd 8bef 533e 68a3 27be 9749 133f
00000020: fd21 69be 5923 8f3d 7a3b 983d dcfa 683e
00000030: a776 f83d d9c2 47be c02c acbe 4ebe ccbc
00000040: bf71 efbe 344f fabe 8ed2 f9be 32d3 b33e
00000050: a998 18bf 2952 a6bd d747 5d3e b35e 34bd
00000060: 87de 14be 7ce4 a3be 41b0 2cbe bcfd 3b3e
00000070: 1ba3 d6bd d78f 933e 0332 9c3d c8d3 8d3d
00000080: 811c 033e f810 713e 8018 24be 4f85 b1be
00000090: fcc6 d4be 3ba5 b43d d3a5 a1be 1790 a63d
000000a0: c30a 03bd cf44 3abc ad2f 8b3e 1d28 0bbf
000000b0: 58c0 9b3e 6874 30be 941e f83d 040f 983e
000000c0: 3f7e ec3d 2ce4 d6bd 7c1a ef3d dcd2 4e3d
000000d0: 9c51 2cbe ce82 b7bc 663d 1fbf a934 a4be
000000e0: 2708 2a3f d572 fb3d bb98 59be cd07 9dbe
000000f0: f967 d3be 8eea 47be 136b e23e 44dc 09bf
00000100: e0bd 98be 4771 2f3e aa57 02be c13f 833e
00000110: 5c7c d4bc f2a4 c1bd 3099 25bf aae8 3a3e
00000120: 8fa6 afbe c065 bdbd 3820 483e b043 42bf
00000130: c261 ec3b f034 a63d e5d3 dabe bf0c 573e
00000140: 29a6 3bbe 25a2 efbe 9225 153d 07a7 c9be
00000150: 488c 263e 0de6 b1be c37c c23e 8eda b53e
00000160: 1860 ba3e 0943 9f3c 28b0 78bd 26ba fb3d
00000170: 8f17 03be 92ba 8ebc be87 5b3d 8687 09bd
00000180: 7259 a33e 5aa6 5ebd b697 da3d 0c05 35bf
00000190: 888b 75be 5944 b9be 35f3 143f ab4a 29be
000001a0: 966a a53e aa67 8dbd 7c34 cb3d 418e 4fbe
000001b0: 1911 b4bd 1f01 67be 5fbc 55be 8c9f b2be
000001c0: 8751 6ebe 08e4 8d3d ad7c b23e ce0d d3be
000001d0: 8fb3 27be 10a7 0c3f 8ae1 283f 4c6a 613e
000001e0: d6b5 acbe a6b8 193c 0f75 823e 9e8f 64bd
000001f0: b5ba 0b3f f5c9 7bbe c574 0abf f73f 42be
00000200: 1fa9 963d 0e7b 79be c816 13bf 332d 5ebd
00000210: 3a0e 7fbe d4ff aa3e 2d61 81bc 53bb 36be
00000220: 6b74 34bd eb45 4abd eb8d 6e3e 7018 f2bd
00000230: 4642 b03e b7a8 b23e af67 85be 6bef 7b3d
00000240: 9b72 92be 2297 ea3e e048 893d 5ecf efbe
00000250: 14d7 3e3e 85ae b83d 4bbc 67bd 7d05 d73e
00000260: 6f1e 1d3d e6cf d1bd 5fbe 583c 3b8a 57bf
00000270: 6d7b 7abf 9c39 91be 1038 de3e 7c60 393e
00000280: 431c 313e 9fa6 9abe 927d 58bf 7daf 413e
00000290: d9c7 4d3e bdb9 023e ac79 fa3d 9ec6 f8bc
000002a0: 5e27 98bd 00d7 a83e 5972 b33e a721 8c3e
000002b0: abd0 693e 73e4 373e 3a52 ab3e 48f4 713d
000002c0: 2f1a 98be 68e6 ddbe 75f3 3d3e 6f0e c7be
000002d0: ee70 36bf a7cc abbe 608e 853e 2d2b 0dbd
000002e0: 81f5 b1be 078d 653e d50e 0e3e c723 a93e
000002f0: d961 6dbf d448 fdbe f815 71be 6bed 863d
00000300: 4dd0 09bf c9af babe 1b6e 773e 711c ecbe
00000310: 1286 013e 2449 06bd cfb0 183f b4ed c33d
00000320: 3534 a63d d906 743e 979a a3ba d163 98be
00000330: e983 12bf b7b2 293f 6413 493f 149e 7abd
00000340: 766d 99bd cbaf 4d3d 540e 133f c680 d2be
00000350: 42f0 063f 32c9 cbbd f590 08bf 89b1 7dbe
00000360: d8ad 093e e636 1dbe d8d8 a1be fc52 43bd
00000370: 4c68 4e3e 41ee 40be a530 8f3e 9377 a13e
00000380: 4874 9cbd d52d 06bf 17f2 f93b f2c6 5b3d
00000390: 8377 5bbf ab15 223d be91 c4be fef9 a83c
000003a0: 4714 163e 006a af3d da1d 6a3d 45c1 673b
000003b0: f2e4 263e 42af 273e 936f 5bbe 9b2b 04bf
000003c0: 4009 b9bd f3aa 68be f4fa 9ebe 05f6 e23e
000003d0: 5e98 acbe 7dba 1fbd 4692 8c3e 1486 d83c
000003e0: 27c4 96be 9bb0 55be 1e41 82be 9a4a 413e
000003f0: 3715 91be fa43 aabe f361 69bf bbec 8ebc

fc2.weight f4 [128, 256]
-0.3583454 0.40595073 0.22040612 0.35113493 0.23610528 0.10732854 0.3713215 0.43219113
0.28244638 -0.13621646 -0.15468743 0.016193906 0.32014418 0.20651293 -0.077190146 0.7183429
-0.6902907 0.111158095 0.45876026 0.46241635 0.42272887 0.20071281 -0.6129587 -0.07895612
0.40341344 -0.9419704 -1.0511725 -1.006008 -0.43617213 -1.1377188 1.0487324 -1.4530877
-0.038968433 0.25408846 -0.3223153 0.65639275 -0.91113305 -0.36822996 0.27322972 0.12596346
0.0476515 0.27012864 -0.84873813 0.527573 0.2251016 -0.018561076 -0.45973605 -0.16549475
0.10052879 0.28249478 0.47556853 0.28370786 0.6332664 0.60022026 -0.8632928 0.5395762
-0.6086681 -0.7037594 -0.32703534 -0.039005686 -0.251774 1.0046446 0.2701365 0.53132504
0.12564151 0.11888863 -1.7111777 1.004429 0.12297338 -0.08221966 0.51045877 0.23966353
0.6265213 0.15716006 -0.111905955 -0.033917796 -1.2314091 0.43363273 0.04238677 -0.474214
1.2972691 -0.0024915521 -0.18007392 0.24763574 -0.05826279 -0.6966243 -0.09819154 -0.06280281
-0.0017461983 -0.50507766 0.1684444 0.49490482 0.26118192 -0.41401806 -0.43454766 -0.38903883
-0.0074400883 0.59841776 -0.79318595 -1.7706298 0.78988755 0.5610837 -0.07974251 0.12707941
-1.0099677 -0.9758125 0.003409042 -0.67838395 0.5823582 0.41600588 0.3512406 0.28240576
0.22397801 0.529993 -0.34177732 0.008192906 0.2741858 -0.7566051 0.051651493 0.2910289
0.12551016 0.2646141 0.44368446 -0.82058877 -0.6962315 -0.24754508 0.3622619 -0.09517647
0.14323647 0.2558186 -0.80455256 0.5204782 0.20380533 0.024566498 0.18079461 0.093066804
1.2254974 0.253307 -0.14827643 -0.37426338 0.61288947 -0.17083558 -0.14247309 -0.15319611
2.3983972 -0.5143246 -1.2899477 -0.66912633 1.1193362 0.5804036 0.09006901 -0.057042487
0.09287476 -1.145007 0.21424489 -0.27146477 -0.3726321 -0.2139746 -1.2444657 0.4569094
-0.04729536 0.11624537 0.38985083 -0.16870672 -0.6291358 0.6939581 1.1138815 0.18164524
-0.12173291 0.5656079 0.7336278 0.31629366 -0.077468686 0.10892279 -1.451605 -0.3796886
-1.0448757 -0.40748137 -0.30047846 -0.10234152 -0.15648864 -0.024263747 -0.314497 -0.42168114
-1.0311186 0.12695268 -0.4999844 -0.3612595 -2.6194434 0.64349055 0.5963548 -1.482478
0.13222343 0.2479359 0.19761303 0.43900943 -0.3373664 0.081637785 -0.25018194 -2.5199862
-0.791605 -0.5435563 -0.0977328 -0.033592645 0.05759822 -0.9254563 -0.61350626 0.26035148
0.03137097 -0.0039588194 -0.98670214 0.1330307 -0.39683658 -0.04508823 -0.82756776 -0.19585404
0.24679329 -0.9406952 0.35779956 0.3478719 0.47670564 -0.09176104 -0.79428804 0.04060031
0.08748083 -0.5530353 0.4750514 0.06429204 -0.5840213 0.058651686 -0.4072273 0.27763742
0.02972066 -0.8224164 0.78818315 -0.07226817 0.35063723 0.054079477 -0.22452 0.06693767
0.20947996 -1.3906693 -0.015136818 -0.2588294 -0.61752284 -0.6718649 0.6158646 0.19950084
0.23171303 0.53586745 -0.90309113 0.17773561 0.18536356 0.70561385 1.0445422 0.6433045
00000000: 0c79 b7be c6d8 cf3e 24b2 613e f5c7 b33e
00000010: 95c5 713e 11cf db3d da1d be3e 2848 dd3e
00000020: d09c 903e 547c 0bbe 6266 1ebe 15a9 843c
00000030: f0e9 a33e 2078 533e de15 9ebd 52e5 373f
00000040: e4b6 30bf dba6 e33d a0e2 ea3e d6c1 ec3e
00000050: eb6f d83e a987 4d3e ddea 1cbf bfb3 a1bd
00000060: 358c ce3e f924 71bf d28c 86bf dfc4 80bf
00000070: f451 dfbe c5a0 91bf dd3c 863f c7fe b9bf
00000080: 5d9d 1fbd e217 823e 8306 a5be 5b09 283f
00000090: 0440 69bf a388 bcbe c4e4 8b3e 91fc 003e
000000a0: 382e 433d 4d4e 8a3e e746 59bf 060f 073f
000000b0: 0981 663e 660d 98bc 8662 ebbe 7577 29be
000000c0: 0ae2 cd3d 28a3 903e b87d f33e 2842 913e
000000d0: bf1d 223f 09a8 193f c200 5dbf aa21 0a3f
000000e0: acd1 1bbf 9329 34bf 2d71 a7be 6dc4 1fbd
000000f0: 86e8 80be 3298 803f 554f 8a3e eb04 083f
00000100: 2ba8 003e e27b f33d df07 dbbf 2191 803f
00000110: 78d9 fb3d c862 a8bd 6dad 023f 5b6a 753e
00000120: b363 203f 91ee 203e f32e e5bd 63ed 0abd
00000130: d09e 9dbf 1c05 de3e c09d 2d3d 2dcc f2be
00000140: ea0c a63f 4f49 23bb 4c65 38be 3994 7d3e
00000150: f7a4 6ebd f855 32bf a518 c9bd c29e 80bd
00000160: b1e0 e4ba c54c 01bf b07c 2c3e 2a64 fd3e
00000170: a3b9 853e 2dfa d3be 087d debe 1930 c7be
00000180: fccb f3bb e831 193f 3c0e 4bbf ffa3 e2bf
00000190: 1236 4a3f 2ea3 0f3f 0b50 a3bd 1b21 023e
000001a0: 9f46 81bf d9ce 79bf 3c6a 5f3b 92aa 2dbf
000001b0: 6d15 153f b9fe d43e cfd5 b33e 7d97 903e
000001c0: 7e5a 653e 9fad 073f 70fd aebe 8a3b 063c
000001d0: 1562 8c3e dfb0 41bf 8490 533d bd01 953e
000001e0: bc85 003e 807b 873e 9c2a e33e 1b12 52bf
000001f0: 3a3c 32bf 757c 7dbe 647a b93e e2eb c2bd
00000200: 95ac 123e a8fa 823e 28f7 4dbf 0f3e 053f
00000210: 58b2 503e ae3f c93c 3922 393e cf99 be3d
00000220: 19dd 9c3f 75b1 813e c7d5 17be 739f bfbe
00000230: 53e6 1c3f 86ef 2ebe 77e4 11be 71df 1cbe
00000240: 577f 1940 c7aa 03bf 021d a5bf dd4b 2bbf
00000250: 6946 8f3f 5595 143f 1a76 b83d 62a5 69bd
00000260: 1f35 be3d 978f 92bf 0363 5b3e 6efd 8abe
00000270: a2c9 bebe 281c 5bbe a74a 9fbf 07f0 e93e
00000280: c8b8 41bd 0d12 ee3d 879a c73e 74c1 2cbe
00000290: 0b0f 21bf 3da7 313f ab93 8e3f 3601 3a3e
000002a0: 1b4f f9bd aecb 103f 08cf 3b3f 3ef1 a13e
000002b0: e7a7 9ebd e912 df3d 31ce b9bf 8b66 c2be
000002c0: 7dbe 85bf 66a1 d0be 50d8 99be 6e98 d1bd
000002d0: 8f3e 20be c4c4 c6bc c005 a1be 97e6 d7be
000002e0: b2fb 83bf e2ff 013e f5fd ffbe 01f7 b8be
000002f0: f6a4 27c0 ccbb 243f b5aa 183f d7c1 bdbf
00000300: 9465 073e e9e2 7d3e 125b 4a3e d8c5 e03e
00000310: 4abb acbe b631 a73d d917 80be 7447 21c0
00000320: a0a6 4abf 8126 0bbf 2228 c8bd 7198 09bd
00000330: 1cec 6b3d b4ea 6cbf bf0e 1dbf ca4c 853e
00000340: d97e 003d fcb8 81bb 8398 7cbf 3339 083e
00000350: 2a2e cbbe 70ae 38bd 7bdb 53bf f68d 48be
00000360: 61b7 7c3e 67d1 70bf 8131 b73e 441c b23e
00000370: c312 f43e 36ed bbbd 7656 4bbf 834c 263d
00000380: 2629 b33d b993 0dbf f039 f33e 8cab 833d
00000390: 6b82 15bf c03c 703d 1980 d0be 7e26 8e3e
000003a0: be78 f33c e289 52bf 5fc6 493f 5601 94bd
000003b0: b986 b33e 7182 5d3d 92e8 65be 9e16 893d
000003c0: ea81 563e 7401 b2bf 6b00 78bc 4a85 84be
000003d0: fa15 1ebf 57ff 2bbf 4da9 1d3f f349 4c3e
000003e0: 2e46 6d3e 9c2e 093f fb30 67bf 5300 363e
000003f0: f2cf 3d3e 1ca3 343f 8fb3 853f 9baf 243f

fc2.bias f4 [128]
-0.18265806 0.41142386 -0.22878814 0.17837383 -0.5260007 0.036036205 -0.27004942 0.14772217
-0.10348442 -0.06566551 -0.09170245 0.37791198 0.31459522 0.11929461 -0.3156079 -0.067447044
-0.2504042 -0.03175707 0.17190458 -0.22459373 -0.5270689 0.23743509 -0.14449108 0.11209736
-0.47549817 -0.034705304 0.35881048 -0.34485725 -0.12713839 -0.70486236 0.34777614 0.3665853
-0.33124623 -0.11823939 -0.23744966 0.5030674 -0.40558353 0.039422475 0.1701542 -0.14151853
-0.14578296 0.38525617 0.08003727 0.08521129 -0.04205411 -0.036021527 0.31514367 -0.4565456
-0.19354366 0.15722978 0.079300456 -0.012638326 0.19916055 0.25971043 0.551246 0.094066784
0.21132648 -0.20879304 0.20283781 0.50819737 0.027608285 0.7952179 0.09651615 -0.1828578
0.28050718 -0.39834413 0.13326275 0.24568535 -0.019813554 0.039665997 0.38656342 0.26591638
0.3889826 -0.2743004 0.09022679 0.09783923 0.07902002 0.04987985 -0.13916561 -0.08903343
0.342077 -0.21951455 0.5071345 0.0047341245 -0.54537433 -0.22654863 0.15385327 0.0625989
0.023729369 -0.025886197 -0.042823303 -0.040053315 0.09590841 0.4067156 0.090143345 0.4050301
-0.6443749 -0.048610844 0.057282988 0.38781714 -0.04996871 0.2865217 0.07657222 0.6323283
-0.057983655 0.19758222 -0.23709787 -0.19360806 0.07238387 -0.5065334 0.0055968636 0.38872784
-0.1906913 -0.001355556 -0.33686537 0.12568453 0.15137942 -0.16708781 -0.39445218 -0.04439756
0.1380388 -0.18732803 0.04665955 -0.21136962 -0.16956767 -0.043759104 -0.13214323 -0.019810474
00000000: b70a 3bbe 26a6 d23e 7047 6abe a1a7 363e
00000010: fba7 06bf b39a 133d eb43 8abe 7b44 173e
00000020: a4ef d3bd a47b 86bd 7ece bbbd ae7d c13e
00000030: a012 a13e bc50 f43d 5c97 a1be ad21 8abd
00000040: fb34 80be b413 02bd c107 303e e6fb 65be
00000050: fded 06bf 2f22 733e 78f5 13be 4d93 e53d
00000060: 7f74 f3be 2627 0ebd 02b6 b73e 2191 b0be
00000070: 9130 02be dc71 34bf b70f b23e 12b1 bb3e
00000080: 1b99 a9be 7e27 f2bd 0126 73be 06c9 003f
00000090: a5a8 cfbe 7679 213d e73c 2e3e 3cea 10be
000000a0: 2148 15be 4c40 c53e 95ea a33d 4283 ae3d
000000b0: ee40 2cbd 4f8b 13bd 835a a13e 58c0 e9be
000000c0: 4f30 46be d800 213e 4768 a23d fb10 4fbc
000000d0: bef0 4b3e c4f8 843e 751e 0d3f 16a6 c03d
000000e0: f865 583e d8cd 55be b7b4 4f3e 3919 023f
000000f0: c52a e23c 6693 4b3f 42aa c53d 133f 3bbe
00000100: a39e 8f3e c3f3 cbbe 0876 083e f194 7b3e
00000110: 0950 a2bc d078 223d a4eb c53e 3126 883e
00000120: ba28 c73e 1a71 8cbe d3c8 b83d ef5f c83d
00000130: 40d5 a13d d04e 4c3d 6e81 0ebe 2957 b6bd
00000140: b724 af3e 6cc8 60be 91d3 013f b720 9b3b
00000150: a79d 0bbf 5dfc 67be b68b 1d3e da33 803d
00000160: 1864 c23c 4a0f d4bc 7d67 2fbd f20e 24bd
00000170: a16b c43d 073d d03e 139d b83d 1b60 cf3e
00000180: c1f5 24bf 2a1c 47bd 91a1 6a3d f88f c63e
00000190: fdab 4cbd f9b2 923e e5d1 9c3d 44e0 213f
000001a0: 4580 6dbd fe52 4a3e c9c9 72be 3141 46be
000001b0: ff3d 943d 2cac 01bf e565 b73b 5607 c73e
000001c0: 9544 43be e9ac b1ba 9e79 acbe 72b3 003e
000001d0: 3503 1b3e 1119 2bbe a3f5 c9be 37da 35bd
000001e0: 0b5a 0d3e ebd2 3fbe 161e 3f3d 4771 58be
000001f0: 26a3 2dbe bf3c 33bd 8e50 07be 9349 a2bc

fc3.weight f4 [4, 128]
-0.13698389 1.5716414 1.2995348 0.9917277 0.8561127 0.5797499 2.075444 1.325797
0.18161075 1.4425024 -0.3724774 1.4447737 0.94891053 0.32168663 2.2543612 -0.75408435
-1.1178559 -0.012388985 -0.43525758 -0.38616428 -1.1470747 1.3264167 -0.74947584 -0.86449134
-1.0503258 0.13935147 -1.4697974 1.09458 -1.2406573 1.0690856 -0.8130543 1.0181795
0.6879577 -0.1314764 -0.69031245 0.9529381 0.021021424 0.36376643 -0.03152327 -0.9375869
-0.44868138 -0.73363996 1.4550202 -0.649097 -0.009158931 0.052782267 0.3238748 0.15955715
-0.17059314 -0.31715935 -0.60162514 0.07263954 0.65383923 1.0801687 -0.9645879 0.78102386
1.192971 -0.62463534 1.6550559 -0.88056785 -0.62316734 1.1013802 0.033099208 -0.3799603
0.15121989 0.8413562 -0.7715604 -1.0707822 -0.89365757 -0.52330995 1.2151221 -0.55825335
1.4554887 0.90800935 0.019437563 -0.5151432 1.346664 -0.3329794 -0.99110436 1.0754112
1.5006266 -0.954825 -0.7232522 0.26054692 0.15551297 0.97916424 -0.52942044 -0.4735969
0.46028247 0.26518834 -0.14438783 0.16471772 0.6199766 -0.5772676 -0.461671 -0.6975148
0.25355902 0.8182805 -0.6201688 -0.36272946 -0.19810495 -0.73689836 -0.81462073 0.7500571
0.3552989 -0.688743 -0.31113985 -0.5826727 -1.6336334 -0.3372669 0.8686128 1.5537683
0.19211012 1.6193888 1.248673 1.2882305 0.6684697 -0.57795084 -1.7348444 0.06560539
0.9084803 -0.5833635 1.3924575 1.0142468 -0.84876496 0.098843284 -0.21679915 -0.032383796
-0.7320646 1.4798445 0.03317329 1.0992001 2.2622921 0.84233665 1.9325268 1.254277
-0.0117509095 1.2940334 -0.35568494 1.3511721 0.9231894 0.41307372 1.7801702 -0.8546816
-0.9516555 -0.083409846 -1.0999187 0.11724511 -0.34037784 1.364374 0.9684019 -0.66744226
-0.92159146 0.030286076 -1.0872849 1.1984432 -1.0791129 1.6720293 -0.7756883 1.0146953
0.52216583 -1.1962273 -0.8664823 1.0657042 0.83726436 -0.10855156 -0.27257314 -1.1964786
-0.31742653 -0.08715481 1.2753961 -0.25318998 -0.035698697 0.17968124 -0.022091907 0.44646886
-0.8356599 0.048127417 -0.50160193 1.2983165 0.620972 1.2282549 -1.1599736 0.80131376
1.3102925 -1.0032254 1.3800051 -0.707576 -1.0422039 1.1252718 -1.9177415 -0.42827818
-0.11097961 0.19886376 -1.1280377 -0.84696877 -0.8824287 -0.47695965 1.243421 -0.9076831
1.2041044 0.8752496 0.6926746 -0.7950704 1.4781159 -0.22574717 -0.7748352 1.2778171
1.3977064 -0.97461635 -0.80099946 0.3707927 0.7557627 -0.56955063 -0.57016134 0.04207911
-0.6861557 -0.02501839 0.09783161 0.067480795 -0.50709176 -0.6517287 -0.4202184 -0.8381093
1.1516562 0.73097956 -0.3631524 -0.18782225 -0.19787323 -0.3733725 -0.39176407 0.95385426
0.13499488 -0.80630434 -0.7217339 -0.7133585 0.12631999 -0.24503861 0.02433425 1.3315266
-0.94744754 1.3853611 -1.1302677 1.494934 0.89282846 -0.4193122 0.70471877 -0.10470558
0.8256984 -0.1678793 1.3382413 1.2426617 -0.6305335 0.22099695 1.3980688 0.097293526
00000000: 8145 0cbe 8c2b c93f 2857 a63f dee1 7d3f
00000010: 342a 5b3f 7d6a 143f 13d4 0440 b7b3 a93f
00000020: 2bf8 393e eba3 b83f 5cb5 bebe 58ee b83f
00000030: cdeb 723f 1cb4 a43e 7447 1040 ac0b 41bf
00000040: e715 8fbf 2bfb 4abc 15da debe 53b7 c5be
00000050: 58d3 92bf 06c8 a93f a6dd 3fbf 4e4f 5dbf
00000060: 1371 86bf 27b2 0e3e 5222 bcbf 331b 8c3f
00000070: dccd 9ebf ccd7 883f 5424 50bf b553 823f
00000080: ff1d 303f c0a1 06be 51b8 30bf c0f3 733f
00000090: 1f35 ac3c 983f ba3e 8b1e 01bd b205 70bf
000000a0: 91b9 e5be d4cf 3bbf 1a3e ba3f 392b 26bf
000000b0: 570f 16bc 3832 583d ebd2 a53e f362 233e
000000c0: f8af 2ebe b662 a2be 1b04 1abf 0ac4 943d
000000d0: 0262 273f f842 8a3f 3cef 76bf 2ef1 473f
000000e0: 46b3 983f 1ae8 1fbf dfd8 d33f e56c 61bf
000000f0: e587 1fbf 07fa 8c3f 0993 073d 288a c2be
00000100: 63d9 1a3e 1f63 573f fb84 45bf 640f 89bf
00000110: bec6 64bf a4f7 05bf 1f89 9b3f b1e9 0ebf
00000120: 744d ba3f 4d73 683f 863b 9f3c 6de0 03bf
00000130: 7c5f ac3f 477c aabe 04b9 7dbf 13a7 893f
00000140: 8814 c03f 696f 74bf 0e27 39bf 6866 853e
00000150: cb3e 1f3e 82aa 7a3f 1988 07bf 4b7b f2be
00000160: 25aa eb3e c4c6 873e 67da 13be c3ab 283e
00000170: c9b6 1e3f cfc7 13bf 2460 ecbe 5490 32bf
00000180: 7dd2 813e d57a 513f 62c3 1ebf adb7 b9be
00000190: 06dc 4abe 5fa5 3cbf fc8a 50bf be03 403f
000001a0: bde9 b53e 7651 30bf b94d 9fbe 0a2a 15bf
000001b0: e61a d1bf 3fae acbe 695d 5e3f e1e1 c63f
000001c0: 84b8 443e 2248 cf3f 84d4 9f3f bde4 a43f
000001d0: d520 2b3f 96f4 13bf 620f debf 1e5c 863d
000001e0: 2a92 683f 4f57 15bf 0c3c b23f d7d2 813f
000001f0: a948 59bf 596e ca3d 9900 5ebe dfa4 04bd
00000200: 9668 3bbf 8b6b bd3f b7e0 073d 97b2 8c3f
00000210: 65c9 1040 60a3 573f 0a5d f73f 268c a03f
00000220: e386 40bc e3a2 a53f 561c b6be 35f3 ac3f
00000230: 2456 6c3f 667e d33e 9edc e33f 6acc 5abf
00000240: b29f 73bf c8d2 aabd 23ca 8cbf 341e f03d
00000250: 0146 aebe cfa3 ae3f 30e9 773f 7fdd 2abf
00000260: 6bed 6bbf 811a f83c 272c 8bbf 9666 993f
00000270: 5f20 8abf 0e05 d63f 8293 46bf 89e1 813f
00000280: a9ac 053f fa1d 99bf c9d1 5dbf ff68 883f
00000290: f556 563f 4850 debd b58e 8bbe 3626 99bf
000002a0: bb85 a2be 397e b2bd 2e40 a33f 1ea2 81be
000002b0: cc38 12bd 5cfe 373e 16fa b4bc 9197 e43e
000002c0: cfed 55bf 4121 453d fc68 00bf 3c2f a63f
000002d0: 05f8 1e3f 7537 9d3f 047a 94bf e622 4d3f
000002e0: aab7 a73f b169 80bf 02a4 b03f b323 35bf
000002f0: f066 85bf e808 903f 8e78 f5bf 4747 dbbe
00000300: 4749 e3bd f1a2 4b3e 8a63 90bf f2d2 58bf
00000310: d9e6 61bf 0e34 f4be 6b28 9f3f eb5d 68bf
00000320: 1820 9a3f 5c10 603f 1f53 313f bc89 4bbf
00000330: e732 bd3f 442a 67be 9a5b 46bf 838f a33f
00000340: 0be8 b23f 7580 79bf 4d0e 4dbf 8ad8 bd3e
00000350: aa79 413f 12ce 11bf 18f6 11bf 255b 2c3d
00000360: e6a7 2fbf 5ef3 ccbc f05b c83d 5f33 8a3d
00000370: c4d0 01bf b1d7 26bf de26 d7be 558e 56bf
00000380: 7869 933f 7a21 3b3f 1def b9be 7a54 40be
00000390: 489f 4abe ae2a bfbe 4d95 c8be cb2f 743f
000003a0: 193c 0a3e f669 4ebf 8ec3 38bf aa9e 36bf
000003b0: 075a 013e 67eb 7abe 9f58 c73c 776f aa3f
000003c0: ec8b 72bf 8353 b13f 9dac 90bf ff59 bf3f
000003d0: 6890 643f 17b0 d6be 7368 343f e16f d6bd
000003e0: f860 533f 8de8 2bbe 7e4b ab3f 8a0f 9f3f
000003f0: a56a 21bf 064d 623e ebf3 b23f d441 c73d

fc3.bias f4 [4]
-0.18026489 -0.22946239 0.28462026 0.36439607
00000000: 5c97 38be 30f8 6abe bfb9 913e 1f92 ba3e

task_embedding.weight f4 [3, 8]
0.3013513 0.11346706 -0.054247394 0.22912177 0.045034956 0.061429877 -0.18670025 0.27929276
0.0920124 -0.06358394 -0.0258447 -0.45005694 -0.08584604 -0.001017508 0.3041672 0.17783953
-0.48356208 0.081463344 0.027094943 0.06404577 0.07269751 -0.36285272 -0.14184767 -0.13151114
00000000: b84a 9a3e 6b61 e83d 8432 5ebd e69e 6a3e
00000010: 9376 383d e59d 7b3d 5a2e 3fbe 76ff 8e3e
00000020: ff70 bc3d 4c38 82bd 44b8 d3bc dd6d e6be
00000030: 0cd0 afbd e75d 85ba cebb 9b3e 911b 363e
00000040: 7395 f7be 41d6 a63d 37f6 dd3c 6e2a 833d
00000050: 6fe2 943d d5c7 b9be 8440 11be dbaa 06be

fc1.weight f4 [256, 16]
-0.12001907 -1.5614688 -0.2999734 0.8576937 0.33271465 0.79772234 0.07615047 0.08718292
0.08019898 0.5146216 0.09519594 0.21118596 0.12338646 -0.45684147 0.008403796 0.041255463
0.2643044 -1.3734415 -0.026877848 -1.6723924 0.33864924 0.120618574 -0.23004994 -0.47139993
0.51440006 -0.38436794 -0.11768176 -0.45094958 -0.8870742 0.8188629 0.1174588 0.22679459
-0.07632418 0.01279339 -1.8283491 0.32536528 -0.07336086 0.009852351 -0.12131531 0.5215341
-0.10898687 0.34812358 -0.15318426 -0.013826214 -0.20333117 0.11636206 0.15010586 -0.073395096
0.89124185 0.12602131 -0.74438727 -1.299413 -0.43550175 0.10302071 0.6127835 -0.65087134
0.08773092 -0.3682728 0.37315747 -0.18384199 -0.08277663 0.35752478 0.93793863 0.14443006
-0.23653033 0.51538485 0.7408546 -0.5285738 -0.7499449 1.1819398 0.28926155 -0.07231044
0.43053833 -0.5946938 -0.32124192 0.36937997 0.06239356 0.09284623 0.82508665 -0.0899023
1.1341909 0.2602715 0.5400252 0.27711615 1.3237939 -0.25113136 -0.5980382 0.6265905
-0.21873322 0.06679656 0.1920577 -0.82463604 -0.23241583 -0.25151342 0.31640682 0.51186615
-0.10679165 -1.6805304 0.49999923 -0.8375838 0.37634566 0.45403135 0.029578626 0.19726531
-0.37254226 -0.7644454 0.55127376 0.16241433 -0.12959507 -0.15666424 -0.06592987 -0.6650508
-0.1396385 -1.664853 0.27373677 -0.5023202 0.44267213 -0.40111485 -0.51325005 -0.03304434
-0.07651118 0.024782067 -0.5444621 -0.5952847 0.2877853 -0.21705446 0.3718887 -0.167213
-1.1569042 0.32644615 0.8573275 0.6646281 0.08369844 -0.0076926593 -1.2851313 0.9865771
-0.79467416 0.27798393 0.40524653 0.82854044 -0.013288159 0.05806328 -0.60600406 -0.096651256
1.471293 0.19288632 1.2904412 0.9305162 0.27392954 0.3935119 -0.24315885 0.117801875
-0.0006606972 -0.5464796 0.055208884 -0.23068522 0.34091175 0.20567623 -0.15856631 0.14339152
-0.8870597 0.27435198 0.10795588 -0.813578 -0.5637564 0.55068076 0.7129264 -0.78153867
0.5470038 -0.98810077 -0.361965 -0.05620439 -0.28743914 0.584942 -0.46039656 -0.29064482
-0.022292143 0.6041756 -0.2226754 -0.519492 0.06926562 -0.36025187 0.75935763 -1.1261046
-0.59087276 -0.18892716 -0.06318468 -0.095862344 0.52167004 -0.14980926 -0.0015510982 0.32438672
0.07489785 -0.4794115 0.100462444 -0.9751024 -1.121549 -0.25485167 -1.8037759 0.0829014
1.0497274 -0.22146958 -0.1472031 0.07215011 -0.3337314 0.71671945 0.07605354 0.77985996
-0.7867055 0.25187552 0.18964925 -1.0354054 0.9827772 0.78045887 0.47795153 0.019392729
0.4363527 0.21408978 0.008021369 1.1466378 -0.19702663 -0.7027663 -0.24003576 0.29691145
-0.09351694 -0.26467216 -0.5724179 -1.7392099 -0.37099582 0.00093924924 0.4258105 0.048661537
0.18891878 -0.1372319 -0.3500176 -0.028834226 -0.22228579 0.5645617 -0.08889755 -0.544822
0.63217366 -1.9282136 -0.62872916 -0.8913708 0.34884134 0.24367316 0.06918978 -0.22784647
-0.017248556 0.04326556 0.026227081 -0.42901185 0.9598634 0.070282616 0.25333494 -0.29267564
00000000: 8fcc f5bd 36de c7bf 1d96 99be d091 5b3f
00000010: 9359 aa3e 8837 4c3f c7f4 9b3d f58c b23d
00000020: 5d3f a43d 3ebe 033f 17f6 c23d 2241 583e
00000030: 0ab2 fc3d 20e7 e9be 13b0 093c 7dfb 283d
00000040: e852 873e eecc afbf ef2e dcbc f410 d6bf
00000050: 6f63 ad3e df06 f73d 3692 6bbe 555b f1be
00000060: b9af 033f e0cb c4be 2203 f1bd dde2 e6be
00000070: 4b17 63bf 00a1 513f 3d8e f03d d73c 683e
00000080: da4f 9cbd 5e9b 513c 5807 eabf 4796 a63e
00000090: 383e 96bd c16b 213c 2974 f8bd 4283 053f
000000a0: 8234 dfbd 413d b23e 56dc 1cbe 5887 62bc
000000b0: 0c36 50be 3b4f ee3d 5ab5 193e 2b50 96bd
000000c0: 6d28 643f bb0b 013e 2a90 3ebf 2a53 a6bf
000000d0: 16fa debe 86fc d23d 61df 1c3f 819f 26bf
000000e0: 45ac b33d 418e bcbe 7f0e bf3e 1341 3cbe
000000f0: cb86 a9bd 7d0d b73e bf1c 703f 79e5 133e
00000100: 0235 72be 43f0 033f a6a8 3d3f 9d50 07bf
00000110: 64fc 3fbf ce49 973f 171a 943e 7f17 94bd
00000120: 856f dc3e da3d 18bf d279 a4be 5f1f bd3e
00000130: 6490 7f3d 2a26 be3d e138 533f b21e b8bd
00000140: 2b2d 913f 4e42 853e 173f 0a3f 2be2 8d3e
00000150: 1472 a93f 4a94 80be 0819 19bf 3c68 203f
00000160: 9afb 5fbe a3cc 883d c6aa 443e 591b 53bf
00000170: 6afe 6dbe 5ec6 80be 1300 a23e a909 033f
00000180: 95b5 dabd 9f1b d7bf e6ff ff3e e46b 56bf
00000190: 61b0 c03e cc76 e83e e04e f23c ebff 493e
000001a0: dcbd bebe b2b2 43bf 4720 0d3f f14f 263e
000001b0: 92b4 04be 976c 20be 3d06 87bd c540 2abf
000001c0: 65fd 0ebe e719 d5bf 3a27 8c3e 0e98 00bf
000001d0: eca5 e23e ed5e cdbe 5b64 03bf 8059 07bd
000001e0: e5b1 9cbd c303 cb3c de61 0bbf 9464 18bf
000001f0: 9858 933e 8643 5ebe 3268 be3e e239 2bbe
00000200: 7015 94bf f323 a73e d179 5b3f 1125 2a3f
00000210: 166a ab3d b412 fcbb 2f7f a4bf 5190 7c3f
00000220: c46f 4bbf e953 8e3e 797c cf3e 3a1b 543f
00000230: 94b6 59bc c3d3 6d3d 1523 1bbf 18f1 c5bd
00000240: 5453 bc3f fe83 453e 2d2d a53f 4f36 6e3f
00000250: 7e40 8c3e 647a c93e a2fe 78be 1c42 f13d
00000260: a332 2dba 16e6 0bbf b622 623d bf38 6cbe
00000270: fc8b ae3e ca9c 523e 355f 22be 3ad5 123e
00000280: 5816 63bf dd77 8c3e f917 dd3d a646 50bf
00000290: 5752 10bf 6af9 0c3f 5882 363f eb12 48bf
000002a0: 7108 0c3f 2cf4 7cbf 7a53 b9be 9336 66bd
000002b0: 392b 93be c2be 153f 19b9 ebbe 66cf 94be
000002c0: 039e b6bc 41ab 1a3f 0505 64be 6dfd 04bf
000002d0: 22db 8d3d ef72 b8be 4365 423f 3224 90bf
000002e0: 7043 17bf 1f76 41be f866 81bd 7a53 c4bd
000002f0: 2b8c 053f 9967 19be 384e cbba 0416 a63e
00000300: 0b64 993d 6d75 f5be 41bf cd3d 50a0 79bf
00000310: eb8e 8fbf eb7b 82be 21e2 e6bf 36c8 a93d
00000320: 785d 863f ecc8 62be 69bc 16be 70c3 933d
00000330: d8de aabe ed7a 373f f5c1 9b3d e7a4 473f
00000340: 8865 49bf d4f5 803e 6a33 423e 2a88 84bf
00000350: 4997 7b3f 27cc 473f 10b6 f43e 80dd 9e3c
00000360: 9f69 df3e 5a3a 5b3e 0f6c 033c 07c5 923f
00000370: 59c1 49be 7ee8 33bf efcb 75be c704 983e
00000380: cf85 bfbd 1c83 87be fb89 12bf 6e9e debf
00000390: 2af3 bdbe f337 763a d503 da3e 5251 473d
000003a0: ed73 413e 8586 0cbe 8235 b3be c135 ecbc
000003b0: e39e 63be 1e87 103f eb0f b6bd 7479 0bbf
000003c0: 22d6 213f b4cf f6bf 65f4 20bf e030 64bf
000003d0: 559b b23e 7585 793e 5fb3 8d3d 9650 69be
000003e0: d84c 8dbc 3a37 313d 2dda d63c 71a7 dbbe
000003f0: 9cb9 753f 55f0 8f3d 1eb5 813e 95d9 95be

fc1.bias f4 [256]
0.12308789 -0.031192753 -0.028186087 -0.45858312 -0.11757431 0.20696847 -0.16370928 0.57534164
-0.22766872 0.06989164 0.07433219 0.22751945 0.12132006 -0.19507922 -0.33627892 -0.024993088
-0.4676647 -0.48888552 -0.48793453 0.35122067 -0.5960794 -0.081211396 0.21609436 -0.044035625
-0.14538012 -0.32010257 -0.1686411 0.1835851 -0.10480329 0.2882068 0.076267265 0.0692516
0.12803842 0.2354163 -0.16024971 -0.3467202 -0.41558063 0.08820578 -0.31571826 0.08132952
-0.031992685 -0.011368944 0.2718481 -0.54358083 0.30420184 -0.17231905 0.12115207 0.29698956
0.11547517 -0.10492739 0.11674973 0.05049406 -0.16828007 -0.02240124 -0.6220306 -0.32071427
0.6641869 0.12277762 -0.21249668 -0.30670014 -0.41290262 -0.1952307 0.44222316 -0.53851724
-0.29832363 0.17133056 -0.12728754 0.25634578 -0.025938205 -0.09455289 -0.6468687 0.18252817
-0.34306762 -0.09247923 0.1954354 -0.7588453 0.007213802 0.08115566 -0.42739788 0.21000956
-0.18325104 -0.46803394 0.036412783 -0.39385244 0.1626445 -0.34745827 0.3798581 0.35518306
0.3640144 0.019441145 -0.06071487 0.12291364 -0.12801956 -0.017422948 0.05359625 -0.03357651
0.3190418 -0.054357864 0.10673468 -0.70710826 -0.23979008 -0.36184958 0.58183604 -0.1653239
0.3230788 -0.06904538 0.0992212 -0.2026911 -0.087923236 -0.22559021 -0.20872639 -0.3488735
-0.23273288 0.06928259 0.34860745 -0.4122147 -0.1637709 0.5494242 0.65969145 0.22013205
-0.3373248 0.0093824025 0.25479934 -0.055801027 0.5458177 -0.24588759 -0.54084426 -0.18969713
0.07356476 -0.24363348 -0.57456636 -0.054242324 -0.24907771 0.33398306 -0.015793407 -0.17844896
-0.044056337 -0.049383085 0.23296325 -0.11821067 0.34425563 0.34894344 -0.26055667 0.061507624
-0.28603062 0.4581843 0.06703353 -0.46837896 0.18636733 0.09017662 -0.056576055 0.41996375
0.0383591 -0.102447316 0.013228982 -0.841953 -0.9784458 -0.28364265 0.43402147 0.18103212
0.17295937 -0.30205247 -0.84566605 0.189146 0.20095767 0.12766166 0.12230238 -0.030368146
-0.07429384 0.32976532 0.35048178 0.27369425 0.22833507 0.1795824 0.3346117 0.059070855
-0.29707476 -0.4333985 0.18549903 -0.388782 -0.7126607 -0.33554575 0.26085186 -0.034465004
-0.34757617 0.22417079 0.13872845 0.33035108 -0.9272743 -0.49469626 -0.23543537 0.06588253
-0.53833467 -0.36462238 0.24163096 -0.4611545 0.126488 -0.032784596 0.5964479 0.09566823
0.081154265 0.23830737 -0.0012481984 -0.29763654 -0.5723253 0.6628832 0.7854521 -0.06118591
-0.07491581 0.050216477 0.5744374 -0.4111387 0.52710354 -0.09950484 -0.53346187 -0.24774756
0.13445222 -0.15352973 -0.3161075 -0.047686562 0.20156974 -0.18840887 0.279668 0.3153654
-0.076393664 -0.52413684 0.0076277363 0.053656526 -0.85729235 0.039571445 -0.38392442 0.020627018
0.14656173 0.0856514 0.057157375 0.0035363 0.16298273 0.1637545 -0.21429281 -0.51629037
-0.090349674 -0.22721462 -0.31050837 0.44328323 -0.33709997 -0.03899621 0.27455348 0.026431121
-0.29446527 -0.20868151 -0.25440305 0.18876114 -0.28336498 -0.33254987 -0.91165084 -0.017446866
00000000: 8115 fc3d f287 ffbc 82e6 e6bc 68cb eabe
00000010: cdca f0bd 8bef 533e 68a3 27be 9749 133f
00000020: fd21 69be 5923 8f3d 7a3b 983d dcfa 683e
00000030: a776 f83d d9c2 47be c02c acbe 4ebe ccbc
00000040: bf71 efbe 344f fabe 8ed2 f9be 32d3 b33e
00000050: a998 18bf 2952 a6bd d747 5d3e b35e 34bd
00000060: 87de 14be 7ce4 a3be 41b0 2cbe bcfd 3b3e
00000070: 1ba3 d6bd d78f 933e 0332 9c3d c8d3 8d3d
00000080: 811c 033e f810 713e 8018 24be 4f85 b1be
00000090: fcc6 d4be 3ba5 b43d d3a5 a1be 1790 a63d
000000a0: c30a 03bd cf44 3abc ad2f 8b3e 1d28 0bbf
000000b0: 58c0 9b3e 6874 30be 941e f83d 040f 983e
000000c0: 3f7e ec3d 2ce4 d6bd 7c1a ef3d dcd2 4e3d
000000d0: 9c51 2cbe ce82 b7bc 663d 1fbf a934 a4be
000000e0: 2708 2a3f d572 fb3d bb98 59be cd07 9dbe
000000f0: f967 d3be 8eea 47be 136b e23e 44dc 09bf
00000100: e0bd 98be 4771 2f3e aa57 02be c13f 833e
00000110: 5c7c d4bc f2a4 c1bd 3099 25bf aae8 3a3e
00000120: 8fa6 afbe c065 bdbd 3820 483e b043 42bf
00000130: c261 ec3b f034 a63d e5d3 dabe bf0c 573e
00000140: 29a6 3bbe 25a2 efbe 9225 153d 07a7 c9be
00000150: 488c 263e 0de6 b1be c37c c23e 8eda b53e
00000160: 1860 ba3e 0943 9f3c 28b0 78bd 26ba fb3d
00000170: 8f17 03be 92ba 8ebc be87 5b3d 8687 09bd
00000180: 7259 a33e 5aa6 5ebd b697 da3d 0c05 35bf
00000190: 888b 75be 5944 b9be 35f3 143f ab4a 29be
000001a0: 966a a53e aa67 8dbd 7c34 cb3d 418e 4fbe
000001b0: 1911 b4bd 1f01 67be 5fbc 55be 8c9f b2be
000001c0: 8751 6ebe 08e4 8d3d ad7c b23e ce0d d3be
000001d0: 8fb3 27be 10a7 0c3f 8ae1 283f 4c6a 613e
000001e0: d6b5 acbe a6b8 193c 0f75 823e 9e8f 64bd
000001f0: b5ba 0b3f f5c9 7bbe c574 0abf f73f 42be
00000200: 1fa9 963d 0e7b 79be c816 13bf 332d 5ebd
00000210: 3a0e 7fbe d4ff aa3e 2d61 81bc 53bb 36be
00000220: 6b74 34bd eb45 4abd eb8d 6e3e 7018 f2bd
00000230: 4642 b03e b7a8 b23e af67 85be 6bef 7b3d
00000240: 9b72 92be 2297 ea3e e048 893d 5ecf efbe
00000250: 14d7 3e3e 85ae b83d 4bbc 67bd 7d05 d73e
00000260: 6f1e 1d3d e6cf d1bd 5fbe 583c 3b8a 57bf
00000270: 6d7b 7abf 9c39 91be 1038 de3e 7c60 393e
00000280: 431c 313e 9fa6 9abe 927d 58bf 7daf 413e
00000290: d9c7 4d3e bdb9 023e ac79 fa3d 9ec6 f8bc
000002a0: 5e27 98bd 00d7 a83e 5972 b33e a721 8c3e
000002b0: abd0 693e 73e4 373e 3a52 ab3e 48f4 713d
000002c0: 2f1a 98be 68e6 ddbe 75f3 3d3e 6f0e c7be
000002d0: ee70 36bf a7cc abbe 608e 853e 2d2b 0dbd
000002e0: 81f5 b1be 078d 653e d50e 0e3e c723 a93e
000002f0: d961 6dbf d448 fdbe f815 71be 6bed 863d
00000300: 4dd0 09bf c9af babe 1b6e 773e 711c ecbe
00000310: 1286 013e 2449 06bd cfb0 183f b4ed c33d
00000320: 3534 a63d d906 743e 979a a3ba d163 98be
00000330: e983 12bf b7b2 293f 6413 493f 149e 7abd
00000340: 766d 99bd cbaf 4d3d 540e 133f c680 d2be
00000350: 42f0 063f 32c9 cbbd f590 08bf 89b1 7dbe
00000360: d8ad 093e e636 1dbe d8d8 a1be fc52 43bd
00000370: 4c68 4e3e 41ee 40be a530 8f3e 9377 a13e
00000380: 4874 9cbd d52d 06bf 17f2 f93b f2c6 5b3d
00000390: 8377 5bbf ab15 223d be91 c4be fef9 a83c
000003a0: 4714 163e 006a af3d da1d 6a3d 45c1 673b
000003b0: f2e4 263e 42af 273e 936f 5bbe 9b2b 04bf
000003c0: 4009 b9bd f3aa 68be f4fa 9ebe 05f6 e23e
000003d0: 5e98 acbe 7dba 1fbd 4692 8c3e 1486 d83c
000003e0: 27c4 96be 9bb0 55be 1e41 82be 9a4a 413e
000003f0: 3715 91be fa43 aabe f361 69bf bbec 8ebc

fc2.weight f4 [128, 256]
-0.3583454 0.40595073 0.22040612 0.35113493 0.23610528 0.10732854 0.3713215 0.43219113
0.28244638 -0.13621646 -0.15468743 0.016193906 0.32014418 0.20651293 -0.077190146 0.7183429
-0.6902907 0.111158095 0.45876026 0.46241635 0.42272887 0.20071281 -0.6129587 -0.07895612
0.40341344 -0.9419704 -1.0511725 -1.006008 -0.43617213 -1.1377188 1.0487324 -1.4530877
-0.038968433 0.25408846 -0.3223153 0.65639275 -0.91113305 -0.36822996 0.27322972 0.12596346
0.0476515 0.27012864 -0.84873813 0.527573 0.2251016 -0.018561076 -0.45973605 -0.16549475
0.10052879 0.28249478 0.47556853 0.28370786 0.6332664 0.60022026 -0.8632928 0.5395762
-0.6086681 -0.7037594 -0.32703534 -0.039005686 -0.251774 1.0046446 0.2701365 0.53132504
0.12564151 0.11888863 -1.7111777 1.004429 0.12297338 -0.08221966 0.51045877 0.23966353
0.6265213 0.15716006 -0.111905955 -0.033917796 -1.2314091 0.43363273 0.04238677 -0.474214
1.2972691 -0.0024915521 -0.18007392 0.24763574 -0.05826279 -0.6966243 -0.09819154 -0.06280281
-0.0017461983 -0.50507766 0.1684444 0.49490482 0.26118192 -0.41401806 -0.43454766 -0.38903883
-0.0074400883 0.59841776 -0.79318595 -1.7706298 0.78988755 0.5610837 -0.07974251 0.12707941
-1.0099677 -0.9758125 0.003409042 -0.67838395 0.5823582 0.41600588 0.3512406 0.28240576
0.22397801 0.529993 -0.34177732 0.008192906 0.2741858 -0.7566051 0.051651493 0.2910289
0.12551016 0.2646141 0.44368446 -0.82058877 -0.6962315 -0.24754508 0.3622619 -0.09517647
0.14323647 0.2558186 -0.80455256 0.5204782 0.20380533 0.024566498 0.18079461 0.093066804
1.2254974 0.253307 -0.14827643 -0.37426338 0.61288947 -0.17083558 -0.14247309 -0.15319611
2.3983972 -0.5143246 -1.2899477 -0.66912633 1.1193362 0.5804036 0.09006901 -0.057042487
0.09287476 -1.145007 0.21424489 -0.27146477 -0.3726321 -0.2139746 -1.2444657 0.4569094
-0.04729536 0.11624537 0.38985083 -0.16870672 -0.6291358 0.6939581 1.1138815 0.18164524
-0.12173291 0.5656079 0.7336278 0.31629366 -0.077468686 0.10892279 -1.451605 -0.3796886
-1.0448757 -0.40748137 -0.30047846 -0.10234152 -0.15648864 -0.024263747 -0.314497 -0.42168114
-1.0311186 0.12695268 -0.4999844 -0.3612595 -2.6194434 0.64349055 0.5963548 -1.482478
0.13222343 0.2479359 0.19761303 0.43900943 -0.3373664 0.081637785 -0.25018194 -2.5199862
-0.791605 -0.5435563 -0.0977328 -0.033592645 0.05759822 -0.9254563 -0.61350626 0.26035148
0.03137097 -0.0039588194 -0.98670214 0.1330307 -0.39683658 -0.04508823 -0.82756776 -0.19585404
0.24679329 -0.9406952 0.35779956 0.3478719 0.47670564 -0.09176104 -0.79428804 0.04060031
0.08748083 -0.5530353 0.4750514 0.06429204 -0.5840213 0.058651686 -0.4072273 0.27763742
0.02972066 -0.8224164 0.78818315 -0.07226817 0.35063723 0.054079477 -0.22452 0.06693767
0.20947996 -1.3906693 -0.015136818 -0.2588294 -0.61752284 -0.6718649 0.6158646 0.19950084
0.23171303 0.53586745 -0.90309113 0.17773561 0.18536356 0.70561385 1.0445422 0.6433045
00000000: 0c79 b7be c6d8 cf3e 24b2 613e f5c7 b33e
00000010: 95c5 713e 11cf db3d da1d be3e 2848 dd3e
00000020: d09c 903e 547c 0bbe 6266 1ebe 15a9 843c
00000030: f0e9 a33e 2078 533e de15 9ebd 52e5 373f
00000040: e4b6 30bf dba6 e33d a0e2 ea3e d6c1 ec3e
00000050: eb6f d83e a987 4d3e ddea 1cbf bfb3 a1bd
00000060: 358c ce3e f924 71bf d28c 86bf dfc4 80bf
00000070: f451 dfbe c5a0 91bf dd3c 863f c7fe b9bf
00000080: 5d9d 1fbd e217 823e 8306 a5be 5b09 283f
00000090: 0440 69bf a388 bcbe c4e4 8b3e 91fc 003e
000000a0: 382e 433d 4d4e 8a3e e746 59bf 060f 073f
000000b0: 0981 663e 660d 98bc 8662 ebbe 7577 29be
000000c0: 0ae2 cd3d 28a3 903e b87d f33e 2842 913e
000000d0: bf1d 223f 09a8 193f c200 5dbf aa21 0a3f
000000e0: acd1 1bbf 9329 34bf 2d71 a7be 6dc4 1fbd
000000f0: 86e8 80be 3298 803f 554f 8a3e eb04 083f
00000100: 2ba8 003e e27b f33d df07 dbbf 2191 803f
00000110: 78d9 fb3d c862 a8bd 6dad 023f 5b6a 753e
00000120: b363 203f 91ee 203e f32e e5bd 63ed 0abd
00000130: d09e 9dbf 1c05 de3e c09d 2d3d 2dcc f2be
00000140: ea0c a63f 4f49 23bb 4c65 38be 3994 7d3e
00000150: f7a4 6ebd f855 32bf a518 c9bd c29e 80bd
00000160: b1e0 e4ba c54c 01bf b07c 2c3e 2a64 fd3e
00000170: a3b9 853e 2dfa d3be 087d debe 1930 c7be
00000180: fccb f3bb e831 193f 3c0e 4bbf ffa3 e2bf
00000190: 1236 4a3f 2ea3 0f3f 0b50 a3bd 1b21 023e
000001a0: 9f46 81bf d9ce 79bf 3c6a 5f3b 92aa 2dbf
000001b0: 6d15 153f b9fe d43e cfd5 b33e 7d97 903e
000001c0: 7e5a 653e 9fad 073f 70fd aebe 8a3b 063c
000001d0: 1562 8c3e dfb0 41bf 8490 533d bd01 953e
000001e0: bc85 003e 807b 873e 9c2a e33e 1b12 52bf
000001f0: 3a3c 32bf 757c 7dbe 647a b93e e2eb c2bd
00000200: 95ac 123e a8fa 823e 28f7 4dbf 0f3e 053f
00000210: 58b2 503e ae3f c93c 3922 393e cf99 be3d
00000220: 19dd 9c3f 75b1 813e c7d5 17be 739f bfbe
00000230: 53e6 1c3f 86ef 2ebe 77e4 11be 71df 1cbe
00000240: 577f 1940 c7aa 03bf 021d a5bf dd4b 2bbf
00000250: 6946 8f3f 5595 143f 1a76 b83d 62a5 69bd
00000260: 1f35 be3d 978f 92bf 0363 5b3e 6efd 8abe
00000270: a2c9 bebe 281c 5bbe a74a 9fbf 07f0 e93e
00000280: c8b8 41bd 0d12 ee3d 879a c73e 74c1 2cbe
00000290: 0b0f 21bf 3da7 313f ab93 8e3f 3601 3a3e
000002a0: 1b4f f9bd aecb 103f 08cf 3b3f 3ef1 a13e
000002b0: e7a7 9ebd e912 df3d 31ce b9bf 8b66 c2be
000002c0: 7dbe 85bf 66a1 d0be 50d8 99be 6e98 d1bd
000002d0: 8f3e 20be c4c4 c6bc c005 a1be 97e6 d7be
000002e0: b2fb 83bf e2ff 013e f5fd ffbe 01f7 b8be
000002f0: f6a4 27c0 ccbb 243f b5aa 183f d7c1 bdbf
00000300: 9465 073e e9e2 7d3e 125b 4a3e d8c5 e03e
00000310: 4abb acbe b631 a73d d917 80be 7447 21c0
00000320: a0a6 4abf 8126 0bbf 2228 c8bd 7198 09bd
00000330: 1cec 6b3d b4ea 6cbf bf0e 1dbf ca4c 853e
00000340: d97e 003d fcb8 81bb 8398 7cbf 3339 083e
00000350: 2a2e cbbe 70ae 38bd 7bdb 53bf f68d 48be
00000360: 61b7 7c3e 67d1 70bf 8131 b73e 441c b23e
00000370: c312 f43e 36ed bbbd 7656 4bbf 834c 263d
00000380: 2629 b33d b993 0dbf f039 f33e 8cab 833d
00000390: 6b82 15bf c03c 703d 1980 d0be 7e26 8e3e
000003a0: be78 f33c e289 52bf 5fc6 493f 5601 94bd
000003b0: b986 b33e 7182 5d3d 92e8 65be 9e16 893d
000003c0: ea81 563e 7401 b2bf 6b00 78bc 4a85 84be
000003d0: fa15 1ebf 57ff 2bbf 4da9 1d3f f349 4c3e
000003e0: 2e46 6d3e 9c2e 093f fb30 67bf 5300 363e
000003f0: f2cf 3d3e 1ca3 343f 8fb3 853f 9baf 243f

fc2.bias f4 [128]
-0.18265806 0.41142386 -0.22878814 0.17837383 -0.5260007 0.036036205 -0.27004942 0.14772217
-0.10348442 -0.06566551 -0.09170245 0.37791198 0.31459522 0.11929461 -0.3156079 -0.067447044
-0.2504042 -0.03175707 0.17190458 -0.22459373 -0.5270689 0.23743509 -0.14449108 0.11209736
-0.47549817 -0.034705304 0.35881048 -0.34485725 -0.12713839 -0.70486236 0.34777614 0.3665853
-0.33124623 -0.11823939 -0.23744966 0.5030674 -0.40558353 0.039422475 0.1701542 -0.14151853
-0.14578296 0.38525617 0.08003727 0.08521129 -0.04205411 -0.036021527 0.31514367 -0.4565456
-0.19354366 0.15722978 0.079300456 -0.012638326 0.19916055 0.25971043 0.551246 0.094066784
0.21132648 -0.20879304 0.20283781 0.50819737 0.027608285 0.7952179 0.09651615 -0.1828578
0.28050718 -0.39834413 0.13326275 0.24568535 -0.019813554 0.039665997 0.38656342 0.26591638
0.3889826 -0.2743004 0.09022679 0.09783923 0.07902002 0.04987985 -0.13916561 -0.08903343
0.342077 -0.21951455 0.5071345 0.0047341245 -0.54537433 -0.22654863 0.15385327 0.0625989
0.023729369 -0.025886197 -0.042823303 -0.040053315 0.09590841 0.4067156 0.090143345 0.4050301
-0.6443749 -0.048610844 0.057282988 0.38781714 -0.04996871 0.2865217 0.07657222 0.6323283
-0.057983655 0.19758222 -0.23709787 -0.19360806 0.07238387 -0.5065334 0.0055968636 0.38872784
-0.1906913 -0.001355556 -0.33686537 0.12568453 0.15137942 -0.16708781 -0.39445218 -0.04439756
0.1380388 -0.18732803 0.04665955 -0.21136962 -0.16956767 -0.043759104 -0.13214323 -0.019810474
00000000: b70a 3bbe 26a6 d23e 7047 6abe a1a7 363e
00000010: fba7 06bf b39a 133d eb43 8abe 7b44 173e
00000020: a4ef d3bd a47b 86bd 7ece bbbd ae7d c13e
00000030: a012 a13e bc50 f43d 5c97 a1be ad21 8abd
00000040: fb34 80be b413 02bd c107 303e e6fb 65be
00000050: fded 06bf 2f22 733e 78f5 13be 4d93 e53d
00000060: 7f74 f3be 2627 0ebd 02b6 b73e 2191 b0be
00000070: 9130 02be dc71 34bf b70f b23e 12b1 bb3e
00000080: 1b99 a9be 7e27 f2bd 0126 73be 06c9 003f
00000090: a5a8 cfbe 7679 213d e73c 2e3e 3cea 10be
000000a0: 2148 15be 4c40 c53e 95ea a33d 4283 ae3d
000000b0: ee40 2cbd 4f8b 13bd 835a a13e 58c0 e9be
000000c0: 4f30 46be d800 213e 4768 a23d fb10 4fbc
000000d0: bef0 4b3e c4f8 843e 751e 0d3f 16a6 c03d
000000e0: f865 583e d8cd 55be b7b4 4f3e 3919 023f
000000f0: c52a e23c 6693 4b3f 42aa c53d 133f 3bbe
00000100: a39e 8f3e c3f3 cbbe 0876 083e f194 7b3e
00000110: 0950 a2bc d078 223d a4eb c53e 3126 883e
00000120: ba28 c73e 1a71 8cbe d3c8 b83d ef5f c83d
00000130: 40d5 a13d d04e 4c3d 6e81 0ebe 2957 b6bd
00000140: b724 af3e 6cc8 60be 91d3 013f b720 9b3b
00000150: a79d 0bbf 5dfc 67be b68b 1d3e da33 803d
00000160: 1864 c23c 4a0f d4bc 7d67 2fbd f20e 24bd
00000170: a16b c43d 073d d03e 139d b83d 1b60 cf3e
00000180: c1f5 24bf 2a1c 47bd 91a1 6a3d f88f c63e
00000190: fdab 4cbd f9b2 923e e5d1 9c3d 44e0 213f
000001a0: 4580 6dbd fe52 4a3e c9c9 72be 3141 46be
000001b0: ff3d 943d 2cac 01bf e565 b73b 5607 c73e
000001c0: 9544 43be e9ac b1ba 9e79 acbe 72b3 003e
000001d0: 3503 1b3e 1119 2bbe a3f5 c9be 37da 35bd
000001e0: 0b5a 0d3e ebd2 3fbe 161e 3f3d 4771 58be
000001f0: 26a3 2dbe bf3c 33bd 8e50 07be 9349 a2bc
