results/shared_dqn/models/checkpoint_ep1100.pth (torch, 615283 bytes, 28 tensors)

task_embedding.weight f4 [3, 8]
0	0x3e97ec51	0.29672483
1	0x3dcfe2bd	0.10150669
2	0xbcf0f393	-0.02941302
3	0x3e5dcd69	0.21660389
4	0x3d356c5b	0.04429279
5	0x3d70cd98	0.05878982
6	0xbe3fc572	-0.18727663
7	0x3e894c7b	0.26816162
8	0x3da2d1fe	0.07950209
9	0xbd9fbfbb	-0.078002416
10	0xbab196c4	-0.001354896
11	0xbee077e7	-0.43841478
12	0xbd8f3f9c	-0.069945544
13	0xbcc8ddc6	-0.024519812
14	0x3e98ce31	0.29844812
15	0x3e23d85b	0.16000502
16	0xbef47d35	-0.47751775
17	0x3dd4e133	0.10394516
18	0x3d17ea8c	0.037088916
19	0x3da42266	0.080143735
20	0x3db56f09	0.08859069
21	0xbeb39ec8	-0.35082078
22	0xbdfe1081	-0.124054916
23	0xbe35f0b2	-0.17767599

fc1.weight f4 [256, 16]
0	0xbe0585e8	-0.13039362
1	0xbf89e0ad	-1.0771691
2	0xbe9fb366	-0.31191558
3	0x3f67e891	0.90589243
4	0x3ea3e270	0.32008696
5	0x3ef8339d	0.48476878
6	0x3d87079e	0.0659325
7	0x3e8037f8	0.250427
8	0x3cf2df3b	0.02964746
9	0x3ec35582	0.38151175
10	0x3e310b07	0.17289363
11	0x3db9cb5b	0.0907199
12	0x3d175a58	0.036951393
13	0xbef77403	-0.48330697
14	0x3e0307d2	0.12795952
15	0xbc641daf	-0.013923093
16	0x3e556093	0.20837621
17	0xbfa79750	-1.3093052
18	0xbde5da16	-0.11223237
19	0xbfcfca51	-1.6233617
20	0x3f268456	0.6504568
21	0x3ea1841a	0.31546098
22	0xbe607960	-0.21921301
23	0xbeadba7c	-0.3393134
24	0x3ef2960c	0.47380102
25	0xbee08660	-0.4385252
26	0xbe47778f	-0.19479202
27	0xbef6c4a7	-0.4819691
28	0xbf703641	-0.93832785
29	0x3f5a3dba	0.8525044
30	0x3e19ff54	0.15038806
31	0x3e33594e	0.17514536
32	0xbd862771	-0.065504916
33	0xbd17c273	-0.037050676
34	0xbfe83cc0	-1.814354
35	0x3e692be1	0.22770645
36	0x3d05697b	0.032571297
37	0x3d1a908e	0.037735514
38	0xbd0c9dfc	-0.034330353
39	0x3eeef26d	0.4666933
40	0xbde95c7c	-0.11394593
41	0x3eaadd88	0.3337214
42	0xbe225747	-0.15853606
43	0xbd401127	-0.046891358
44	0xbe670053	-0.22558717
45	0x3dce82eb	0.10083564
46	0x3e2d4c96	0.16923746
47	0xbd915eb4	-0.07098141
48	0x3f377b72	0.7167274
49	0xbd36d7e5	-0.044639487
50	0xbf495a50	-0.7865343
51	0xbfaf168a	-1.3678753
52	0xbee6151f	-0.4493799
53	0xbc4469e5	-0.011988138
54	0x3f2bf57c	0.67171454
55	0xbf1c6319	-0.6108871
56	0x3e20490c	0.15652865
57	0xbeb57a98	-0.35445094
58	0x3e879707	0.26482412
59	0xbe31d646	-0.17366895
60	0xbdcc7911	-0.09984029
61	0x3eddfdfc	0.43357837
62	0x3f702b7f	0.9381637
63	0x3e533d4a	0.20628849
64	0xbe6c4cbc	-0.23076147
65	0x3efbb821	0.49163917
66	0x3f4d0e34	0.800998
67	0xbf169b97	-0.5883116
68	0xbeda0e26	-0.4258892
69	0x3fa14d49	1.260171
70	0x3eacc374	0.3374287
71	0xbdd76f5b	-0.10519286
72	0x3ec60808	0.38678002
73	0xbf010876	-0.50403535
74	0xbe85939a	-0.26089174
75	0x3ee52f6d	0.44762745
76	0x3e3afa91	0.18259646
77	0x3ce182cc	0.02752819
78	0x3f397e8e	0.7245873
79	0xbddf3613	-0.10898986
80	0x3f386006	0.7202152
81	0x3e946ee2	0.28990847
82	0x3e8b824b	0.27247843
83	0x3e221877	0.15829645
84	0x3fb79c61	1.4344598
85	0xbddbde63	-0.10735776
86	0xbf292eda	-0.66087115
87	0x3f0e6494	0.5562222
88	0xbe442c88	-0.19157612
89	0x3d2cdc59	0.042202327
90	0x3e3e225f	0.18567799
91	0xbf578528	-0.84187555
92	0xbe79b3f4	-0.24385053
93	0xbe6f9dc0	-0.2340002
94	0x3ea38dc4	0.31944096
95	0x3f1350e3	0.575453
96	0xbde772c6	-0.11301188
97	0xbf882171	-1.0635206
98	0x3f17e391	0.59331614
99	0xbf46f2c3	-0.77714175
100	0x3ebb5a6b	0.3659242
101	0x3f02a1ec	0.51028323
102	0x3e00789e	0.12546012
103	0x3e76ce6e	0.24102184
104	0xbe41ec1f	-0.1893773
105	0xbf493949	-0.78603035
106	0x3ed024b0	0.4065299
107	0x3e665c89	0.22496237
108	0xbe1255fa	-0.1429061
109	0xbc893107	-0.01674701
110	0xbde2dff7	-0.11077874
111	0xbef73d76	-0.48289078
112	0xbec879f3	-0.3915554
113	0xc0039efe	-2.056579
114	0x3e5fd2c3	0.21857743
115	0xbee3b099	-0.4447067
116	0x3ed510dc	0.41614425
117	0xbf2131b0	-0.6296644
118	0xbe7a0273	-0.24414997
119	0x3d592c61	0.05302084
120	0xbe4fea16	-0.2030414
121	0x3c908d85	0.017645607
122	0xbebd7680	-0.3700447
123	0xbf15b7e9	-0.5848375
124	0x3e9d4e00	0.30723572
125	0xbe9150d9	-0.28381994
126	0x3ec108ae	0.37701935
127	0xbeaf3c0a	-0.34225494
128	0xbf63c299	-0.8896881
129	0x3e8e65bb	0.2781199
130	0x3f4587f6	0.77160585
131	0x3ef437c3	0.47698793
132	0x3eae2d5d	0.34018984
133	0x3d14bfcb	0.03631572
134	0xbf9f36bb	-1.2438577
135	0x3f877f11	1.0585653
136	0xbf44a95a	-0.7682091
137	0x3e9f10fd	0.3106765
138	0x3ee93e4d	0.45555344
139	0x3f74038c	0.9531791
140	0x3d85eaa8	0.06538898
141	0x3d8b10c0	0.06790304
142	0xbf33c443	-0.70221347
143	0xbda93a91	-0.08263124
144	0x3fb1f23d	1.390205
145	0x3dd0a258	0.101872146
146	0x3f949276	1.1607196
147	0x3f55c212	0.8349925
148	0x3e03a984	0.12857634
149	0x3e73a015	0.23791535
150	0xbe5aeae5	-0.21378668
151	0x3e0c8528	0.1372267
152	0xbdc28d48	-0.094996035
153	0xbee7eed1	-0.4529939
154	0x3dadcf4b	0.084868036
155	0xbe3e5310	-0.18586373
156	0x3ed1ee0d	0.4100193
157	0x3dc72234	0.097233206
158	0xbe60ed60	-0.21965551
159	0x3ddeb581	0.10874463
160	0xbf4f20ad	-0.80909234
161	0x3e91c864	0.28473198
162	0x3d7f1fc7	0.062286165
163	0xbf5a84c9	-0.85358864
164	0xbf2b4cdf	-0.6691417
165	0x3f084819	0.5323501
166	0x3ed2f184	0.41199887
167	0xbf903f56	-1.1269329
168	0x3f0bf55b	0.5467126
169	0xbf693716	-0.9109968
170	0xbed726e3	-0.42021856
171	0x3beb2f86	0.007177296
172	0xbe5860ae	-0.2113063
173	0x3f173d9a	0.5907837
174	0xbf07488d	-0.5284508
175	0xbe93a3e2	-0.2883597
176	0xbdf99aaa	-0.12187703
177	0x3f1a8b8f	0.603692
178	0xbe76a21b	-0.24085276
179	0xbeea5152	-0.45765167
180	0x3dd1af40	0.102385044
181	0xbe99ec01	-0.3006287
182	0x3f51b26b	0.8191287
183	0xbf90411a	-1.1269867
184	0xbef6a14f	-0.48169944
185	0xbe6042bd	-0.21900459
186	0xbe2e25fd	-0.17006679
187	0xbdfad553	-0.122477196
188	0x3ee66f54	0.45006812
189	0xbd682dd9	-0.05668435
190	0x3cf1711e	0.029472884
191	0x3ed38557	0.41312668
192	0xb9bcb92c	-0.00035996118
193	0xbf0b05c4	-0.5430567
194	0x3e09cd8b	0.13457315
195	0xbf730f5e	-0.94945323
196	0xbfa5420b	-1.291078
197	0xbeb6df41	-0.35717204
198	0xbfbed435	-1.490851
199	0x3dcd609b	0.10028192
200	0x3f64b019	0.89331204
201	0xbe8ed9af	-0.27900454
202	0xbdaba244	-0.08380559
203	0x3d761ae4	0.06008424
204	0xbebb9f53	-0.36644992
205	0x3f02e01b	0.5112321
206	0x3dbcd56c	0.092203945
207	0x3f348030	0.705081
208	0xbf2f9c4d	-0.6859787
209	0x3e56450c	0.20924777
210	0x3d3c2699	0.045935247
211	0xbf848c7a	-1.035537
212	0x3f8a9c50	1.0828953
213	0x3f0ae2de	0.5425242
214	0x3ecab23b	0.39589104
215	0x3dce01ca	0.10058935
216	0x3eedf838	0.46478438
217	0x3e32bccb	0.17454831
218	0xbb1dd02a	-0.0024080374
219	0x3f8af8b0	1.0857143
220	0xbe7211c3	-0.23639588
221	0xbf2e4e8f	-0.6808862
222	0xbe4afb24	-0.19822365
223	0x3ea81a0d	0.32832375
224	0xbe3d8ef2	-0.1851156
225	0xbeaa8c8a	-0.33310348
226	0xbedcbbe3	-0.43112096
227	0xbfdacaf0	-1.7093182
228	0xbf029342	-0.5100595
229	0xbcaffefe	-0.021483894
230	0x3ee7c49d	0.45267192
231	0x3d3515da	0.044210292
232	0x3e43a555	0.19106038
233	0xbddad971	-0.10686005
234	0xbeb1d936	-0.3473603
235	0xbcc5dc6b	-0.024152955
236	0xbe52e477	-0.20594965
237	0x3f140d99	0.5783325
238	0xbdcc069e	-0.099622
239	0xbf0c3850	-0.54773426
240	0x3efccb4b	0.4937385
241	0xbfee0917	-1.8596524
242	0xbe8a5a95	-0.27022234
243	0xbf4e9d28	-0.8070855
244	0x3e7e7770	0.2485025
245	0xbd5821ba	-0.05276654
246	0x3e2c8179	0.16846265
247	0xbdec3db0	-0.115352035
248	0xbd02f325	-0.031970162
249	0x3e4ca9e5	0.19986685
250	0x3caa7c5e	0.020811256
251	0xbe9e838e	-0.30959743
252	0x3f8f0921	1.1174661
253	0x3d2f5770	0.042807996
254	0x3dfcb464	0.12339094
255	0xbea3060b	-0.31840548

fc1.bias f4 [256]
0	0x3dba9dfa	0.09112163
1	0xbd96f8e6	-0.07371692
2	0xbc6ab7b0	-0.014326021
3	0xbeeef8ef	-0.46674296
4	0xbd924d36	-0.07143633
5	0x3e70374b	0.23458593
6	0xbe480474	-0.19532949
7	0x3f00fe13	0.50387686
8	0xbe68c5e3	-0.22731738
9	0x3e240f94	0.16021568
10	0x3dd92a46	0.10603766
11	0x3e5316b2	0.20614126
12	0x3db75572	0.08951844
13	0xbe58ca64	-0.21170956
14	0xbea87daa	-0.32908374
15	0xbcb3b8ee	-0.021938767
16	0xbef1df6d	-0.47240773
17	0xbeac5628	-0.33659482
18	0xbedf4b9c	-0.43612373
19	0x3e0fd506	0.14046106
20	0xbeb93a59	-0.36177328
21	0xbd913f56	-0.070921585
22	0x3e435dc0	0.19078732
23	0xb9c4c5d3	-0.00037531424
24	0xbea11abc	-0.3146571
25	0xbe47d573	-0.19515018
26	0xbe0e161d	-0.13875623
27	0x3e27f1a6	0.16400775
28	0xbd6816cb	-0.056662362
29	0x3e5f25b9	0.21791734
30	0x3e183f53	0.14867906
31	0x3de38df1	0.111110575
32	0x3df9425f	0.121708624
33	0x3e82e67a	0.25566465
34	0xbe3a49e1	-0.18192245
35	0xbed25ec4	-0.41087925
36	0xbebb97bd	-0.36639205
37	0x3da8e144	0.08246091
38	0xbe57deea	-0.21081129
39	0xbc52d732	-0.012868689
40	0x3ace6560	0.0015746765
41	0x3c14a069	0.009071448
42	0x3e6c18ed	0.23056383
43	0xbf1d8a2a	-0.61538947
44	0x3eaafab1	0.33394387
45	0xbe5247a3	-0.2053514
46	0x3e16b0e9	0.14715923
47	0x3e5ee16a	0.21765676
48	0x3db98df3	0.09060278
49	0xbda73c0a	-0.081657484
50	0x3d5e5f3c	0.05429004
51	0xbd013230	-0.031542003
52	0xbde7e2a3	-0.113225244
53	0xbe00738b	-0.12544076
54	0xbebeb929	-0.3725064
55	0xbe33dc88	-0.17564595
56	0x3f2611e8	0.6487107
57	0x3db2b9ab	0.087268196
58	0xbe8dabec	-0.27670228
59	0xbe6c0cf0	-0.2305181
60	0xbecb6a49	-0.39729527
61	0xbe390924	-0.18069893
62	0x3ef4450e	0.47708935
63	0xbf040500	-0.5157013
64	0xbea5d41f	-0.32388398
65	0x3d7b7764	0.061393157
66	0xbdbc1e5d	-0.09185479
67	0x3e85889b	0.26080784
68	0xbc4b638e	-0.012413872
69	0xbe17f1a3	-0.14838271
70	0xbf17bc71	-0.59271914
71	0x3e3917e3	0.18075518
72	0xbeb5e056	-0.35522717
73	0xbe5159d9	-0.2044443
74	0x3e482c72	0.19548205
75	0xbf572952	-0.84047425
76	0x3da86895	0.082230724
77	0x3dcbe094	0.09954944
78	0xbed26476	-0.4109227
79	0x3e878cc5	0.26474586
80	0xbd9d3dea	-0.07677825
81	0xbf08bafa	-0.53410304
82	0xbc26d8de	-0.010183541
83	0xbed6dfa1	-0.4196749
84	0x3e4c2b3d	0.19938369
85	0xbeb14181	-0.34620288
86	0x3e92e220	0.28688145
87	0x3e858e54	0.2608515
88	0x3ea7e2cd	0.32790223
89	0x3d7f7888	0.062370807
90	0xbd20c3b6	-0.039249144
91	0x3df91d9c	0.12163851
92	0xbe314ce8	-0.17314494
93	0xbd93b19a	-0.07211609
94	0x3d9bc842	0.076065555
95	0xbded5bcb	-0.11589774
96	0x3eabe4e4	0.33573067
97	0x3ccce41d	0.025011117
98	0x3d27c6a3	0.04096092
99	0xbf2850a9	-0.6574808
100	0xbe53836b	-0.206556
101	0xbe9eb914	-0.31000578
102	0x3f1a7015	0.60327274
103	0xbdbaab4a	-0.09114702
104	0x3e98e981	0.2986565
105	0xbdc2cefc	-0.095121354
106	0x3ce2daa3	0.027692145
107	0xbe48a022	-0.19592336
108	0xbdfecf7d	-0.12441919
109	0xbe537bbe	-0.20652673
110	0xbe3257f4	-0.17416364
111	0xbeb1219c	-0.34595954
112	0xbe53ae76	-0.2067202
113	0x3cd01402	0.025400165
114	0x3eaefa56	0.34175366
115	0xbe875d4a	-0.2643836
116	0xbe3c8a42	-0.18412116
117	0x3f1c8917	0.6114668
118	0x3f1dac22	0.6159078
119	0x3ea60bbf	0.32430837
120	0xbe9ce82a	-0.30645877
121	0xbd83ce68	-0.06435853
122	0x3eb321cd	0.34986725
123	0xbd97ab8a	-0.07405765
124	0x3f0c3eca	0.5478331
125	0xbe5a2961	-0.21304847
126	0xbf0721df	-0.5278606
127	0xbe459fc6	-0.1929923
128	0x3ca0d83d	0.01963436
129	0xbe16ee62	-0.14739373
130	0xbeeba57e	-0.46024698
131	0x3ce39a01	0.027783396
132	0xbe5ff06c	-0.21869057
133	0x3e61f61e	0.22066543
134	0xbc032f0f	-0.008006825
135	0xbe239d93	-0.15978079
136	0xbbe2f1ae	-0.006925783
137	0xbd21179b	-0.039329153
138	0x3e8de7d2	0.27715927
139	0x39c20d14	0.00037012307
140	0x3e90c6d5	0.28276697
141	0x3e9b728f	0.3036084
142	0xbe8095e0	-0.25114346
143	0x3df0c85a	0.11756964
144	0xbe7a21f3	-0.24427013
145	0x3eec8c55	0.46200815
146	0x3ddb1c73	0.10698786
147	0xbeeb8095	-0.45996538
148	0x3e35512b	0.17706744
149	0x3e1a94c2	0.15095809
150	0xbd172b72	-0.036906667
151	0x3ee4ec3e	0.44711488
152	0x3b98e6e1	0.004666195
153	0xbd10861e	-0.035284154
154	0xbc3b9f1e	-0.011451511
155	0xbf4a1bc7	-0.78948635
156	0xbf6a8f20	-0.9162464
157	0xbe6f98b7	-0.233981
158	0x3ee44fa3	0.44592008
159	0x3e27a317	0.16370808
160	0x3e56a692	0.20961979
161	0xbebf4e0b	-0.3736423
162	0xbf59b06e	-0.85034835
163	0x3e5e2867	0.216951
164	0x3e4e4b7c	0.20145983
165	0x3d95f2c2	0.07321693
166	0x3d740c5d	0.059582103
167	0x3d26d976	0.04073473
168	0xbd189a4d	-0.037256528
169	0x3e87e312	0.26540428
170	0x3ea39781	0.31951526
171	0x3e53e7c1	0.20693876
172	0x3e961426	0.29312247
173	0x3e0740a6	0.13208255
174	0x3e99cf70	0.30041075
175	0x3de1c0fb	0.11023136
176	0xbe8d3fc1	-0.27587703
177	0xbec541d3	-0.38526782
178	0x3e163d4c	0.1467182
179	0xbec6b0b2	-0.38806683
180	0xbf1fb27b	-0.62381715
181	0xbe99e0f6	-0.30054444
182	0x3e90ee75	0.28306928
183	0xbd1e5784	-0.03865768
184	0xbe9944e7	-0.2993538
185	0x3e8a6783	0.27032098
186	0x3dabe995	0.083941616
187	0x3eaf1834	0.34198153
188	0xbf5713a1	-0.84014326
189	0xbefd74af	-0.49503085
190	0xbe5006ba	-0.20315066
191	0x3db9b889	0.090684004
192	0xbef1de9f	-0.4724016
193	0xbedb2f30	-0.4280944
194	0x3e83e2ce	0.25758976
195	0xbebe3cf8	-0.3715589
196	0x3b047703	0.0020212538
197	0xbd00c2ac	-0.031435654
198	0x3f21c4b2	0.6319076
199	0x3e1b64a0	0.15175104
200	0x3db93079	0.090424486
201	0x3ea000c3	0.3125058
202	0x3a9543e7	0.0011388034
203	0xbe79db8f	-0.24400161
204	0xbee662ec	-0.44997346
205	0x3f19a8f8	0.6002345
206	0x3f264207	0.649445
207	0xbd043df5	-0.03228565
208	0xbd6319ae	-0.055444412
209	0xbc8f6d64	-0.017508216
210	0x3f20eb89	0.628594
211	0xbec878f2	-0.39154774
212	0x3f106021	0.5639668
213	0xbcd9239b	-0.026506236
214	0xbee10aff	-0.43953702
215	0xbe075ee8	-0.13219798
216	0x3d693c6a	0.05694238
217	0xbdb6aa36	-0.08919184
218	0xbed2d803	-0.4118043
219	0x3b5a3b6e	0.0033299583
220	0x3e324ff1	0.17413308
221	0xbdccbe7b	-0.09997269
222	0x3e99f61e	0.30070585
223	0x3e8d270e	0.2756886
224	0x3cc35dd9	0.023848461
225	0xbefc1186	-0.4923212
226	0x3b9c11b5	0.004762853
227	0x3dcbbbb4	0.09947911
228	0xbf471370	-0.77764034
229	0x3e0a244a	0.13490406
230	0xbe975032	-0.29553372
231	0x3d76972e	0.06020277
232	0x3e20f00c	0.1571657
233	0xbc836e47	-0.016043795
234	0xbd2710a6	-0.04078736
235	0xbc871475	-0.016489247
236	0x3cde1795	0.027110854
237	0x3e02ec2f	0.1278541
238	0xbe329302	-0.17438892
239	0xbef57dfe	-0.47947687
240	0xbdee5044	-0.11636403
241	0xbe87fe53	-0.2656122
242	0xbe9df35d	-0.30849734
243	0x3eda4f23	0.42638502
244	0xbe7b6ee7	-0.24554025
245	0xbd410901	-0.047127727
246	0x3e4d2052	0.2003186
247	0x3db32a13	0.087482594
248	0xbe4a2bb2	-0.19743231
249	0xbe33ae05	-0.17546852
250	0xbe695821	-0.22787525
251	0x3e137dc2	0.14403442
252	0xbe855347	-0.26040098
253	0xbea639e1	-0.32466033
254	0xbf5c3c17	-0.8602919
255	0xbd15e10f	-0.036591586

fc2.weight f4 [128, 256]
0	0xbeb72b5c	-0.35775268
1	0x3f023752	0.5086566
2	0x3dc653ac	0.09683928
3	0x3ed8ca4e	0.42341846
4	0x3e469442	0.19392493
5	0x3e1d65d9	0.15370883
6	0x3eb72ac0	0.35774803
7	0x3ec58988	0.3858149
8	0x3ea3541e	0.31900114
9	0xbe9122f7	-0.2834699
10	0xbda5d038	-0.08096355
11	0x3e21772b	0.15768115
12	0xbd95b608	-0.0731011
13	0x3e2c0f5b	0.16802733
14	0x3d1bca92	0.038034983
15	0x3f1823ce	0.59429634
16	0xbf40c554	-0.753011
17	0x3dd95bf3	0.10613241
18	0x3f19f1cd	0.60134584
19	0x3e9eb2e1	0.3099585
20	0xbe14931f	-0.14509247
21	0x3e992352	0.2990976
22	0xbf166e2d	-0.58761865
23	0xbd312cc8	-0.043255597
24	0x3dd1746b	0.10227283
25	0xbf067d53	-0.5253498
26	0xbf5ab80c	-0.85437083
27	0xbf702e00	-0.9382019
28	0xbe7131a1	-0.23554088
29	0xbf93ce88	-1.1547403
30	0x3f57a20c	0.8423164
31	0xbfab8323	-1.3399395
32	0xbe224e38	-0.1585015
33	0x3eadd86a	0.33954173
34	0xbe49c0d5	-0.19702466
35	0x3f55ff7a	0.8359295
36	0xbf478438	-0.77936125
37	0xbc8b5e37	-0.017012699
38	0x3e84943f	0.25894353
39	0xbda18539	-0.07886738
40	0x3e63e0e5	0.22253759
41	0x3e1f6f90	0.15569901
42	0xbf7b731e	-0.9822253
43	0x3edfe732	0.43731076
44	0x3e7b8a37	0.24564444
45	0xbe83677e	-0.25664896
46	0xbf1758ae	-0.5911969
47	0xbe4c8508	-0.19972622
48	0x3de6939e	0.112586245
49	0x3ebbf938	0.36713576
50	0x3e640b50	0.2226994
51	0x3e971c68	0.2951386
52	0x3f43ebbb	0.7653157
53	0x3efcffbb	0.49413857
54	0xbf075733	-0.5286743
55	0x3ecf48ba	0.40485173
56	0xbf1adb12	-0.60490525
57	0xbf549b03	-0.8304903
58	0xbeb1f3b2	-0.34756237
59	0x3dd0cfb7	0.101958685
60	0x3b923d3e	0.004462867
61	0x3f62abd6	0.8854345
62	0x3e8596e0	0.2609167
63	0x3ef5204a	0.47876197
64	0x3e57d35d	0.21076722
65	0x3e0f1c9d	0.13975759
66	0xbfbd045f	-1.4766959
67	0x3f7ae165	0.98000175
68	0x3e11013d	0.14160629
69	0xbd95af15	-0.07308785
70	0x3e60f0ad	0.2196681
71	0x3e56c259	0.20972575
72	0x3eeba811	0.46026662
73	0x3e34fed3	0.17675333
74	0xbba32b72	-0.0049795443
75	0xbe88e243	-0.26735124
76	0xbfa9f4ab	-1.3277792
77	0x3ed5e447	0.41775724
78	0x3d4905b4	0.049077705
79	0xbe9d71a4	-0.30750763
80	0x3f94587f	1.1589507
81	0x3dd358ec	0.10319695
82	0xbd968e03	-0.07351305
83	0x3e52bfea	0.20581022
84	0xbc1574cf	-0.009122088
85	0xbf1ce415	-0.61285526
86	0xbd0f42b5	-0.034975726
87	0xbe10cbf7	-0.14140306
88	0xb93f5c84	-0.00018249644
89	0xbf16d257	-0.58914703
90	0x3de7b394	0.11313549
91	0x3efd6b5b	0.49495968
92	0x3ecaa578	0.39579368
93	0xbdb41290	-0.08792603
94	0xbee303d2	-0.44338852
95	0xbf089136	-0.53346574
96	0x3d52ac92	0.051434107
97	0x3f1461ca	0.57961714
98	0xbf42e8c3	-0.76136416
99	0xbfd55afe	-1.6668394
100	0x3f4c742f	0.7986478
101	0x3f0235db	0.50863427
102	0xbe61f97e	-0.2206783
103	0x3dc596a3	0.09647872
104	0xbf65df6a	-0.8979403
105	0xbf47eb02	-0.7809297
106	0x3dc477d8	0.09593171
107	0xbe9f5b04	-0.31124127
108	0x3f256eca	0.64622176
109	0x3e89f6c8	0.26946092
110	0x3eb0df14	0.34545195
111	0x3e51d473	0.20491199
112	0x3e609370	0.21931243
113	0x3f179c2e	0.59222686
114	0xbdf5d1a5	-0.12002877
115	0x3b3f7c1e	0.0029218267
116	0x3e24a326	0.16077861
117	0xbf1799cc	-0.5921905
118	0xbd0f07da	-0.034919597
119	0x3d90cff4	0.07070914
120	0x3d7f1492	0.062275477
121	0x3de8e89d	0.113724925
122	0x3eaaf2fe	0.33388513
123	0xbf5402a0	-0.82816505
124	0xbf2c2cc0	-0.67255783
125	0xbdab9a54	-0.08379045
126	0x3e962216	0.2932288
127	0xbdc6ca77	-0.09706586
128	0x3de02971	0.10945404
129	0x3d025a9d	0.031824697
130	0xbf424e49	-0.75900704
131	0x3eefe935	0.4685761
132	0x3ebb23a8	0.3655064
133	0xbcda4954	-0.026646294
134	0x3da3731e	0.07980941
135	0x3b37e9eb	0.002806301
136	0x3f82a22f	1.0205745
137	0x3ea7d9fc	0.32783496
138	0xbdc1079a	-0.09425278
139	0xbf0a345d	-0.5398615
140	0x3f0611e3	0.5237104
141	0x3e2bbb1d	0.16770597
142	0xbe58199b	-0.21103518
143	0xbd913684	-0.07090476
144	0x40121c3b	2.282973
145	0xbea1253c	-0.3147372
146	0xbf9065ca	-1.1281064
147	0xbf95d619	-1.1705962
148	0x3f837700	1.0270691
149	0x3f0b90c1	0.5451775
150	0x3e0dbf79	0.13842572
151	0xbd8b3544	-0.06797269
152	0x3dfc89e4	0.12330988
153	0xbf648d31	-0.8927794
154	0x3e9123e5	0.28347698
155	0xbf0309cc	-0.51186824
156	0xbe83604e	-0.25659412
157	0xbeaae3f3	-0.33377036
158	0xbfdf01a2	-1.7422373
159	0x3ed131c2	0.40858275
160	0xbd90cd44	-0.07070401
161	0x3db90023	0.09033229
162	0x3e99b552	0.3002115
163	0xbe086b55	-0.13322194
164	0xbee843e9	-0.4536431
165	0x3f27c6e2	0.65537846
166	0x3f8df8ba	1.109153
167	0x3e68314a	0.22675052
168	0xbcf58efe	-0.02997541
169	0x3efe585a	0.49676782
170	0x3f06165e	0.5237788
171	0x3e818635	0.25297704
172	0x3d9b59dd	0.075854994
173	0x3e2468df	0.1605563
174	0xbfcf9d19	-1.6219817
175	0xbe8b8395	-0.27248827
176	0xbf8162c9	-1.0108272
177	0xbe9125a6	-0.28349036
178	0xbdf355f4	-0.11881629
179	0x3dd3edae	0.10348068
180	0xbe3c7d17	-0.18407093
181	0x3c974333	0.01846466
182	0xbec6ed4a	-0.38852912
183	0xbe633290	-0.22187257
184	0xbf886c8a	-1.0658123
185	0xbe8babc6	-0.2727949
186	0xbf025502	-0.5091096
187	0xbe3e8cac	-0.1860835
188	0xc02755c2	-2.6146092
189	0x3f14fce5	0.58198386
190	0x3ee7f99c	0.45307624
191	0xbfdd1270	-1.7271252
192	0x3e5f134b	0.21784703
193	0x3eb31921	0.3498011
194	0x3e87687e	0.2644691
195	0x3e47e29d	0.1952004
196	0xbe86befa	-0.2631758
197	0x3d046420	0.03232205
198	0xbe9798b0	-0.2960868
199	0xc017c6df	-2.3715131
200	0xbf33f40a	-0.7029425
201	0xbf15d4b9	-0.58527714
202	0x3c0c3ea0	0.008559853
203	0xbddd018e	-0.10791312
204	0xbddd79df	-0.10814261
205	0xbf74a5a5	-0.95565253
206	0xbf7054e6	-0.93879545
207	0x3e2934dd	0.16524072
208	0xbf11a542	-0.5689279
209	0xbd08c680	-0.03339243
210	0xbf55c88c	-0.83509135
211	0x3e1418e6	0.14462623
212	0xbe916cde	-0.28403372
213	0xbd9efb46	-0.0776277
214	0xbf87629d	-1.0576969
215	0xbe2b7734	-0.16744691
216	0x3e63867e	0.22219273
217	0xbf937135	-1.1518923
218	0x3e77242d	0.24134894
219	0x3e9840af	0.2973685
220	0x3ed9e3f6	0.42556733
221	0xbd8a0c32	-0.06740607
222	0xbf517204	-0.818146
223	0x3d7787ab	0.060432117
224	0xbb732ced	-0.0037105635
225	0xbece2aba	-0.40266973
226	0x3e50ccb7	0.20390593
227	0x3dcc8379	0.09986014
228	0xbf0b6257	-0.5444693
229	0xbda9253c	-0.08259055
230	0xbedc3116	-0.430062
231	0x3e6a1b2c	0.22861928
232	0x3db79dd8	0.08965653
233	0xbf5fcde3	-0.87423533
234	0x3f17e0a0	0.59327126
235	0xbdc39dae	-0.095515594
236	0x3eb2f751	0.34954312
237	0xbdb8e590	-0.090281606
238	0xbe6852d5	-0.22687848
239	0x3e037012	0.1283572
240	0x3e73ca92	0.23807743
241	0xbf98f027	-1.1948289
242	0x3dfa811c	0.12231657
243	0xbe997a61	-0.2997618
244	0xbf594724	-0.84874177
245	0xbf387afa	-0.7206265
246	0x3f2f706c	0.6853092
247	0x3dfd6c2d	0.123741485
248	0x3e388ccc	0.1802246
249	0x3ef4b296	0.477925
250	0xbf83c746	-1.0295188
251	0x3e5fa52a	0.21840349
252	0x3e3ea712	0.1861842
253	0x3f323328	0.6960931
254	0x3f8613a6	1.0474746
255	0x3f131670	0.5745611

fc2.bias f4 [128]
0	0xbe329c45	-0.17442425
1	0x3ebfbbaa	0.37447864
2	0xbe6a4770	-0.22878814
3	0x3e5efee4	0.2177692
4	0xbf010dce	-0.5041169
5	0x3d989db1	0.07451952
6	0xbe379048	-0.17926133
7	0x3e08c7fb	0.13357536
8	0xbd380cfa	-0.04493425
9	0xbd6bb116	-0.05754193
10	0xbe1060a6	-0.14099368
11	0x3ec8018d	0.39063683
12	0x3e9a2356	0.30105084
13	0x3dbcfa1d	0.09227393
14	0xbe77de92	-0.24205998
15	0xbdd630ca	-0.104585245
16	0xbe836289	-0.25661114
17	0xbd0213b4	-0.03175707
18	0x3d54327e	0.051805966
19	0xbe5d00c1	-0.21582319
20	0xbedda5f9	-0.4329069
21	0x3e48f457	0.19624458
22	0xbc9c0552	-0.019045506
23	0x3db1b97a	0.08677955
24	0xbef3747f	-0.47549817
25	0xbd0e2726	-0.034705304
26	0x3e8800a5	0.26562992
27	0xbea7977f	-0.3273277
28	0xbdb11143	-0.086458705
29	0xbf179109	-0.5920568
30	0x3ec40cba	0.3829096
31	0x3e8a4de1	0.27012542
32	0xbe955c07	-0.29171774
33	0xbd734cc7	-0.059399392
34	0xbe90c78f	-0.2827725
35	0x3edcb7c4	0.43108952
36	0xbea9877c	-0.3311118
37	0xbd6c0f65	-0.05763187
38	0x3dffac0c	0.12483987
39	0xbdd0cd7b	-0.10195442
40	0xbe0957ad	-0.13412352
41	0x3eaf3a0a	0.34223968
42	0x3dd7cb41	0.105368145
43	0x3deda8b2	0.11604442
44	0xbd2c40ee	-0.04205411
45	0xbd138b4f	-0.036021527
46	0x3e8c5dc3	0.27415285
47	0xbee9c058	-0.4565456
48	0xbddf03d4	-0.10889402
49	0x3d9e3332	0.077246085
50	0x3d5a15d3	0.05324347
51	0x3d0dc2ea	0.034609713
52	0x3e4472f3	0.19184475
53	0x3e5e4b53	0.21708421
54	0x3f07e3d6	0.53082025
55	0x3daa57f7	0.08317559
56	0x3e33f2ed	0.17573138
57	0xbe4fa08e	-0.2027609
58	0x3dd948cd	0.10609589
59	0x3efba4e8	0.4914925
60	0x3d682c32	0.056682773
61	0x3f36e155	0.7143758
62	0x3d08d161	0.033402804
63	0xbde7b336	-0.11313479
64	0x3e4b897b	0.19876663
65	0xbe9bc81e	-0.30426115
66	0x3e196622	0.14980367
67	0x3e2e3666	0.17012939
68	0x3d504919	0.05085096
69	0x3cbd8459	0.023134397
70	0x3ec44f04	0.38341534
71	0x3e4f9e5d	0.20275255
72	0x3eb5967b	0.3546637
73	0xbe2e0ff9	-0.1699828
74	0x3df9d282	0.12198354
75	0x3da29e43	0.07940342
76	0x3d36a952	0.04459507
77	0x3d42ee31	0.04759044
78	0xbe52e91d	-0.20596738
79	0xbe19fe77	-0.15038477
80	0x3e99d373	0.30044135
81	0xbe644d92	-0.22295216
82	0x3ee7863e	0.45219606
83	0x3d36f2bf	0.044665094
84	0xbf088c71	-0.53339297
85	0xbe4442d5	-0.1916612
86	0x3e295cbf	0.16539286
87	0x3e0e5222	0.13898519
88	0x3c968ddb	0.018378189
89	0xbcd40f4a	-0.025886197
90	0xbd2f677d	-0.042823303
91	0xbd240ef2	-0.040053315
92	0x3e378e77	0.1792544
93	0x3ec49401	0.38394168
94	0x3d374308	0.04474166
95	0x3eee1500	0.46500397
96	0xbf139f5d	-0.57665044
97	0xbe1ffe0a	-0.15624252
98	0x3c23df13	0.0100019155
99	0x3eadf2e0	0.3397436
100	0xbd0ba1b8	-0.034089774
101	0x3e895f08	0.26830316
102	0x3d8f4c11	0.069969304
103	0x3f0e77c4	0.556515
104	0xbdc29aaa	-0.09502156
105	0x3e2a66c3	0.16640763
106	0xbe728692	-0.23684147
107	0xbe282931	-0.16421963
108	0x3dab13fc	0.08353421
109	0xbece39a8	-0.40278363
110	0xbd37f89f	-0.044914838
111	0x3eeacca6	0.4585926
112	0xbdf74454	-0.120735794
113	0x3af8b3ff	0.0018974541
114	0xbe945fd0	-0.2897935
115	0x3da725e6	0.081615254
116	0x3e11366f	0.14180921
117	0xbe1bb841	-0.15207006
118	0xbec8ba3d	-0.3920459
119	0xbd35da37	-0.04439756
120	0x3dca6392	0.09882273
121	0xbe142454	-0.14466983
122	0x3ae565e3	0.0017501678
123	0xbe70b973	-0.23508243
124	0xbe41c515	-0.18922837
125	0xbd333cbf	-0.043759104
126	0xbdec5799	-0.115401454
127	0xbd59a6ec	-0.053137705

fc3.weight f4 [4, 128]
0	0xbde0cbed	-0.10976396
1	0x3fc4907c	1.5356593
2	0x3fa65728	1.2995348
3	0x3f829ce0	1.0204124
4	0x3f594ad8	0.8487983
5	0x3f0a4ff3	0.5402824
6	0x4005196b	2.0796764
7	0x3fa08c66	1.2542846
8	0x3e6c5fd3	0.23083429
9	0x3fb5a421	1.4190713
10	0xbeb3bf68	-0.3510697
11	0x3fa41ed6	1.282191
12	0x3f76e0c3	0.9643671
13	0x3e821989	0.25410107
14	0x40114890	2.2700539
15	0xbf4d6db7	-0.80245537
16	0xbf75f285	-0.9607318
17	0xbc4afb2b	-0.012388985
18	0xbed2cd6d	-0.41172352
19	0xbe970663	-0.2949706
20	0xbf5602ea	-0.83598197
21	0x3fb29bf8	1.3953848
22	0xbf28b215	-0.6589673
23	0xbf41b526	-0.75667036
24	0xbf867113	-1.0503258
25	0x3e0eb227	0.13935147
26	0xbfb9aa1c	-1.4505038
27	0x3ef9d606	0.487961
28	0xbfa086ed	-1.2541176
29	0x3f65546e	0.89581954
30	0xbf3de373	-0.74175185
31	0x3f88d2ba	1.0689309
32	0x3f2ec59a	0.68270266
33	0xbcedeed5	-0.029044548
34	0xbf23a5e8	-0.6392503
35	0x3f7d6436	0.98981035
36	0xbdc68ba2	-0.096946016
37	0xbea944cf	-0.3306031
38	0xbe07df1e	-0.13268706
39	0xbf62df32	-0.8862182
40	0xbee8d78b	-0.45476946
41	0xbf33c7cc	-0.7022674
42	0x3fc24c9c	1.5179629
43	0xbf0e5cf4	-0.55610585
44	0xbc160f57	-0.009158931
45	0x3d583238	0.052782267
46	0x3e9e163c	0.30876338
47	0x3e2362f3	0.15955715
48	0xbde1aedc	-0.1101968
49	0xbed73c68	-0.42038274
50	0xbf22453c	-0.63386893
51	0xbdc395bd	-0.09550045
52	0x3f221d50	0.6332598
53	0x3f6fd96a	0.9369112
54	0xbf7ba77e	-0.9830245
55	0x3f4217f5	0.75817806
56	0x3f85c7fc	1.0451655
57	0xbef23b44	-0.4731084
58	0x3fce5f8c	1.6122909
59	0xbf5ff768	-0.87486887
60	0xbf1102bc	-0.566448
61	0x3f8b77ef	1.0895976
62	0x3e429d75	0.19005378
63	0xbedb141a	-0.42788774
64	0x3e07ef08	0.13274777
65	0x3f2a7c19	0.6659561
66	0xbf2ebbc1	-0.6825524
67	0xbf80da6b	-1.0066656
68	0xbf5d5be9	-0.8646837
69	0xbf087644	-0.5330546
70	0x3f8ea6df	1.1144675
71	0xbf038da0	-0.5138798
72	0x3fbc1ea7	1.4696854
73	0x3f57fa60	0.84366417
74	0x3d5b38e0	0.053521037
75	0xbf0c0efc	-0.54710364
76	0x3f9607cb	1.1721128
77	0xbe4ba18f	-0.19885848
78	0xbf592dd2	-0.8483554
79	0x3ddd0f55	0.1079394
80	0x3fc2da1a	1.5222809
81	0xbf432e6a	-0.762427
82	0xbf1c14e2	-0.60969365
83	0x3d17e28d	0.03708129
84	0xbc8aeaa2	-0.016957585
85	0x3f5bc5fb	0.8584897
86	0xbefc6e50	-0.49302912
87	0xbe729c5b	-0.23692457
88	0x3ed5fb13	0.41793117
89	0x3e87c6c4	0.26518834
90	0xbe13da67	-0.14438783
91	0x3e28abc3	0.16471772
92	0x3ef9f3a8	0.48818707
93	0xbee73623	-0.4515849
94	0xbec2f185	-0.3807489
95	0xbf34899a	-0.70522463
96	0x3e549419	0.2075962
97	0x3f35d449	0.71027046
98	0xbf23d813	-0.6400158
99	0xbeaa84f8	-0.33304572
100	0xbe4adc06	-0.19810495
101	0xbf1253a2	-0.57158864
102	0xbf5973fc	-0.84942603
103	0x3f3964ea	0.7241961
104	0x3eaf1ac1	0.342001
105	0xbf3210bb	-0.6955678
106	0xbe9fa1c8	-0.31178117
107	0xbeb77418	-0.3583076
108	0xbfbe86b6	-1.488486
109	0xbe851a54	-0.2599665
110	0x3f4cd4fb	0.8001248
111	0x3fba1abf	1.4539412
112	0x3e201597	0.15633236
113	0x3fbcdc48	1.4754725
114	0x3f8c5174	1.0962358
115	0x3f964107	1.1738595
116	0x3efc0288	0.4922068
117	0xbf198c17	-0.59979385
118	0xbfd733e4	-1.6812711
119	0x3d865c1e	0.06560539
120	0x3f6c3260	0.92264366
121	0xbf0792f9	-0.5295864
122	0x3fc258cb	1.5183347
123	0x3f8b287d	1.0871731
124	0xbf527b77	-0.8221964
125	0x3dca6e59	0.098843284
126	0xbe899749	-0.26873234
127	0xbe9f0d6d	-0.3106493
128	0xbf3e73a9	-0.74395233
129	0x3fbe7af2	1.488127
130	0x3d07e0b7	0.03317329
131	0x3fa06e54	1.253367
132	0x401515e5	2.3294613
133	0x3f4923e3	0.78570384
134	0x3fccc7e6	1.5998504
135	0x3fa9f647	1.3278283
136	0x3cf31fc6	0.029678237
137	0x3f951177	1.1645955
138	0xbe7d4177	-0.24732004
139	0x3fa1d24b	1.2642301
140	0x3f6ba5e5	0.9205001
141	0x3ec1daff	0.37862393
142	0x3ffe8e36	1.9887149
143	0xbf52782d	-0.82214624
144	0xbf6b48e7	-0.91908115
145	0xbdaad2c8	-0.083409846
146	0xbf939696	-1.153033
147	0xbd8924d8	-0.066964805
148	0xbe9a1054	-0.30090582
149	0x3fb7a0bd	1.4345928
150	0x3f45ce08	0.77267504
151	0xbf4890bc	-0.7834585
152	0xbf6bed6b	-0.92159146
153	0x3cf81a81	0.030286076
154	0xbf886249	-1.0654994
155	0x3f8bbb86	1.0916603
156	0xbf92afb3	-1.1459869
157	0x3fad1142	1.3520892
158	0xbf289bac	-0.65862536
159	0x3f928ac1	1.1448594
160	0x3eca4a1a	0.3950966
161	0xbf9cb6d9	-1.2243301
162	0xbf483f40	-0.7822151
163	0x3f842939	1.032508
164	0x3f43c9a3	0.7647955
165	0xbea7708a	-0.32703048
166	0xbea7c912	-0.32770592
167	0xbfa0a21a	-1.254947
168	0xbf05812b	-0.5215022
169	0xbd15871a	-0.036505796
170	0x3faa88d5	1.3323008
171	0xbe5da199	-0.21643676
172	0xbd1238cc	-0.035698697
173	0x3e37fe5c	0.17968124
174	0xbbcd29d1	-0.0062610884
175	0x3ee49791	0.44646886
176	0xbf4bd84a	-0.79626906
177	0xbe2332d9	-0.15937366
178	0xbed0a369	-0.40749672
179	0x3f54840e	0.83014
180	0x3f1ae937	0.6051211
181	0x3f986562	1.190594
182	0xbf9505e7	-1.1642426
183	0x3f4561c3	0.771023
184	0x3f8820d3	1.0635017
185	0xbf63b420	-0.88946724
186	0x3f9c4f17	1.2211636
187	0xbf3a0819	-0.72668606
188	0xbf9500d4	-1.1640878
189	0x3f86864e	1.0509737
190	0xc0086087	-2.1308916
191	0xbec261fc	-0.3796538
192	0xbde64859	-0.11244268
193	0x3d759b54	0.059962586
194	0xbf88303b	-1.0639719
195	0xbf66e177	-0.9018778
196	0xbf5d3e69	-0.86423355
197	0xbedb09ee	-0.42781013
198	0x3f97e2a1	1.1866037
199	0xbf44e1d0	-0.7690706
200	0x3fa51fc7	1.2900323
201	0x3f2e0b76	0.6798624
202	0x3f4e5a7e	0.8060683
203	0xbf43e9e1	-0.76528746
204	0x3fa462f6	1.28427
205	0xbd498e08	-0.049207717
206	0xbf48c929	-0.78431946
207	0x3f367576	0.7127298
208	0x3fb68696	1.4259822
209	0xbf4211b8	-0.75808287
210	0xbf6011f1	-0.87527376
211	0x3e6d9588	0.23201573
212	0x3f3932fb	0.72343415
213	0xbf3e260f	-0.7427682
214	0xbe90642b	-0.28201422
215	0x3e067255	0.13129552
216	0xbf22afe4	-0.6354964
217	0xbcccf35e	-0.02501839
218	0x3dc85bf0	0.09783161
219	0x3d8a335f	0.067480795
220	0xbf3ee65e	-0.7457026
221	0xbf3b7132	-0.732196
222	0xbe67c21b	-0.22632639
223	0xbf57c0a7	-0.8427834
224	0x3f518fa4	0.81859803
225	0x3f3e620a	0.74368346
226	0xbe7117a2	-0.23544171
227	0xbe0ad84f	-0.13559078
228	0xbe4a9f48	-0.19787323
229	0xbeb517c8	-0.35369706
230	0xbec1799d	-0.37788096
231	0x3f73f5f8	0.95297194
232	0x3def87c7	0.11695819
233	0xbf47ff94	-0.78124356
234	0xbf311b8d	-0.69182664
235	0xbf19a1c8	-0.60012484
236	0x3e255775	0.16146643
237	0xbe838142	-0.25684553
238	0xbdbfc97b	-0.09364601
239	0x3faf3c10	1.3690205
240	0xbf71329f	-0.94217867
241	0x3faaff88	1.3359232
242	0xbf681a94	-0.90665555
243	0x3fbfa26a	1.497144
244	0x3f62aa6c	0.88541293
245	0xbec787f9	-0.38970926
246	0x3f2ca78a	0.67443144
247	0xbdd66fe1	-0.10470558
248	0x3f4f9118	0.8108077
249	0xbe7b30be	-0.24530312
250	0x3fb911ff	1.4458617
251	0x3fa74716	1.3068569
252	0xbefd82d6	-0.49513882
253	0x3e624d06	0.22099695
254	0x3fc33aad	1.5252281
255	0xbea337e3	-0.31878576

fc3.bias f4 [4]
0	0xbe408ac9	-0.18802942
1	0xbe783d22	-0.2424207
2	0x3e27ca16	0.16385683
3	0x3e92a499	0.28641203

task_embedding.weight f4 [3, 8]
0	0x3e97ec51	0.29672483
1	0x3dcfe2bd	0.10150669
2	0xbcf0f393	-0.02941302
3	0x3e5dcd69	0.21660389
4	0x3d356c5b	0.04429279
5	0x3d70cd98	0.05878982
6	0xbe3fc572	-0.18727663
7	0x3e894c7b	0.26816162
8	0x3da2d1fe	0.07950209
9	0xbd9fbfbb	-0.078002416
10	0xbab196c4	-0.001354896
11	0xbee077e7	-0.43841478
12	0xbd8f3f9c	-0.069945544
13	0xbcc8ddc6	-0.024519812
14	0x3e98ce31	0.29844812
15	0x3e23d85b	0.16000502
16	0xbef47d35	-0.47751775
17	0x3dd4e133	0.10394516
18	0x3d17ea8c	0.037088916
19	0x3da42266	0.080143735
20	0x3db56f09	0.08859069
21	0xbeb39ec8	-0.35082078
22	0xbdfe1081	-0.124054916
23	0xbe35f0b2	-0.17767599

fc1.weight f4 [256, 16]
0	0xbe0585e8	-0.13039362
1	0xbf89e0ad	-1.0771691
2	0xbe9fb366	-0.31191558
3	0x3f67e891	0.90589243
4	0x3ea3e270	0.32008696
5	0x3ef8339d	0.48476878
6	0x3d87079e	0.0659325
7	0x3e8037f8	0.250427
8	0x3cf2df3b	0.02964746
9	0x3ec35582	0.38151175
10	0x3e310b07	0.17289363
11	0x3db9cb5b	0.0907199
12	0x3d175a58	0.036951393
13	0xbef77403	-0.48330697
14	0x3e0307d2	0.12795952
15	0xbc641daf	-0.013923093
16	0x3e556093	0.20837621
17	0xbfa79750	-1.3093052
18	0xbde5da16	-0.11223237
19	0xbfcfca51	-1.6233617
20	0x3f268456	0.6504568
21	0x3ea1841a	0.31546098
22	0xbe607960	-0.21921301
23	0xbeadba7c	-0.3393134
24	0x3ef2960c	0.47380102
25	0xbee08660	-0.4385252
26	0xbe47778f	-0.19479202
27	0xbef6c4a7	-0.4819691
28	0xbf703641	-0.93832785
29	0x3f5a3dba	0.8525044
30	0x3e19ff54	0.15038806
31	0x3e33594e	0.17514536
32	0xbd862771	-0.065504916
33	0xbd17c273	-0.037050676
34	0xbfe83cc0	-1.814354
35	0x3e692be1	0.22770645
36	0x3d05697b	0.032571297
37	0x3d1a908e	0.037735514
38	0xbd0c9dfc	-0.034330353
39	0x3eeef26d	0.4666933
40	0xbde95c7c	-0.11394593
41	0x3eaadd88	0.3337214
42	0xbe225747	-0.15853606
43	0xbd401127	-0.046891358
44	0xbe670053	-0.22558717
45	0x3dce82eb	0.10083564
46	0x3e2d4c96	0.16923746
47	0xbd915eb4	-0.07098141
48	0x3f377b72	0.7167274
49	0xbd36d7e5	-0.044639487
50	0xbf495a50	-0.7865343
51	0xbfaf168a	-1.3678753
52	0xbee6151f	-0.4493799
53	0xbc4469e5	-0.011988138
54	0x3f2bf57c	0.67171454
55	0xbf1c6319	-0.6108871
56	0x3e20490c	0.15652865
57	0xbeb57a98	-0.35445094
58	0x3e879707	0.26482412
59	0xbe31d646	-0.17366895
60	0xbdcc7911	-0.09984029
61	0x3eddfdfc	0.43357837
62	0x3f702b7f	0.9381637
63	0x3e533d4a	0.20628849
64	0xbe6c4cbc	-0.23076147
65	0x3efbb821	0.49163917
66	0x3f4d0e34	0.800998
67	0xbf169b97	-0.5883116
68	0xbeda0e26	-0.4258892
69	0x3fa14d49	1.260171
70	0x3eacc374	0.3374287
71	0xbdd76f5b	-0.10519286
72	0x3ec60808	0.38678002
73	0xbf010876	-0.50403535
74	0xbe85939a	-0.26089174
75	0x3ee52f6d	0.44762745
76	0x3e3afa91	0.18259646
77	0x3ce182cc	0.02752819
78	0x3f397e8e	0.7245873
79	0xbddf3613	-0.10898986
80	0x3f386006	0.7202152
81	0x3e946ee2	0.28990847
82	0x3e8b824b	0.27247843
83	0x3e221877	0.15829645
84	0x3fb79c61	1.4344598
85	0xbddbde63	-0.10735776
86	0xbf292eda	-0.66087115
87	0x3f0e6494	0.5562222
88	0xbe442c88	-0.19157612
89	0x3d2cdc59	0.042202327
90	0x3e3e225f	0.18567799
91	0xbf578528	-0.84187555
92	0xbe79b3f4	-0.24385053
93	0xbe6f9dc0	-0.2340002
94	0x3ea38dc4	0.31944096
95	0x3f1350e3	0.575453
96	0xbde772c6	-0.11301188
97	0xbf882171	-1.0635206
98	0x3f17e391	0.59331614
99	0xbf46f2c3	-0.77714175
100	0x3ebb5a6b	0.3659242
101	0x3f02a1ec	0.51028323
102	0x3e00789e	0.12546012
103	0x3e76ce6e	0.24102184
104	0xbe41ec1f	-0.1893773
105	0xbf493949	-0.78603035
106	0x3ed024b0	0.4065299
107	0x3e665c89	0.22496237
108	0xbe1255fa	-0.1429061
109	0xbc893107	-0.01674701
110	0xbde2dff7	-0.11077874
111	0xbef73d76	-0.48289078
112	0xbec879f3	-0.3915554
113	0xc0039efe	-2.056579
114	0x3e5fd2c3	0.21857743
115	0xbee3b099	-0.4447067
116	0x3ed510dc	0.41614425
117	0xbf2131b0	-0.6296644
118	0xbe7a0273	-0.24414997
119	0x3d592c61	0.05302084
120	0xbe4fea16	-0.2030414
121	0x3c908d85	0.017645607
122	0xbebd7680	-0.3700447
123	0xbf15b7e9	-0.5848375
124	0x3e9d4e00	0.30723572
125	0xbe9150d9	-0.28381994
126	0x3ec108ae	0.37701935
127	0xbeaf3c0a	-0.34225494
128	0xbf63c299	-0.8896881
129	0x3e8e65bb	0.2781199
130	0x3f4587f6	0.77160585
131	0x3ef437c3	0.47698793
132	0x3eae2d5d	0.34018984
133	0x3d14bfcb	0.03631572
134	0xbf9f36bb	-1.2438577
135	0x3f877f11	1.0585653
136	0xbf44a95a	-0.7682091
137	0x3e9f10fd	0.3106765
138	0x3ee93e4d	0.45555344
139	0x3f74038c	0.9531791
140	0x3d85eaa8	0.06538898
141	0x3d8b10c0	0.06790304
142	0xbf33c443	-0.70221347
143	0xbda93a91	-0.08263124
144	0x3fb1f23d	1.390205
145	0x3dd0a258	0.101872146
146	0x3f949276	1.1607196
147	0x3f55c212	0.8349925
148	0x3e03a984	0.12857634
149	0x3e73a015	0.23791535
150	0xbe5aeae5	-0.21378668
151	0x3e0c8528	0.1372267
152	0xbdc28d48	-0.094996035
153	0xbee7eed1	-0.4529939
154	0x3dadcf4b	0.084868036
155	0xbe3e5310	-0.18586373
156	0x3ed1ee0d	0.4100193
157	0x3dc72234	0.097233206
158	0xbe60ed60	-0.21965551
159	0x3ddeb581	0.10874463
160	0xbf4f20ad	-0.80909234
161	0x3e91c864	0.28473198
162	0x3d7f1fc7	0.062286165
163	0xbf5a84c9	-0.85358864
164	0xbf2b4cdf	-0.6691417
165	0x3f084819	0.5323501
166	0x3ed2f184	0.41199887
167	0xbf903f56	-1.1269329
168	0x3f0bf55b	0.5467126
169	0xbf693716	-0.9109968
170	0xbed726e3	-0.42021856
171	0x3beb2f86	0.007177296
172	0xbe5860ae	-0.2113063
173	0x3f173d9a	0.5907837
174	0xbf07488d	-0.5284508
175	0xbe93a3e2	-0.2883597
176	0xbdf99aaa	-0.12187703
177	0x3f1a8b8f	0.603692
178	0xbe76a21b	-0.24085276
179	0xbeea5152	-0.45765167
180	0x3dd1af40	0.102385044
181	0xbe99ec01	-0.3006287
182	0x3f51b26b	0.8191287
183	0xbf90411a	-1.1269867
184	0xbef6a14f	-0.48169944
185	0xbe6042bd	-0.21900459
186	0xbe2e25fd	-0.17006679
187	0xbdfad553	-0.122477196
188	0x3ee66f54	0.45006812
189	0xbd682dd9	-0.05668435
190	0x3cf1711e	0.029472884
191	0x3ed38557	0.41312668
192	0xb9bcb92c	-0.00035996118
193	0xbf0b05c4	-0.5430567
194	0x3e09cd8b	0.13457315
195	0xbf730f5e	-0.94945323
196	0xbfa5420b	-1.291078
197	0xbeb6df41	-0.35717204
198	0xbfbed435	-1.490851
199	0x3dcd609b	0.10028192
200	0x3f64b019	0.89331204
201	0xbe8ed9af	-0.27900454
202	0xbdaba244	-0.08380559
203	0x3d761ae4	0.06008424
204	0xbebb9f53	-0.36644992
205	0x3f02e01b	0.5112321
206	0x3dbcd56c	0.092203945
207	0x3f348030	0.705081
208	0xbf2f9c4d	-0.6859787
209	0x3e56450c	0.20924777
210	0x3d3c2699	0.045935247
211	0xbf848c7a	-1.035537
212	0x3f8a9c50	1.0828953
213	0x3f0ae2de	0.5425242
214	0x3ecab23b	0.39589104
215	0x3dce01ca	0.10058935
216	0x3eedf838	0.46478438
217	0x3e32bccb	0.17454831
218	0xbb1dd02a	-0.0024080374
219	0x3f8af8b0	1.0857143
220	0xbe7211c3	-0.23639588
221	0xbf2e4e8f	-0.6808862
222	0xbe4afb24	-0.19822365
223	0x3ea81a0d	0.32832375
224	0xbe3d8ef2	-0.1851156
225	0xbeaa8c8a	-0.33310348
226	0xbedcbbe3	-0.43112096
227	0xbfdacaf0	-1.7093182
228	0xbf029342	-0.5100595
229	0xbcaffefe	-0.021483894
230	0x3ee7c49d	0.45267192
231	0x3d3515da	0.044210292
232	0x3e43a555	0.19106038
233	0xbddad971	-0.10686005
234	0xbeb1d936	-0.3473603
235	0xbcc5dc6b	-0.024152955
236	0xbe52e477	-0.20594965
237	0x3f140d99	0.5783325
238	0xbdcc069e	-0.099622
239	0xbf0c3850	-0.54773426
240	0x3efccb4b	0.4937385
241	0xbfee0917	-1.8596524
242	0xbe8a5a95	-0.27022234
243	0xbf4e9d28	-0.8070855
244	0x3e7e7770	0.2485025
245	0xbd5821ba	-0.05276654
246	0x3e2c8179	0.16846265
247	0xbdec3db0	-0.115352035
248	0xbd02f325	-0.031970162
249	0x3e4ca9e5	0.19986685
250	0x3caa7c5e	0.020811256
251	0xbe9e838e	-0.30959743
252	0x3f8f0921	1.1174661
253	0x3d2f5770	0.042807996
254	0x3dfcb464	0.12339094
255	0xbea3060b	-0.31840548

fc1.bias f4 [256]
0	0x3dba9dfa	0.09112163
1	0xbd96f8e6	-0.07371692
2	0xbc6ab7b0	-0.014326021
3	0xbeeef8ef	-0.46674296
4	0xbd924d36	-0.07143633
5	0x3e70374b	0.23458593
6	0xbe480474	-0.19532949
7	0x3f00fe13	0.50387686
8	0xbe68c5e3	-0.22731738
9	0x3e240f94	0.16021568
10	0x3dd92a46	0.10603766
11	0x3e5316b2	0.20614126
12	0x3db75572	0.08951844
13	0xbe58ca64	-0.21170956
14	0xbea87daa	-0.32908374
15	0xbcb3b8ee	-0.021938767
16	0xbef1df6d	-0.47240773
17	0xbeac5628	-0.33659482
18	0xbedf4b9c	-0.43612373
19	0x3e0fd506	0.14046106
20	0xbeb93a59	-0.36177328
21	0xbd913f56	-0.070921585
22	0x3e435dc0	0.19078732
23	0xb9c4c5d3	-0.00037531424
24	0xbea11abc	-0.3146571
25	0xbe47d573	-0.19515018
26	0xbe0e161d	-0.13875623
27	0x3e27f1a6	0.16400775
28	0xbd6816cb	-0.056662362
29	0x3e5f25b9	0.21791734
30	0x3e183f53	0.14867906
31	0x3de38df1	0.111110575
32	0x3df9425f	0.121708624
33	0x3e82e67a	0.25566465
34	0xbe3a49e1	-0.18192245
35	0xbed25ec4	-0.41087925
36	0xbebb97bd	-0.36639205
37	0x3da8e144	0.08246091
38	0xbe57deea	-0.21081129
39	0xbc52d732	-0.012868689
40	0x3ace6560	0.0015746765
41	0x3c14a069	0.009071448
42	0x3e6c18ed	0.23056383
43	0xbf1d8a2a	-0.61538947
44	0x3eaafab1	0.33394387
45	0xbe5247a3	-0.2053514
46	0x3e16b0e9	0.14715923
47	0x3e5ee16a	0.21765676
48	0x3db98df3	0.09060278
49	0xbda73c0a	-0.081657484
50	0x3d5e5f3c	0.05429004
51	0xbd013230	-0.031542003
52	0xbde7e2a3	-0.113225244
53	0xbe00738b	-0.12544076
54	0xbebeb929	-0.3725064
55	0xbe33dc88	-0.17564595
56	0x3f2611e8	0.6487107
57	0x3db2b9ab	0.087268196
58	0xbe8dabec	-0.27670228
59	0xbe6c0cf0	-0.2305181
60	0xbecb6a49	-0.39729527
61	0xbe390924	-0.18069893
62	0x3ef4450e	0.47708935
63	0xbf040500	-0.5157013
64	0xbea5d41f	-0.32388398
65	0x3d7b7764	0.061393157
66	0xbdbc1e5d	-0.09185479
67	0x3e85889b	0.26080784
68	0xbc4b638e	-0.012413872
69	0xbe17f1a3	-0.14838271
70	0xbf17bc71	-0.59271914
71	0x3e3917e3	0.18075518
72	0xbeb5e056	-0.35522717
73	0xbe5159d9	-0.2044443
74	0x3e482c72	0.19548205
75	0xbf572952	-0.84047425
76	0x3da86895	0.082230724
77	0x3dcbe094	0.09954944
78	0xbed26476	-0.4109227
79	0x3e878cc5	0.26474586
80	0xbd9d3dea	-0.07677825
81	0xbf08bafa	-0.53410304
82	0xbc26d8de	-0.010183541
83	0xbed6dfa1	-0.4196749
84	0x3e4c2b3d	0.19938369
85	0xbeb14181	-0.34620288
86	0x3e92e220	0.28688145
87	0x3e858e54	0.2608515
88	0x3ea7e2cd	0.32790223
89	0x3d7f7888	0.062370807
90	0xbd20c3b6	-0.039249144
91	0x3df91d9c	0.12163851
92	0xbe314ce8	-0.17314494
93	0xbd93b19a	-0.07211609
94	0x3d9bc842	0.076065555
95	0xbded5bcb	-0.11589774
96	0x3eabe4e4	0.33573067
97	0x3ccce41d	0.025011117
98	0x3d27c6a3	0.04096092
99	0xbf2850a9	-0.6574808
100	0xbe53836b	-0.206556
101	0xbe9eb914	-0.31000578
102	0x3f1a7015	0.60327274
103	0xbdbaab4a	-0.09114702
104	0x3e98e981	0.2986565
105	0xbdc2cefc	-0.095121354
106	0x3ce2daa3	0.027692145
107	0xbe48a022	-0.19592336
108	0xbdfecf7d	-0.12441919
109	0xbe537bbe	-0.20652673
110	0xbe3257f4	-0.17416364
111	0xbeb1219c	-0.34595954
112	0xbe53ae76	-0.2067202
113	0x3cd01402	0.025400165
114	0x3eaefa56	0.34175366
115	0xbe875d4a	-0.2643836
116	0xbe3c8a42	-0.18412116
117	0x3f1c8917	0.6114668
118	0x3f1dac22	0.6159078
119	0x3ea60bbf	0.32430837
120	0xbe9ce82a	-0.30645877
121	0xbd83ce68	-0.06435853
122	0x3eb321cd	0.34986725
123	0xbd97ab8a	-0.07405765
124	0x3f0c3eca	0.5478331
125	0xbe5a2961	-0.21304847
126	0xbf0721df	-0.5278606
127	0xbe459fc6	-0.1929923
128	0x3ca0d83d	0.01963436
129	0xbe16ee62	-0.14739373
130	0xbeeba57e	-0.46024698
131	0x3ce39a01	0.027783396
132	0xbe5ff06c	-0.21869057
133	0x3e61f61e	0.22066543
134	0xbc032f0f	-0.008006825
135	0xbe239d93	-0.15978079
136	0xbbe2f1ae	-0.006925783
137	0xbd21179b	-0.039329153
138	0x3e8de7d2	0.27715927
139	0x39c20d14	0.00037012307
140	0x3e90c6d5	0.28276697
141	0x3e9b728f	0.3036084
142	0xbe8095e0	-0.25114346
143	0x3df0c85a	0.11756964
144	0xbe7a21f3	-0.24427013
145	0x3eec8c55	0.46200815
146	0x3ddb1c73	0.10698786
147	0xbeeb8095	-0.45996538
148	0x3e35512b	0.17706744
149	0x3e1a94c2	0.15095809
150	0xbd172b72	-0.036906667
151	0x3ee4ec3e	0.44711488
152	0x3b98e6e1	0.004666195
153	0xbd10861e	-0.035284154
154	0xbc3b9f1e	-0.011451511
155	0xbf4a1bc7	-0.78948635
156	0xbf6a8f20	-0.9162464
157	0xbe6f98b7	-0.233981
158	0x3ee44fa3	0.44592008
159	0x3e27a317	0.16370808
160	0x3e56a692	0.20961979
161	0xbebf4e0b	-0.3736423
162	0xbf59b06e	-0.85034835
163	0x3e5e2867	0.216951
164	0x3e4e4b7c	0.20145983
165	0x3d95f2c2	0.07321693
166	0x3d740c5d	0.059582103
167	0x3d26d976	0.04073473
168	0xbd189a4d	-0.037256528
169	0x3e87e312	0.26540428
170	0x3ea39781	0.31951526
171	0x3e53e7c1	0.20693876
172	0x3e961426	0.29312247
173	0x3e0740a6	0.13208255
174	0x3e99cf70	0.30041075
175	0x3de1c0fb	0.11023136
176	0xbe8d3fc1	-0.27587703
177	0xbec541d3	-0.38526782
178	0x3e163d4c	0.1467182
179	0xbec6b0b2	-0.38806683
180	0xbf1fb27b	-0.62381715
181	0xbe99e0f6	-0.30054444
182	0x3e90ee75	0.28306928
183	0xbd1e5784	-0.03865768
184	0xbe9944e7	-0.2993538
185	0x3e8a6783	0.27032098
186	0x3dabe995	0.083941616
187	0x3eaf1834	0.34198153
188	0xbf5713a1	-0.84014326
189	0xbefd74af	-0.49503085
190	0xbe5006ba	-0.20315066
191	0x3db9b889	0.090684004
192	0xbef1de9f	-0.4724016
193	0xbedb2f30	-0.4280944
194	0x3e83e2ce	0.25758976
195	0xbebe3cf8	-0.3715589
196	0x3b047703	0.0020212538
197	0xbd00c2ac	-0.031435654
198	0x3f21c4b2	0.6319076
199	0x3e1b64a0	0.15175104
200	0x3db93079	0.090424486
201	0x3ea000c3	0.3125058
202	0x3a9543e7	0.0011388034
203	0xbe79db8f	-0.24400161
204	0xbee662ec	-0.44997346
205	0x3f19a8f8	0.6002345
206	0x3f264207	0.649445
207	0xbd043df5	-0.03228565
208	0xbd6319ae	-0.055444412
209	0xbc8f6d64	-0.017508216
210	0x3f20eb89	0.628594
211	0xbec878f2	-0.39154774
212	0x3f106021	0.5639668
213	0xbcd9239b	-0.026506236
214	0xbee10aff	-0.43953702
215	0xbe075ee8	-0.13219798
216	0x3d693c6a	0.05694238
217	0xbdb6aa36	-0.08919184
218	0xbed2d803	-0.4118043
219	0x3b5a3b6e	0.0033299583
220	0x3e324ff1	0.17413308
221	0xbdccbe7b	-0.09997269
222	0x3e99f61e	0.30070585
223	0x3e8d270e	0.2756886
224	0x3cc35dd9	0.023848461
225	0xbefc1186	-0.4923212
226	0x3b9c11b5	0.004762853
227	0x3dcbbbb4	0.09947911
228	0xbf471370	-0.77764034
229	0x3e0a244a	0.13490406
230	0xbe975032	-0.29553372
231	0x3d76972e	0.06020277
232	0x3e20f00c	0.1571657
233	0xbc836e47	-0.016043795
234	0xbd2710a6	-0.04078736
235	0xbc871475	-0.016489247
236	0x3cde1795	0.027110854
237	0x3e02ec2f	0.1278541
238	0xbe329302	-0.17438892
239	0xbef57dfe	-0.47947687
240	0xbdee5044	-0.11636403
241	0xbe87fe53	-0.2656122
242	0xbe9df35d	-0.30849734
243	0x3eda4f23	0.42638502
244	0xbe7b6ee7	-0.24554025
245	0xbd410901	-0.047127727
246	0x3e4d2052	0.2003186
247	0x3db32a13	0.087482594
248	0xbe4a2bb2	-0.19743231
249	0xbe33ae05	-0.17546852
250	0xbe695821	-0.22787525
251	0x3e137dc2	0.14403442
252	0xbe855347	-0.26040098
253	0xbea639e1	-0.32466033
254	0xbf5c3c17	-0.8602919
255	0xbd15e10f	-0.036591586
