results/shared_dqn/models/checkpoint_ep1000.pth (torch, 615283 bytes, 28 tensors)

task_embedding.weight f4 [3, 8]
00000000: baf6 973e 5c8f b53d 4e50 38bd e4b1 5f3e
00000010: c8ab 3e3d 7739 9a3d f6ae 3fbe 5aa9 873e
00000020: 0185 d53d 6545 4bbd 1d2c 10bd c291 e5be
00000030: 2b9c 9bbd 374f 29bd 41a8 9a3e 8d3b 0d3e
00000040: e701 f7be a3ba df3d 51f6 6e3d c486 b13d
00000050: 313d 9e3d c470 b7be 24fd f6bd 7544 3ebe
0.29680425 0.08865234 -0.04499846 0.21845204 0.046550542 0.07530492 -0.18719086 0.26496392
0.10425759 -0.049626727 -0.03519832 -0.44837767 -0.07598146 -0.04133531 0.30206493 0.13792248
-0.4824364 0.1092427 0.058340374 0.08668283 0.07726515 -0.3582822 -0.120600015 -0.18580802

fc1.weight f4 [256, 16]
00000000: dd22 59bd cb04 30bf 1e28 d6be 75be 433f
00000010: 15db d13e 4ac3 e23e 4c62 5e3d f48e a43e
00000020: f907 a13c 6001 a13e aa3c 3c3e a4e8 23bc
00000030: bbf9 62bd 5f49 05bf 1d98 633e 7d22 593b
00000040: 52de 913e 9b4c b6bf 4c4e 1dbe 83bd c7bf
00000050: 5125 273f 6d79 993e 537a 30be 79a5 a4be
00000060: beac dd3e 8d7f a7be 9911 80be c825 d9be
00000070: 9bda 58bf 7020 403f 7360 9d3d 5447 2b3e
00000080: c00b 7ebd 014b 8bbd a1c8 e6bf c625 2c3e
00000090: f6a7 8d3d f636 153d a7b6 2dbd cfe8 013f
000000a0: e9f5 d9bd ea70 a13e 4f1f f9bd 8d60 9bbd
000000b0: c3f1 7bbe c79e c13d a1b5 413e fccb 62bd
000000c0: d1bf 303f 857b 77bd 4c51 36bf 37d1 afbf
000000d0: dc5a e4be 48d0 973c b7c7 3c3f 4502 3abf
000000e0: 2031 363e b7a7 4cbe 5b7a 4a3e 9d42 51bd
000000f0: d6cb 293d faef ed3e 7563 4f3f d862 5c3e
00000100: c0c8 77be 1397 d63e f97b 513f 5f83 05bf
00000110: 574f 88be f264 9e3f 5404 cb3e b4b5 d5bd
00000120: 9160 c53e aff4 08bf 4b8c 85be cc16 d13e
00000130: 1a27 193e 6dc5 b93c b95a 423f 9752 dabd
00000140: 5b4e 1b3f 85f0 cd3e 9641 8b3e eee6 103e
00000150: 7576 b23f 9f32 88bd dee4 1fbf 58d1 103f
00000160: 9026 20be a411 f6bb 93cb 2c3e 3300 63bf
00000170: 31ef 97be 8627 4ebe 0793 ba3e 0385 1d3f
00000180: e771 78be f450 59bf ca7a 073f dccf 3cbf
00000190: c514 de3e 23cb 023f f732 bb3d 6aa0 853e
000001a0: de03 11bd bbec 50bf 4ebe 923e 9997 5f3e
000001b0: d61d 5ebe 45b2 a83d 49e5 c6bd 15d9 99be
000001c0: ce97 f7be a8b6 efbf 8bdb 583e 4af5 cfbe
000001d0: 9777 ba3e 4f9e 51bf ba40 90be a79a 3d3d
000001e0: 3ac8 6ebe e290 c8bc 7810 a7be 705a 1fbf
000001f0: ba40 883e f056 92be 7934 dc3e ff77 cabe
00000200: 357f 4bbf 85d5 853e 1119 573f 01e1 893e
00000210: 1128 8a3e 5c64 af3d 581b 90bf 7cc7 933f
00000220: 98b3 55bf 89c6 853e c041 0c3f d9bc 483f
00000230: f48a 1a3d a020 c43b 585b 17bf 86fd 1cbe
00000240: 1059 ab3f d11f e63d 7768 733f 72b5 5c3f
00000250: 14e8 ab3d a28c 593e c14f 95be 2751 323e
00000260: a3a9 bebd 1a80 f6be 577e 4d3d 98cb 5bbe
00000270: e408 bf3e d53c d83d c3f8 41be 4421 e53d
00000280: eeb0 4cbf a541 a33e 6bc3 91bb 4d05 69bf
00000290: fbe5 1cbf bc27 283f 9896 e23e 47c2 85bf
000002a0: 80f7 173f fd33 61bf 80b7 00bf 624a c93d
000002b0: ec7d 23be 3583 3c3f 56fa 19bf 37cf 91be
000002c0: d401 93bd 2db5 1f3f b221 85be 9fab c6be
000002d0: 7d15 593e f0f4 98be c46d 503f 2bea 8cbf
000002e0: 5237 e6be ff0b 68be 9e55 29be 902d e7bd
000002f0: e346 de3e c45b c2bc c18c 993c f254 dc3e
00000300: 71aa efbd 2c6b 1bbf 96a6 973e 1813 50bf
00000310: 5400 cdbf fa8e 97be d863 a9bf b3ae 31bd
00000320: b3f8 6b3f f6f0 22be 59a8 20be a04b 483e
00000330: 09fb 83be 45e8 253f 81f7 25bd a301 343f
00000340: 500c 3fbf b8e3 653e b4dd f13d 375d 81bf
00000350: e4a6 853f fabd 143f aaac c43e 0d68 ac3d
00000360: 5636 e13e 765a 263e 55ab 583d 48ad 863f
00000370: af2c 82be 05b4 34bf a04c 3dbe 7da9 9b3e
00000380: 3988 3abe 1cad 85be ec17 babe 6b3e dabf
00000390: 6b38 eabe ed16 bf3c fe81 e23e ed30 88bc
000003a0: 4cf5 4b3e 5c58 f5bc b113 b5be 98a9 563d
000003b0: 095b f4bd 4163 183f b81c 35be b93a 0bbf
000003c0: 67cd d73e ddf4 edbf bec3 b9bd d978 53bf
000003d0: 0e7e 2f3e 133e 793d 8546 753e 930a 3cbd
000003e0: 80e1 cc3c 5d9e 853e 178a cabd 7228 8dbe
000003f0: 177d 933f 9dd5 943d 25fc af3d 6548 89be
-0.053011764 -0.68757313 -0.41827482 0.7646249 0.4098746 0.4428962 0.054292962 0.32140315
0.019657122 0.31446362 0.18382517 -0.010004196 -0.055413943 -0.5206508 0.22225995 0.003313213
0.2848993 -1.4242128 -0.15361899 -1.5604709 0.65291315 0.29975453 -0.17234163 -0.32157496
0.43295854 -0.327145 -0.25013426 -0.42411637 -0.84708565 0.75049496 0.07684412 0.16726428
-0.062022924 -0.06801415 -1.8029977 0.16811284 0.06916802 0.036429368 -0.04241052 0.5074586
-0.10642607 0.3153146 -0.12164175 -0.07586775 -0.24603944 0.094541125 0.18916942 -0.055370316
0.6904269 -0.06042053 -0.712178 -1.3735722 -0.4460057 0.018531933 0.7374224 -0.72659713
0.17792177 -0.19985853 0.19773237 -0.051088918 0.04145416 0.4647215 0.81011134 0.21522081
-0.24197674 0.41912135 0.8182979 -0.5215358 -0.26623031 1.2374556 0.3965174 -0.10435048
0.38550237 -0.5349836 -0.26083598 0.40837705 0.14956322 0.022677148 0.7591968 -0.10660284
0.60666436 0.40222564 0.27198476 0.14150593 1.39424 -0.0665028 -0.624586 0.56569433
-0.1563971 -0.007509427 0.16874532 -0.8867218 -0.29674676 -0.20132264 0.36440298 0.61531085
-0.242622 -0.8488915 0.52921736 -0.7375467 0.4337522 0.5109121 0.0914058 0.2609895
-0.03540408 -0.8161122 0.28660816 0.21835174 -0.21691069 0.08237127 -0.097117014 -0.30048433
-0.48358005 -1.8727617 0.21177499 -0.40616828 0.36419365 -0.81882185 -0.28174382 0.046290066
-0.23318568 -0.024483148 -0.32629752 -0.6224737 0.26611882 -0.28581953 0.43008783 -0.39544675
-0.7949098 0.26139465 0.84022623 0.26929477 0.26983693 0.08564064 -1.1258345 1.1545253
-0.83477163 0.26128033 0.54787827 0.7841316 0.037730172 0.0059853345 -0.59123755 -0.15331087
1.3386555 0.11236537 0.95081276 0.86214364 0.08393875 0.21245053 -0.2916241 0.1741377
-0.093096994 -0.4814461 0.050169315 -0.21464384 0.3731147 0.10558478 -0.18942551 0.111879855
-0.79957473 0.3188602 -0.0044483445 -0.91023713 -0.6128842 0.6568563 0.4425552 -1.0449914
0.5936203 -0.8796995 -0.5028 0.098286405 -0.15966004 0.73637706 -0.6014761 -0.28478405
-0.07178083 0.6238583 -0.2600227 -0.38802812 0.21199603 -0.29874372 0.8141749 -1.1008962
-0.4496408 -0.22660826 -0.16536567 -0.11287987 0.43413457 -0.023725398 0.018743875 0.43033558
-0.11702431 -0.60710406 0.29619282 -0.81279135 -1.6015725 -0.2960127 -1.3233595 -0.043379497
0.9217636 -0.15912232 -0.1568922 0.19560099 -0.25777462 0.6480754 -0.04051924 0.70315
-0.7462816 0.22450149 0.11809865 -1.0106572 1.0441556 0.5810238 0.38412982 0.084182836
0.43986768 0.16245446 0.05289777 1.0521631 -0.25424716 -0.7058719 -0.18486261 0.30402747
-0.18216027 -0.26108634 -0.36346376 -1.7050298 -0.45746168 0.023326362 0.442398 -0.016624892
0.19917792 -0.02994936 -0.35366586 0.05240783 -0.11931426 0.5952645 -0.17686737 -0.5438648
0.42148897 -1.8590351 -0.09070538 -0.82606274 0.1713793 0.060850214 0.23952682 -0.04590852
0.02500987 0.26097384 -0.0988962 -0.2756992 1.1522549 0.07267306 0.08593015 -0.26813045

fc1.bias f4 [256]
00000000: 9d8a f63d cfe4 3dbd 9e21 0abc 5938 e8be
00000010: 82f5 92bd 67c8 6d3e dae9 23be 0d30 ef3e
00000020: c85c 63be c696 2f3e c6fb 6c3d 89f7 373e
00000030: a9e0 163d d030 60be 5033 a4be 79c5 b03c
00000040: f69d cabe ec03 8abe 5842 cdbe fb66 e73d
00000050: d976 92be 06ca afbd 32d1 033e 7d09 793d
00000060: 0e09 97be 5798 49be 256c 19be 0757 0a3e
00000070: 8b3b 50bc adf7 4f3e 8f4a 003e 34eb f73d
00000080: d98f fe3d c6fd 903e 0b4c c8bd c6eb d8be
00000090: 9df6 a9be df7d 393d a349 4fbe cd84 acbc
000000a0: cc4f c23c 9693 663c e5d6 7c3e 6fc3 1bbf
000000b0: 4913 a03e 6790 32be 5839 0a3e f51a 283e
000000c0: 6014 f93c 8f0d cebd 25e6 b73d 9fc8 c2bd
000000d0: 4443 42be 1160 33be c2bb 85be b061 1bbe
000000e0: 7acb 1c3f d171 273d d52c 75be b49e 4dbe
000000f0: d948 abbe 015a 45be 25d0 fe3e ce9f e5be
00000100: 7fde a0be 2fd2 ce3c 335a 9cbd 4971 863e
00000110: 8610 4cbc 9396 f6bd 8be7 03bf 9174 2d3e
00000120: 20e2 a1be af67 83be ae2f 283e 0cf7 4fbf
00000130: caf7 c43d 31db 143e bca9 cbbe ef3b 9a3e
00000140: 8274 ccbd 60d4 06bf 3cee 7fbc 757d e8be
00000150: 17b9 573e 14e8 81be c265 853e 56e9 5a3e
00000160: 26e8 a73e 10fc bb3d a8ca 163d c3ab cc3d
00000170: 200d eabd 6c31 8abd 1ecd ef3d 0657 d1bd
00000180: 284b aa3e 143c 903d 824f 0cbd 8d84 1cbf
00000190: ded4 57be 18d9 b3be 85c0 183f e153 4cbd
000001a0: b5d1 843e 0f9e b2bd dd1c 313d 298b 64be
000001b0: ac9e 0cbe 9e0c 67be ac0c e7bd 3d44 a0be
000001c0: 1244 1fbe 7aa2 c3ba ef96 963e 9065 86be
000001d0: 478f 19be 67a8 133f 03a2 193f c4a3 9d3e
000001e0: 41e3 9cbe 50ef 5ebd 47b2 b13e fe7f 71bd
000001f0: 7c5c 0c3f 7776 3abe 4919 ffbe b9a1 15be
00000200: f01a a33c 6dbf 8ebd 65ee bbbe 25a0 4a3d
00000210: 9726 33be 8cc7 693e cf3a eebc 62bf 37be
00000220: a1bd 7fbc d6ba 003d 9e21 943e 340e b2bc
00000230: 85e1 483e 2378 7d3e e4f7 51be f250 3d3e
00000240: c38d 59be fa54 f33e b834 c33d 2c66 e4be
00000250: b001 3e3e bffe c33d a637 ffbc 3381 ea3e
00000260: 3b1d 323b 0d3d 19bd fe3a 08bc 38cc 45bf
00000270: ead1 68bf 2ec0 7dbe 4e2c ce3e 0646 173e
00000280: 6964 543e d847 e3be c446 4fbf 37b4 5a3e
00000290: 0095 3d3e 0175 033e 5b33 4bbb 51e0 5d3d
000002a0: b262 adbd 5ec9 7b3e 6a45 9b3e 5d30 343e
000002b0: 21c3 9e3e 6f58 a03d c88b 6a3e 871b 0e3e
000002c0: 8bc4 afbe 504b d1be 472e db3d 839f c7be
000002d0: 6a04 0dbf 5e08 92be 8ae9 7f3e 118a 65bb
000002e0: a711 88be bc51 893e 7280 403d f870 a03e
000002f0: 99e0 4abf 6058 08bf 0001 11be bb34 d33d
00000300: d8c5 dfbe 24fe bbbe ee3b 593e b9a8 acbe
00000310: eeb3 d13c f5d6 14bd 36a3 2b3f 50fb 1d3e
00000320: 85e3 3d3e 6808 923e d5c9 eabc d8b5 86be
00000330: f35a c3be 3047 1c3f 1ae0 253f 9536 73bc
00000340: 06a4 63bd cdb0 9e3b 2428 183f bac6 e9be
00000350: 9037 f63e 2369 1f3d 45af 87be 5391 d9bd
00000360: 4ae8 bf3d ab44 00be 9ac5 cdbe 40a1 a73c
00000370: 5038 473e 4180 ccbd d73d a03e b284 653e
00000380: 1780 ad3d 5bcb 0ebf 8085 073d ba70 c33d
00000390: 0810 44bf ae92 da3d b854 70be b368 063e
000003a0: c595 103e b6e4 22bd 8d7b 71bd eaf3 06bd
000003b0: 458d b0bc 3962 553d b656 28be 15b9 e9be
000003c0: 47c7 ebbd b1e9 63be 26ec 85be 6135 c03e
000003d0: b685 80be bb55 80bd e4b5 173e 178b ae3d
000003e0: 6292 19be 1edf 4cbe 71e5 03be 28c4 0c3e
000003f0: be92 6dbe 94d6 b0be b778 53bf 65f1 e0bc
0.12038157 -0.046360787 -0.0084308665 -0.4535549 -0.07175733 0.23220979 -0.16007176 0.46716347
-0.22203362 0.17147359 0.057857297 0.17965521 0.036835346 -0.2189362 -0.32070398 0.021578537
-0.3957364 -0.26956117 -0.4008968 0.11298939 -0.286063 -0.08583455 0.1287277 0.060800064
-0.29499096 -0.1968702 -0.1498266 0.13509761 -0.012709509 0.20309325 0.12528442 0.12105408
0.124297805 0.28318614 -0.09780129 -0.4236738 -0.33195964 0.045286056 -0.20242934 -0.021059418
0.02371969 0.014073273 0.24691351 -0.60845083 0.31264713 -0.17437898 0.13498437 0.16416533
0.030405223 -0.1006118 0.089794435 -0.09510922 -0.18970972 -0.17517115 -0.2611981 -0.15173984
0.6124798 0.04088003 -0.23942883 -0.20080072 -0.33454016 -0.19272615 0.49768177 -0.44848484
-0.3141975 0.025246708 -0.07634392 0.26258305 -0.012455111 -0.120404385 -0.5152518 0.16938998
-0.31617832 -0.25665042 0.16424438 -0.8123634 0.096175745 0.1453674 -0.39777935 0.3012385
-0.099831596 -0.5266781 -0.015620764 -0.45408216 0.210667 -0.25372374 0.26054198 0.21378073
0.32794303 0.091789365 0.03681436 0.099936984 -0.11428285 -0.06747708 0.11709045 -0.102216765
0.33260465 0.07042709 -0.034255512 -0.61139756 -0.21077296 -0.35126567 0.5966876 -0.04988468
0.25941244 -0.087215535 0.043240417 -0.2231871 -0.13732404 -0.22563407 -0.11281714 -0.31302062
-0.1555331 -0.0014925741 0.29412028 -0.2624936 -0.14996062 0.57678837 0.60012835 0.30789006
-0.3064213 -0.054427445 0.34706327 -0.058959953 0.5482862 -0.18209253 -0.4982398 -0.14612474
0.019910306 -0.06970105 -0.36705318 0.049469132 -0.1749519 0.22830027 -0.029080776 -0.179441
-0.015609176 0.03142818 0.28931898 -0.021735288 0.19617279 0.2475286 -0.20504719 0.1848791
-0.21245484 0.4752577 0.0953154 -0.446092 0.18555331 0.09570073 -0.031154465 0.45801696
0.0027178067 -0.03741174 -0.008314846 -0.7726474 -0.90945303 -0.24780342 0.40268177 0.14772806
0.20741428 -0.4439075 -0.80967355 0.21357809 0.1851387 0.12837602 -0.0031005952 0.054169003
-0.0846609 0.24588534 0.30326396 0.17596574 0.31008247 0.07829367 0.22904885 0.13877688
-0.34329638 -0.4087777 0.10702186 -0.38988885 -0.5508486 -0.2852201 0.24991432 -0.003502492
-0.26575968 0.2682017 0.046997495 0.31336188 -0.7924896 -0.5325985 -0.14160538 0.10312792
-0.4370563 -0.3671733 0.21214268 -0.33722475 0.025598492 -0.03633781 0.67045915 0.154279
0.18543823 0.28522038 -0.028660694 -0.2631061 -0.38155326 0.61046124 0.64795077 -0.014844556
-0.055576347 0.0048428536 0.5943625 -0.4565943 0.48089266 0.038918626 -0.26500908 -0.106234215
0.093704775 -0.12526195 -0.4018982 0.020462632 0.19455075 -0.099854 0.3129718 0.224139
0.08471697 -0.55779046 0.0330863 0.09542985 -0.7658696 0.10672508 -0.23469818 0.13125877
0.14119633 -0.039768897 -0.058955718 -0.03294746 -0.021551738 0.052095626 -0.16439328 -0.4564902
-0.115126185 -0.22257115 -0.2615673 0.37540725 -0.25102013 -0.06266352 0.1481548 0.08522623
-0.14997247 -0.20006987 -0.12880494 0.13746703 -0.23200509 -0.3453871 -0.8260607 -0.027458856

fc2.weight f4 [128, 256]
00000000: fa1c a0be c4a1 073f cbbf c13c 20e8 c53e
00000010: 211f 8f3e e5e7 1e3e b278 c73e 81dd ad3e
00000020: 624e bd3e b4f0 94be 4947 d13c 2165 4a3e
00000030: 9c19 b63d 0910 443e c16f 9abc 6126 e53e
00000040: b6d9 47bf 1b0c c43d eace 0a3f 9c06 923e
00000050: 79be 08be b228 ce3e 72ec 03bf d5a6 333d
00000060: 39c3 b83d 58df 25bf 3e23 46bf 93e8 6dbf
00000070: 462e 9ebe 41cb 9bbf 3f72 6a3f 1d18 90bf
00000080: e309 f6bd 3747 f43e a2a2 03be b576 473f
00000090: afa6 19bf 5f85 2c3e b5d9 0f3e 704d 1fbe
000000a0: df5c ec3e 1c57 2d3e 0985 69bf 37cd e63d
000000b0: fff5 973e b4e3 7dbe e165 cfbe 3ce3 1bbe
000000c0: 5804 603e 7d22 e73e 0ba6 983e d830 973e
000000d0: 3705 503f 85cc b23e 7cdb fcbe bad6 8e3e
000000e0: bada f2be b0ca 4cbf 5cf5 68be 803f 703e
000000f0: d3df cebd 8f23 5e3f 6dac 0a3e 5d5a 713e
00000100: 79ab 243e d2f1 5e3e 11c9 b8bf c06d 6c3f
00000110: 84a1 343e b201 8ebd d983 c13e a80e 383e
00000120: 3141 873e f60b 5c3d ee25 a9bd f403 d7be
00000130: e786 8fbf 4d32 d53e 2314 663f 6e3f 14be
00000140: 2823 963f a5f2 933c a9ae 103d 363b 103e
00000150: 129e b73d 5194 48bf ca78 9e3d 3b87 60be
00000160: 150d 81bd e9da febe 00db 363d 2f8f c43e
00000170: dcb8 b13e 26a1 f73c cb8d cfbe 768c 77be
00000180: 4811 e33d 1b6f ae3e 7c99 43bf 4d4a cfbf
00000190: 3546 a63f 8085 0f3f e869 d0bd 6901 903c
000001a0: f51e 51bf 9d4d 0bbf cddd 2e3e 5e83 0ebe
000001b0: eefd 283f 1908 9c3d 21b4 ca3e 5a34 8e3e
000001c0: db06 aa3d d856 193f efbb 82bd 15d3 20bd
000001d0: 1880 ba3c c3f5 afbe 2501 2abe febd 96bc
000001e0: 9610 40bd f68f 063d dfdf d53e 890d 71bf
000001f0: 5000 1fbf 17e4 dc3d 4888 b03e e1ef 883c
00000200: cb39 c73d 83e0 613c 91a4 1cbf 4af7 073f
00000210: c2e6 053f ef9b f23c 9170 763d 44c0 db3d
00000220: f5c7 943f b3d4 963e 9940 c9be e305 16bf
00000230: cfd2 273f d913 8e3e 61eb 9fbe fbed b0bd
00000240: d85f 1040 5abc 8ebe 0d58 75bf eaa9 90bf
00000250: 7413 803f 952f 083f 9751 543e be76 043b
00000260: e658 083e 5290 25bf 9207 8f3e 935c 8bbe
00000270: bdc7 bfbe aae5 71be 60ea b8bf 1470 ed3e
00000280: d424 babd 88f7 ca3e 758e 3a3d c9ba d83c
00000290: c0f2 89be b73f 093f e441 853f 0c47 8f3e
000002a0: 5d4f ca3d f4aa eb3e 4d8d bb3e 8382 9a3e
000002b0: 43e8 393e 80c0 423e 9add c3bf a9ed d8bc
000002c0: 5728 70bf 25f6 8ebe fe0d 3f3c 9871 8a3e
000002d0: a688 ebbd 8745 33be d51a a5be aa08 1fbd
000002e0: 2579 87bf 7cbb b7be 55d9 09bf c7a4 11be
000002f0: ce90 36c0 7ccd bb3e 3dc0 943e 709f b2bf
00000300: 3cc3 313e 218f bb3e 682e 483e 4a24 be3d
00000310: 33ce 62be e6a5 ed3c 2daa 9dbe a244 15c0
00000320: b022 10bf 11b8 d8be 2001 243d ec8a 4bbe
00000330: 40a5 8cbe 24f7 66bf fc11 40bf edc3 93bd
00000340: cf21 7abe 553a 123c efa5 f0be e48e 643e
00000350: 9acb 91be 4bc3 dbbd db3e 62bf 0d9b a8bd
00000360: 5f70 31bd 44f6 8fbf 1888 c23d 0f4f c53d
00000370: 6b38 8d3e 6781 35bd d220 51bf bb2a 183e
00000380: 482a eabc 2f97 e6be 606f 8d3d d6e0 493e
00000390: 53c4 33be 3af1 8cbd 92a2 0dbe 41e4 7e3e
000003a0: bcab 2dbc b820 80bf e3f7 fe3e b91a 89bd
000003b0: 6df2 843e cf68 4dbc 7dd5 21be a645 8d3d
000003c0: 9cec ad3e e0fa 72bf 0a25 073e f8b4 9abe
000003d0: 20bd 4abf 8634 31bf 7d05 4a3f 9142 ea3c
000003e0: 2e6d 783e aef2 923e 0fb8 7fbf a31a fe3d
000003f0: 3681 253e 134d 303f c12e 813f f33b 163f
-0.31272107 0.5298121 0.023651024 0.3865366 0.27953437 0.15518148 0.3895927 0.33958057
0.36973864 -0.29089892 0.025546687 0.1976514 0.08891603 0.19146742 -0.018852117 0.44755843
-0.78066576 0.095726214 0.54221976 0.28520668 -0.1335391 0.40265423 -0.5153266 0.043860275
0.09021611 -0.6479392 -0.77397525 -0.92933005 -0.3089468 -1.2171403 0.91580576 -1.1257359
-0.120136045 0.47710583 -0.12855008 0.7791551 -0.60019964 0.16847752 0.14047892 -0.15556884
0.46164605 0.16927761 -0.9121862 0.112696104 0.29679868 -0.24793893 -0.40507415 -0.15223402
0.21876657 0.451435 0.2981418 0.29529452 0.8125796 0.3492166 -0.49386203 0.27898198
-0.474325 -0.79996777 -0.22749847 0.23461723 -0.10101285 0.8677301 0.13542338 0.23569627
0.16081037 0.21771935 -1.4436361 0.92354965 0.17639738 -0.06933917 0.37795904 0.17974341
0.26416925 0.053722344 -0.08259188 -0.41995203 -1.1213044 0.4163994 0.89874476 -0.14477322
1.1729479 0.018060038 0.03532282 0.14085087 0.089656964 -0.7835131 0.077378824 -0.21926586
-0.06301323 -0.4977639 0.04464245 0.3839049 0.3471135 0.030228209 -0.40537867 -0.24174675
0.110872805 0.34069142 -0.76406074 -1.619455 1.2990175 0.5606308 -0.1017645 0.017578797
-0.8168786 -0.54415303 0.17076798 -0.139173 0.66012466 0.07618732 0.39590552 0.27774316
0.08302089 0.5989814 -0.06383502 -0.039263804 0.022766158 -0.3436719 -0.16601999 -0.018401142
-0.046890818 0.032852136 0.41772363 -0.9416128 -0.6210985 0.10785692 0.34478974 0.016715946
0.0972782 0.013786438 -0.6118861 0.5311171 0.52305233 0.02961537 0.060165945 0.10730031
1.1623522 0.29459152 -0.39307097 -0.5860273 0.65556043 0.27749518 -0.31234267 -0.08639141
2.2558498 -0.27878076 -0.9583748 -1.1301854 1.0005937 0.53197604 0.20734249 0.0020212377
0.13315162 -0.6467334 0.27935463 -0.27219066 -0.37457076 -0.23622766 -1.4446526 0.4637457
-0.09089056 0.39641976 0.045546014 0.026456254 -0.26943016 0.53612846 1.0410733 0.27983892
0.098784186 0.46028864 0.3663124 0.30177698 0.18155007 0.19018745 -1.5302002 -0.026480513
-0.93811554 -0.27922168 0.011661051 0.2703979 -0.11500673 -0.17506991 -0.32247034 -0.038826622
-1.0583845 -0.35885227 -0.5384725 -0.14223014 -2.8525882 0.3668021 0.29052916 -1.3954906
0.17359632 0.36632636 0.19548953 0.09284265 -0.22148971 0.02900977 -0.30793896 -2.332314
-0.5630293 -0.42327932 0.040040135 -0.19877213 -0.27469826 -0.90220857 -0.7502744 -0.07215104
-0.2442696 0.00892504 -0.47001597 0.22320133 -0.28475648 -0.107306086 -0.8837716 -0.082326986
-0.043320056 -1.1247029 0.09498614 0.0963422 0.27582106 -0.04431286 -0.81690705 0.1486005
-0.028584614 -0.4503722 0.06906009 0.19714674 -0.1755536 -0.06881948 -0.13831547 0.2489176
-0.010600027 -1.0009985 0.49798498 -0.0669455 0.25966206 -0.012537195 -0.15804096 0.0689805
0.3396958 -0.94914055 0.13197723 -0.30216193 -0.7919483 -0.6922077 0.78914624 0.028596194
0.24260399 0.28700775 -0.99890226 0.12407424 0.16162571 0.68867606 1.0092393 0.58685225

fc2.bias f4 [128]
00000000: 3b53 18be c257 b03e 725e 6cbe 85d6 493e
00000010: 2bf6 d7be e628 9e3d 3106 0cbe 8250 043e
00000020: 191d 9cbc 41a0 debc 30d9 10be 9bff c23e
00000030: 878f 993e 76a7 663d 17db 58be cc52 a3bd
00000040: 3139 5bbe b413 02bd de70 433d 82b0 22be
00000050: 764a b2be b18e 4e3e 0e6e 2e3c 7a7d a13d
00000060: d069 d9be 2627 0ebd 7b35 453e d0a9 9cbe
00000070: b619 46bd 5e30 fbbe a180 d23e fd69 7c3e
00000080: fc60 96be b7ed 03bc 3f11 6bbe ab10 d83e
00000090: 50ea a0be d8d6 dabd a662 283e 692d d0bd
000000a0: 66bb a9bd e801 c03e 2c98 dc3d 1fba 1b3e
000000b0: ee40 2cbd 4f8b 13bd 106d 663e 58c0 e9be
000000c0: 3858 cbbd 023e a33d 9511 393d d286 3b3d
000000d0: aacd 2a3e 02bf 163e b3d4 f33e 7760 eb3d
000000e0: 3d91 473e 49f1 46be 715c 583d 411c e03e
000000f0: 2f97 b03d 0b55 2e3f 6789 17bc 053d 59bd
00000100: dba4 033e e547 9fbe 443c 4f3e 65f4 133e
00000110: 6192 493d b1f2 ed3b 2c02 b03e db6b 423e
00000120: 886c c33e d8eb 24be 7238 fc3d 9351 483d
00000130: b917 043d 2125 3a3c ef5d 25be 7148 23be
00000140: f34a 973e 9d35 16be 5a83 d83e 2df3 ad3d
00000150: 718c 08bf 6330 18be 5991 693e 2c6e 1e3e
00000160: a81e 723d 4a0f d4bc 7d67 2fbd f20e 24bd
00000170: 8bb9 783e 73b1 b23e 1af7 843c 4919 043f
00000180: cfea 0cbf 2cf3 24be 90b8 133b 8616 b13e
00000190: b8a1 0bbd f9fa 9a3e beac ab3d 29a8 033f
000001a0: 5a2c 62bd 0b30 083e 532b 59be 9927 f5bd
000001b0: 4ad0 9d3d 1861 a6be 5b6b cfbd 5db8 e93e
000001c0: 61ce bcbd c5dd 93bc e42a 94be d2e7 d93c
000001d0: be06 e63d fe69 06be b938 cbbe 37da 35bd
000001e0: 0bc8 bc3d d5c9 0dbe 0efc dabc bc55 6fbe
000001f0: 540a febd bf3c 33bd b2d9 00be 9e78 abbd
-0.148755 0.34441954 -0.23082903 0.19710739 -0.4218 0.077226445 -0.13674237 0.12921336
-0.019056844 -0.027176024 -0.1414535 0.38085636 0.29992315 0.056312047 -0.21177326 -0.079747766
-0.21408536 -0.03175707 0.04771506 -0.15887645 -0.34822434 0.2017162 0.010646356 0.07885261
-0.4246354 -0.034705304 0.19258682 -0.30598307 -0.048364364 -0.4906034 0.4111376 0.24649806
-0.29370868 -0.008052281 -0.22955798 0.42200217 -0.31428766 -0.106855094 0.16443881 -0.10164911
-0.082876965 0.37501454 0.10771212 0.15207718 -0.04205411 -0.036021527 0.22502542 -0.4565456
-0.09928936 0.079708114 0.045182783 0.04578287 0.16680017 0.14721301 0.47623214 0.114930086
0.19488998 -0.1942798 0.052822534 0.43771556 0.08622586 0.68098515 -0.009249068 -0.05303671
0.12855856 -0.3110954 0.20237833 0.14448698 0.049211863 0.007261597 0.34376657 0.18986456
0.3816874 -0.16105592 0.123154536 0.04890592 0.032249186 0.011361391 -0.16149114 -0.15945603
0.2954937 -0.1466889 0.42287713 0.08493648 -0.53339297 -0.14862208 0.22809352 0.15471715
0.059111267 -0.025886197 -0.042823303 -0.040053315 0.24289529 0.34901008 0.016231108 0.5160108
-0.5504579 -0.16108388 0.0022540428 0.34587497 -0.034089774 0.30269602 0.08382557 0.5142847
-0.05521808 0.13299577 -0.21207933 -0.11970443 0.077057436 -0.32495952 -0.10127898 0.4564847
-0.09219051 -0.018050084 -0.28938973 0.026599798 0.11231755 -0.1312637 -0.39691713 -0.04439756
0.09217843 -0.13846524 -0.026731517 -0.23372549 -0.12404314 -0.043759104 -0.12583044 -0.08372615

fc3.weight f4 [4, 128]
00000000: 835b cabd d1d8 c43f 60a3 a73f 472c 723f
00000010: 71db 403f 61dc ff3e 3184 ef3f f4f1 a53f
00000020: bd68 023e 17b9 b43f e97f afbe 937d a03f
00000030: 95c2 783f 6735 833e 3968 e93f 8ff0 4dbf
00000040: 60df 44bf 2bfb 4abc 0d12 b7be 8c4e 45be
00000050: cb43 2cbf 6370 9e3f 2b90 1ebf 47c7 36bf
00000060: a626 8ebf 27b2 0e3e 2a5a b2bf 7adb 8a3e
00000070: a686 94bf 5baa 573f 1c84 1dbf 44b3 843f
00000080: aa6c 413f 8602 e53c 1f0b 29bf 28f5 7a3f
00000090: 7528 17be 878b 0cbf bd48 10be 7941 8dbf
000000a0: a0c6 07bf 45d6 23bf 57a4 c23f 34c1 d8be
000000b0: 570f 16bc 3832 583d 3cc1 903e f362 233e
000000c0: 4d98 04be 4ad9 cbbe 9a3c 11bf ea84 8cbe
000000d0: eb5d 243f 71ea 693f 4666 7cbf b2cc 373f
000000e0: d637 593f 93d8 bfbe 1d15 b53f f512 56bf
000000f0: 0a0b 04bf 63d1 883f aa8d 513e 827b ddbe
00000100: 5ddf 293e a3f7 b13e 3225 50bf 512a 71bf
00000110: 09b6 28bf 6abf dfbe b947 883f 1b15 c1bd
00000120: b653 b63f 2100 5a3f d97e 513d 848f 00bf
00000130: ea26 833f 6660 41be 95ef 61bf c4cd e2ba
00000140: 30fc b73f 4a89 28bf a9ff 07bf 8569 b53d
00000150: a2ea 8abc 0e6c 123f 5197 bcbe 4aba 06be
00000160: 96ba aa3e c4c6 873e 67da 13be c3ab 283e
00000170: a5fb 983e 08e9 8abe b79b c4be ef56 2fbf
00000180: a161 663e 9999 313f 6697 1ebf 060a b8be
00000190: 06dc 4abe 97b5 14bf c1ac 4cbf c762 373f
000001a0: cae1 973e ff02 2fbf 029f 64be 3039 78be
000001b0: ccb6 bfbf 8f0b 8ebe d9ab 173f 4233 bb3f
000001c0: 4dc5 803e 08e3 c33f 1802 5e3f 6586 af3f
000001d0: 3c1a f73e cd5f 0fbf 425f c8bf 1e5c 863d
000001e0: a9be 6b3f b643 06bf 1a89 b73f 9fa9 923f
000001f0: 6325 54bf 596e ca3d a0d8 3abe eafe 1dbf
00000200: 5d90 3dbf e03e b63f b7e0 073d 4c20 993f
00000210: c80e 0c40 ae86 473f 902f d83f 8779 aa3f
00000220: 5a41 7fbd 6fc8 903f 7cda 63be ed9b a93f
00000230: bb3c 6d3f 8c66 a03e 554b 0040 a8b7 63bf
00000240: a4a0 46bf c8d2 aabd ff2a 90bf a719 56be
00000250: 5d1a 8bbe 312f c43f 3d9d 3a3f 070f 4fbf
00000260: 6bed 6bbf 811a f83c 4209 71bf ae51 8a3f
00000270: 9606 8dbf 67d6 8a3f 151d 22bf 1d01 8f3f
00000280: bc49 b53e 4993 8fbf c6fa 4abf 6972 8b3f
00000290: b5e0 353f d26d a2be 48c8 80be 1360 92bf
000002a0: 6692 f7be 3948 efbb 3ed2 ab3f 71a4 0fbe
000002b0: cc38 12bd 5cfe 373e 6fbd 1c3c 9197 e43e
000002c0: 7ca7 4abf 38b8 85bd 4859 dfbe d498 023f
000002d0: cbec 183f c6a6 903f a50b 8cbf a90f 353f
000002e0: 81d5 793f c88b 50bf 14cc a23f fea3 2bbf
000002f0: 97ea 98bf ff5b 883f b76f e0bf e744 aebe
00000300: dd98 ddbd 84c5 263e c7e6 88bf 0327 4abf
00000310: bce5 66bf 617e bebe 6c1e 8a3f 3afe 29bf
00000320: 097e 9e3f 83f3 1d3f 02c6 4e3f 8637 38bf
00000330: 5165 af3f 8ba3 d9bd 6eee 34bf 2d10 363f
00000340: f9e0 b43f cb74 24bf 82ea 57bf 1894 733e
00000350: fb32 393f a982 3bbf 3dfb b7be 90f6 2f3e
00000360: a964 25bf 5ef3 ccbc f05b c83d 5f33 8a3d
00000370: bab3 32bf 4ac4 23bf 4d81 64be 9e3e 53bf
00000380: faba 6e3f 029b 2e3f 2252 63be 36a9 f6bd
00000390: 489f 4abe 5dc1 9abe f221 c0be 2f43 793f
000003a0: 435e 1b3e 9b07 50bf d893 2abf 3a03 f1be
000003b0: 5709 b43e 0212 94be 4fb5 bbbd 13cb b13f
000003c0: 6330 34bf d028 983f 5aa3 04bf ff3c c93f
000003d0: bcdd 663f e7c0 d0be e700 153f e16f d6bd
000003e0: 08f8 5b3f a856 4fbe 65f7 a23f 387d 833f
000003f0: b63c e6be 064d 623e 1689 b23f b8f7 edbe
-0.09880736 1.5378667 1.3096733 0.9459881 0.7533484 0.49972823 1.8712217 1.2964463
0.12735267 1.4118985 -0.34277275 1.2538322 0.9717191 0.2562668 1.8234931 -0.8044519
-0.76903343 -0.012388985 -0.3575596 -0.19268245 -0.67290944 1.2378048 -0.6193873 -0.71397823
-1.1105545 0.13935147 -1.3933766 0.27120572 -1.1603591 0.84244317 -0.6152971 1.0367208
0.75556433 0.027955305 -0.66032594 0.9803033 -0.14761527 -0.549004 -0.14090247 -1.1035606
-0.5303745 -0.63998824 1.5206403 -0.42334902 -0.009158931 0.052782267 0.28272426 0.15955715
-0.12948723 -0.39814216 -0.56733096 -0.27445155 0.6420581 0.91373354 -0.98593557 0.71796715
0.84850824 -0.3746992 1.4147068 -0.83622676 -0.51579344 1.06889 0.20464197 -0.4325829
0.16589113 0.34759244 -0.81306756 -0.94205195 -0.65902764 -0.43700725 1.0646888 -0.09427854
1.4244297 0.85156447 0.051146362 -0.5021899 1.0246251 -0.1888443 -0.882562 -0.0017303755
1.4373837 -0.65834486 -0.5312448 0.08858017 -0.016957585 0.5719613 -0.36834195 -0.13157001
0.3334548 0.26518834 -0.14438783 0.16471772 0.2987949 -0.27130914 -0.3840005 -0.68492025
0.2249818 0.69374996 -0.61949766 -0.35945147 -0.19810495 -0.58089584 -0.799511 0.716351
0.2966445 -0.68363947 -0.22326282 -0.24240565 -1.497766 -0.27743194 0.59246594 1.4625018
0.2515053 1.530366 0.86721945 1.3712889 0.48262203 -0.56005555 -1.565407 0.06560539
0.920878 -0.5244707 1.4338715 1.1458014 -0.8286955 0.098843284 -0.18246698 -0.61717093
-0.74048406 1.4237938 0.03317329 1.1962981 2.1884022 0.7793988 1.6889515 1.3318337
-0.062318183 1.1311167 -0.22251314 1.325071 0.9267079 0.31328237 2.004598 -0.8895211
-0.7758887 -0.083409846 -1.1263121 -0.20908223 -0.2716855 1.5326902 0.72896177 -0.80882305
-0.92159146 0.030286076 -0.9415475 1.0806177 -1.1017635 1.084668 -0.63325626 1.1172215
0.35407817 -1.1216823 -0.792889 1.089429 0.71046 -0.3172441 -0.25152802 -1.143557
-0.4835388 -0.007302311 1.3423536 -0.14027573 -0.035698697 0.17968124 0.009566649 0.44646886
-0.7916181 -0.065292776 -0.43622804 0.5101445 0.5973632 1.1300895 -1.0941054 0.7072702
0.97591406 -0.8146329 1.271853 -0.6704711 -1.1946591 1.0653075 -1.7534093 -0.34036943
-0.10820172 0.16286284 -1.0695428 -0.7896578 -0.90194297 -0.37205794 1.0790534 -0.66403544
1.2382213 0.61699694 0.80770886 -0.7195972 1.3702794 -0.106268965 -0.70676315 0.7111843
1.4131156 -0.6424071 -0.84342206 0.23786962 0.72343415 -0.73246247 -0.35933867 0.171839
-0.6460672 -0.02501839 0.09783161 0.067480795 -0.6980549 -0.6397139 -0.2231495 -0.8251742
0.93254054 0.68205273 -0.221993 -0.12043993 -0.19787323 -0.3022565 -0.37525898 0.9736814
0.15172677 -0.81261605 -0.6663184 -0.47072774 0.35163376 -0.2891999 -0.09165441 1.3890098
-0.7038633 1.1887455 -0.51811755 1.572174 0.9018209 -0.40772173 0.582045 -0.10470558
0.8592534 -0.202479 1.2731749 1.0272589 -0.44968194 0.22099695 1.3948085 -0.46478057

fc3.bias f4 [4]
00000000: 6f4b 47be 6918 72be aa00 c73d 6988 613e
-0.1946237 -0.23642124 0.097169235 0.22024693

task_embedding.weight f4 [3, 8]
00000000: baf6 973e 5c8f b53d 4e50 38bd e4b1 5f3e
00000010: c8ab 3e3d 7739 9a3d f6ae 3fbe 5aa9 873e
00000020: 0185 d53d 6545 4bbd 1d2c 10bd c291 e5be
00000030: 2b9c 9bbd 374f 29bd 41a8 9a3e 8d3b 0d3e
00000040: e701 f7be a3ba df3d 51f6 6e3d c486 b13d
00000050: 313d 9e3d c470 b7be 24fd f6bd 7544 3ebe
0.29680425 0.08865234 -0.04499846 0.21845204 0.046550542 0.07530492 -0.18719086 0.26496392
0.10425759 -0.049626727 -0.03519832 -0.44837767 -0.07598146 -0.04133531 0.30206493 0.13792248
-0.4824364 0.1092427 0.058340374 0.08668283 0.07726515 -0.3582822 -0.120600015 -0.18580802

fc1.weight f4 [256, 16]
00000000: dd22 59bd cb04 30bf 1e28 d6be 75be 433f
00000010: 15db d13e 4ac3 e23e 4c62 5e3d f48e a43e
00000020: f907 a13c 6001 a13e aa3c 3c3e a4e8 23bc
00000030: bbf9 62bd 5f49 05bf 1d98 633e 7d22 593b
00000040: 52de 913e 9b4c b6bf 4c4e 1dbe 83bd c7bf
00000050: 5125 273f 6d79 993e 537a 30be 79a5 a4be
00000060: beac dd3e 8d7f a7be 9911 80be c825 d9be
00000070: 9bda 58bf 7020 403f 7360 9d3d 5447 2b3e
00000080: c00b 7ebd 014b 8bbd a1c8 e6bf c625 2c3e
00000090: f6a7 8d3d f636 153d a7b6 2dbd cfe8 013f
000000a0: e9f5 d9bd ea70 a13e 4f1f f9bd 8d60 9bbd
000000b0: c3f1 7bbe c79e c13d a1b5 413e fccb 62bd
000000c0: d1bf 303f 857b 77bd 4c51 36bf 37d1 afbf
000000d0: dc5a e4be 48d0 973c b7c7 3c3f 4502 3abf
000000e0: 2031 363e b7a7 4cbe 5b7a 4a3e 9d42 51bd
000000f0: d6cb 293d faef ed3e 7563 4f3f d862 5c3e
00000100: c0c8 77be 1397 d63e f97b 513f 5f83 05bf
00000110: 574f 88be f264 9e3f 5404 cb3e b4b5 d5bd
00000120: 9160 c53e aff4 08bf 4b8c 85be cc16 d13e
00000130: 1a27 193e 6dc5 b93c b95a 423f 9752 dabd
00000140: 5b4e 1b3f 85f0 cd3e 9641 8b3e eee6 103e
00000150: 7576 b23f 9f32 88bd dee4 1fbf 58d1 103f
00000160: 9026 20be a411 f6bb 93cb 2c3e 3300 63bf
00000170: 31ef 97be 8627 4ebe 0793 ba3e 0385 1d3f
00000180: e771 78be f450 59bf ca7a 073f dccf 3cbf
00000190: c514 de3e 23cb 023f f732 bb3d 6aa0 853e
000001a0: de03 11bd bbec 50bf 4ebe 923e 9997 5f3e
000001b0: d61d 5ebe 45b2 a83d 49e5 c6bd 15d9 99be
000001c0: ce97 f7be a8b6 efbf 8bdb 583e 4af5 cfbe
000001d0: 9777 ba3e 4f9e 51bf ba40 90be a79a 3d3d
000001e0: 3ac8 6ebe e290 c8bc 7810 a7be 705a 1fbf
000001f0: ba40 883e f056 92be 7934 dc3e ff77 cabe
00000200: 357f 4bbf 85d5 853e 1119 573f 01e1 893e
00000210: 1128 8a3e 5c64 af3d 581b 90bf 7cc7 933f
00000220: 98b3 55bf 89c6 853e c041 0c3f d9bc 483f
00000230: f48a 1a3d a020 c43b 585b 17bf 86fd 1cbe
00000240: 1059 ab3f d11f e63d 7768 733f 72b5 5c3f
00000250: 14e8 ab3d a28c 593e c14f 95be 2751 323e
00000260: a3a9 bebd 1a80 f6be 577e 4d3d 98cb 5bbe
00000270: e408 bf3e d53c d83d c3f8 41be 4421 e53d
00000280: eeb0 4cbf a541 a33e 6bc3 91bb 4d05 69bf
00000290: fbe5 1cbf bc27 283f 9896 e23e 47c2 85bf
000002a0: 80f7 173f fd33 61bf 80b7 00bf 624a c93d
000002b0: ec7d 23be 3583 3c3f 56fa 19bf 37cf 91be
000002c0: d401 93bd 2db5 1f3f b221 85be 9fab c6be
000002d0: 7d15 593e f0f4 98be c46d 503f 2bea 8cbf
000002e0: 5237 e6be ff0b 68be 9e55 29be 902d e7bd
000002f0: e346 de3e c45b c2bc c18c 993c f254 dc3e
00000300: 71aa efbd 2c6b 1bbf 96a6 973e 1813 50bf
00000310: 5400 cdbf fa8e 97be d863 a9bf b3ae 31bd
00000320: b3f8 6b3f f6f0 22be 59a8 20be a04b 483e
00000330: 09fb 83be 45e8 253f 81f7 25bd a301 343f
00000340: 500c 3fbf b8e3 653e b4dd f13d 375d 81bf
00000350: e4a6 853f fabd 143f aaac c43e 0d68 ac3d
00000360: 5636 e13e 765a 263e 55ab 583d 48ad 863f
00000370: af2c 82be 05b4 34bf a04c 3dbe 7da9 9b3e
00000380: 3988 3abe 1cad 85be ec17 babe 6b3e dabf
00000390: 6b38 eabe ed16 bf3c fe81 e23e ed30 88bc
000003a0: 4cf5 4b3e 5c58 f5bc b113 b5be 98a9 563d
000003b0: 095b f4bd 4163 183f b81c 35be b93a 0bbf
000003c0: 67cd d73e ddf4 edbf bec3 b9bd d978 53bf
000003d0: 0e7e 2f3e 133e 793d 8546 753e 930a 3cbd
000003e0: 80e1 cc3c 5d9e 853e 178a cabd 7228 8dbe
000003f0: 177d 933f 9dd5 943d 25fc af3d 6548 89be
-0.053011764 -0.68757313 -0.41827482 0.7646249 0.4098746 0.4428962 0.054292962 0.32140315
0.019657122 0.31446362 0.18382517 -0.010004196 -0.055413943 -0.5206508 0.22225995 0.003313213
0.2848993 -1.4242128 -0.15361899 -1.5604709 0.65291315 0.29975453 -0.17234163 -0.32157496
0.43295854 -0.327145 -0.25013426 -0.42411637 -0.84708565 0.75049496 0.07684412 0.16726428
-0.062022924 -0.06801415 -1.8029977 0.16811284 0.06916802 0.036429368 -0.04241052 0.5074586
-0.10642607 0.3153146 -0.12164175 -0.07586775 -0.24603944 0.094541125 0.18916942 -0.055370316
0.6904269 -0.06042053 -0.712178 -1.3735722 -0.4460057 0.018531933 0.7374224 -0.72659713
0.17792177 -0.19985853 0.19773237 -0.051088918 0.04145416 0.4647215 0.81011134 0.21522081
-0.24197674 0.41912135 0.8182979 -0.5215358 -0.26623031 1.2374556 0.3965174 -0.10435048
0.38550237 -0.5349836 -0.26083598 0.40837705 0.14956322 0.022677148 0.7591968 -0.10660284
0.60666436 0.40222564 0.27198476 0.14150593 1.39424 -0.0665028 -0.624586 0.56569433
-0.1563971 -0.007509427 0.16874532 -0.8867218 -0.29674676 -0.20132264 0.36440298 0.61531085
-0.242622 -0.8488915 0.52921736 -0.7375467 0.4337522 0.5109121 0.0914058 0.2609895
-0.03540408 -0.8161122 0.28660816 0.21835174 -0.21691069 0.08237127 -0.097117014 -0.30048433
-0.48358005 -1.8727617 0.21177499 -0.40616828 0.36419365 -0.81882185 -0.28174382 0.046290066
-0.23318568 -0.024483148 -0.32629752 -0.6224737 0.26611882 -0.28581953 0.43008783 -0.39544675
-0.7949098 0.26139465 0.84022623 0.26929477 0.26983693 0.08564064 -1.1258345 1.1545253
-0.83477163 0.26128033 0.54787827 0.7841316 0.037730172 0.0059853345 -0.59123755 -0.15331087
1.3386555 0.11236537 0.95081276 0.86214364 0.08393875 0.21245053 -0.2916241 0.1741377
-0.093096994 -0.4814461 0.050169315 -0.21464384 0.3731147 0.10558478 -0.18942551 0.111879855
-0.79957473 0.3188602 -0.0044483445 -0.91023713 -0.6128842 0.6568563 0.4425552 -1.0449914
0.5936203 -0.8796995 -0.5028 0.098286405 -0.15966004 0.73637706 -0.6014761 -0.28478405
-0.07178083 0.6238583 -0.2600227 -0.38802812 0.21199603 -0.29874372 0.8141749 -1.1008962
-0.4496408 -0.22660826 -0.16536567 -0.11287987 0.43413457 -0.023725398 0.018743875 0.43033558
-0.11702431 -0.60710406 0.29619282 -0.81279135 -1.6015725 -0.2960127 -1.3233595 -0.043379497
0.9217636 -0.15912232 -0.1568922 0.19560099 -0.25777462 0.6480754 -0.04051924 0.70315
-0.7462816 0.22450149 0.11809865 -1.0106572 1.0441556 0.5810238 0.38412982 0.084182836
0.43986768 0.16245446 0.05289777 1.0521631 -0.25424716 -0.7058719 -0.18486261 0.30402747
-0.18216027 -0.26108634 -0.36346376 -1.7050298 -0.45746168 0.023326362 0.442398 -0.016624892
0.19917792 -0.02994936 -0.35366586 0.05240783 -0.11931426 0.5952645 -0.17686737 -0.5438648
0.42148897 -1.8590351 -0.09070538 -0.82606274 0.1713793 0.060850214 0.23952682 -0.04590852
0.02500987 0.26097384 -0.0988962 -0.2756992 1.1522549 0.07267306 0.08593015 -0.26813045

fc1.bias f4 [256]
00000000: 9d8a f63d cfe4 3dbd 9e21 0abc 5938 e8be
00000010: 82f5 92bd 67c8 6d3e dae9 23be 0d30 ef3e
00000020: c85c 63be c696 2f3e c6fb 6c3d 89f7 373e
00000030: a9e0 163d d030 60be 5033 a4be 79c5 b03c
00000040: f69d cabe ec03 8abe 5842 cdbe fb66 e73d
00000050: d976 92be 06ca afbd 32d1 033e 7d09 793d
00000060: 0e09 97be 5798 49be 256c 19be 0757 0a3e
00000070: 8b3b 50bc adf7 4f3e 8f4a 003e 34eb f73d
00000080: d98f fe3d c6fd 903e 0b4c c8bd c6eb d8be
00000090: 9df6 a9be df7d 393d a349 4fbe cd84 acbc
000000a0: cc4f c23c 9693 663c e5d6 7c3e 6fc3 1bbf
000000b0: 4913 a03e 6790 32be 5839 0a3e f51a 283e
000000c0: 6014 f93c 8f0d cebd 25e6 b73d 9fc8 c2bd
000000d0: 4443 42be 1160 33be c2bb 85be b061 1bbe
000000e0: 7acb 1c3f d171 273d d52c 75be b49e 4dbe
000000f0: d948 abbe 015a 45be 25d0 fe3e ce9f e5be
00000100: 7fde a0be 2fd2 ce3c 335a 9cbd 4971 863e
00000110: 8610 4cbc 9396 f6bd 8be7 03bf 9174 2d3e
00000120: 20e2 a1be af67 83be ae2f 283e 0cf7 4fbf
00000130: caf7 c43d 31db 143e bca9 cbbe ef3b 9a3e
00000140: 8274 ccbd 60d4 06bf 3cee 7fbc 757d e8be
00000150: 17b9 573e 14e8 81be c265 853e 56e9 5a3e
00000160: 26e8 a73e 10fc bb3d a8ca 163d c3ab cc3d
00000170: 200d eabd 6c31 8abd 1ecd ef3d 0657 d1bd
00000180: 284b aa3e 143c 903d 824f 0cbd 8d84 1cbf
00000190: ded4 57be 18d9 b3be 85c0 183f e153 4cbd
000001a0: b5d1 843e 0f9e b2bd dd1c 313d 298b 64be
000001b0: ac9e 0cbe 9e0c 67be ac0c e7bd 3d44 a0be
000001c0: 1244 1fbe 7aa2 c3ba ef96 963e 9065 86be
000001d0: 478f 19be 67a8 133f 03a2 193f c4a3 9d3e
000001e0: 41e3 9cbe 50ef 5ebd 47b2 b13e fe7f 71bd
000001f0: 7c5c 0c3f 7776 3abe 4919 ffbe b9a1 15be
00000200: f01a a33c 6dbf 8ebd 65ee bbbe 25a0 4a3d
00000210: 9726 33be 8cc7 693e cf3a eebc 62bf 37be
00000220: a1bd 7fbc d6ba 003d 9e21 943e 340e b2bc
00000230: 85e1 483e 2378 7d3e e4f7 51be f250 3d3e
00000240: c38d 59be fa54 f33e b834 c33d 2c66 e4be
00000250: b001 3e3e bffe c33d a637 ffbc 3381 ea3e
00000260: 3b1d 323b 0d3d 19bd fe3a 08bc 38cc 45bf
00000270: ead1 68bf 2ec0 7dbe 4e2c ce3e 0646 173e
00000280: 6964 543e d847 e3be c446 4fbf 37b4 5a3e
00000290: 0095 3d3e 0175 033e 5b33 4bbb 51e0 5d3d
000002a0: b262 adbd 5ec9 7b3e 6a45 9b3e 5d30 343e
000002b0: 21c3 9e3e 6f58 a03d c88b 6a3e 871b 0e3e
000002c0: 8bc4 afbe 504b d1be 472e db3d 839f c7be
000002d0: 6a04 0dbf 5e08 92be 8ae9 7f3e 118a 65bb
000002e0: a711 88be bc51 893e 7280 403d f870 a03e
000002f0: 99e0 4abf 6058 08bf 0001 11be bb34 d33d
00000300: d8c5 dfbe 24fe bbbe ee3b 593e b9a8 acbe
00000310: eeb3 d13c f5d6 14bd 36a3 2b3f 50fb 1d3e
00000320: 85e3 3d3e 6808 923e d5c9 eabc d8b5 86be
00000330: f35a c3be 3047 1c3f 1ae0 253f 9536 73bc
00000340: 06a4 63bd cdb0 9e3b 2428 183f bac6 e9be
00000350: 9037 f63e 2369 1f3d 45af 87be 5391 d9bd
00000360: 4ae8 bf3d ab44 00be 9ac5 cdbe 40a1 a73c
00000370: 5038 473e 4180 ccbd d73d a03e b284 653e
00000380: 1780 ad3d 5bcb 0ebf 8085 073d ba70 c33d
00000390: 0810 44bf ae92 da3d b854 70be b368 063e
000003a0: c595 103e b6e4 22bd 8d7b 71bd eaf3 06bd
000003b0: 458d b0bc 3962 553d b656 28be 15b9 e9be
000003c0: 47c7 ebbd b1e9 63be 26ec 85be 6135 c03e
000003d0: b685 80be bb55 80bd e4b5 173e 178b ae3d
000003e0: 6292 19be 1edf 4cbe 71e5 03be 28c4 0c3e
000003f0: be92 6dbe 94d6 b0be b778 53bf 65f1 e0bc
0.12038157 -0.046360787 -0.0084308665 -0.4535549 -0.07175733 0.23220979 -0.16007176 0.46716347
-0.22203362 0.17147359 0.057857297 0.17965521 0.036835346 -0.2189362 -0.32070398 0.021578537
-0.3957364 -0.26956117 -0.4008968 0.11298939 -0.286063 -0.08583455 0.1287277 0.060800064
-0.29499096 -0.1968702 -0.1498266 0.13509761 -0.012709509 0.20309325 0.12528442 0.12105408
0.124297805 0.28318614 -0.09780129 -0.4236738 -0.33195964 0.045286056 -0.20242934 -0.021059418
0.02371969 0.014073273 0.24691351 -0.60845083 0.31264713 -0.17437898 0.13498437 0.16416533
0.030405223 -0.1006118 0.089794435 -0.09510922 -0.18970972 -0.17517115 -0.2611981 -0.15173984
0.6124798 0.04088003 -0.23942883 -0.20080072 -0.33454016 -0.19272615 0.49768177 -0.44848484
-0.3141975 0.025246708 -0.07634392 0.26258305 -0.012455111 -0.120404385 -0.5152518 0.16938998
-0.31617832 -0.25665042 0.16424438 -0.8123634 0.096175745 0.1453674 -0.39777935 0.3012385
-0.099831596 -0.5266781 -0.015620764 -0.45408216 0.210667 -0.25372374 0.26054198 0.21378073
0.32794303 0.091789365 0.03681436 0.099936984 -0.11428285 -0.06747708 0.11709045 -0.102216765
0.33260465 0.07042709 -0.034255512 -0.61139756 -0.21077296 -0.35126567 0.5966876 -0.04988468
0.25941244 -0.087215535 0.043240417 -0.2231871 -0.13732404 -0.22563407 -0.11281714 -0.31302062
-0.1555331 -0.0014925741 0.29412028 -0.2624936 -0.14996062 0.57678837 0.60012835 0.30789006
-0.3064213 -0.054427445 0.34706327 -0.058959953 0.5482862 -0.18209253 -0.4982398 -0.14612474
0.019910306 -0.06970105 -0.36705318 0.049469132 -0.1749519 0.22830027 -0.029080776 -0.179441
-0.015609176 0.03142818 0.28931898 -0.021735288 0.19617279 0.2475286 -0.20504719 0.1848791
-0.21245484 0.4752577 0.0953154 -0.446092 0.18555331 0.09570073 -0.031154465 0.45801696
0.0027178067 -0.03741174 -0.008314846 -0.7726474 -0.90945303 -0.24780342 0.40268177 0.14772806
0.20741428 -0.4439075 -0.80967355 0.21357809 0.1851387 0.12837602 -0.0031005952 0.054169003
-0.0846609 0.24588534 0.30326396 0.17596574 0.31008247 0.07829367 0.22904885 0.13877688
-0.34329638 -0.4087777 0.10702186 -0.38988885 -0.5508486 -0.2852201 0.24991432 -0.003502492
-0.26575968 0.2682017 0.046997495 0.31336188 -0.7924896 -0.5325985 -0.14160538 0.10312792
-0.4370563 -0.3671733 0.21214268 -0.33722475 0.025598492 -0.03633781 0.67045915 0.154279
0.18543823 0.28522038 -0.028660694 -0.2631061 -0.38155326 0.61046124 0.64795077 -0.014844556
-0.055576347 0.0048428536 0.5943625 -0.4565943 0.48089266 0.038918626 -0.26500908 -0.106234215
0.093704775 -0.12526195 -0.4018982 0.020462632 0.19455075 -0.099854 0.3129718 0.224139
0.08471697 -0.55779046 0.0330863 0.09542985 -0.7658696 0.10672508 -0.23469818 0.13125877
0.14119633 -0.039768897 -0.058955718 -0.03294746 -0.021551738 0.052095626 -0.16439328 -0.4564902
-0.115126185 -0.22257115 -0.2615673 0.37540725 -0.25102013 -0.06266352 0.1481548 0.08522623
-0.14997247 -0.20006987 -0.12880494 0.13746703 -0.23200509 -0.3453871 -0.8260607 -0.027458856

fc2.weight f4 [128, 256]
00000000: fa1c a0be c4a1 073f cbbf c13c 20e8 c53e
00000010: 211f 8f3e e5e7 1e3e b278 c73e 81dd ad3e
00000020: 624e bd3e b4f0 94be 4947 d13c 2165 4a3e
00000030: 9c19 b63d 0910 443e c16f 9abc 6126 e53e
00000040: b6d9 47bf 1b0c c43d eace 0a3f 9c06 923e
00000050: 79be 08be b228 ce3e 72ec 03bf d5a6 333d
00000060: 39c3 b83d 58df 25bf 3e23 46bf 93e8 6dbf
00000070: 462e 9ebe 41cb 9bbf 3f72 6a3f 1d18 90bf
00000080: e309 f6bd 3747 f43e a2a2 03be b576 473f
00000090: afa6 19bf 5f85 2c3e b5d9 0f3e 704d 1fbe
000000a0: df5c ec3e 1c57 2d3e 0985 69bf 37cd e63d
000000b0: fff5 973e b4e3 7dbe e165 cfbe 3ce3 1bbe
000000c0: 5804 603e 7d22 e73e 0ba6 983e d830 973e
000000d0: 3705 503f 85cc b23e 7cdb fcbe bad6 8e3e
000000e0: bada f2be b0ca 4cbf 5cf5 68be 803f 703e
000000f0: d3df cebd 8f23 5e3f 6dac 0a3e 5d5a 713e
00000100: 79ab 243e d2f1 5e3e 11c9 b8bf c06d 6c3f
00000110: 84a1 343e b201 8ebd d983 c13e a80e 383e
00000120: 3141 873e f60b 5c3d ee25 a9bd f403 d7be
00000130: e786 8fbf 4d32 d53e 2314 663f 6e3f 14be
00000140: 2823 963f a5f2 933c a9ae 103d 363b 103e
00000150: 129e b73d 5194 48bf ca78 9e3d 3b87 60be
00000160: 150d 81bd e9da febe 00db 363d 2f8f c43e
00000170: dcb8 b13e 26a1 f73c cb8d cfbe 768c 77be
00000180: 4811 e33d 1b6f ae3e 7c99 43bf 4d4a cfbf
00000190: 3546 a63f 8085 0f3f e869 d0bd 6901 903c
000001a0: f51e 51bf 9d4d 0bbf cddd 2e3e 5e83 0ebe
000001b0: eefd 283f 1908 9c3d 21b4 ca3e 5a34 8e3e
000001c0: db06 aa3d d856 193f efbb 82bd 15d3 20bd
000001d0: 1880 ba3c c3f5 afbe 2501 2abe febd 96bc
000001e0: 9610 40bd f68f 063d dfdf d53e 890d 71bf
000001f0: 5000 1fbf 17e4 dc3d 4888 b03e e1ef 883c
00000200: cb39 c73d 83e0 613c 91a4 1cbf 4af7 073f
00000210: c2e6 053f ef9b f23c 9170 763d 44c0 db3d
00000220: f5c7 943f b3d4 963e 9940 c9be e305 16bf
00000230: cfd2 273f d913 8e3e 61eb 9fbe fbed b0bd
00000240: d85f 1040 5abc 8ebe 0d58 75bf eaa9 90bf
00000250: 7413 803f 952f 083f 9751 543e be76 043b
00000260: e658 083e 5290 25bf 9207 8f3e 935c 8bbe
00000270: bdc7 bfbe aae5 71be 60ea b8bf 1470 ed3e
00000280: d424 babd 88f7 ca3e 758e 3a3d c9ba d83c
00000290: c0f2 89be b73f 093f e441 853f 0c47 8f3e
000002a0: 5d4f ca3d f4aa eb3e 4d8d bb3e 8382 9a3e
000002b0: 43e8 393e 80c0 423e 9add c3bf a9ed d8bc
000002c0: 5728 70bf 25f6 8ebe fe0d 3f3c 9871 8a3e
000002d0: a688 ebbd 8745 33be d51a a5be aa08 1fbd
000002e0: 2579 87bf 7cbb b7be 55d9 09bf c7a4 11be
000002f0: ce90 36c0 7ccd bb3e 3dc0 943e 709f b2bf
00000300: 3cc3 313e 218f bb3e 682e 483e 4a24 be3d
00000310: 33ce 62be e6a5 ed3c 2daa 9dbe a244 15c0
00000320: b022 10bf 11b8 d8be 2001 243d ec8a 4bbe
00000330: 40a5 8cbe 24f7 66bf fc11 40bf edc3 93bd
00000340: cf21 7abe 553a 123c efa5 f0be e48e 643e
00000350: 9acb 91be 4bc3 dbbd db3e 62bf 0d9b a8bd
00000360: 5f70 31bd 44f6 8fbf 1888 c23d 0f4f c53d
00000370: 6b38 8d3e 6781 35bd d220 51bf bb2a 183e
00000380: 482a eabc 2f97 e6be 606f 8d3d d6e0 493e
00000390: 53c4 33be 3af1 8cbd 92a2 0dbe 41e4 7e3e
000003a0: bcab 2dbc b820 80bf e3f7 fe3e b91a 89bd
000003b0: 6df2 843e cf68 4dbc 7dd5 21be a645 8d3d
000003c0: 9cec ad3e e0fa 72bf 0a25 073e f8b4 9abe
000003d0: 20bd 4abf 8634 31bf 7d05 4a3f 9142 ea3c
000003e0: 2e6d 783e aef2 923e 0fb8 7fbf a31a fe3d
000003f0: 3681 253e 134d 303f c12e 813f f33b 163f
-0.31272107 0.5298121 0.023651024 0.3865366 0.27953437 0.15518148 0.3895927 0.33958057
0.36973864 -0.29089892 0.025546687 0.1976514 0.08891603 0.19146742 -0.018852117 0.44755843
-0.78066576 0.095726214 0.54221976 0.28520668 -0.1335391 0.40265423 -0.5153266 0.043860275
0.09021611 -0.6479392 -0.77397525 -0.92933005 -0.3089468 -1.2171403 0.91580576 -1.1257359
-0.120136045 0.47710583 -0.12855008 0.7791551 -0.60019964 0.16847752 0.14047892 -0.15556884
0.46164605 0.16927761 -0.9121862 0.112696104 0.29679868 -0.24793893 -0.40507415 -0.15223402
0.21876657 0.451435 0.2981418 0.29529452 0.8125796 0.3492166 -0.49386203 0.27898198
-0.474325 -0.79996777 -0.22749847 0.23461723 -0.10101285 0.8677301 0.13542338 0.23569627
0.16081037 0.21771935 -1.4436361 0.92354965 0.17639738 -0.06933917 0.37795904 0.17974341
0.26416925 0.053722344 -0.08259188 -0.41995203 -1.1213044 0.4163994 0.89874476 -0.14477322
1.1729479 0.018060038 0.03532282 0.14085087 0.089656964 -0.7835131 0.077378824 -0.21926586
-0.06301323 -0.4977639 0.04464245 0.3839049 0.3471135 0.030228209 -0.40537867 -0.24174675
0.110872805 0.34069142 -0.76406074 -1.619455 1.2990175 0.5606308 -0.1017645 0.017578797
-0.8168786 -0.54415303 0.17076798 -0.139173 0.66012466 0.07618732 0.39590552 0.27774316
0.08302089 0.5989814 -0.06383502 -0.039263804 0.022766158 -0.3436719 -0.16601999 -0.018401142
-0.046890818 0.032852136 0.41772363 -0.9416128 -0.6210985 0.10785692 0.34478974 0.016715946
0.0972782 0.013786438 -0.6118861 0.5311171 0.52305233 0.02961537 0.060165945 0.10730031
1.1623522 0.29459152 -0.39307097 -0.5860273 0.65556043 0.27749518 -0.31234267 -0.08639141
2.2558498 -0.27878076 -0.9583748 -1.1301854 1.0005937 0.53197604 0.20734249 0.0020212377
0.13315162 -0.6467334 0.27935463 -0.27219066 -0.37457076 -0.23622766 -1.4446526 0.4637457
-0.09089056 0.39641976 0.045546014 0.026456254 -0.26943016 0.53612846 1.0410733 0.27983892
0.098784186 0.46028864 0.3663124 0.30177698 0.18155007 0.19018745 -1.5302002 -0.026480513
-0.93811554 -0.27922168 0.011661051 0.2703979 -0.11500673 -0.17506991 -0.32247034 -0.038826622
-1.0583845 -0.35885227 -0.5384725 -0.14223014 -2.8525882 0.3668021 0.29052916 -1.3954906
0.17359632 0.36632636 0.19548953 0.09284265 -0.22148971 0.02900977 -0.30793896 -2.332314
-0.5630293 -0.42327932 0.040040135 -0.19877213 -0.27469826 -0.90220857 -0.7502744 -0.07215104
-0.2442696 0.00892504 -0.47001597 0.22320133 -0.28475648 -0.107306086 -0.8837716 -0.082326986
-0.043320056 -1.1247029 0.09498614 0.0963422 0.27582106 -0.04431286 -0.81690705 0.1486005
-0.028584614 -0.4503722 0.06906009 0.19714674 -0.1755536 -0.06881948 -0.13831547 0.2489176
-0.010600027 -1.0009985 0.49798498 -0.0669455 0.25966206 -0.012537195 -0.15804096 0.0689805
0.3396958 -0.94914055 0.13197723 -0.30216193 -0.7919483 -0.6922077 0.78914624 0.028596194
0.24260399 0.28700775 -0.99890226 0.12407424 0.16162571 0.68867606 1.0092393 0.58685225
