results/gradnorm_blind/models/checkpoint_ep100.pth (torch, 920820 bytes, 25 tensors)

fc1.weight f4 [256, 8]
000000 7d a8 98 be 9b 02 11 3f 3d 99 14 3d fc f2 38 bf
       -0.29816046 0.566446 0.036278952 -0.72245765
000010 fc 97 07 3f 04 b8 93 3f c0 a5 38 bf 65 b3 f3 bd
       0.52966285 1.1540532 -0.72127914 -0.11899451
000020 52 e3 8f be 7e c2 7f 3e 7e 3b 1a be 1f 9e e7 be
       -0.2810312 0.24976537 -0.15061757 -0.45237824
000030 8f 67 bc 3d 88 01 a7 3e 54 96 4e bf 00 1f 4c 3f
       0.0919944 0.32618356 -0.8069813 0.797348
000040 e8 85 49 3f 31 7a e5 bd c6 ee 58 bd 00 8d a2 3e
       0.7871995 -0.11204947 -0.052962087 0.317482
000050 be 82 8c bf e9 42 57 bf 88 0c da 3e 29 44 85 be
       -1.0977399 -0.8408647 0.42587686 -0.26028565
000060 51 d3 61 be 0e 06 2f 3f 70 e5 aa be 10 72 4b 3d
       -0.22053267 0.68368614 -0.33378172 0.049669325
000070 15 78 82 3c 64 35 9c be 34 b1 14 bf a5 36 5c 3e
       0.0159264 -0.30509484 -0.5808289 0.2150522
000080 b4 4a eb bd 1c ef 8b 3e f9 e2 ee 3e d9 28 c5 be
       -0.11488858 0.27330863 0.4665754 -0.38507727
000090 99 ff 95 3f eb ff 02 3f 84 16 15 bd a2 67 83 3d
       1.1718627 0.5117175 -0.036398426 0.06416251
0000a0 f3 5e 1a 3e 76 be 7e 3f ec 68 96 3e c4 ee bf 3e
       0.15075283 0.9950937 0.29376924 0.3748685
0000b0 95 44 6b bd 84 4c 81 bf 08 0b 47 bf 80 b3 69 3f
       -0.05743845 -1.0101476 -0.7775121 0.9128952
0000c0 69 e8 6f 3f 6b 5d 5e be 4e d5 8c bd 36 75 97 b9
       0.93714005 -0.21715324 -0.06876622 -0.00028888293
0000d0 b0 45 21 bf 73 46 4d bf 37 81 cc bf 00 ec 8a 3f
       -0.6299696 -0.8018562 -1.5976933 1.0853271
0000e0 00 3a be bf 38 a2 f5 3d 1e 65 76 3f a0 7a 8c be
       -1.486145 0.119938314 0.9624804 -0.27437305
0000f0 f8 8a ab 3e 9d ad cf be 72 52 9c 3e b6 de 5d bc
       0.33504462 -0.40562144 0.3053165 -0.013541868
000100 cb 03 e9 3e 3f 35 12 3f 1a de 0a be ba 47 da 3e
       0.45510706 0.571125 -0.13561288 0.42632848
000110 ed 43 7e bf ff fa 3a 3f aa b7 21 bd 0f 26 92 bc
       -0.99322397 0.7303924 -0.039481796 -0.017840413
000120 16 85 75 3e 2f 23 ca bd 4c 77 30 3e 1c d0 77 3e
       0.2397655 -0.09869992 0.17233008 0.24200481
000130 a4 fc 55 bf 3e bc 2e bf a9 b5 a8 be 54 73 1e 3e
       -0.83588624 -0.68255985 -0.32951096 0.15473682
000140 45 ed db be 91 91 0b be d2 bc 4e 3e f0 5d 44 3d
       -0.4295446 -0.13629748 0.20189217 0.04794115
000150 c2 f6 fc 3d 80 43 3b 3f fa d9 21 3f ed a5 a6 3f
       0.12351753 0.7314987 0.6322323 1.3019387
000160 b5 85 38 bf e4 35 20 be b5 7f 01 bf 79 6b 86 3d
       -0.7207902 -0.15645558 -0.5058549 0.065634675
000170 dc fd 03 bf 5e e7 93 3f 5c 4d 6b bf 96 01 23 be
       -0.51559234 1.1554983 -0.91914916 -0.15918574
000180 2b c6 37 3e ad 40 7a 3f 15 42 32 bf dd 6b 87 3c
       0.17946689 0.9775494 -0.69632083 0.016530925
000190 66 3c ad bd 71 ed 1e be ca e3 c5 3e 4f 26 fe bd
       -0.08458786 -0.15520264 0.38650352 -0.124096505
0001a0 4f 41 ca 3d 78 c1 b2 be a8 f9 4f 3e f4 32 6b bf
       0.09875738 -0.3491323 0.2031008 -0.91874623
0001b0 a8 4d 7b 3e ce be 4c bf 47 f8 c8 bd 7f 01 cf 3e
       0.24541342 -0.79978645 -0.0981298 0.4043083
0001c0 aa da ec be 31 31 b3 3e 1b 01 6e bf 65 71 81 3d
       -0.46260577 0.34998468 -0.92970437 0.063204564
0001d0 2f 35 16 bf 65 39 c1 be a8 5a 7e bf 2e 77 26 3d
       -0.586749 -0.377391 -0.9935708 0.040641002
0001e0 6d 39 16 3f d2 4e d4 be ce 40 5b bf 87 70 f4 be
       0.58681375 -0.41466385 -0.8564576 -0.47742102
0001f0 fd 6a 31 3f b6 a4 35 3e 6d 95 cd be d3 44 29 3f
       0.69303876 0.17738613 -0.40153065 0.6612064
000200 92 a9 af bf cd 80 87 3e a3 92 55 3e 66 a8 0b be
       -1.3723624 0.26465455 0.20856719 -0.13638458
000210 2f d1 6e 3f 64 f2 70 bf bb d3 48 3f 62 50 c4 bd
       0.9328794 -0.9411986 0.78448075 -0.09585644
000220 d7 f3 00 bf a9 dd 8f bf 70 bd 26 bf b4 3d f4 be
       -0.5037207 -1.123952 -0.6513281 -0.47703326
000230 a6 dc f0 be ca 17 3e 3f 8a 64 76 3f f6 71 f7 3d
       -0.4704334 0.7425505 0.9624716 0.12082283
000240 79 9a d5 bf bf 4a 7e 3e d3 be b9 3e 77 29 83 3d
       -1.6687766 0.24833201 0.362784 0.06404393
000250 02 b1 bc be 24 f8 3e 3f ea 46 cc 3e 1a 4b 34 bf
       -0.36853796 0.7459738 0.39897853 -0.70427096
000260 0c 96 01 bf a4 22 78 be 2f 49 cb bd 36 94 d9 be
       -0.5061958 -0.24231964 -0.09926068 -0.42495888
000270 55 43 ce 3e f3 06 b7 3d 1f 78 25 3c 40 9c 10 bf
       0.40285745 0.08936872 0.01009944 -0.5648842
000280 11 70 4e bf ef 9e 9d bc fa 1b 19 be e1 34 9d 3f
       -0.8063975 -0.019240825 -0.14952078 1.2281762
000290 e7 3f 97 bf 16 cd 86 3f b9 37 0b bd 82 83 10 bf
       -1.1816376 1.0531337 -0.03398869 -0.56450665
0002a0 6a c5 bc 3d 80 b5 c9 bf 8c 92 39 3e 1c 7f c9 be
       0.09217341 -1.5758514 0.1812231 -0.3935479
0002b0 64 2c b1 be 80 3e c8 3e 52 ca 56 bf aa e5 04 3f
       -0.3460418 0.39110184 -0.83902466 0.5191294
0002c0 a5 9a 47 bf b6 17 8d bc 52 35 f1 3d af 62 86 3f
       -0.77970344 -0.01722322 0.11777748 1.0498866
0002d0 22 4e 96 bf 38 a0 5e 3f 0c 1e a5 3f 3c 06 c3 3b
       -1.1742594 0.86963224 1.2899795 0.005951671
0002e0 15 0d 04 3f cd 2e fc bb e2 83 0c 3e 4b 58 6b bf
       0.5158246 -0.007696009 0.13722184 -0.919316
0002f0 e7 ff ea bf 67 2e ca be 86 c7 6c 3e f8 9a 49 bf
       -1.8359345 -0.39488527 0.23122987 -0.7875209
000300 07 73 36 bf f3 94 0c bf ab 56 76 3e 0c a9 5c bf
       -0.7126927 -0.5491478 0.24056499 -0.86195445
000310 10 1f 8d 3e 2b 7a 3f 3f b4 13 fd be 62 55 5a 3e
       0.2756276 0.7479579 -0.49429095 0.21321633
000320 fd 4c ba 3e 91 aa 9c be 5a 63 63 3f 43 60 59 3f
       0.36386862 -0.30598882 0.88823473 0.8491251
000330 0e 4d 8b 3c 57 8a 4e 3f b3 af ca 3e 4b 02 0e bf
       0.017004516 0.8067984 0.39587173 -0.5547225
000340 75 35 07 3f c3 d0 da bd 31 69 f5 3d 05 96 19 3f
       0.52815944 -0.106843494 0.11982954 0.59994537
000350 e9 2b 7d 3f cb 23 79 bf bd 21 88 3e 3d 50 7f be
       0.98895127 -0.9732024 0.2658824 -0.24932952
000360 d3 f8 44 3f 00 4c 77 3f fe f5 90 3e 6b 8b 16 be
       0.76942176 0.9660034 0.28312677 -0.14701621
000370 e0 35 f8 be 2a b1 8a 3f 79 73 60 bf ed 61 08 3f
       -0.48478603 1.0835316 -0.876762 0.5327442
000380 cb 3d 0b bf 44 44 c3 bf b9 ce 57 3f ff b1 56 bf
       -0.54391164 -1.5255208 0.8429981 -0.8386535
000390 8e 9b 19 bf 4c ec 15 3e 9a 6c c9 3e 4e 54 f4 3e
       -0.6000298 0.14640921 0.3934067 0.4772057
0003a0 4d 4c 33 3e 5b c7 2b be 42 f2 01 bd d6 e1 19 3f
       0.17509575 -0.16775267 -0.031725176 0.60110223
0003b0 10 6b f4 be 6c 32 b6 3f ac a9 7f 3e 22 47 78 bf
       -0.47737932 1.4234138 0.24967068 -0.9698354
0003c0 84 1a 45 3f 00 46 de 3d a6 1d 99 be 7c c9 ff be
       0.76993585 0.10853195 -0.29905432 -0.49958408
0003d0 43 50 94 bc 2c 1a 2e bf 34 ca 01 3f f0 93 8a bf
       -0.018104678 -0.68008685 0.5069916 -1.0826397
0003e0 f1 e7 76 3f 7b 1f 8c bd f8 96 11 bf 89 48 82 bf
       0.96447664 -0.06841942 -0.56870985 -1.0178386
0003f0 c0 1c c3 be 25 17 1a bf 80 46 12 3f ca 1b c7 3d
       -0.38107872 -0.60191566 0.57138824 0.09722097

fc1.bias f4 [256]
000000 5e 14 d1 3d a2 f3 9e 3d 43 1a ef bc a7 ac 43 3e
       0.10208963 0.07761313 -0.029187327 0.1910883
000010 c8 9a 1d 3e fb c1 32 3d 9d a7 98 3e 95 14 32 3d
       0.15391076 0.043642025 0.2981538 0.04347666
000020 51 ef 9d 3d 89 c4 3d be 9d f4 79 3e 67 a4 f5 3d
       0.077116616 -0.18532003 0.24409719 0.11994248
000030 6a 40 c9 3d ed 41 53 bc 67 02 82 3e e3 11 79 3e
       0.09826739 -0.012894136 0.25392458 0.2432323
000040 c3 2f 79 3d 05 c3 a9 bb 53 d3 ba bc 29 21 a7 3e
       0.060836565 -0.005180719 -0.022805845 0.32642487
000050 dc 13 29 3e 9f 83 18 3e 15 e7 5f 3e 6c 72 d8 bd
       0.16511482 0.1489396 0.21865495 -0.10568699
000060 1a cb f6 3d 96 26 ac 3d d9 20 a3 3e fe 0c 9e 39
       0.12050457 0.08405797 0.31860998 0.00030145788
000070 96 dc b6 3d e1 eb a6 3e f8 99 93 bd b4 ab 4c bc
       0.08928792 0.32601836 -0.072071016 -0.012492109
000080 5e e7 d1 bc 03 aa a1 3d d0 6c d9 3d 66 e9 bd 3d
       -0.02562302 0.07893755 0.106164575 0.09273033
000090 88 73 4d be d1 56 41 3e ff 2e 5a 3e 0b 88 3a 3e
       -0.20063603 0.18880774 0.2130699 0.18215959
0000a0 ce 50 12 3e 56 96 ce bd 4d 1d 35 bd 71 c0 81 3c
       0.14288637 -0.10087268 -0.044217397 0.015838834
0000b0 a6 38 9c 3e ef 6e 7b 3e 42 c3 3e 3d e5 5e c7 3d
       0.3051197 0.24554037 0.04657293 0.097348966
0000c0 63 90 c0 3d d9 92 05 bd 62 99 3a 3e dc 75 48 3d
       0.094025396 -0.032610748 0.18222573 0.048940524
0000d0 00 36 61 3e e0 de 62 3d 90 d4 97 bd f6 90 b1 3d
       0.21993256 0.05538833 -0.0741359 0.08670227
0000e0 7f 2c 8b 3c 7f 2d 10 3d cd 08 d1 3d 88 51 e3 3d
       0.01698899 0.03519964 0.10206757 0.11099535
0000f0 ad bc 3a 3e 4a da 9f bd b0 92 4c 3e cc 6d fb bd
       0.18236037 -0.07805307 0.19977832 -0.122768015
000100 89 f1 5e 3e db 86 0c 3d 30 e0 40 3e 5b 1d 93 3d
       0.21771826 0.034308296 0.1883552 0.071833335
000110 2d 6e ee 3b ef ae a9 3e 4b cb 97 3d e2 cd 1b 3d
       0.0072763176 0.33141276 0.07411822 0.038038142
000120 fc 06 69 bd c1 d9 4d bc 8d ed 19 3e 3e a9 c4 bd
       -0.056891426 -0.012564124 0.15032025 -0.09602593
000130 eb 21 1f 3e 8c d5 86 bc bd 29 28 3e 1e 7a d6 3e
       0.15540282 -0.016459249 0.16422172 0.41890043
000140 eb e6 45 be 27 df 17 3e 67 d4 5a 3d bc f6 cc 3d
       -0.1932637 0.1483122 0.05342522 0.10007998
000150 e2 a5 dc 3c ed 58 37 3e 11 60 9e 3d 64 35 2c ba
       0.026934568 0.17905016 0.07733167 -0.0006569235
000160 33 fa 92 3e 1e 37 fe bc 61 2b 52 3d be b4 80 3e
       0.28706512 -0.031032141 0.0513109 0.25137895
000170 6a c1 91 bd d6 7b 77 bd e3 8f 24 3d 90 a1 07 3e
       -0.07116969 -0.060420834 0.040176284 0.13245225
000180 c0 24 91 3e 47 e2 57 3e 6a c4 df 3e f3 a0 60 bd
       0.2834835 0.21082412 0.4370454 -0.054840993
000190 13 10 14 3e d5 17 90 bd 9b eb 82 bd 98 4c 44 3e
       0.14459257 -0.070357956 -0.063925944 0.19169843
0001a0 be 89 25 bd 48 4f 0c 3e 58 0e 35 3e f3 ba 07 3e
       -0.040414564 0.13702118 0.17681253 0.13254909
0001b0 f7 50 31 3d 12 1a 4c 3e 2c 98 ef 3d 6b 87 5a bd
       0.043290105 0.1993182 0.11698946 -0.0533518
0001c0 06 d7 91 3d 84 b3 6a 3e 30 73 c9 3d d6 46 9e 3e
       0.071210906 0.22920042 0.098364234 0.3091342
0001d0 a5 4c 63 bd 9c cd ff 3d 62 f6 d7 3d 01 1e 3c bc
       -0.055493016 0.12490389 0.10545041 -0.011481763
0001e0 37 bb cc bd 60 4b 1b be 46 1c 0a 3e 38 bf 28 3e
       -0.09996646 -0.15165472 0.13487348 0.16479194
0001f0 07 27 48 bd c2 6d d4 3d d8 75 61 3e 2d de 89 3b
       -0.048865344 0.10372497 0.2201761 0.0042073936
000200 85 57 ad 3d 58 81 cf 3d 6d c4 0b 3e a5 59 22 3e
       0.08463959 0.10132092 0.13649149 0.15854509
000210 c4 65 5b 3e e6 2e ae 3d c6 b5 8f 3c b0 9b e1 bd
       0.2142554 0.08505039 0.017542731 -0.11016023
000220 7e d6 77 3e 29 57 2a be 91 ed 11 be b5 7f b6 bc
       0.24202916 -0.16634811 -0.1425078 -0.022277692
000230 6a 5f 2d 3e 0a be 20 bd 9f b7 6a 3e 3a 83 ea 3d
       0.16930929 -0.039243735 0.22921608 0.11450811
000240 4a 08 49 3d e3 28 ad bc 92 0d 82 3d 1b 14 ca 3d
       0.04908017 -0.02113766 0.063502446 0.09867116
000250 a8 c7 41 3e 70 75 bc 3d 29 60 a0 bd 72 cd 7c 3e
       0.18923819 0.09202087 -0.07830841 0.24687746
000260 38 f7 20 3d 5b e6 15 bd b7 19 aa 3d 56 c6 6f bd
       0.039298266 -0.036596637 0.08305686 -0.058538757
000270 44 46 60 3e 2a d8 89 3b 5d 4f 5f 3c 1b aa 24 3e
       0.21901804 0.004206677 0.0136297615 0.16080515
000280 21 5b 2d 3d 72 1c 60 3d 54 c5 d7 3e 80 77 08 3c
       0.042323235 0.054714628 0.42142737 0.008329272
000290 ad fa c2 bd aa fc 78 3e d4 f1 a4 3d f2 8e 40 3e
       -0.09520469 0.24315134 0.080539376 0.1880453
0002a0 37 40 15 bc ad 61 05 3e 17 35 de 3d 19 b5 95 bd
       -0.009109548 0.13025542 0.1084997 -0.07309932
0002b0 fb 06 95 3d 1e 9d 25 3d 3e c9 0f bd 52 e7 9a 3d
       0.07276722 0.04043304 -0.03510403 0.07563652
0002c0 17 51 c8 3c d3 21 9b 3e 83 79 95 3e ca f4 d2 bd
       0.02445273 0.30299243 0.2919427 -0.10300596
0002d0 55 fb 82 3c b9 97 0f 3e 75 b3 2d 3d 75 15 79 3e
       0.015988985 0.14022721 0.04240747 0.24324591
0002e0 71 af a9 bd 40 02 17 3e dc a5 58 3e 6b 22 b9 3d
       -0.08285416 0.14746952 0.2115702 0.09039768
0002f0 ab 02 8f 3e ce 1c ae bc d6 4e 70 3e af 03 a3 bb
       0.27931723 -0.02125397 0.23467574 -0.0049748044
000300 a7 a2 36 bc d9 92 29 be 06 12 99 be ab 4f d9 3c
       -0.011147178 -0.16559924 -0.29896563 0.026527246
000310 cf ba 26 3e 47 7b 34 3e 52 bc cb bc 28 8a 83 3d
       0.162822 0.17625152 -0.024870072 0.064228356
000320 4f 3f c0 3e 1e c9 a5 3e 2b 77 2c 3d 2b 11 4f 3d
       0.375483 0.32380003 0.042105835 0.050553482
000330 4d 18 93 bc 41 11 cb 3d e6 2e 2f 3e a3 3b d0 bd
       -0.017955923 0.099154 0.17107734 -0.10167625
000340 f9 d1 04 3e 29 1d 32 3d 30 2d 8f 3d 75 a2 69 bd
       0.12970723 0.04348484 0.06991041 -0.057039697
000350 71 43 60 3e 3d 2f 19 3e e5 94 8e bd 26 dc 85 3e
       0.21900727 0.14959426 -0.06961993 0.26144522
000360 f4 ef 66 bd 71 bf cb 3e d1 b8 78 3c b7 29 1a be
       -0.05638118 0.39794496 0.015180782 -0.15054975
000370 f2 c7 56 3d ea 19 0f 3e 71 05 ed 3d da 02 57 3d
       0.052436776 0.13974729 0.115733035 0.052492954
000380 95 51 ff 3d 7f 23 29 3d 84 df 62 3e c6 b6 c7 3d
       0.124667324 0.041293617 0.22155577 0.09751658
000390 0d bb 8e 3e 8b 76 c3 3b e5 0b 99 3e f4 4a 59 be
       0.27877083 0.005965059 0.29891887 -0.21219999
0003a0 77 19 02 bc 52 64 5c 3e 7a 51 c8 bb e5 38 20 be
       -0.007940642 0.21522644 -0.0061132284 -0.15646704
0003b0 c7 55 eb 3d a3 62 81 bd 12 39 7b 3e 86 b8 52 3d
       0.1149097 -0.063176416 0.2453349 0.051445507
0003c0 0e c8 e5 bc 9b c8 47 3d 1e 20 f1 3d 07 fa 53 bc
       -0.028049495 0.048775297 0.11773704 -0.012938029
0003d0 68 60 d1 bc ac 31 fc 3a bf 2e 87 3c ec ed b8 3c
       -0.025558665 0.0019240878 0.016501782 0.022574387
0003e0 c7 c7 2f 3e dc bc 58 3e d2 25 00 3d a8 32 84 3d
       0.17166053 0.21165794 0.03128607 0.064549744
0003f0 1b e3 6b 3d 0f 9a 27 3d fe 8f d1 3d f6 47 f9 3d
       0.05758963 0.040918406 0.102325425 0.121719286

fc2.weight f4 [128, 256]
000000 f5 c3 45 3c e5 7e 8f 3d 25 ae a1 bc da bf 0d be
       0.012070646 0.07006625 -0.019736359 -0.13842717
000010 4f c0 fb 3d 46 de 87 be dd 36 a7 bd e0 70 52 3d
       0.12292539 -0.2653677 -0.08164761 0.051377177
000020 e2 2c 02 bf 50 4f 84 3d 9a d1 96 3d ce 68 0b 3d
       -0.50849736 0.0646044 0.07364197 0.034035496
000030 31 a1 87 be 5c 37 44 3e 9f 14 b2 3e c4 ea 70 3e
       -0.26490167 0.19161743 0.34781358 0.23527056
000040 d8 82 89 3e e4 1e 8a 3b 8a 71 9d be ee e5 34 3e
       0.26857638 0.004215108 -0.30750686 0.17665836
000050 a7 99 a8 be 3e e9 a6 bc 1b 72 ef be 30 b1 d3 bd
       -0.32929727 -0.02037489 -0.46766743 -0.1033653
000060 70 a7 70 bd 98 a4 12 bf 4b 8d 19 3f 35 c3 68 3e
       -0.05875343 -0.572824 0.5998122 0.22730716
000070 38 b1 12 be 3f 30 03 bd 92 e9 76 3e e9 a4 b4 3d
       -0.14325416 -0.032028433 0.24112538 0.088205166
000080 9f 55 86 3e 77 1b 87 3e 81 22 19 bd fa 65 5f 3d
       0.262372 0.26388142 -0.03738642 0.05454061
000090 f8 7c 09 3e 55 0d 6c 3e e7 c1 8c be 9e b8 7d 3d
       0.13426578 0.23051961 -0.27491686 0.061943643
0000a0 d0 56 96 3d d5 43 cc bc 1f e9 2f 3e 48 df 20 be
       0.07340777 -0.024934689 0.17178772 -0.15710175
0000b0 68 c5 99 be 2a 32 20 be b7 2e ac 3e 06 6d ed 3c
       -0.30033422 -0.15644136 0.3362939 0.02898265
0000c0 8d 77 4c be a3 08 3c 3e 86 22 6a bd 2c 6e 95 3d
       -0.1996748 0.1836267 -0.05716183 0.07296404
0000d0 ff 8f 7e be 05 61 69 3d 24 ae 8b 3c cb 4a 92 3e
       -0.24859618 0.05697729 0.01705081 0.28572688
0000e0 04 8a 0b 3e ed ca 62 bd 95 6a cb 3e be 64 a5 be
       0.13626868 -0.055369306 0.39729753 -0.32303423
0000f0 f0 88 0d 3d 0c c2 74 bd f2 62 19 bf 80 e6 9a 3e
       0.034554422 -0.05975537 -0.59916604 0.30253983
000100 ed de a8 3d db 19 a9 3b 2a 9f 80 3c 9e 6f 81 3e
       0.08245645 0.005160553 0.015700895 0.2528047
000110 60 16 ac 3e a5 12 be be 7f 3a 03 3d 20 cd 03 3f
       0.3361082 -0.371236 0.032038208 0.5148487
000120 dd d8 10 ba a1 14 62 3e d6 2c 0d 3e a8 50 f9 3e
       -0.0005525479 0.22078182 0.13786635 0.48694348
000130 ee 9f a7 3d f1 2a 83 3d c9 39 31 3f 87 e1 6a 3e
       0.08184801 0.06404675 0.692288 0.22937594
000140 32 8f 1a 3f da a9 49 3e 29 b4 48 3e 3d b3 70 3c
       0.6037475 0.196937 0.19599976 0.014691171
000150 fb 83 92 3e 50 80 b8 bd 95 cb 1b 3c c1 13 50 3d
       0.28616318 -0.09008849 0.009508987 0.05080009
000160 b1 e8 fc bc b9 28 9a 3d 55 fa d4 3d eb 56 fd bd
       -0.030872675 0.075272985 0.103993095 -0.12370094
000170 9b 50 c7 be ab 90 4e bd d1 ba 24 3f 9b 38 80 bd
       -0.38928685 -0.050430935 0.6434756 -0.06260797
000180 c8 51 7e 3e 86 f9 fd bc 2b 1c 6d be ab 01 d9 3c
       0.24835885 -0.031002771 -0.23155276 0.026490053
000190 27 22 77 3d ab 47 68 bd 8c d2 e7 bd 40 3d 12 3e
       0.060335305 -0.056708973 -0.113194555 0.14281178
0001a0 08 48 65 bd 6c 31 b6 be d3 08 84 bf 1d 0b ed 3e
       -0.055976897 -0.3558458 -1.0315193 0.4629754
0001b0 7a b7 7c 3d 32 9c 10 3f 7a 71 a8 3d 38 d8 ef bd
       0.061698414 0.56488335 0.08224769 -0.11711162
0001c0 d2 54 aa be 0c e3 88 3d 42 56 06 be 8d 72 d9 bd
       -0.33267838 0.06683931 -0.13118842 -0.10617552
0001d0 71 7a 57 bc f5 b2 65 bd 38 ed b5 bd 39 22 bd bc
       -0.013151751 -0.05607887 -0.088831365 -0.023087608
0001e0 0d 82 08 3e 13 e7 58 3e 6b 29 02 bc a5 24 7b bc
       0.1333086 0.21181898 -0.007944445 -0.015328561
0001f0 50 9b 52 3b 3e 9e 36 3e c6 3d 11 3e b5 1f 00 bd
       0.003213603 0.17833802 0.14183721 -0.03128024
000200 dd 6f 04 bf 59 3e ce 3e 2d 2a c6 be db 1c ae 3c
       -0.5173319 0.40281942 -0.38704053 0.021253994
000210 44 58 5a 3d 17 09 74 3e 4f 58 9e 3d f8 a8 55 3e
       0.053306833 0.23831593 0.07731687 0.20865238
000220 f8 f7 30 bf 45 7c 14 3d b0 4e 0c be 05 15 e2 bd
       -0.6912837 0.036251325 -0.13701892 -0.110391654
000230 ba ee 3f bd be 2b 81 be 6f 9a dd 3d 78 f3 23 3e
       -0.046858527 -0.25228685 0.108204715 0.16010845
000240 fe 52 2f 3f 2c 24 a9 bd b9 e7 00 3d 19 1b 36 3d
       0.6848601 -0.08258852 0.031470988 0.044459436
000250 cf f7 3d 3d e4 52 33 3f 14 cf 45 bd 08 03 30 be
       0.046378907 0.70048356 -0.04829319 -0.17188656
000260 7a 09 84 3c 73 72 ff 3d 3c af 27 be f4 a9 98 3e
       0.0161178 0.12473001 -0.1637544 0.29817164
000270 3d 45 74 3e 4d 04 0d bd 9e 2b 5d 3e 53 f1 89 bd
       0.23854537 -0.03442793 0.2159867 -0.06735482
000280 f0 3e 25 be 56 59 53 3e 0d e1 4a be 85 ff 47 3d
       -0.1613729 0.20639548 -0.19812413 0.048827667
000290 08 56 6d 3d 78 b3 89 3d 1a b6 8d 3d ba b0 03 bf
       0.057943374 0.06723684 0.06919499 -0.5144154
0002a0 e8 db 25 bd d1 6e 9f 3e 01 09 88 bd 0c f4 2c be
       -0.040492922 0.31139234 -0.06642342 -0.16889971
0002b0 b1 0c 2c 3e 3f fc 61 3d 83 1b 8d 3d 13 ae 18 bd
       0.16801716 0.0551722 0.06890013 -0.037275385
0002c0 82 3a 4c 3f e5 d9 85 3e 50 3e f4 bd ad e7 bd bd
       0.79776776 0.26142803 -0.11925948 -0.09272704
0002d0 a5 31 58 3e c3 05 50 3e 67 36 83 39 21 e6 3c 3b
       0.21112688 0.20314698 0.000250268 0.002882369
0002e0 4a 62 b2 bb a1 e0 35 3d a5 ed 13 be 09 f6 63 be
       -0.005443846 0.044403676 -0.14446123 -0.22261824
0002f0 f2 98 10 be 3b da 93 bc ef 16 c4 bd 78 d8 22 3e
       -0.14120844 -0.018048396 -0.09574687 0.15902889
000300 98 55 32 3f 81 c4 64 3d 22 85 be 3d 06 aa fd 3d
       0.69661856 0.055851463 0.09302737 0.12385945
000310 1c d1 8b 3c 93 f4 e1 bd 36 90 24 3e 31 cf 02 bf
       0.017067485 -0.11032977 0.16070637 -0.510974
000320 5f 74 6e 3e 96 9d f0 3c 7d 2f 41 be e8 66 75 3e
       0.2328658 0.029372018 -0.18865772 0.23965037
000330 3d b3 21 3b f2 cc 20 bd b9 1c 80 3c 1f 8b e1 3e
       0.0024673485 -0.03925795 0.015638696 0.44051453
000340 3c f4 cd 3d be 70 88 be 38 97 b5 bb 4d ae fa 3d
       0.1005635 -0.26648515 -0.0055417083 0.122402765
000350 2c fd a7 be 8f b3 92 bd 93 99 9f 3d ba a4 81 be
       -0.32810342 -0.07163154 0.07792964 -0.2532099
000360 a0 e9 dc bd 96 cd 74 be 90 77 88 bd 6d 5c 65 bc
       -0.10786748 -0.2390655 -0.0666343 -0.013999087
000370 a7 43 01 3e 73 b7 4f 3e 21 5f c3 bd f7 6b 1f 3f
       0.12623464 0.20284824 -0.09539629 0.62274116
000380 77 d5 99 bd 41 23 1b 3d 86 58 f2 3e f1 a0 7d 3d
       -0.07511418 0.037875418 0.47333163 0.061921064
000390 9d eb 33 be a5 e5 e3 bd 03 9f 6f 3d e9 da ea 3e
       -0.17570348 -0.111277856 0.058501255 0.4587014
0003a0 ac f7 d4 3e a4 17 67 3d fa e3 38 3e f9 3f 81 3e
       0.4159521 0.05641903 0.18055716 0.2524412
0003b0 fa e8 c1 bd 1d 0e fd bb 82 a8 c0 3e b9 76 ef 3d
       -0.09468265 -0.0077226297 0.3762856 0.116925664
0003c0 6f 21 82 bd f9 29 34 3e 4b d4 d0 3d fe 86 70 bc
       -0.06354033 0.17594136 0.10196742 -0.014680622
0003d0 8b 84 87 bd b9 c9 00 3e da 72 e1 3d 63 3b 35 be
       -0.066170774 0.12576951 0.11008234 -0.17698435
0003e0 70 ed f2 3c 4a e0 e4 bd 01 f3 6c 3d d8 bb 20 be
       0.029654235 -0.11175592 0.057848934 -0.15696657
0003f0 e0 25 74 bd ec 32 20 3e 3d c8 b4 3d fa cf b7 bc
       -0.059606433 0.15644425 0.08827255 -0.022438038

fc2.bias f4 [128]
000000 59 7a 95 bd 9b ea 9f bc 48 ce 85 3d 95 d9 81 bc
       -0.072987266 -0.019521048 0.06533486 -0.015850822
000010 cc a5 0f 3e 09 77 54 3c 9c 1b b7 3c 00 00 00 00
       0.1402809 0.012967833 0.022352032 0.0
000020 68 6f b7 bd da 4f 66 bc b3 33 9a 3d cd a6 49 3c
       -0.08956796 -0.014057124 0.07529392 0.012307835
000030 05 c7 0c bc b5 36 c5 3c 67 3d 7c 3d c1 22 bf bd
       -0.008592372 0.024073938 0.061581995 -0.09332801
000040 1c df f4 3c 03 d4 52 3e 9b 4f 9b bb ef 5f d8 bc
       0.029891543 0.20588689 -0.0047397143 -0.026412932
000050 be 9b e9 bd e7 5e e0 bd 85 2d af bc c6 f8 35 bd
       -0.114066586 -0.10955601 -0.02138401 -0.044426702
000060 43 56 19 be 06 11 99 bd dd f1 59 bc e4 dd 6e bd
       -0.14974312 -0.0747395 -0.013302294 -0.05831708
000070 84 d5 84 bc d4 3a d4 bd 87 1d 51 3c 4e 78 f1 3c
       -0.016215093 -0.10362783 0.0127633875 0.029476311
000080 b6 d7 d3 3c a1 d3 1f 3e d6 1d 23 3d bb 2d 90 bd
       0.025859695 0.15608074 0.039823376 -0.070399724
000090 a9 53 7c 3d 03 ea 53 3b a4 ba e6 bc 33 4e 03 3e
       0.061603222 0.0032335527 -0.028165169 0.128228
0000a0 8b 26 7e 3c a7 b5 de 3d 66 06 43 3d 62 37 e4 3d
       0.015512119 0.10874491 0.047613524 0.11143376
0000b0 62 7c ed 3d fd b0 9b bc 45 bb e6 bc 31 2c eb 3d
       0.1159599 -0.019005293 -0.028165469 0.11483038
0000c0 5b dd b8 3c 5d 99 b1 bd 22 47 51 be b9 fa b6 3c
       0.022566488 -0.0867183 -0.20437291 0.02233635
0000d0 ad df f1 3d ac df c9 bb 79 a1 26 3d 4c 0c 1d 3d
       0.11810241 -0.006160697 0.040681336 0.038341805
0000e0 48 b8 25 3e cf fd 08 bc f3 c9 93 3c 17 16 14 3d
       0.16183579 -0.008361294 0.018040633 0.03615388
0000f0 00 b4 25 3d 73 8c 8e 3c 99 ae f9 3c 56 78 cd 3d
       0.040454865 0.017400956 0.030478762 0.10032718
000100 7a 0b 6e 3d 2e f5 7c bd f3 4e 4d 3d 91 51 be 3d
       0.058116414 -0.06175726 0.05012412 0.09292901
000110 c6 63 16 3e ac e0 51 3d ca d7 89 3d 7d 93 02 3d
       0.14686498 0.051239654 0.067306116 0.031878937
000120 46 ce 8f 3d 67 0d 04 3e d5 01 37 3d 8a 47 84 3d
       0.070217654 0.12895738 0.04467948 0.064589575
000130 8a 42 d7 bc 43 c8 16 3e 04 fa 6c 3c 61 70 83 bd
       -0.026276845 0.14724831 0.014463905 -0.06417919
000140 93 5a ab bb f9 bb 62 3d eb c9 7c bd 08 7a 66 3b
       -0.005229303 0.055355046 -0.061716 0.003516795
000150 ef 25 88 3d b1 df ed 3d 76 1a 65 3d c7 30 89 3d
       0.0664786 0.116149314 0.05593344 0.06698757
000160 d9 ed 13 3d 13 ec 1d 3d 2a eb 9b 3d b7 79 91 bc
       0.0361155 0.038555216 0.07613213 -0.017758233
000170 e9 1f 3f 3d aa 21 d9 3d 35 aa 6c bd 90 b9 e0 3d
       0.04666129 0.10602124 -0.05777951 0.10972893
000180 69 af 3e 3c 91 f5 6a 3d c6 e7 49 3d bf 0f 6e 3d
       0.011638501 0.057363097 0.049293302 0.058120485
000190 7e 7e 45 3d 79 c8 ef bc 6b 79 b0 3b 37 df 90 3d
       0.048216335 -0.029270397 0.005385568 0.07073825
0001a0 f4 1e 33 bd e8 3a 1e 3d bc 3c bd bc 13 59 33 3c
       -0.04373069 0.038630396 -0.02310025 0.01094653
0001b0 5a 70 19 bc e4 b3 34 3d 9e 09 f1 bd b1 61 9b 3d
       -0.009365166 0.04411687 -0.117694125 0.075869925
0001c0 0a 9f 0f 3e 2a 90 44 bd b9 69 f5 3d b7 67 ba 3d
       0.14025512 -0.047989048 0.119830556 0.09101813
0001d0 f6 77 af 3d 06 5d 4e bc 9f 64 02 3e e2 05 7d 3c
       0.085678026 -0.012595421 0.12733696 0.015443297
0001e0 12 92 02 3e 46 a7 d1 bc 58 e1 de 3d 3a 28 84 3d
       0.12751034 -0.025592458 0.10882825 0.06452985
0001f0 66 f9 ab 3d fa 74 fe 3d 85 91 36 b9 91 f3 b8 bb
       0.08397178 0.12424655 -0.00017411083 -0.0056442698

fc3.weight f4 [4, 128]
000000 74 3c 70 3d 31 f8 3f 3c 3f c5 b3 3e 6f 2a 59 3d
       0.058651403 0.011716888 0.35111424 0.053018983
000010 0c e9 b6 be 20 fe ca 3e 5a 47 33 be 62 c6 04 be
       -0.35724676 0.39647007 -0.17507687 -0.12966302
000020 ff 78 a1 be c8 c0 1c 3f d7 ad 84 be 32 c9 8d 3e
       -0.31537625 0.6123166 -0.2591388 0.27692562
000030 ad 1c 62 be 45 fd 04 3f f7 3e 13 bf 83 87 42 be
       -0.22081251 0.5194896 -0.5751795 -0.18997006
000040 27 f9 de 3e b2 ef a5 be 48 50 56 bd 59 a6 e1 3e
       0.43549463 -0.32409436 -0.052322656 0.44072226
000050 f5 4b 30 3e 82 58 da be 47 0d 46 be 2c ca 88 3d
       0.17216475 -0.4264565 -0.19341002 0.06679186
000060 a8 47 1c 3f 11 da ad be b5 ea 95 bd 6e 50 9a 3e
       0.6104684 -0.33955434 -0.073201574 0.30139488
000070 08 86 c7 3c 6c 0b f0 3e 84 1b 0f 3f 63 9d 0e 3e
       0.024355903 0.46883714 0.5590136 0.13927226
000080 88 16 8b be 6f de fd 3e a7 b3 18 bf 0a 71 e1 3e
       -0.27165627 0.49583766 -0.5964913 0.44031554
000090 3d 59 8e be 3c 49 92 3e 78 a6 55 3e af 28 b8 be
       -0.27802458 0.28571498 0.20864284 -0.3596854
0000a0 24 66 f6 be 54 0a 90 be fe 0b 01 3e 68 15 7a 3f
       -0.48124802 -0.2813288 0.12602231 0.97688913
0000b0 00 35 6b bd df 28 03 bf 6a 85 b0 bc 90 73 c9 be
       -0.05742359 -0.5123424 -0.021547992 -0.3934598
0000c0 c8 cd 9b 3e 1d 5f 22 bf 4e b4 7c bf 0c 92 11 3e
       0.30430436 -0.6342638 -0.98712623 0.14215869
0000d0 c1 1f 6b be 1f 59 c4 bd 6f 7f c5 be 3c 9b 2c 3f
       -0.22961332 -0.09587311 -0.38573787 0.6742437
0000e0 3e d7 b4 bd bf fa 5a 3e a2 0e 7b 3e 07 9a 50 3f
       -0.08830117 0.21384715 0.245173 0.8148503
0000f0 21 5a 4e 3e 8b 03 c2 bd e4 c7 2b 3f 97 08 a4 be
       0.20151569 -0.09473332 0.67101884 -0.32037804
000100 8e e9 a6 be bd 46 3f 3f e4 20 0d 3f 2a 94 04 be
       -0.32600063 0.74717313 0.5512831 -0.12947145
000110 31 78 04 bf 07 64 02 be 89 93 05 be 16 8a b2 3e
       -0.517459 -0.1273347 -0.13044561 0.34870976
000120 f1 09 a5 be 0f fb a4 be 9b 6e 66 3e 54 b0 79 be
       -0.32234147 -0.32222793 0.2250313 -0.2438367
000130 49 7f fc 3e 50 b4 cd be 3f 18 fc 3e fb 73 c1 3e
       0.4931586 -0.4017663 0.49237248 0.377838
000140 08 27 a3 be e6 5a da be 8e 9b ec be fd 1d 97 3e
       -0.31865716 -0.42647475 -0.4621243 0.29515067
000150 ff be 89 be 12 68 7b 3e 25 e7 7e be 62 9b a8 be
       -0.2690353 0.24551418 -0.24892862 -0.32931048
000160 62 04 d1 3e ce c1 b7 bd fa f2 ca be 06 7e c8 bd
       0.40823656 -0.08972512 -0.396385 -0.09789662
000170 d8 5f 60 3e d6 9d 03 bf 07 48 31 3f ce ac 39 bd
       0.21911561 -0.51412714 0.6925053 -0.045330815
000180 e9 00 74 be cc 36 c1 be cd 41 90 3e 9f a1 27 be
       -0.23828472 -0.3773712 0.28175202 -0.16370247
000190 8b 6d c9 3e 37 ee 39 3e 49 49 1d 3f 95 72 cc be
       0.39341387 0.18157278 0.6143995 -0.3993117
0001a0 c1 37 0a 3f 70 db 34 bd a8 fb b8 3e b8 f1 d2 3e
       0.53991324 -0.044154584 0.36129498 0.41200042
0001b0 6b 0a cc 3d ea 1a c2 3e af dd f3 be 07 32 73 3e
       0.099629246 0.3791116 -0.4763007 0.23749553
0001c0 f0 e0 df be ac fe 73 3f 33 70 a4 bd a9 67 de bd
       -0.437263 0.95310473 -0.08029213 -0.10859615
0001d0 f3 f2 a9 be 22 ae 62 be 08 fc 01 bd 2a a4 fc 3e
       -0.33193168 -0.22136739 -0.031734496 0.49343997
0001e0 db 26 af 3c 2f 48 74 bd fb 66 5d be c7 34 24 3f
       0.021380832 -0.059639152 -0.21621315 0.6414303
0001f0 99 68 bd be c0 8e fa be e5 82 2b 3f 41 7b 04 3e
       -0.36993864 -0.48937035 0.66996604 0.12937643
000200 b6 f6 28 3f 8e ec b2 3c 4d b7 13 3f 88 ff d7 bd
       0.6600145 0.021841314 0.5770157 -0.105467856
000210 d0 95 96 be c3 9a 17 3f 9d f0 14 3f ac a6 6b bd
       -0.29411173 0.5922052 0.58179647 -0.057531998
000220 14 0c c1 3e 81 22 a8 3d a7 fc 55 3e b4 58 9a 3e
       0.37704527 0.08209706 0.2089716 0.301458
000230 74 7e 8d 3c 57 26 91 be 2b 32 dc be c6 ee 34 3f
       0.017272212 -0.28349563 -0.43007025 0.7067684
000240 5e c4 d4 3e 29 10 0c bf 25 d6 7c 3d ea 4f d7 3e
       0.41556066 -0.5471216 0.06172766 0.42053157
000250 9a 8a e6 3e 81 67 26 3f bc ea 9a 3e 2f 82 01 be
       0.4502762 0.65001684 0.30257213 -0.12647317
000260 70 0f f5 3e 4c 2b d3 3d c6 fa f9 3d 84 5e 75 be
       0.4786334 0.103109926 0.12206034 -0.23961836
000270 ee 50 b4 3c c0 8a 9d bd 08 18 4f be 4d a9 26 3e
       0.022011247 -0.0769248 -0.20224011 0.1627552
000280 d8 75 c2 be 46 fa 0b bd 58 74 e2 be f0 ff 6a 3e
       -0.37980533 -0.034174226 -0.44229388 0.22949195
000290 ed 6a ec 3e fe 37 35 3e c4 a6 be 3b 14 aa f5 3d
       0.46175328 0.1769714 0.00581822 0.119953305
0002a0 5d bf 0d be 00 82 58 be 52 59 6f be c0 8b c2 bd
       -0.1384253 -0.21143341 -0.23373917 -0.094993114
0002b0 e6 4b 9b 3d e9 10 5e be 42 0f 06 3e 22 ce c0 be
       0.07582836 -0.21686138 0.13091758 -0.37657267
0002c0 49 e9 07 bc 0b 2e 2c bd 46 e5 78 be 86 02 d5 3d
       -0.008295366 -0.042036097 -0.24306211 0.10400872
0002d0 8a 2d 81 be bc 48 c4 3d f4 f4 2e bd 73 5f 09 bf
       -0.25230056 0.095841855 -0.042714074 -0.5366127
0002e0 b6 9a 11 bf aa ae 34 3d 45 c4 02 3f 78 4f 69 3f
       -0.56876695 0.044111885 0.51080734 0.91136885
0002f0 ea 8f 9b 3e f9 61 ac 3e aa ba f7 3d ea 94 de 3c
       0.30383235 0.33668497 0.1209615 0.027170617
000300 94 c7 46 bc 9b b0 95 3e b0 93 4d 3c 38 b2 a8 be
       -0.012132544 0.29236302 0.0125474185 -0.3294847
000310 ea 35 74 3e f7 15 96 bb 79 94 20 be 7f 6c b3 bd
       0.23848692 -0.004580255 -0.15681638 -0.08760928
000320 85 34 9b 3d 56 5d 12 bf 8c b9 98 3f 79 e3 ce 3e
       0.07578377 -0.5717367 1.1931624 0.40407923
000330 e5 23 1f 3f df d3 3e be ee c1 48 be aa a5 96 be
       0.62164146 -0.1863551 -0.19605228 -0.29423267
000340 29 29 0a bf cb 99 d0 bd 62 7c d1 be 2f 20 47 3f
       -0.53969055 -0.10185584 -0.4091521 0.77783483
000350 e7 f2 97 3e f9 0b 99 3e c2 b3 a8 3e 1c c7 e6 be
       0.29677507 0.29891947 0.32949644 -0.45073783
000360 8c 36 45 3d c6 7a 82 be bc 82 44 be a8 7d e0 3e
       0.048147723 -0.25484294 -0.19190496 0.43845868
000370 1c 67 92 be 5f 3b ce be 58 d6 f3 be 5b b1 6b be
       -0.2859429 -0.40279672 -0.4762447 -0.23016874
000380 b6 c1 95 3e 72 15 8b bc 95 8f da 3e 6c 08 92 bd
       0.29249352 -0.016978 0.4268767 -0.071305126
000390 f9 fb 33 3f 34 fb 58 3f 7e c1 93 be c6 05 5d be
       0.70306355 0.84758306 -0.2885856 -0.21584234
0003a0 ec e5 17 3f 28 84 d0 3e 25 8a 24 3f c9 5e 06 3f
       0.5933521 0.40725827 0.6427329 0.5248838
0003b0 f1 92 47 3d eb 88 2a bf 28 00 3b 3e d8 f3 0b be
       0.04872412 -0.6661517 0.18261778 -0.13667238
0003c0 57 29 e6 be a9 b3 07 3f a9 08 f2 be 15 ce 3c 3c
       -0.44953415 0.53008515 -0.47272232 0.011523743
0003d0 d5 bc 95 be d7 1f 2c bf 50 11 10 be 50 3e 62 be
       -0.2924563 -0.67236084 -0.14069104 -0.22094083
0003e0 ed e2 38 bf be c0 06 bd 94 4d 15 bf 07 e7 80 be
       -0.7222126 -0.032898657 -0.583215 -0.2517626
0003f0 21 f0 a6 be ec bf 86 be 27 24 86 3e 5e 81 6d bd
       -0.3260508 -0.263183 0.26199457 -0.057984702

fc3.bias f4 [4]
000000 2a f6 8b bd 85 45 b6 bd 9a c5 e6 bc 47 25 bb bd
       -0.068340614 -0.088999785 -0.028170396 -0.091379695

fc1.weight f4 [256, 8]
000000 7d a8 98 be 9b 02 11 3f 3d 99 14 3d fc f2 38 bf
       -0.29816046 0.566446 0.036278952 -0.72245765
000010 fc 97 07 3f 04 b8 93 3f c0 a5 38 bf 65 b3 f3 bd
       0.52966285 1.1540532 -0.72127914 -0.11899451
000020 52 e3 8f be 7e c2 7f 3e 7e 3b 1a be 1f 9e e7 be
       -0.2810312 0.24976537 -0.15061757 -0.45237824
000030 8f 67 bc 3d 88 01 a7 3e 54 96 4e bf 00 1f 4c 3f
       0.0919944 0.32618356 -0.8069813 0.797348
000040 e8 85 49 3f 31 7a e5 bd c6 ee 58 bd 00 8d a2 3e
       0.7871995 -0.11204947 -0.052962087 0.317482
000050 be 82 8c bf e9 42 57 bf 88 0c da 3e 29 44 85 be
       -1.0977399 -0.8408647 0.42587686 -0.26028565
000060 51 d3 61 be 0e 06 2f 3f 70 e5 aa be 10 72 4b 3d
       -0.22053267 0.68368614 -0.33378172 0.049669325
000070 15 78 82 3c 64 35 9c be 34 b1 14 bf a5 36 5c 3e
       0.0159264 -0.30509484 -0.5808289 0.2150522
000080 b4 4a eb bd 1c ef 8b 3e f9 e2 ee 3e d9 28 c5 be
       -0.11488858 0.27330863 0.4665754 -0.38507727
000090 99 ff 95 3f eb ff 02 3f 84 16 15 bd a2 67 83 3d
       1.1718627 0.5117175 -0.036398426 0.06416251
0000a0 f3 5e 1a 3e 76 be 7e 3f ec 68 96 3e c4 ee bf 3e
       0.15075283 0.9950937 0.29376924 0.3748685
0000b0 95 44 6b bd 84 4c 81 bf 08 0b 47 bf 80 b3 69 3f
       -0.05743845 -1.0101476 -0.7775121 0.9128952
0000c0 69 e8 6f 3f 6b 5d 5e be 4e d5 8c bd 36 75 97 b9
       0.93714005 -0.21715324 -0.06876622 -0.00028888293
0000d0 b0 45 21 bf 73 46 4d bf 37 81 cc bf 00 ec 8a 3f
       -0.6299696 -0.8018562 -1.5976933 1.0853271
0000e0 00 3a be bf 38 a2 f5 3d 1e 65 76 3f a0 7a 8c be
       -1.486145 0.119938314 0.9624804 -0.27437305
0000f0 f8 8a ab 3e 9d ad cf be 72 52 9c 3e b6 de 5d bc
       0.33504462 -0.40562144 0.3053165 -0.013541868
000100 cb 03 e9 3e 3f 35 12 3f 1a de 0a be ba 47 da 3e
       0.45510706 0.571125 -0.13561288 0.42632848
000110 ed 43 7e bf ff fa 3a 3f aa b7 21 bd 0f 26 92 bc
       -0.99322397 0.7303924 -0.039481796 -0.017840413
000120 16 85 75 3e 2f 23 ca bd 4c 77 30 3e 1c d0 77 3e
       0.2397655 -0.09869992 0.17233008 0.24200481
000130 a4 fc 55 bf 3e bc 2e bf a9 b5 a8 be 54 73 1e 3e
       -0.83588624 -0.68255985 -0.32951096 0.15473682
000140 45 ed db be 91 91 0b be d2 bc 4e 3e f0 5d 44 3d
       -0.4295446 -0.13629748 0.20189217 0.04794115
000150 c2 f6 fc 3d 80 43 3b 3f fa d9 21 3f ed a5 a6 3f
       0.12351753 0.7314987 0.6322323 1.3019387
000160 b5 85 38 bf e4 35 20 be b5 7f 01 bf 79 6b 86 3d
       -0.7207902 -0.15645558 -0.5058549 0.065634675
000170 dc fd 03 bf 5e e7 93 3f 5c 4d 6b bf 96 01 23 be
       -0.51559234 1.1554983 -0.91914916 -0.15918574
000180 2b c6 37 3e ad 40 7a 3f 15 42 32 bf dd 6b 87 3c
       0.17946689 0.9775494 -0.69632083 0.016530925
000190 66 3c ad bd 71 ed 1e be ca e3 c5 3e 4f 26 fe bd
       -0.08458786 -0.15520264 0.38650352 -0.124096505
0001a0 4f 41 ca 3d 78 c1 b2 be a8 f9 4f 3e f4 32 6b bf
       0.09875738 -0.3491323 0.2031008 -0.91874623
0001b0 a8 4d 7b 3e ce be 4c bf 47 f8 c8 bd 7f 01 cf 3e
       0.24541342 -0.79978645 -0.0981298 0.4043083
0001c0 aa da ec be 31 31 b3 3e 1b 01 6e bf 65 71 81 3d
       -0.46260577 0.34998468 -0.92970437 0.063204564
0001d0 2f 35 16 bf 65 39 c1 be a8 5a 7e bf 2e 77 26 3d
       -0.586749 -0.377391 -0.9935708 0.040641002
0001e0 6d 39 16 3f d2 4e d4 be ce 40 5b bf 87 70 f4 be
       0.58681375 -0.41466385 -0.8564576 -0.47742102
0001f0 fd 6a 31 3f b6 a4 35 3e 6d 95 cd be d3 44 29 3f
       0.69303876 0.17738613 -0.40153065 0.6612064
000200 92 a9 af bf cd 80 87 3e a3 92 55 3e 66 a8 0b be
       -1.3723624 0.26465455 0.20856719 -0.13638458
000210 2f d1 6e 3f 64 f2 70 bf bb d3 48 3f 62 50 c4 bd
       0.9328794 -0.9411986 0.78448075 -0.09585644
000220 d7 f3 00 bf a9 dd 8f bf 70 bd 26 bf b4 3d f4 be
       -0.5037207 -1.123952 -0.6513281 -0.47703326
000230 a6 dc f0 be ca 17 3e 3f 8a 64 76 3f f6 71 f7 3d
       -0.4704334 0.7425505 0.9624716 0.12082283
000240 79 9a d5 bf bf 4a 7e 3e d3 be b9 3e 77 29 83 3d
       -1.6687766 0.24833201 0.362784 0.06404393
000250 02 b1 bc be 24 f8 3e 3f ea 46 cc 3e 1a 4b 34 bf
       -0.36853796 0.7459738 0.39897853 -0.70427096
000260 0c 96 01 bf a4 22 78 be 2f 49 cb bd 36 94 d9 be
       -0.5061958 -0.24231964 -0.09926068 -0.42495888
000270 55 43 ce 3e f3 06 b7 3d 1f 78 25 3c 40 9c 10 bf
       0.40285745 0.08936872 0.01009944 -0.5648842
000280 11 70 4e bf ef 9e 9d bc fa 1b 19 be e1 34 9d 3f
       -0.8063975 -0.019240825 -0.14952078 1.2281762
000290 e7 3f 97 bf 16 cd 86 3f b9 37 0b bd 82 83 10 bf
       -1.1816376 1.0531337 -0.03398869 -0.56450665
0002a0 6a c5 bc 3d 80 b5 c9 bf 8c 92 39 3e 1c 7f c9 be
       0.09217341 -1.5758514 0.1812231 -0.3935479
0002b0 64 2c b1 be 80 3e c8 3e 52 ca 56 bf aa e5 04 3f
       -0.3460418 0.39110184 -0.83902466 0.5191294
0002c0 a5 9a 47 bf b6 17 8d bc 52 35 f1 3d af 62 86 3f
       -0.77970344 -0.01722322 0.11777748 1.0498866
0002d0 22 4e 96 bf 38 a0 5e 3f 0c 1e a5 3f 3c 06 c3 3b
       -1.1742594 0.86963224 1.2899795 0.005951671
0002e0 15 0d 04 3f cd 2e fc bb e2 83 0c 3e 4b 58 6b bf
       0.5158246 -0.007696009 0.13722184 -0.919316
0002f0 e7 ff ea bf 67 2e ca be 86 c7 6c 3e f8 9a 49 bf
       -1.8359345 -0.39488527 0.23122987 -0.7875209
000300 07 73 36 bf f3 94 0c bf ab 56 76 3e 0c a9 5c bf
       -0.7126927 -0.5491478 0.24056499 -0.86195445
000310 10 1f 8d 3e 2b 7a 3f 3f b4 13 fd be 62 55 5a 3e
       0.2756276 0.7479579 -0.49429095 0.21321633
000320 fd 4c ba 3e 91 aa 9c be 5a 63 63 3f 43 60 59 3f
       0.36386862 -0.30598882 0.88823473 0.8491251
000330 0e 4d 8b 3c 57 8a 4e 3f b3 af ca 3e 4b 02 0e bf
       0.017004516 0.8067984 0.39587173 -0.5547225
000340 75 35 07 3f c3 d0 da bd 31 69 f5 3d 05 96 19 3f
       0.52815944 -0.106843494 0.11982954 0.59994537
000350 e9 2b 7d 3f cb 23 79 bf bd 21 88 3e 3d 50 7f be
       0.98895127 -0.9732024 0.2658824 -0.24932952
000360 d3 f8 44 3f 00 4c 77 3f fe f5 90 3e 6b 8b 16 be
       0.76942176 0.9660034 0.28312677 -0.14701621
000370 e0 35 f8 be 2a b1 8a 3f 79 73 60 bf ed 61 08 3f
       -0.48478603 1.0835316 -0.876762 0.5327442
000380 cb 3d 0b bf 44 44 c3 bf b9 ce 57 3f ff b1 56 bf
       -0.54391164 -1.5255208 0.8429981 -0.8386535
000390 8e 9b 19 bf 4c ec 15 3e 9a 6c c9 3e 4e 54 f4 3e
       -0.6000298 0.14640921 0.3934067 0.4772057
0003a0 4d 4c 33 3e 5b c7 2b be 42 f2 01 bd d6 e1 19 3f
       0.17509575 -0.16775267 -0.031725176 0.60110223
0003b0 10 6b f4 be 6c 32 b6 3f ac a9 7f 3e 22 47 78 bf
       -0.47737932 1.4234138 0.24967068 -0.9698354
0003c0 84 1a 45 3f 00 46 de 3d a6 1d 99 be 7c c9 ff be
       0.76993585 0.10853195 -0.29905432 -0.49958408
0003d0 43 50 94 bc 2c 1a 2e bf 34 ca 01 3f f0 93 8a bf
       -0.018104678 -0.68008685 0.5069916 -1.0826397
0003e0 f1 e7 76 3f 7b 1f 8c bd f8 96 11 bf 89 48 82 bf
       0.96447664 -0.06841942 -0.56870985 -1.0178386
0003f0 c0 1c c3 be 25 17 1a bf 80 46 12 3f ca 1b c7 3d
       -0.38107872 -0.60191566 0.57138824 0.09722097

fc1.bias f4 [256]
000000 5e 14 d1 3d a2 f3 9e 3d 43 1a ef bc a7 ac 43 3e
       0.10208963 0.07761313 -0.029187327 0.1910883
000010 c8 9a 1d 3e fb c1 32 3d 9d a7 98 3e 95 14 32 3d
       0.15391076 0.043642025 0.2981538 0.04347666
000020 51 ef 9d 3d 89 c4 3d be 9d f4 79 3e 67 a4 f5 3d
       0.077116616 -0.18532003 0.24409719 0.11994248
000030 6a 40 c9 3d ed 41 53 bc 67 02 82 3e e3 11 79 3e
       0.09826739 -0.012894136 0.25392458 0.2432323
000040 c3 2f 79 3d 05 c3 a9 bb 53 d3 ba bc 29 21 a7 3e
       0.060836565 -0.005180719 -0.022805845 0.32642487
000050 dc 13 29 3e 9f 83 18 3e 15 e7 5f 3e 6c 72 d8 bd
       0.16511482 0.1489396 0.21865495 -0.10568699
000060 1a cb f6 3d 96 26 ac 3d d9 20 a3 3e fe 0c 9e 39
       0.12050457 0.08405797 0.31860998 0.00030145788
000070 96 dc b6 3d e1 eb a6 3e f8 99 93 bd b4 ab 4c bc
       0.08928792 0.32601836 -0.072071016 -0.012492109
000080 5e e7 d1 bc 03 aa a1 3d d0 6c d9 3d 66 e9 bd 3d
       -0.02562302 0.07893755 0.106164575 0.09273033
000090 88 73 4d be d1 56 41 3e ff 2e 5a 3e 0b 88 3a 3e
       -0.20063603 0.18880774 0.2130699 0.18215959
0000a0 ce 50 12 3e 56 96 ce bd 4d 1d 35 bd 71 c0 81 3c
       0.14288637 -0.10087268 -0.044217397 0.015838834
0000b0 a6 38 9c 3e ef 6e 7b 3e 42 c3 3e 3d e5 5e c7 3d
       0.3051197 0.24554037 0.04657293 0.097348966
0000c0 63 90 c0 3d d9 92 05 bd 62 99 3a 3e dc 75 48 3d
       0.094025396 -0.032610748 0.18222573 0.048940524
0000d0 00 36 61 3e e0 de 62 3d 90 d4 97 bd f6 90 b1 3d
       0.21993256 0.05538833 -0.0741359 0.08670227
0000e0 7f 2c 8b 3c 7f 2d 10 3d cd 08 d1 3d 88 51 e3 3d
       0.01698899 0.03519964 0.10206757 0.11099535
0000f0 ad bc 3a 3e 4a da 9f bd b0 92 4c 3e cc 6d fb bd
       0.18236037 -0.07805307 0.19977832 -0.122768015
000100 89 f1 5e 3e db 86 0c 3d 30 e0 40 3e 5b 1d 93 3d
       0.21771826 0.034308296 0.1883552 0.071833335
000110 2d 6e ee 3b ef ae a9 3e 4b cb 97 3d e2 cd 1b 3d
       0.0072763176 0.33141276 0.07411822 0.038038142
000120 fc 06 69 bd c1 d9 4d bc 8d ed 19 3e 3e a9 c4 bd
       -0.056891426 -0.012564124 0.15032025 -0.09602593
000130 eb 21 1f 3e 8c d5 86 bc bd 29 28 3e 1e 7a d6 3e
       0.15540282 -0.016459249 0.16422172 0.41890043
000140 eb e6 45 be 27 df 17 3e 67 d4 5a 3d bc f6 cc 3d
       -0.1932637 0.1483122 0.05342522 0.10007998
000150 e2 a5 dc 3c ed 58 37 3e 11 60 9e 3d 64 35 2c ba
       0.026934568 0.17905016 0.07733167 -0.0006569235
000160 33 fa 92 3e 1e 37 fe bc 61 2b 52 3d be b4 80 3e
       0.28706512 -0.031032141 0.0513109 0.25137895
000170 6a c1 91 bd d6 7b 77 bd e3 8f 24 3d 90 a1 07 3e
       -0.07116969 -0.060420834 0.040176284 0.13245225
000180 c0 24 91 3e 47 e2 57 3e 6a c4 df 3e f3 a0 60 bd
       0.2834835 0.21082412 0.4370454 -0.054840993
000190 13 10 14 3e d5 17 90 bd 9b eb 82 bd 98 4c 44 3e
       0.14459257 -0.070357956 -0.063925944 0.19169843
0001a0 be 89 25 bd 48 4f 0c 3e 58 0e 35 3e f3 ba 07 3e
       -0.040414564 0.13702118 0.17681253 0.13254909
0001b0 f7 50 31 3d 12 1a 4c 3e 2c 98 ef 3d 6b 87 5a bd
       0.043290105 0.1993182 0.11698946 -0.0533518
0001c0 06 d7 91 3d 84 b3 6a 3e 30 73 c9 3d d6 46 9e 3e
       0.071210906 0.22920042 0.098364234 0.3091342
0001d0 a5 4c 63 bd 9c cd ff 3d 62 f6 d7 3d 01 1e 3c bc
       -0.055493016 0.12490389 0.10545041 -0.011481763
0001e0 37 bb cc bd 60 4b 1b be 46 1c 0a 3e 38 bf 28 3e
       -0.09996646 -0.15165472 0.13487348 0.16479194
0001f0 07 27 48 bd c2 6d d4 3d d8 75 61 3e 2d de 89 3b
       -0.048865344 0.10372497 0.2201761 0.0042073936
000200 85 57 ad 3d 58 81 cf 3d 6d c4 0b 3e a5 59 22 3e
       0.08463959 0.10132092 0.13649149 0.15854509
000210 c4 65 5b 3e e6 2e ae 3d c6 b5 8f 3c b0 9b e1 bd
       0.2142554 0.08505039 0.017542731 -0.11016023
000220 7e d6 77 3e 29 57 2a be 91 ed 11 be b5 7f b6 bc
       0.24202916 -0.16634811 -0.1425078 -0.022277692
000230 6a 5f 2d 3e 0a be 20 bd 9f b7 6a 3e 3a 83 ea 3d
       0.16930929 -0.039243735 0.22921608 0.11450811
000240 4a 08 49 3d e3 28 ad bc 92 0d 82 3d 1b 14 ca 3d
       0.04908017 -0.02113766 0.063502446 0.09867116
000250 a8 c7 41 3e 70 75 bc 3d 29 60 a0 bd 72 cd 7c 3e
       0.18923819 0.09202087 -0.07830841 0.24687746
000260 38 f7 20 3d 5b e6 15 bd b7 19 aa 3d 56 c6 6f bd
       0.039298266 -0.036596637 0.08305686 -0.058538757
000270 44 46 60 3e 2a d8 89 3b 5d 4f 5f 3c 1b aa 24 3e
       0.21901804 0.004206677 0.0136297615 0.16080515
000280 21 5b 2d 3d 72 1c 60 3d 54 c5 d7 3e 80 77 08 3c
       0.042323235 0.054714628 0.42142737 0.008329272
000290 ad fa c2 bd aa fc 78 3e d4 f1 a4 3d f2 8e 40 3e
       -0.09520469 0.24315134 0.080539376 0.1880453
0002a0 37 40 15 bc ad 61 05 3e 17 35 de 3d 19 b5 95 bd
       -0.009109548 0.13025542 0.1084997 -0.07309932
0002b0 fb 06 95 3d 1e 9d 25 3d 3e c9 0f bd 52 e7 9a 3d
       0.07276722 0.04043304 -0.03510403 0.07563652
0002c0 17 51 c8 3c d3 21 9b 3e 83 79 95 3e ca f4 d2 bd
       0.02445273 0.30299243 0.2919427 -0.10300596
0002d0 55 fb 82 3c b9 97 0f 3e 75 b3 2d 3d 75 15 79 3e
       0.015988985 0.14022721 0.04240747 0.24324591
0002e0 71 af a9 bd 40 02 17 3e dc a5 58 3e 6b 22 b9 3d
       -0.08285416 0.14746952 0.2115702 0.09039768
0002f0 ab 02 8f 3e ce 1c ae bc d6 4e 70 3e af 03 a3 bb
       0.27931723 -0.02125397 0.23467574 -0.0049748044
000300 a7 a2 36 bc d9 92 29 be 06 12 99 be ab 4f d9 3c
       -0.011147178 -0.16559924 -0.29896563 0.026527246
000310 cf ba 26 3e 47 7b 34 3e 52 bc cb bc 28 8a 83 3d
       0.162822 0.17625152 -0.024870072 0.064228356
000320 4f 3f c0 3e 1e c9 a5 3e 2b 77 2c 3d 2b 11 4f 3d
       0.375483 0.32380003 0.042105835 0.050553482
000330 4d 18 93 bc 41 11 cb 3d e6 2e 2f 3e a3 3b d0 bd
       -0.017955923 0.099154 0.17107734 -0.10167625
000340 f9 d1 04 3e 29 1d 32 3d 30 2d 8f 3d 75 a2 69 bd
       0.12970723 0.04348484 0.06991041 -0.057039697
000350 71 43 60 3e 3d 2f 19 3e e5 94 8e bd 26 dc 85 3e
       0.21900727 0.14959426 -0.06961993 0.26144522
000360 f4 ef 66 bd 71 bf cb 3e d1 b8 78 3c b7 29 1a be
       -0.05638118 0.39794496 0.015180782 -0.15054975
000370 f2 c7 56 3d ea 19 0f 3e 71 05 ed 3d da 02 57 3d
       0.052436776 0.13974729 0.115733035 0.052492954
000380 95 51 ff 3d 7f 23 29 3d 84 df 62 3e c6 b6 c7 3d
       0.124667324 0.041293617 0.22155577 0.09751658
000390 0d bb 8e 3e 8b 76 c3 3b e5 0b 99 3e f4 4a 59 be
       0.27877083 0.005965059 0.29891887 -0.21219999
0003a0 77 19 02 bc 52 64 5c 3e 7a 51 c8 bb e5 38 20 be
       -0.007940642 0.21522644 -0.0061132284 -0.15646704
0003b0 c7 55 eb 3d a3 62 81 bd 12 39 7b 3e 86 b8 52 3d
       0.1149097 -0.063176416 0.2453349 0.051445507
0003c0 0e c8 e5 bc 9b c8 47 3d 1e 20 f1 3d 07 fa 53 bc
       -0.028049495 0.048775297 0.11773704 -0.012938029
0003d0 68 60 d1 bc ac 31 fc 3a bf 2e 87 3c ec ed b8 3c
       -0.025558665 0.0019240878 0.016501782 0.022574387
0003e0 c7 c7 2f 3e dc bc 58 3e d2 25 00 3d a8 32 84 3d
       0.17166053 0.21165794 0.03128607 0.064549744
0003f0 1b e3 6b 3d 0f 9a 27 3d fe 8f d1 3d f6 47 f9 3d
       0.05758963 0.040918406 0.102325425 0.121719286
