results/heavy/models/checkpoint_ep1000.pth (torch, 436198 bytes, 18 tensors)

fc1.weight f4 [256, 8]
000000 e6 da 7e bd 7f 33 18 3e 56 e4 c1 bf 58 3b a1 3e
       -0.062220477 0.14863394 -1.5147808 0.31490588
000010 13 2e e0 be 86 73 20 bf a0 75 21 3d 62 11 2d 3f
       -0.43785152 -0.62676275 0.039418817 0.6760465
000020 7c b3 2f 3f 18 0f 09 3d d2 7c 90 3e 2c 40 30 bd
       0.68633246 0.03346166 0.2822023 -0.04302995
000030 7d f0 84 bf 97 9a 05 bf c3 be 9d 3e 3d a1 cc 3e
       -1.0385891 -0.5218901 0.30809602 0.39966765
000040 18 36 6a be b3 4d 56 3f 03 4b 97 3e 30 71 f6 3e
       -0.22872198 0.8371231 0.29549417 0.4813323
000050 97 19 39 3e 0e cd fa be e7 6b 11 3f 9a bb c9 3e
       0.18076168 -0.4898457 0.5680527 0.3940094
000060 ca c4 5c be 62 cb 12 3e 6d c4 b5 bd f5 2c b0 3e
       -0.21559444 0.14335397 -0.08875356 0.344093
000070 03 e1 ab 3f b8 d8 0d 3f 8a ae 83 bf 6d 18 bc be
       1.3428043 0.5540881 -1.028764 -0.36737385
000080 9f 94 bf bf a2 8c 35 bf 18 b6 4e bf d8 9c 55 be
       -1.496723 -0.70917714 -0.80746603 -0.20860612
000090 ac e3 05 3e 62 d7 60 bd be 4b 40 bd 5d 06 68 bd
       0.13075131 -0.054892905 -0.046947233 -0.056646693
0000a0 67 36 0a 3e 02 b4 ac 3d 6e f9 0f 3e a5 d2 ba 3d
       0.13497315 0.08432771 0.14059994 0.091222085
0000b0 ed 22 0f 40 5b d3 02 be 4c 8b f6 3e 18 a5 b0 bf
       2.2365067 -0.12775938 0.4815315 -1.3800383
0000c0 82 a6 2b 3e a5 98 77 c0 e4 e7 c0 3e e6 ee 58 bf
       0.16762736 -3.8686917 0.37676919 -0.8473953
0000d0 cc 8d 26 3f a8 13 d6 3d 53 56 5a 3e 95 7e 73 3e
       0.65060115 0.10452968 0.21321993 0.23778756
0000e0 0e 6a ba be 3a 37 50 bf ed ea 93 3e 1f 5e 34 bf
       -0.36409038 -0.8133427 0.28890172 -0.7045612
0000f0 03 09 1c bf a6 45 91 bf e8 5f a2 3e 83 0c da 3e
       -0.6095125 -1.134938 0.31713796 0.4258767
000100 cb 92 73 be 03 b4 10 3f 6c d4 35 3e 99 76 d4 3e
       -0.23786466 0.56524676 0.17756814 0.41496733
000110 82 d3 45 40 3c 68 23 bf 57 f8 0f bf 6e 76 66 bf
       3.0910344 -0.63830924 -0.5623831 -0.9002446
000120 e1 e5 90 3e 6d e1 3d bf c5 79 9b 3f 53 85 31 3e
       0.28300384 -0.741721 1.2146536 0.17336015
000130 f4 b2 b9 be d8 83 24 bf fd a1 eb bf 75 3c dc be
       -0.36269343 -0.6426368 -1.840881 -0.43014875
000140 77 a1 57 bd a0 07 b0 3d a1 81 c6 bf b4 2b 92 3f
       -0.05264422 0.08595204 -1.550831 1.1419587
000150 d6 8f 64 3e da dd 96 be b1 4e 0a be 33 89 6a 3f
       0.22320494 -0.29466134 -0.13506581 0.916156
000160 92 58 de 3d 22 be 57 3f 66 9d 5a be 8e b6 25 3f
       0.10856737 0.84274495 -0.21349105 0.6473168
000170 8c c5 12 3f 8c bd 30 3f e3 5d dc be b7 e4 69 bf
       0.5733268 0.69039226 -0.4304038 -0.91364616
000180 d4 cb c4 3b 9e dc 50 bc a3 45 17 c0 6c 76 5c 3f
       0.0060057435 -0.012747912 -2.3636253 0.861182
000190 0e 99 5a 3c c5 3b 92 3d 07 fe 15 39 8b ef de bb
       0.013342155 0.071403064 0.0001430438 -0.006803458
0001a0 0a 62 4d bd bc f2 2f bf aa 3b 80 3e 28 fd 44 40
       -0.050142325 -0.6872976 0.2504552 3.0779514
0001b0 ac 80 8b bf d6 ec 88 bd cc 4b 0a 3f 09 83 59 3f
       -1.0898643 -0.06685798 0.54021907 0.8496557
0001c0 05 fc 19 3e fc 26 55 c0 9a 8b 3d 3f 7c e7 f4 be
       0.15037544 -3.3305044 0.7404114 -0.4783286
0001d0 cb 54 e6 3e 91 0a 26 3f ad 99 c0 3e dc 20 e0 3e
       0.44986567 0.64859873 0.37617245 0.4377507
0001e0 18 d9 0d 3d 30 36 39 be a3 87 db bf 2e 1a 03 3f
       0.034630865 -0.18087077 -1.7150768 0.5121182
0001f0 8f 00 59 3f 20 a4 e2 be 97 67 9d be c4 1c 16 3f
       0.8476648 -0.44265842 -0.30743095 0.5863764
000200 cc e7 66 3e 20 8d 98 3d b9 e6 85 3f 81 20 69 3f
       0.22549361 0.074487925 1.0461036 0.9106522
000210 b1 13 c6 bd b8 30 12 bc 1b 43 6d be 5a bb 83 3f
       -0.096717246 -0.008922748 -0.2317013 1.029155
000220 ce 10 35 be 51 da 0f 3e bd de 89 bf ab 97 82 3f
       -0.17682192 0.14048125 -1.0771099 1.0202535
000230 c0 7e 8a be 96 5d 47 bf 9e 46 2a bf b6 b3 48 bf
       -0.27049828 -0.77877176 -0.66514003 -0.7839922
000240 75 5f 75 3e 1e 8a 0c 3f 42 25 87 3f 33 16 c5 bd
       0.23962195 0.5489825 1.0558245 -0.09623375
000250 34 76 8f 3d a0 5c 9f be 52 cd 82 bf 64 c0 02 bf
       0.07004967 -0.31125355 -1.0218909 -0.51074815
000260 85 fe 19 3f 2a d1 a0 be 7f 34 82 3e 8c 67 95 be
       0.6015399 -0.3140958 0.25430676 -0.29180562
000270 59 aa ca bf e3 53 ef bd f0 e3 89 bd 65 2b c4 3e
       -1.5833236 -0.11685922 -0.06732929 0.38314357
000280 92 1b 6b 3e c2 5c 5c 3d 61 14 ee bd 35 90 33 3e
       0.22959736 0.0537994 -0.11624981 0.1753548
000290 74 54 50 3f 46 75 ce 3f 0d d3 56 3f 99 6f 05 bf
       0.81378865 1.6129539 0.8391579 -0.5212341
0002a0 f7 eb 8a bd 33 73 f0 bf 62 3a 11 bf d3 53 0d bf
       -0.06783288 -1.8785156 -0.5672971 -0.5520603
0002b0 14 f1 50 bf 0a a7 00 bf ea cb d5 3e c1 88 5c bd
       -0.81617856 -0.5025488 0.41757137 -0.053841356
0002c0 25 93 ac 3d d8 67 4e 3e be 84 68 3f b4 28 26 bd
       0.08426503 0.20156801 0.9082755 -0.04056616
0002d0 33 94 96 bf 31 d1 1f bf a1 cf c7 3e d4 8f c8 be
       -1.1763977 -0.62428576 0.39025596 -0.39172232
0002e0 99 5d 4c be b8 41 e7 be 35 9c 4d bf 42 6d 1f 3e
       -0.1995758 -0.45167327 -0.8031648 0.15569022
0002f0 3d 3f 2e bf 50 a8 ba 3e 7d f9 47 bf 6f b8 b5 bf
       -0.68065244 0.36456537 -0.78115064 -1.419691
000300 cd 16 69 3d b3 23 79 be 84 34 f3 be 7c ac 66 be
       0.05690651 -0.24330024 -0.47501004 -0.22526735
000310 33 f9 3f bf a7 78 8c bf 70 19 2d bf aa e4 4b 3f
       -0.7498962 -1.097432 -0.6761694 0.7964579
000320 27 0a 2c bf 5d 7e ac 3e b5 28 a4 3d 15 67 6e 3f
       -0.6720299 0.33690158 0.08015577 0.9312604
000330 35 70 9a 3f 97 9f 82 be 12 50 cf be c5 71 cd be
       1.2065493 -0.25512382 -0.40490776 -0.40125862
000340 f9 4f b5 3e 1e 6e 25 c0 ed 22 eb be 3e de a1 bf
       0.35412577 -2.584846 -0.45925084 -1.2645948
000350 87 81 91 bf a1 b2 b1 bd 71 73 eb 3e 18 fd da 3d
       -1.1367654 -0.08676649 0.45986512 0.10692805
000360 97 ea 92 3e 7e 9e 85 3d 9e 7e 50 3f fa 57 4e bf
       0.28694603 0.065243706 0.814432 -0.8060299
000370 01 9d e9 be e4 fd 8d bf f6 7d c3 3e e8 22 40 be
       -0.45627597 -1.1093106 0.38182038 -0.18763316
000380 0f f7 e7 3e 2a 91 6a be 6a 34 85 3e cb b6 61 be
       0.45305678 -0.22906938 0.2601655 -0.22042386
000390 74 78 87 3f 8a 06 49 be 7d 91 0b be 61 96 6d be
       1.0583634 -0.196314 -0.13629718 -0.23201896
0003a0 68 21 13 bf 10 e7 f1 3d 12 f6 79 3e 8a 7e d2 bc
       -0.5747285 0.1181165 0.24410275 -0.025695104
0003b0 63 d4 9c 3e 52 ee 2e bf 36 e9 d5 be 37 8d cd 3e
       0.30630788 -0.683324 -0.41779488 0.401468
0003c0 83 17 10 bf 17 a4 6b 3f 8f 97 72 be 23 50 2f 3e
       -0.56285876 0.92047256 -0.23690628 0.17120413
0003d0 80 13 e1 be ac ed be 3e fe 89 6d be 19 3d 59 bf
       -0.4396019 0.37290704 -0.23197171 -0.8485885
0003e0 84 62 5c bd ed 06 47 3d 8b 8b 14 3f 28 e0 14 40
       -0.05380489 0.04859059 0.58025426 2.3261814
0003f0 d6 bd 8b be 42 67 08 3f 4d 63 e9 be e4 24 02 3d
       -0.2729327 0.5328256 -0.45583573 0.031773463

fc1.bias f4 [256]
000000 2e cd 3b be 2e 04 2d 3d ab 49 97 3c 74 6f 84 3e
       -0.18339989 0.042240314 0.018467745 0.25866282
000010 9d 38 01 3d 7f 49 2a bd 2f 65 7b 3e ab c7 2b be
       0.03154813 -0.041573998 0.24550317 -0.16775386
000020 c5 7b 71 3c 91 1b ce 3e 57 58 47 3d 8c 2c 56 bd
       0.014738982 0.40255406 0.04866823 -0.052288577
000030 2e a9 83 3b d3 3f 9e 3e 7a 2d 7c 3e 75 e4 91 be
       0.0040179705 0.3090807 0.24626723 -0.2849461
000040 f6 c5 e3 bd 76 7b 0f be 6e cc 2b 3a 35 16 19 3e
       -0.111217424 -0.1401194 0.0006553595 0.14949878
000050 c7 25 a0 3e 7f a6 d9 3d ba 6c 91 be 34 2e 46 3e
       0.31278822 0.1062746 -0.28403264 0.19353563
000060 0d 8f 5a 3c 9e 02 47 3e 30 00 a2 3d 34 95 37 be
       0.01333977 0.19434592 0.07910192 -0.1792801
000070 94 a5 95 3e 0b 17 32 3e 65 d7 2f 3e 5c 76 fe 3d
       0.2922789 0.17391603 0.1717201 0.12424919
000080 f9 cc 0c 3d a6 ea a1 3e 2f 81 a0 3d 37 38 53 bd
       0.034375165 0.31624335 0.0783714 -0.051567283
000090 b8 d4 bc 3d ee 2f b4 3e b7 c3 a2 bc cf 9b 04 bd
       0.092202604 0.35192817 -0.019868715 -0.032375153
0000a0 67 02 99 3d 85 86 44 be 83 be 7f 3e ad e8 2b be
       0.07471161 -0.1919194 0.24975018 -0.16787978
0000b0 d3 e4 ce bc 2a 92 55 ba dd 9c 20 be 66 13 45 be
       -0.025255596 -0.00081470853 -0.15684839 -0.19245681
0000c0 29 59 99 ba 8b ad 61 bd a3 b3 30 3e c2 0a 48 3e
       -0.0011699545 -0.055097144 0.17256026 0.19535354
0000d0 1e 8b a8 3d 6b 5a 5d bc d9 74 06 3c a6 cf 8a 3c
       0.082296595 -0.013510327 0.00820657 0.016944718
0000e0 37 6c 6b 3e be e8 79 be da 72 87 3e 65 57 98 be
       0.229905 -0.2440519 0.26454812 -0.29754177
0000f0 92 79 67 be c4 3a 19 3e 5a 2d 41 3e ba a5 c0 b8
       -0.22604969 0.14963824 0.18864956 -9.1861424e-05
000100 dd da 4f bc aa 80 23 ba b1 be 3f be f3 b9 4e be
       -0.012686458 -0.0006237129 -0.18725087 -0.20188121
000110 63 98 99 3d bd 3c a6 3d 9d f7 0b 3e b7 12 86 3e
       0.074997686 0.08117054 0.13668676 0.26186153
000120 28 b5 17 3e a3 a6 0d be 80 82 0b 3e 2a 9f 9b 3e
       0.148152 -0.13833098 0.13624 0.3039487
000130 83 da e9 3d d7 ea 89 3e bf c0 f2 bc c1 69 05 3e
       0.11418631 0.2693698 -0.029632924 0.13028623
000140 c9 8d a4 bd 84 95 90 3e 81 e1 3d bb db 57 73 bd
       -0.08034856 0.2823907 -0.0028973522 -0.059409957
000150 e8 a0 35 3e b8 2f b1 3c fc 25 c6 bd 01 4b cd 3d
       0.17737162 0.0216292 -0.09675214 0.100240715
000160 cf d7 38 be b2 18 93 3e cd 98 8e 3d 42 3c da be
       -0.18051074 0.2872978 0.06962738 -0.42624098
000170 a6 46 16 3e 43 2c f6 3d 20 d7 e3 3d e2 fb 09 be
       0.14675388 0.12020161 0.11125016 -0.13474992
000180 4a 73 18 3e 5b cb b3 be ad ce 3c 3d c4 b0 85 bb
       0.1488773 -0.35116085 0.04609554 -0.00407991
000190 cb c7 03 3e a0 57 f1 bd d9 12 1a be e7 2f c8 3d
       0.12869184 -0.11784291 -0.15046252 0.09774762
0001a0 d0 c3 d4 3d 64 c7 83 be fb ea d7 3d b1 69 52 3d
       0.10388911 -0.2573806 0.10542866 0.051370326
0001b0 ec e1 1b 3d 72 9f ce bd 39 6a 50 3e 9f 80 e5 3d
       0.038057253 -0.100890055 0.2035302 0.11206173
0001c0 6d f2 a1 bc ad b2 2c be 41 69 9d be 3e 17 0c be
       -0.019768918 -0.16865034 -0.30744365 -0.13680741
0001d0 17 45 c7 3d e1 2b 0e 3e d2 9a f8 3d 9c 65 84 3c
       0.09729975 0.13883926 0.12138905 0.016161732
0001e0 df 39 64 3e bc fa 67 3e de 14 bf be 79 15 f9 bd
       0.22287701 0.22654241 -0.37320608 -0.12162299
0001f0 ed 3b d9 bd 08 55 31 be 58 f5 de bd e6 de 27 3c
       -0.10607133 -0.17317593 -0.10886639 0.010246014
000200 5c 9c 52 3e 5a 74 fa 3c c5 95 c5 3e f3 dd d2 3d
       0.20567459 0.030573059 0.38590828 0.1029624
000210 dd b7 e5 bc a8 05 47 3e 3f d6 06 bd b5 aa 93 3e
       -0.028041774 0.19435751 -0.032919165 0.28841177
000220 0f 0a c1 bc 65 26 28 3e 90 c6 46 bf f5 ec e9 3d
       -0.023564367 0.16420896 -0.7764673 0.11422149
000230 c7 e8 08 3e be eb ac 3e 35 36 b1 3e 60 49 6f be
       0.13370048 0.33773607 0.3461167 -0.23367834
000240 c4 4f 84 be 0e 45 20 bc 93 45 e2 bd 3e 51 9d be
       -0.25842106 -0.009782089 -0.110484265 -0.30726045
000250 c9 92 3d bd 90 6f 30 3e 54 0c a0 be 6b 16 38 3d
       -0.046282563 0.17230058 -0.31259406 0.044943254
000260 d5 10 01 bd e8 8c e3 be 74 5a b8 3a ca 56 e3 3d
       -0.031510193 -0.4444344 0.0014065043 0.11100538
000270 67 fe b0 3b 6a f4 f2 bd 22 b0 96 bd cb c0 0d be
       0.005401421 -0.118630245 -0.073578134 -0.13843076
000280 15 0b 82 bd a4 be dd 3e d9 da 91 3e f0 26 69 3e
       -0.0634977 0.4330951 0.2848728 0.2276876
000290 a3 f3 29 3e 21 a4 83 bd cd 09 78 3d f0 39 0f 3e
       0.16596846 -0.064277895 0.06055622 0.13986945
0002a0 f6 20 da 3c 68 6a 47 be 3f a1 6c 3e 4f f5 8c bd
       0.026627045 -0.19474185 0.23108386 -0.068827264
0002b0 6b 54 8d 3d d9 57 7e 3e 92 63 bc bc 3a a2 84 be
       0.06900867 0.24838199 -0.022996698 -0.2590502
0002c0 e5 c6 a2 bd 05 54 2f 3e 72 9e 83 be e2 dc 78 3d
       -0.07948092 0.17121895 -0.25706822 0.060757525
0002d0 5e 43 09 3e ac f4 15 bd 43 05 07 be 4e 14 52 bd
       0.13404605 -0.03661029 -0.13185601 -0.051288895
0002e0 2d f7 9f 3d 8f 18 90 3d 7d 31 21 bd c4 09 6b 3e
       0.07810817 0.07035934 -0.039353836 0.22952944
0002f0 a4 2b 17 3d 5b 5c 6b 3d 19 2f fe b9 37 84 2d 3e
       0.036906853 0.057461124 -0.00048481746 0.16944967
000300 b2 7f 10 be 29 93 77 3e fc e7 47 be a8 0a e7 3e
       -0.14111212 0.24177231 -0.19522089 0.45125318
000310 cc 8e 42 be eb 9f 38 3e 72 b1 00 3e 39 0e 9a bd
       -0.18999785 0.18029754 0.1256769 -0.07522244
000320 53 05 00 be 9d 13 e2 3e 77 94 3e bd 77 54 8b 3d
       -0.12502031 0.4415559 -0.046528306 0.0680322
000330 af 6d 2e be 1e b6 9a bc 74 69 77 be 48 d8 00 3e
       -0.17034028 -0.018885668 -0.24161321 0.12582505
000340 a0 7b 06 3d 44 d0 1a be 6a 4f 1e be 4b 1c 35 3d
       0.03283274 -0.1511851 -0.15459982 0.044216435
000350 a2 85 07 3e 4a 0d 1b 3d 9e 2e 36 3e d4 7d 0b 3e
       0.1323457 0.03785447 0.1779122 0.13622218
000360 c2 59 06 bc 65 c4 b3 3d df 48 5b be ca 4d 0f 3e
       -0.008200111 0.08777694 -0.21414517 0.13994518
000370 de 7e 12 3e 08 f8 99 3d 71 d5 19 3d 89 a6 4e 3d
       0.14306208 0.07518011 0.03755707 0.05045179
000380 22 f5 92 bc 8a 0c 89 3b 36 98 d1 bd ff 50 cb 3d
       -0.017939154 0.004182403 -0.1023411 0.09927558
000390 50 10 b3 3c e1 0a 69 3d 89 aa 9a bd 61 93 40 be
       0.021858364 0.05689514 -0.07552058 -0.1880622
0003a0 75 e1 06 bd 64 36 cb 3d 1e 85 ee 3d cb c9 09 3f
       -0.032929856 0.099224836 0.11646484 0.53823537
0003b0 49 49 0a be e2 af fa bd 74 ed 88 3e 92 82 38 bd
       -0.13504519 -0.12240578 0.26743662 -0.045046397
0003c0 a5 d7 d9 bd c7 64 93 3e 3a f1 36 be 8d 77 88 be
       -0.10636834 0.28787825 -0.17865458 -0.2665371
0003d0 83 d4 4c 3d 3d cc 94 bd 1d bc 6d 3e d4 50 a6 3c
       0.050007354 -0.07265518 0.23216291 0.020302214
0003e0 16 c0 38 3e 4f cb f2 bd c5 86 2e bd 81 6c 83 3e
       0.18042025 -0.11855184 -0.042608995 0.2566872
0003f0 8d 04 0e 3e 3a ae bf be 9e 26 42 3c 38 1f 6f 3c
       0.13868923 -0.37437612 0.011850027 0.0145948455

fc2.weight f4 [128, 256]
000000 25 dd 48 be 63 5a a5 3e d3 ac 53 be 21 c4 a7 be
       -0.1961561 0.32295522 -0.20671396 -0.32766822
000010 42 d5 6c ba b6 3a 90 3e f9 db cc 3e 55 24 d6 bf
       -0.00090344634 0.28169793 0.40011576 -1.6729838
000020 8a 93 cc be 92 ed 71 3e 9a 2d cb 3e 6e c3 09 be
       -0.39956313 0.23625782 0.3968323 -0.13453457
000030 d4 f8 96 3e 05 c4 9f 3e 03 37 a7 3e 96 ce ca 3d
       0.29486716 0.3120424 0.32659158 0.099026844
000040 bd 27 91 be 92 0e 3e 3e 6c d3 84 39 b8 50 d7 be
       -0.2835063 0.18560246 0.00025334524 -0.4205377
000050 98 73 bc bd 19 c0 89 bf 43 b6 30 bd e4 d7 f0 bc
       -0.09201735 -1.0761749 -0.04314257 -0.02939982
000060 91 66 9b be a3 a2 16 be c1 ad 37 bf c6 b5 8d bb
       -0.3035169 -0.14710478 -0.717495 -0.0043246476
000070 16 73 88 be ab a5 d0 bb 3f 6a 84 3e 15 74 96 3c
       -0.26650304 -0.0063674054 0.2586231 0.0183659
000080 7f 2a 20 bc 71 61 f4 3e 29 4e 11 3d 5d 49 b0 3e
       -0.009775757 0.47730592 0.03547493 0.34430972
000090 01 6b 26 3e c4 e1 ea 3d a3 89 56 bf 07 4c 7a be
       0.16251756 0.114688426 -0.83803767 -0.24443065
0000a0 fa 18 cc 3d 07 c2 9e 3d fe 0d 07 be 78 58 75 be
       0.099657014 0.077518515 -0.13188931 -0.2395953
0000b0 f2 0d 2c 3e 2d e9 ca 3e 08 91 2d 3e 37 83 61 bc
       0.16802195 0.39631024 0.16949856 -0.013764194
0000c0 09 18 df 3e 67 63 26 3e 12 fd fc bd a4 17 ba 3e
       0.43573025 0.16248856 -0.12352957 0.3634616
0000d0 1f 14 23 3f 8e be d2 bf 34 5b 44 3e 1a ae 70 3e
       0.6370258 -1.6464403 0.19175416 0.23503914
0000e0 95 29 bb bd 26 c3 88 bf 5e 12 ab bd 26 51 5b bf
       -0.091387905 -1.0684555 -0.08353113 -0.856707
0000f0 56 70 6f 3d b4 4f 76 3e 03 bb 94 be 9d 7c ff 3d
       0.05845674 0.24053842 -0.2904893 0.1247494
000100 b4 7b cf 3b e1 58 d1 3f 98 ba 85 be da ae 17 3e
       0.0063318852 1.6355249 -0.26118922 0.14812794
000110 90 41 21 be fd e5 df bf 56 dc 69 be 30 fe 96 3d
       -0.15747666 -1.7492062 -0.22837958 0.07372701
000120 1b d2 91 3d ec b1 a4 3e e4 53 34 bd c8 d5 8c be
       0.071201526 0.32166994 -0.044025317 -0.27506852
000130 85 bd 48 bd 2b 31 31 3e 8b 33 13 3f ac 37 05 be
       -0.049008865 0.17303912 0.57500523 -0.13009518
000140 d8 b1 89 3d 7c 74 b1 3c 40 7d 28 3d 68 36 a3 be
       0.06723374 0.02166199 0.041135073 -0.31877446
000150 12 33 4c 3e 9f e4 f8 bd d2 88 bf bd fe fc 12 3e
       0.19941357 -0.12152981 -0.09352268 0.14354321
000160 42 64 55 3c c5 bf 12 3e c2 f4 1b be f1 26 3c bd
       0.013024392 0.14330967 -0.15230086 -0.045935575
000170 57 99 23 be b5 5c f7 bd fb 3c 31 3d 5b 83 ee bf
       -0.15976463 -0.12078229 0.043271046 -1.8633837
000180 5b 66 c4 3d 45 df 2d bc 15 09 7c be b5 c5 3e 3e
       0.09589835 -0.010612314 -0.2461284 0.18630107
000190 fc 60 9c 3e 07 c9 c5 bd 54 7c 02 bf eb be c0 bd
       0.30542743 -0.096574835 -0.5097096 -0.09411415
0001a0 d6 13 8e be 3f 42 b2 bd 8c 17 c9 3e 3b 94 da 3d
       -0.2774951 -0.08704042 0.39275777 0.10672804
0001b0 fd 61 97 be f1 75 91 bd 72 cf 68 3f 7d 4d 35 3e
       -0.29566947 -0.07102574 0.90941536 0.1770534
0001c0 31 fe 12 3e e2 54 df 3d f4 84 c1 3e da 58 d4 3e
       0.14354779 0.10904862 0.37796748 0.41474038
0001d0 10 56 68 3b 6a e7 24 be 89 66 78 bd 90 95 aa bd
       0.0035451688 -0.16103902 -0.06064466 -0.08329308
0001e0 00 c3 02 3e 2e 4b 97 3e a3 be 7d bd fe 81 0c 3d
       0.12769699 0.29549545 -0.061949383 0.034303658
0001f0 4e 11 88 3c 67 db 1e bf da 08 07 bf d4 46 0c 3e
       0.016609814 -0.6205353 -0.5274788 0.13698894
000200 47 ed 1e bf 9c ce 95 3e c2 a1 62 bf 55 f5 72 3d
       -0.62080806 0.29259193 -0.8852807 0.059315998
000210 b4 1b 1d 3c d1 e5 61 be 32 e9 a8 bd 54 1f 21 be
       0.0095891245 -0.22060324 -0.082476035 -0.15734607
000220 8e 0a cc 3e b3 d3 f1 3d 03 3b 1b 3f 44 b0 ad 3e
       0.39851803 0.118079565 0.6063692 0.33923542
000230 17 6c 84 bd cb 70 12 bf d7 3b 91 3e ca 1f c6 bd
       -0.06465929 -0.5720336 0.28365967 -0.09674032
000240 59 37 ef 3c 6a aa 33 3e 9e fe 26 3e c6 55 ab 3d
       0.029201197 0.17545477 0.16308066 0.08365969
000250 e9 66 93 bc 9c c2 a6 3e da 5f e0 bd 5f 41 c0 3c
       -0.017993407 0.3257035 -0.10955782 0.023468671
000260 c7 85 39 be 7f 6b 4f bd 47 35 b5 bb 91 c7 ba 3e
       -0.18117438 -0.050639626 -0.005530033 0.36480382
000270 3c 13 40 3d ce c9 67 be 9c 91 0b 3b 30 fb b4 3d
       0.046893343 -0.22635576 0.0021296507 0.08836973
000280 89 ac 3b 3f ff b7 5a bf 5b ee c5 bd 0c ff e3 3e
       0.7331014 -0.85437006 -0.09664603 0.44530523
000290 c6 5d a8 3e 2e 3f 03 3e 5d 8a 98 3d 49 37 11 be
       0.32884043 0.1281707 0.07448266 -0.14181246
0002a0 18 40 e8 3d 48 70 23 be a1 1b c5 3e e3 57 cc be
       0.1134035 -0.159608 0.38497642 -0.39910802
0002b0 bc 74 92 3e 0d 55 17 3d 01 c5 04 bf ca 9a e8 3d
       0.28604686 0.036946345 -0.51863104 0.11357649
0002c0 3a 63 4d 3e bd c0 7c be 56 75 62 be 5e dd 6c 3d
       0.20057383 -0.24682899 -0.22115073 0.0578283
0002d0 5f ad 85 3e ba b1 21 3e 34 31 43 bb 72 a7 4d bc
       0.26108834 0.15790454 -0.0029783966 -0.012552129
0002e0 ea a5 b9 bc b0 09 51 be 2c 2b 9d be 6c 14 6f be
       -0.022662122 -0.20413852 -0.30697 -0.23347634
0002f0 c3 0b 93 3e 8a 27 c4 3d 5e e4 70 bd 8b 3d 19 be
       0.2871991 0.09577854 -0.058811538 -0.14964883
000300 98 63 99 be 8b c6 df bd 2c 32 8e 3d cb 7b 13 3c
       -0.29958797 -0.10926541 0.06943163 0.0090016825
000310 c6 22 e8 be ce 65 35 be 16 7f 8a 3e bc 23 4c 3e
       -0.4533903 -0.17714617 0.27050084 0.19935507
000320 11 0b 63 3e e6 3f 4c 3d f7 f1 bc 3e 97 18 89 be
       0.2217219 0.049865626 0.36903355 -0.26776573
000330 74 75 07 3d 69 fc d7 bd 57 04 09 be ab c7 d6 be
       0.033070996 -0.1054619 -0.13380562 -0.4194921
000340 2f ed 58 be 98 af fb 3d 80 8e 42 be 91 b0 4c bf
       -0.21184228 0.12289351 -0.18999672 -0.7995692
000350 af bc af 3d 5a 87 e0 bd c0 38 5f bf dd 8a 47 3d
       0.085809104 -0.10963316 -0.8719597 0.048716415
000360 3c eb 7b 3b 5f d5 80 bd 42 c7 01 bf 01 6c be be
       0.003843977 -0.06290697 -0.5069467 -0.37191775
000370 76 72 7d be d5 0e 14 be cb ed 6f bd cb 02 fa 3e
       -0.24750695 -0.14458783 -0.058576386 0.48830256
000380 8f 14 53 3e 0c 58 a4 bf 24 94 90 be ea f4 e7 bc
       0.20613311 -1.283937 -0.28238022 -0.028315026
000390 70 96 a7 3e 53 17 30 bd 57 f0 d3 bf d0 7f 52 3e
       0.32731962 -0.042990994 -1.6557721 0.20556569
0003a0 ff 8a b8 be 9b 10 1e be 44 91 ae 3e 07 68 1b be
       -0.36043546 -0.15436022 0.34095204 -0.15176402
0003b0 7f a3 06 3c 15 e3 40 3d 65 47 a5 3e fa f1 02 bf
       0.008217691 0.047091562 0.32281032 -0.51150477
0003c0 99 bb 2f be 1c ae 3d bf 89 25 45 be cb 29 4e 3e
       -0.17161407 -0.74093795 -0.192526 0.2013313
0003d0 c1 e8 88 be f5 d8 bd bd ed 7a f2 3d 15 db 4e be
       -0.26740077 -0.09269897 0.118398525 -0.2020076
0003e0 3b 7d 82 3e 2d d2 33 bf 32 9a 19 bf 05 55 96 3d
       0.25486168 -0.7024258 -0.6000091 0.07340435
0003f0 33 62 94 be cf c5 f2 3d 66 91 22 be ca ae e7 be
       -0.2898117 0.11854135 -0.15875778 -0.4525054

fc2.bias f4 [128]
000000 ec 96 9b 3d ec a1 67 bd 10 52 4b 3e e5 be 9d 3e
       0.075971454 -0.056550905 0.19855523 0.30809703
000010 24 06 ea bb 98 01 ec 3e 8a 7c 9d bd 8f d4 0d bd
       -0.0071418453 0.46094966 -0.076897696 -0.03462654
000020 e7 2f 54 3e 9b af cd 3c 43 52 1f 3e 4e fb f8 3d
       0.20721398 0.02510815 0.15558724 0.121573076
000030 a3 0e 58 bd 94 b0 19 be 6e 59 eb ba 47 49 de 3d
       -0.052748334 -0.15008765 -0.0017955729 0.1085382
000040 34 bd 3b 3e 2e 18 bb bc 15 9b 72 3e 34 ff ff bc
       0.18333894 -0.022838678 0.23691972 -0.03124962
000050 72 a9 66 be 91 0d 53 bd a4 1f 7a 3d 41 fb 53 bc
       -0.22525576 -0.05152661 0.06106533 -0.012938322
000060 e4 46 1b be 16 30 d7 be 1d 83 27 bd 42 60 0e 3e
       -0.15163761 -0.42028874 -0.040896524 0.13903907
000070 8e 56 b8 3d de 56 43 bd 90 b3 1e be 61 0e 67 bc
       0.09000884 -0.047690265 -0.15498185 -0.014102549
000080 58 3e 39 3e df b7 16 3e 79 35 39 bc b3 11 86 39
       0.18090189 0.14718579 -0.011304253 0.0002557166
000090 a7 e0 9b 3c bc ed 5f 3e be c0 04 3e 43 19 61 3d
       0.019028021 0.21868032 0.1296415 0.054955732
0000a0 96 1a a8 3e ea 00 cf 3d db 58 96 be 41 ed 1a be
       0.32832783 0.10107596 -0.29364666 -0.15129568
0000b0 f9 c9 cb 3c 7b 7c 2a 3e 2d ee c5 bd ed 70 ff 3d
       0.024876582 0.16649048 -0.09664569 0.12472711
0000c0 52 40 75 bc 31 21 c1 bb bb 8f 86 be 25 9a 3a be
       -0.014968948 -0.0058938493 -0.26281533 -0.18222864
0000d0 09 23 15 be 2c 48 b2 3b d6 f4 a7 bc 99 74 06 3e
       -0.14564146 0.0054407325 -0.020502489 0.13130416
0000e0 77 b4 a3 3d f4 3b 87 bc 1e 59 8a 3d 39 ab 93 3e
       0.07993405 -0.01650808 0.06755279 0.2884157
0000f0 fd e9 84 be 0e 3e be 3d aa 1b bc 3d 0b e1 44 3c
       -0.2595977 0.0928918 0.09184964 0.012016545
000100 22 c1 51 3d ce 1a fa 3d ef fd e0 bd 08 56 ab 3d
       0.051209576 0.12212144 -0.10985934 0.083660185
000110 6f e1 a7 3d 4c 21 33 3e 72 70 5f 3d 8a 12 b4 bd
       0.08197295 0.1749317 0.054550596 -0.087925985
000120 f2 9b 28 3e 47 bf 4b 3e f7 31 ed 3d 67 78 12 bd
       0.16465738 0.19897185 0.11581796 -0.035759356
000130 75 ec d1 3c 3b 05 c2 3d 84 00 6a 3d 98 de 54 be
       0.025625447 0.09473654 0.057129398 -0.20788038
000140 e2 b8 22 3c 25 e7 2a be 3a ae 60 3d 24 2f 75 3e
       0.009931775 -0.16689737 0.054853655 0.23943764
000150 3b fb e3 3d 84 0a 17 be fe 1e 7c 3e a3 cf 1b 3e
       0.11131903 -0.14750105 0.24621198 0.15215926
000160 73 c2 c8 bd a0 4f bb 3d e3 61 19 3e 10 8f 44 3e
       -0.09802713 0.09146047 0.14978747 0.19195199
000170 60 21 ac 3d 76 a8 87 bd 88 46 14 bc 2d 7a bb bd
       0.08404803 -0.06623928 -0.009050019 -0.091541626
000180 37 e6 5b be 31 a5 0f 3e c6 19 8c be 38 8b ec bc
       -0.21474539 0.1402786 -0.27363414 -0.028874978
000190 90 df 6c be f3 2b 0a 3e 79 14 09 3e 2b ce 5b be
       -0.23132157 0.13493328 0.13386716 -0.21465366
0001a0 65 cd d3 3d 6d 91 17 3e 07 c7 11 3e 3d 58 14 bd
       0.1034191 0.1480157 0.14236079 -0.036216963
0001b0 60 9c 07 3e b6 92 c0 be eb eb d6 3c ac 45 5f 3e
       0.13243246 -0.37611932 0.026235541 0.21803921
0001c0 ea 3b d2 3d 04 cc 2a 3e cb 36 09 be 31 95 16 be
       0.10265334 0.16679388 -0.13399808 -0.1470535
0001d0 3a 3c 12 3e f6 85 a2 3d 44 c5 c2 3d 43 5c 8e bc
       0.14280787 0.07935707 0.09510282 -0.017377978
0001e0 5a 82 91 3e 1a 02 eb bd 5a eb 11 be 64 10 10 3e
       0.28419763 -0.1147501 -0.14249936 0.14068753
0001f0 45 eb c1 3d ce d9 46 be 37 78 0f be 81 a3 df 3d
       0.09468702 -0.19419023 -0.14010702 0.10919858

fc3.weight f4 [4, 128]
000000 4a 97 33 3f e6 1b e7 bd dd f0 92 3e 4b 79 96 3f
       0.70152724 -0.11284618 0.2869939 1.1755766
000010 76 e7 3b bf 8f 53 ac 3f 33 10 23 3f 1a bf 00 bf
       -0.73400056 1.3463 0.63696593 -0.502916
000020 67 43 89 3e 1a 24 25 bf 9a 5f e4 3e 8d 15 f0 3d
       0.26809236 -0.6450821 0.44604188 0.117228605
000030 e5 c3 e8 3e f6 17 95 bf b4 27 c1 3e 59 2f 56 be
       0.45461956 -1.1647937 0.37725604 -0.20916499
000040 64 cf 28 bf 35 0e 91 3d c0 76 1a 3f db 5f 30 bf
       -0.6594145 0.07082788 0.6033745 -0.68896264
000050 8b d9 69 bf 7e 87 ef 3d ef 23 44 3f cd 73 37 3f
       -0.9134757 0.11695765 0.7661733 0.7166107
000060 a2 92 d2 3e 4e 58 86 3f 49 ba bd bd 8f b7 46 bf
       0.41127497 1.0495698 -0.09264047 -0.7762384
000070 7b c1 7d be aa 14 9b 3e 1d 16 f6 3e 9c f2 f2 bc
       -0.24780838 0.30289203 0.48063746 -0.0296567
000080 5f 0e d1 be fb 75 7f 3f 2d 99 b2 3e a1 0c ea 3e
       -0.40831277 0.997894 0.3488249 0.4571276
000090 88 ac cf 3e 1c 0d 8b be b7 b5 76 be 4e 2d 85 bd
       0.40561318 -0.2715844 -0.24092756 -0.06502782
0000a0 47 32 56 3f 2f 6b 10 3f cf d7 57 be ac a4 b7 bf
       0.8367047 0.5641355 -0.21078418 -1.4347129
0000b0 d4 2c b2 bd 57 ae 34 be 95 c0 03 bf 32 4e 00 3f
       -0.086999565 -0.1764463 -0.5146573 0.50119317
0000c0 66 72 28 bf f7 c9 3c be b9 bf ef be 7b 4d bf 3e
       -0.6579956 -0.18436418 -0.4682596 0.373638
0000d0 0d 6f b3 bf d0 22 fd be 9e fa 3c 3e a6 22 65 3f
       -1.4018265 -0.49440622 0.18454978 0.89505994
0000e0 19 53 e4 bd 1e 1d 8c 3e 13 3c 2f be 2b 7b 5d 3f
       -0.11148662 0.27365965 -0.1711276 0.86516064
0000f0 dd a9 a0 be 13 e2 30 3f 42 72 46 be 7f a1 c5 3e
       -0.31379595 0.6909496 -0.19379523 0.38599774
000100 e0 79 82 3e 53 46 fb be 26 22 26 3f 0c 5f c4 bd
       0.25483608 -0.4907709 0.64895856 -0.09588441
000110 9e 2a 08 bf 3d e7 32 bf 93 6d 35 bd fb 80 e0 3e
       -0.5319003 -0.6988409 -0.04429395 0.43848404
000120 ab 75 58 3e 75 a4 05 3f 2c dc 94 be 61 46 d4 3d
       0.21138637 0.52204067 -0.29074228 0.10364986
000130 56 3e 86 bf 8f 92 a9 3e 7f d8 d6 ba fe 65 a1 be
       -1.0487773 0.33119628 -0.0016391425 -0.31523126
000140 ec 01 00 3f 9c 32 0b 3f 35 b9 6d 3f a3 28 a9 3e
       0.5000293 0.543741 0.9286073 0.33038816
000150 6f df 16 bf a7 cf 1f 3f 88 63 32 3f a9 67 c3 be
       -0.5893468 0.6242623 0.6968312 -0.38165024
000160 1c f0 b1 bf 6e 44 d0 be fd 1a b6 be 21 d1 50 be
       -1.39014 -0.40677208 -0.35567465 -0.20392276
000170 5a b3 1d be d9 72 2a be 65 5a 8d be 33 5e 9c bf
       -0.15400448 -0.16645373 -0.27608028 -1.2216247
000180 d6 c9 9f bf 5b 95 23 3f 2a 6f ac bf d5 d2 31 3d
       -1.248347 0.63899773 -1.3471425 0.043413956
000190 65 22 cd be fb 3c 8d be 3b c8 3c bf 34 06 96 3e
       -0.40065303 -0.27585587 -0.7374303 0.29301608
0001a0 2a 65 3c 3f 5b 95 54 3f 89 fe 82 be 61 90 94 3e
       0.73591864 0.830404 -0.2558482 0.29016402
0001b0 92 e0 0f 3f c2 f9 53 bf 71 42 f2 be e6 44 03 be
       0.5620204 -0.82802975 -0.47316316 -0.12819251
0001c0 46 c4 3c be 42 39 0c be 7e ad 9f be d7 99 ae be
       -0.18434247 -0.13693717 -0.31187052 -0.34101745
0001d0 62 55 23 3f 66 66 0d 3f 9a 95 ec be b8 89 05 bf
       0.6380216 0.5523437 -0.46207887 -0.5216327
0001e0 5a d5 4c bf ac 47 4d 3d d2 1b 7b 3b ce 95 36 3f
       -0.8001305 0.05011718 0.0038316143 0.71322334
0001f0 08 1a 2f be c8 66 22 bf 5a b4 d1 be e7 68 d0 be
       -0.17099774 -0.6343808 -0.4095791 -0.40705034
000200 df 3c dc 3e 07 81 80 be 5f 61 ea 3e df 3b 66 3f
       0.4301519 -0.2509844 0.45777413 0.89935106
000210 fa bb 3e bf 39 fe 60 3f 10 f9 29 3f 30 55 59 bf
       -0.7450558 0.87887913 0.66395664 -0.8489561
000220 66 80 5e 3d f2 fc 6d bf 3e 53 23 3f 38 de 0d 3f
       0.05432167 -0.9296409 0.6379889 0.55417204
000230 57 b2 07 3f 15 77 9b bf ce a0 e9 3e 2f d2 b1 be
       0.530065 -1.2145716 0.45630497 -0.3473067
000240 15 0f 1d be 02 78 65 bd 92 c3 40 3f ef 75 36 bf
       -0.15337785 -0.05602265 0.75298417 -0.712737
000250 19 b9 a6 bf 6d 42 0c be 9e 2d 52 3f 97 87 53 3f
       -1.3025237 -0.13697214 0.82100856 0.8262877
000260 e9 4e 6b bf c2 6a 70 3f 13 42 6a be 13 15 b3 bf
       -0.9191728 0.939129 -0.22876768 -1.3990806
000270 5f 3c 6d be 6e 8c ec 3e f0 de bf 3e a5 34 5a 3d
       -0.23167561 0.4620089 0.37474775 0.053272862
000280 94 7a 20 bf 55 8c 3b 3f 37 45 77 3d 28 4e 10 3f
       -0.6268704 0.73261005 0.060368743 0.56369257
000290 16 59 91 3f 71 76 04 bf 82 a4 a3 be 3f e9 c3 be
       1.1355312 -0.5174323 -0.31961447 -0.3826389
0002a0 ae a2 3c 3f 3c 09 1b 3f 22 24 b5 bd 6d 40 0b bf
       0.7368573 0.60560966 -0.088447824 -0.5439518
0002b0 76 4e 18 be 83 11 93 be 06 36 c6 be 05 ca f5 3e
       -0.1487368 -0.28724298 -0.38713092 0.4800569
0002c0 ed de 19 bf cd 87 d0 bb 9f f3 28 bf 90 75 3a 3f
       -0.6010578 -0.006363845 -0.65996736 0.72835636
0002d0 7b d5 9e bf 55 62 c9 be 7f fc 7d 3e 1d b2 a6 3f
       -1.2408899 -0.39332834 0.24803351 1.3023106
0002e0 33 cc 82 3c 67 64 d4 3e ce d0 ed bd ac 73 76 3f
       0.01596651 0.4148285 -0.11612092 0.9627025
0002f0 3c 32 d9 bd aa 66 07 3f 83 33 0e be 28 b0 06 3f
       -0.106052846 0.5289103 -0.13886838 0.52612543
000300 87 52 cc 3c f8 5c 21 bf d1 15 2f 3f 19 31 20 be
       0.024941696 -0.63032484 0.68392664 -0.1564373
000310 cb f0 dd bd 23 55 80 be 34 59 69 3e e1 f6 f9 3e
       -0.10836943 -0.25064954 0.22787935 0.48821166
000320 cb 03 0b 3f b2 6c 23 3f 04 90 af be 09 1b a2 be
       0.5430266 0.6383773 -0.34289563 -0.3166125
000330 69 02 3e bf ed 3a f7 3e 08 9d 0d 3f a3 97 cd bf
       -0.7422243 0.48287144 0.55317736 -1.6061901
000340 47 a4 17 3e ef d0 62 3e 48 2e 0e 3f 96 d7 9c 3e
       0.1480876 0.22150014 0.5553937 0.3063323
000350 d7 2c b2 be d5 5c 8b 3e 10 0b 08 3f 72 b3 20 bf
       -0.34799835 0.27219263 0.5314188 -0.6277381
000360 60 4a de bf 04 3c 76 be 0b 64 28 bf 74 27 a4 be
       -1.7366447 -0.24046332 -0.65777653 -0.3206135
000370 63 76 2e be 4c 8b 0a be 98 36 ce be 6d 3c 11 bf
       -0.17037348 -0.135297 -0.40276027 -0.5673283
000380 e5 a8 b3 bf ac a5 d8 3e 7f 6a 1f bf f0 29 89 be
       -1.4035918 0.42313898 -0.62271875 -0.26789808
000390 71 76 f1 be 5b 3e f3 bd 25 b3 56 bf c5 9d db 3d
       -0.47160676 -0.11877128 -0.838671 0.107234515
0003a0 3c 37 77 3f e8 6b 46 3f a5 69 87 be 5d 74 15 3f
       0.96568656 0.775084 -0.26447788 0.5838068
0003b0 8b 6c e0 3e f4 ef 49 bf d9 9f c2 be 55 17 8c be
       0.43832812 -0.78881764 -0.3801258 -0.2736155
0003c0 4c 4a 9f be c7 01 04 be 69 f9 9c be 3f 6f 54 be
       -0.31111372 -0.12891303 -0.30659035 -0.20745562
0003d0 06 98 29 3f c6 46 66 3f f5 6d ac be de 87 54 be
       0.66247594 0.8995174 -0.3367764 -0.20754954
0003e0 7e 06 4d bf 95 b9 6b be e1 1c 1c ba cc 4d 32 3f
       -0.8008803 -0.23020013 -0.0005955231 0.6964996
0003f0 5f 45 cc bd 35 d5 fd be 1d 1c 0c bf 75 f5 21 be
       -0.09974169 -0.49576727 -0.547304 -0.1581629

fc3.bias f4 [4]
000000 67 46 ef bc b3 69 d4 bd 45 bd 3b bd 78 2e e6 bd
       -0.029208375 -0.10371723 -0.0458348 -0.11239332

exp_avg f4 [256, 8]
000000 00 a9 4a 3b 28 81 fe bb d6 42 f4 3a e4 d3 91 39
       0.0030923486 -0.0077668615 0.0018635641 0.00027814426
000010 bf 7b 11 3a 91 66 35 3b fd fa 28 3a 7c 72 37 3c
       0.00055497506 0.0027679543 0.00064460916 0.011196729
000020 ab 02 03 3c 59 43 16 3d a8 4b 1d 3b c5 92 5f bc
       0.007996242 0.03668532 0.0024001393 -0.013645832
000030 24 9b a5 3b 8c 0c fe bb c3 94 67 3c 26 2d 34 3c
       0.0050538946 -0.0077529605 0.014134589 0.010997092
000040 a4 56 08 bc 6a 27 04 bd dc d2 11 3a c9 aa 33 3c
       -0.008321438 -0.03226415 0.00055627315 0.010966011
000050 f4 d0 bb ba 43 c5 6b 3c e7 1a 21 3c 8c 80 65 3c
       -0.0014329241 0.014390293 0.009833074 0.014007699
000060 c4 ea 8e bc 7c 7c 15 bd 73 fe 59 bc 20 b5 c1 3c
       -0.01744593 -0.03649567 -0.013305294 0.023645937
000070 e6 82 9c bb c8 31 85 ba d8 5b 13 1c e3 7a d8 39
       -0.0047763465 -0.0010161931 4.8756925e-22 0.00041290288
000080 30 78 2c 3c 4c 13 4a 39 85 15 34 bc 77 16 ed 3c
       0.010526702 0.0001927141 -0.010991459 0.028941376
000090 71 a5 b0 bb 50 db 1e 3d 1e 28 f5 bc 97 6a 51 bd
       -0.005390816 0.03878337 -0.029926356 -0.051127043
0000a0 f4 1b 6b 3d e3 ba 19 3e 5f 19 25 3d 2c 69 86 bd
       0.057399705 0.15012698 0.0403074 -0.06563029
0000b0 7d 08 e0 3c 1d c4 3f bb 0c 5d 8c bc b9 6e 8d 1c
       0.027347798 -0.002926118 -0.017134212 9.359218e-22
0000c0 33 32 9c bc 3d b7 8e 3b a8 d5 4a 3a e0 66 88 bc
       -0.019066906 0.00435534 0.0007737526 -0.016650617
0000d0 91 58 c2 38 79 c3 5d bd e8 2f 80 bc 6e d0 12 bd
       9.267138e-05 -0.054141495 -0.015647843 -0.035843305
0000e0 93 2a 86 ba 76 9e 9b ba 32 b4 8f ba 1f 8c 99 3b
       -0.0010236077 -0.0011872787 -0.0010963737 0.004685893
0000f0 9b 61 da 3a 41 eb 16 3b 7d 1b da 3a 3d 16 c6 3b
       0.0016661169 0.0023028406 0.0016640272 0.0060451315
000100 b8 62 c3 3c bb ea 15 3d 48 b6 19 3c 47 06 49 bc
       0.023850784 0.03660081 0.009381838 -0.012269563
000110 1d 54 20 3c 4f e8 20 3b ac 13 00 00 f6 94 08 ba
       0.009785679 0.002455253 7.057e-42 -0.0005210185
000120 6c 80 e1 ba 38 c0 03 3c d2 be 71 3b 76 85 40 bc
       -0.001720441 0.008041434 0.003688742 -0.01175057
000130 d1 1c 22 3a ab a3 fb 3a 04 00 00 00 59 df 23 bb
       0.00061841035 0.0019198557 6e-45 -0.0025004952
000140 83 6b 00 bc 04 ff eb bb 72 ea db 3b fb 39 9c 3b
       -0.007838133 -0.007202031 0.0067112977 0.004767654
000150 db 8d 54 b9 18 e2 c2 bb 30 9f da bb 2e 78 3f 3c
       -0.00020270741 -0.0059473626 -0.0066718087 0.011686368
000160 62 6c 58 bc 05 fc e7 bc ba 98 8f ba 3b 2d 19 3c
       -0.013209434 -0.028318414 -0.001095555 0.009349163
000170 61 49 6c bb e7 57 88 3b 04 24 75 3b 04 00 00 00
       -0.003605448 0.0041608694 0.00374055 6e-45
000180 25 21 4c 3d 0d 7b 0e 3e c6 58 6f bd 43 4e f6 bc
       0.049836297 0.13914128 -0.05843427 -0.030066615
000190 aa 7b 6c bc ac f5 09 bd 18 42 1f 3d f9 73 c6 bb
       -0.014433781 -0.033681557 0.03888139 -0.0060563055
0001a0 e3 c7 92 3a b2 7d d2 bb 4c fd a5 ba a0 a1 c5 b8
       0.0011198487 -0.0064236755 -0.0012663989 -9.423797e-05
0001b0 02 f8 97 bb 79 94 95 3b 2f 29 ea bc 3a 11 fc 3c
       -0.004637719 0.0045648185 -0.028584091 0.030769933
0001c0 61 38 7c bc d0 fc 8a 3b a7 e4 9f 3b 16 47 2f bc
       -0.015394301 0.0042415634 0.0048795524 -0.010698101
0001d0 bc 37 04 3b 52 51 cc bc 82 25 43 bc 45 6b 98 bc
       0.0020174822 -0.02494112 -0.011910798 -0.018605838
0001e0 2f 49 79 bc 6f 41 b3 3c 79 d0 40 bc cf c0 2c bb
       -0.015215202 0.021881787 -0.011768454 -0.002636004
0001f0 74 14 16 bb 68 5a 6f bb b8 a6 be 3c b0 3e 5d bd
       -0.0022900375 -0.0036522392 0.023272857 -0.05401486
000200 a7 e2 df 3b aa b8 1c 3b df 99 2a 3a ad ed 0c 3b
       0.006832439 0.002391378 0.0006507914 0.002150397
000210 0b b8 5b 3b e4 26 1a bb 5c e0 c8 3b a0 03 48 bc
       0.0033526446 -0.0023521716 0.0061302613 -0.0122078955
000220 6f f6 59 bb 9e ba 82 bc 1c e9 fc 3b e5 fd 50 3b
       -0.0033258458 -0.015958127 0.0077182185 0.0031889614
000230 92 ec 47 3b f0 3e 9c 3b 3a 00 00 00 04 00 00 00
       0.0030505997 0.004768245 8.1e-44 6e-45
000240 d5 3b 99 3c 5c 36 82 3d 89 39 04 3c 89 18 ed bc
       0.018705288 0.063580245 0.008070358 -0.028942363
000250 9f f0 be 3b f9 54 1f bc 04 00 00 00 31 31 14 3c
       0.005827024 -0.009724849 6e-45 0.009044931
000260 80 9a a5 bc 54 0a 5b bc a6 23 3b bc 0b 3e d4 3b
       -0.020215273 -0.013369162 -0.0114220735 0.0064771227
000270 65 13 0b bc 1a 2a ae 3b 40 6e 85 bb b1 a6 d1 3c
       -0.008488511 0.0053150775 -0.0040719807 0.02559218
000280 70 6d cf bc 10 38 33 bd 04 83 67 bc 04 a5 b3 3c
       -0.025320739 -0.043754637 -0.014130358 0.021929272
000290 54 91 22 bc 2c a8 78 39 62 3a d5 3b d3 37 49 ba
       -0.009922344 0.00023713772 0.006507204 -0.000767586
0002a0 80 6a b2 bb 12 0f c5 b9 d9 39 87 3a 16 c8 2a bb
       -0.0054448247 -0.00037585996 0.0010316923 -0.0026059202
0002b0 0b 0b 27 3a 3d 2f d0 bb 93 b4 0e 3c 3e 68 8e 3b
       0.000637219 -0.0063532875 0.008710044 0.0043459227
0002c0 3b 71 e5 3b 95 f1 89 bc 6d d4 97 3b fd 41 26 3c
       0.0070020235 -0.016838828 0.0046334774 0.010147569
0002d0 30 cd ec 3a c8 65 ba 3c 61 fc c4 bb 41 f8 bd bc
       0.0018066522 0.022753611 -0.006011531 -0.023189666
0002e0 40 ad 2e 3c 13 05 0e 3c a7 ae 92 bb bb 3b 44 bb
       0.010661423 0.008668202 -0.0044763866 -0.0029942829
0002f0 17 7f 1f bb 7f 75 75 bb 04 00 00 00 04 00 00 00
       -0.0024337226 -0.0037454066 6e-45 6e-45
000300 ea 6e 34 bb 55 21 b1 bb cf 40 b3 ba 7c 32 ad 3b
       -0.002753193 -0.005405585 -0.0013675931 0.005285559
000310 0d b0 35 3b a5 f1 08 3b 1f 5b 35 3c 96 a6 c6 3b
       0.0027723343 0.0020895984 0.011069088 0.006062339
000320 3d ed 99 3c 84 cf 2c 3d 50 3a 2f 3c 5b a9 6a bc
       0.018789882 0.04219009 0.010695055 -0.014322604
000330 01 00 dd 3b 7d 8b 75 3b 8c e7 08 af 51 d5 76 b9
       0.006744385 0.0037467175 -1.245139e-10 -0.00023539855
000340 da 8e 33 bc 33 7e bc 3b ec 75 4e bb ab 5a 73 bc
       -0.010959351 0.005752349 -0.0031503392 -0.01485316
000350 51 76 27 bb 1d c5 5b bc ed 11 b2 3b ce f9 85 bc
       -0.00255527 -0.013413695 0.005434266 -0.016354468
000360 b3 a4 41 3c 7f 97 b3 3c 61 ea 32 3c 43 d0 19 bc
       0.0118190525 0.021922825 0.010920138 -0.009388032
000370 b0 ba 0e 3c 4b 6b 73 bb 08 4c 4b 3c ee 40 04 3b
       0.008711502 -0.003714281 0.012408264 0.0020180303
000380 b1 72 5d 3c 52 95 7a 3c 71 28 59 3c 51 7e 26 bc
       0.013516114 0.01529439 0.013254271 -0.010161952
000390 a5 82 0a 3c 08 bf a2 3b 29 86 e0 3b 33 2f 56 bc
       0.008454 0.0049666204 0.0068519306 -0.013072777
0003a0 19 b2 43 ba a8 53 fd bb 9a 57 40 ba 87 af ba 3b
       -0.0007465198 -0.00773092 -0.00073372724 0.005697194
0003b0 b5 77 e2 ba 30 f3 e4 3a 6f 62 bb bb 94 08 68 ba
       -0.0017278107 0.0017467495 -0.0057185213 -0.0008851376
0003c0 86 2e e7 3a b8 0e 84 3c 95 f2 59 bb 5e 99 9b bb
       0.0017637766 0.0161203 -0.0033256162 -0.0047485074
0003d0 99 8b c4 ba 80 8c 3f bc 29 ad 59 bc 04 00 00 00
       -0.0014995217 -0.011691213 -0.0132859135 6e-45
0003e0 b8 62 11 3c 7e 94 37 ba 6b e9 d4 bb bb 39 8c 3a
       0.008873634 -0.0007003023 -0.006497552 0.0010698357
0003f0 00 41 ae ba a3 5b d3 3a a9 70 31 ba c8 8a a9 bc
       -0.0013294518 0.0016125332 -0.0006768802 -0.020696059

exp_avg_sq f4 [256, 8]
000000 c5 71 17 3a 88 bf cf 3a 13 89 c3 39 20 28 f7 39
       0.0005777146 0.0015849927 0.00037295427 0.00047141407
000010 19 56 81 39 df ac 83 3a ba 44 1a 3c 50 7c 50 3c
       0.00024668945 0.0010046026 0.0094158 0.012724951
000020 bb 4f 2c 3b ff 10 69 3c ac a6 d8 3a 24 38 72 3b
       0.002629264 0.014225244 0.0016529164 0.0036959732
000030 69 2d e7 39 66 ed e3 39 49 4a 72 3b 98 06 86 3b
       0.00044093587 0.0004347369 0.0036970547 0.0040901415
000040 26 a2 82 3b e7 23 cb 3c 3b 53 4f 3b 55 56 db 3b
       0.0039866148 0.024797393 0.0031635303 0.006693641
000050 19 7e 2e 3a 19 ac f1 3a aa bb b4 3b 2d ba ad 3b
       0.0006656363 0.001843813 0.0055155354 0.005301735
000060 6e be 1d 3b bb ce 04 3c d1 2a 64 3a e7 ef f9 3a
       0.0024069804 0.008105929 0.000870389 0.0019068689
000070 35 98 2a 39 5f 17 6b 39 fa b8 d5 35 ed f4 cd 39
       0.00016269165 0.00022420053 1.5923572e-06 0.0003928313
000080 0c dd 96 3c 24 d1 9f 3c 66 eb 23 3c 41 d4 91 3c
       0.01841595 0.019508906 0.010004854 0.017801406
000090 e5 24 b0 3b ac 3b c6 3c 54 5f ff 3d e6 c8 18 3e
       0.005375492 0.024198376 0.12469354 0.14920387
0000a0 c8 da 88 3d 31 ae 81 3e 1b 65 12 3d fb 89 69 3d
       0.06682354 0.2532821 0.035740953 0.057016354
0000b0 aa 68 63 3b 74 4f 8a 3b 71 b0 21 3c 26 09 9c 39
       0.0034699836 0.0042208973 0.009868727 0.00029761455
0000c0 0e 48 8a 3c a7 4b f3 39 64 9a 01 3c aa f8 0c 3c
       0.016880061 0.00046404937 0.007910345 0.008604208
0000d0 21 5f e3 3b e4 3a 3b 3d 9c ae 38 3e 14 10 5e 3e
       0.0069388305 0.04571046 0.18035358 0.21685821
0000e0 ec 0d 48 3b db 41 4f 3b 37 05 df 3a d0 56 8f 3b
       0.0030525876 0.0031624946 0.0017015104 0.0043743625
0000f0 a8 ad 92 3a de 9f 1f 3a 8b 77 91 3a 91 19 ef 3a
       0.001119067 0.0006089191 0.0011098249 0.0018241872
000100 02 68 1a 3c 06 70 bc 3c 15 1e 89 3b af 11 ba 3b
       0.009424211 0.023002636 0.0041844943 0.0056783776
000110 d2 70 1b 3a 04 95 ec 3a dc c4 17 38 79 8d 76 3a
       0.00059295923 0.0018049781 3.6184545e-05 0.00094052363
000120 f0 62 7f 3a 90 85 f6 3a 80 9f d6 39 9a 8c 23 3a
       0.0009742221 0.0018808115 0.00040936098 0.0006238908
000130 9a b1 ab 38 37 40 91 39 f4 01 00 00 48 ec 8c 3a
       8.186996e-05 0.000277044 7e-43 0.001075157
000140 78 8b 17 3b 20 8f fd 3a 0b cd 08 3a 5b 2d 29 3a
       0.0023123901 0.0019345023 0.0005218542 0.0006453597
000150 7f 42 16 39 f9 46 66 3a 9a 6f 29 3b f5 c6 af 3b
       0.00014329886 0.00087843795 0.0025853873 0.0053642937
000160 d4 ff 12 3b 18 be 73 3c 42 2b e2 3a 7c 04 5a 3b
       0.0022430317 0.014876865 0.0017255323 0.0033266833
000170 9f f2 5a 39 67 95 ae 39 d1 40 db 38 f4 01 00 00
       0.00020880483 0.0003329918 0.00010454807 7e-43
000180 7b 03 9e 3d 4e 78 23 3e ec 36 0d 3d 37 24 49 3d
       0.077155076 0.15963861 0.034476206 0.049106803
000190 a3 12 28 3c ce c1 fb 3c 99 cf 45 3e b1 23 55 3e
       0.01025835 0.030732062 0.19317473 0.20814396
0001a0 63 9e 48 3b c0 e2 5e 39 c3 92 6f 3a f5 18 2c 3a
       0.0030611984 0.00021256041 0.00091389957 0.0006564998
0001b0 d3 7f 84 3a 11 4c 14 3c c9 d0 99 3d c5 a0 d4 3d
       0.0010108895 0.009051339 0.07510526 0.10382227
0001c0 db ec c6 3b b3 aa 58 39 8d 9f 35 3b 13 8c 56 3b
       0.006070716 0.00020662956 0.0027713508 0.00327373
0001d0 26 3b 2a 3b 9f 25 69 3c 55 1d 70 3d d1 33 8e 3d
       0.0025975197 0.014230161 0.058621723 0.06943477
0001e0 16 a3 0c 3b 87 6f ab 3a 18 d7 6f 3a c7 57 91 3a
       0.0021459511 0.0013079502 0.0009149178 0.0011088782
0001f0 bf f3 22 3a 38 0c 0a 3c 1c 46 0a 3d eb 99 9f 3d
       0.00062161306 0.008425765 0.033758268 0.077930294
000200 c5 f8 ad 3a aa db a3 3a 4d f5 b5 39 a0 0e 84 39
       0.0013272992 0.0012501378 0.00034705774 0.00025187898
000210 35 00 26 39 33 77 97 3a 37 d7 bb 3b 8d 7a 40 3c
       0.00015831071 0.001155591 0.0057324427 0.011747968
000220 a3 04 04 3a d5 f2 10 3b 91 ce 1e 3a 7e 3b 16 3a
       0.00050360913 0.0022117395 0.00060580025 0.0005730911
000230 e5 f9 f3 38 a8 8b 61 3a 39 9f fa 34 3f e1 a9 37
       0.000116336894 0.0008603879 4.6681978e-07 2.0251258e-05
000240 90 6d ee 3b e5 ba 16 3d 24 3b 84 3b b1 b1 0f 3c
       0.0072762445 0.03679933 0.0040353704 0.008770392
000250 a1 65 57 3a 8b bf 70 3a f4 01 00 00 e0 f6 b1 39
       0.0008216743 0.00091838156 7e-43 0.00033944007
000260 7d 4c a6 3c f0 2f 62 3d ec 4a 41 3c 6a df a8 3c
       0.020300144 0.055221498 0.011797648 0.020614345
000270 74 4a 05 3b 08 48 e2 3b ba 33 4f 3d 08 98 71 3d
       0.0020338567 0.0069055595 0.05058644 0.05898288
000280 76 19 08 3c ba 9b 66 3d cb 40 df 3b d9 1e 61 3c
       0.008306852 0.056300856 0.006813144 0.013740265
000290 2c 96 35 3a d1 e2 81 3a 5e 82 19 3b 1e cd f1 3a
       0.00069269794 0.0009909516 0.0023423652 0.001844797
0002a0 1c 6f 20 3a 8f 21 74 39 7c 4a d8 39 2d 08 f9 39
       0.0006120072 0.00023282155 0.00041254226 0.00047499072
0002b0 9a 5a 3f 39 4a 32 65 3a 56 d5 76 3b 0f 3a 77 3b
       0.00018248931 0.00087431504 0.003766378 0.0037723815
0002c0 1f 6a 49 3b 62 3c 0b 3d aa 34 f2 3b 79 5b 2f 3c
       0.003073342 0.033993132 0.007391532 0.010702961
0002d0 3e dc 73 3a f5 2f 69 3b 57 f5 09 3c 30 eb 6b 3b
       0.0009302533 0.0035581563 0.00842031 0.0035998337
0002e0 b6 4e 1a 3a e1 69 ab 39 af e0 7a 39 6b f8 37 39
       0.00058863626 0.00032694548 0.00023925559 0.00017544783
0002f0 d8 7e d6 38 d4 3c d7 39 ba 8c 1e 37 f4 01 00 00
       0.00010227942 0.00041053316 9.450299e-06 7e-43
000300 d4 6e 17 3a c8 e0 1f 3a 4b eb 72 39 a5 2b 1a 3a
       0.00057767075 0.00060988637 0.00023166572 0.00058811373
000310 a4 8d 50 39 e3 e9 c3 39 b5 9a 23 3a c1 94 a7 3a
       0.00019889191 0.00037367558 0.00062410097 0.0012785421
000320 9f fb 3e 3b 4b fd 58 3c 3c 79 f1 3a f5 a8 19 3b
       0.0029141677 0.0132439835 0.0018422971 0.0023446654
000330 87 ff 0b 3a 40 66 1b 3b 69 2f 23 3a 91 7c 0b 3b
       0.0005340506 0.0023712069 0.0006225021 0.0021283964
000340 cc 77 30 3b ea 61 a9 39 cf 8f b3 3a 4f cf fa 3a
       0.0026926873 0.00032307144 0.0013699475 0.0019135269
000350 ce a1 6b 3a e8 f2 ad 3b e1 01 f0 3c c8 51 1f 3d
       0.00089886494 0.0053084977 0.029297771 0.038896352
000360 66 db 31 3b 4a 53 28 3c 6d 79 cf 3a 46 80 70 3b
       0.0027138828 0.010273764 0.0015829034 0.003669755
000370 9c ba ee 39 80 42 8c 3a 5f d3 f9 3b 2c 0f 0b 3c
       0.00045533932 0.0010700971 0.0076240744 0.008487504
000380 06 c0 2b 3b 1d 95 60 3c 92 03 f3 3a fd 48 79 3b
       0.0026206984 0.013707426 0.0018540493 0.003803789
000390 e1 1d 8f 39 e4 91 8f 3a 63 80 2b 3a 2d 12 97 3b
       0.00027297347 0.0010953513 0.00065422634 0.004610321
0003a0 a3 e2 1e 3a 5b 31 c5 3a 24 a1 a4 39 26 4e 10 3a
       0.0006060993 0.0015044616 0.00031400577 0.0005504809
0003b0 c0 b5 e4 38 3f 73 97 39 a7 fc a2 3b aa 53 b6 3b
       0.00010905741 0.0002888683 0.004973966 0.0055641728
0003c0 14 d4 ba 3a df 68 ee 3b 1f 31 ca 3a d9 60 45 3b
       0.0014253878 0.007275685 0.0015426016 0.003011754
0003d0 4f e8 be 39 c5 8f 6c 3a 48 5c 01 3b b4 25 ab 04
       0.00036412707 0.0009024109 0.0019738842 4.023653e-36
0003e0 e5 c4 a9 3b 5d 75 4f 3b 67 17 35 3a 15 3a eb 38
       0.0051809424 0.0031655647 0.0006908089 0.00011216492
0003f0 16 69 8c 39 5f af 8f 3a 95 16 4e 3a d4 59 97 3b
       0.00026781176 0.0010962299 0.00078616414 0.0046188626
