results/heavy/models/checkpoint_ep300.pth (torch, 436170 bytes, 18 tensors)

fc1.weight f4 [256, 8]
0.18967949 -0.09213065 -1.3538797 0.3324902 -0.8353102 -0.5764827 -0.14586934 0.7968147
0.83238184 0.07562728 0.26979452 0.022969251 -0.8438913 -0.33389273 0.5191111 0.41679406
-0.21333733 0.97506195 0.2758324 0.39745393 0.2516235 -0.4551417 0.5761248 0.40880412
-0.26905543 0.18872549 -0.12527673 0.35359955 0.8722486 0.363374 -0.7656098 -0.31736574
-1.223928 -0.8077802 -0.55186224 -0.1401005 0.036964264 -0.35123208 -0.027768763 -0.09113368
0.36491486 0.044570185 -0.094931774 0.07987672 1.4233675 -0.88133776 0.4675473 -1.2806473
0.15225708 -2.5190961 0.19453305 -0.3293541 0.7030279 -0.031571094 0.12228759 0.34840387
-0.18428968 -1.307253 0.3326225 -0.2828183 -0.03247052 -0.57208383 0.36053947 0.76360065
-0.47572273 0.67912793 0.3459514 0.26442504 1.6146903 -0.63105077 -0.38321552 -0.8564074
0.5796581 -0.5833495 0.98446655 0.10047126 -0.093171455 -1.1132729 -1.8366141 -0.057883788
-0.13670826 0.0047762897 -1.2512414 0.6248607 0.2463459 -0.12677972 0.03253776 0.8605547
0.02893579 1.0217168 -0.14883767 0.41530696 0.35619995 0.5484997 -0.511797 -0.7295202
-0.03342453 0.015111205 -1.8398468 0.35472742 -0.08282555 0.31628403 -0.27456313 0.002009774
0.1824725 -0.714526 0.3692833 2.3636532 -1.1793164 0.05187119 0.44900295 0.8541093
-0.034957133 -2.178765 0.47612402 -0.13483633 0.5003954 0.49131057 0.5033037 0.72610486
-0.25365138 0.009088277 -1.4199394 0.12525095 0.16403764 -0.7975863 -0.25220674 0.73924077
0.22751202 -0.04891669 0.95754975 0.8427007 0.49029273 -0.42965147 -0.13113986 1.1201222
-0.6996527 0.08625217 -0.8213721 0.54105437 -0.25203478 -0.22215736 -0.70212686 -0.61828303
0.20653273 0.5532176 1.1017393 -0.02987943 0.25286934 -0.70411026 -1.0129347 -0.03467492
0.39860937 -0.3412611 0.17038132 -0.43989742 -1.4287167 -0.24085483 -0.069879234 0.40669507
0.36451918 -0.03381921 -0.23427954 0.19730124 0.99491847 1.4826576 0.67839265 -0.4505075
0.048947662 -1.8526151 -0.085105106 -0.14186436 -0.4789196 -0.024504177 0.6872264 0.05909158
0.041580573 0.22951804 0.83680856 -0.041507754 -0.4424469 -0.5265038 0.39501688 -0.4234047
-0.38438058 -0.39440602 -0.56040174 -0.11520186 -0.7165711 -0.01225266 -0.50924146 -1.2465669
-0.08205104 -0.15684144 -0.51654154 -0.38023394 -0.9710159 -0.91410655 -0.65041506 0.6894284
-0.8722707 0.37859407 0.14772251 0.9444412 0.8177758 -0.2899595 -0.3181309 -0.40899247
0.83606523 -1.8902359 -0.15787493 -0.3361874 -0.7027875 0.44903767 0.64109933 0.079662524
0.2896986 0.12865853 1.0614489 -0.42790842 -0.14909267 -1.068788 0.4311925 0.08853096
0.52020663 -0.15608744 0.37375653 -0.0724448 0.7105779 -0.43155754 -0.4048898 -0.14441918
-0.78693604 0.24256471 0.30919585 -0.1454112 -0.030424872 -0.7067298 -0.40506092 0.36373687
-0.58407795 1.076401 -0.30026475 0.17380953 -0.47117007 0.40533206 -0.17247438 -1.0421388
0.15973496 0.041168753 0.7526196 1.7200719 -0.50187635 0.43452972 -0.23468788 -0.284832
00000000: 573b 423e ffae bcbd ee4b adbf 283c aa3e
00000010: e4d6 55bf 5f94 13bf c65e 15be 0cfc 4b3f
00000020: fa16 553f 7ae2 9a3d 8222 8a3e 032a bc3c
00000030: 4309 58bf fdf3 aabe 77e4 043f 0866 d53e
00000040: 1a75 5abe a99d 793f e839 8d3e 157f cb3e
00000050: ccd4 803e 5508 e9be ea7c 133f c64e d13e
00000060: a2c1 89be 4141 413e 8b48 00be 000b b53e
00000070: af4b 5f3f 280c ba3e 01ff 43bf c37d a2be
00000080: aca9 9cbf afca 4ebf d846 0dbf 8176 0fbe
00000090: d767 173d b1d4 b3be 517b e3bc 4ba4 babd
000000a0: 1fd6 ba3e 3a8f 363d 976b c2bd 6896 a33d
000000b0: e830 b63f 5a9f 61bf 5c62 ef3e 40ec a3bf
000000c0: 48e9 1b3e df38 21c0 ac33 473e 1aa1 a8be
000000d0: a3f9 333f b150 01bd ea71 fa3d fe61 b23e
000000e0: 6fb6 3cbe 1154 a7bf 7f4d aa3e 8fcd 90be
000000f0: cfff 04bd 1674 12bf a198 b83e 557b 433f
00000100: ee91 f3be 54db 2d3f 8b20 b13e b862 873e
00000110: 2cae ce3f 8b8c 21bf d334 c4be 843d 5bbf
00000120: 7964 143f 6556 15bf 0006 7c3f e0c3 cd3d
00000130: add0 bebd ba7f 8ebf 2c16 ebbf 8d17 6dbd
00000140: 40fd 0bbe 6c82 9c3b ae28 a0bf dff6 1f3f
00000150: 1a42 7c3e 8bd2 01be 5046 053d 504d 5c3f
00000160: c00a ed3c 9ec7 823f e768 18be 1da3 d43e
00000170: d75f b63e 7a6a 0c3f 2105 03bf d6c1 3abf
00000180: 29e8 08bd fd94 773c 1a80 ebbf d59e b53e
00000190: 71a0 a9bd fbef a13e 8a93 8cbe 6ab6 033b
000001a0: 12da 3a3e 2deb 36bf b312 bd3e 1846 1740
000001b0: d7f3 96bf e376 543d b7e3 e53e e8a6 5a3f
000001c0: 362f 0fbd e370 0bc0 87c6 f33e 8912 0abe
000001d0: ea19 003f 0f8d fb3e 83d8 003f 02e2 393f
000001e0: 98de 81be ffe6 143c 93c0 b5bf c941 003e
000001f0: 7cf9 273e 9e2e 4cbf 3e21 81be e23e 3d3f
00000200: e9f8 683e de5c 48bd fb21 753f 3cbb 573f
00000210: a607 fb3e 47fb dbbe 8749 06be 2a60 8f3f
00000220: 701c 33bf faa4 b03d 7145 52bf 8a82 0a3f
00000230: b40a 81be 387d 63be 96be 33bf cc47 1ebf
00000240: 517d 533e ab9f 0d3f cb05 8d3f b5c5 f4bc
00000250: 1778 813e 9240 34bf d8a7 81bf 4a07 0ebd
00000260: 8716 cc3e c6b9 aebe 7178 2e3e 3c3a e1be
00000270: 30e0 b6bf a6a2 76be d81c 8fbd 563a d03e
00000280: 42a2 ba3e 0386 0abd fae6 6fbe 5609 4a3e
00000290: fab2 7e3f b9c7 bd3f 24ab 2d3f eba8 e6be
000002a0: 587d 483d 7e22 edbf 964b aebd e444 11be
000002b0: f334 f5be fcbc c8bc 12ee 2f3f 030a 723d
000002c0: 6450 2a3d c706 6b3e 1639 563f 0904 2abd
000002d0: 6688 e2be f4c8 06bf a73f ca3e 80c8 d8be
000002e0: 88cd c4be 96ef c9be 7d76 0fbf f4ee ebbd
000002f0: 3471 37bf 61bf 48bc a65d 02bf 818f 9fbf
00000300: 600a a8bd 0b9b 20be 113c 04bf 06ae c2be
00000310: 7f94 78bf e302 6abf 9a81 26bf 617e 303f
00000320: 224d 5fbf 15d7 c13e 9244 173e e6c6 713f
00000330: c159 513f 9275 94be 0ee2 a2be 7667 d1be
00000340: 5f08 563f 40f3 f1bf f7a9 21be c120 acbe
00000350: e2e9 33bf 44e8 e53e 161f 243f 1b26 a33d
00000360: 6053 943e 10bf 033e 8fdd 873f d016 dbbe
00000370: c0ab 18be 0cce 88bf 43c5 dc3e b84f b53d
00000380: 432c 053f 63d5 1fbe 045d bf3e f05d 94bd
00000390: 6fe8 353f 1cf5 dcbe b74d cfbe 9fe2 13be
000003a0: a474 49bf e262 783e eb4e 9e3e ace6 14be
000003b0: 953d f9bc 3fec 34bf 2564 cfbe b83b ba3e
000003c0: 2286 15bf 82c7 893f 4dbc 99be 20fb 313e
000003d0: 343d f1be af87 cf3e 209d 30be ce64 85bf
000003e0: 9091 233e 91a0 283d aeab 403f 512b dc3f
000003f0: f87a 00bf ae7a de3e 0552 70be 80d5 91be

fc1.bias f4 [256]
0.055752303 0.05440782 0.14037165 0.189091 -0.025612451 -0.0038330285 0.15918206 0.049781337
-0.042498857 0.38063508 0.09563924 0.030617021 -0.015411517 0.42099646 0.19412544 -0.052529376
0.061219364 0.08378811 0.09334725 0.1257516 0.266508 0.2598309 -0.24424234 0.11382795
0.16181886 0.22014602 0.04935506 -0.09452256 0.30627307 0.17946778 0.30029675 0.04604622
0.1232638 0.11667497 0.052553535 -0.062681176 0.15489037 0.2516021 0.040043242 0.10354409
0.12914485 -0.060232844 0.2733103 0.01744755 0.011088949 -0.02559069 -0.15093514 -0.10265566
0.003812537 -0.12829545 0.18562788 0.05222426 0.06108818 -0.024281574 0.050315674 0.049679827
0.20122987 -0.20738496 0.26606524 -0.27065456 -0.040887214 0.21613778 0.2109241 0.07746836
0.13401854 0.01466842 -0.1408521 -0.018182982 0.11056546 0.09609561 0.0706043 0.086773135
0.07763202 0.034375343 0.29962045 0.36730087 0.06312311 0.22432761 -0.02807778 0.097871274
0.13594317 0.36038187 0.08528874 0.037520852 0.32081583 0.13843107 0.10687092 0.10812605
-0.0077031124 0.28626248 0.15804449 -0.3622975 0.26063254 0.19715485 0.08604702 0.0144906705
0.08061748 -0.15622708 -0.0034604634 0.0039569614 0.06330776 -0.10210498 0.035032205 0.060384795
0.25002047 -0.19047485 0.14966474 0.11562769 0.1035592 -0.07617383 0.13052371 0.21228464
0.105884485 -0.04756868 -0.11557304 -0.047525663 0.18678483 0.074912 0.034139127 0.011092777
0.23249918 0.10391753 -0.022866724 -0.15950546 -0.010872109 0.08947479 -0.0524049 0.049841743
0.14349025 0.13715445 0.24278449 0.21785691 0.08287742 0.3073932 0.026367845 0.21976337
-0.1355035 0.1589269 -0.44485182 0.1539962 0.11590542 0.31782168 0.34878695 -0.06753613
-0.19318633 0.08759048 -0.049254443 -0.12114473 -0.0006378039 0.06060129 -0.23655216 0.043235086
0.10682352 -0.0010660683 0.034545016 0.17178142 0.11176507 0.007955005 -0.014889288 -0.010536585
-0.08374992 0.32180083 0.17273015 0.12738815 0.25249857 -0.06186667 0.16345356 0.046078645
0.10214125 -0.09109691 0.11804565 0.069902584 0.00067946874 0.19394958 0.032342114 -0.14783236
0.027279655 0.24737756 -0.14458512 0.2380775 0.17471936 -0.05499712 0.036066122 0.029570544
0.08877609 -0.0683871 0.12519298 0.09533759 0.031557653 0.029671919 0.012852866 0.025384061
-0.054660875 0.30795303 -0.02265148 0.27764475 -0.12559465 0.12797023 0.009827788 0.17751732
-0.0125328135 0.40347117 0.031708702 0.050185017 0.00015334677 0.10573721 -0.09465959 0.13823897
0.17028718 -0.14554565 0.018546702 0.15720613 0.09898908 -0.045151055 0.1784495 0.15147166
0.003851569 0.013277693 -0.05287589 0.17157272 0.20987669 0.03574166 -0.019091453 0.12574385
0.033831224 -0.041336395 0.03699913 0.17314355 0.055599313 0.1191782 -0.06971022 -0.019218395
0.013991704 0.27908126 0.0051543885 0.5112464 -0.04468626 -0.04945338 0.22310303 -0.12934618
-0.024648545 0.30238518 -0.06761936 -0.08641231 -0.0065890215 0.020675521 0.102793 0.020291712
0.09578535 0.0546379 0.12672682 0.33686647 0.17268246 -0.27130893 0.2273216 -0.012601644
00000000: 875c 643d bcda 5e3d 96bd 0f3e 12a1 413e
00000010: 34d1 d1bc 8c33 7bbb 9f00 233e 84e7 4b3d
00000020: 4813 2ebd 9ae2 c23e 82de c33d 8cd0 fa3c
00000030: 9680 7cbc d98c d73e d2c8 463e 0b29 57bd
00000040: 28c1 7a3d 1a99 ab3d d82c bf3d 07c5 003e
00000050: bd73 883e 8e08 853e aa1a 7abe a11e e93d
00000060: d8b3 253e f56d 613e 8828 4a3d 0b95 c1bd
00000070: d3cf 9c3e 67c6 373e 7fc0 993e f69a 3c3d
00000080: bb71 fc3d 49f3 ee3d 6042 573d fd5e 80bd
00000090: 959b 1e3e fed1 803e 6204 243d ed0e d43d
000000a0: 8c3e 043e b7b6 76bd 54ef 8b3e 2aee 8e3c
000000b0: 6cae 353c 91a3 d1bc be8e 1abe 213d d2bd
000000c0: c2db 793b e25f 03be 3c15 3e3e 1be9 553d
000000d0: 9937 7a3d 27ea c6bc cf17 4e3d 137d 4b3d
000000e0: 340f 4e3e b95c 54be b439 883e 3c93 8abe
000000f0: 5a79 27bd 3953 5d3e 7dfc 573e bba7 9e3d
00000100: 283c 093e d053 703c 883b 10be 7af4 94bc
00000110: 2570 e23d c6cd c43d fd98 903d 1db6 b13d
00000120: 89fd 9e3d 29cd 0c3d da67 993e dc0e bc3e
00000130: b046 813d 23b6 653e 5f03 e6bc bc70 c83d
00000140: b034 0b3e f983 b83e ddab ae3d 77af 193d
00000150: f941 a43e e0c0 0d3e 24df da3d 3171 dd3d
00000160: 646a fcbb ff90 923e 6ad6 213e 0f7f b9be
00000170: a171 853e f6e2 493e 6c39 b03d 476a 6d3c
00000180: c71a a53d fef9 1fbe f1c8 62bb 66a9 813b
00000190: 80a7 813d 6a1c d1bd ee7d 0f3d 0c56 773d
000001a0: af02 803e d70b 43be b741 193e 36ce ec3d
000001b0: d916 d43d 0601 9cbd 02a8 053e 2561 593e
000001c0: f7d9 d83d 60d7 42bd 8fb1 ecbd 45aa 42bd
000001d0: 8644 3f3e 766b 993d 78d5 0b3d 7bbe 353c
000001e0: 4414 6e3e b7d2 d43d ff52 bbbc 6655 23be
000001f0: ee20 32bc 8f3e b73d 85a6 56bd db26 4c3d
00000200: 1cef 123e 3772 0c3e 7f9c 783e e215 5f3e
00000210: a3bb a93d a462 9d3e 6101 d83c a609 613e
00000220: 6ec1 0abe bcbd 223e 9ec3 e3be 2eb1 1d3e
00000230: d25f ed3d 86b9 a23e 3494 b23e 6250 8abd
00000240: a3d2 45be a362 b33d 07bf 49bd ba1a f8bd
00000250: 4c32 27ba 0f39 783d bb3a 72be 4617 313d
00000260: 4ac6 da3d 51bb 8bba 137f 0d3d 78e7 2f3e
00000270: 16e5 e43d b655 023c 33f2 73bc a4a1 2cbc
00000280: 1485 abbd 14c3 a43e 2ce0 303e 0a72 023e
00000290: 7e47 813e e867 7dbd 5f60 273e f6bc 3c3d
000002a0: 6f2f d13d 0491 babd ebc1 f13d 1629 8f3d
000002b0: 601e 323a b89a 463e 2a79 043d 5e61 17be
000002c0: 9579 df3c 8b50 7d3e 1f0e 14be 97ca 733e
000002d0: a2e9 323e a944 61bd 12ba 133d ed3d f23c
000002e0: 3dd0 b53d 890e 8cbd 9732 003e 5b40 c33d
000002f0: 9942 013d 8612 f33c d494 523c 3cf2 cf3c
00000300: 15e4 5fbd 05ac 9d3e 998f b9bc 7427 8e3e
00000310: e29b 00be a10a 033e bb04 213c 1ac7 353e
00000320: 6e56 4dbc c693 ce3e fce0 013d ce8e 4d3d
00000330: b6cb 2039 c08c d83d e3dc c1bd 848e 0d3e
00000340: c35f 2e3e eb09 15be 41ef 973c a5fa 203e
00000350: c9ba ca3d 50f0 38bd 77bb 363e 631b 1b3e
00000360: 9b6a 7c3b ae8a 593c 6494 58bd c2b0 2f3e
00000370: eae9 563e d965 123d ae65 9cbc ffc2 003e
00000380: 9c92 0a3d 5a50 29bd 668c 173d 8b4c 313e
00000390: 1bbc 633d b313 f43d 3bc4 8ebd e56f 9dbc
000003a0: 763d 653c bde3 8e3e 25e6 a83b 0be1 023f
000003b0: f108 37bd a18f 4abd 1f75 643e 5373 04be
000003c0: bfeb c9bc 3bd2 9a3e 057c 8abd f0f8 b0bd
000003d0: b8e8 d7bb b65f a93c 2385 d23d ce3a a63c
000003e0: 1c2b c43d fecb 5f3d adc4 013e c379 ac3e
000003f0: acd3 303e 01e9 8abe fec6 683e 2077 4ebc

fc2.weight f4 [128, 256]
-0.09161419 0.4095264 -0.24324603 -0.20275195 -0.029603215 0.41223142 0.0007025722 -0.42764118
-0.083206184 0.13969482 0.38607633 -0.11755783 0.2930991 0.2683817 0.08482678 0.35000318
-0.23830403 0.12324694 0.032753915 -0.14614892 -0.06311214 -0.47730812 -0.06600789 -0.009300192
-0.34092203 -0.11595008 -0.2905032 0.014030847 -0.20743015 -0.06953099 0.22691692 0.5158482
0.026677435 0.6878623 -0.026557786 0.21101412 0.17706288 0.15778491 -0.3780337 -0.19921808
-0.12694372 0.12441473 -0.191722 -0.27073774 0.13965248 0.4208597 0.17752649 0.016402954
0.4345938 0.13343778 -0.09903736 0.15301313 0.3422016 -0.58806324 0.24401332 0.18532038
-0.16376245 -0.4967318 -0.24017943 0.16778985 -0.14754744 -0.051050335 -0.12414422 0.1736311
-0.06575689 0.5892426 -0.11996333 0.16387598 -0.16639687 -0.78647596 -0.18882725 0.29368308
-0.10672376 0.17956558 0.0068536364 -0.18664464 -0.033233333 -0.037605613 0.40626195 -0.009089347
0.042796426 0.09315431 -0.0145649295 -0.27704296 0.08002401 -0.09627035 0.12162866 0.071358986
0.19989327 0.2836725 -0.18583801 0.021295864 -0.14243835 -0.070773534 -0.050135173 -0.7567981
0.0053353948 -0.07154881 -0.13776715 0.09929708 0.3425314 -0.016846247 -0.19628519 -0.074298225
-0.1941376 -0.14943418 0.15574484 0.019841272 0.05091386 0.10019751 0.49427006 0.07476597
0.113743335 -0.010734925 0.10202031 0.57648945 -0.09765116 -0.0670411 0.04294081 0.058170624
0.034046136 0.15057847 0.06815338 0.054680437 0.024123082 0.0007102456 -0.2106586 0.054398883
-0.30463272 0.071977995 -0.5342137 0.071971476 -0.17827922 -0.20914395 0.104331665 0.2605747
0.092204474 0.05052948 -0.096060924 0.2658346 -0.06676033 0.037656847 0.2951752 -0.14840749
-0.20962739 0.1197558 0.10504777 -0.038051635 0.14112532 0.05422666 0.042613078 0.1771284
-0.17522758 0.04125073 -0.04894654 0.25428405 0.07018378 -0.066536695 0.18978928 0.21937977
0.5048297 -0.45819023 -0.22241694 0.24068715 0.2464434 0.16797088 -0.07341087 -0.018583633
0.043839004 -0.054570332 0.4258237 -0.11716243 0.24724422 0.1554115 -0.52165097 0.03522803
0.1331398 0.19639933 -0.1922992 0.004206769 0.068123624 0.00951855 0.034411542 -0.032831725
0.05205869 0.11993989 -0.09858588 -0.19144876 0.23375437 0.031830072 -0.15482707 0.13180284
-0.099545226 -0.039808422 0.061427567 0.05487008 -0.20474778 -0.16171181 0.20374246 0.23428327
0.28181797 -0.054622818 0.25130144 -0.25153422 0.013264383 -0.11281113 0.038110558 -0.46242842
-0.44198713 0.22904317 -0.0075215697 -0.4289879 0.0484387 -0.013866902 -0.64099413 0.019655852
0.03594153 -0.14055008 -0.18028559 -0.25740212 -0.1915276 -0.1889501 0.19811897 0.449602
0.17701223 -0.4878387 -0.25882196 -0.03982 0.2938361 -0.03417138 -0.5024612 0.1258306
-0.3195063 -0.022148576 0.2663901 -0.14692289 0.02250119 0.09592837 0.24687277 -0.27642262
0.012709301 -0.8243012 -0.18982288 0.36219305 -0.18816267 0.016029686 0.51823676 -0.3052047
0.21165468 -0.4185097 -0.34486195 -0.0058610775 -0.14140719 0.32845378 -0.052857626 -0.14940213
00000000: 38a0 bbbd 72ad d13e 7d15 79be 359e 4fbe
00000010: 7182 f2bc ff0f d33e d22c 383a c9f3 dabe
00000020: 0168 aabd 290c 0f3e ccab c53e 29c2 f0bd
00000030: 1611 963e 5469 893e aab9 ad3d 9e33 b33e
00000040: f905 74be e468 fc3d f828 063d 10a8 15be
00000050: f040 81bd bb61 f4be 252f 87bd d55f 18bc
00000060: 558d aebe 3c77 edbd d6bc 94be a3e1 653c
00000070: 9268 54be 4466 8ebd e95c 683e a10e 043f
00000080: a38a da3c be17 303f b78f d9bc 1614 583e
00000090: f94f 353e 5e92 213e a28d c1be d3ff 4bbe
000000a0: 89fd 01be 26cd fe3d c652 44be 239e 8abe
000000b0: 0f01 0f3e ec7a d73e 81c9 353e 7d5f 863c
000000c0: 1483 de3e eaa3 083e 19d4 cabd 79af 1c3e
000000d0: 0c35 af3e 508b 16bf a1de 793e a0c4 3d3e
000000e0: 58b1 27be a153 febe 99f1 75be 1ad1 2b3e
000000f0: ad16 17be 281a 51bd 533f febd 5acc 313e
00000100: 8cab 86bd 9ad8 163f 56af f5bd 1bcf 273e
00000110: f163 2abe 7d56 49bf ee5b 41be a15d 963e
00000120: fd91 dabd 0ae0 373e 7894 e03b c61f 3fbe
00000130: ad1f 08bd 5808 1abd 9101 d03e 7ceb 14bc
00000140: 4e4b 2f3d b0c7 be3d bea1 6ebc 93d8 8dbe
00000150: a1e3 a33d 6429 c5bd 7218 f93d a924 923d
00000160: d2b0 4c3e 863d 913e 524c 3ebe aa74 ae3c
00000170: 5cdb 11be b7f1 90bd 8a5a 4dbd 85bd 41bf
00000180: 89d4 ae3b 2f88 92bd d512 0dbe 445c cb3d
00000190: 4760 af3e 2401 8abc fcfe 48be ab29 98bd
000001a0: 02cc 46be 4605 19be 937b 1f3e 2a8a a23c
000001b0: 0d8b 503d 5a34 cd3d f710 fd3e e71e 993d
000001c0: 44f2 e83d 8ae1 2fbc 06f0 d03d d094 133f
000001d0: 55fd c7bd d84c 89bd b4e2 2f3d 5244 6e3d
000001e0: f673 0b3d 3e31 1a3e 0094 8b3d 98f8 5f3d
000001f0: c59d c53c c62f 3a3a e3b6 57be 5dd1 5e3d
00000200: d2f8 9bbe 3369 933d 3bc2 08bf c865 933d
00000210: d48e 36be d529 56be d7ab d53d 0c6a 853e
00000220: b3d5 bc3d 00f8 4e3d 97bb c4bd 791b 883e
00000230: a4b9 88bd 113e 1a3d 3421 973e 22f8 17be
00000240: 90a8 56be 8742 f53d 4923 d73d 08dc 1bbd
00000250: 2883 103e c61c 5e3d 0d8b 2e3d 2661 353e
00000260: dc6e 33be 87f6 283d 2b7c 48bd 8531 823e
00000270: 83bc 8f3d 6444 88bd 1f58 423e 17a5 603e
00000280: 853c 013f e997 eabe 44c1 63be b176 763e
00000290: a95b 7c3e 8f00 2c3e 7058 96bd b43c 98bc
000002a0: 8790 333d 2485 5fbd 9005 da3e dbf2 efbd
000002b0: 972d 7d3e 3124 1f3e eb8a 05bf 444b 103d
000002c0: cd55 083e e81c 493e 15ea 44be f0d8 893b
000002d0: 6684 8b3d b1f3 1b3c 1ef3 0c3d 8f7a 06bd
000002e0: 7e3b 553d 0ca3 f53d 65e7 c9bd 250b 44be
000002f0: 4e5d 6f3e 4060 023d fd8a 1ebe 53f7 063e
00000300: 5ede cbbd 280e 23bd 799b 7b3d 73bf 603d
00000310: 67a9 51be c897 25be dda1 503e f4e7 6f3e
00000320: 724a 903e 2dbc 5fbd 95aa 803e 18c9 80be
00000330: db52 593c 8609 e7bd d119 1c3d 6bc3 ecbe
00000340: 234c e2be 4b8a 6a3e 8077 f6bb 4da4 dbbe
00000350: a967 463d 0132 63bc 3118 24bf 4f05 a13c
00000360: 6d37 133d 5cec 0fbe c99c 38be 36ca 83be
00000370: d01f 44be 237c 41be b3df 4a3e 3c32 e63e
00000380: b242 353e fec5 f9be 5084 84be 4c1a 23bd
00000390: af71 963e 4af7 0bbd 4ca1 00bf bdd9 003e
000003a0: 5496 a3be ee70 b5bc 4864 883e f472 16be
000003b0: 6a54 b83c 1876 c43d 37cc 7c3e 4487 8dbe
000003c0: ac3a 503c 6705 53bf ee60 42be 5e71 b93e
000003d0: b7ad 40be b050 833c 2aab 043f ca43 9cbe
000003e0: 01bc 583e e746 d6be bf91 b0be 480e c0bb
000003f0: 0ccd 10be 182b a83e 3d81 58bd dffc 18be

fc2.bias f4 [128]
-0.009442756 -0.06283677 0.07911879 0.16298105 -0.0071627605 0.33541074 -0.051782325 0.047042847
0.16292813 -0.065394826 0.050010692 0.035072636 -0.053622838 -0.13227145 0.06297117 0.0364176
0.18296048 -0.010830686 0.22100037 -0.034362245 -0.05054881 -0.015841534 0.086058974 0.010507961
-0.15053566 -0.19458984 -0.005052375 0.044084515 0.06678051 -0.029198967 -0.09696158 -0.014102549
0.11110564 0.16030137 0.038720813 0.07773884 0.09524296 0.22007124 0.025500638 0.10733124
0.1908594 0.038956486 -0.15766546 0.03271278 0.11161484 0.11255441 -0.08329555 0.06514396
0.07165657 0.0 -0.0889451 -0.034203783 -0.029562596 0.04960658 -0.020502489 0.15359542
-0.028002094 -0.010934492 -0.019780679 0.06730462 -0.074881226 0.07753826 0.16039799 -0.010503296
0.0044420403 0.009784051 0.022994768 0.04880383 0.049970724 0.058784604 0.039339546 -0.0112841455
0.2136347 0.14945276 0.052225053 -0.06994383 -0.048421167 0.09527706 0.027948191 -0.15824272
0.07355214 -0.124777116 0.15676355 0.170521 0.081145145 -0.084050216 0.21178198 0.14444174
-0.012430324 -0.034704875 0.075330704 0.1229106 -0.008845795 -0.0022652908 -0.05863971 -0.053061
-0.0813694 0.1555787 -0.12065929 -0.056566887 -0.10110504 0.078251496 0.060298197 -0.3154644
-0.06215959 0.11359891 0.017728532 -0.033779018 0.07514827 -0.10844975 0.050756972 0.10895412
0.049569074 0.08013133 -0.0049042758 -0.035717826 0.04786073 0.19673775 0.050252624 -0.03060969
0.21260822 -0.09479875 -0.14916088 0.07383714 0.056769412 -0.034137547 0.025300065 0.044898126
00000000: cab5 1abc 91b0 80bd 0809 a23d 81e4 263e
00000010: 97b5 eabb f5ba ab3e b419 54bd 00b0 403d
00000020: a2d6 263e b9ed 85bd 03d8 4c3d 53a8 0f3d
00000030: 9fa3 5bbd 2b72 07be 07f7 803d 9f2a 153d
00000040: fe59 3b3e 3173 31bc ec4d 623e 6dbf 0cbd
00000050: 450c 4fbd 1bc6 81bc b03f b03d 9529 2c3c
00000060: 0526 1abe 8f42 47be 658e a5bb f791 343d
00000070: 38c4 883d ac32 efbc cb93 c6bd 610e 67bc
00000080: 5b8b e33d 0b26 243e b799 1e3d 8a35 9f3d
00000090: be0e c33d 5b5a 613e b7e6 d03c 7bd0 db3d
000000a0: a670 433e d690 1f3d 0e73 21be d6fd 053d
000000b0: 5296 e43d ed82 e63d db96 aabd 326a 853d
000000c0: aec0 923d 0000 0000 d928 b6bd 4419 0cbd
000000d0: 422d f2bc 4530 4b3d d6f4 a7bc 1e48 1d3e
000000e0: a664 e5bc 9526 33bc 170b a2bc 01d7 893d
000000f0: 545b 99bd 61cc 9e3d 5f3f 243e 0416 2cbc
00000100: 898e 913b 494d 203c 865f bc3c 86e6 473d
00000110: 1aae 4c3d 20c8 703d 8122 213d 23e1 38bc
00000120: 0ec3 5a3e 250a 193e f0e9 553d b63e 8fbd
00000130: 4655 46bd 9f20 c33d 9bf3 e43c 610a 22be
00000140: 81a2 963d 258b ffbd a086 203e 0f9d 2e3e
00000150: 6d2f a63d 8522 acbd 60dd 583e 89e8 133e
00000160: 8fa8 4bbc b326 0ebd fc46 9a3d 8db8 fb3d
00000170: f4ed 10bc 4675 14bb 3130 70bd 7e56 59bd
00000180: 00a5 a6bd 0650 1f3e 381c f7bd aeb2 67bd
00000190: 2910 cfbd 5242 a03d 3efb 763d 8d84 a1be
000001a0: 0e9b 7ebd 8ca6 e83d 6d3b 913c de5b 0abd
000001b0: 56e7 993d e71a debd 8be6 4f3d 5623 df3d
000001c0: f108 4b3d e51b a43d 0cb4 a0bb db4c 12bd
000001d0: 9d09 443d 9f75 493e b2d5 4d3d 2cc1 fabc
000001e0: f8b5 593e d925 c2bd a1bd 18be ed37 973d
000001f0: 0b87 683d d0d3 0bbd 1542 cf3c 19e7 373d

fc3.weight f4 [4, 128]
0.59307426 -0.1934289 0.3330813 0.65842247 -0.42691797 0.7273008 0.75771993 -0.39292338
0.48221052 -0.017984606 0.2948876 0.102691196 0.5087887 -0.5940648 0.699948 -0.181965
-0.43314743 0.055229038 0.42600328 -0.44598174 -0.540259 0.46210808 0.9648644 0.7982835
0.625409 0.78371704 0.0021861752 -0.3488778 -0.3745039 0.31680965 0.49278456 -0.0296567
-0.17774409 0.8739183 0.3323271 0.41865242 0.06147278 -0.27480996 -0.24073955 -0.25097525
0.7758461 0.21572824 -0.2919705 -0.9111531 -0.07888961 -0.27329814 -0.33713514 -0.021621004
-0.49346444 -0.18796489 -0.30689746 0.4047989 -0.7640248 -0.6400709 0.18454978 0.18106262
-0.32871258 0.33259735 -0.24868053 0.5783382 -0.12188207 0.7208981 -0.18084033 0.5224851
-0.0031100463 -0.47711045 0.7740145 -0.22332212 -0.73981005 -0.802676 -0.107862994 0.53797066
0.09301303 0.5713931 -0.4230184 0.3834071 -0.46053424 0.43965137 0.25103635 0.032226298
0.40713322 0.62683463 0.28474408 0.5713206 -0.61364746 0.34484518 0.6818947 -0.26252285
-0.3875403 -0.3728895 0.07534925 -0.23948485 -0.13951594 -0.56303626 -0.26644537 -0.35772187
-0.7650993 0.6160253 -0.43059364 -0.16331454 -0.3260846 -0.39509204 -0.4505475 0.082051925
0.5130148 0.7495275 -0.27660874 0.19224364 0.4334423 -0.1778511 -0.52678555 -0.18215111
-0.17446679 -0.3044746 -0.049390685 -0.23768015 -0.051756907 0.8268662 -0.3808666 -0.049211938
-0.86777925 -0.11165744 -0.054772515 0.48384508 -0.3229281 -0.40219557 -0.357187 -0.3777959
0.31075376 -0.4696031 0.5109928 0.073489055 -0.35371032 0.002217454 0.5922859 -0.701619
0.057951547 -0.33535987 0.59718245 0.6135904 0.4031619 -0.49864814 0.5962748 -0.18157075
-0.05642414 -0.055431247 0.6870679 -0.27952927 -0.29325864 0.05449071 0.31722692 0.6023504
-0.72403044 0.6302226 -0.22922811 -0.62965214 -0.24455869 0.44345465 0.123387806 0.053272862
-0.49781796 -0.10875697 0.23425278 0.19978207 0.7525956 -0.44707465 -0.31143048 -0.2415782
0.5680807 0.50523823 -0.17826696 -0.25821432 -0.26845744 -0.2845548 -0.26357567 0.25869653
-0.49674618 -0.013194173 -0.40378982 0.88936096 -0.7476121 -0.22685534 0.24803351 0.27122954
-0.094755985 0.54984415 -0.09320179 0.9062081 0.08705358 0.5188576 -0.18957157 0.71207386
0.026168153 -0.45590797 0.6266373 -0.057933196 0.053352356 -0.159191 0.40491208 0.37390327
0.51827145 0.5334058 -0.24441509 -0.22019657 -0.3306611 0.5268349 0.61943674 -0.26407427
0.2749459 0.14531156 0.42697924 0.11623167 -0.21908572 0.06812244 0.5777825 -0.55927426
-0.7636421 -0.08812517 -0.3566869 -0.27023327 -0.2649318 -0.26889482 -0.62894607 -0.22679965
-0.77285534 0.4581007 -0.11830814 -0.32246587 -0.35344785 -0.121819586 -0.7800477 0.052448973
0.55034035 0.667343 -0.2863179 0.5114575 0.461037 -0.7234181 -0.46187237 -0.42630187
-0.31496343 -0.15941933 -0.13475305 -0.33347642 0.22128668 0.45332202 -0.29413712 -0.1608014
-0.55543214 -0.20211372 -0.37297055 0.56386673 -0.16749555 -0.28354537 -0.55321586 -0.23372161
00000000: b7d3 173f 3a12 46be a289 aa3e 608e 283f
00000010: fe94 dabe 6330 3a3f eff9 413f 412d c9be
00000020: 4ce4 f63e 7454 93bc 82fb 963e c34f d23d
00000030: fa3f 023f a114 18bf cb2f 333f 0855 3abe
00000040: 80c5 ddbe d837 623d 1a1d da3e b857 e4be
00000050: 6a4e 0abf 6e99 ec3e 5a01 773f 4f5c 4c3f
00000060: ce1a 203f aea1 483f ef45 0f3b 1ca0 b2be
00000070: fabe bfbe e034 a23e 424e fc3e 9cf2 f2bc
00000080: 8c02 36be 1cb9 5f3f c726 aa3e 9c59 d63e
00000090: e2ca 7b3d e4b3 8cbe 6e84 76be d47f 80be
000000a0: da9d 463f dde7 5c3e 287d 95be 5441 69bf
000000b0: e090 a1bd bced 8bbe fa9c acbe 881e b1bc
000000c0: 5fa7 fcbe de79 40be aa21 9dbe cd41 cf3e
000000d0: 2197 43bf b0db 23bf 9efa 3c3e 7b68 393e
000000e0: 044d a8be 334a aa3e 1ca6 7ebe f90d 143f
000000f0: 4f9d f9bd c78c 383f 352e 39be 95c1 053f
00000100: ebd1 4bbb d247 f4be d025 463f 8eae 64be
00000110: 3164 3dbf 2d7c 4dbf 46e7 dcbd 72b8 093f
00000120: 9e7d be3d d146 123f de95 d8be ef4d c43e
00000130: 25cb ebbe fc19 e13e d687 803e b9ff 033d
00000140: c473 d03e 3c78 203f fac9 913e 1142 123f
00000150: 0018 1dbf 8c8f b03e a790 2e3f 6569 86be
00000160: af6b c6be 5feb bebe b550 9a3d 843b 75be
00000170: 44dd 0ebe 2523 10bf 876b 88be 5227 b7be
00000180: 8cdd 43bf d6b3 1d3f c576 dcbe ed3b 27be
00000190: 90f4 a6be 8149 cabe 29ae e6be d70a a83d
000001a0: f054 033f 09e1 3f3f a99f 8dbe 84db 443e
000001b0: 26ec dd3e 991e 36be 6bdb 06bf d285 3abe
000001c0: 6ca7 32be 18e4 9bbe e34d 4abd 6d62 73be
000001d0: 0dff 53bd 81ad 533f f200 c3be 7592 49bd
000001e0: c826 5ebf a8ac e4bd 2559 60bd 8bba f73e
000001f0: d556 a5be 94ec cdbe 37e1 b6be 776e c1be
00000200: 1e1b 9f3e d16f f0be 6dd0 023f 6e81 963d
00000210: 8519 b5be b452 113b 0ca0 173f 4e9d 33bf
00000220: 9a5e 6d3d 4ab4 abbe f3e0 183f 4314 1d3f
00000230: 3d6b ce3e cf4e ffbe 77a5 183f afed 39be
00000240: 001d 67bd e00b 63bd afe3 2f3f 761e 8fbe
00000250: ff25 96be a731 5f3d 916b a23e a333 1a3f
00000260: 0f5a 39bf 4556 213f c6ba 6abe e230 21bf
00000270: 986d 7abe 7d0c e33e bfb2 fc3d a534 5a3d
00000280: ffe1 febe f9bb debd f6df 6f3e ac93 4c3e
00000290: 1baa 403f f8e6 e4be d173 9fbe 4760 77be
000002a0: bd6d 113f 4b57 013f 9d8b 36be ab34 84be
000002b0: 4173 89be 2bb1 91be 64f3 86be df73 843e
000002c0: 8455 febe 5f2c 58bc 8abd cebe 29ad 633f
000002d0: 8263 3fbf c44c 68be 7ffc 7d3e 99de 8a3e
000002e0: 6d0f c2bd 96c2 0c3f 94e0 bebd 41fd 673f
000002f0: 2649 b23d dad3 043f 0d1f 42be 794a 363f
00000300: 985e d63c c56c e9be 4d6b 203f 5c4b 6dbd
00000310: 0088 5a3d f702 23be a350 cf3e 4070 bf3e
00000320: 70ad 043f 488d 083f f347 7abe 367b 61be
00000330: 694c a9be a7de 063f 6893 1e3f be34 87be
00000340: b6c5 8c3e 8ecc 143e 069d da3e df0a ee3d
00000350: 0258 60be c783 8b3d 8ee9 133f 992c 0fbf
00000360: 0c7e 43bf f87a b4bd aa9f b6be 045c 8abe
00000370: 24a5 87be 95ac 89be 9c02 21bf 2b3e 68be
00000380: d9d9 45bf 2d8c ea3e 8a4b f2bd 3f1a a5be
00000390: 1ef7 b4be 8c7c f9bd 35b1 47bf bcd4 563d
000003a0: 1be3 0c3f fed6 2a3f 4398 92be e1ee 023f
000003b0: 0b0d ec3e ee31 39bf 897a ecbe 3d44 dabe
000003c0: e342 a1be d23e 23be b4fc 09be 6cbd aabe
000003d0: fa98 623e d319 e83e 2499 96be 1fa9 24be
000003e0: cd30 0ebf e6f6 4ebe fff5 bebe 9259 103f
000003f0: f483 2bbe dc2c 91be 8e9f 0dbf b854 6fbe

fc3.bias f4 [4]
-0.036683492 -0.070785955 -0.017053535 -0.093045674
00000000: 6e41 16bd 3af8 90bd dbb3 8bbc bb8e bebd

exp_avg f4 [256, 8]
-0.010408842 -0.018945575 0.012347395 0.0034328243 -0.0011118677 -0.006396158 0.012153782 0.0004765417
-0.0009179076 -0.031112634 -0.015699698 0.04301283 0.008821693 -0.025675986 -0.040082484 -0.0126160355
-0.02764613 0.041940276 0.008205651 -0.05856304 -0.0059409747 0.017082492 0.04266218 0.024541745
0.008815602 -0.022007376 0.0032646684 -0.004674037 0.010530644 -0.029568853 -3.1027434e-09 -0.009659131
-0.06672391 -0.0025725816 0.010741484 -0.020647662 -0.035133146 0.018097078 0.053610407 0.033545617
0.00042017823 -0.23877761 0.0018313744 0.07086168 -0.030382892 0.018549839 -0.004559142 3.5123347e-05
-0.014259667 -0.0005805211 -0.0017831714 -0.007390319 -0.0057284357 0.011168429 -0.0045856806 -0.0052338243
-0.03354564 0.001852408 0.013798479 -0.015515323 -0.0132091595 0.019263867 0.033020865 0.018196061
0.011505692 -0.036339715 -0.0068191863 0.005527277 0.001052323 0.0064792065 -0.00056375103 -0.0011881805
0.0063649034 -0.013594002 -0.018930089 0.014388285 0.00032364915 -0.0029906232 -6.2428253e-06 -0.004213222
0.002096952 -0.019289516 0.0013656191 -0.00033300268 0.005538988 0.00037519212 0.003805286 0.0053379107
0.025469594 0.03705526 0.011313259 -0.051691763 0.015722742 -0.04478466 -0.0028324535 0.00667141
0.01528369 -0.026091874 0.00046279014 0.023104634 0.032502946 0.028826265 -0.023841517 0.0058200844
-0.027443068 0.015059596 0.020286623 0.003657628 -0.023677483 -0.008841087 0.033486355 0.005629192
-0.013379065 0.0013942614 -0.0013665056 0.0005300711 -0.006082697 0.0049727713 0.004628846 0.00087538967
0.015558234 -0.04439588 -0.0074778637 0.015043656 0.0040821945 0.024096092 -0.0081222365 -0.00329803
0.032097153 -0.042784207 -0.05623119 0.031247884 0.0048909984 -0.0046791215 -0.014713839 -0.021648582
0.011853936 -0.025450863 -0.0020113736 0.0061794613 0.004706973 0.017906807 -0.00023362061 -0.0021215067
-0.0014322258 -0.032682277 -0.025032768 0.04786421 -0.0076965448 0.010200661 -1.3372626e-05 -0.013246439
-0.034884866 0.02841074 0.01934895 -0.020216057 -0.028031828 0.011622948 0.039588157 0.015524736
0.014596558 0.011776665 0.026575597 -0.03523402 0.007679862 -0.008199685 0.0068935314 -0.0016114966
-0.049371324 0.0005921464 0.04252798 -0.005778783 -0.03953019 -0.01632674 0.039284978 0.0063293464
-0.03478705 0.053001776 0.022913104 -0.008814067 -0.017970357 -0.003442659 0.0068598613 -0.006607991
0.015689738 -0.018624108 0.004326778 0.002717252 0.014423241 -0.008353337 -0.017954303 6e-45
-0.03615336 -0.008740346 0.020849349 -0.022072319 -0.022722328 -0.02026225 0.009496467 0.0013203094
0.059494562 -0.064084284 -0.008364088 0.019449417 0.0062590786 0.0096714385 -0.007996724 -0.026227739
-0.007618327 0.005217037 0.035956897 -0.008743684 -0.023026273 0.0037803925 0.021816785 -0.008256148
-0.008825959 0.0047501205 -0.0015328444 0.0029370096 -0.008989108 -0.0018170222 -0.0015788657 -0.0019408859
-0.016544094 -0.04024637 -0.016096354 0.0317618 -0.001105531 -0.0024274082 -0.007454994 -0.0023033328
-0.02055064 0.045272462 0.024043454 -0.03851181 -0.003068 -0.004034882 -0.0020551619 0.005584694
0.02171408 -0.04073313 -0.028098896 0.042478513 0.018448187 0.0053899917 -0.019199133 -1.4201089e-28
0.10973073 0.027319994 -0.025225094 -0.017600607 0.08662273 0.049043104 -0.054516148 -0.002322324
00000000: d989 2abc c033 9bbc ba4c 4a3c 3cf9 603b
00000010: 17bc 91ba dd96 d1bb a820 473c 58d8 f939
00000020: bc9f 70ba ecdf febc a79c 80bc 392e 303d
00000030: dd88 103c 7256 d2bc 882d 24bd 7db3 4ebc
00000040: 237a e2bc 91c9 2b3d ff70 063c ccdf 6fbd
00000050: 82ac c2bb 95f0 8b3c 8abe 2e3d c50b c93c
00000060: 516f 103c d048 b4bc 0cf4 553b aa28 99bb
00000070: b988 2c3c 613a f2bc 0a38 55b1 5541 1ebc
00000080: 8ca6 88bd c298 28bb 0dfd 2f3c 4925 a9bc
00000090: c6e7 0fbd 5340 943c 9696 5b3d 2167 093d
000000a0: 5e4b dc39 1e82 74be ba0a f03a ee1f 913d
000000b0: 8be5 f8bc d5f5 973c db64 95bb 6851 1338
000000c0: 61a1 69bc 1d2e 18ba 4eb9 e9ba 7d2a f2bb
000000d0: 9ab5 bbbb c9fb 363c 7a43 96bb 8080 abbb
000000e0: 2767 09bd 80cc f23a 0413 623c fb33 7ebc
000000f0: 3b6b 58bc 42cf 9d3c e340 073d e80f 953c
00000100: 5f82 3c3c f4d8 14bd 7b73 dfbb 291e b53b
00000110: 1aee 893a 864f d43b b1c8 13ba b9bc 9bba
00000120: ae90 d03b 61b9 5ebc 4613 9bbc d7bc 6b3c
00000130: 74af a939 55fe 43bb 7679 d1b6 110f 8abb
00000140: 046d 093b 0c05 9ebc 93fe b23a dd96 aeb9
00000150: 6680 b53b 6fb5 c439 1b62 793b a4e9 ae3b
00000160: 9ca5 d03c 42c7 173d 3f5b 393c beba 53bd
00000170: fbcc 803c 1f70 37bd afa0 39bb d89b da3b
00000180: 7168 7a3c a0be d5bc a4a2 f239 ee45 bd3c
00000190: cf21 053d 0f25 ec3c 494f c3bc 68b6 be3b
000001a0: 49d0 e0bc 86bc 763c 2230 a63c d1b4 6f3b
000001b0: 48f7 c1bc 35da 10bc fd28 093d 1675 b83b
000001c0: de33 5bbc a6bf b63a 521c b3ba 78f4 0a3a
000001d0: 5c51 c7bb a1f2 a23b 93ad 973b 687a 653a
000001e0: f7e7 7e3c 74d8 35bd de08 f5bb ab79 763c
000001f0: eec3 853b 2b65 c53c 2113 05bc c323 58bb
00000200: 4e78 033d 7e3e 2fbd ad52 66bd 90fb ff3c
00000210: ab44 a03b 5153 99bb 5012 71bc 5e58 b1bc
00000220: 0337 423c 547e d0bc 40d1 03bb 147d ca3b
00000230: f43c 9a3b 4cb1 923c 0ef8 74b9 fa08 0bbb
00000240: 86b9 bbba dadd 05bd 8511 cdbc 430d 443d
00000250: 4c33 fcbb ac20 273c fe5a 60b7 9807 59bc
00000260: 6fe3 0ebd a4bd e83c b081 9e3c 259c a5bc
00000270: 01a3 e5bc 2d6e 3e3c 3127 223d 765b 7e3c
00000280: 6726 6f3c eaf2 403c 11b5 d93c 8c51 10bd
00000290: 5aa7 fb3b f957 06bc 22e3 e13b da38 d3ba
000002a0: 9639 4abd 463a 1b3a d231 2e3d f25b bdbb
000002b0: 69ea 21bd a8bf 85bc 49e9 203d 6866 cf3b
000002c0: de7c 0ebd 6418 593d 43b4 bb3c e068 10bc
000002d0: 9236 93bc 3c9e 61bb b0c8 e03b d987 d8bb
000002e0: c487 803c 9691 98bc a5c7 8d3b ec13 323b
000002f0: 754f 6c3c 6fdc 08bc e714 93bc 0400 0000
00000300: 8c15 14bd ab33 0fbc 41cc aa3c 02d1 b4bc
00000310: 2d24 babc 05fd a5bc 1297 1b3c 3b0e ad3a
00000320: 92b0 733d 9f3e 83bd 8709 09bc 6254 9f3c
00000330: f518 cd3b f474 1e3c b104 03bc 8edb d6bc
00000340: 29a3 f9bb aef3 aa3b 8a47 133d ab41 0fbc
00000350: 98a1 bcbc 76c0 773b 1db9 b23c cb44 07bc
00000360: c19a 10bc e6a6 9b3b b9e9 c8ba d87a 403b
00000370: 0d47 13bc 2629 eeba f1f1 ceba 5365 feba
00000380: 7b87 87bc 61d9 24bd 80dc 83bc a918 023d
00000390: 77e7 90ba 2715 1fbb 0649 f4bb 83f3 16bb
000003a0: d159 a8bc 9e6f 393d c7f6 c43c 8fbe 1dbd
000003b0: 8010 49bb 0b37 84bb e5af 06bb cfff b63b
000003c0: bae1 b13c c8d7 26bd a82f e6bc f3fd 2d3d
000003d0: a720 973c 879e b03b 8047 9dbc 2b05 3491
000003e0: 81ba e03d 2ece df3c dba4 cebc 262f 90bc
000003f0: 4267 b13d 6ce1 483d 534c 5fbd 2232 18bb

exp_avg_sq f4 [256, 8]
0.0014829236 0.003450675 0.001404433 0.0015548085 0.0013995584 0.001969446 0.0027209066 0.0045397347
0.0080814995 0.07936065 0.011427213 0.015050191 0.0057320194 0.015505687 0.017093651 0.017064393
0.012980843 0.10936651 0.013960064 0.017029589 0.011071959 0.01544477 0.014246557 0.018536204
0.0038300487 0.028934428 0.0027851362 0.0030475915 0.0051122806 0.0054300246 5.252447e-05 0.0032264641
0.021332527 0.0040988354 0.022042738 0.022379298 0.0146046085 0.030217698 0.026684182 0.043594014
0.029016841 0.37338486 0.034520376 0.03931059 0.037809003 0.027991574 0.007929163 0.004800408
0.0036650922 0.00011030196 0.0028903608 0.0030931544 0.0026674354 0.0035572073 0.0035027224 0.0021430925
0.0059536574 0.00030041925 0.006680382 0.010672448 0.0047604726 0.007042561 0.008090935 0.010745154
0.0010981363 0.0067776064 0.0011372825 0.0011215623 0.00095642474 0.00347093 0.00050434103 0.0007948928
0.0015368741 0.0015699705 0.0017754822 0.0035584727 0.0012886099 0.0020498964 7.131669e-05 0.0030190626
0.0013292609 0.0048163556 0.00080177345 0.0008942156 0.0009498712 0.002584789 0.001957051 0.0034226975
0.008952964 0.10686834 0.009512626 0.011632367 0.012874044 0.016483953 0.00083608925 0.0023230833
0.019392576 0.1425351 0.016922724 0.014361577 0.01583175 0.02210735 0.009809874 0.019481333
0.020128705 0.0020066705 0.008219246 0.0014306583 0.008172891 0.02184226 0.031182107 0.05903468
0.002397518 7.580133e-05 0.0012865528 0.0021364458 0.002733422 0.0021174918 0.002582091 0.0016346032
0.0027352984 0.010896423 0.0028374933 0.003510208 0.0036602342 0.0041197315 0.0024037051 0.008226406
0.016688196 0.07527058 0.014293679 0.0110141635 0.013325824 0.03206182 0.02056538 0.061643038
0.0013423384 0.00494065 0.0024139464 0.0023282755 0.00091108365 0.0020091594 0.0006279006 0.00059200096
0.011581106 0.11247956 0.01025436 0.015526915 0.008536484 0.013373817 0.0006445083 0.015652288
0.0041311397 0.003920353 0.0042496314 0.0062724766 0.0017660123 0.0064107645 0.00561702 0.014447369
0.005092788 0.07055999 0.0067348396 0.009581231 0.0049290513 0.0052642277 0.0009600901 0.0021073662
0.00877514 0.00036269738 0.011884296 0.017302401 0.006393678 0.0152878845 0.01106551 0.018455269
0.0044199154 0.033581607 0.0038059738 0.0056134397 0.0031243726 0.0072125406 0.0072061 0.001847671
0.0034560587 0.0021940398 0.0018087742 0.0026655204 0.0031581053 0.0032456114 0.0022473284 5.5933688e-06
0.011787607 0.06756991 0.012247796 0.020462714 0.009124624 0.009673002 0.00756881 0.020404696
0.0147565715 0.10717308 0.010033096 0.0049169525 0.009730541 0.023609532 0.0055749845 0.012668936
0.0035637321 0.00025433442 0.0061336127 0.01103429 0.0042517404 0.009271775 0.0052560284 0.007127102
0.00036392844 0.0014118638 0.00022173561 0.0002931674 0.0003789918 0.0004381536 0.00055006804 0.0004653558
0.0029466962 0.026573032 0.004382102 0.0060113883 0.002429766 0.0063328324 0.00072190247 0.006189165
0.009489963 0.07136519 0.01066343 0.013146207 0.0067700455 0.009244874 0.007670314 0.01782961
0.009887394 0.05594106 0.016038047 0.026352655 0.009759127 0.013622044 0.0132929245 2.9203244e-05
0.036088433 0.20213775 0.010201041 0.0021075103 0.020302946 0.023772968 0.028153526 0.0042574354
00000000: a95e c23a b824 623b f414 b83a b7ca cb3a
00000010: 6371 b73a d211 013b 3d51 323b 0ec2 943b
00000020: 4468 043c d687 a23d 3539 3b3c 1495 763c
00000030: aad3 bb3b 910b 7e3c fc07 8c3c a0ca 8b3c
00000040: 9aad 543c 8cfb df3d c1b8 643c a381 8b3c
00000050: 2967 353c 100c 7d3c 646a 693c 3dd9 973c
00000060: 8e01 7b3b e507 ed3c d586 363b 1aba 473b
00000070: eb84 a73b 59ee b13b b84d 5c38 1673 533b
00000080: 8dc1 ae3c 864f 863b f992 b43c ca54 b73c
00000090: 2b48 6f3c 1b8b f73c c998 da3c a38f 323d
000000a0: bab4 ed3c 4d2c bf3e 3d65 0d3d 2404 213d
000000b0: 9ddd 1a3d 964e e53c 52e9 013c be4c 9d3b
000000c0: 0b32 703b ea51 e738 356c 3d3b 85b6 4a3b
000000d0: 24d0 2e3b 0920 693b ee8d 653b 2073 0c3b
000000e0: e616 c33b 9781 9d39 1be7 da3b 7edb 2e3c
000000f0: bdfd 9b3b 49c5 e63b d78f 043c 710c 303c
00000100: 57ef 8f3a af16 de3b de10 953a 6301 933a
00000110: 94b8 7a3a 8b78 633b c135 043a 5a60 503a
00000120: f070 c93a 78c7 cd3a 4cb7 e83a 4435 693b
00000130: 93e6 a83a 8e57 063b db8f 9538 77db 453b
00000140: 983a ae3a 85d2 9d3b 1b2e 523a cb69 6a3a
00000150: c700 793a 9065 293b de41 003b 564f 603b
00000160: 74af 123c cadd da3d d8da 1b3c af95 3e3c
00000170: a7ed 523c 5b09 873c 002d 5b3a df3e 183b
00000180: 2edd 9e3c b9f4 113e 86a1 8a3c d24c 6b3c
00000190: 96b1 813c 791a b53c 98b9 203c 5197 9f3c
000001a0: f4e4 a43c 5882 033b 04aa 063c ed84 bb3a
000001b0: 97e7 053c 8aee b23c 9e71 ff3c 59ce 713d
000001c0: ad1f 1d3b 87f7 9e38 8ca1 a83a 9d03 0c3b
000001d0: 3623 333b 9ec5 0a3b 4c38 293b 2f40 d63a
000001e0: b142 333b e986 323c 3df5 393b 850b 663b
000001f0: 8ae0 6f3b d0fe 863b 7b87 1d3b 0cc8 063c
00000200: afb5 883c 7627 9a3d 0930 6a3c c074 343c
00000210: 8f54 5a3c 4153 033d ba78 a83c 697d 7c3d
00000220: 67f1 af3a 2de5 a13b 4d33 1e3b fb95 183b
00000230: cad5 6e3a 1aac 033b b299 243a 8330 1b3a
00000240: aebe 3d3c af5b e63d e701 283c 9a64 7e3c
00000250: 9cdc 0b3c db1d 5b3c 38f4 283a 3a39 803c
00000260: 835e 873b 4e76 803b 7e40 8b3b 5989 cd3b
00000270: 8a79 e73a 6411 d23b fb0e b83b a8b4 6c3c
00000280: 67e1 a63b c281 903d eeaf dc3b 98fa 1c3c
00000290: e183 a13b 8b7f ac3b 8eae 7b3a bd1b 0a3b
000002a0: 9bc5 0f3c 6b28 be39 5ab6 423c c4bd 8d3c
000002b0: 0f82 d13b 097a 7a3c 1d4c 353c 812f 973c
000002c0: f0d4 903b de8c 093d a56d 793b f2f0 b73b
000002d0: 46c2 4c3b 2d57 ec3b 2621 ec3b 8d2d f23a
000002e0: 0b7f 623b e1c9 0f3b 6414 ed3a 03b0 2e3b
000002f0: 37f8 4e3b 53b4 543b ea47 133b acae bb36
00000300: cf20 413c 1862 8a3d fbaa 483c 6ca1 a73c
00000310: 727f 153c 837b 1e3c c803 f83b c027 a73c
00000320: 8cc5 713c 8f7d db3d db61 243c 631e a13b
00000330: d96c 1f3c c768 c13c 5cae b63b 5e91 4f3c
00000340: 818d 693b 3058 8539 79fc c83b 2bc9 343c
00000350: 2f52 8b3b a5e8 173c c33a ac3b 778a e93b
00000360: a6cd be39 4a0e b93a b381 6839 43b4 9939
00000370: 6bb3 c639 fbb7 e539 7132 103a 00fb f339
00000380: 5c1d 413b b0af d93c bc97 8f3b 2efb c43b
00000390: b63c 1f3b a683 cf3b 0e3e 3d3a 7bce ca3b
000003a0: ca7b 1b3c ea27 923d abb5 2e3c 3063 573c
000003b0: 42d7 dd3b d077 173c 4257 fb3b 670f 923c
000003c0: bcfe 213c 7422 653d 3962 833c 86e1 d73c
000003d0: bfe4 1f3c fe2e 5f3c 91ca 593c 7df9 f437
000003e0: 77d1 133d 33fd 4e3e 4422 273c 281e 0a3b
000003f0: 5d52 a63c 87bf c23c 39a2 e63c f581 8b3b

exp_avg f4 [256]
-0.028321419 -0.12696709 0.17310226 -0.082200535 0.060330488 -0.2259602 0.013734095 0.06444332
-0.049355835 -0.032320417 -0.029202973 0.059407946 -0.050070673 0.03363542 0.032848746 -0.05928279
-0.11161381 -0.023133676 -0.12412963 0.09806781 0.014348025 0.010285574 0.12882034 -0.049625825
0.07958422 -0.121408254 0.0029956277 0.0067440043 -0.07034536 0.10811839 -0.10511125 -0.15222715
-0.028188676 -0.04392527 0.030176472 -0.08273338 -0.106588826 -0.32331425 0.10585204 0.088404894
0.14113909 0.024783203 0.00707826 0.022662953 0.25084594 -0.095914654 -0.044449907 -0.008991259
-0.1357118 0.060100015 -0.05930585 -0.028167395 0.011180981 0.14136463 -0.06849062 -0.03240389
0.053465147 0.0178499 0.14682306 -0.0036327043 0.027848288 -0.09898515 0.017184485 -0.06370946
0.07838858 -0.24150562 0.061768916 0.02197561 0.1600791 0.055914704 0.03257671 0.023573982
0.092320964 -0.18225728 0.039787322 -0.034128677 -0.108395 0.04130801 -0.02820603 -0.0775469
0.05086806 -0.1330701 0.09962097 -0.012954929 -0.01473547 -0.12012912 -0.030252913 -0.027220488
-0.02418735 -0.07988108 0.098312445 0.00040468777 -0.00833243 0.028922396 0.060287446 0.17581876
-0.07190752 0.030585432 0.04594375 -0.09899206 -0.05492009 -0.053177692 0.032461982 -0.023733044
-0.0057833963 0.06383497 0.102842316 0.10704085 -0.065029435 -0.025704404 -0.124742776 -0.019844988
-0.07517568 0.16066797 -0.013293434 -0.14004813 -0.042236548 0.010092374 -0.01445523 -0.03588883
0.079828784 -0.03261647 0.034918338 0.07188561 0.019823901 -0.023511337 0.024641775 0.03025451
0.03726948 -0.09119768 0.13365793 -0.009868246 0.047129545 -0.18567573 -0.1027133 -0.03349636
0.04193799 0.029132435 -0.0535173 -0.21255018 0.013269812 -0.035108652 0.06949667 0.029995149
0.023731044 -0.021573326 -0.05893016 0.026299275 0.047571555 0.24202715 0.010675983 -0.076639995
0.1373288 0.04086048 0.0018364991 -0.16984247 -0.06862482 0.00054412324 -0.011001835 -0.032175127
-0.034471683 0.029711304 -0.0012433976 -0.0016802921 -0.079413876 0.083658986 0.010945431 -0.0042397273
0.010969506 -0.050922237 0.13654943 -0.061474368 -0.015568394 -0.061306637 0.19994506 -0.022612022
-0.0857709 0.010047578 0.063565224 -0.057341587 0.14633612 0.05311892 -0.030920293 0.0630879
-0.057418965 -0.013166584 -0.013839902 0.03217901 -0.032270886 0.030882973 -0.31199598 -0.044266902
-0.086592466 -0.109354444 -0.046314657 0.0069267303 0.068119496 -0.064038806 0.04362749 0.040693775
-0.07832765 0.0099022165 -0.0061202752 0.06646958 -0.014163873 -0.012005439 0.0143013 0.25953948
0.08407667 -0.051174052 0.032532323 0.07148921 -0.028222261 0.014784616 0.15719014 0.10977187
-0.09728946 -0.010001841 0.07952005 0.0426716 0.06281969 -0.015638787 0.009734865 0.007452021
-0.017871613 -0.17862406 0.09753973 -0.024293408 -0.08744275 -0.022977833 0.07439499 0.020947216
0.15983927 -0.022916637 -0.0028990514 -0.22305822 -0.12835437 -0.07180444 -0.017157678 0.11356112
-0.011556406 0.25057396 0.06217935 0.020516332 0.08879794 -0.018914148 0.008873655 0.03929762
-0.00990284 0.03620313 0.070475645 0.00934445 0.013792981 0.0057494026 -0.02742652 0.055161145
00000000: 5202 e8bc a903 02be b841 313e c158 a8bd
00000010: 1a1d 773d 1c62 67be f804 613c dcfa 833d
00000020: 5829 4abd 6a62 04bd 133b efbc bf55 733d
00000030: e816 4dbd 4bc5 093d 688c 063d 83d2 72bd
00000040: c895 e4bd d682 bdbc ad37 febd c7d7 c83d
00000050: fb13 6b3c d384 283c 7be9 033e 7344 4bbd
00000060: 0dfd a23d e4a4 f8bd 4b52 443b cffc dc3b
00000070: 3a11 90bd 2d6d dd3d 9144 d7bd 6fe1 1bbe
00000080: f0eb e6bc fcea 33bd a634 f73c 1e70 a9bd
00000090: 3e4b dabd 7289 a5be f4c8 d83d a00d b53d
000000a0: c486 103e 2506 cb3c c0f0 e73b a8a7 b93c
000000b0: e16e 803e e76e c4bd 1b11 36bd 1350 13bc
000000c0: 09f8 0abe 6f2b 763d b1ea 72bd 4fbf e6bc
000000d0: 6f30 373c e4c1 103e cf44 8cbd f1b9 04bd
000000e0: 45fe 5a3d f439 923c c958 163e aa12 6ebb
000000f0: 1822 e43c bab8 cabd 7ac6 8c3c 1b7a 82bd
00000100: 318a a03d 404d 77be 6701 7d3d 3206 b43c
00000110: c7eb 233e d106 653d 286f 053d 391e c13c
00000120: c612 bd3d a7a1 3abe 08f8 223d 83ca 0bbd
00000130: 33fe ddbd 9732 293d 5510 e7bc e9d0 9ebd
00000140: 075b 503d 8743 08be 1406 cc3d e940 54bc
00000150: 0a6d 71bc 4206 f6bd f5d4 f7bc 80fd debc
00000160: 8d24 c6bc b198 a3bd 0958 c93d 462c d439
00000170: bf84 08bc a9ee ec3c f8ef 763d d509 343e
00000180: 4044 93bd 4d8e fa3c 832f 3c3d 59bc cabd
00000190: e3f3 60bd dad0 59bd dbf6 043d cd6b c2bc
000001a0: a582 bdbb e9bb 823d fe9e d23d 3c38 db3d
000001b0: 272e 85bd 0b92 d2bc 2479 ffbd f591 a2bc
000001c0: b5f5 99bd 2586 243e b4cc 59bc c768 0fbe
000001d0: 3b00 2dbd 7c5a 253c a1d5 6cbc 2a00 13bd
000001e0: 467d a33d d998 05bd 8806 0f3d c338 933d
000001f0: bc65 a23c d99a c0bc 8cdd c93c 4ed8 f73c
00000200: e2a7 183d d9c5 babd a0dd 083e 6cae 21bc
00000210: e90a 413d c721 3ebe 5a5b d2bd 7b33 09bd
00000220: 2bc7 2b3d 25a7 ee3c f534 5bbd c1a6 59be
00000230: a069 593c 17ce 0fbd 4554 8e3d 63b8 f53c
00000240: 9b67 c23c 8bba b0bc c060 71bd 9471 d73c
00000250: 64da 423d f7d5 773e 51ea 2e3c 6ef5 9cbd
00000260: ec9f 0c3e 525d 273d afb6 f03a 2feb 2dbe
00000270: 2b8b 8cbd 7ea3 0e3a 0a41 34bc 11ca 03bd
00000280: 2e32 0dbd 1f65 f33c 80f9 a2ba 3f3d dcba
00000290: bea3 a2bd 6755 ab3d 7754 333c 69ed 8abb
000002a0: 71b9 333c d693 50bd 9dd3 0b3e 8ccc 7bbd
000002b0: 9412 7fbc ab1c 7bbd 66be 4c3e d93c b9bc
000002c0: a7a8 afbd 999e 243c 7c2e 823d 03df 6abd
000002d0: 23d9 153e 3a93 593d 8e4c fdbc 3b34 813d
000002e0: 2630 6bbd a8b8 57bc c2c0 62bc 23ce 033d
000002f0: 7a2e 04bd 4afe fc3c f0bd 9fbe 3651 35bd
00000300: 6457 b1bd 39f5 dfbd 70b4 3dbd a0f9 e23b
00000310: 3c82 8b3d c726 83bd bdb2 323d 84ae 263d
00000320: 3f6a a0bd e83c 223c 978c c8bb 3421 883d
00000330: 970f 68bc 76b2 44bc 0050 6a3c 5ce2 843e
00000340: 6430 ac3d e29b 51bd 9d40 053d ef68 923d
00000350: 5f32 e7bc 2d3b 723c 74f6 203e 13d0 e03d
00000360: b23f c7bd c3de 23bc 68db a23d 6ac8 2e3d
00000370: 9ca7 803d ea1c 80bc fc7e 1f3c 1530 f43b
00000380: 7d67 92bc 3ae9 36be e9c2 c73d f802 c7bc
00000390: 2f15 b3bd 023c bcbc 675c 983d 7f99 ab3c
000003a0: e8ac 233e acbb bbbc 03fe 3dbb 6069 64be
000003b0: 546f 03be 350e 93bd 428e 8cbc bc92 e83d
000003c0: 1457 3dbc 3b4b 803e c6af 7e3d de11 a83c
000003d0: b2db b53d d8f1 9abc cf62 113c 8bf6 203d
000003e0: 853f 22bc bc49 143d 8955 903d 7719 193c
000003f0: f5fb 613c 7c65 bc3b 95ad e0bc a7f0 613d
