results/heavy/models/checkpoint_ep200.pth (torch, 436170 bytes, 18 tensors)

fc1.weight f4 [256, 8]
0	0x3ed33826	0.41253775
1	0xbdaf0bf7	-0.08547204
2	0xbf8671d9	-1.0503494
3	0x3e6bafa9	0.23016228
4	0xbf65c620	-0.8975544
5	0xbf0ebac2	-0.5575372
6	0xbe529c58	-0.20567453
7	0x3f4d98f2	0.803115
8	0x3f6628b2	0.89905846
9	0x3dab95d8	0.0837819
10	0x3e576cdb	0.21037619
11	0xbc606ff1	-0.013698564
12	0xbf206f38	-0.62669706
13	0xbe9b445b	-0.3032559
14	0x3efeae57	0.49742386
15	0x3e8253a2	0.25454432
16	0xbe422944	-0.18961054
17	0x3f7e6ed8	0.99387884
18	0x3e83338c	0.25625265
19	0x3eb0e863	0.34552297
20	0x3e5b06a7	0.21389256
21	0xbed1d9c6	-0.4098646
22	0x3f1b2a4d	0.6061142
23	0x3ec1bc1a	0.37838823
24	0xbe941e98	-0.2892959
25	0x3e26288a	0.16226402
26	0xbe3943ef	-0.18092321
27	0x3eec59b4	0.46162188
28	0x3f3d3953	0.73915595
29	0x3e90db97	0.28292534
30	0xbeb41cdb	-0.35178265
31	0xbe61cd92	-0.22051075
32	0xbf7a706a	-0.9782778
33	0xbf4f47f4	-0.80969167
34	0xbf0dce2c	-0.5539272
35	0xbe0b6410	-0.1361239
36	0x3d69f292	0.0571161
37	0xbed1550e	-0.40885204
38	0xbd3ebca9	-0.04656664
39	0xbd028284	-0.03186275
40	0x3edb1c28	0.4279492
41	0x3d777944	0.060418382
42	0xbd503083	-0.050827514
43	0x3bcc8fb4	0.0062427167
44	0x3f91f861	1.1403924
45	0xbf860106	-1.0469062
46	0x3edab095	0.42712846
47	0xbf7ffd4b	-0.9999587
48	0x3e0b43ec	0.13600129
49	0xbfece5b1	-1.8507596
50	0x3e92be58	0.28660846
51	0xbe2d7378	-0.16938579
52	0x3f359780	0.70934296
53	0x3b938cd4	0.004502872
54	0x3dd39fcc	0.10333213
55	0x3efc5b68	0.49288487
56	0xbddd49f2	-0.108051196
57	0xbf973bbe	-1.1815107
58	0x3eaf1854	0.34198248
59	0xbe62270c	-0.22085208
60	0x3d8deca7	0.069299035
61	0xbf1f1a0d	-0.62149125
62	0x3eb50435	0.35354772
63	0x3f4463be	0.76714694
64	0xbf10ecf7	-0.5661158
65	0x3f38ecec	0.72236514
66	0x3e7b385c	0.24533218
67	0x3ecc35e2	0.3988486
68	0x3fa43805	1.2829596
69	0xbf32d6b1	-0.69858843
70	0xbecb4c7b	-0.39706787
71	0xbf307e38	-0.68942595
72	0x3f3f340e	0.74688804
73	0xbf031d81	-0.51216894
74	0x3f4d8f26	0.8029655
75	0xbd72602e	-0.059173755
76	0x3e683cff	0.22679518
77	0xbf9159ca	-1.1355526
78	0xbfbccf40	-1.4750748
79	0xbe992c1b	-0.29916462
80	0xbe61966c	-0.22030038
81	0x3e2766ed	0.16347857
82	0xbf7f7cce	-0.9979981
83	0x3f0097b6	0.5023149
84	0x3e94989d	0.29022685
85	0x3d05e90b	0.03269295
86	0x3e351e07	0.17687236
87	0x3f647746	0.89244497
88	0xbe155d35	-0.14586337
89	0x3f84e627	1.0382737
90	0xbe19c9f7	-0.1501845
91	0x3ec6f40c	0.38858068
92	0x3e455871	0.19272019
93	0x3f0c31c5	0.5476344
94	0xbf225cf2	-0.63423073
95	0xbf1cb1dd	-0.612089
96	0xbebf6235	-0.37379614
97	0x3c9f27f4	0.01942823
98	0xbfce8260	-1.6133537
99	0x3e74935c	0.23884338
100	0xbde7ad06	-0.113122985
101	0x3e1eddb3	0.15514259
102	0xbeb96f3f	-0.36217687
103	0xbdd24ce0	-0.10268569
104	0x3e5ac43a	0.21363917
105	0xbed051f1	-0.40687516
106	0x3e776e81	0.24163248
107	0x3fa517c9	1.2897884
108	0xbf84aca8	-1.036519
109	0x3e6bfcfe	0.23045728
110	0x3efafa2f	0.49019
111	0x3f5c1c0d	0.859803
112	0x3cbebee2	0.02328438
113	0xbfddc25e	-1.7324941
114	0x3eeec09c	0.46631324
115	0xbdbbb0fd	-0.09164617
116	0x3f1a6d65	0.6032317
117	0x3ed128ea	0.40851527
118	0x3ece8de2	0.40342623
119	0x3f561deb	0.836394
120	0xbe7ddb7a	-0.24790755
121	0xbc2d9488	-0.010594495
122	0xbfa4100e	-1.28174
123	0x3e25e9eb	0.16202514
124	0x3dfb185a	0.12260504
125	0xbf5bec1b	-0.85907143
126	0xbe8fefeb	-0.2811273
127	0x3f3f75b1	0.7478896
128	0x3e8bb9cc	0.2729019
129	0xbc93d8c4	-0.018047698
130	0x3f6bbffa	0.9208981
131	0x3f5cf256	0.86307275
132	0x3f2eacd3	0.6823246
133	0xbeebf410	-0.46084642
134	0xbdaa9dd1	-0.08330882
135	0x3f87790b	1.0583814
136	0xbf49da14	-0.78848386
137	0x3d8611e5	0.06546382
138	0xbf21e1a5	-0.6323493
139	0x3eb8ee43	0.3611928
140	0xbe791b1a	-0.24326745
141	0xbe1338be	-0.14377114
142	0xbf1e4559	-0.61824566
143	0xbf237724	-0.6385367
144	0x3e6e2a0a	0.23258224
145	0x3f05c9cb	0.52261037
146	0x3f93985a	1.1530869
147	0xbd83f920	-0.06444001
148	0x3eba8118	0.36426616
149	0xbf362635	-0.7115205
150	0xbf58dbed	-0.8471058
151	0xbe32c4f5	-0.17457946
152	0x3e74f3f3	0.23921184
153	0xbec38272	-0.3818546
154	0x3e4f2d44	0.20232111
155	0xbec6c1dc	-0.38819778
156	0xbfa3f004	-1.2807622
157	0xbe879def	-0.2648768
158	0x3d20954d	0.039204884
159	0x3ef24c1a	0.47323686
160	0x3effbe2b	0.49949774
161	0xbd8f401f	-0.06994652
162	0xbecf7615	-0.40519777
163	0x3e5f983a	0.21835414
164	0x3f6bc532	0.9209777
165	0x3fbb314a	1.4624417
166	0x3ef80acf	0.48445746
167	0xbefaaf2b	-0.48961768
168	0x3df204ae	0.11817299
169	0xbfd757be	-1.6823652
170	0xbe4723dd	-0.19447275
171	0xbe1824be	-0.14857766
172	0xbeeb0a6f	-0.45906398
173	0x3c545a44	0.012960974
174	0x3f3c6760	0.7359524
175	0xbd3c5eb3	-0.04598875
176	0xbd99087f	-0.074723236
177	0x3e1c0b4e	0.15238687
178	0x3f2b7dc1	0.6698876
179	0xbd4a4495	-0.04938181
180	0xbeb64fb6	-0.3560769
181	0xbee5872e	-0.44829696
182	0x3f0166ea	0.5054766
183	0xbecee908	-0.40412164
184	0xbebc38bf	-0.36762044
185	0xbea67bef	-0.3251643
186	0xbefc76f7	-0.49309513
187	0xbe70759f	-0.23482369
188	0xbf1cbdf4	-0.61227345
189	0xbd5afe29	-0.053465042
190	0xbef7f1d6	-0.48426694
191	0xbf716266	-0.9429077
192	0xbd68fd0c	-0.05688195
193	0xbdf9d37d	-0.12198541
194	0xbeb2f84c	-0.3495506
195	0xbeb8beff	-0.36083218
196	0xbf78e409	-0.97222954
197	0xbf873a01	-1.0564576
198	0xbf0d0d84	-0.5509875
199	0x3f23aa9f	0.6393222
200	0xbf7a2028	-0.97705317
201	0x3ebcd8ce	0.3688416
202	0x3e9ad66a	0.3024171
203	0x3f45a7a2	0.7720891
204	0x3f32fd36	0.6991762
205	0xbeb4767c	-0.35246646
206	0xbee501c7	-0.44727919
207	0xbeabf919	-0.33588484
208	0x3f423d25	0.7587455
209	0xbfd2202b	-1.6416067
210	0xbe2403af	-0.1601703
211	0xbe9145d5	-0.2837359
212	0xbf2b7fa3	-0.66991633
213	0x3ef57de1	0.479476
214	0x3f308c65	0.68964225
215	0x3cfab95b	0.030605962
216	0x3e604b98	0.21903837
217	0x3d37eb27	0.044901993
218	0x3f924fb9	1.143058
219	0xbf187871	-0.5955878
220	0xbe33b533	-0.17549591
221	0xbf7af21a	-0.9802567
222	0x3f0a2675	0.5396493
223	0x3e6d16f3	0.23153286
224	0x3eafbae7	0.34322283
225	0xbe005acc	-0.12534636
226	0x3ef58436	0.4795243
227	0xbcc8e4ee	-0.024523225
228	0x3f3ae3e5	0.7300399
229	0xbed4884b	-0.41510233
230	0xbecc5773	-0.39910468
231	0xbe6e09fc	-0.23245996
232	0xbf3eb7bd	-0.7449911
233	0x3e9e0565	0.3086349
234	0x3ebfb7ab	0.37444815
235	0xbdc9465b	-0.09827872
236	0xbdf6de5c	-0.120541304
237	0xbf2ddbab	-0.6791331
238	0xbe982923	-0.29718885
239	0x3e8baf4c	0.27282178
240	0xbf03a675	-0.5142587
241	0x3f83edd6	1.0306957
242	0xbe3ce391	-0.18446185
243	0x3d951846	0.072800204
244	0xbf0a4d72	-0.5402442
245	0x3f100023	0.5625021
246	0xbe8f25eb	-0.27958617
247	0xbf7a9619	-0.9788528
248	0x3edfb146	0.43689936
249	0x3c4c7052	0.012477951
250	0x3e9d7f1f	0.30761048
251	0x3f958cc8	1.1683588
252	0xbf05ccd5	-0.52265674
253	0x3ebd59b2	0.36982495
254	0xbe856bc4	-0.2605878
255	0xbec51132	-0.3848968

fc1.bias f4 [256]
0	0x3df3a66c	0.11896977
1	0x3d7f9cdd	0.062405456
2	0x3e1aad76	0.15105233
3	0x3e3cd80d	0.18441792
4	0xbd9f28bd	-0.07771442
5	0xbc0ba012	-0.00852205
6	0x3e6ac8c2	0.22928146
7	0x3dab5f74	0.083678156
8	0xbd079ea4	-0.033110276
9	0x3e71c4e8	0.2361027
10	0x3e110734	0.14162904
11	0x3d728dca	0.05921725
12	0x3d4e13b4	0.05031176
13	0x3ea2da53	0.31807193
14	0x3e794baf	0.24345277
15	0x3b7460ea	0.003728921
16	0x3d4103db	0.047122817
17	0x3ce1e16d	0.027573312
18	0x3d8a3ced	0.06749902
19	0x3e0e483d	0.13894744
20	0x3e6b73fe	0.22993466
21	0x3e523006	0.20526132
22	0xbe549d02	-0.20763019
23	0x3d2aa1c5	0.04165818
24	0x3de07725	0.10960225
25	0x3dede602	0.11616136
26	0x3d2fa955	0.042886097
27	0x3cebba4e	0.02877536
28	0x3e83cd90	0.2574277
29	0x3e1d655b	0.15370695
30	0x3e7a5b61	0.24448921
31	0x3c96cd96	0.018408578
32	0x3e1d0d16	0.15337023
33	0x3c121cbb	0.008917983
34	0x3ccdf229	0.025139885
35	0xbcb651c1	-0.02225578
36	0x3de87482	0.11350347
37	0x3e1b3ba3	0.15159468
38	0x3d96eccf	0.073693864
39	0x3db0b51d	0.086282946
40	0x3e0797c9	0.13241495
41	0x3ca9954e	0.020701077
42	0x3e6378de	0.22214076
43	0xbb9ce56f	-0.004788093
44	0xbc578622	-0.013154538
45	0xbd38ba40	-0.045099497
46	0xbd366995	-0.044534285
47	0xbcf7d0ab	-0.030250868
48	0x3c6458c4	0.013937179
49	0xbdfaada0	-0.122401476
50	0x3e26c74f	0.16286968
51	0x3cc7cf36	0.024390798
52	0xbc8906ed	-0.016726935
53	0xbc4316b3	-0.011907267
54	0x3d16c0d1	0.036804978
55	0x3c8bf818	0.017086074
56	0x3e00acf2	0.12565973
57	0xbd460cc3	-0.048352014
58	0x3e5d7829	0.21627869
59	0xbe36c168	-0.17847216
60	0xbb0331f0	-0.0020018779
61	0x3de22f57	0.110441856
62	0x3e0e1482	0.1387501
63	0x3dfb9cc5	0.12285761
64	0x3e541dd4	0.20714504
65	0x3dd22c34	0.10262337
66	0xbde773e2	-0.113014
67	0xbc8b293b	-0.016987434
68	0x3dc08508	0.09400374
69	0x3b14d288	0.0022708494
70	0x3e05baac	0.13059491
71	0x3b7dd922	0.0038734158
72	0x3dc4bebd	0.09606693
73	0x3d1e2b12	0.038615294
74	0x3e5c7e7b	0.21532623
75	0x3e8ec211	0.27882436
76	0x3da07e97	0.07836645
77	0x3e550101	0.20801164
78	0x3ce8a557	0.028399153
79	0x3dd04c99	0.1017086
80	0x3d8a0a67	0.06740265
81	0x3e787c49	0.24266161
82	0x3beb9774	0.0071896855
83	0xbca3e6a8	-0.020007446
84	0x3e3cf4de	0.18452784
85	0x3e128b32	0.14310911
86	0x3d8a1763	0.06742742
87	0x3cc91e66	0.024550628
88	0x3cf5c3ad	0.030000532
89	0x3ea0c5ee	0.31401008
90	0x3e241c03	0.1602631
91	0xbe3ed3c9	-0.18635477
92	0x3e45e637	0.19326101
93	0x3dfe2078	0.12408537
94	0x3d7e3141	0.06205869
95	0x3d4efa05	0.050531406
96	0x3d7576e1	0.059927825
97	0xbe2c82c0	-0.16846752
98	0xbd199f72	-0.037505575
99	0x3d06cd0d	0.032910395
100	0x3d85bc88	0.065301
101	0x3c3ad09e	0.011402277
102	0x3cd698b2	0.026195858
103	0xbd1140f5	-0.03546234
104	0x3e0f5f51	0.14001204
105	0xbdea2761	-0.11433292
106	0x3de3e34b	0.11127337
107	0x3d802166	0.0625637
108	0x3d8576af	0.06516778
109	0x3d71374d	0.05889063
110	0x3dee6493	0.11640277
111	0x3e169821	0.1470647
112	0x3de6b150	0.112642884
113	0xbcc56950	-0.024098068
114	0xbc8292c4	-0.015939124
115	0x3d9cfd5f	0.07665514
116	0x3e444563	0.19167094
117	0x3dc96db9	0.09835381
118	0x3ccaedf1	0.024771662
119	0x3b27ed2d	0.0025623546
120	0x3e010404	0.12599188
121	0x3e1e42fd	0.15455242
122	0x3db15c6a	0.08660205
123	0xbe1862c6	-0.14881429
124	0x3ceedeb1	0.029158922
125	0x3e1e7340	0.15473652
126	0xbcb35384	-0.02189041
127	0x3d9bc188	0.076052725
128	0x3e45de26	0.19323024
129	0x3dce3d8a	0.100703314
130	0x3e581b5c	0.21104187
131	0x3e0e1f85	0.13879211
132	0x3d8a5f8c	0.06756505
133	0x3e7b7fcf	0.24560474
134	0xb8d21990	-0.00010018342
135	0x3e1ee5da	0.15517369
136	0x3c52db82	0.012869718
137	0x3e3b9166	0.18317184
138	0xbe68ed00	-0.22746658
139	0x3db03a34	0.08604851
140	0x3e073262	0.13202813
141	0x3e6c890e	0.23099157
142	0x3e971519	0.29508284
143	0xbdcc6c9a	-0.099816516
144	0xbe424967	-0.18973313
145	0x3dc08eab	0.09402212
146	0xbd808b86	-0.06276612
147	0xbda71773	-0.081587695
148	0x3ca8a167	0.020584775
149	0x3dea40f2	0.114381686
150	0xbe25df2c	-0.16198415
151	0x3d9580b0	0.07299936
152	0x3e08883e	0.13333222
153	0x3e2ab31a	0.16669884
154	0x3dba2615	0.09089295
155	0x3daefde1	0.08544517
156	0x3d59443b	0.053043585
157	0x3bb22493	0.005436489
158	0x3de8262d	0.113354065
159	0x3da5b044	0.080902606
160	0x3d5dad52	0.05412037
161	0x3e73e801	0.23818971
162	0x3df2c223	0.11853435
163	0x3ddc6661	0.10761715
164	0x3e3c1788	0.18368351
165	0x3c12ebed	0.008967382
166	0x3dfe93fc	0.124305695
167	0x3d8e9203	0.06961443
168	0x3dda2066	0.10650711
169	0xbd86e591	-0.06586755
170	0x3db89bf8	0.09014124
171	0x3d0873be	0.033313505
172	0x3c7ad6bf	0.0153099885
173	0x3e1a16f7	0.15047823
174	0x3db4d70f	0.08830082
175	0xbdc426e6	-0.09577732
176	0x3dc3590e	0.0953847
177	0x3e6199c3	0.22031312
178	0xbe007966	-0.1254631
179	0x3e82d139	0.2555025
180	0x3e87362a	0.2640851
181	0xbc22dcc4	-0.00994033
182	0x3db1387b	0.08653351
183	0x3ced49e6	0.028965902
184	0x3d8693bc	0.06571147
185	0xbd9ba7e7	-0.07600384
186	0x3e1f71c7	0.15570746
187	0x3e1a06ce	0.15041658
188	0x3c7dc3bc	0.015488561
189	0x3c76d8f9	0.015066379
190	0x3dbe6cef	0.09298121
191	0x3dca35db	0.09873553
192	0xbda18292	-0.078862324
193	0x3e856e8a	0.26060897
194	0xbd6d494b	-0.057931226
195	0x3e7713d2	0.24128655
196	0xbdb5e22f	-0.08881032
197	0x3d6d086b	0.057869356
198	0xbd70fe48	-0.05883625
199	0x3dd64ad4	0.10463491
200	0x3d6307d8	0.055427402
201	0x3ea6f393	0.32607707
202	0xbd111c55	-0.03542741
203	0x3dadb3e9	0.08481581
204	0x3b8161e1	0.0039484357
205	0x3ca66f77	0.020316822
206	0xbde0e6e2	-0.109815374
207	0x3e0872ad	0.13324995
208	0x3e44fdc6	0.19237432
209	0xbdf01bbe	-0.117240414
210	0x3d90afad	0.070647575
211	0x3e43c32c	0.19117421
212	0x3d416ccd	0.0472229
213	0xbc9af23c	-0.018914334
214	0x3e14ebe7	0.14543115
215	0x3de93e65	0.11388854
216	0x3bf05a70	0.0073349997
217	0x3d62f729	0.05541149
218	0xbba23da2	-0.004951195
219	0x3dfcc99e	0.12343143
220	0x3e448993	0.19193105
221	0x3da140e8	0.07873708
222	0xbbe4deeb	-0.0069845817
223	0x3dd559fb	0.10417553
224	0x3ca2fd64	0.019896217
225	0x3c56945e	0.013096897
226	0x3d4dd7ab	0.050254505
227	0x3df4c31c	0.11951277
228	0x3dcc7e10	0.09984982
229	0x3dea9ae8	0.11455327
230	0xbda90d3c	-0.082544774
231	0x3d48bbd7	0.049007263
232	0x3df341c2	0.11877777
233	0x3e99b7f1	0.3002315
234	0x3d4a3daf	0.049375232
235	0x3ebd1ebc	0.3693751
236	0xbc69e6fd	-0.014276263
237	0xbd5e1364	-0.05421771
238	0x3ddda11a	0.10821743
239	0xbd1d3ad8	-0.038386196
240	0x3d20521e	0.039140813
241	0x3e58ec90	0.21183991
242	0xbdb0bf9c	-0.086302966
243	0xbd3b3a87	-0.045710113
244	0xbd534865	-0.051582713
245	0x3d3e5cb8	0.046475142
246	0x3d960660	0.07325435
247	0x3da0b077	0.07846158
248	0x3dac1f2c	0.08404383
249	0x3bfc4ea2	0.0076998034
250	0x3e03faf5	0.12888701
251	0x3e6df4b7	0.23237883
252	0x3e2070a4	0.15667969
253	0xbe254ce7	-0.16142617
254	0x3e09ff7c	0.13476366
255	0x3ccefc0e	0.025266673

fc2.weight f4 [128, 256]
0	0x3ca68b39	0.020330058
1	0x3e91562a	0.2838605
2	0xbe65d432	-0.22444227
3	0xbe152a5c	-0.1456694
4	0x397621ae	0.00023472935
5	0x3ddc94c2	0.10770561
6	0x3c6931f3	0.0142331
7	0xbe3c5adc	-0.18394035
8	0xbcc19c71	-0.023634167
9	0x3de8b9ff	0.11363601
10	0x3ea3c0f2	0.31983143
11	0xbd768d98	-0.060193628
12	0x3e073f82	0.1320782
13	0x3e64024c	0.22266501
14	0xbc00f9a2	-0.007872017
15	0x3e9cf585	0.30656067
16	0xbeaf87f8	-0.34283423
17	0x3d735801	0.0594101
18	0x3c23d05f	0.00999841
19	0x3bc6d0fd	0.006067394
20	0xbba63f23	-0.0050734445
21	0xbe942978	-0.28937888
22	0xbd94f97b	-0.07274147
23	0x3e07ed15	0.13274033
24	0xbdc7488b	-0.09730633
25	0xbd0d9c8a	-0.034573115
26	0xbe234bbf	-0.15946864
27	0x3d3e912a	0.046525158
28	0xbdaf76db	-0.08567592
29	0x3c6fd2bd	0.014637646
30	0x3e6d512d	0.23175497
31	0x3e8273b1	0.2547889
32	0x3d6d9583	0.058003914
33	0x3eaee8e3	0.34162053
34	0x3c991bb9	0.018689977
35	0x3d1659c1	0.03670669
36	0x3e2fbde0	0.17162275
37	0x3e4a612a	0.19763628
38	0xbdf9145e	-0.12162088
39	0xbdcf5064	-0.10122755
40	0xbd7a1508	-0.061055213
41	0x3cee4bb4	0.029088832
42	0xbdbe860e	-0.09302913
43	0xbe9fa96a	-0.3118394
44	0xbe5959c4	-0.21225649
45	0x3ea009ea	0.31257564
46	0x3e4c1724	0.19930702
47	0x3d14d8a9	0.036339436
48	0x3eaab49b	0.33340916
49	0x3d641182	0.05568076
50	0xba569892	-0.0008186187
51	0xbcd667b5	-0.026172498
52	0x3df8980d	0.121383764
53	0xbe440fb7	-0.1914662
54	0x3e76b757	0.24093376
55	0x3c90e153	0.017685568
56	0xbe477cef	-0.19481252
57	0xbeb4cc35	-0.35312048
58	0xbe9a8fcd	-0.30187836
59	0x3ddf0f97	0.108916454
60	0xbe174715	-0.1477321
61	0xbe329747	-0.1744052
62	0xbdd0e3ed	-0.101997234
63	0x3dffd3d7	0.12491577
64	0xbdacaaf0	-0.08431041
65	0x3eac9057	0.33703873
66	0x3e21e943	0.15811639
67	0x3e1521a9	0.14563622
68	0xbe19e1e0	-0.1502757
69	0xbe9b7585	-0.30363098
70	0xbe1858db	-0.14877646
71	0x3ea735e6	0.3265831
72	0xbea5f5a2	-0.32413965
73	0x3d77db8d	0.060512114
74	0x3bed6073	0.0072441637
75	0xbe08fa9a	-0.13376847
76	0xbd041f73	-0.032256555
77	0x3bc454a4	0.0059915353
78	0x3e93a6b3	0.2883812
79	0xbd4e8a30	-0.050424755
80	0x3d8ab495	0.067727245
81	0x3e13f97a	0.14450637
82	0xbd78ddc7	-0.06075838
83	0xbe99e719	-0.30059126
84	0x3e48f115	0.19623215
85	0xbdb303e9	-0.0874098
86	0x3d4b83ba	0.04968617
87	0xbd136325	-0.035983223
88	0x3e4926c0	0.19643688
89	0x3e4e678a	0.20156685
90	0xbe13e731	-0.14443661
91	0x3d75549f	0.059895154
92	0xbd42e9b2	-0.04758615
93	0xbda84739	-0.0821671
94	0x3d1bc8b5	0.038033206
95	0xbe8ee9d3	-0.2791277
96	0xbd91edba	-0.07125421
97	0xbd0f2273	-0.034944963
98	0xbdf6b771	-0.120467074
99	0x3db3712e	0.08761822
100	0x3ea0d225	0.31410328
101	0x3b914d83	0.004434289
102	0xbe1d7d08	-0.15379727
103	0xbddf4d4f	-0.10903417
104	0xbe05724c	-0.13031882
105	0xbe0fe1e8	-0.1405102
106	0x3e367f17	0.17821918
107	0xbdf5aec2	-0.11996223
108	0x3d20656d	0.039159227
109	0x3e0aa58f	0.13539718
110	0x3e575f38	0.21032417
111	0x3ceac3af	0.028657762
112	0x3e084fd2	0.13311699
113	0x3c1bd306	0.009510761
114	0xbd1a6719	-0.037695978
115	0x3eea579a	0.4576996
116	0xbdbe499b	-0.09291383
117	0xbd9df516	-0.07712762
118	0xbd2f5acd	-0.042811204
119	0x3d70b00c	0.05876164
120	0x3d5e0689	0.05420545
121	0x3d721989	0.059106383
122	0x3de12db0	0.10995042
123	0x3b051dd4	0.0020311968
124	0x3cd94048	0.02651991
125	0x3de67cea	0.11254294
126	0xbde3ddf2	-0.11126317
127	0x3d4525c5	0.048131723
128	0xbe6adec4	-0.22936541
129	0x3db27050	0.08712828
130	0xbe319e76	-0.17345604
131	0x3dbaea26	0.091266915
132	0xbd2fadda	-0.042890407
133	0xbd88de95	-0.06683079
134	0x3de63a63	0.11241605
135	0x3e2dbb80	0.16966057
136	0xbd25ab5c	-0.040446624
137	0x3dcc3dce	0.09972726
138	0xbde6c7c9	-0.11268575
139	0x3e7d54c2	0.24739364
140	0xbd761508	-0.06007865
141	0xbd52c050	-0.051452935
142	0x3e643c73	0.22288685
143	0xbd201f67	-0.039092448
144	0xbe8a5778	-0.27019858
145	0x3e257ea7	0.16161595
146	0x3d465690	0.048422396
147	0xbd6f4ec9	-0.058424745
148	0x3e45bfab	0.19311397
149	0xbc87e0cd	-0.016586686
150	0x3d9fcd03	0.07802775
151	0x3e3bf4b7	0.1835507
152	0xbda63f9f	-0.081176035
153	0xbda187eb	-0.078872524
154	0xbb859367	-0.0040764096
155	0x3e54ca52	0.20780304
156	0x3dc4d9fd	0.096118905
157	0xbdc53d59	-0.09630842
158	0x3e8d6cc3	0.2762204
159	0x3e3619de	0.17783305
160	0x3e8518a0	0.2599535
161	0xbecc95a4	-0.39957917
162	0xbe46d62f	-0.19417642
163	0x3cacb020	0.021080077
164	0x3e6492d8	0.22321641
165	0x3e1e0b7e	0.15434071
166	0xbd338022	-0.04382337
167	0xbd310e0a	-0.04322628
168	0x3d0911ad	0.033464123
169	0xbdef9352	-0.11698021
170	0x3e973a1b	0.29536518
171	0x3d7a7a16	0.061151586
172	0xbd81cbcf	-0.063377015
173	0x3e16972e	0.14706108
174	0xbead902f	-0.33899066
175	0x3dc04914	0.093889385
176	0x3de03ba5	0.10948876
177	0x3e15e572	0.14638308
178	0xbe408149	-0.18799318
179	0xbc239ebc	-0.009986576
180	0x3d196bb6	0.037456237
181	0xbd69b328	-0.057055622
182	0x3cfc2895	0.03078107
183	0xbd8d0269	-0.06885225
184	0x3dd65773	0.10465898
185	0x3e0c0237	0.1367272
186	0x3d9a7e3d	0.07543609
187	0xbe33cdd7	-0.1755899
188	0x3e3713d4	0.17878658
189	0xbe196730	-0.14980769
190	0xbeb9d296	-0.36293477
191	0x3e176cee	0.14787647
192	0xbd3f082d	-0.046638656
193	0xbb3c1f8d	-0.002870533
194	0xbc0eec8a	-0.0087233875
195	0x3c600549	0.013673135
196	0xbe0ac64a	-0.13552204
197	0xbe25d6f6	-0.16195282
198	0x3d84d17a	0.06485267
199	0x3e4963bc	0.19666952
200	0x3e1ebc6f	0.15501569
201	0x3d29ec78	0.04148528
202	0x3e1417de	0.1446223
203	0xbe1561cf	-0.14588092
204	0x3d2a5ed9	0.04159436
205	0xbe11b1d1	-0.14227988
206	0xbda130cf	-0.078706376
207	0xbedc8025	-0.43066517
208	0xbe9f56fb	-0.31121048
209	0x3df3e117	0.11908167
210	0xbc3b7027	-0.011440313
211	0xbedce984	-0.43146908
212	0x3d7a3bdd	0.061092246
213	0xbd919f41	-0.071104534
214	0xbec4a4a8	-0.38406873
215	0x3da96485	0.08271126
216	0xbaf32a8b	-0.0018552108
217	0xbd5df628	-0.05418983
218	0xbe2247b5	-0.15847667
219	0xbdad4617	-0.08460634
220	0xbe07eda8	-0.13274252
221	0xbe382dde	-0.17986247
222	0xbc2ada10	-0.010427967
223	0x3e267486	0.16255388
224	0x3e46acaf	0.19401811
225	0xbedfe049	-0.43725803
226	0xbe2d620b	-0.16931932
227	0xbc2275da	-0.009915793
228	0x3ea275fa	0.31730634
229	0xbd42176d	-0.04738562
230	0xbd7a0bd5	-0.06104644
231	0x3e0f88ca	0.14017025
232	0xbddcb0e6	-0.10775928
233	0xbd2e1447	-0.042499807
234	0x3da9e379	0.0829534
235	0x3cfe0605	0.03100873
236	0xbdae3990	-0.08507073
237	0x3d5d8d98	0.054090112
238	0x3e42338f	0.1896498
239	0xbef9ead5	-0.48811975
240	0x3c936dac	0.017996632
241	0xbf13991b	-0.57655495
242	0xbea36f56	-0.3192088
243	0x3e9e4d99	0.30918577
244	0xbe0b504e	-0.13604853
245	0x3d652d6c	0.05595152
246	0x3f03b1fd	0.51443464
247	0xbeda7499	-0.42667082
248	0x3dbeed2d	0.093225814
249	0xbe8eff8d	-0.27929345
250	0xbed39bb7	-0.41329738
251	0x3d93503e	0.07193039
252	0xbac3bdb5	-0.0014933856
253	0x3e9ae084	0.30249417
254	0x3d7237f8	0.059135407
255	0xbdea4fd7	-0.114410095

fc2.bias f4 [128]
0	0x3ddc1dfa	0.10747905
1	0xbd4ae587	-0.0495353
2	0xbd8e2438	-0.06940502
3	0x3d749bf5	0.059719045
4	0xbd5548ee	-0.052071504
5	0x3d017d5b	0.03161369
6	0xbc646c70	-0.013941869
7	0xb9e24625	-0.0004315834
8	0x3d4c8b41	0.04993749
9	0xbb323d7c	-0.0027197292
10	0xbc752590	-0.014962569
11	0x3cd19cff	0.025587557
12	0x3cda97c4	0.026683696
13	0xbdb77d64	-0.08959463
14	0x3d82cdb6	0.063868925
15	0xbc96c78c	-0.018405698
16	0x3e3145e0	0.17311811
17	0xbc317331	-0.010830686
18	0x3da893a7	0.082312874
19	0x3caf4fa9	0.02140029
20	0xbd6fa038	-0.058502406
21	0xbcb05b66	-0.021527957
22	0x3d3ebcc3	0.046566736
23	0x3d29de62	0.041471846
24	0xbda4e09f	-0.080506556
25	0xbe106d8d	-0.1410429
26	0x3b6ec525	0.0036433425
27	0xbd038d9f	-0.032117482
28	0x3d9ab126	0.0755332
29	0x3c52520c	0.012836944
30	0xbdd528bb	-0.10408159
31	0xbc670e61	-0.014102549
32	0x3db0b1b1	0.08627642
33	0x3d3800c1	0.044922594
34	0x3d71db01	0.05904675
35	0xbb91c394	-0.0044483636
36	0x3dc7cc6d	0.09755788
37	0x3e02ec5e	0.1278548
38	0x3d296930	0.04136008
39	0x3dd5a67e	0.104321465
40	0x3ded6d5a	0.11593123
41	0x3d83829a	0.06421395
42	0xbdd3cffe	-0.10342406
43	0x3c396ef5	0.011317958
44	0x3d841a8a	0.064503744
45	0x3de16783	0.110060714
46	0xbda60d13	-0.081079625
47	0xbce51134	-0.027962305
48	0x3d3e1f10	0.046416342
49	0x00000000	0.0
50	0xbcb1bb09	-0.02169563
51	0xbd4addc7	-0.04952791
52	0xbd02de1e	-0.03195011
53	0x3b3f392d	0.0029178367
54	0xbc4dd213	-0.012562293
55	0x3c8c63bd	0.017137403
56	0x3d11c8c6	0.035591863
57	0x3cb0d8d5	0.021587769
58	0x3c0d6bf7	0.008631698
59	0x3cfb38d0	0.030666739
60	0xbd4f8281	-0.050661568
61	0x3d3627d5	0.04447158
62	0x3e205aab	0.15659587
63	0x3d836a24	0.06416729
64	0x3cf3a271	0.029740544
65	0xbc31715b	-0.010830249
66	0x3ca8eaf6	0.02061985
67	0x3dcb3536	0.099222586
68	0xbce40b94	-0.027837552
69	0x3e11e5a6	0.1424776
70	0x3cdf97b1	0.027294012
71	0x3d8cbf4d	0.06872425
72	0x3ddb2b95	0.10701672
73	0x3dba27dd	0.090896346
74	0x3c91d513	0.017801797
75	0x3ccb1040	0.024788022
76	0xbd34c985	-0.044137497
77	0x3dc3ea82	0.09566213
78	0x3d95cefe	0.07314871
79	0xbd10f658	-0.03539118
80	0x3e04ecfd	0.12981029
81	0xbced5d2d	-0.028975094
82	0x3c9f0a1d	0.019414002
83	0x3dfbee87	0.12301355
84	0x3da3d23c	0.079990834
85	0xbc245925	-0.010031019
86	0x3e09e208	0.1346513
87	0x3dfd922d	0.123813964
88	0xbbf10291	-0.0073550423
89	0xbd27f4de	-0.041005008
90	0xbd0bae55	-0.034101803
91	0x3dfb305f	0.122650854
92	0x3ccaeea4	0.024771996
93	0x3dc03e07	0.09386831
94	0x3ac82cc1	0.0015272127
95	0xbd9a9cbd	-0.07549427
96	0xbd2cfe12	-0.042234488
97	0x3db3d181	0.08780194
98	0xbd9877eb	-0.074447475
99	0xbb949729	-0.0045346213
100	0xbd730776	-0.059333287
101	0x3d5a8a0b	0.053354304
102	0xbd23facc	-0.0400341
103	0xbddd0ded	-0.10793672
104	0xbca6791b	-0.02032142
105	0x3e0989c1	0.13431455
106	0x3ca0778a	0.01958825
107	0xbd30cf48	-0.04316643
108	0x3d7c378c	0.06157641
109	0xbbcea4f2	-0.006306284
110	0x3d9e19c5	0.07719759
111	0x3e06f0a7	0.13177739
112	0x3cf18317	0.029481454
113	0x3d9fcbfe	0.0780258
114	0x3c336c85	0.010951166
115	0x3d2ae4d6	0.04172214
116	0x3d820465	0.063484944
117	0x3de8a81c	0.11360189
118	0x3ccb7da9	0.024840193
119	0xbd31eb82	-0.04343749
120	0x3dc81bd3	0.09770932
121	0xbd93148e	-0.07181655
122	0xbdc9838c	-0.09839544
123	0x3cb787a8	0.022403553
124	0x3d07b40f	0.0331307
125	0xbca10bae	-0.01965889
126	0x3c8b71c5	0.017022023
127	0x3dbe2ee3	0.09286287

fc3.weight f4 [4, 128]
0	0x3e952e74	0.29137003
1	0xbe41817c	-0.1889705
2	0x3ea42e8b	0.3206676
3	0x3f14dc43	0.5814859
4	0xbe6b5d9a	-0.22984925
5	0x3eaa955d	0.3331708
6	0x3f2bc3f1	0.6709586
7	0xbe4f1a10	-0.20224786
8	0x3edd3de5	0.43211284
9	0x3deabd1f	0.11461853
10	0x3e7e5a8b	0.24839227
11	0x3df1121f	0.117710344
12	0x3e775717	0.24154316
13	0xbf004ecc	-0.50120234
14	0x3ef33e51	0.4750848
15	0xbdc0ba5f	-0.094105475
16	0xbea7c268	-0.32765508
17	0x3d6237d8	0.055229038
18	0x3e96082c	0.2930311
19	0xbea123b2	-0.31472546
20	0xbeb3c8f8	-0.35114264
21	0x3efc02de	0.49220937
22	0x3f16f5c1	0.5896874
23	0x3f1d24ec	0.61384463
24	0x3ee9c1c4	0.45655644
25	0x3f293d8c	0.6610954
26	0x3dab2ef8	0.08358568
27	0xbe3bfd1e	-0.18358275
28	0xbeb6af5a	-0.35680658
29	0x3e83594a	0.2565406
30	0x3ed61f87	0.41820928
31	0xbcf2f29c	-0.0296567
32	0xbe19566f	-0.14974378
33	0x3f050cc2	0.5197259
34	0x3e920101	0.2851639
35	0x3ebf8456	0.37405652
36	0xbb1f4353	-0.0024301603
37	0xbe3a8182	-0.18213466
38	0xbe720e93	-0.23638372
39	0xbe6ccd3c	-0.23125166
40	0x3f2d4a91	0.67691904
41	0x3d89f012	0.06735243
42	0xbe842b5b	-0.25814328
43	0xbf2092aa	-0.6272379
44	0xbc84092b	-0.016117653
45	0xbe7ca7b3	-0.24673347
46	0xbe879bd1	-0.26486066
47	0xbe1ef227	-0.15522061
48	0xbe9cb7c2	-0.30608946
49	0xbe4079de	-0.18796489
50	0xbe57e298	-0.21082532
51	0x3e8cb7b9	0.2748392
52	0xbf0417e6	-0.51598966
53	0xbf115ee5	-0.5678542
54	0x3e3cfa9e	0.18454978
55	0xbd48c150	-0.049012482
56	0xbe904001	-0.2817383
57	0x3e80bb3d	0.2514285
58	0xbe49e460	-0.19716024
59	0x3e8c2c1c	0.27377403
60	0x3d2657ec	0.040611193
61	0x3ef9b201	0.4876862
62	0xbe25e1af	-0.16199373
63	0x3ee62de3	0.44956884
64	0xbd782e53	-0.060591053
65	0xbec69145	-0.38782707
66	0x3f12050b	0.57038945
67	0xbe4bc097	-0.19897686
68	0xbf0fcbbd	-0.56170255
69	0xbf381ba0	-0.7191715
70	0xbdcbb5a4	-0.099467546
71	0x3eca3965	0.39496914
72	0xbce6252f	-0.028093902
73	0x3eda7ba6	0.4267246
74	0xbeb05e10	-0.34446764
75	0x3e606d14	0.2191661
76	0xbeb72349	-0.35769108
77	0x3e934b0a	0.28768188
78	0x3e48b6be	0.1960096
79	0x3dd20e54	0.10256639
80	0x3e0554aa	0.13020578
81	0x3f14b81c	0.5809343
82	0x3d3a5270	0.045488775
83	0x3ecd1af0	0.40059614
84	0xbefdf122	-0.49598032
85	0x3e825f1b	0.25463185
86	0x3f04a269	0.5181032
87	0xbe5201e1	-0.20508529
88	0xbe703285	-0.23456772
89	0xbea9292f	-0.33039233
90	0x3e274bbe	0.16337487
91	0xbe5e1c3c	-0.21690458
92	0xbdee5ccd	-0.11638794
93	0xbf129ac8	-0.5726743
94	0xbe7994e7	-0.24373208
95	0xbe532d5d	-0.20622773
96	0xbf0d8bfe	-0.55291736
97	0x3eebfb33	0.46090087
98	0xbe8d1d88	-0.27561593
99	0xbe15e510	-0.14638162
100	0xbe204a09	-0.15653242
101	0xbec4a7fe	-0.38409418
102	0xbea2ad2f	-0.31772754
103	0xbd9ddde7	-0.0770834
104	0x3ecf4da9	0.40488937
105	0x3ef46db0	0.47739935
106	0xbe5f0332	-0.21778563
107	0x3d98b2b0	0.07455957
108	0x3eab5043	0.33459672
109	0xbddf66a5	-0.1090825
110	0xbeedc114	-0.4643637
111	0xbe01b04c	-0.12664908
112	0xbdd79498	-0.10526389
113	0xbe90f3a4	-0.28310883
114	0x3d9b15a3	0.07572486
115	0xbe30c0b3	-0.17261009
116	0xbe537f9e	-0.20654151
117	0x3f35872d	0.70909387
118	0xbeaf51e8	-0.34242177
119	0x3e06b322	0.13154271
120	0xbf1a245d	-0.60211736
121	0xbe21a4b8	-0.15785491
122	0xbdf1c430	-0.11804998
123	0x3e5b2e45	0.21404369
124	0xbe9b02c7	-0.30275556
125	0xbe95a3a7	-0.2922642
126	0xbea0dc7c	-0.31418216
127	0xbe9ff1ee	-0.31239265
128	0x3e45cacc	0.19315642
129	0xbede9a81	-0.43477252
130	0x3ea2efc7	0.3182356
131	0xbdc031af	-0.093844764
132	0xbe4c7b40	-0.19968891
133	0xbdf82aac	-0.12117514
134	0x3f03be40	0.51462173
135	0xbf0655b3	-0.52474517
136	0x3dacc41f	0.08435845
137	0xbdfdd980	-0.123950005
138	0x3ee347b2	0.44390637
139	0x3f0985bd	0.53719693
140	0x3eb2cc03	0.34921274
141	0xbe856c8e	-0.26059383
142	0x3eab7c9f	0.33493516
143	0xbc346a3c	-0.011011656
144	0x3c6a78bb	0.014311011
145	0xbd630be0	-0.055431247
146	0x3eed044b	0.46292338
147	0xbe564a5a	-0.209268
148	0xbe02cbcc	-0.12773055
149	0x3d5c0a53	0.053720783
150	0x3e11b991	0.14230944
151	0x3ecc8525	0.3994533
152	0xbebb00b4	-0.36523974
153	0x3ece734d	0.40322343
154	0xbe33ff43	-0.17577843
155	0xbefd7502	-0.49503332
156	0xbe6d105c	-0.23150772
157	0x3ee024ec	0.4377817
158	0x3de3acf2	0.11116971
159	0x3d5a34a5	0.053272862
160	0xbeeb008d	-0.45898858
161	0xbe9e32be	-0.30898088
162	0x3e3c2fd9	0.18377627
163	0x3e2d1b6f	0.16904996
164	0x3f1b09fe	0.6056212
165	0xbeacfa0f	-0.3378453
166	0xbe94de3a	-0.29075795
167	0xbe71d03b	-0.2361459
168	0x3eaa55f3	0.332687
169	0x3eaf3301	0.342186
170	0xbe044302	-0.12916186
171	0xbe333372	-0.17500094
172	0xbe9644ee	-0.29349464
173	0xbe8b3a5a	-0.27192956
174	0xbe4fc5ab	-0.20290248
175	0xbc798f9b	-0.015231992
176	0xbeb98a15	-0.3623816
177	0xbc582c5f	-0.013194173
178	0xbe998ad5	-0.29988733
179	0x3f5a6059	0.85303265
180	0xbefbfda4	-0.4921695
181	0xbe4b6cdf	-0.1986575
182	0x3e7dfc7f	0.24803351
183	0x3ce2ff17	0.027709527
184	0xbd8c8c74	-0.06862727
185	0x3f01c4b9	0.506908
186	0xbd56afa9	-0.052413616
187	0x3f0d9d46	0.55318105
188	0x3e8c665c	0.27421844
189	0x3e9e1290	0.30873537
190	0xbe2d3a4d	-0.16916771
191	0x3f04a7cc	0.5181854
192	0xbe05475e	-0.13015506
193	0xbeaef1c2	-0.34168822
194	0x3eef5166	0.4674179
195	0xbd2becb3	-0.04197378
196	0xbd7e73a5	-0.062122006
197	0xbdec38fd	-0.11534307
198	0x3eb54979	0.35407618
199	0x3e29d394	0.16584617
200	0x3eb7ddab	0.35911307
201	0x3e85e52c	0.26151407
202	0xbe4087be	-0.18801782
203	0xbe0d3f33	-0.1379364
204	0xbe9ad504	-0.30240643
205	0x3eac6680	0.3367195
206	0x3f035ef0	0.5131674
207	0xbdc9bd1e	-0.09850524
208	0x3e1543d5	0.14576657
209	0x3ddf9f9c	0.10919115
210	0x3e279637	0.16365896
211	0x3dbb3822	0.09141566
212	0xbe3869bf	-0.18009089
213	0xbd0835e1	-0.033254508
214	0x3f1666b6	0.58750474
215	0xbee9ac36	-0.456392
216	0xbef92cfa	-0.48667127
217	0xbd62dac0	-0.055384398
218	0xbe47e8f7	-0.19522463
219	0xbe7999bd	-0.24375053
220	0xbe6ff450	-0.23433042
221	0xbe906471	-0.2820163
222	0xbf11b151	-0.5691119
223	0xbe2f0d46	-0.17094907
224	0xbf09dfaa	-0.5385691
225	0x3ea5e5ce	0.3240189
226	0xbccff14f	-0.02538362
227	0xbe91a689	-0.2844737
228	0xbdc107ed	-0.0942534
229	0xbde6c8f9	-0.11268801
230	0xbf088152	-0.5332233
231	0xbc0542f4	-0.008133639
232	0x3ed15ea3	0.40892515
233	0x3ef6728e	0.48134273
234	0xbe7b0249	-0.2451259
235	0x3ec6de27	0.38841364
236	0x3ea3f0b6	0.32019585
237	0xbf1ee5b0	-0.62069225
238	0xbebc62bb	-0.36794075
239	0xbeaeefba	-0.34167272
240	0xbe812202	-0.25221258
241	0xbe0e9ef8	-0.1392783
242	0x3c02e3d2	0.007988887
243	0xbe8921c3	-0.2678357
244	0x3dd8bfc0	0.105834484
245	0x3e6b9ec9	0.2300979
246	0xbe53dd1f	-0.2068982
247	0xbc8c67b1	-0.017139288
248	0xbedabd1b	-0.427224
249	0xbe784de6	-0.24248466
250	0xbeacb0d4	-0.3372866
251	0x3e9a8f28	0.30187345
252	0xbe23f21e	-0.16010329
253	0xbe17425b	-0.14771406
254	0xbf022258	-0.50833654
255	0xbe706fe8	-0.23480189

fc3.bias f4 [4]
0	0xbcdf3fb3	-0.027252054
1	0xbd87d2b2	-0.06631984
2	0x3d3bb4f5	0.04582687
3	0xbe18326b	-0.14862983

exp_avg f4 [256, 8]
0	0xbb0df331	-0.0021659846
1	0x3c926681	0.017871143
2	0xbc7ea886	-0.015543109
3	0x39a6fbb4	0.0003184952
4	0x3b1ab72f	0.002360772
5	0x3c3d5eb7	0.011558226
6	0xbcc2b1f8	-0.023766503
7	0xbc93e3cb	-0.018052956
8	0x3be0b012	0.0068569267
9	0x3c3cc5d0	0.011521772
10	0x3c77ee87	0.015132553
11	0x38019199	3.0891595e-05
12	0xbb9e2d6e	-0.004827193
13	0x3cf1027c	0.02942013
14	0x3ceadb64	0.028669067
15	0x3c8677e2	0.016414586
16	0xba818fa9	-0.0009884733
17	0xbd20779e	-0.039176576
18	0x3bba50ba	0.005685893
19	0x3b4a437d	0.003086298
20	0xbca5536e	-0.020181384
21	0xbb04d693	-0.0020269498
22	0xbd35a1a5	-0.04434361
23	0xbcedc310	-0.029023677
24	0x3b3732e0	0.0027953908
25	0xbd6f5d1b	-0.0584384
26	0xbd06c33c	-0.032901034
27	0x3cb42a64	0.02199287
28	0xbb3a591b	-0.0028434459
29	0xbc5e67dc	-0.013574567
30	0x3a85a395	0.0010195846
31	0x3b8598a5	0.0040770345
32	0x3cd5953b	0.026072135
33	0xbbf5ba18	-0.0074989907
34	0xbd7b49a8	-0.06134954
35	0xbcc6aa18	-0.024251029
36	0x3cdb65fa	0.026782025
37	0xbbab9a9a	-0.005236936
38	0x39f0101a	0.00045788364
39	0x3cac3b88	0.02102448
40	0xbbde0890	-0.006775923
41	0x3d74e5f4	0.059789613
42	0x3d2321d3	0.03982718
43	0xbbd1edf8	-0.006406542
44	0x3c187904	0.009306196
45	0xbbccc67f	-0.0062492485
46	0xba33bb2a	-0.0006856198
47	0xbc214c0a	-0.009844789
48	0x3c0faea6	0.008769667
49	0xbad187e7	-0.0015985937
50	0xbc2f63e1	-0.010704965
51	0xbc64a46b	-0.013955216
52	0x3c3be9cb	0.011469315
53	0xbc959e14	-0.018263854
54	0xbc19c67d	-0.009385702
55	0x3a1d69c2	0.0006004834
56	0x3bbf99fb	0.0058472133
57	0xbad4da44	-0.0016239365
58	0xbcd4310e	-0.025902297
59	0xbc8b1d23	-0.016981667
60	0x3cb16639	0.021655189
61	0x3ca21420	0.019784987
62	0xbd247ea9	-0.040159855
63	0xbcdb718e	-0.026787546
64	0x3ae25a7e	0.00172694
65	0x3bb98d5c	0.0056626033
66	0xba1d1b1d	-0.0005993115
67	0x3a7aa188	0.0009560813
68	0x3b88ad20	0.0041710287
69	0x3b7bae20	0.0038403347
70	0x3a3dad2a	0.0007235581
71	0xbb83229f	-0.00400193
72	0x3aadb245	0.0013251981
73	0xbb062f68	-0.0020475034
74	0xbc1ad78e	-0.009450806
75	0xb9166f43	-0.00014346563
76	0x3c3e6329	0.011620321
77	0xb92c6549	-0.0001644093
78	0x3ab059e0	0.0013454519
79	0xbbbc6e6d	-0.0057504685
80	0xbb9d1c34	-0.004794622
81	0x3ba4f6a9	0.005034287
82	0x3d006692	0.03134782
83	0x3c5e7607	0.013577945
84	0xbb5e2579	-0.0033896847
85	0xbb92aff7	-0.004476543
86	0x3c7dd2a2	0.015492113
87	0x3c51c9f2	0.012804495
88	0x3b3c41b9	0.0028725697
89	0xbd337bf2	-0.043819375
90	0xbc922698	-0.017840669
91	0x3cd6cb60	0.026220024
92	0xbcbdffcb	-0.02319326
93	0xbd47c086	-0.04876759
94	0xbc20eb43	-0.009821716
95	0x3bc7a2f3	0.006092423
96	0xbc36a0db	-0.011146749
97	0x3c32e5f5	0.010919084
98	0x3cd13eb0	0.025542587
99	0x3aaf59d8	0.0013378216
100	0xbc031944	-0.008001629
101	0xbc299556	-0.010350546
102	0xbc42b9a0	-0.011885077
103	0xba5ec3a2	-0.00084977795
104	0xbb39335c	-0.0028259372
105	0xbb2e41ad	-0.0026589439
106	0xbb9f7ac5	-0.00486693
107	0xbbbbe295	-0.005733798
108	0xbbb0703a	-0.005384472
109	0x3d27c213	0.040956568
110	0xbc757084	-0.014980439
111	0xbd262cff	-0.040570255
112	0x3bc8b34a	0.0061248885
113	0xbb53bff0	-0.0032310449
114	0xbcc03736	-0.023463827
115	0xbc969989	-0.018383758
116	0x3c4871c6	0.012234157
117	0xbc8c3f79	-0.01712011
118	0xbc99a779	-0.018756615
119	0xbc2ea938	-0.010660462
120	0xbbbd2305	-0.005771997
121	0x3cedd48e	0.029032018
122	0x3d270447	0.040775564
123	0xbb3baca2	-0.0028636833
124	0xbba692cc	-0.0050834175
125	0xbc4a749a	-0.012356902
126	0x3c8f248e	0.017473485
127	0x3d02fded	0.031980444
128	0x3c9f36bd	0.019435281
129	0xbaffdc27	-0.0019520567
130	0x3b532d5c	0.0032223081
131	0x3adb640f	0.0016738194
132	0x3c96324c	0.01833453
133	0xbc407ab8	-0.011748008
134	0x3d791e85	0.06082012
135	0x3d9bca1a	0.07606907
136	0xbc82063d	-0.015872115
137	0x3bd6c768	0.006554533
138	0x3ceab218	0.028649375
139	0xba07483b	-0.00051606045
140	0xbc028ca9	-0.007968106
141	0x3bbe9836	0.005816485
142	0xba2a7efe	-0.00065039087
143	0xbbaf12b7	-0.005342807
144	0x3ba52f0c	0.005041009
145	0x3d2a8573	0.041631173
146	0xbd13347a	-0.035938717
147	0xbc1e8fc5	-0.009677832
148	0x3d32b97a	0.043633915
149	0xbce28bd1	-0.02765456
150	0x3ccf9a2d	0.025342071
151	0x3cad7550	0.021174103
152	0xbbef565c	-0.007303996
153	0x3c5c1a4f	0.013434007
154	0xbc540e0b	-0.012942801
155	0xbc874cb5	-0.016516069
156	0xbb9e53c5	-0.0048317635
157	0xbc58575d	-0.013204423
158	0xbd183bdf	-0.037166473
159	0xbd3ec249	-0.046572004
160	0xbc4cb26f	-0.012493714
161	0xbd8980d1	-0.06714023
162	0xbcd51af9	-0.026013838
163	0x3c1f8c79	0.009738081
164	0xbc598c5e	-0.013278095
165	0xbcccda36	-0.025006395
166	0xbc06f798	-0.008237742
167	0x3b1ecd9b	0.0024231437
168	0x3c6876bd	0.014188466
169	0xbb377016	-0.0027990392
170	0xbdb446fd	-0.088026024
171	0xbd502bc7	-0.050823
172	0x3d41436a	0.04718343
173	0xbce39d12	-0.027784858
174	0xbd2f6cc4	-0.042828336
175	0xbd3744a3	-0.04474319
176	0x3c037251	0.008022861
177	0x3be8f041	0.0071087186
178	0x3bd9d111	0.006647237
179	0xbb43ffac	-0.002990703
180	0x3b7e93d9	0.0038845448
181	0x3b8f36f6	0.0043705655
182	0xbc98b7af	-0.018642275
183	0xba1ca8ea	-0.0005976098
184	0x3940bc91	0.00018380793
185	0xbc2e833e	-0.010651408
186	0x3c3ee511	0.011651293
187	0x3bdec68e	0.006798572
188	0xbc07ac5e	-0.008280842
189	0xbc0a185b	-0.008428658
190	0x3bdae802	0.0066804895
191	0x02a52b6e	2.4269498e-37
192	0x3cdfab22	0.027303282
193	0x3bf61c33	0.007510686
194	0xbd109896	-0.035301767
195	0xbd070b34	-0.03296967
196	0x3d0a80d1	0.033814255
197	0x3c7f8780	0.015596271
198	0xbc5143fa	-0.0127725545
199	0x3b4662e5	0.0030271348
200	0xbbc63d41	-0.0060497825
201	0x3d5d2859	0.053993557
202	0xbb0287fd	-0.001991748
203	0xbb6fd7f9	-0.0036597236
204	0x3c982379	0.018571602
205	0x3c902015	0.017593423
206	0x398d05d4	0.00026897958
207	0x3bbe62a0	0.005810097
208	0xba118d3b	-0.0005552356
209	0xbb091dd2	-0.0020922315
210	0xbd24adaa	-0.04020468
211	0xbc934e14	-0.017981566
212	0x3c9f0f93	0.019416606
213	0xbc4dd239	-0.012562328
214	0xbcb0f656	-0.021601837
215	0xbc304a70	-0.010759935
216	0x3a7b61d0	0.00095894653
217	0x3bb1e868	0.0054293163
218	0xbbd0586b	-0.0063581965
219	0xbb9b723a	-0.0047438415
220	0x355d2131	8.2377215e-07
221	0x39519e93	0.00019990867
222	0xbcc177d0	-0.023616701
223	0xbc59a21c	-0.013283279
224	0xbb62e68c	-0.003462228
225	0x3cf39591	0.029734405
226	0xbbca58bf	-0.00617513
227	0x3c4ab4b9	0.012372189
228	0x3c1ec00a	0.00968934
229	0xbc04d037	-0.008106283
230	0x3c6b4046	0.014358586
231	0x3ca3b7bf	0.019985078
232	0x3a082543	0.0005193541
233	0xbc0e245c	-0.008675661
234	0xba556514	-0.0008140367
235	0xbc1ea9d8	-0.009684049
236	0x3ab293b4	0.0013624341
237	0x3c1464eb	0.009057264
238	0xbaf3b475	-0.0018593209
239	0x3abdccbd	0.0014480572
240	0x3a8c1be0	0.001068946
241	0x3cb5ef43	0.022208815
242	0x3c618197	0.013763807
243	0xbc6b9c5e	-0.014380543
244	0x3a926f46	0.0011172078
245	0x3d315268	0.04329148
246	0x3cabf005	0.020988474
247	0xbae5f762	-0.0017545039
248	0x3d971653	0.07377305
249	0xbac1f130	-0.0014796611
250	0x3aeead5d	0.0018209625
251	0xbcdbee00	-0.026846886
252	0x3ad0806c	0.0015907413
253	0x3ddbfdf6	0.107417986
254	0x3c2fc8e8	0.010729052
255	0xb9a6fdda	-0.00031851121

exp_avg_sq f4 [256, 8]
0	0x3a8b51ae	0.0010629201
1	0x3a8e1ec8	0.0010842914
2	0x3ad76a60	0.00164349
3	0x3b7d83d8	0.0038683321
4	0x3ad1862b	0.001598542
5	0x3b56040c	0.003265622
6	0x3b0d169d	0.002152837
7	0x3b5d28df	0.0033746285
8	0x3adfdf98	0.0017080186
9	0x3b866e5f	0.0041025127
10	0x3b879330	0.004137419
11	0x3c413846	0.011793202
12	0x3b10abac	0.002207498
13	0x3b91ff99	0.0044555184
14	0x3be9e1e6	0.007137525
15	0x3b6902d2	0.003555466
16	0x3c072ce1	0.008250446
17	0x3d810c25	0.063011445
18	0x3c8b5104	0.017006405
19	0x3d06401d	0.032775987
20	0x3c4f694c	0.012659382
21	0x3c86c4b9	0.016451227
22	0x3c6acb0e	0.014330639
23	0x3c9a3dda	0.018828321
24	0x3b4c09d2	0.0031133783
25	0x3cc84678	0.024447665
26	0x3bad4d73	0.0052887737
27	0x3bfe1f1c	0.0077551734
28	0x3c0a6a4d	0.008448196
29	0x3bf2e0f0	0.0074120685
30	0x39d56762	0.00040703552
31	0x3ba52918	0.005040299
32	0x3c1c5ea1	0.009544046
33	0x3a8512b0	0.0010152664
34	0x3c89d37f	0.016824482
35	0x3cf3b5e0	0.02974981
36	0x3c240907	0.010011918
37	0x3cab107c	0.020881884
38	0x3c7ea41b	0.0155420555
39	0x3ca60e17	0.02027039
40	0x3c084aa1	0.008318574
41	0x3d68d3ce	0.056842618
42	0x3c919722	0.017772261
43	0x3d243fc3	0.04009987
44	0x3c895078	0.016762003
45	0x3c96d746	0.018413197
46	0x3bc90b05	0.006135347
47	0x3bf21e2e	0.0073888516
48	0x3b99a242	0.004688532
49	0x398531aa	0.0002540474
50	0x3c1b423c	0.009476241
51	0x3cd6f2a3	0.026238745
52	0x3b5c9939	0.0033660664
53	0x3b996d93	0.0046822517
54	0x3bd09ce5	0.0063663595
55	0x3aef34e4	0.0018250016
56	0x3c1f769e	0.00973287
57	0x3a241475	0.0006259152
58	0x3c9bcbb6	0.019018035
59	0x3d4d3cfa	0.05010698
60	0x3c2537f5	0.010084142
61	0x3c82e3e7	0.015977813
62	0x3c8cbf0f	0.017180948
63	0x3c92d03b	0.017921558
64	0x3a1cd195	0.0005982158
65	0x3b2a2741	0.0025963339
66	0x3a39f8b3	0.0007094249
67	0x3a22426e	0.00061897084
68	0x3a6df988	0.00090780156
69	0x3b2d1051	0.002640743
70	0x3a069f69	0.00051354483
71	0x3a2ffea0	0.00067136623
72	0x3a7c0116	0.0009613199
73	0x3a4237cf	0.0007408829
74	0x3b1da556	0.0024054847
75	0x3bb6a15f	0.005573436
76	0x3abac282	0.0014248642
77	0x3b1d7ff9	0.0024032576
78	0x38f869ae	0.00011845246
79	0x3b365e17	0.0027827078
80	0x3ab892d8	0.0014081849
81	0x3b06c4bd	0.0020564042
82	0x3b2458c0	0.0025077313
83	0x3bc36f49	0.005964194
84	0x3b1cf8f0	0.002395209
85	0x3b82b01e	0.00398828
86	0x3b1cd2a6	0.0023929267
87	0x3ba4595b	0.005015535
88	0x3bb51040	0.005525619
89	0x3d74073e	0.05957722
90	0x3c329f72	0.010902273
91	0x3c8df0ba	0.017326701
92	0x3c78f395	0.015194793
93	0x3c9fd96f	0.01951286
94	0x3aa54bd9	0.0012611105
95	0x3b34c7cf	0.0027584916
96	0x3b231780	0.0024885833
97	0x3c120841	0.008913101
98	0x3b96da12	0.0046036327
99	0x3c312450	0.01081188
100	0x3b6b7a6c	0.0035931123
101	0x3ba2a970	0.004964046
102	0x3b2e246b	0.0026572
103	0x3b80cbe0	0.003930554
104	0x3b1b5d5a	0.0023706765
105	0x398c21f2	0.00026728172
106	0x3ad9e9ce	0.0016625465
107	0x3a91ee8c	0.0011133715
108	0x3ae46221	0.0017424264
109	0x3bfcf9c0	0.007720202
110	0x3be4a236	0.006977345
111	0x3bd9e9ef	0.0066502015
112	0x3b92568d	0.004465884
113	0x399c90cd	0.00029862524
114	0x3c0d3c66	0.008620357
115	0x3cbea5b9	0.023272382
116	0x3b95d5a0	0.004572585
117	0x3ba97e1a	0.005172503
118	0x3c09bf10	0.008407369
119	0x3b94a325	0.00453605
120	0x3b7d0448	0.0038607288
121	0x3c0e26a8	0.008676209
122	0x3bdc38fa	0.0067206593
123	0x3c553f0f	0.013015523
124	0x3bc9c892	0.006157943
125	0x3bf81a3a	0.007571486
126	0x3bb6917c	0.0055715423
127	0x3c4c2a8c	0.012461316
128	0x3c5e59d7	0.013571224
129	0x3cbf8324	0.023377962
130	0x3cab9983	0.020947224
131	0x3cba2607	0.022723211
132	0x3c84fa93	0.016232764
133	0x3d479bd0	0.04873258
134	0x3d00a771	0.031409685
135	0x3d8ecf07	0.06973081
136	0x3af614be	0.0018774492
137	0x3b258a63	0.0025259487
138	0x3b3f0897	0.0029149407
139	0x3b906d02	0.004407526
140	0x3aa812d0	0.0012822989
141	0x3b19e6d1	0.0023483525
142	0x3a6be1f5	0.0008998209
143	0x3995ff62	0.0002860977
144	0x3c1ef5b5	0.009702136
145	0x3d86521a	0.065586284
146	0x3cbc49aa	0.022984345
147	0x3d781583	0.06056739
148	0x3c5eebbd	0.013606009
149	0x3ca8685f	0.02055758
150	0x3b986a2e	0.0046513295
151	0x3c576802	0.013147356
152	0x3b92eaab	0.004483541
153	0x3b25f605	0.002532364
154	0x3bf7fd05	0.007568004
155	0x3c9ccad4	0.019139685
156	0x3b4ffcc7	0.003173636
157	0x3c1ad59c	0.0094503425
158	0x3c13ed5d	0.00902876
159	0x3c948c88	0.018133417
160	0x3b60a04d	0.0034275234
161	0x3cc2d179	0.023781525
162	0x3c07db43	0.008292022
163	0x3ca05488	0.019571558
164	0x3c0b8178	0.0085147545
165	0x3be7598d	0.007060236
166	0x3b33f8cc	0.0027461527
167	0x3b9596b0	0.0045650825
168	0x3cc23257	0.023705645
169	0x3a86733f	0.0010257735
170	0x3d2cce2c	0.04218881
171	0x3dd895c1	0.10575438
172	0x3c883786	0.016628038
173	0x3d249c5a	0.04018817
174	0x3d2099d3	0.0392092
175	0x3d3e03ca	0.046390332
176	0x3ad3be00	0.0016154647
177	0x3be3954c	0.006945288
178	0x3b3fe501	0.0029280784
179	0x3bb4e172	0.0055200392
180	0x3ae3ebe3	0.0017389025
181	0x3b81c20a	0.003959899
182	0x3b97750f	0.004622109
183	0x3a5ffb56	0.0008544227
184	0x3ab7c3a7	0.0014020101
185	0x3a86fd09	0.0010298799
186	0x3ad12ff9	0.0015959732
187	0x3b9846f9	0.0046471325
188	0x3b4b41d5	0.003101458
189	0x3b656701	0.0035004022
190	0x3ac2c87c	0.0014860774
191	0x35d56666	1.5899539e-06
192	0x3c31d0af	0.010852977
193	0x3c9cbad5	0.019132057
194	0x3caf4afe	0.021398064
195	0x3d72fa2f	0.059320625
196	0x3c483693	0.012220043
197	0x3c995f7f	0.018722294
198	0x3c69e061	0.0142746875
199	0x3cdf1723	0.027232712
200	0x3c22f958	0.0099471435
201	0x3d8f5877	0.06999295
202	0x3c3833ef	0.011242851
203	0x3bd46294	0.006481478
204	0x3c6b2ed2	0.014354425
205	0x3ca2a5a3	0.019854372
206	0x3bbc5ab1	0.005748116
207	0x3c42cb9c	0.011889365
208	0x3baec194	0.005333135
209	0x39bebf55	0.00036382177
210	0x3c400e0f	0.011722102
211	0x3d085faa	0.033294357
212	0x3bab2b46	0.0052236645
213	0x3c3df88e	0.011594905
214	0x3c3124ec	0.0108120255
215	0x3c0c1286	0.008549338
216	0x3aaa668c	0.0013000532
217	0x3b446480	0.002996713
218	0x3ac5cc66	0.0015090823
219	0x3b5e40f0	0.0033913217
220	0x3ab42b81	0.0013745875
221	0x3b123093	0.0022306785
222	0x3b921caa	0.0044589834
223	0x3b32c86b	0.0027280103
224	0x3b993477	0.0046754437
225	0x3cd45008	0.025917068
226	0x3c4f9d4d	0.012671781
227	0x3cf411b4	0.029793598
228	0x3bcd2846	0.0062609045
229	0x3c4ce328	0.01250533
230	0x3ad6629a	0.001635629
231	0x3c52c5f7	0.012864581
232	0x3b7d4fed	0.0038652376
233	0x3c3a936a	0.011387685
234	0x3be44694	0.0069664214
235	0x3c846155	0.016159693
236	0x3b72e514	0.003706281
237	0x3be1ac2c	0.0068869796
238	0x3bd23359	0.0064148125
239	0x3c312133	0.010811138
240	0x3bec2814	0.007206926
241	0x3cc2e70f	0.023791818
242	0x3c76c6fc	0.01506209
243	0x3d32485d	0.043526042
244	0x3bf98660	0.0076148957
245	0x3c54fe85	0.013000135
246	0x3c582e94	0.013194699
247	0x39854c5e	0.00025424635
248	0x3c2743f4	0.010209072
249	0x3d3fe86b	0.04685251
250	0x3bc66499	0.0060544726
251	0x3af92fc6	0.001901143
252	0x3c64e63b	0.013970907
253	0x3d0143f9	0.031558964
254	0x3c667b53	0.014067489
255	0x3a576357	0.0008216402
