results/heavy/models/checkpoint_ep1400.pth (torch, 436198 bytes, 18 tensors)

fc1.weight f4 [256, 8]
-0.074678965 0.121642 -1.4735658 0.5360923 -0.46376324 -0.6381838 -0.060256008 0.6646715
0.74025685 0.0693719 0.27056187 -0.06697696 -0.9532905 -0.55991364 0.2451682 0.47772267
-0.20041603 0.8272916 0.12813549 0.53486574 0.27248746 -0.39816654 0.5762431 0.41183472
-0.15080482 0.1828912 -0.085292175 0.34075487 1.2063386 0.6780262 -0.8580863 -0.47205216
-1.8269861 -0.5474228 -0.77874076 -0.30714554 -0.043322254 -0.13294783 -0.054758426 -0.00094948243
0.116319574 0.033871483 0.14285068 0.101877965 2.3098187 -0.032525484 0.4983963 -1.3735545
0.060000364 -3.0239525 0.34153748 -1.1381785 0.50704277 0.1055657 0.19994676 0.2103253
-0.32203117 -0.65316623 0.0071627004 -0.79842407 -0.5923309 -1.2908508 0.13429074 0.5700628
-0.25239295 0.53779644 0.26213133 0.43889448 3.1338594 -0.42658046 -0.78984654 -1.0444307
0.44919327 -0.6278038 1.2282666 0.19629589 -0.6260754 -0.7269452 -1.840881 -0.4079783
0.007729758 0.029751273 -1.4196329 1.4559364 0.017774839 -0.28325722 -0.06871731 0.8030003
0.09198314 0.7980954 -0.31735137 0.8224235 0.45634246 0.42613533 -0.537159 -0.91364616
-0.025157439 -0.0018216243 -2.2912846 1.071325 0.04714528 -0.0024505453 -0.034077674 0.012132276
-0.04062443 -0.7714299 -0.18539712 2.92482 -0.94277835 -0.12271136 0.48962864 0.9153823
-0.17182577 -2.6034846 0.8246026 -0.7657593 0.32491913 0.74275494 0.34907392 0.38519555
0.11520911 -0.43734604 -1.6951338 0.3620107 1.1153026 -0.31803942 -0.38951898 0.5986985
0.33312985 0.0767144 1.1228377 0.93213665 -0.062159713 0.11343238 -0.24645364 0.93099225
0.11590296 -0.1724672 -0.962437 1.0671713 -0.15040497 -0.9907597 -0.43926057 -0.6435077
0.15355776 0.57009494 1.0516635 -0.057106484 0.12997851 -0.23688412 -1.0218909 -0.40883544
0.59508765 -0.32609138 0.08352056 -0.27194345 -1.5717372 -0.12956704 -0.20796846 0.33079228
0.18416452 0.06180006 -0.16959935 0.1782402 0.6305095 1.6146053 0.78875923 -0.6675035
0.13336483 -1.6793141 -0.78771734 -0.67365164 -0.9378833 -0.44686824 0.423652 -0.0108156605
0.29274324 0.1784136 0.8569928 -0.045771204 -1.1405314 -0.60599905 0.37565508 -0.6948281
-0.25129914 -0.45338678 -0.9081544 0.21934706 -0.74839175 0.20572497 -0.8192984 -1.419691
0.25122434 -0.39799252 -0.5417208 -0.2035144 -0.33928534 -1.0340781 -0.7650689 0.8433187
-0.61348975 0.28868222 -0.017006574 0.9008332 1.2849826 -0.1372452 -0.3523128 -0.5743724
0.19392323 -2.374395 -0.70149684 -1.356717 -1.1092029 -0.049116585 0.42715222 0.11733439
0.2439977 0.09637477 0.88299495 -0.7532358 -0.6531341 -1.0157956 0.40588722 -0.1983102
0.4220559 -0.27687725 0.17081715 -0.22093102 1.1828715 -0.12946753 -0.07807462 -0.27109802
-0.52040464 -0.0964798 0.10828038 -0.030766152 0.34511754 -0.582915 -0.42365152 0.36002952
-0.5761162 0.90987015 -0.22018194 0.25277004 -0.19874473 0.319994 -0.4280869 -0.8485885
-0.052750874 0.0701795 0.8560315 2.321425 -0.38752103 0.49335125 -0.41840345 0.22751726
00000000: 49f1 98bd 711f f93d ce9d bcbf 583d 093f
00000010: 6072 edbe 0360 23bf 01cf 76bd e927 2a3f
00000020: 7981 3d3f db12 8e3d 1687 8a3e 372b 89bd
00000030: d90a 74bf 8056 0fbf 5f0d 7b3e 1198 f43e
00000040: dc39 4dbe 62c9 533f f335 033e f6ec 083f
00000050: 7a83 8b3e 7cdc cbbe ab84 133f 00dc d23e
00000060: 946c 1abe d547 3b3e aaad aebd 6c77 ae3e
00000070: 4e69 9a3f 2093 2d3f 8bab 5bbf d2b0 f1be
00000080: aeda e9bf e723 0cbf 8e5b 47bf 2e42 9dbe
00000090: ad72 31bd 7a23 08be 5f4a 60bd b0e6 78ba
000000a0: f538 ee3d d3bc 0a3d 7347 123e 65a5 d03d
000000b0: 12d4 1340 7139 05bd cd2d ff3e a2d0 afbf
000000c0: f1c2 753d 7088 41c0 00de ae3e d5af 91bf
000000d0: 8ecd 013f d432 d83d d8be 4c3e 845f 573e
000000e0: 45e1 a4be e735 27bf 16b5 ea3b 8565 4cbf
000000f0: ffa2 17bf 993a a5bf 8383 093e a3ef 113f
00000100: a639 81be 07ad 093f 1436 863e c7b6 e03e
00000110: 2791 4840 c168 dabe 6233 4abf e8af 85bf
00000120: a9fc e53e c0b7 20bf d737 9d3f ca01 493e
00000130: 7a46 20bf 1519 3abf fda1 ebbf 88e2 d0be
00000140: e949 fd3b f1b8 f33c 88b6 b5bf 205c ba3f
00000150: 8a9c 913c 1707 91be a9bb 8cbd 6d91 4d3f
00000160: a861 bc3d fb4f 4c3f e17b a2be 598a 523f
00000170: b8a5 e93e 692e da3e 4183 09bf b7e4 69bf
00000180: f916 cebc 92c3 eeba 68a4 12c0 2d21 893f
00000190: 691b 413d 5499 20bb 0895 0bbd 74c6 463c
000001a0: cd65 26bd 6e7c 45bf bed8 3dbe 4030 3b40
000001b0: ec59 71bf 1850 fbbd 9bb0 fa3e 7f56 6a3f
000001c0: 18f3 2fbe 7e9f 26c0 2819 533f cd08 44bf
000001d0: cd5b a63e 3025 3e3f d1b9 b23e 5a38 c53e
000001e0: c1f2 eb3d d2eb dfbe 25fa d8bf 7759 b93e
000001f0: 3cc2 8e3f 10d6 a2be 086f c7be 4e44 193f
00000200: ff8f aa3e 701c 9d3d 25b9 8f3f 82a0 6e3f
00000210: 2f9b 7ebd 3c4f e83d 585e 7cbe 8255 6e3f
00000220: 885e ed3d 3e9b 30be 4562 76bf 1299 883f
00000230: c303 1abe 6da2 7dbf c3e6 e0be ecbc 24bf
00000240: 3f3e 1d3e bef1 113f e99c 863f 7de8 69bd
00000250: 1619 053e c091 72be 52cd 82bf e152 d1be
00000260: aa57 183f 73f5 a6be d40c ab3d 2c3c 8bbe
00000270: af2e c9bf 39ad 04be aff5 54be 9b5d a93e
00000280: a095 3c3e 0f22 7d3d 74ab 2dbe 9984 363e
00000290: 1269 213f 63ab ce3f 20ec 493f 82e1 2abf
000002a0: ca90 083e c4f3 d6bf d8a7 49bf 6f74 2cbf
000002b0: 1f19 70bf eacb e4be eae8 d83e 2b34 31bc
000002c0: 71e2 953e 0eb2 363e e163 5b3f 967a 3bbd
000002d0: effc 91bf c122 1bbf dd55 c03e 41e0 31bf
000002e0: 48aa 80be 5022 e8be cf7c 68bf 849c 603e
000002f0: 9a96 3fbf 91a9 523e 8abd 51bf 6fb8 b5bf
00000300: 7aa0 803e adc5 cbbe 37ae 0abf 1466 50be
00000310: cfb6 adbe ac5c 84bf 8edb 43bf bce3 573f
00000320: aa0d 1dbf 28ce 933e 5f51 8bbc 019d 663f
00000330: 4f7a a43f 018a 0cbe 5862 b4be 120a 13bf
00000340: d093 463e 16f6 17c0 4c95 33bf e7a8 adbf
00000350: 5cfa 8dbf 792e 49bd b2b3 da3e 034d f03d
00000360: 88da 793e 2360 c53d f50b 623f 10d4 40bf
00000370: cc33 27bf 9705 82bf 73d0 cf3e d411 4bbe
00000380: b617 d83e dbc2 8dbe b1ea 2e3e be3b 62be
00000390: 5568 973f 2393 04be 96e5 9fbd 5ccd 8abe
000003a0: 3d39 05bf 3497 c5bd 1bc2 dd3d 4c09 fcbc
000003b0: 3fb3 b03e eb39 15bf dae8 d8be ca55 b83e
000003c0: 5a7c 13bf 40ed 683f 6077 61be 136b 813e
000003d0: bd83 4bbe 41d6 a33e 352e dbbe 193d 59bf
000003e0: 4d11 58bd 45ba 8f3d e124 5b3f 3a92 1440
000003f0: 2869 c6be 8998 fc3e fa38 d6be 49fa 683e

fc1.bias f4 [256]
-0.2557579 0.038252216 -0.123371646 0.31960124 0.02452225 -0.041957736 0.4906514 -0.23337685
0.0054375893 0.514407 0.05874308 -0.098086044 0.00030305947 0.31369627 0.35704634 -0.27330524
-0.13936074 -0.14742045 -0.06770156 0.19753994 0.3453597 0.020839883 -0.3206117 0.30801773
-0.0370892 0.16711882 0.08439545 -0.22120209 0.27292567 0.1896381 0.1070077 0.12799816
0.017004576 0.40637904 0.09804168 -0.08026547 0.055709917 0.42403954 -0.03357005 -0.12412978
0.023275176 -0.15888001 0.2568958 -0.23014833 0.009477044 0.0021093283 -0.13012068 -0.24167484
-0.008969379 -0.10189253 0.16637374 0.30015343 0.12675379 -0.009441062 -0.019858312 -0.013255426
0.24887463 -0.13005047 0.30830482 -0.2880237 -0.23098618 0.011263623 0.1833879 -0.04976838
-0.05005693 -0.0034710634 -0.2179845 -0.2014062 0.060617667 0.051416006 0.16853432 0.3722861
0.18914734 -0.16440804 0.063880175 0.2294327 0.106030665 0.33439973 -0.03401614 0.14249617
-0.116590835 0.27808353 -0.11478761 -0.10035257 0.20675378 -0.030050913 -0.14481293 0.03658437
-0.18473433 0.23582546 -0.07106778 -0.5317799 0.13674511 0.027082475 0.12719107 -0.13076144
0.091967694 -0.47975764 0.089623064 -0.011345119 0.3175969 -0.14434859 -0.19649306 0.108172506
0.026158387 -0.20489465 0.07553592 -0.07202148 -0.016713688 -0.14114343 0.23345146 0.064369276
-0.0884318 -0.22436213 -0.31873995 -0.06820706 0.1442702 0.1253364 0.12299273 0.017701214
0.20192146 0.36074165 -0.4330041 -0.18636295 -0.09499517 -0.20128919 0.04105999 0.118198015
0.39687416 0.11739461 0.46317756 0.121575564 0.055299927 0.13897039 -0.025731642 0.36372042
0.049766753 0.19825572 -0.8063357 0.08897488 0.15899128 0.5796128 0.36674234 -0.25238723
-0.25288507 -0.07030593 -0.21301894 -0.3720534 -0.047579892 0.20464388 -0.40997925 0.06661051
-0.09432466 -0.5743728 -0.0046456484 0.0951797 -0.03930072 -0.16019909 -0.10400221 -0.27763298
0.011801962 0.4798168 0.30247805 0.43175295 0.21589759 -0.13284998 0.13788964 0.21205786
-0.0054272353 -0.24523564 0.23390299 -0.08437495 0.040978827 0.23929712 -0.018812861 -0.28334072
-0.06031489 0.06439082 -0.19693704 0.03903207 0.07543033 -0.14718772 -0.14693522 -0.1320899
0.105652034 -0.049314912 -0.09655245 0.26696134 -0.06723938 0.04434282 0.0018971462 0.19910386
-0.16472901 0.23769462 -0.17473438 0.5330962 -0.24808851 0.20646088 0.2049801 -0.041382797
-0.12302432 0.46614906 -0.1286672 0.058363132 -0.18222612 -0.09224654 -0.31816977 0.07172736
-0.041270565 -0.16458924 -0.13889138 0.02529019 0.12156285 0.023739547 0.13111374 0.12033904
-0.014855071 0.19627722 -0.34683934 0.1099319 0.11362022 0.061009835 0.044802 -0.027958712
-0.08537289 -0.0012808404 -0.09614828 0.10726773 -0.030150693 0.036084406 -0.11674379 -0.14909889
-0.078581996 0.017126583 0.25136968 0.49523294 -0.10663792 -0.19843298 0.25424516 -0.111355685
-0.088036805 0.28503016 -0.14224038 -0.4061141 0.031518828 -0.14902444 0.3598319 -0.016920967
0.4293834 -0.14678927 -0.10728016 0.2816955 0.1888414 -0.39776972 0.026485221 0.16240098
00000000: b3f2 82be 5bae 1c3d 46aa fcbd c6a2 a33e
00000010: e3e2 c83c e0db 2bbd a936 fb3e 57fa 6ebe
00000020: ce2d b23b 2db0 033f 959c 703d 56e1 c8bd
00000030: f4e3 9e39 cc9c a03e c7ce b63e aaee 8bbe
00000040: 95b4 0ebe 63f5 16be 1ea7 8abd e947 4a3e
00000050: fdd2 b03e 67b8 aa3c 3727 a4be 80b4 9d3e
00000060: d8ea 17bd 3221 2b3e 86d7 ac3d cd82 62be
00000070: eabc 8b3e 7d30 423e da26 db3d f311 033e
00000080: 2e4d 8b3c ea10 d03e 14ca c83d 3962 a4bd
00000090: 1530 643d b61b d93e c080 09bd c137 febd
000000a0: 95ab be3c 71b1 22be d987 833e 01ac 6bbe
000000b0: 9b45 1b3c a83c 0a3b 5b3e 05be 9c79 77be
000000c0: 4df4 12bc 08ad d0bd e15d 2a3e b6ad 993e
000000d0: bfcb 013e afae 1abc e6ad a2bc 492d 59bc
000000e0: fed8 7e3e f32b 05be 21da 9d3e d877 93be
000000f0: a487 6cbe 0f8b 383c 0aca 3b3e eed9 4bbd
00000100: 7f08 4dbd c87a 63bb 5437 5fbe 6d3d 4ebe
00000110: 3b4a 783d 9799 523d 4394 2c3e 499c be3e
00000120: d7af 413e 955a 28be 9cd3 823d 68f0 6a3e
00000130: 9b26 d93d 7136 ab3e 8254 0bbd 84ea 113e
00000140: 2dc7 eebd f760 8e3e c415 ebbd a685 cdbd
00000150: 43b7 533e 552d f6bc d749 14be 7ed9 153d
00000160: ff2a 3dbe 3b7c 713e fc8b 91bd ba22 08bf
00000170: e906 0c3e 11dc dd3c 603e 023e 54e6 05be
00000180: 8f59 bc3d cba2 f5be 4c8c b73d e1e0 39bc
00000190: 109c a23e 1ed0 13be 7a35 49be 8c89 dd3d
000001a0: 1d4a d63c e7cf 51be 94b2 9a3d ff7f 93bd
000001b0: 25eb 88bc e787 10be e60d 6f3e 0ad4 833d
000001c0: bb1b b5bd 30bf 65be e231 a3be 25b0 8bbd
000001d0: 91bb 133e 2f58 003e 9de3 fb3d 2302 913c
000001e0: 80c4 4e3e 21b3 b83e b7b2 ddbe eed5 3ebe
000001f0: d48c c2bd c11e 4ebe 852e 283d cd11 f23d
00000200: 1733 cb3e 966c f03d 9c25 ed3e 9cfc f83d
00000210: 2d82 623d 414e 0e3e 2acb d2bc 9039 ba3e
00000220: 39d8 4b3d 8c03 4b3e 046c 4ebf 7638 b63d
00000230: 9cce 223e 8161 143f a7c5 bb3e e638 81be
00000240: 277a 81be 8efc 8fbd a321 5abe c97d bebe
00000250: 22e3 42bd 2a8e 513e cde8 d1be 176b 883d
00000260: 4a2d c1bd 190a 13bf 863a 98bb 93ed c23d
00000270: cbf9 20bd 3b0b 24be 1cff d4bd e925 8ebe
00000280: 045d 413c 8caa f53e 67de 9a3e b90e dd3e
00000290: 4214 5d3e d309 08be f132 0d3e b225 593e
000002a0: f3d6 b1bb 0d1f 7bbe 4484 6f3e c6cc acbd
000002b0: 6ad9 273d 4e0a 753e 6e1d 9abc 0912 91be
000002c0: bf0c 77bd 56df 833d dda9 49be 18e0 1f3d
000002d0: 387b 9a3d 61b8 16be 3076 16be 9342 07be
000002e0: 1860 d83d 6ffe 49bd 4abd c5bd 28af 883e
000002f0: cdb4 89bd d1a0 353d aaa9 f83a e2e1 4b3e
00000300: b9ae 28be 3866 733e 92ed 32be fe78 083f
00000310: ea0a 7ebe 7b6a 533e 4ee6 513e 0281 29bd
00000320: 2df4 fbbd 17ab ee3e 56c1 03be 2e0e 6f3d
00000330: 7c99 3abe c1eb bcbd 26e7 a2be cbe5 923d
00000340: 530b 29bd 158a 28be 8b39 0ebe 5f2d cf3c
00000350: f2f5 f83d 7079 c23c ae42 063e 5174 f63d
00000360: af62 73bc e5fc 483e ed94 b1be fa23 e13d
00000370: b8b1 e83d 73e5 793d 4d82 373d ab09 e5bc
00000380: fbd7 aebd dfe1 a7ba 64e9 c4bd 2faf db3d
00000390: 96fe f6bc 3ecd 133d 5e17 efbd 61ad 18be
000003a0: 99ef a0bd 0c4d 8c3c 87b3 803e 2c8f fd3e
000003b0: fb64 dabd 0432 4bbe 6c2c 823e 730e e4bd
000003c0: a44c b4bd 79ef 913e 76a7 11be 30ee cfbe
000003d0: e319 013d dd99 18be e33b b83e d79d 8abc
000003e0: 24d8 db3e ed4f 16be b3b5 dbbd 643a 903e
000003f0: a45f 413e 79a8 cbbe 89f7 d83c 714c 263e

fc2.weight f4 [128, 256]
-0.26642588 0.34218135 -0.14906397 -0.3826081 -0.08680589 0.144033 0.53062737 -1.9150747
-0.31487006 0.2506939 0.32831502 -0.099815674 0.096846946 0.16909026 0.4625141 -0.16328552
0.04204437 0.18854892 0.013273509 -0.48947376 -0.14033608 -1.7217832 -0.054261595 -0.124645144
-0.25263563 -0.16824591 -0.906332 0.016992617 -0.32351702 -0.080915675 0.23377879 0.00737306
-0.03505235 0.6647067 -0.0043054787 0.5212603 0.12150824 -0.0062192627 -0.81830245 -0.13624045
0.04574161 0.15367828 -0.14362735 -0.25667015 0.34117407 0.35997832 0.16882835 -0.018044418
0.39581543 0.10780903 -0.15428348 0.46209475 0.6380073 -1.3778746 0.15699507 0.28478086
-0.06861237 -1.1794806 0.008284817 -1.272609 0.004546493 0.1558237 -0.22708626 0.19302936
0.019949522 1.5807484 -0.34080324 0.11812606 0.012701051 -1.537256 -0.2282123 -0.103977196
0.20777173 0.2805021 0.06067536 -0.1536601 -0.11832361 0.1948037 0.6891894 -0.13825348
0.060409226 -0.016061725 0.06595605 -0.3269619 0.111597985 -0.1493225 -0.07453816 0.14369483
-0.060107302 0.28330347 -0.1388193 -0.115056485 -0.13752355 -0.19752273 0.22234586 -2.0749137
0.040122226 -0.10534943 -0.19603132 0.13653651 0.44012627 -0.056550566 -0.33619595 -0.007647383
-0.35476482 0.048351746 0.38796136 0.19437222 -0.3866557 -0.10336289 0.9800693 0.2225502
0.11669811 0.14009368 0.32986116 0.35755768 -0.0063955677 -0.14907075 -0.075738095 -0.015786737
0.07363375 0.428618 -0.06755743 0.2247677 0.03836469 -1.3159404 -0.48691547 0.3368917
-0.66382724 0.3506308 -0.97246027 0.014294874 0.034985486 -0.03828737 -0.16643324 0.0027942779
0.48608434 0.08041465 0.6596099 0.31529865 -0.14933966 -0.7547437 0.39519787 -0.26008174
0.078985214 0.15827386 0.30399182 0.09569722 -0.010240452 0.35294136 -0.12190109 -0.02882775
-0.18890242 0.038605675 -0.053089283 0.3344584 0.010995065 -0.2900394 -0.10487798 0.010826498
0.6729076 -0.83937925 -0.075094745 0.5623444 0.32078737 0.11145408 0.010019752 -0.07982827
0.079877555 -0.17467616 0.37615684 -0.40747365 0.11508424 -0.013499877 -0.5277515 0.2911977
0.22295286 0.16406669 -0.22104947 0.06815815 0.239126 0.07206694 -0.014367594 -0.20146033
-0.0077073984 -0.21186307 -0.25980115 -0.2848048 0.23348503 0.093546845 -0.19350328 -0.15986313
-0.18161772 -0.20274182 0.09634444 -0.09989661 -0.6554424 -0.12756762 0.19710465 0.11328886
0.19363768 0.0332653 0.30451193 -0.14656371 0.063999265 -0.09802924 0.092539355 -0.38182455
-0.56252515 0.01168926 -0.27557528 -1.048328 0.06356867 -0.26494092 -0.9277471 0.011490453
0.018549135 0.22339925 -0.6343547 -0.53978056 -0.23501237 -0.1354859 -0.31022495 0.28226185
0.24062042 -1.1497084 -0.36583856 -0.069994465 0.30312067 -0.17374475 -1.7072455 0.17371432
-0.4302966 -0.19168778 0.49594468 -0.22948442 -0.028398883 0.01207 0.31953728 -0.17848258
-0.33174762 -0.70064014 -0.23870096 0.21532413 -0.26315892 -0.08031987 -0.16149685 -0.061378982
0.33992025 -0.53346986 -0.67601496 0.0006133649 -0.39380127 0.050081432 -0.22888644 -0.3989079
00000000: f968 88be 6532 af3e 3aa4 18be 35e5 c3be
00000010: 49c7 b1bd 637d 133e 32d7 073f 2b21 f5bf
00000020: a636 a1be f35a 803e e818 a83e 296c ccbd
00000030: b157 c63d ff25 2d3e a6ce ec3e 5234 27be
00000040: b836 2c3d f812 413e 2279 593c 4e9c fabe
00000050: 43b4 0fbe 6463 dcbf 6841 5ebd f445 ffbd
00000060: 7559 81be a848 2cbe 6005 68bf 1a34 8b3c
00000070: 06a4 a5be 1eb7 a5bd b563 6f3e b699 f13b
00000080: 0e93 0fbd 382a 2a3f f914 8dbb 5171 053f
00000090: 50d9 f83d f5ca cbbb 457c 51bf 9e82 0bbe
000000a0: 8e5b 3b3d d75d 1d3e 0c13 13be 456a 83be
000000b0: 5eae ae3e 144f b83e 57e1 2c3e e3d1 93bc
000000c0: 52a8 ca3e fbca dc3d 7dfc 1dbe af97 ec3e
000000d0: 7254 233f 325e b0bf 51c3 203e ccce 913e
000000e0: a484 8cbd 38f9 96bf 0bbd 073c dae4 a2bf
000000f0: bffa 943b 3f90 1f3e 4d89 68be 7da9 453e
00000100: 2e6d a33c f755 ca3f c37d aebe 13ec f13d
00000110: 1218 503c cec4 c4bf 7cb0 69be fff1 d4bd
00000120: 1dc2 543e f99d 8f3e ba86 783d 1359 1dbe
00000130: a653 f2bd 9f7a 473e b76e 303f 5292 0dbe
00000140: aa6f 773d e193 83bc f713 873d 8d67 a7be
00000150: 7c8d e43d ffe7 18be 76a7 98bd bd24 133e
00000160: 1333 76bd 270d 913e a626 0ebe bca2 ebbd
00000170: f9d2 0cbe 6643 4abe a2ae 633e 63cb 04c0
00000180: 3457 243d 71c1 d7bd 6fbc 48be 3ad0 0b3e
00000190: 3b58 e13e 91a1 67bd e021 acbe e696 fabb
000001a0: bca3 b5be 7b0c 463d dfa2 c63e 8309 473e
000001b0: bcf7 c5be ecaf d3bd d2e5 7a3f 33e4 633e
000001c0: 6bff ee3d b874 0f3e 90e3 a83e cd11 b73e
000001d0: e991 d1bb 01a6 18be 931c 9bbd 3053 81bc
000001e0: 4bcd 963d d273 db3e 8d5b 8abd 8129 663e
000001f0: 4b24 1d3d bc70 a8bf fc4c f9be 127d ac3e
00000200: 95f0 29bf e185 b33e 28f3 78bf 0c35 6a3c
00000210: f14c 0f3d 38d3 1cbd 7a6d 2abe 3420 373b
00000220: 0ce0 f83e 70b0 a43d 32dc 283f d36e a13e
00000230: 7fec 18be e236 41bf 6057 ca3e 6f29 85be
00000240: 00c3 a13d 8b12 223e d1a4 9b3e e7fc c33d
00000250: 92c7 27bc bbb4 b43e 47a7 f9bd 2c28 ecbc
00000260: a36f 41be fc20 1e3d 2674 59bd 223e ab3e
00000270: a524 343c 0b80 94be 44ca d6bd a061 313c
00000280: ac43 2c3f 8fe1 56bf 46cb 99bd cdf5 0f3f
00000290: 3e3e a43e 0942 e43d e329 243c 017d a3bd
000002a0: d896 a33d 4fde 32be a197 c03e 63a0 d0be
000002b0: 49b1 eb3d 972e 5dbc b91a 07bf dd17 953e
000002c0: c14d 643e 1901 283e cb5a 62be 8096 8b3d
000002d0: 72dd 743e d597 933d 0f66 6bbc 9e4b 4ebe
000002e0: 588e fcbb a2f2 58be a804 85be efd1 91be
000002f0: b316 6f3e 7d95 bf3d b925 46be 29b3 23be
00000300: fff9 39be 8d9b 4fbe 3c50 c53d 9896 ccbd
00000310: 13cb 27bf 16a1 02be cdd5 493e fd03 e83d
00000320: f548 463e 3241 083d fde8 9b3e cc14 16be
00000330: 0c12 833d 8ec3 c8bd 4685 bd3d 827e c3be
00000340: a601 10bf 4f84 3f3c 3418 8dbe 9d2f 86bf
00000350: 4a30 823d 56a6 87be d580 6dbf 7442 3c3c
00000360: 5bf4 973c c6c2 643e 1265 22bf 0f2f 0abf
00000370: 15a7 70be d1bc 0abe ced5 9ebe a084 903e
00000380: 3365 763e a529 93bf 314f bbbe 4259 8fbd
00000390: a232 9b3e 25ea 31be 0587 dabf 2be2 313e
000003a0: d64f dcbe cd49 44be 76ec fd3e f7fd 6abe
000003b0: c6a4 e8bc 40c1 453c 649a a33e 23c4 36be
000003c0: d3da a9be 275d 33bf 066e 74be ee7d 5c3e
000003d0: c4bc 86be be7e a4bd 6e5f 25be 8768 7bbd
000003e0: 070a ae3e 7b91 08bf 510f 2dbf 39ca 203a
000003f0: 52a0 c9be 3022 4d3d 3561 6abe a83d ccbe

fc2.bias f4 [128]
0.023844603 -0.04622635 0.2044264 0.37119135 0.059938263 0.48800868 -0.114371546 -0.022401044
0.19934009 0.1003326 0.18977156 0.12685473 -0.051825672 -0.17715709 0.015163172 0.114345066
0.20965487 -0.022838678 0.25035945 -0.09693111 -0.21122561 -0.015008785 0.08240957 -0.008702626
-0.1950516 -0.35790676 -0.022767851 0.2063142 0.069382064 -0.10662681 -0.041468427 -0.014102549
0.21026841 0.13333231 -0.0103581045 0.0045285732 -0.0140914265 0.20807245 0.17314075 -0.015779695
0.32234555 0.083516024 -0.3639049 -0.19347036 0.026878191 0.1571301 -0.07789728 0.13204658
-0.030958144 -0.0058938493 -0.393173 -0.17452276 -0.104336284 -0.096640535 -0.020502489 0.15806295
0.09621129 -0.026867812 0.08886944 0.29522014 -0.26961482 0.044429358 0.11303162 -0.030230187
0.03914631 0.15644558 -0.31389955 0.05052361 0.061234206 0.21670632 0.049894568 -0.06954332
0.18538713 0.22110783 0.16691554 -0.020255456 0.07418524 0.04577207 0.059560955 -0.23501596
-0.022689007 -0.1705232 0.092499815 0.22780244 0.10896978 -0.17879497 0.2549935 0.16627552
-0.03908844 0.0858464 0.17772146 0.19271027 0.11374072 -0.08433294 0.0028435416 -0.06158275
-0.17905152 0.18478902 -0.2530526 0.048818566 -0.21834388 0.15387143 0.10706557 -0.23375788
0.13187586 0.16072823 0.1510538 -0.01961952 0.12311825 -0.457738 0.027341448 0.24246049
0.14592838 0.18482919 -0.08698308 -0.15751931 0.1598364 0.04955344 0.084655605 0.080696575
0.3725814 -0.12670633 -0.17251955 0.14350504 0.10462138 -0.25267696 -0.20766748 0.13347377
00000000: c255 c33c d757 3dbd 2755 513e cb0c be3e
00000010: d381 753d 46dc f93e a13b eabd 6582 b7bc
00000020: cf1f 4c3e 2e7b cd3d 7a53 423e 35e6 013e
00000030: 2847 54bd ab68 35be f46e 783c bf2d ea3d
00000040: c4af 563e 2e18 bbbc 1d2f 803e d183 c6bd
00000050: 874b 58be 68e7 75bc 59c6 a83d 7695 0ebc
00000060: 9bbb 47be 8e3f b7be a583 babc 0844 533e
00000070: 2f18 8e3d 285f dabd ccda 29bd 610e 67bc
00000080: 9a50 573e 4488 083e 0ab5 29bc 6d64 943b
00000090: badf 66bc f210 553e cf4b 313e 6b44 81bc
000000a0: 7a0a a53e 730a ab3d be51 babe 181d 46be
000000b0: a72f dc3c b7e6 203e 9c88 9fbd 3837 073e
000000c0: ef9b fdbc 3121 c1bb f94d c9be 18b6 32be
000000d0: 43ae d5bd 79eb c5bd d6f4 a7bc 41db 213e
000000e0: 6d0a c53d e319 dcbc 2e01 b63d 1827 973e
000000f0: f40a 8abe 8ffb 353d 1f7d e73d 4ca5 f7bc
00000100: e257 203d 4533 203e 71b7 a0be d8f1 4e3d
00000110: b8d0 7a3d 43e8 5d3e 3f5e 4c3d ba6c 8ebd
00000120: 20d6 3d3e 176a 623e e8eb 2a3e c5ee a5bc
00000130: 6eee 973d 7e7b 3b3d 30f6 733d 06a8 70be
00000140: 4cde b9bc a29d 2ebe 8b70 bd3d 0b45 693e
00000150: 8c2b df3d 0716 37be 828e 823e 2144 2a3e
00000160: 331b 20bd 3dd0 af3d 9dfc 353e d755 453e
00000170: e5f0 e83d c0b6 acbd b65a 3a3b 323e 7cbd
00000180: 4859 37be 5539 3d3e 1c90 81be faf5 473d
00000190: 8a95 5fbe 7990 1d3e 3245 db3d 3a5e 6fbe
000001a0: 770a 073e f195 243e d9ad 1a3e 1eb9 a0bc
000001b0: 6c25 fc3d a35c eabe 2cfb df3c 9047 783e
000001c0: 406e 153e dd43 3d3e 2f24 b2bd be4c 21be
000001d0: 27ac 233e 8cf8 4a3d eb5f ad3d 3f44 a53d
000001e0: fdc2 be3e 4ebf 01be f7a8 30be fcf2 123e
000001f0: bc43 d63d e05e 81be c9a6 54be 59ad 083e

fc3.weight f4 [4, 128]
0.6009433 -0.33994782 0.31656244 1.2868258 -0.6807732 1.189782 0.5980839 -0.4955782
0.23024423 -0.79030925 0.52416563 0.0947692 0.50152355 -1.2363181 0.29456034 -0.17891558
-0.72018415 0.07082788 0.5813058 -1.0466105 -1.0692096 0.11645364 0.8366776 0.7601811
0.3781742 1.1692649 -0.043537717 -1.4357197 -0.2077513 0.24515775 0.57510394 -0.0296567
-0.36481908 0.96194106 0.36783445 0.5351129 0.6304407 -0.18461306 -0.22122572 -0.35824376
0.7780081 0.6163093 -0.11420024 -1.339557 -0.10776315 -0.14232783 -0.5185091 0.48378035
-0.5863003 -0.18436418 -0.5186277 0.36512646 -1.3406866 -0.5616269 0.18454978 0.69819957
-0.05599886 0.2540377 -0.08025711 0.8514834 -0.2716312 0.72915024 -0.1380439 0.49267635
0.31257385 -0.46966073 0.6100363 -0.32761103 -0.5749798 -0.7540967 0.07647682 0.39889836
0.20799498 0.5894878 -0.27122554 0.11948567 -1.2382392 0.39407644 -0.12714678 -0.17367314
0.4205454 0.51875365 0.8878547 0.43925256 -0.7117963 0.7197902 0.7216052 -0.44350633
-1.4423758 -0.3438054 -0.35208026 -0.22435124 -0.25252956 -0.21350454 -0.22514169 -1.5408211
-1.1642952 0.707698 -1.2892866 0.16308795 -0.27199635 -0.22993927 -0.8610985 0.3137778
0.70352423 0.8057403 -0.2369477 0.3687176 0.5947448 -1.1254108 -0.4383723 -0.09663603
-0.35174066 -0.08542754 -0.53621715 -0.28334045 0.68662363 0.5094672 -0.43924695 -0.5145969
-1.1350647 -0.0218283 0.28856286 0.75681096 -0.09324113 -0.7577261 -0.48840803 -0.39165893
0.39045587 -0.61671126 0.3862251 1.0648932 -0.7853756 0.87735134 0.6686815 -0.8038351
0.002203605 -0.7281351 0.64317536 0.53671205 0.5858148 -1.2188033 0.49214152 -0.35424826
-0.3507168 -0.05602265 0.75431263 -0.8491019 -1.3220537 -0.18920566 0.85971516 0.808503
-0.9295403 1.0385177 -0.19802877 -1.121719 -0.19069956 0.54833925 0.33776516 0.053272862
-0.58990943 0.6890654 0.08038564 0.6298389 1.0147986 -0.39258885 -0.4221031 -0.78961635
0.7674191 0.55195165 -0.055109747 -1.0912488 -0.04771654 -0.28188923 -0.38950813 0.51468587
-0.42313182 -0.006363845 -0.6632075 0.75762755 -1.1764537 -0.55519795 0.24803351 0.9650974
0.13720314 0.41459996 -0.10244994 0.97938526 -0.13371192 0.52484167 -0.079525456 0.61439437
0.17178781 -0.5755836 0.7422854 -0.2335722 -0.058185913 -0.5198163 0.12990491 0.5536742
0.5435387 0.69717145 -0.47610646 -0.31887203 -0.88237876 0.48253447 0.63469714 -1.8395782
0.20918745 0.2821981 0.71271604 0.3801325 -0.37369564 0.48394525 0.51745456 -0.6678686
-1.7570635 -0.2841079 -0.69413555 -0.29823124 -0.18938452 -0.20811245 -0.4222184 -0.53258955
-1.3740739 0.43590713 -0.89976484 -0.13101788 -0.3875222 -0.10208398 -1.157832 0.16555873
0.9268582 0.7641867 -0.2222426 0.55777234 0.3693339 -0.901571 -0.41984946 -0.2399219
-0.4267833 -0.08501505 -0.20405896 -0.2341096 0.65028423 0.8117829 -0.2067651 -0.15114583
-1.1491017 -0.28519225 0.15506087 0.6285469 -0.05259689 -0.50306207 -0.58203894 -0.1558099
00000000: 6cd7 193f a40d aebe 7914 a23e b5b6 a43f
00000010: 2747 2ebf c74a 983f 071c 193f 6dbc fdbe
00000020: 25c5 6b3e b551 4abf b82f 063f 5b16 c23d
00000030: d963 003f ac3f 9ebf 9dd0 963e a535 37be
00000040: fd5d 38bf 350e 913d 75d0 143f 55f7 85bf
00000050: dcdb 88bf 3f7f ee3d 8130 563f 3b9b 423f
00000060: 0ca0 c13e 79aa 953f 9b54 32bd aac5 b7bf
00000070: c2bc 54be a20a 7b3e 033a 133f 9cf2 f2bc
00000080: 91c9 babe c541 763f cc54 bc3e 29fd 083f
00000090: 9064 213f 350b 3dbe ff88 62be ba6b b7be
000000a0: 8a2b 473f 72c6 1d3f d1e1 e9bd 9b76 abbf
000000b0: edb2 dcbd 63be 11be 03bd 04bf 0fb2 f73e
000000c0: c717 16bf f7c9 3cbe c9c4 04bf dbf1 ba3e
000000d0: 9e9b abbf c8c6 0fbf 9efa 3c3e 35bd 323f
000000e0: 105f 65bd 3b11 823e d75d a4bd d1fa 593f
000000f0: 3f13 8bbe 97a9 3a3f 615b 0dbe 1340 fc3e
00000100: ae09 a03e 5f77 f0be 572b 1c3f a2bc a7be
00000110: e031 13bf 7b0c 41bf e19f 9c3d 683c cc3e
00000120: a3fc 543e ace8 163f 13de 8abe e7b4 f43d
00000130: 9f7e 9ebf 63c4 c93e c432 02be 5fd7 31be
00000140: ba51 d73e 0acd 043f 724a 633f b6e5 e03e
00000150: 4838 36bf 2c44 383f 1ebb 383f 4313 e3be
00000160: c59f b8bf 4307 b0be dd43 b4be 55bc 65be
00000170: 8e4b 81be efa0 5abe 8b8b 66be a039 c5bf
00000180: a007 95bf b22b 353f 5807 a5bf 8700 273e
00000190: 1b43 8bbe 3375 6bbe f470 5cbf 7ca7 a03e
000001a0: 2a1a 343f ff44 4e3f 6ba2 72be 8ec8 bc3e
000001b0: 3241 183f 760d 90bf 5672 e0be 1ce9 c5bd
000001c0: 5a17 b4be a2f4 aebd 8745 09bf 0012 91be
000001d0: 91c6 2f3f 716c 023f fae4 e0be 9fbc 03bf
000001e0: cd49 91bf 43d1 b2bc 83be 933e 5dbe 413f
000001f0: 35f5 bebd 56fa 41bf 9e10 fabe 8587 c8be
00000200: d5e9 c73e cae0 1dbf 4cbf c53e 6c4e 883f
00000210: 600e 49bf 199a 603f b62e 2b3f 23c8 4dbf
00000220: 5b6a 103b 1067 3abf 24a7 243f f665 093f
00000230: f5f7 153f bf01 9cbf f9f9 fb3e 0760 b5be
00000240: 2791 b3be 0278 65bd a21a 413f be5e 59bf
00000250: 0e39 a9bf 21bf 41be 4b16 5c3f 0dfa 4e3f
00000260: 5af6 6dbf 26ee 843f 0ec8 4abe 7d94 8fbf
00000270: bf46 43be f65f 0c3f 8eef ac3e a534 5a3d
00000280: 4e04 17bf 9766 303f 3aa1 a43d 1f3d 213f
00000290: ece4 813f 6801 c9be e61d d8be 4c24 4abf
000002a0: 9475 443f b44c 0d3f c2ba 61bd 0aae 8bbf
000002b0: 6b72 43bd c953 90be 9c6d c7be 74c2 033f
000002c0: bca4 d8be cd87 d0bb f7c7 29bf e1f3 413f
000002d0: 0996 96bf 7421 0ebf 7ffc 7d3e a010 773f
000002e0: fb7e 0c3e 7246 d43e 46d1 d1bd feb8 7a3f
000002f0: c7eb 08be 065c 063f 3ede a2bd f348 1d3f
00000300: 25e9 2f3e 7259 13bf 6a06 3e3f 8d2d 6fbe
00000310: 5a54 6ebd ae12 05bf cb05 053e 98bd 0d3f
00000320: 5a25 0b3f d479 323f 3ac4 f3be 3243 a3be
00000330: 93e3 61bf c20e f73e 837b 223f 4c77 ebbf
00000340: 3c35 563e 457c 903e 8f74 363f baa0 c23e
00000350: 0955 bfbe acc7 f73e e777 043f 70f9 2abf
00000360: 75e7 e0bf 9776 91be deb2 31bf c4b1 98be
00000370: 04ee 41be 6e1b 55be 032d d8be ca57 08bf
00000380: a7e1 afbf 382f df3e fd56 66bf 8d29 06be
00000390: 4f69 c6be 6811 d1bd d733 94bf 3a88 293e
000003a0: 9446 6d3f bda1 433f 9093 63be 2bca 0e3f
000003b0: 5519 bd3e 5bcd 66bf 82f6 d6be 16ae 75be
000003c0: 5783 dabe 5f1c aebd d5f4 50be 6dba 6fbe
000003d0: 0779 263f 01d1 4f3f 3bba 53be f9c5 1abe
000003e0: c415 93bf b804 92be 47c8 1e3e 73e8 203f
000003f0: d66f 57bd adc8 00bf 8100 15bf a18c 1fbe

fc3.bias f4 [4]
-0.03697516 -0.10807408 -0.05550568 -0.049914718
00000000: 4473 17bd f155 ddbd ed59 63bd 6073 4cbd

exp_avg f4 [256, 8]
-0.005289606 -0.0014489639 0.0034847849 0.0003971632 0.00059227354 0.004466869 -0.05004643 -0.06359111
-0.006297544 0.0077874507 -0.0024245349 -0.005240726 -0.00041639002 -0.005894846 0.020941501 0.036348954
0.008875347 -0.0063419454 0.007896543 -0.0029274835 0.0015147475 0.01111681 0.0020819583 -0.014316708
0.0064669256 0.009100324 -0.0013390114 0.0035171448 -0.0017661578 0.0049055484 -0.0011645062 0.0070158294
0.08630711 0.00024964628 0.0017687599 0.04980914 -0.015216672 0.020667339 -0.11533878 -0.08183653
-0.051952355 -0.03301786 -0.03866766 -0.0061964365 0.008096167 -0.0052372147 -0.0045082704 0.012291224
-0.01729359 -0.015308878 -0.020431096 -0.024816243 0.007505088 -0.047642093 0.06684772 0.14904253
0.0020165646 -0.014675073 0.0061541963 0.013141278 0.0030441843 0.0014864114 0.021293852 0.019142086
-0.040767517 -0.010519877 -0.017336065 -0.010232095 0.0013034028 -0.0008872387 0.003347961 0.0012675218
0.002071614 0.00029916735 -0.00125443 -0.009629177 0.0020976858 -0.0027337493 6e-45 0.009942406
0.003597026 0.006338028 0.0019328881 0.0019465631 0.0023935924 0.009423074 0.0046998365 -0.013168189
0.0048745656 -0.00538551 -0.00020778121 -0.0017471217 0.0021789854 2.7218106e-05 -6e-45 6e-45
-0.007969431 0.002036226 -0.012315136 -0.018758776 -0.0006553268 -0.0060449303 -0.05666227 0.11277782
-0.004152264 -0.004595113 0.004226938 -0.00020253556 -0.0032519803 0.023354558 -0.08048477 -0.10961762
-0.017048772 -0.00808094 -0.012864678 -0.008258523 0.0036011748 -0.015391848 0.04867189 0.082990795
0.01800945 -0.0014165677 -0.0015847418 -0.00602643 0.0015359668 -0.031498738 0.021290476 0.05906169
0.0030502402 0.00016589646 -0.0023315395 0.00071082235 -0.0007272938 -0.004419273 0.015313482 0.022344712
0.004859566 0.0012698262 -0.0012071368 0.0005150243 0.0023848147 0.0024005454 2.9708977e-07 9.717831e-05
-0.025714269 0.0016430662 -0.005982576 0.0113591375 -0.010282009 0.0019141795 6e-45 -0.009052658
0.024417784 0.012689578 0.02241803 0.006648471 0.0043324446 0.026475687 -0.045280114 -0.07362562
0.02206718 0.008092619 0.0058917487 -0.00351685 -0.0004981073 0.007836234 -0.009938435 -0.010514199
0.004719807 -0.0022314065 0.0014380282 0.003718386 0.0029010205 -0.0017577667 0.027834924 0.04087775
0.015323262 0.010536492 0.004884129 -0.0024934819 0.011409267 0.014496698 0.016022217 2.652915e-05
0.010127526 -0.007169297 -0.001363777 0.004209729 -0.0018096978 -0.001411541 6e-45 6e-45
-0.0004276572 -0.0035350153 0.0008838176 0.003771163 0.0035349082 0.003000952 0.0009270299 -0.0016746712
-0.01423589 0.0014312105 -0.0046123695 -0.013567051 0.00511297 0.009504083 -1.2113979e-05 5.686542e-10
0.00253916 -0.0049078013 -0.006008129 -0.012942029 0.0022847054 -0.01708862 0.048597466 0.08150904
-0.012682468 -0.008936645 -0.001258026 0.0069618654 -0.005167859 -0.0060678045 0.0067671887 0.016839864
-0.013714216 -0.0053152037 -0.0061055147 -0.006080353 -0.0025353655 -0.008529568 -0.001644383 -9.409276e-05
0.0024506724 -0.0010281937 0.00061822095 0.003873949 -0.0010835994 0.00011664464 -0.0068986723 -0.009268776
-0.014212995 0.0051477402 -0.008888395 -0.02043221 0.004279038 0.0010324992 0.0006214408 6e-45
0.0031632015 0.00586425 -0.0049917228 0.0022949467 -0.0029833757 -0.016066825 -0.019398913 -0.016113734
00000000: 6e54 adbb 29eb bdba fd60 643b 583a d039
00000010: ce42 1b3a d05e 923b 7cfd 4cbd 0e3c 82bd
00000020: a15b cebb df2d ff3b f2e4 1ebb 65ba abbb
00000030: ec4e dab9 8d29 c1bb 838d ab3c a4e2 143d
00000040: e769 113c 18d0 cfbb 8060 013c 06db 3fbb
00000050: 7e8a c63a 4823 363c 7771 083b a090 6abc
00000060: 81e8 d33b 8619 153c c481 afba e67f 663b
00000070: 6c7e e7ba b9be a03b 58a2 98ba 0be5 e53b
00000080: c8c1 b03d f5e2 8239 bcd5 e73a ab04 4c3d
00000090: 594f 79bc 8d4e a93c bd36 ecbd e999 a7bd
000000a0: fecb 54bd bc3d 07bd fb61 1ebd 7a0b cbbb
000000b0: c9a5 043c f19c abbb 1dba 93bb 2161 493c
000000c0: 49ab 8dbc 17d2 7abc 1d5f a7bc 6f4b cbbc
000000d0: 3eed f53b 5b24 43bd 75e7 883d 9b9e 183e
000000e0: 5728 043b b86f 70bc 24a9 c93b 844e 573c
000000f0: f080 473b b1d3 c23a 7270 ae3c ddcf 9c3c
00000100: d7fb 26bd 905b 2cbc 5d04 8ebc 84a4 27bc
00000110: f1d6 aa3a 9595 68ba 7769 5b3b f922 a63a
00000120: eac3 073b 90d9 9c39 b06b a4ba b2c3 1dbc
00000130: 5479 093b b428 33bb 0400 0000 79e5 223c
00000140: 15bc 6b3b 3baf cf3b f658 fd3a d223 ff3a
00000150: d1dd 1c3b 3d63 1a3c 1601 9a3b 63bf 57bc
00000160: d2ba 9f3b ef78 b0bb d8df 59b9 adff e4ba
00000170: 4fcd 0e3b 7052 e437 0400 0080 0400 0000
00000180: 3792 02bc 3472 053b 6dc5 49bc 01ac 99bc
00000190: 3dca 2bba 8d14 c6bb b216 68bd 0ff8 e63d
000001a0: b70f 88bb 9a92 96bb 2082 8a3b ba5f 54b9
000001b0: 2d1f 55bb 0f52 bf3c 33d5 a4bd 347f e0bd
000001c0: dea9 8bbc eb65 04bc 5fc6 52bc c24e 07bc
000001d0: b001 6c3b 172e 7cbc 2d5c 473d 14f7 a93d
000001e0: 8e88 933c 20ac b9ba 1cb7 cfba 5c79 c5bb
000001f0: 7e52 c93a d204 01bd 5d69 ae3c acea 713d
00000200: 8ae6 473b 7ef4 2d39 becc 18bb 7b56 3a3a
00000210: dca7 3eba 8dcf 90bb 66e5 7a3c 420c b73c
00000220: ff3c 9f3b 4c70 a63a ca38 9eba b202 073a
00000230: 8d4a 1c3b 7852 1d3b b57f 9f34 35cc cb38
00000240: bba6 d2bc 275c d73a 7c09 c4bb ad1b 3a3c
00000250: df75 28bc 35e5 fa3a 0400 0000 9a51 14bc
00000260: ce07 c83c f3e7 4f3c 04a6 b73c 6bdb d93b
00000270: 2ef7 8d3b 8ae3 d83c a477 39bd 07c9 96bd
00000280: 3bc6 b43c e796 043c 920f c13b f47a 66bb
00000290: 6a93 02ba 8c63 003c d1d4 22bc bf43 2cbc
000002a0: 9ca8 9a3b ca3c 12bb 387c bc3a 2ab0 733b
000002b0: 0c1f 3e3b dd64 e6ba 1106 e43c 6d6f 273d
000002c0: 6b0e 7b3c 40a1 2c3c 0b0b a03b af69 23bb
000002d0: efed 3a3c 8f83 6d3c 0641 833c ea8a de37
000002e0: eced 253c 6cec eabb c3c0 b2ba c4f1 893b
000002f0: 6233 edba 7503 b9ba 0400 0000 0400 0000
00000300: 2e37 e0b9 b7ab 67bb ffaf 673a 9e25 773b
00000310: eba9 673b 9fab 443b ec03 733a a480 dbba
00000320: a63d 69bc 7597 bb3a 5c23 97bb 5648 5ebc
00000330: b38a a73b 03b7 1b3c 253d 4bb7 7b4f 1c30
00000340: 0968 263b 9fd1 a0bb d7df c4bb ce0a 54bc
00000350: ffba 153b 6ffd 8bbc 230e 473d 36ee a63d
00000360: 20ca 4fbc 026b 12bc 59e4 a4ba 5c20 e43b
00000370: 2557 a9bb 6fd4 c6bb 4bbf dd3b c1f3 893c
00000380: 97b1 60bc 292b aebb c510 c8bb b33d c7bb
00000390: 6028 26bb 9abf 0bbc 5688 d7ba aa53 c5b8
000003a0: 769b 203b 75c4 86ba 1b10 223a 14e2 7d3b
000003b0: 9007 8eba 1d9f f438 420e e2bb 10dc 17bc
000003c0: 9fdd 68bc 60ae a83b a1a0 11bc 7361 a7bc
000003d0: 2c37 8c3b ed54 873a 30e8 223a 0400 0000
000003e0: b74d 4f3b e528 c03b 9b91 a3bb d166 163b
000003f0: bd84 43bb 939e 83bc 78ea 9ebc f300 84bc

exp_avg_sq f4 [256, 8]
0.0011273848 0.0059152194 0.0016281033 0.0019413925 0.00080725976 0.0030784693 0.026299717 0.032270458
0.001133822 0.015066489 0.0021892672 0.0081649115 0.000707381 0.0011095507 0.00786867 0.0072478177
0.0018815328 0.017685318 0.0022489124 0.006939343 0.0007671003 0.0046213362 0.010169398 0.007135281
0.0012472768 0.01176089 0.0016095546 0.007928251 0.0005031014 0.0005619741 0.00010335053 0.0008046288
0.054354183 0.0770062 0.03758252 0.09635752 0.022901725 0.13490807 0.6789733 0.6332939
0.011792237 0.09833677 0.01760468 0.06707549 0.005088461 0.0068215877 0.023687204 0.0012591359
0.022566022 0.0072305147 0.0164245 0.044378616 0.014271351 0.0753282 0.27463326 0.2563278
0.0028857037 0.012917658 0.0047026034 0.013350295 0.0014551965 0.00083058025 0.0022428092 0.0024242795
0.0047242115 0.0318654 0.004831693 0.020425461 0.0019784542 0.0035863193 0.0009534775 0.0012030525
0.0005226742 0.001301352 0.00039949402 0.0013891421 0.00012998973 0.0003799265 7e-43 0.0010052641
0.000653074 0.00057508925 0.00043724282 0.00038149857 0.0003546901 0.0014214218 0.005584245 0.0089861555
0.00058632076 0.009193535 0.000936399 0.0020071773 0.00014635955 0.0004035188 1.2427294e-15 7e-43
0.037372705 0.124778464 0.0425241 0.04671885 0.02301794 0.078370094 0.31640562 0.37281963
0.003846077 0.00032739862 0.0018140551 0.0012714787 0.0025974796 0.014457347 0.12590918 0.13654046
0.0069524264 0.001366665 0.004615295 0.012260968 0.0046563125 0.020345021 0.0903864 0.08716111
0.0035132025 0.00045961814 0.002666952 0.0035082516 0.0028044006 0.018847529 0.040430367 0.08068963
0.00027923923 0.0004537629 0.00018055034 0.00016078705 0.00021168955 0.0011610845 0.005140733 0.008506508
6.295623e-05 0.00035910454 0.00013198983 3.925056e-05 3.5448258e-05 0.00034698332 5.7571713e-05 4.124008e-05
0.003409934 0.03315262 0.0031968693 0.02082996 0.0010830474 0.0023616436 7e-43 0.00046489952
0.006193119 0.022356892 0.0063421456 0.020566488 0.0025084375 0.010199931 0.07150529 0.07417276
0.004448507 0.05622985 0.0060971216 0.030083263 0.0014384306 0.0014091323 0.0058817593 0.0044152355
0.0005677399 0.00039029244 0.00047946788 0.0006418051 0.00023995119 0.0012345777 0.0057667354 0.005911326
0.0018246021 0.020598516 0.005463423 0.011077999 0.0014793759 0.0083907 0.013189837 0.0030391733
0.00044061136 0.000679677 0.00019767453 0.0004058528 6.74869e-05 0.00044862131 3.299418e-09 7e-43
0.00041600666 0.00071456813 0.0006185434 0.0009565632 0.00028048834 0.00089992664 0.001144623 0.0024378626
0.0008195129 0.0014072222 0.000432827 0.000756636 0.00036152493 0.00083330553 0.0009398042 0.00067217497
0.003753563 0.0012742392 0.0030625907 0.006780198 0.002526785 0.01932591 0.052969243 0.06352856
0.0014734362 0.0133753875 0.0019702206 0.010864061 0.0007160279 0.0015459444 0.007765715 0.007296034
0.00081490556 0.0046889074 0.0007570995 0.004533302 0.0002751497 0.0007272937 0.0008551737 0.0024819598
0.00013795879 0.00033004297 0.00013172496 0.00041642127 6.71679e-05 0.00031100068 0.0015977453 0.0016836916
0.0013982563 0.008658503 0.0018114428 0.007170676 0.00053968263 0.000990495 0.00040676087 7e-43
0.0037270468 0.0015927684 0.0017561577 0.000512086 0.0026617693 0.0051985863 0.020528795 0.052584734
00000000: c2c4 933a 75d4 c13b 1566 d53a 5376 fe3a
00000010: 499e 533a 25c0 493b 8172 d73c 072e 043d
00000020: c19c 943a 6fd9 763c cf79 0f3b 1fc6 053c
00000030: 896f 393a 586e 913a 98eb 003c 1a7f ed3b
00000040: c49d f63a cde0 903c 7d62 133b 6e63 e33b
00000050: 3b17 493a 946e 973b 8c9d 263c 13cf e93b
00000060: aa7b a33a bfb0 403c b1f7 d23a 7fe5 013c
00000070: 90e2 033a 7251 133a e5bd d838 baed 523a
00000080: 7ea2 5e3d 6db5 9d3d 21f0 193d 1757 c53d
00000090: 669c bb3c 5725 0a3e 32d1 2d3f 8d1f 223f
000000a0: 3a34 413c ca64 c93d b137 903c e05e 893d
000000b0: 1bbd a63b a087 df3b ab0b c23c 9709 a53a
000000c0: 61dc b83c f4ed ec3b ac8c 863c 5ac6 353d
000000d0: 62d2 693c ac45 9a3d bb9c 8c3e 663d 833e
000000e0: 131e 3d3b 96a4 533c 4c18 9a3b 32bb 5a3c
000000f0: 4bbc be3a 4cbb 593a 18fc 123b a9e0 1e3b
00000100: 8fcd 9a3b 4b85 023d 2e53 9e3b 4c53 a73c
00000110: f4a8 013b 7408 6b3b cbf2 793a beaf 9d3a
00000120: 1204 093a 2192 aa3a 2e73 d139 e013 b63a
00000130: da4d 0839 df30 c739 f401 0000 11c3 833a
00000140: 0e33 2b3a 96c1 163a bd3d e539 df03 c839
00000150: b3f5 b939 004f ba3a 0bfc b63b ab3a 133c
00000160: 52b3 193a 7ba0 163c ac78 753a d98a 033b
00000170: 1878 1939 608f d339 9f18 b326 f401 0000
00000180: 1f14 193d da8b ff3d c02d 2e3d 445c 3f3d
00000190: 1e90 bc3c 8080 a03d ebff a13e 37e2 be3e
000001a0: 770e 7c3b b3a6 ab39 97c5 ed3a bfa7 a63a
000001b0: 7a3a 2a3b 82de 6c3c 56ee 003e 43d1 0b3e
000001c0: 2ed1 e33b ab21 b33a e73b 973b 3ae2 483c
000001d0: fb93 983b 9aaa a63c 811c b93d 8681 b23d
000001e0: c23d 663b e7f8 f039 08c8 2e3b b2ea 653b
000001f0: 09ca 373b 2266 9a3c 509a 253d 9b40 a53d
00000200: db66 9239 07e7 ed39 1d52 3d39 f298 2839
00000210: fbf8 5d39 882f 983a 9873 a83b e15e 0b3c
00000220: 5e07 8438 3246 bc39 c066 0a39 f8a0 2438
00000230: 47ae 1438 50eb b539 2879 7138 33f9 2c38
00000240: 3379 5f3b 0bcb 073d 9182 513b 98a3 aa3c
00000250: 0af5 8d3a cec5 1a3b f401 0000 c2bd f339
00000260: a6ef ca3b cd25 b73c c6d1 cf3b 0d7b a83c
00000270: 9964 243b 9d1d 273c 5e71 923d e3e7 973d
00000280: c8c4 913b 4551 663d 5dca c73b 2d71 f63c
00000290: b989 bc3a a2b2 b83a c6bb c03b aead 903b
000002a0: 61d4 143a 2aa0 cc39 1761 fb39 d03e 283a
000002b0: 689b 7b39 8ed1 a13a e2f6 bc3b ccb3 c13b
000002c0: 7d27 ef3a 38be a83c 8406 b33b 7f80 353c
000002d0: 9ee7 c13a 2679 093c 301a 583c de2c 473b
000002e0: db01 e739 5a2c 323a da46 4f39 a4c8 d439
000002f0: c187 8d38 ef34 eb39 fabb 6231 f401 0000
00000300: 781b da39 db51 3b3a bf25 223a dfc1 7a3a
00000310: 820e 9339 0ee9 6b3a 2d07 963a 8cc4 1f3b
00000320: 94d4 563a 8b72 b83a 0eed e239 fb58 463a
00000330: 0e8b bd39 3072 5a3a 315d 763a e634 303a
00000340: 56fe 753b 5f04 a73a bfb5 483b 6c2c de3b
00000350: 6b98 253b 5f51 9e3c 47f6 583d 431b 823d
00000360: 5120 c13a 7124 5b3c d11e 013b 2dff 313c
00000370: d2b3 3b3a 49a1 ca3a 8a77 fe3b 9213 ef3b
00000380: 639f 553a 68a5 993b 1678 463a 188c 943b
00000390: f841 9039 dba7 3e3a bc2d 603a 60a8 223b
000003a0: 08a9 1039 9e09 ad39 a61f 0a39 1e53 da39
000003b0: 7edc 8c38 ce0d a339 706b d13a 51af dc3a
000003c0: b245 b73a 65dc 0d3c ef6d ed3a fdf7 ea3b
000003d0: 7d79 0d3a 7fd3 813a 8542 d539 f401 0000
000003e0: 7841 743b 70c4 d03a e02e e63a 823d 063a
000003f0: 1471 2e3b e758 aa3b 012c a83c 1763 573d

exp_avg f4 [256]
-0.06725826 0.038947284 -0.03601674 -0.027177947 -0.39904076 0.030798497 0.2589156 0.0018889605
0.082809836 0.034091953 0.0023478058 -0.004881441 0.014073708 -0.11868882 0.13418017 0.06536829
0.02000524 0.0005892147 0.023020066 -0.12346437 -0.055017885 0.023611257 -2.1807527e-05 -0.025102518
-0.010347855 0.050577268 0.11151624 0.0020257428 0.043212105 -0.021655831 0.067299366 -0.018141564
0.020083675 0.18056914 -0.043509226 -0.061190706 0.037727576 0.26607615 -0.02102933 -0.019973438
-0.016909126 -0.025502518 0.037182827 0.04182118 -0.1781551 0.2648388 0.03355725 -0.0048525813
0.13973829 -0.069096945 0.06945017 0.14531896 0.066621386 -0.067928754 0.021066202 0.0062362626
-0.015582779 0.018480726 -0.018604096 0.116312936 -0.0037465305 0.014744558 -0.0032451593 -0.0014180223
-0.025092507 0.6862259 -0.0045020618 0.020465873 -0.019297624 -0.06574266 -0.07405264 -0.04375594
-0.030666424 0.13374259 -0.014003628 0.02197673 0.09850537 -0.15092729 0.08788567 0.110730015
0.01325858 0.093613364 -0.018017381 -0.004759415 0.013929062 0.067098014 -0.013032158 0.0008497486
-0.007104859 -0.011424195 -0.06732971 -0.065237716 -0.050292794 0.008419311 -0.05505694 -0.036603548
0.076593995 0.016664688 -0.114849366 0.24191882 -0.0154708 0.022530813 -0.005187503 -0.0667353
0.010081306 0.028222278 -0.009676382 -0.009911294 0.033920556 0.038246896 0.23741886 0.043536235
0.05478493 -0.02659941 0.004568528 0.026697315 -0.004828171 0.0013721405 0.040172283 0.032574493
-0.045345612 0.24399458 -0.0023106288 -0.010078519 -0.066436894 0.0832864 -0.12498571 -0.23622014
0.20328458 0.12888357 -0.24917512 -0.0108396895 -0.23532249 0.05345252 0.07792587 0.043990318
-0.13166869 -0.07837937 6e-45 0.04386551 -0.056990877 0.16093585 0.119526245 0.001029926
0.03486251 0.09161475 -0.018409086 0.043371357 -0.11896759 -0.04626847 0.0027216072 0.020750035
-0.2515224 0.006399532 0.118148156 0.17429571 0.061458003 0.037773717 0.033963427 -0.027260737
-0.029724453 -0.10875698 -0.014801419 0.22758873 0.105027735 -0.15327121 -0.0055135717 0.018065423
0.042525448 -0.007363977 0.088655725 0.007690675 -0.037026707 0.06634518 -0.12844129 0.09307623
-0.016035665 0.15087506 -0.07562694 0.008271566 -0.027241688 -0.041335795 0.035233106 -0.18052202
0.015153228 0.10456837 0.00034348428 -0.08553846 0.03917978 -0.08114719 0.16209483 0.011626219
-0.015341886 -0.015317795 -0.0023057885 -0.024073277 -0.09147589 -0.07365681 0.13693264 0.0027125885
0.035546307 -0.055230048 0.021883206 -0.2337988 0.020548526 0.020468576 -0.098222 -0.09012546
0.008611498 0.009171679 0.02496664 0.19729552 0.03857896 -0.116760865 -0.14328621 -0.018512135
0.08551474 0.012573405 -0.026478935 -0.10259894 -0.05371207 -0.046355225 0.024119241 0.015851282
-0.0053496337 0.045780726 0.03288572 0.034300722 0.03525663 0.05053298 0.037884302 -0.0037475587
-0.124913245 -0.0044959825 -0.0017491853 0.046416562 0.1364876 0.030712772 0.10559506 -0.013198616
-0.051418588 -0.13563353 -0.05332575 0.011937636 -0.025779303 -0.035636827 0.21146971 -0.040769707
0.20446521 -0.012857223 -0.008855361 -0.0047666538 -0.056831956 -0.09221925 -0.0064389114 -0.11316422
00000000: b3be 89bd 3087 1f3d 4a86 13bd 49a4 debc
00000010: 124f ccbe 214d fc3c 9690 843e ff96 f73a
00000020: 3498 a93d 01a4 0b3d a5dd 193b 7ff4 9fbb
00000030: 6995 663c 2013 f3bd 8766 093e cfdf 853d
00000040: 07e2 a33c 8775 1a3a 9494 bc3c e3da fcbd
00000050: 6f5a 61bd 656c c13c 4fef b6b7 cca3 cdbc
00000060: 0d8a 29bc 1c2a 4f3d a062 e43d 53c2 043b
00000070: 2dff 303d 9267 b1bc 40d4 893d 9e9d 94bc
00000080: 8586 a43c 1ee7 383e bb36 32bd 1ba3 7abd
00000090: 3b88 1a3d 223b 883e b445 acbc 569f a3bc
000000a0: 0285 8abc a8ea d0bc 054d 183d b04c 2b3d
000000b0: 4a6e 36be f498 873e 5473 093d 6702 9fbb
000000c0: 8e17 0f3e b382 8dbd e43b 8e3d 7ece 143e
000000d0: cb70 883d 3b1e 8bbd 0793 ac3c 9059 cc3b
000000e0: ea4e 7fbc e464 973c 9e67 98bc 7a35 ee3d
000000f0: 5a88 75bb 2993 713c bdac 54bb efdc b9ba
00000100: cd8e cdbc 80ac 2f3f 0886 93bb 0ca8 a73c
00000110: 0d16 9ebc 16a4 86bd e9a8 97bd 6e39 33bd
00000120: 2738 fbbc d1f3 083e 796f 65bc 8b08 b43c
00000130: 2fbd c93d af8c 1abe 67fd b33d 6bc6 e23d
00000140: 843a 593c 5db8 bf3d 3099 93bc def4 9bbb
00000150: b836 643c af6a 893d d584 55bc aac1 5e3a
00000160: e1cf e8bb 8c2c 3bbc 29e4 89bd 5a9b 85bd
00000170: d1ff 4dbd 26f1 093c 6383 61bd 9aed 15bd
00000180: 50dd 9c3d 6284 883c 2536 ebbd 91b9 773e
00000190: 3d79 7dbc 8a92 b83c eefb a9bb 84ac 88bd
000001a0: 102c 253c 6832 e73c b089 1ebc fb62 22bc
000001b0: 48f0 0a3d c7a8 1c3d ee1d 733e 0d53 323d
000001c0: 2a66 603d 02e7 d9bc 97b3 953b 54b4 da3c
000001d0: a235 9ebb 65d9 b33a b18b 243d d56c 053d
000001e0: 52bc 39bd b7d9 793e eb6d 17bb 5f20 25bc
000001f0: 1110 88bd 0f92 aa3d 82f8 ffbd b1e3 71be
00000200: d529 503e 0efa 033e c327 7fbe f498 31bc
00000210: 61f8 70be 08f1 5a3d 9997 9f3d 312f 343d
00000220: 28d4 06be 5d85 a0bd 0400 0000 52ac 333d
00000230: 446f 69bd 5ecc 243e 2dca f43d 95fe 863a
00000240: fecb 0e3d 84a0 bb3d a7ce 96bc 2aa6 313d
00000250: 48a5 f3bd 0284 3dbd fe5c 323b fafb a93c
00000260: 8bc7 80be 2ab3 d13b a9f7 f13d 937a 323e
00000270: 63bb 7b3d 9db8 1a3d 3c1d 0b3d e951 dfbc
00000280: b280 f3bc fbbb debd a781 72bc 050d 693e
00000290: c818 d73d 21f3 1cbe 31ab b4bb f0fd 933c
000002a0: 2a2f 2e3d 844d f1bb 2291 b53d 0f02 fc3b
000002b0: 51a9 17bd fbdf 873d 1d86 03be c09e be3d
000002c0: 3a5d 83bc fe7e 1a3e 4ce2 9abd 7685 073c
000002d0: f629 dfbc b94f 29bd 9750 103d c4da 38be
000002e0: 3f45 783c f127 d63d ae15 b439 ca2e afbd
000002f0: fa7a 203d 7f30 a6bd 30fc 253e e67b 3e3c
00000300: 895c 7bbc 7df7 7abc b61c 17bb 5235 c5bc
00000310: b657 bbbd 62d9 96bd 1238 0c3e afc5 313b
00000320: 0199 113d e738 62bd 6944 b33c f468 6fbe
00000330: 6255 a83c b7ad a73c 9e28 c9bd b293 b8bd
00000340: 3e17 0d3c cf44 163c d786 cc3c d607 4a3e
00000350: f904 1e3d 5220 efbd 9fb9 12be c3a6 97bc
00000360: 5a22 af3d af00 4e3c 5aea d8bc 651f d2bd
00000370: 3001 5cbd fade 3dbd b795 c53c 8cda 813c
00000380: fb4b afbb 9284 3b3d 2db3 063d ea7e 0c3d
00000390: 4269 103d acfb 4e3d 922c 1b3d 9a99 75bb
000003a0: 84d2 ffbd 0953 93bb eb44 e5ba 4b1f 3e3d
000003b0: 68c3 0b3e 5a99 fb3c 3942 d83d 023f 58bc
000003c0: 4c9c 52bd 84e3 0abe 1a6c 5abd 1396 433c
000003d0: 1e2f d3bc ecf7 11bd 848b 583e 23fe 26bd
000003e0: 545f 513e 1aa7 52bc 1316 11bc 9731 9cbb
000003f0: a0c8 68bd 72dd bcbd 81fd d2bb a4c2 e7bd
