results/heavy/models/checkpoint_ep100.pth (torch, 436170 bytes, 18 tensors)

fc1.weight f4 [256, 8]
000000 9e 20 ed 3e 5a bf 48 be c1 33 85 bf a3 e7 2b 3e
       0.46313947 -0.19604245 -1.0406419 0.16787581
000010 e6 1c 4f bf 23 ca eb be 00 0a 2a be cc 2a 54 3f
       -0.8090347 -0.46052656 -0.16605377 0.828778
000020 9e b7 48 3f b8 55 ae bd b3 4f 57 3e d0 d1 88 bd
       0.7840518 -0.08512443 0.21026497 -0.066806436
000030 82 2c 03 bf 8d 04 5c be a7 7c f3 3e 5b 61 59 bc
       -0.5123979 -0.21486111 0.4755604 -0.01326784
000040 72 2d 51 be 31 08 67 3f 89 38 8e 3e 66 c0 93 3e
       -0.20427492 0.90246874 0.27777508 0.28857726
000050 21 66 72 3e 07 49 44 be a7 e7 3c 3f b6 c8 cd 3e
       0.23671772 -0.19168483 0.73790973 0.40192193
000060 e3 fb a2 be d8 47 f2 3d b1 cc 03 bd 15 90 c6 3e
       -0.318328 0.11830109 -0.03217763 0.387818
000070 2c d2 32 3f ef 70 a1 3e e3 01 51 be 4a 05 88 bd
       0.69851947 0.31531474 -0.20410876 -0.06641634
000080 db 5b 40 bf e9 3f 2e bf c8 ba 0f bf 8e 6c fc bd
       -0.7514016 -0.6806627 -0.5614438 -0.12325393
000090 08 b4 42 3e a1 a6 8d be 9c 82 1c 3c 34 bf c4 3d
       0.19013989 -0.2766619 0.009552624 0.096067816
0000a0 1e 19 a5 3e 26 48 4f 3d a5 b6 05 bd af 26 05 be
       0.32245725 0.050605915 -0.032644887 -0.13003038
0000b0 d3 fa 73 3f 9f a4 89 bf 64 9f 95 3e 1a 20 88 bf
       0.953046 -1.0753363 0.29223168 -1.0634797
0000c0 de df 2b 3e 2c da 7e bf 20 85 b6 3e f7 52 3d bc
       0.16784617 -0.99551654 0.3564844 -0.011555425
0000d0 08 25 1d 3f c1 22 32 3d fc bc 16 3e 2e 91 21 3f
       0.6138463 0.043490175 0.1472053 0.6311215
0000e0 ab 3e eb bd b6 04 43 bf e0 fd d7 3e 80 26 1e be
       -0.11486562 -0.76179063 0.4218588 -0.15444374
0000f0 f9 84 a4 3d 19 1b f0 be 4b e1 c6 3e 2b 00 60 3f
       0.08033175 -0.46895674 0.3884376 0.87500256
000100 7b c6 1c bf 29 c3 43 3f b1 d7 d8 3d 7f 8b c1 3e
       -0.6124036 0.76469666 0.10588015 0.3780174
000110 d5 1b 98 3f b9 35 30 bf 70 df 8b be 60 d2 14 bf
       1.1883494 -0.68831974 -0.27318907 -0.58133507
000120 a8 c9 75 3f 3b 66 09 bf 6c 81 39 3f 8e da 42 bd
       0.9601083 -0.53671616 0.7246311 -0.04757171
000130 5d cd ad 3e 3e 72 83 bf 69 6a bb bf 0e 7a bf be
       0.33945742 -1.0269239 -1.4641849 -0.37397808
000140 37 af 21 be 60 67 c9 3d 67 ff 67 bf 47 13 1b 3f
       -0.15789495 0.0983417 -0.9062409 0.6057629
000150 6d d7 80 3e 77 65 66 bd c4 0e 54 3c 8d bc 50 3f
       0.25164357 -0.05624911 0.0129429735 0.81537706
000160 70 c1 66 be d4 4a 7b 3f 42 13 84 3d ab ce ab 3e
       -0.22534728 0.98161054 0.06448986 0.33556113
000170 97 a3 58 3b 96 04 09 3f d0 26 07 bf 2c e2 37 bf
       0.0033056492 0.5352262 -0.527936 -0.71829486
000180 be 93 a5 be cd 45 78 3e 04 a1 b3 bf 0d 1e 81 3e
       -0.3233928 0.24245377 -1.4033513 0.2521824
000190 65 ff 38 be cc e2 9f 3b f3 0c cf be e1 f2 fb bd
       -0.18066175 0.004879331 -0.40439567 -0.12302185
0001a0 e3 0f 9d 3e 4f f1 be be 97 45 af 3e 46 d0 8b 3f
       0.30676183 -0.3729348 0.3423278 1.0922935
0001b0 5c 7e 6e bf 5b 28 3d 3e 16 20 ce 3e 79 98 2d 3f
       -0.9316156 0.18472426 0.40258855 0.6781078
0001c0 db 32 8c 3d 79 45 96 bf 59 e4 06 3f e6 c5 37 3d
       0.068456374 -1.1739951 0.5269218 0.044866465
0001d0 4e 3f 21 3f 2f c0 d5 3e 39 23 df 3e 3c d4 77 3f
       0.6298722 0.41748187 0.4358156 0.9680822
0001e0 d0 04 8d be 83 c0 9f 3c d5 91 94 bf e6 3f 61 3e
       -0.27542734 0.019500976 -1.1607004 0.21997032
0001f0 b7 46 fe 3d ff 78 46 bf 73 87 4a be 41 41 43 3f
       0.124158315 -0.77528375 -0.19778232 0.76271445
000200 69 21 55 3e cc c8 ed 3c 00 1d 66 3f 23 08 51 3f
       0.20813526 0.029026411 0.89888 0.8165304
000210 63 30 1c 3f 66 05 d1 be 0a 5e 50 bd 71 56 82 3f
       0.6101133 -0.4082443 -0.050870933 1.018263
000220 97 2f 58 bf d7 82 b8 3c 99 1c 10 bf b1 de 38 3e
       -0.84447616 0.022523327 -0.56293637 0.180537
000230 0f 05 8d be 64 b2 ca bd ba e3 42 bf d4 54 61 be
       -0.27542922 -0.098973066 -0.76128733 -0.22005016
000240 fe a9 8f 3e 5d 0f 0c 3f 1d 56 8d 3f ae 0b dd bd
       0.2805938 0.5471094 1.1041905 -0.10793243
000250 8e 25 da 3e e5 73 07 bf dd 89 1e bf de 58 8d be
       0.42606777 -0.52911216 -0.6192911 -0.27606863
000260 78 3f 75 3e 4e 85 96 be fb db ee 3d 0c 14 9b be
       0.23949993 -0.29398578 0.11663052 -0.30288732
000270 54 e6 9d bf c6 6a 83 be 3b 5a 64 3e 2a 49 bd 3e
       -1.2335916 -0.256674 0.22300045 0.36969882
000280 2b 87 d3 3e 87 d2 0f 3c d6 aa 0d bf 5b 1e ae 3e
       0.41314062 0.008778221 -0.553388 0.34007534
000290 12 fc 69 3f 83 58 ae 3f 33 b7 a3 3d c6 87 be be
       0.91400254 1.3620762 0.07993927 -0.37212962
0002a0 e7 79 e8 3d 3c ef 8a bf c3 df a3 be 28 2c c2 bd
       0.11351376 -1.0854259 -0.32006654 -0.094810784
0002b0 d0 e6 ee be 42 a3 87 bc 47 e0 50 3f 66 a7 82 3d
       -0.4666047 -0.01655734 0.8159222 0.06379585
0002c0 7c 8f 84 be 42 43 26 3d 19 dd 06 3f 7b 71 31 bd
       -0.2589072 0.040591486 0.5268112 -0.043321114
0002d0 29 ba 6f be 18 10 b7 be 52 5d 13 3f 5a 59 aa be
       -0.23410858 -0.35754466 0.5756427 -0.33271295
0002e0 be 12 b2 be 94 f5 a6 be 88 ce e4 be 8d de 80 be
       -0.34779924 -0.32609236 -0.4468882 -0.25169793
0002f0 5e be bc be 36 50 1f 3c 46 2a 1a bf a0 f5 3b bf
       -0.3686399 0.009723714 -0.60220754 -0.7342167
000300 fb 88 cd 3c 98 92 83 be ab ae c6 be a3 0e ca be
       0.025089731 -0.2569778 -0.38805136 -0.39464292
000310 87 bb 65 bf 7f af 7c bf c2 af b9 be fa a5 2d 3f
       -0.8973927 -0.98705286 -0.36266905 0.67831385
000320 78 db 7c bf be 78 b3 3e b6 3d b2 3e 3f b3 31 3f
       -0.9877238 0.35053056 0.34812707 0.6941413
000330 65 6d 1d 3f 91 23 99 be ff 71 0b bf 69 67 40 be
       0.6149505 -0.29909948 -0.5447082 -0.18789448
000340 3d 60 30 3f e5 3e 74 bf 25 f3 49 be 1c 04 85 be
       0.6889685 -0.9540847 -0.19721659 -0.25979698
000350 f4 31 34 bf 81 5b 03 3f 52 ad 4b 3f 49 f0 e0 3d
       -0.7038872 0.513115 0.7956134 0.10983331
000360 f1 96 82 3e e7 21 2f 3e 6c 1e 88 3f d9 b5 1b bf
       0.25505784 0.17102776 1.0634284 -0.6082435
000370 9d 50 2d 3b a7 45 79 bf 20 32 0b 3f 12 b9 c1 3e
       0.0026445754 -0.97371906 0.5437336 0.3783651
000380 b0 02 ee 3e 29 7d 10 be 9f fa e7 3e 12 66 c1 ba
       0.46486425 -0.14110245 0.45308396 -0.0014755151
000390 04 69 24 3f db d6 a8 be b0 6b b4 be 84 39 d9 be
       0.6422274 -0.32976422 -0.3523841 -0.42426693
0003a0 3c 00 37 bf c4 57 d1 3e f8 7c 8a 3e 5b b9 00 be
       -0.7148473 0.40887272 0.2704847 -0.12570707
0003b0 e8 f8 85 bd 3e 7e 21 bf c9 21 33 3b 0b d1 68 3e
       -0.06541616 -0.63083255 0.002733337 0.22735994
0003c0 e2 b8 b9 be f3 e8 6b 3f f9 cb 44 3b ce 31 8c 3d
       -0.36273867 0.9215233 0.0030028804 0.06845437
0003d0 60 e0 0e bf 5c 6e 31 3f 0c 41 7d be 14 ff 4e bf
       -0.5581112 0.6930902 -0.24731845 -0.8085797
0003e0 fd 8f f6 3e 88 ab 8c bc 81 ed 6d 3e d7 28 65 3f
       0.4815673 -0.017171636 0.23235132 0.8951544
0003f0 ed 86 bb be 86 b6 83 3e b4 33 af be 29 f0 a7 be
       -0.36626378 0.25725192 -0.34219134 -0.32800415

fc1.bias f4 [256]
000000 53 10 8c 3d e4 eb f0 3d 47 14 03 3e dd 56 0e 3e
       0.06839051 0.117637426 0.12800704 0.13900323
000010 f5 3a 82 bc 3c 23 75 3d c5 78 1d 3e 78 c7 12 3c
       -0.015897254 0.059848055 0.15378101 0.00895869
000020 5a 25 dc 3b 6c a4 03 3e c5 37 cb b9 73 ce 0a 3d
       0.00671832 0.1285569 -0.0003876073 0.03388829
000030 1d ce 63 3d 7b d0 d0 3d 6e 93 fa 3d 53 c7 8f 3c
       0.055616487 0.101960145 0.12235151 0.0175511
000040 72 46 8f 3d 16 6c e0 3c 1e c9 ab 3d 05 4a b6 3d
       0.06995858 0.02739529 0.083879694 0.08900837
000050 f7 05 1b 3e 66 9e 2c 3e e1 56 c7 bc 5a bd ad 3d
       0.15138994 0.16857299 -0.02433342 0.084833816
000060 32 61 d2 bc 1e e0 b5 3d 6d ab 04 3d 83 f9 dd bc
       -0.025681112 0.088806376 0.032390047 -0.027096516
000070 5f 38 2c 3e 24 93 0d 3d f8 9f 12 3e fd b3 8b 3d
       0.16818379 0.034564152 0.14318836 0.068214394
000080 56 13 28 3d 21 e5 95 bc fd f5 db bc ed 55 c7 3d
       0.041034065 -0.018297734 -0.026850695 0.09733186
000090 8b 0f ac 3d 3d c1 5a 3e 72 d0 fb 3c c1 c9 77 bc
       0.08401402 0.21362777 0.030739043 -0.0151237855
0000a0 b6 24 c2 3c 8f 95 43 3d b3 e1 e4 3c d5 93 08 3d
       0.023699146 0.047750052 0.027939653 0.03334411
0000b0 e3 f0 cb bc 1b 9d 93 3d ab 15 06 3d 49 3a a9 3c
       -0.024895137 0.072077 0.032735508 0.020657675
0000c0 2a 06 dd 3d d4 ca c2 bc 9b dc fa 3d b1 4e 0d 3c
       0.10792191 -0.023778357 0.122491084 0.0086247185
0000d0 75 3e ce 3d 7e ed f5 bc 57 22 1d bc eb 40 9b 3d
       0.100705065 -0.030020472 -0.009590707 0.075807415
0000e0 c5 c7 1b 3e 36 8c b8 bc 65 30 33 3e d9 6d 0a be
       0.15212925 -0.022527795 0.1749893 -0.13518466
0000f0 ff 90 39 3b 83 30 21 3e ee 05 9d 3d 3f c6 19 3e
       0.0028315184 0.15741162 0.076671466 0.15017031
000100 fa 91 b3 3d f6 7f bd 3d 59 b4 be bd 5b 03 05 3d
       0.08768077 0.09252922 -0.09311742 0.032473903
000110 30 3b 51 3d fc d5 09 bd 21 d0 cd 3d 67 0b a7 3d
       0.051081836 -0.033651337 0.10049463 0.08156472
000120 27 a3 d4 3d 4a 6f 58 3d 6f 91 30 3e 06 24 8c 3e
       0.10382681 0.05284051 0.17242979 0.27371234
000130 4a 7d c0 3d ff ae a0 3d f7 e0 ca 3d 07 54 2b 3e
       0.09398897 0.07845878 0.0990619 0.16731273
000140 ea 11 0a 3c 5f a7 2e 3e b3 84 c2 bc 5b dd dc bc
       0.008427123 0.17056035 -0.023744917 -0.02696102
000150 cb 84 cb 3d b7 b2 08 3e 8f 2e 22 3d 3c 0b 13 3d
       0.099374376 0.13349424 0.039595183 0.035899386
000160 ca e7 ad 3c 12 8d 88 3e d3 08 1f 3d e3 b8 b8 bc
       0.02122869 0.26670128 0.038826775 -0.022549098
000170 4a 75 08 3d 00 99 28 3d 7c aa 76 3c 52 5c b8 3c
       0.03331498 0.041161537 0.015055295 0.02250496
000180 df b9 e3 3d 86 63 b2 bd a9 45 44 3d 4d 4e d2 3c
       0.111194365 -0.08710389 0.047917996 0.025672102
000190 77 13 86 3d 52 d8 95 3d a5 d0 d3 bc ff 85 f6 bc
       0.065466814 0.073166505 -0.025856325 -0.030093191
0001a0 f1 f2 6e 3c 7d 3d 5b bd 48 a8 25 3d 99 08 76 3c
       0.014584289 -0.053525437 0.04044369 0.015016698
0001b0 e4 fc 36 3d 15 17 8c 3d 64 0a 27 3e 87 68 66 3d
       0.04467477 0.0684034 0.16312557 0.05625203
0001c0 ad c9 80 3d c9 c8 53 bd f2 c6 ac bb f4 34 05 3e
       0.062884666 -0.051705156 -0.0052727396 0.13008481
0001d0 ca d7 0c 3d 4b e2 ad 3c df 6b 98 3d ee 63 7f bc
       0.03438548 0.021226069 0.0744245 -0.01558779
0001e0 bd e3 1e 3d 8f bd da 3d 61 94 15 3c 43 09 38 3d
       0.038791407 0.10680687 0.009129615 0.044930708
0001f0 f0 f9 dc 3d 23 6f 2b 3e 84 75 44 bd 7f 58 39 bd
       0.10789859 0.16741614 -0.047963634 -0.045250412
000200 d1 48 1e 3e 72 ad e8 3d 52 28 33 3e f1 27 d1 3d
       0.15457465 0.11361207 0.1749585 0.10212696
000210 e3 5c 66 3c 94 f7 24 3e 5c 26 d6 3b b9 ae 23 3e
       0.014060232 0.16110069 0.0065353345 0.1598462
000220 c3 f1 00 3d e6 56 02 3e 65 6e 70 bd 8b 63 5e 3c
       0.031480562 0.12728462 -0.05869903 0.013573538
000230 cc ce e6 3d de 34 36 3e 1a 83 85 3e 01 0c 56 bd
       0.11269912 0.17793605 0.26076585 -0.05225754
000240 29 f0 f5 bd 34 c9 9e 3c 94 7f 04 bd a5 53 08 bb
       -0.120086975 0.01938305 -0.03234823 -0.002080181
000250 f9 9c 94 3d 59 c1 1c 3e 19 14 be bd f4 54 99 3d
       0.07256503 0.15308131 -0.09281177 0.07486907
000260 43 65 ac 3d 23 7e 21 3e ad 3c 95 3c 61 b9 af 3d
       0.08417752 0.15770774 0.018217409 0.0858028
000270 ef cb fc 3d 93 3a 95 3c 18 c8 02 3e a8 f6 45 3d
       0.12343585 0.018216407 0.12771642 0.048330933
000280 59 6d 92 3c ba b1 0f 3e b4 c1 76 3d 03 f9 b2 3d
       0.017874407 0.14032641 0.060243323 0.087389015
000290 4b 1e 1a 3e ac 4e 56 3d 55 58 63 3b 00 bc 88 3d
       0.15050618 0.05232112 0.0034690101 0.06676483
0002a0 eb b4 72 3d b4 2c e5 3c cd 49 a6 3d e2 a2 fc 3d
       0.059254568 0.027975418 0.08119545 0.12335755
0002b0 86 b9 38 3e 06 3a b2 3d 92 fb e8 3b fe e9 db 3c
       0.18039522 0.08702473 0.0071100676 0.026844975
0002c0 e4 65 99 3d 5e f6 7f 3d 3b d7 92 bd 84 c6 80 3e
       0.07490137 0.062490813 -0.07169958 0.25151455
0002d0 58 1e e8 3d 2a f5 a7 bc b7 13 88 3d 06 6b 75 3c
       0.113339126 -0.020502646 0.06644385 0.01497913
0002e0 8d b6 92 3d 2d 14 89 bd fd 44 c3 3d d2 b1 fb 3d
       0.07163725 -0.06693301 0.09534643 0.12289776
0002f0 c3 8f 39 3d fc bb 61 3d bb a5 9f 3d 3b 42 eb 3c
       0.045303117 0.055110916 0.077952825 0.028718105
000300 b1 8d b1 3c e5 a1 03 3e 90 b7 43 bc fe 26 13 3e
       0.021674009 0.12854727 -0.01194562 0.14370343
000310 9e 4c 16 bd fb 71 f7 3c 09 a6 1b bd 4b 18 6b 3d
       -0.03669416 0.030205717 -0.03800014 0.057396214
000320 59 24 6d 3c b8 1a 5c 3e fb 54 6d 3d e2 ea dc 3c
       0.014473998 0.21494567 0.05794237 0.02696747
000330 84 27 db bc aa b7 3a 3c e8 05 a6 bc 68 7c b8 3d
       -0.026752241 0.011396328 -0.020266488 0.090081036
000340 a6 71 15 3e a9 53 6e 39 ad 1b 26 bb 5f 2c fc 3d
       0.14594135 0.00022728615 -0.0025346086 0.123131506
000350 b8 b6 b8 3d 18 6f 3a bd 40 d0 6e 3d 45 ef d3 3c
       0.09019226 -0.045516104 0.05830407 0.025870929
000360 67 57 a2 3d 28 42 1f 3c 9d 06 2f bd 1f 93 08 3e
       0.07926827 0.009720363 -0.042730916 0.13337372
000370 74 d8 1c 3e 61 94 9a 3c f8 c0 e2 bc c4 d9 f3 3d
       0.15316945 0.01886958 -0.027679905 0.1190677
000380 8b d0 af 3d e5 6c f0 3c af 7a db 3c f1 62 0b 3d
       0.08584698 0.0293488 0.026791899 0.034029905
000390 cd f3 d9 3d 08 d9 76 3d 8a b0 89 bd c4 e8 28 3d
       0.106422044 0.06026557 -0.06723125 0.041237608
0003a0 f9 d8 c2 3d 3f d7 24 3e 6c 26 9e 3d c0 44 9c 3e
       0.095140405 0.16097735 0.07722172 0.30521202
0003b0 50 f9 28 bb 37 54 06 3c 41 4a 3d 3e 7d 76 f4 3b
       -0.0025783367 0.008198789 0.18485357 0.007460414
0003c0 c3 95 e4 3c ad aa dc 3d 8d a9 ea bd 7b 11 bd 3c
       0.027903443 0.10774741 -0.114581205 0.023079624
0003d0 87 ef ce bc 9e d6 35 bd 72 a0 05 3e 16 22 6b 3d
       -0.0252607 -0.044394128 0.13049486 0.057405554
0003e0 eb 52 04 3e c0 9d de 3c 5c 4a b0 3d d7 89 e5 3d
       0.12922256 0.02717483 0.08607933 0.112079315
0003f0 7a 95 d3 3b a8 67 8f bc 52 9a 01 3e cc af aa bd
       0.006457028 -0.017505482 0.12656525 -0.08334312

fc2.weight f4 [128, 256]
000000 d4 f6 ae bd 30 ee e8 3d 06 52 e2 bd ee a2 29 be
       -0.085431725 0.11373556 -0.11050801 -0.16566059
000010 a4 f8 8e 3d e2 04 4e 3d 94 55 c1 3d b8 f2 b0 bd
       0.06981018 0.050297625 0.09440151 -0.08640045
000020 e5 c1 69 3c 4a f3 94 3d 6c 5f 74 3e db ab e7 3b
       0.014267419 0.07272966 0.23864526 0.0070700473
000030 20 ff 57 bd ab bb df 3d ca 60 b1 bc ca a6 47 3e
       -0.05273354 0.10924467 -0.021652598 0.19497219
000040 50 5f 99 be e0 cc 1c bc 63 fb 10 bc b8 8e 7b bd
       -0.2995553 -0.00957033 -0.008848998 -0.061415404
000050 7f 98 4a 3d c9 fa 38 be 9e bb 0f be 3b 8e f6 3d
       0.049461838 -0.18064417 -0.14036414 0.12038847
000060 a1 33 ca bc 97 e8 a6 3c c6 15 5c bd 80 0e b2 3b
       -0.024682822 0.02037458 -0.053731702 0.0054338574
000070 c1 cc 1b 3c 41 4a 82 3d 4e 93 45 3e 8c ed 81 3c
       0.009509266 0.06361819 0.19294474 0.015860341
000080 d4 f8 b2 ba 47 68 20 3d 48 fd 37 3c 26 39 87 bd
       -0.0013654479 0.039161947 0.011229821 -0.06602697
000090 a5 f0 23 3e 1c 66 14 3e 12 22 22 be 2d e0 fc bc
       0.16009767 0.14492077 -0.1583331 -0.030868614
0000a0 c7 ce 9e bd 8e 26 83 bd 30 75 e4 bd 41 ef 41 be
       -0.077542834 -0.06403838 -0.11155164 -0.18938924
0000b0 da 78 9e be 7f cd 52 3e 87 c0 58 3e a6 07 1f 3d
       -0.30951577 0.20586203 0.21167193 0.038825653
0000c0 ed 1f 3f 3e f4 18 47 3d 60 b6 92 3d 55 ea ca 3b
       0.18664522 0.04860778 0.071636915 0.0061924853
0000d0 30 76 34 bc 4d ef 90 bc 91 b2 47 3e 34 ed d4 bd
       -0.011014506 -0.017692233 0.19501711 -0.103968054
0000e0 80 76 73 be 30 50 00 be 33 3f 77 be 51 14 10 3c
       -0.23775673 -0.12530589 -0.24145202 0.008793906
0000f0 1e 47 c0 bd 8a 39 5c 3d f5 85 94 bd d8 a8 17 bc
       -0.093885645 0.05376581 -0.07252113 -0.009256564
000100 cb 29 d4 bd 5e fc fb 3d e9 dd 28 3e 66 66 f7 3d
       -0.10359534 0.123039946 0.16490902 0.12080078
000110 90 1e fc bc fd 25 d7 bd 43 e3 00 be dc fd 4e 3e
       -0.030776292 -0.105052926 -0.12586693 0.20214027
000120 b8 e9 9a be 1c f0 08 be 04 06 5d 3d 7d 37 0c be
       -0.30256438 -0.13372844 0.053960815 -0.13693042
000130 c3 a9 76 3d a6 64 be 3b d0 22 0a 3e ce 8a 38 bd
       0.06022049 0.005810338 0.13489842 -0.04505425
000140 1a 8d 23 3d e2 74 02 3e 51 42 d7 bc c4 b9 8f be
       0.039929487 0.127399 -0.02627674 -0.28071415
000150 18 ff 37 3e 51 3d bd bd bf 75 b4 bd 92 80 10 be
       0.17968404 -0.09240211 -0.08811521 -0.14111546
000160 1b 3c 46 3e 4b 3b 3a 3c 05 74 8b bd b7 1c 60 3d
       0.19358866 0.011366676 -0.06809238 0.054714885
000170 5d 6e 9b bc ff 04 3c bd 20 da 8c 3d ee 14 2e be
       -0.018973524 -0.045903202 0.068775415 -0.17000172
000180 07 29 47 be 15 43 0f 3d 14 4e d0 bc a8 dc d8 3d
       -0.19449244 0.034976084 -0.025427856 0.10588962
000190 c2 6a 3e 3e 99 d3 40 3d ab ce 73 bd ac 5e 70 bd
       0.18595412 0.047076795 -0.059523266 -0.058684036
0001a0 a1 af 14 be 07 5d b0 bd 64 15 1a 3e e4 92 21 be
       -0.14520122 -0.086114936 0.15047222 -0.1577869
0001b0 96 bf 00 bd 4f 2c 0b 3e e1 8c ff 3b 67 71 15 3d
       -0.03143271 0.13591121 0.0077987765 0.036485102
0001c0 5c 97 da 3d f9 bd a0 bc 94 c8 82 be 1f fa 9b 3e
       0.10673401 -0.019621836 -0.25543654 0.30464265
0001d0 71 be a3 bd 4e 89 c3 bd 1f ae 88 bd 81 33 0d 3d
       -0.07995308 -0.09547673 -0.06673836 0.034472946
0001e0 bd e3 17 3d 98 df 3c bb 0f 9b e1 3d 88 8f ad bc
       0.037082423 -0.0028819796 0.11015903 -0.021186605
0001f0 62 91 db 3b a1 8c 9a 3c c9 ab 68 3d 3c f7 94 3d
       0.0067006806 0.018865885 0.056804452 0.07273719
000200 4d 99 f5 bd 28 74 a4 3c f3 da 29 be 43 ea 8b 3d
       -0.119921304 0.020074919 -0.16587429 0.06831791
000210 10 c3 5b 3d 42 5a 3d 3c 58 df 09 3e 03 1f 35 3e
       0.053652823 0.011557164 0.13464105 0.17687611
000220 9c 75 4a bd bc cd 8f 3d be fb 24 bd ba ea 36 3e
       -0.049428567 0.070216626 -0.040279143 0.17862979
000230 f6 a5 19 3d 82 06 62 bd 2c 99 9f 3d bc cc 44 3d
       0.03751179 -0.055181988 0.07792887 0.048046812
000240 ed 0a 49 be e1 b4 0c 3e 3d a9 47 3c 00 19 4e bd
       -0.19633074 0.13740875 0.012186346 -0.05031681
000250 7b 68 19 3e b7 e9 d3 bd 4a c9 d7 3d d4 7d d2 3d
       0.14981262 -0.10347312 0.1053644 0.10277906
000260 fa 10 ba bc 98 63 7e bc e1 17 03 bd 5a 64 04 3e
       -0.022713173 -0.015526675 -0.032005195 0.12928906
000270 90 20 a3 3d e7 d2 45 bd 82 55 2d 3e a9 4a f0 3d
       0.07965195 -0.048296835 0.1692715 0.1173299
000280 aa 84 cd bb 96 8d 65 be 3e d3 df bd 2b bc 29 3c
       -0.0062719183 -0.22417292 -0.10928963 0.010359804
000290 69 f5 08 3e d7 52 c2 3d c4 f0 fe bd 38 1e 83 bc
       0.13374867 0.09488457 -0.12448266 -0.01600562
0002a0 4f 15 bb 3b 2b f1 cc bd ed 79 aa 3d 9c 7f 58 3d
       0.0057093273 -0.10006937 0.08324037 0.052856073
0002b0 6b d4 58 3d 36 7e e7 3d 83 02 5d be ef df 89 3d
       0.052936953 0.1130337 -0.2158299 0.06732165
0002c0 04 1d cb 3d bf 35 24 3d 15 aa b0 bc 19 00 38 bd
       0.09917644 0.04009032 -0.021565476 -0.044921968
0002d0 43 a8 d0 bc 9e e4 b2 bd 9b e9 1e bd 78 e0 a7 bb
       -0.025470858 -0.087350115 -0.038797002 -0.0051231943
0002e0 1c 06 62 3d b8 a3 ad 3d f9 9c 9f 3d 9b 2e 29 be
       0.055181608 0.084784925 0.07793612 -0.16521685
0002f0 d9 2f c2 3d 38 8c 8d bd b7 b1 1e be 5c 03 b1 3d
       0.094817825 -0.0691151 -0.1549748 0.08643219
000300 3b c1 0b be ff 86 c6 bd 19 3e 74 bc c6 30 94 3c
       -0.1364793 -0.09693717 -0.014907383 0.018089663
000310 31 63 65 bd 3e eb 00 be f2 63 17 3d 44 96 09 3e
       -0.0560028 -0.12589738 0.03696055 0.13436228
000320 f0 34 43 3d 42 b5 b2 3c 54 3d 3e 3d dd e0 c2 bd
       0.047657907 0.021814946 0.046445206 -0.095155455
000330 f9 35 b1 3b 14 87 f1 bd e9 c5 38 be 1f 87 8d be
       0.0054080454 -0.11793342 -0.18044247 -0.27642152
000340 12 e4 82 be db e2 93 3d ee 41 f6 bc 5d 99 46 be
       -0.2556463 0.072210036 -0.030060735 -0.19394441
000350 94 68 b5 3d be 24 99 bd 0b 87 77 be 1e b1 93 3d
       0.08857837 -0.07477711 -0.24172609 0.07211517
000360 77 1d 0d 3a 40 dd a9 bd b3 b3 79 bd 9d d6 a1 bd
       0.0005383114 -0.08294153 -0.06096239 -0.07902262
000370 fe b4 c1 bd 78 75 59 be 33 2a be 3c 7f 60 d6 3b
       -0.0945835 -0.21236217 0.023213482 0.006542265
000380 26 d2 1d 3e e9 09 57 be ee 75 e0 bd 80 fd 80 bd
       0.15412197 -0.20999874 -0.10959993 -0.06298351
000390 e8 d8 98 3e 94 60 42 bc 7a f1 25 3e 01 16 09 3e
       0.29852986 -0.011863846 0.16205397 0.133873
0003a0 49 8a a7 3c 34 3f b8 bd 6a 23 38 bd e2 8b 99 bc
       0.020451682 -0.0899643 -0.04495565 -0.01874346
0003b0 43 3e 26 3c 22 87 b9 3b c4 76 ab 3d 4a e0 52 be
       0.01014668 0.005661861 0.08372262 -0.20593372
0003c0 e8 9b 07 be 17 04 96 be 00 43 00 be 2f e7 42 3e
       -0.13243067 -0.29299995 -0.12525558 0.19033502
0003d0 7f da 8f bd 00 ec 4f 3d 97 64 88 3e ed e0 a0 be
       -0.07024097 0.050762177 0.26639244 -0.31421605
0003e0 68 2a cf 3a b3 fe 88 be 7d f6 23 be d3 34 a8 3d
       0.0015805485 -0.2675682 -0.16011997 0.082132004
0003f0 aa 71 aa 3c 4f ac 8c 3e a6 64 8e 3d 0b c1 dc bb
       0.020806152 0.2747521 0.06952791 -0.0067368797

fc2.bias f4 [128]
000000 ef ea 3c 3d 29 5f ba ba d3 ca 30 3c 9f 5c 16 3d
       0.046122488 -0.0014219034 0.010790545 0.036709424
000010 30 6e d4 bc e0 e9 30 3b b3 09 ba 3d 65 22 fe 3b
       -0.025931448 0.002699487 0.09083881 0.007755565
000020 42 16 58 3d 13 fe 2f bc 73 16 02 3d 81 9e 1b 3d
       0.0527556 -0.010741728 0.03175969 0.037992958
000030 23 be 24 3d 19 23 c7 3c 3e bc 71 3d 45 fb a9 bb
       0.04022039 0.024308728 0.059017412 -0.0051874244
000040 80 8e 14 bc 31 73 31 bc ec 84 31 3d 51 72 54 3c
       -0.009067178 -0.010830686 0.043339655 0.012966708
000050 17 73 9c bc 6f b1 61 bb 00 ec 4b 3d fe ac b7 3d
       -0.019097848 -0.0034438034 0.049785614 0.089685425
000060 0c 7b 9c 3c 95 fa 5e bc 0d 42 0a 3c 56 ff 49 bc
       0.019101642 -0.013609548 0.008438599 -0.012328943
000070 44 81 e4 ba 68 05 40 3d 51 a9 c7 3b db 1c 18 bc
       -0.0017433544 0.046880156 0.006093182 -0.009284223
000080 8e 2b c7 3c b5 77 e5 3c ff 0a 76 3d c6 a4 96 3c
       0.02431276 0.028011182 0.06006908 0.018389117
000090 85 c8 98 3c 84 ee bd 3c 9f 83 c2 bb fe c7 38 3c
       0.018650303 0.023185022 -0.0059361006 0.011278151
0000a0 15 47 89 3d 2e 9f 35 3d a0 e9 89 bc 6f f2 40 bc
       0.06703011 0.04434126 -0.016835034 -0.011776551
0000b0 bd 35 3a 3d 90 52 30 bb d8 49 77 bd 02 0a 37 3c
       0.045461405 -0.002690468 -0.060373157 0.01117182
0000c0 61 2d 2d 3c 00 00 00 00 5f 04 df 3b e4 da 1a 3d
       0.010569901 0.0 0.006805941 0.037806407
0000d0 29 03 12 bd 14 2d 2e 3c 62 79 fc ba d7 6c 27 3c
       -0.035647545 0.010630865 -0.0019262249 0.010218821
0000e0 af 2a d1 bc ee 4e bc 3c c2 71 bd bc 8f dd 1d 3c
       -0.025533048 0.022986855 -0.023125533 0.009635343
0000f0 2a 08 2a bd cb 69 68 3d 09 ec 67 3c df 2d 3a 3d
       -0.041511692 0.056741517 0.014155396 0.045453902
000100 fe 91 c4 3c 2e be 91 bc c2 d4 87 3d 39 81 82 bc
       0.023995396 -0.01779088 0.06632377 -0.015930759
000110 6c 26 e9 bc bd 1e ff 3c 5d e5 f1 3c 69 a1 9f 3d
       -0.028460704 0.031142587 0.029528314 0.077944584
000120 ec 32 01 3d 36 cd 93 3d 59 11 01 3d 00 00 00 00
       0.031542704 0.07216875 0.031510685 0.0
000130 c4 49 fd bc 1d 51 3f 3c 80 22 a0 3c 3c 60 a7 3b
       -0.030918963 0.011677054 0.0195477 0.0051079076
000140 f2 a9 64 3d 61 83 a4 3d 97 dd f6 bc 64 9d 75 3d
       0.055826135 0.08032871 -0.03013496 0.059964553
000150 ec 00 f0 3c c0 b9 6d 3d 51 8b 2e 3d 73 e3 ee 3c
       0.029297315 0.058038473 0.04261333 0.02916119
000160 19 07 de bc 71 2a c3 bc 96 4e 7e 3c 5e 56 5f 3b
       -0.027102994 -0.023823949 0.015521666 0.0034078578
000170 e3 b5 24 3b 3a 31 2c 3c 5c 64 c2 3a 8a eb 4c bd
       0.0025132827 0.010509783 0.0014830935 -0.050029315
000180 2e d9 02 bd 85 48 7d 3c 04 01 41 bd 29 84 38 bb
       -0.0319454 0.015459185 -0.04712011 -0.0028154945
000190 51 e4 a9 bb 82 b2 7f bc ad bd 23 bd ce fc 58 bc
       -0.005184688 -0.015606524 -0.03997581 -0.013243867
0001a0 bc ce bc 3d 0e 3d 62 3d e6 b1 0d bd e1 05 11 bc
       0.09219119 0.055234008 -0.034593485 -0.008851499
0001b0 3d 21 8a 3d fc d1 20 3d 44 7c 78 bc c7 f0 fa 3c
       0.06744621 0.039262757 -0.015166346 0.03063239
0001c0 ca 67 0f 3b 92 64 99 bc 72 83 12 bc eb f7 91 bb
       0.0021881931 -0.018724713 -0.008942472 -0.004454603
0001d0 28 2b e2 3c 5f 43 47 3d 57 a4 4c 3c 74 ca 31 bc
       0.02760847 0.048648234 0.012490354 -0.010851491
0001e0 75 f8 86 3b 12 c8 c9 3a d5 dc 03 3d b4 10 80 3d
       0.004118974 0.0015394709 0.032193024 0.06253186
0001f0 52 87 00 bd c8 d8 4f 3c 71 5c a2 3c 47 c7 76 bc
       -0.03137905 0.012685962 0.01981947 -0.01506216

fc3.weight f4 [4, 128]
000000 17 18 08 3e 34 06 14 be a6 71 59 3e 6a 55 b4 3e
       0.1329044 -0.14455491 0.2123476 0.35221416
000010 d5 2e 4f bd 65 33 3c 3e 24 43 08 3f 54 be 87 bd
       -0.050581772 0.1837898 0.5322745 -0.06628099
000020 ee 60 a6 3e 81 ec c3 3d 7b 30 29 3e 44 95 74 3d
       0.32495826 0.09566594 0.165224 0.059712663
000030 07 33 2c 3d 0b 40 50 be 7d 09 af 3e 34 c5 ac 3c
       0.04204085 -0.2033693 0.34186926 0.021090128
000040 e5 e3 3d be d8 37 62 3d 37 03 e3 3d 1d 85 6e be
       -0.18543966 0.055229038 0.110845976 -0.23292966
000050 29 af 6a be ff 8e a5 3e 2a 45 cf 3e 7b 74 e9 3e
       -0.22918381 0.3233566 0.40482455 0.4559668
000060 e7 c6 85 3e 81 db b1 3e 5a 50 43 3e 75 57 90 bd
       0.26128313 0.3473778 0.1907362 -0.07047931
000070 39 f3 a6 be 86 a6 63 3e d5 b9 8b 3e 9c f2 f2 bc
       -0.3260744 0.22231492 0.27290216 -0.0296567
000080 90 b7 d0 bd f7 fd cf 3e 48 f3 52 3e dd 92 7c 3e
       -0.10191262 0.40623447 0.20600617 0.24665399
000090 74 cc 8d bd bc 80 16 be b0 24 51 be f7 80 45 be
       -0.06923762 -0.14697546 -0.20424151 -0.19287477
0000a0 ef 1d ef 3e 5e 93 bb 3c d9 c3 5b be 7b c8 be be
       0.46702525 0.022897419 -0.21461429 -0.3726233
0000b0 c2 c1 8b 3d fe d1 50 be 94 7e 1e be 56 b0 5e be
       0.06824066 -0.20392606 -0.15477973 -0.21746954
0000c0 eb a0 c7 bd de 79 40 be 7c 96 da bd b9 f9 ee bc
       -0.097474895 -0.18796489 -0.10673234 -0.029171811
0000d0 c4 41 9b be b4 13 d8 be 0a 45 35 3e fe 5a 00 bd
       -0.30323613 -0.42202532 0.17702118 -0.031336777
0000e0 77 b4 70 be 4b ff aa 3d 35 55 11 be 2c da 80 3d
       -0.23506342 0.083494745 -0.1419266 0.06291613
0000f0 b6 72 16 3e 3e b5 9b 3e c4 94 cb bd 59 63 65 3e
       0.14692196 0.30411714 -0.09940484 0.2240118
000100 bf da 47 be 3a 14 9a be ca 71 c9 3e be dd 1b be
       -0.19517039 -0.30093557 0.39344627 -0.15221307
000110 8e a0 d4 be b3 94 02 bf 96 c7 41 be 02 73 6f 3e
       -0.41528744 -0.51008147 -0.18923792 0.23383716
000120 8e 17 fe bd 80 2d b9 3e df 83 69 be 11 f8 58 3d
       -0.124068365 0.36167526 -0.22804211 0.05297095
000130 d5 0e 95 be 16 7a 9a 3d b6 1c aa 3d 2f ce 14 3e
       -0.29112878 0.07542817 0.083062574 0.14531778
000140 6d 80 52 3c d4 b5 f3 3e af 2d 49 be 3e 1a 80 3e
       0.012848002 0.4759966 -0.19646333 0.2502002
000150 48 27 b7 be 2f d6 9d 3d 05 a0 7d 3e c7 fb 14 be
       -0.35772157 0.07706868 0.24768074 -0.1454917
000160 2b be cc bd 85 48 88 be 8e a3 d2 3d 55 9b 2f be
       -0.09997209 -0.26617828 0.10285102 -0.17149098
000170 5c 9d 92 bd ee 99 0a bf ad 36 41 be 41 18 dd bd
       -0.0715892 -0.5414113 -0.18868513 -0.10795642
000180 69 87 ae be 1f 0f 23 3e a4 b1 12 be de 9a d4 bd
       -0.34087685 0.15923737 -0.14325577 -0.10381101
000190 af 60 df bc 5e ed b0 be 40 3a c3 bd 99 1e bc bd
       -0.027267782 -0.34556097 -0.09532595 -0.091855235
0001a0 28 e2 a6 3e d3 40 84 3e d5 98 e2 bd e9 b4 3c bc
       0.3259442 0.25830707 -0.11064307 -0.011517742
0001b0 4d 6f 71 3e 77 15 ce bc 46 85 c0 be 04 db 91 bd
       0.23577614 -0.02515672 -0.3760168 -0.07121852
0001c0 3e 45 a4 bc dc e0 71 be 67 41 e4 3d 16 07 cf bd
       -0.020052548 -0.23620933 0.11145287 -0.101087734
0001d0 00 7c 64 be e9 02 d4 3e a2 e4 46 be 5b fc 67 3e
       -0.22312927 0.4140847 -0.19423154 0.2265486
0001e0 17 c2 bd be ec b1 fc bd af f2 24 be c0 e1 9f 3d
       -0.3706214 -0.123386234 -0.16108201 0.0780673
0001f0 90 d7 85 be 07 7c 2d be fd 3c 51 be 10 a1 83 be
       -0.26141024 -0.16941844 -0.20433421 -0.25708818
000200 dc 1d df 3d 60 86 c4 be e2 5b 44 3e ea d3 b9 bc
       0.10894367 -0.3838377 0.19175676 -0.022684056
000210 90 c6 7f bd 70 95 29 be cf 6a d6 3e 6d da c3 be
       -0.062445223 -0.16560912 0.41878363 -0.38252583
000220 29 de d0 3c 11 ad 25 be f8 16 84 3e 36 89 de 3e
       0.02549656 -0.16179301 0.25798774 0.4346406
000230 d8 4e 80 3e 1d c0 50 be 09 e7 69 3e e5 1b 00 3e
       0.25060153 -0.20385785 0.22842039 0.12510641
000240 47 52 85 3d e0 0b 63 bd a7 62 9d 3e f7 1c 47 be
       0.06509834 -0.055431247 0.30739328 -0.19444643
000250 b4 ad 15 bd b3 10 b8 3d 02 55 0e 3c 79 12 85 3e
       -0.03654261 0.0898756 0.00868726 0.25990656
000260 23 44 92 bd 0e 4b a0 3e 37 1d bc bd 57 19 cb be
       -0.07141902 0.31307262 -0.0918526 -0.3966777
000270 87 94 57 be 7f 6a c7 3e ea 58 f2 3d a5 34 5a 3d
       -0.21052752 0.38948438 0.11833365 0.053272862
000280 f3 23 d0 be eb 86 a1 be b9 57 d9 3c c7 87 f4 3d
       -0.40652427 -0.31548247 0.026531087 0.1193996
000290 a5 35 c1 3e 83 1e 9b be 9b c3 80 be 22 b6 4f be
       0.3773624 -0.30296716 -0.25149235 -0.20284322
0002a0 bb 59 84 3e a0 8d 23 3e 19 8d e6 bd 76 37 f4 bd
       0.2584971 0.15971994 -0.11257381 -0.11924641
0002b0 64 39 40 be 73 8f 73 be 62 76 1c be ca ec 39 bd
       -0.18771893 -0.2378519 -0.15279534 -0.045391835
0002c0 96 9f 2c be 5f 2c 58 bc a8 c6 55 be 58 47 0b 3f
       -0.16857752 -0.013194173 -0.20876563 0.54405737
0002d0 c9 24 97 be b7 aa 0f be ac c9 81 3e d0 31 29 bd
       -0.29520252 -0.14029966 0.25349176 -0.04130727
0002e0 f8 8c b8 bc 4f f3 0a 3e 93 10 9b bb ad b4 af 3e
       -0.022528157 0.13569377 -0.0047322004 0.34317532
0002f0 ae 8e 52 3e c5 64 3a 3e fd c8 d5 bd a1 9f d1 3e
       0.2056224 0.18202503 -0.10438726 0.409421
000300 51 bb 9b be 3b d8 87 be 63 6a 5b 3e e0 9f b8 bb
       -0.3041635 -0.26532158 0.21427302 -0.005634293
000310 5f a6 88 bd 0f aa b8 bd 72 58 46 3e c9 c8 ae 3d
       -0.06672358 -0.09016811 0.19369677 0.085343905
000320 a1 4e 51 3e cb c3 53 3d a6 c5 ef bd 66 80 94 bd
       0.20440151 0.051700395 -0.1170762 -0.072510526
000330 3f 3f 85 be a0 d6 4b 3e 65 d9 ca 3e 0f f9 26 bc
       -0.26024815 0.19906092 0.39618984 -0.010191216
000340 79 28 07 3d ec 95 f7 3c 08 c5 1b 3e 02 03 a4 bd
       0.032997582 0.030222856 0.1521188 -0.08008386
000350 26 09 20 be 96 f2 3f be 5b 89 00 3f b9 94 c9 be
       -0.1562849 -0.18744883 0.5020959 -0.3937128
000360 0f ab 88 be 07 4b 6e bc 27 a9 9d bd d0 ad 52 be
       -0.26693007 -0.014544255 -0.07698279 -0.20574117
000370 9b 44 4f be 57 36 8c be 70 22 00 bf 7d 83 12 be
       -0.20241015 -0.27385208 -0.5005255 -0.14307971
000380 74 f8 ab be f7 24 68 3e 2e 0c e5 3c f5 b0 6f be
       -0.33587992 0.22670351 0.02795991 -0.23407348
000390 3e 60 d3 3b 3d f1 9d bd b3 21 95 be c3 18 cc bd
       0.006450682 -0.07712028 -0.29127273 -0.099656604
0003a0 d6 87 a6 3e f1 4c 95 3e 3a 0d 41 be 15 a9 58 3e
       0.3252551 0.29160264 -0.18852702 0.2115825
0003b0 91 50 12 3e 8c fe f3 be ae a8 9e be 28 91 93 be
       0.14288546 -0.4765514 -0.30988067 -0.28821683
0003c0 45 99 30 be be fd d4 bd d5 93 75 3d 63 9c 36 be
       -0.17245968 -0.1039996 0.059955437 -0.17833094
0003d0 ba ab 63 bd ef 3d ec 3d 4c 1e 58 be 98 1e bd 3d
       -0.055583693 0.115352504 -0.21105307 0.09234351
0003e0 44 38 b5 be 49 ad 63 be 50 19 a7 be 81 b4 07 3e
       -0.3539449 -0.22234072 -0.326365 0.1325245
0003f0 a2 f1 10 be 78 be 18 bd 95 76 c8 be 99 22 31 be
       -0.14154676 -0.03729102 -0.3915297 -0.17298354

fc3.bias f4 [4]
000000 01 4d 2a 3c 98 c8 d0 bc 66 f8 c9 3c df 2c 11 3b
       0.010394336 -0.025486276 0.024654578 0.002215199

exp_avg f4 [256, 8]
000000 d5 af 05 bc 92 f7 ad bb a6 15 b4 3a 54 2b ef bb
       -0.008159597 -0.0053090537 0.0013739362 -0.0072988663
000010 f1 59 aa bb f9 bd c4 3b 81 00 3d ba c5 49 01 bc
       -0.00519871 0.006004092 -0.0007209853 -0.007891123
000020 4b 72 70 bb 26 1b 2a bc ee e2 f1 bb a7 5c 59 3c
       -0.0036689218 -0.010382449 -0.0073817885 0.013266719
000030 d1 38 27 3a f2 d2 44 bb 38 9b 1f 3a 5c f5 c7 bb
       0.0006379011 -0.003003296 0.0006088498 -0.006102247
000040 31 b0 1e 3a 74 5b 19 bd 45 7b 57 3b b3 c6 72 3d
       0.0006053476 -0.037440732 0.003287987 0.059271526
000050 f4 5c d4 bb a1 69 36 3c b0 0f 64 3c fe 87 94 bc
       -0.0064808074 0.011133582 0.013919756 -0.018131252
000060 5c 4e ac bb 48 0f 3d bc 6b 4d 85 3b d7 9e 3f 3c
       -0.0052583646 -0.011539288 0.004068067 0.011695585
000070 05 90 02 bb 91 af 3a bb 06 c3 e8 38 ad 45 d1 3b
       -0.0019922268 -0.0028485993 0.00011098948 0.00638648
000080 5c 52 7a bb 57 e2 84 3a ac c3 3b bb 24 9b a1 bc
       -0.0038196063 0.0010138255 -0.0028650565 -0.019727297
000090 9d f8 a2 39 a8 97 13 3b 30 24 f2 3b cd 43 2c 3c
       0.0003108428 0.0022520814 0.007389568 0.010514212
0000a0 52 f3 a2 3b 02 00 c0 3c a1 7f 94 bc b6 2b 9f bd
       0.0049728537 0.023437504 -0.018127264 -0.07772009
0000b0 35 0a c9 3b ae 3a 32 bc 9e cb 69 3b 02 4d 83 3c
       0.00613525 -0.010878248 0.0035674344 0.016027931
0000c0 b0 b8 2c 3b 5e 88 f0 3a 42 75 b5 3a 51 69 2f 3c
       0.00263552 0.0018351187 0.001384415 0.010706262
0000d0 30 ab 06 3c cc 98 a4 3b 53 5c 3c ba ef d3 7b 39
       0.008219525 0.0050230976 -0.0007185388 0.00024016177
0000e0 f0 1d f9 39 48 55 d8 ba 9a 8c d1 3c e2 3c 02 3d
       0.00047515286 -0.0016504908 0.02557974 0.031796344
0000f0 99 ce 96 bc 0f 97 fd 3c dc eb 86 3c 24 41 2c bc
       -0.01840906 0.03095582 0.016469888 -0.010513578
000100 8f d0 f9 3a 78 60 20 bc 4a 4e 52 3b 2f f7 c3 3b
       0.0019059348 -0.009788625 0.003209012 0.0059803943
000110 b4 a8 0e bb 8c bf 04 3a dd 8b d5 b9 a8 21 88 3a
       -0.0021768035 0.0005063943 -0.00040730732 0.0010386007
000120 6b 10 2e 3b e4 83 f9 3b 00 d5 5b 3c e5 16 45 3b
       0.002656008 0.0076145995 0.013417482 0.003007346
000130 e4 99 28 bc c3 ac e6 b9 15 94 2b 3a 86 0b 01 bb
       -0.010290597 -0.00043997736 0.0006545198 -0.0019690706
000140 67 13 84 3b 4a b6 45 3c 70 1e 2c 3a a1 98 2b bc
       0.0040306333 0.012067387 0.0006565815 -0.010473401
000150 9d 25 cf bb 7c 97 ca bc de 0b f3 ba 8e 1a 97 3b
       -0.0063216225 -0.024730437 -0.0018542965 0.00461132
000160 4e c2 89 b9 b2 7c e1 bc 97 1b 3f 3c fd 5d a9 3c
       -0.00026275445 -0.02752528 0.011664293 0.0206747
000170 14 9f 06 bb cb 46 86 3b 45 41 9d ba e6 25 63 3b
       -0.0020541595 0.0040977946 -0.0011997601 0.003466004
000180 ad cb e4 3b fe f0 03 3b 89 d3 82 3b 05 7f 03 3c
       0.006982288 0.0020132656 0.003992502 0.008025889
000190 b1 fd f7 38 5f 2e 35 bc bd 66 6e ba d7 76 cf 3a
       0.000118251315 -0.011058419 -0.00090942887 0.0015828264
0001a0 3a 41 8d bb 89 83 b0 ba b2 ad c7 bb c8 69 c0 3b
       -0.004310754 -0.0013466935 -0.006093704 0.005871985
0001b0 39 9f 8a 38 ae 21 cd bb ec 99 ea bb b2 fc b8 ba
       6.61001e-05 -0.0062601184 -0.007159462 -0.0014113395
0001c0 68 78 e6 bb 0b 3e c1 3a 63 b7 5f 3c 77 6d 50 3c
       -0.0070333965 0.0014743222 0.013654563 0.012721411
0001d0 b8 fd 4e bb 6a 0d e7 3c 2b 3f bd 3c 34 f7 db bb
       -0.0031584334 0.028204639 0.02310141 -0.0067128185
0001e0 e1 ee ea 38 ae 58 7b 3b a8 33 ee bb 6f b7 d5 bc
       0.00011202484 0.0038352418 -0.0072693415 -0.026088445
0001f0 61 aa c0 3b 0a 0f fe bb e9 e3 a0 3a 5f 19 3d 3c
       0.0058796857 -0.0077532576 0.0012274954 0.0115416935
000200 bd fd e4 3b a5 dc 0f 3c bc d1 a0 3b 86 14 f8 bc
       0.006988256 0.008780633 0.004907815 -0.030283224
000210 8f 37 37 bb ec 6b 8d bc a8 55 d5 ba 11 54 62 3b
       -0.00279567 -0.017263375 -0.0016276138 0.003453497
000220 2d 7b a6 3b ab 0e 05 3b ee 52 6f 3b 55 14 51 3c
       0.0050806017 0.0020302932 0.0036517936 0.012761195
000230 32 48 3b ba c7 49 91 39 72 f3 88 3a ec f6 c6 ba
       -0.0007144242 0.00027711524 0.0010448529 -0.001517979
000240 9c 1d e9 3a 8d 07 0a 3d ae 66 1b bc 06 9d c4 bc
       0.0017785314 0.033698607 -0.00948493 -0.024000656
000250 d9 db 49 3c 18 8e f3 3b 05 2f b4 bb da 5f 48 bb
       0.012320482 0.0074327104 -0.005498769 -0.003057471
000260 b3 ba ab bb ae c0 4c bc 65 bf f5 3b ca a2 c9 3c
       -0.005240762 -0.01249711 0.0074996226 0.024613757
000270 96 91 18 bc 7e 39 18 b9 ba 9d ec 3b cb b7 ab bc
       -0.009312054 -0.00014517267 0.007220951 -0.020961663
000280 75 eb 13 bc 70 19 53 bc f6 c9 58 bb 8b 6b 8d ba
       -0.009028305 -0.012884483 -0.0033079362 -0.0010789497
000290 66 7f 0e bb 77 8a 09 3b ce a3 93 3a 80 42 00 3c
       -0.0021743416 0.0020987072 0.0011264028 0.007828355
0002a0 7e 56 37 bc 21 ac 3d 3c 64 aa 33 3d ee ea e0 bc
       -0.011190055 0.011576683 0.04386367 -0.027455773
0002b0 9f 36 27 bd 22 44 5e 3b 8b 66 a8 3c ab 9e fd bc
       -0.040823575 0.0033915122 0.020556709 -0.030959448
0002c0 1a 07 22 bb ef 76 8f bc 0d c2 cd bb f5 e8 17 3c
       -0.002472347 -0.017512767 -0.006279236 0.00927185
0002d0 44 36 db 3a b4 b3 63 bb 42 55 a2 3a ec c2 27 ba
       0.0016724546 -0.0034744563 0.0012385028 -0.000639959
0002e0 a1 6e 16 3c a7 3a 39 bb d2 8d db b9 e2 23 60 3c
       0.009181649 -0.002826372 -0.000418766 0.01368043
0002f0 17 2b 22 3c 0e 2a b4 3a c2 2d 83 bb 81 4e bd 38
       0.009897969 0.0013745443 -0.0040032575 9.026845e-05
000300 75 e8 01 bc e9 58 47 bc 61 80 96 3b 21 52 1d bc
       -0.007928957 -0.012167194 0.0045929407 -0.009602101
000310 b8 03 9d bb 90 67 8b 3c 11 18 34 3b 15 da 57 bc
       -0.004791703 0.017017156 0.0027480165 -0.013174553
000320 88 60 b7 3a db ae 94 3c 15 f9 9f bb ba 67 ff bb
       0.001399056 0.018149784 -0.004881988 -0.0077943476
000330 67 7c 73 ba c9 b5 92 3b 53 59 fd b9 ba 67 9e bb
       -0.0009288252 0.004477237 -0.00048322472 -0.0048341425
000340 8f f5 44 bc ea e4 1c bb 72 97 9c 3b 64 22 1b 3c
       -0.012021436 -0.0023940154 0.004778796 0.009468649
000350 5c 75 82 bc 34 10 cc 3b 11 a4 26 3c 49 07 6d ba
       -0.015925102 0.0062275175 0.010170952 -0.0009041918
000360 16 d7 0f bb 1a ef 51 bc 31 dd a2 3b f0 d0 9d 3c
       -0.002194827 -0.012813354 0.0049702157 0.019264668
000370 1f 4a 0b bc e7 44 e5 3b 1b 45 d2 3b 1d cb 47 bc
       -0.008501559 0.006996739 0.0064169294 -0.012194422
000380 74 cb 7a 3b 14 3c 20 3d 3c 02 71 ba 5d 1e 08 3c
       0.003826824 0.039119795 -0.00091937534 0.00830802
000390 c7 01 2b 3c f6 b6 1c 3c 93 68 92 bc 9a a8 90 bb
       0.0104374355 0.009565106 -0.01787213 -0.00441463
0003a0 b1 41 97 bb 31 4b 0a 3c 50 16 db b7 5b 6a 73 bc
       -0.0046159853 0.008440779 -2.6117224e-05 -0.0148569
0003b0 83 ed 8d bb 4b a6 95 3a 98 ae 6d 3b 19 21 1c bb
       -0.004331292 0.0011417357 0.0036267396 -0.0023823439
0003c0 e5 e7 20 3c 0f 42 3c 3c 51 ad 52 3c 4a de 5b bc
       0.009820913 0.011490359 0.012858705 -0.013419697
0003d0 b2 20 b1 bb 76 aa 41 3c b2 39 85 3b 91 28 b0 3a
       -0.005405509 0.011820426 0.0040657157 0.0013439824
0003e0 0c 65 7f 3c 84 cb 5c 3c 9c 7a 1b 3c 52 9b 47 bc
       0.015588056 0.013476256 0.009489682 -0.012183027
0003f0 b2 e5 87 3a 37 39 03 3d da 36 31 3a 04 00 00 00
       0.0010368137 0.032036986 0.00067601877 6e-45

exp_avg_sq f4 [256, 8]
000000 9a 2d e1 3a 25 b4 63 3a 78 e9 66 3b 19 ec 3b 3c
       0.0017179728 0.00086862064 0.0035234373 0.011469864
000010 e5 6c 6a 3b a8 a3 8e 3b d6 8d 89 3a 61 2e 28 3b
       0.0035770473 0.0043530054 0.0010494541 0.002566241
000020 d8 e9 22 3a de bf 02 3a 72 0a c7 3a ce a2 bd 3b
       0.0006214655 0.0004987697 0.0015185608 0.00578723
000030 ee a0 69 3a 3b e3 95 3a 87 cf f8 3a f8 a1 4b 39
       0.0008912225 0.0011435518 0.0018982746 0.00019419927
000040 ec ce da 3a 9d d5 0a 3c 00 e3 a1 3b ae 07 87 3c
       0.0016693748 0.008473781 0.0049403906 0.016483154
000050 b1 49 7e 3b c2 c2 43 3b b6 75 3d 3b 87 c7 63 3b
       0.0038801248 0.0029870723 0.0028909273 0.0034756379
000060 a2 54 ad 39 18 3c 16 3b 2b 07 92 3a 83 4c 2e 3b
       0.00033060188 0.0022924002 0.0011141052 0.0026595898
000070 97 a5 d1 3a fd 45 ae 3a e8 9c 19 37 c0 de 99 39
       0.0015994784 0.0013296005 9.156043e-06 0.00029348396
000080 b1 f0 c4 39 9b 04 f7 37 01 65 29 3a be 6c 52 3b
       0.00037563362 2.944684e-05 0.0006461889 0.0032108272
000090 77 80 0b 3a a4 87 69 3a 3b a7 09 3a b7 3b 39 3a
       0.0005321572 0.00089084567 0.00052510545 0.0007066088
0000a0 42 71 f6 3b 9a 98 87 3c 59 df a1 3c d9 ca 89 3d
       0.0075208256 0.016552258 0.01975982 0.06728143
0000b0 b3 56 38 3c e2 50 0a 3c d9 56 e8 3b 62 b6 3d 3b
       0.011251139 0.0084421355 0.007090431 0.002894782
0000c0 4e 85 b6 3a 0f 84 be 38 25 c4 7b 3b 87 22 5b 3c
       0.0013925226 9.084504e-05 0.0038416472 0.013374931
0000d0 59 c2 99 3a 08 a0 b3 3a ac 86 4f 3b a6 34 57 3a
       0.0011730894 0.0013704309 0.0031665964 0.00082094443
0000e0 e9 3c 11 3c 80 75 31 3a 89 7d b4 3c 0b 45 bd 3d
       0.00886462 0.0006769523 0.022032516 0.092416845
0000f0 88 87 79 3c 9f 0c 54 3c ae 4c 86 3c 82 4d 54 3c
       0.015230067 0.012942462 0.016393986 0.012957932
000100 68 83 ef 38 40 9b 37 3a dc 9d dd 39 94 0d 3e 3a
       0.000114208844 0.000700403 0.0004227002 0.0007249948
000110 ac 4c f0 39 b3 76 c9 39 e8 76 02 37 2c e8 e3 38
       0.00045833492 0.00038426145 7.776289e-06 0.00010867449
000120 b6 b9 60 3a 73 19 cf 39 ae 62 17 3b a0 dd fa 3b
       0.0008572595 0.00039501078 0.002309959 0.0076558143
000130 d3 9e e5 3a 47 40 4c 3b 36 5d 82 39 56 05 f0 39
       0.0017518647 0.0031166242 0.0002486498 0.00045780343
000140 82 1d 60 3a 20 8b ba 3a b2 cf 40 3b 36 2e fa 3b
       0.0008549319 0.0014232136 0.002942067 0.0076349033
000150 b3 28 3c 3b 3a 78 62 3b f9 e6 40 39 25 5e 77 3b
       0.0028710782 0.0034556524 0.00018396591 0.0037745323
000160 be 36 74 3a d3 a6 31 3c 68 c4 47 3b 1f d0 be 3b
       0.00093160185 0.010842997 0.0030482057 0.00582315
000170 a0 d8 91 3b 8c bb 16 3c a5 6e 56 3a da 2e 27 3a
       0.0044508725 0.009199988 0.00081799395 0.0006377526
000180 24 79 e3 39 be c2 0a 3a e5 20 6b 3a 1e 07 4f 3b
       0.0004338707 0.0005293301 0.000896944 0.0031589936
000190 33 f1 4e 3a 21 8a 49 3a ce 33 2d 39 e8 0c 3d 3a
       0.0007894218 0.00076881243 0.00016517864 0.0007211701
0001a0 75 83 b8 39 51 e8 a2 37 af 06 17 3a 3f f3 38 3a
       0.00035193158 1.9420086e-05 0.0005761189 0.00070552895
0001b0 3d 91 48 3a ef 2a fb 3a 11 e6 56 3a 95 b4 0d 39
       0.0007651037 0.0019162575 0.0008197735 0.0001351408
0001c0 8d 11 f0 3b d7 8e e8 39 79 f2 98 3c cc 24 8f 3d
       0.007326311 0.00044356912 0.018670307 0.0698944
0001d0 4c 83 49 3c 07 54 61 3c 2e 50 7c 3c 7e 34 37 3c
       0.01229937 0.013752944 0.015399976 0.011181949
0001e0 72 38 23 3a b5 1d 1f 3a 8d ff d4 3a c5 b7 c4 3b
       0.00062263675 0.00060697953 0.0016250476 0.0060033523
0001f0 9f 6e ce 3a 6b 62 d4 3a 10 ce 9c 39 2b c6 09 3b
       0.001574952 0.0016203647 0.00029908167 0.0021022658
000200 f2 9b 8e 3a c2 a6 1c 3b 24 34 07 3b a6 8c 84 3b
       0.0010880216 0.0023903106 0.0020630443 0.004045087
000210 66 53 7a 3b 52 57 ce 3b 64 63 78 3a 43 ba 4e 3b
       0.0038196682 0.0062970305 0.00094752596 0.0031544126
000220 6b 09 d0 39 a3 99 39 3a b8 9d 6b 3a 93 46 0d 3b
       0.00039679868 0.00070800836 0.00089880405 0.0021556958
000230 28 b1 15 3a e4 a0 41 3a 27 e8 b0 38 c4 b7 c1 39
       0.0005710297 0.00073863403 8.435576e-05 0.00036948745
000240 f7 c3 3d 3b 37 ee 34 3c 04 11 fc 3b e5 6f 0b 3d
       0.0028955915 0.011043123 0.007692458 0.034042258
000250 bf 11 b0 3b ce 6f 8d 3b c0 95 4b 3b 16 0b fb 3a
       0.0053732092 0.0043163067 0.00310646 0.0019153084
000260 53 88 cf 3a 98 89 7b 3a 45 3b 54 3b 6e e2 5f 3c
       0.0015833474 0.0009595393 0.003238396 0.013664825
000270 13 c5 d2 3a 96 e3 42 3b 25 19 cb 3a 0e a0 16 3b
       0.0016080461 0.0029737703 0.0015495165 0.0022983584
000280 ea 39 81 3a 32 a5 5b 3b 1f ce 45 3b 8c cb 08 3c
       0.0009859179 0.0033515212 0.0030182672 0.008349311
000290 cd 01 66 3b a2 84 4a 3b 40 20 d5 39 30 05 58 3a
       0.0035096288 0.003090181 0.00040650554 0.0008240519
0002a0 56 c9 56 3c e3 65 61 3a bb d9 f4 3c 2d 1f ff 3d
       0.013109526 0.0008598251 0.029888978 0.12457118
0002b0 27 7f 94 3c aa 29 ad 3c dd 17 88 3c b9 a8 8d 3c
       0.018127037 0.021138031 0.016612941 0.017292367
0002c0 2c 7c 24 3a 1f ba ad 3a 70 3b c3 3a 1d bd a4 3b
       0.00062746066 0.0013254321 0.0014895033 0.005027427
0002d0 5d 79 62 3a 82 19 86 3a 94 c4 d3 3a 48 37 ae 38
       0.00086393004 0.0010230991 0.0016156607 8.3072635e-05
0002e0 4c c4 9e 3a 6d 1d 02 3a 62 32 2b 3b 3c 60 42 3c
       0.0012112944 0.0004963491 0.002612256 0.011863764
0002f0 8a 33 b9 3a 21 0a a5 3a ba 11 40 3a 61 79 e1 39
       0.001412974 0.001259152 0.000732686 0.0004300578
000300 cf e6 dc 3b 6e 3f 5a 3b 7c 3e 88 3c b0 b9 8a 3d
       0.0067413817 0.0033301967 0.016631357 0.06773698
000310 91 ea 56 3c e6 af 21 3c 2b 1b 20 3c 10 1e 1e 3c
       0.013117448 0.009868598 0.009772102 0.009650722
000320 c5 c9 85 3a c3 d3 33 3c 4f c0 5b 3b 58 2e 0f 3b
       0.0010207227 0.010975781 0.0033531373 0.0021847691
000330 dc 85 9f 3b fd 03 c9 3b ab 8d 85 39 2e 6f 85 3a
       0.004868252 0.0061345086 0.00025473288 0.0010180229
000340 77 e5 49 3b 7c da 97 39 94 43 e3 3b b6 d1 01 3d
       0.0030806938 0.00028963748 0.006935546 0.031694137
000350 a7 b9 b0 3b 37 9e d3 3b 9b 4f 94 3b 7e c2 93 3b
       0.0053932252 0.0064580697 0.0045260913 0.0045092693
000360 61 44 9e 3a 62 85 4f 3b 2b 85 49 3b ea 41 50 3c
       0.0012074822 0.0031665196 0.003074954 0.012711028
000370 cd f3 2b 3b 79 0e 1c 3b f5 b2 ea 3a 7a 2b 0d 3b
       0.0026237846 0.0023812337 0.0017906117 0.0021540807
000380 c1 c5 ba 3b f1 2c 6b 3c 31 7e 7a 3c c1 07 7f 3d
       0.0056998436 0.014353977 0.015288875 0.062263254
000390 56 42 1f 3c 14 b8 21 3c 25 0c 03 3b cb 2e a0 3b
       0.009720406 0.009870548 0.0019996252 0.0048883907
0003a0 ad 49 e5 39 cc a1 7a 3a e6 37 9a 3a ef 01 74 3b
       0.00043733176 0.0009560853 0.0011765927 0.0037232598
0003b0 27 b5 90 3a 0d cf bc 3a 4d 22 17 3a ec d6 0b 3a
       0.0011040316 0.0014404968 0.0005765304 0.0005334455
0003c0 6c 5e 8d 3a 05 7b bd 3a 96 46 1e 3b f1 ba 31 3c
       0.0010785586 0.0014456218 0.002415096 0.010847793
0003d0 45 85 03 3b 83 a2 27 3b 00 a8 bf 3a 83 b1 97 38
       0.0020068449 0.0025579042 0.0014622211 7.233305e-05
0003e0 d6 42 b5 3a 1c df be 3b b6 9d c1 3a 23 2b 9a 3a
       0.0013829123 0.0058249366 0.0014771733 0.0011762123
0003f0 aa 56 7a 3b 2d dd 4b 3c ab 20 ce 3a 04 48 2d 36
       0.0038198628 0.012442869 0.0015726289 2.5820927e-06
