results/standard/models/checkpoint_ep1000.pth (torch, 436198 bytes, 18 tensors)

fc1.weight f4 [256, 8]
0	0xbf86a42b	-1.051885
1	0x3d9c8077	0.0764169
2	0x3f263236	0.64920366
3	0x3e3dc094	0.18530494
4	0xbea5d4c4	-0.3238889
5	0x3e47ceaa	0.1951243
6	0x3f32c7cd	0.6983612
7	0xbee060de	-0.43823904
8	0xbca533e7	-0.02016635
9	0xbeb8fc3c	-0.3612994
10	0x3eae0f44	0.33996022
11	0x3f77fe20	0.9687214
12	0x3f9d83d1	1.2305852
13	0xbe284a2a	-0.16434541
14	0x3ea4bc1b	0.32174763
15	0x3f0873b5	0.53301555
16	0x3f1e0b98	0.6173644
17	0x3e2411c5	0.16022404
18	0xbe8f48b3	-0.27985153
19	0xba1b78f2	-0.0005930803
20	0xbf411c7e	-0.754341
21	0x3f4756af	0.77866644
22	0xbf46893a	-0.7755314
23	0x3f580331	0.8437987
24	0x3db71b82	0.089407936
25	0xbdd4d081	-0.103913315
26	0x3ed81283	0.42201623
27	0x3e784dc8	0.24248421
28	0x3fe94c2c	1.8226371
29	0xbf1deddd	-0.61691076
30	0xbde9babd	-0.114125706
31	0x3f14c384	0.58110833
32	0x3fd8277b	1.6887048
33	0xbd1ef36e	-0.03880637
34	0xbd9d550d	-0.07682238
35	0xbe2a3de4	-0.16625172
36	0xbec984f8	-0.3935926
37	0x3cf279e9	0.029599147
38	0x3e9c8525	0.3057033
39	0xbb86f013	-0.0041179745
40	0x3f079ecd	0.52976686
41	0xbe5ee820	-0.21768236
42	0xbfc62888	-1.5481119
43	0x3ecbc990	0.39802217
44	0x3eb1b7eb	0.3471063
45	0x3eb1f436	0.3475663
46	0x3dc7a5ca	0.09748419
47	0x3e914269	0.2837098
48	0xbdad1ed8	-0.084531486
49	0xbe08d49a	-0.13362351
50	0x3eebb28d	0.4603466
51	0x3df1a883	0.11799719
52	0xbf48607d	-0.7827223
53	0xbe1959fe	-0.14975736
54	0xbd4a4fd5	-0.04939254
55	0x3ee76f70	0.45202208
56	0x3f831a20	1.0242348
57	0x3e75a640	0.239892
58	0xbe2f2aed	-0.17106219
59	0x3e4d2dd8	0.20037019
60	0x3f8258a2	1.0183299
61	0xbd897257	-0.06711262
62	0xbd23390d	-0.03984933
63	0x3ed9088f	0.42389342
64	0xbfb583a6	-1.4180801
65	0xbe6a2e0c	-0.22869128
66	0x3f48fa22	0.7850667
67	0xbf281da7	-0.65670246
68	0x3ec0028a	0.37501937
69	0x3ea2f536	0.31827706
70	0x3e43f29f	0.19135521
71	0xbfc4b24d	-1.5366913
72	0x3bd4df96	0.00649638
73	0x3c25a00d	0.01010896
74	0x3e117bc9	0.14207377
75	0xc0031a48	-2.048479
76	0xbc4b7ecc	-0.012420367
77	0xbd83042e	-0.063972816
78	0x3e42bd99	0.19017638
79	0xbc7f3a30	-0.015577838
80	0xbf6bb0df	-0.9206676
81	0xbef22c66	-0.47299498
82	0xbe8f0a71	-0.27937654
83	0xbf6ed935	-0.9330018
84	0xbe24ac4b	-0.1608135
85	0xbed35bf2	-0.41281086
86	0x3f88e681	1.0695344
87	0xbef54b44	-0.47908986
88	0x3f5c6c64	0.8610289
89	0x3dc7ad94	0.09749904
90	0x3da806b4	0.082044035
91	0xbeb71687	-0.35759374
92	0x3f9b1f94	1.2119012
93	0xbd747b0e	-0.059687667
94	0xbe137515	-0.14400132
95	0x3f00f9b4	0.50381017
96	0xbf5a57fc	-0.85290504
97	0x3e2391d6	0.15973601
98	0x3e9b0803	0.3027955
99	0xbe5d04b2	-0.21583822
100	0xc0021a6f	-2.0328634
101	0xbf07293a	-0.5279728
102	0xbe9ded71	-0.30845216
103	0x3da044e7	0.07825642
104	0xbf096f05	-0.5368503
105	0xbf2c4c4c	-0.6730392
106	0x3e32bddb	0.17455237
107	0xbf4e8c28	-0.8068261
108	0xbff54330	-1.9161129
109	0x3f5ca79f	0.8619327
110	0xbdbbe7b1	-0.09175051
111	0xbf53bf02	-0.8271333
112	0x3fbfef2e	1.4994867
113	0xbdb47fc9	-0.088134356
114	0x3eff7906	0.4989702
115	0xbe850d5f	-0.25986764
116	0xbf27947b	-0.6546094
117	0x3e847ae7	0.25875017
118	0x3d795f8c	0.060882136
119	0x3f327dc6	0.69723165
120	0x3d4e001b	0.05029307
121	0x3fc148b2	1.510031
122	0x3ea28a5e	0.3174619
123	0xbe955a1a	-0.29170305
124	0x3f2ce3c4	0.6753504
125	0x3f854039	1.0410224
126	0xbe0bc3d2	-0.13648918
127	0xbf2ae5ef	-0.667571
128	0x3d2d4d76	0.0423102
129	0xbfa929a4	-1.3215833
130	0xbf8325ba	-1.0245888
131	0xbf5cea27	-0.8629479
132	0xbecd62df	-0.40114495
133	0xbc905d41	-0.017622592
134	0x3dc22114	0.094789654
135	0x3f21de82	0.63230145
136	0x3f48679c	0.78283095
137	0xbf906f37	-1.128394
138	0x3f0645bf	0.52450174
139	0x3e63a0a5	0.2222925
140	0xbfbcfa1f	-1.4763831
141	0xbf867ba1	-1.0506479
142	0x3d1abc56	0.037777267
143	0xbf274c24	-0.65350556
144	0x3c4c776b	0.012479643
145	0x3e9a3d38	0.3012483
146	0x3e8895f3	0.26676902
147	0x3eba93a0	0.36440754
148	0xbf9dd716	-1.2331264
149	0xbfadc453	-1.3575538
150	0x3ed2547f	0.4108009
151	0x3ed39d27	0.41330835
152	0x3e30b1a3	0.17255263
153	0x3ebba6d4	0.36650717
154	0x3e9c12c7	0.30483076
155	0x3f4aa225	0.7915366
156	0xbfb25440	-1.3931961
157	0x3fb11c1b	1.3836702
158	0x3f5f7d32	0.8730041
159	0xbebb7c79	-0.36618403
160	0xbd3922b5	-0.045199115
161	0xbfb54228	-1.4160814
162	0x3ea12dce	0.3148026
163	0xbfb03e58	-1.3769026
164	0xbf4e154c	-0.80501246
165	0x3f272c5f	0.6530208
166	0xbed4acf0	-0.4153819
167	0x3f41f4e2	0.75764287
168	0x3d75a5e3	0.059972655
169	0xbc7637f4	-0.015027989
170	0x3f58f95d	0.847555
171	0xbdf3cd05	-0.11904339
172	0xbf8c25d0	-1.094904
173	0x3f12f515	0.57405216
174	0xbd5c338f	-0.053760108
175	0x3f7464b9	0.9546619
176	0x3e8f745e	0.2801847
177	0xbfc01cd0	-1.5008793
178	0x3ecb69b2	0.39729077
179	0xbe914824	-0.2837535
180	0x3fb3e89f	1.4055365
181	0xbfc222c3	-1.5166858
182	0xbfbdeb98	-1.4837523
183	0x3e2ba8d5	0.16763623
184	0x3ebfb942	0.37446028
185	0xbf0e4760	-0.5557766
186	0xbf340e5b	-0.70334405
187	0xbf7178ae	-0.9432477
188	0x3fa27bad	1.2693993
189	0x3f9cba81	1.2244416
190	0x3e22150d	0.15828343
191	0xbd802457	-0.06256931
192	0xbe93aa2b	-0.28840765
193	0x3d63816a	0.05554334
194	0xbf0481c9	-0.51760536
195	0xbf41aa7e	-0.75650775
196	0x3f88fa2b	1.0701345
197	0x3eae3324	0.34023392
198	0xbe71ea58	-0.23624551
199	0x3eaeee4d	0.34166184
200	0xbf7513e1	-0.9573346
201	0xbefb056c	-0.49027574
202	0x3e930b49	0.28719547
203	0x3fe0b3f4	1.7554917
204	0x3e3510e8	0.1768223
205	0x3db7846f	0.089608066
206	0x3f109fe2	0.5649396
207	0xbf66a433	-0.900943
208	0xbbcede73	-0.006313139
209	0x3dd44ccf	0.103662126
210	0xbebb3632	-0.36564785
211	0xbefa9ac2	-0.48946196
212	0x4009d4b9	2.1536086
213	0x3ea8138b	0.3282741
214	0xbf8df1c4	-1.1089406
215	0x3e8f48bb	0.27985176
216	0x3e8bd5a4	0.27311432
217	0xbf7b93f4	-0.98272634
218	0x3f383ad9	0.71964794
219	0xbef35e55	-0.47532907
220	0xbf5df332	-0.8669921
221	0xbeba47aa	-0.363828
222	0xbfc4da77	-1.537917
223	0x3eee96b6	0.46599358
224	0xbe4f958b	-0.2027189
225	0x3f0c4549	0.5479322
226	0xbd87da83	-0.06633475
227	0xbf371b72	-0.71526253
228	0x3d92619d	0.071475245
229	0xbe9aab82	-0.30208975
230	0xbf07722b	-0.5290858
231	0xbf6d8889	-0.9278646
232	0xbd8514df	-0.064981215
233	0x3e2469b2	0.16055945
234	0x3f1219bd	0.57070524
235	0x40153d56	2.3318686
236	0x3fab1db9	1.3368446
237	0x3d23a1c3	0.03994919
238	0xbee5c8b5	-0.4487969
239	0x3e70f848	0.23532212
240	0xbe2056ef	-0.15658163
241	0x3e8c0852	0.27350098
242	0x3dbb952d	0.091593124
243	0x3ef87ec2	0.4853421
244	0xbe8c3a06	-0.27388018
245	0xbf9d63b1	-1.2296048
246	0x3e740631	0.23830487
247	0xbff1210d	-1.8838211
248	0xbf9111da	-1.1333573
249	0x3f0563ad	0.5210522
250	0xbcf421d5	-0.029801289
251	0x3e96f4f7	0.29483768
252	0xbfe3112a	-1.7739613
253	0x3bff1092	0.0077839578
254	0xbe585dbb	-0.21129505
255	0x3f8bec68	1.093152

fc1.bias f4 [256]
0	0xbe82d3cb	-0.2555221
1	0xbbedf354	-0.007261673
2	0xbe610ade	-0.21976802
3	0xbe63aade	-0.2223315
4	0xbe26b89c	-0.1628136
5	0xbea9316e	-0.33045524
6	0x3e860b65	0.26180568
7	0xbd0837ad	-0.03325622
8	0xbe2ae752	-0.16689804
9	0xbb90b512	-0.0044161165
10	0xbf1a3492	-0.60236466
11	0xbdda4ef4	-0.1065959
12	0xbf06bdef	-0.52633566
13	0x3ce28b86	0.02765442
14	0xbd6d2fa8	-0.057906777
15	0xbeb6cfb4	-0.3570534
16	0xbf249b13	-0.64299124
17	0xbde988b5	-0.11403028
18	0xbea32108	-0.31861138
19	0x3ea6c3ba	0.32571203
20	0xbea4c529	-0.3218167
21	0xbe5ccafd	-0.21561809
22	0x3c01e4f4	0.007928122
23	0xbf12627d	-0.5718153
24	0x3e4f6bb3	0.20255928
25	0x3efb0286	0.49025363
26	0x3d20518d	0.039140273
27	0x3e25d356	0.161939
28	0xbec7dd50	-0.39036036
29	0xbcacd324	-0.021096773
30	0xbd248b75	-0.04017206
31	0xbf3c1bad	-0.7347973
32	0xbe86767a	-0.26262265
33	0xbe8c0b75	-0.2735249
34	0x3e4f9260	0.20270681
35	0xbee80a23	-0.45320234
36	0xbe88164c	-0.2657951
37	0xbf118632	-0.5684539
38	0xbb6dcac2	-0.0036284183
39	0xbe81295b	-0.25226864
40	0x3bb785c1	0.0056006615
41	0xbe9b785f	-0.30365273
42	0xbe99fb0a	-0.3007434
43	0x3d8b93ec	0.06815323
44	0xbc563e21	-0.013076336
45	0x3e80e443	0.2517415
46	0x3d0fe04b	0.03512601
47	0xbe8c4838	-0.2739885
48	0xbc75dc9c	-0.015006211
49	0xbcdfadbb	-0.02730452
50	0xbe7bfc31	-0.24607922
51	0x3f1b68c9	0.60706764
52	0x3d2c784b	0.042106908
53	0xbdd3aadd	-0.10335324
54	0xbe942f8d	-0.28942528
55	0x3ecabb88	0.395962
56	0xbe37fb25	-0.17966898
57	0xbdd71c58	-0.10503453
58	0xbe8ad70b	-0.2711719
59	0x3dfc0dec	0.12307343
60	0xbeb70211	-0.35743764
61	0xbd68f0da	-0.05687032
62	0xbd1f0d2a	-0.038830914
63	0xbe7f6bdf	-0.24943493
64	0xbd6841f5	-0.056703527
65	0xbd07b751	-0.03313381
66	0x3ed39e49	0.413317
67	0x3d00b737	0.031424727
68	0xbe46f87c	-0.19430727
69	0x3dddf684	0.10838035
70	0xbe41e635	-0.18935473
71	0xbf244c03	-0.64178485
72	0xbe030a6a	-0.12796941
73	0xbe586f93	-0.21136312
74	0x3c91bdc2	0.017790679
75	0xbdfa276b	-0.1221455
76	0xbdcc7d05	-0.09984783
77	0xbf085846	-0.53259695
78	0xbec8350d	-0.39102975
79	0xbc4e6c35	-0.012599041
80	0xbdf69570	-0.12040222
81	0x3d9e211d	0.077211596
82	0xbe894101	-0.26807407
83	0x3ccbd5ee	0.024882283
84	0x3eefff69	0.4687455
85	0xbee67836	-0.4501359
86	0x3e384181	0.17993738
87	0xbc4ab556	-0.012372335
88	0xbe7b4d0a	-0.24541107
89	0x3d2bec1b	0.041973215
90	0xbf0023af	-0.5005445
91	0xbd95188b	-0.07280072
92	0xbd25d86c	-0.0404896
93	0x3eca95c2	0.3956738
94	0xbe54c980	-0.20779991
95	0x3c62f7f0	0.013853058
96	0xbe123784	-0.1427899
97	0x3d92fe13	0.07177367
98	0xbde56dfa	-0.11202617
99	0xbd4b161a	-0.049581625
100	0xbf0f429d	-0.5596102
101	0x3e909ada	0.28243142
102	0xbd663e90	-0.056212008
103	0xbe17ce24	-0.1482473
104	0xbde9ab4e	-0.11409627
105	0xbf16720f	-0.5876779
106	0x3e271f6f	0.16320585
107	0xbd724b6e	-0.059153967
108	0xbf7ab858	-0.97937536
109	0x3ee1af0f	0.44078872
110	0xbd9053b7	-0.07047217
111	0x3cfa71ff	0.030571936
112	0xbd6cecf2	-0.057843156
113	0x3e282a92	0.1642249
114	0x3e8dce37	0.27696392
115	0xbe1d2014	-0.15344268
116	0xbe579916	-0.21054491
117	0x3e84f8ef	0.2597117
118	0x3e7e53ea	0.24836698
119	0xbf016aab	-0.5055339
120	0x3f25ea25	0.648104
121	0xbd9e0aa7	-0.077168755
122	0x3bd25552	0.0064188624
123	0xbdd14028	-0.10217315
124	0x3d9e37a5	0.07725457
125	0x3e9755aa	0.29557544
126	0x3f00c556	0.5030111
127	0x3e5e961f	0.21736954
128	0xbee9f67f	-0.45695874
129	0xbdcfa2cb	-0.10138472
130	0xbdce3e15	-0.10070435
131	0xbd76f0c0	-0.06028819
132	0xbea61657	-0.3243892
133	0x3f1f94fb	0.623367
134	0xbe03606e	-0.12829754
135	0xbf0582e6	-0.5215286
136	0x3e2ec2b7	0.17066465
137	0xbe0c7486	-0.13716325
138	0x3e615b3a	0.22007456
139	0xbeafe2d3	-0.3435274
140	0x3e39c573	0.18141727
141	0x3e672a15	0.22574647
142	0x3e09908d	0.13434048
143	0xbe95f11f	-0.29285523
144	0x3efce7e0	0.49395657
145	0xbdc667d6	-0.09687774
146	0x3ec19e3a	0.3781603
147	0x3ee8e595	0.45487657
148	0xbe203ea3	-0.15648894
149	0x3f2a5442	0.6653482
150	0xbdd83d97	-0.10558622
151	0x3e1b8712	0.15188244
152	0x3e5beace	0.2147629
153	0xbd91d172	-0.07120027
154	0xbe3a6854	-0.1820386
155	0x3f3f2594	0.74666715
156	0x3e04b8ec	0.12961167
157	0xbe51860a	-0.20461288
158	0xbeb93e44	-0.36180317
159	0xbea04dce	-0.3130936
160	0x3eae7494	0.34073317
161	0x3eda651d	0.42655268
162	0x3ee6445c	0.4497403
163	0x3ed9369e	0.42424482
164	0xbf0b025e	-0.5430049
165	0x3d2dd2f4	0.04243751
166	0xbf02dd48	-0.511189
167	0x3ecc482b	0.3989881
168	0xbd84adc0	-0.06478453
169	0xbf2b9016	-0.6701673
170	0x3eb6bd69	0.35691383
171	0xbf27701a	-0.6540543
172	0xbe3c43a4	-0.18385178
173	0xbe88b03f	-0.26696965
174	0xbefecd1e	-0.49765867
175	0x3eba7870	0.36420012
176	0x3c85287b	0.016254654
177	0xbe7cf001	-0.24700929
178	0x3de69e03	0.11260607
179	0x3ea04514	0.31302702
180	0x3d04ff71	0.03247017
181	0xbe90b5d3	-0.2826372
182	0xbe9526a5	-0.29131046
183	0x3d8dca3c	0.06923339
184	0x3e53736f	0.20649503
185	0xbd15da7e	-0.036585324
186	0x3de55278	0.1119737
187	0x3f08b271	0.5339728
188	0xbe545aad	-0.20737715
189	0xbeefae42	-0.46812636
190	0xbb1eed23	-0.0024250231
191	0x3ee0da7d	0.43916693
192	0xbb6d9af3	-0.0036255687
193	0xbd956f67	-0.07296639
194	0xbd3c027d	-0.04590081
195	0xbebe5b6f	-0.37179133
196	0xbf09d679	-0.53842884
197	0xbd6e2dd8	-0.05814919
198	0xbe9ec94a	-0.31012946
199	0x3e87eef7	0.26549503
200	0x3e2e3804	0.17013556
201	0x3af1a338	0.0018435484
202	0x3e0b12fa	0.13581458
203	0x3d627966	0.055291556
204	0x3dcabc99	0.098992534
205	0x3d4e0811	0.05030066
206	0xbea3b6da	-0.31975442
207	0xbf19922b	-0.5998866
208	0x3d0b4a8e	0.034006648
209	0xbebb9711	-0.36638692
210	0x3e9796bb	0.29607186
211	0xbee08511	-0.43851522
212	0xbde712ad	-0.11282859
213	0x3f21b497	0.63166183
214	0xbdda9435	-0.106727995
215	0x3bc33ee0	0.005958423
216	0xbdf22b2e	-0.11824642
217	0x3c8b6222	0.017014567
218	0x3f1e6749	0.6187635
219	0x3eb3506d	0.35022298
220	0xbf0c6328	-0.548388
221	0x3e4a8710	0.19778085
222	0xbea6b385	-0.32558838
223	0x3dacf4c2	0.08445121
224	0x3e4ace6e	0.19805309
225	0xbf3aa967	-0.7291474
226	0xbe0d4fef	-0.13800023
227	0xbca6b331	-0.020349117
228	0xbec60a56	-0.3867976
229	0xbc331c5b	-0.010932053
230	0x3e118ea3	0.14214568
231	0xbce95fdf	-0.028488098
232	0x3e3665f4	0.1781233
233	0xbe40e4e6	-0.18837318
234	0xbde46e44	-0.11153844
235	0xbb5996af	-0.0033201387
236	0xbdd9f9a7	-0.106433205
237	0xbea1919d	-0.31556407
238	0x3eb7603c	0.35815609
239	0x3e448072	0.19189623
240	0x3f202291	0.62552744
241	0xbe89d8d8	-0.2692325
242	0xbebffe5a	-0.37498742
243	0xbf12d29f	-0.5735263
244	0xbdf26069	-0.11834795
245	0xbbd54909	-0.0065089506
246	0x3ed1bf78	0.40966392
247	0xbf10f0e8	-0.56617594
248	0xbe2f5e29	-0.17125763
249	0x3d0e55f1	0.03474993
250	0xbe8a901e	-0.27063078
251	0xbb887c84	-0.004165234
252	0x3e5ddf90	0.21667314
253	0x3ef92e27	0.48668024
254	0x3e961a57	0.2931697
255	0x3de7bcd1	0.11315311

fc2.weight f4 [128, 256]
0	0xbe8a4cca	-0.2701171
1	0xbe26bb5e	-0.16282412
2	0x3ddd240e	0.107978925
3	0xbdf6523c	-0.12027404
4	0x3ddad538	0.106851995
5	0x3f1aa0c5	0.60401565
6	0xbd636cec	-0.055523798
7	0x3f1ccbcf	0.6124849
8	0x3e19c3b8	0.15016067
9	0x3e494708	0.19656003
10	0x3d3cf403	0.046131145
11	0x3f0ab6d5	0.5418523
12	0x3f40ac1c	0.7526262
13	0x3e95bfcf	0.292479
14	0x3e65fad0	0.22458959
15	0xbc71b5be	-0.014752803
16	0x3f72b764	0.9481108
17	0x3ea82a2a	0.3284467
18	0x3d804335	0.06262819
19	0x3d464a78	0.048410863
20	0x3e0f9a85	0.14023788
21	0x3e11839e	0.14210364
22	0x3ed82367	0.4221451
23	0x3f1fa7ed	0.6236561
24	0x3eafbd61	0.34324172
25	0x3dc24a4b	0.094868265
26	0x3d14b27d	0.036303032
27	0xbdea670b	-0.11445435
28	0xbe373b13	-0.17893629
29	0xbe55570d	-0.20833988
30	0xbe1dafa1	-0.15399028
31	0xbe87e490	-0.26541567
32	0x3f1225dc	0.5708902
33	0xbf2d3e46	-0.67673147
34	0xbe11ecf3	-0.14250545
35	0x3ee41d06	0.44553393
36	0xbea1a450	-0.31570673
37	0x3e000c94	0.12504798
38	0x3e67c356	0.22633108
39	0x3e110dd8	0.14165437
40	0x3f0561b2	0.52102196
41	0x3ee50cc9	0.44736317
42	0x3f1159a4	0.56777406
43	0xbcd467e2	-0.025928441
44	0xbed8cecc	-0.42345273
45	0xbe6598d2	-0.22421578
46	0x3e993c76	0.2992894
47	0xbe4a2e94	-0.1974433
48	0xbf47978c	-0.7796562
49	0xbefadbbe	-0.48995775
50	0xbe81f557	-0.25382492
51	0xbea1fa71	-0.31636384
52	0xbdbfbdbb	-0.0936236
53	0x3da9f6aa	0.082990006
54	0x3e27a771	0.16372468
55	0xbeb4e278	-0.35329032
56	0x3e35cb75	0.17753394
57	0xbee76080	-0.4519081
58	0xbebf3125	-0.37342182
59	0xbee10da2	-0.43955714
60	0x3d36a8d0	0.044594586
61	0xbe36a152	-0.17834976
62	0xbea30970	-0.31843138
63	0xbe0f0ceb	-0.13969772
64	0x3d863ccf	0.06554567
65	0xbdaac7b4	-0.083388716
66	0x3eea27a1	0.4573336
67	0xbcbfaf97	-0.023399157
68	0xbf38cb62	-0.7218534
69	0x3f19339b	0.5984437
70	0xbf57d52c	-0.8430965
71	0xbdf2019c	-0.11816713
72	0x3edf9167	0.4366562
73	0xbbfb6890	-0.007672377
74	0xbe1c4599	-0.15260924
75	0xbd6651d4	-0.05623038
76	0x3e01e113	0.12683515
77	0x3db3eac2	0.08785011
78	0x3e74e1cc	0.2391426
79	0xbf49454a	-0.7862135
80	0xbeae6584	-0.34061825
81	0x3e9d25bf	0.3069286
82	0xbe3797ab	-0.1792895
83	0x3dd35028	0.10318023
84	0xbdaf6218	-0.08563632
85	0x3de26b0f	0.11055576
86	0xbe324b4f	-0.1741154
87	0xbe26333c	-0.16230482
88	0xbd213242	-0.03935457
89	0xbbfec1b1	-0.0077745547
90	0x3e1cf0da	0.15326253
91	0x3c9aa6a3	0.018878287
92	0xbfdf42e5	-1.744229
93	0xbe9175bf	-0.28410146
94	0x3f8d4b8d	1.1038681
95	0xbfa8c8c6	-1.3186271
96	0xbd9742e4	-0.07385805
97	0xbfe518ff	-1.7898253
98	0x3f50718d	0.81423265
99	0xbe39d681	-0.18148233
100	0x3d4eea46	0.05051639
101	0x3ec4e47a	0.38455564
102	0xbf3fe232	-0.7495452
103	0x3d94964c	0.07255229
104	0xbe7ca7cd	-0.24673386
105	0xbea0c7e2	-0.31402498
106	0xbde5932f	-0.11209714
107	0xbd41a0b6	-0.047272407
108	0xbe35b6ac	-0.17745465
109	0x3f145726	0.5794548
110	0x3e03e4ec	0.12880296
111	0xbf896762	-1.0734675
112	0xbe6facab	-0.23405711
113	0x3e28e83b	0.16494839
114	0xbc85ebf2	-0.016347859
115	0x3ed54db1	0.41660836
116	0x3e13aeb2	0.1442211
117	0xbe413305	-0.18867119
118	0x3e3cc904	0.18436056
119	0x3e5cbf32	0.2155731
120	0xbdb7ec91	-0.08980668
121	0x3eb92b69	0.36165932
122	0x3f51d63b	0.81967515
123	0x3f55cced	0.83515817
124	0x3f1e0843	0.61731356
125	0x3eeac642	0.45854384
126	0xbf21ab80	-0.63152313
127	0x3e6af570	0.2294519
128	0x3db947c7	0.090468936
129	0x3dd12a31	0.102131255
130	0xbf432a5e	-0.7623652
131	0x3fb86aed	1.4407631
132	0x3d90edb9	0.07076592
133	0xbf1e81cd	-0.6191681
134	0x3f25c85b	0.64758843
135	0xbde9391b	-0.11387845
136	0x3f063380	0.5242233
137	0x3f3d6eee	0.7399739
138	0x3d214d6b	0.039380472
139	0xbe2f8088	-0.17138875
140	0x3e427590	0.18990159
141	0x3d0ffb05	0.0351515
142	0xbcb9bab0	-0.022672027
143	0x3ece7749	0.40325382
144	0xbd812f42	-0.06307842
145	0x3f05dedf	0.522932
146	0x3de64da2	0.11245276
147	0xbd86392b	-0.06553873
148	0xb898fc14	-7.294878e-05
149	0x3f3ada6d	0.7298954
150	0x3f337eb6	0.7011522
151	0xbec49d3d	-0.38401213
152	0xbec16df4	-0.377792
153	0xbe025f12	-0.12731579
154	0x3e7670fa	0.24066535
155	0x3db5b940	0.08873224
156	0x3ec3e544	0.38260853
157	0x3e678f4a	0.22613254
158	0x3eafd2e0	0.34340572
159	0x3d3103a5	0.043216366
160	0x3eeb38dc	0.45941818
161	0xbe7d59c3	-0.24741273
162	0xbf43a6bf	-0.7642631
163	0x3e047c80	0.12938118
164	0x3ead82a6	0.3388874
165	0x3e5c997e	0.21542928
166	0x3ec478f7	0.3837354
167	0xbfd448ba	-1.6584694
168	0x3dd52a8f	0.10408508
169	0x3e8bfcf2	0.2734142
170	0xbe1d22e9	-0.15345348
171	0x3f083e7b	0.5322034
172	0xbd77e06c	-0.06051676
173	0x3ee04e6f	0.4380984
174	0xbe874013	-0.26416072
175	0xbd529808	-0.05141452
176	0x3e8beb1c	0.27327812
177	0xbe59b4b1	-0.21260335
178	0x3d97cc49	0.07412011
179	0x3ea9e5c0	0.33183098
180	0xbe6e5ffd	-0.23278804
181	0xbe8b5fc6	-0.27221507
182	0xbe326520	-0.17421389
183	0xbf173551	-0.5906573
184	0x3e7bcd0d	0.2458994
185	0xbea42ca1	-0.320653
186	0xbef8b7ac	-0.4857763
187	0xbd4c427b	-0.04986809
188	0xbe557f82	-0.20849422
189	0xbcfc4c9d	-0.03079825
190	0xbd991152	-0.07474007
191	0xbdbe5744	-0.09293988
192	0x3f3af931	0.73036486
193	0x3e8950d7	0.26819488
194	0xbe35a70e	-0.17739508
195	0xbf144c71	-0.5792914
196	0x3f3750dd	0.7160776
197	0x3e796eb0	0.2435863
198	0xbec68a37	-0.38777325
199	0x3f08193b	0.531635
200	0x3ee5b624	0.44865525
201	0x3f3b4739	0.7315555
202	0xbd998d4f	-0.074976556
203	0xbc4d680e	-0.012537016
204	0x3eaa456f	0.332561
205	0xbf5b1fa7	-0.8559517
206	0x3f0b4860	0.5440731
207	0x3efca5e9	0.4934533
208	0xbbffa967	-0.0078021768
209	0x3d1b8fbb	0.03797887
210	0xbe520214	-0.20508605
211	0x3ef32c78	0.47494864
212	0x3d077dd4	0.033078983
213	0x3e49e4c9	0.19716181
214	0xbf510d77	-0.8166117
215	0x3df64d4c	0.12026462
216	0xbd858e65	-0.065213
217	0x3f10aaa9	0.56510407
218	0x3e428a7b	0.18998139
219	0x3ea0385a	0.31292993
220	0xbe14298c	-0.14468974
221	0x3e8f3bff	0.2797546
222	0xbf2e38c3	-0.6805536
223	0x3eea4a24	0.4575969
224	0x3f03ab0d	0.5143288
225	0x3eff295d	0.49836245
226	0x3f7bf559	0.98421246
227	0x3d28bc43	0.041195165
228	0x3d3fdb96	0.046840273
229	0x3da16126	0.07879858
230	0xbef9aaca	-0.48763114
231	0xbda5e39c	-0.08100054
232	0xbe8927f6	-0.267883
233	0x3e4b2316	0.19837603
234	0x3e48df56	0.19616446
235	0x3e360dd5	0.17778714
236	0x3e8d7500	0.27628326
237	0xbdee1315	-0.11624733
238	0x3ec3f608	0.38273644
239	0x3e3c88e7	0.18411599
240	0xbeb79fb6	-0.35864037
241	0x3d3f174b	0.046653073
242	0x3eea7c01	0.45797732
243	0x3e77d85e	0.24203631
244	0xbe08b91a	-0.1335186
245	0x3f0b63dd	0.54449254
246	0xbd987cd4	-0.07445684
247	0xbfab81cf	-1.339899
248	0x3ec548d2	0.3853212
249	0x3e941cf5	0.28928342
250	0x3e76c05a	0.24096814
251	0x3d9e143f	0.077187054
252	0x3e7356ba	0.23763552
253	0xbdf88804	-0.12135318
254	0xbe060089	-0.13086142
255	0xbb5f0fed	-0.0034036592

fc2.bias f4 [128]
0	0xbd25cc04	-0.040477768
1	0xbf3c0ca2	-0.73456776
2	0xbe210e3e	-0.15728089
3	0x3cc9c280	0.024628878
4	0xbe47463f	-0.1946039
5	0x3da6d9ea	0.081470326
6	0x3e50a8f5	0.20376952
7	0x3dd5da8e	0.104420766
8	0x3eb386a0	0.35063648
9	0x3c3250b1	0.010883496
10	0xbcdfe6d9	-0.027331756
11	0xbe258134	-0.16162568
12	0xbe249cd7	-0.16075455
13	0xbcd60078	-0.02612327
14	0xbdbf09ca	-0.09328039
15	0x3e47918c	0.19489115
16	0xbec32e80	-0.38121414
17	0x3e82d2b1	0.2555137
18	0xbd4273fa	-0.047473885
19	0x3dc7fded	0.097652294
20	0x3e8d8bca	0.27645713
21	0x3b88b472	0.0041719014
22	0x3e1a87a4	0.15090805
23	0x3d872934	0.06599656
24	0xbe425188	-0.18976414
25	0x3f08065c	0.53134704
26	0xbdf80e97	-0.12112158
27	0x3e7eed6a	0.24895254
28	0x3ecc3ae8	0.39888692
29	0xbca5ef18	-0.02025561
30	0x3ea39403	0.3194886
31	0x3d9ca0c8	0.07647854
32	0xbecd8bdc	-0.40145767
33	0x3cfd6fb1	0.030937048
34	0x3e288856	0.16458258
35	0xbe31e0dd	-0.17370935
36	0xbdd0cc94	-0.1019527
37	0x3d323c01	0.043514255
38	0x3f017833	0.50574034
39	0xbddfe257	-0.10931843
40	0x3ea69b33	0.32540283
41	0xbe0d1a3d	-0.1377954
42	0x3ee44ec7	0.44591352
43	0xbe10b19c	-0.14130253
44	0x3ea871fa	0.32899457
45	0x3e112567	0.14174424
46	0x3c4cb021	0.012493164
47	0x3d8e2000	0.06939697
48	0xbed0b545	-0.40763298
49	0xbe230f25	-0.15923746
50	0x3ccbdcd3	0.02488557
51	0xbda9108f	-0.082551114
52	0xbd236fcd	-0.039901543
53	0xbda42554	-0.08014932
54	0xbe8febcd	-0.2810959
55	0x3e4ed4c5	0.20198353
56	0xbebc6626	-0.36796683
57	0x3e85b5e3	0.2611533
58	0x3dfd6294	0.12372318
59	0x3e817d0d	0.2529072
60	0x3e86a6fd	0.26299277
61	0x3e2943d8	0.16529787
62	0x3e6a4095	0.22876199
63	0xbd0c0e41	-0.03419328
64	0x3edfa1fe	0.43678278
65	0xbd000892	-0.031258173
66	0x3dc86550	0.09784949
67	0xbe13db65	-0.14439161
68	0xbe7e98cf	-0.2486298
69	0x3e05f814	0.13082916
70	0xbd9056a5	-0.07047776
71	0xbe15a13a	-0.14612284
72	0x3dec594b	0.11540469
73	0x3e56df1a	0.20983544
74	0xbe54b47c	-0.20771974
75	0xbda9f1ec	-0.08298096
76	0x3dcc24e8	0.09967977
77	0xbe395a55	-0.18100865
78	0xbe2f17d6	-0.17098936
79	0x3d4bf15a	0.049790718
80	0xbeb0698d	-0.3445553
81	0xbe68fb18	-0.22752035
82	0xbf07ef52	-0.5309955
83	0x3ce8b251	0.02840534
84	0xbec72310	-0.38893938
85	0xbb9b4522	-0.004738466
86	0xbe5d90e9	-0.2163731
87	0x3efe8209	0.49708584
88	0xbdba30c4	-0.090913326
89	0xbd9463c3	-0.072455905
90	0x3e18062d	0.14846106
91	0x3ea98eeb	0.3311685
92	0x3ea6149f	0.32437608
93	0xbe9f8ff1	-0.31164506
94	0x3e32876f	0.17434476
95	0x3e3d511c	0.18487972
96	0x3e659459	0.22419871
97	0xbd378c7f	-0.044811722
98	0x3eae3dd7	0.34031555
99	0x3e2ba6a4	0.16762787
100	0x3d945c2b	0.07244142
101	0x3df435b5	0.11924306
102	0x3edc560f	0.43034407
103	0xbcde129c	-0.027108483
104	0x3da34b0c	0.079732984
105	0x3e227137	0.158635
106	0xbe9367ed	-0.28790227
107	0xbe630e0e	-0.2217333
108	0x3e0642f6	0.13111481
109	0x3c99241d	0.018693978
110	0xbe89a42a	-0.2688306
111	0xbee60d47	-0.44932005
112	0xbe82d185	-0.25550476
113	0x3e00a0aa	0.12561288
114	0x3ed00965	0.40632167
115	0xbdac4a45	-0.08412603
116	0xbca957a6	-0.020671677
117	0x3e96444e	0.29348987
118	0x3dfbf7d0	0.12303126
119	0x3ec9e25c	0.3943051
120	0xbe74f767	-0.23922502
121	0x3df7e393	0.12103953
122	0x3dda50ab	0.106599174
123	0x3ea18ba1	0.3155184
124	0xbdf07dd7	-0.11742752
125	0xbe95d7ee	-0.29266304
126	0x3e47085c	0.19436783
127	0x3e31a16f	0.17346738

fc3.weight f4 [4, 128]
0	0x3f2eeebd	0.68333036
1	0xbfee6c8d	-1.8626877
2	0xbe93cfe0	-0.28869534
3	0x3f55c4d1	0.83503443
4	0x3ef8f190	0.48621798
5	0xbf2add81	-0.6674424
6	0x3ea9fa43	0.33198747
7	0x3efd9195	0.49525133
8	0xbec691d1	-0.38783124
9	0xbe5d5689	-0.21615042
10	0x3e77cb21	0.24198581
11	0xbe3e2700	-0.18569565
12	0xbf2180da	-0.63087237
13	0xbea3445a	-0.31888086
14	0xbf5f176f	-0.8714513
15	0x3f2f2d1d	0.6842821
16	0x3eaeac1a	0.34115678
17	0x3ec0759f	0.37589738
18	0xbb1db2f2	-0.0024062959
19	0xbf2ea5ed	-0.6822193
20	0x3f46f698	0.7772002
21	0xbf98ee6e	-1.1947763
22	0x3f2543c7	0.64556545
23	0xbea76de3	-0.32701024
24	0xbedd7c24	-0.43258774
25	0x3f72a916	0.94789255
26	0x3f18460d	0.5948189
27	0x3f01a021	0.5063496
28	0x3f04ce3a	0.51877177
29	0x3f604c4a	0.8761641
30	0xbd8e4a95	-0.06947819
31	0x3cf989d2	0.030461226
32	0xbe00cfc3	-0.12579255
33	0xbd6a928d	-0.057268668
34	0xbf930361	-1.1485406
35	0xbf182397	-0.59429306
36	0xbf2e8b17	-0.68180984
37	0x3f977d1f	1.1835059
38	0x3f657ded	0.8964527
39	0x3f35ea7d	0.71060926
40	0x3f40b023	0.75268763
41	0xbfeff06c	-1.8745246
42	0x3f623b13	0.8837139
43	0xbf01e07f	-0.5073318
44	0xbf1d0533	-0.6133606
45	0x3fad1eb8	1.3525
46	0x3e0f6049	0.14001574
47	0xbe8ef5cd	-0.27921906
48	0x3efb1e1a	0.49046403
49	0xbeb3779f	-0.350522
50	0xbd3ca1bf	-0.04605269
51	0xbe836709	-0.25664547
52	0x3e2729c9	0.16324534
53	0xbf0f58dd	-0.5599497
54	0x3f515de8	0.81783915
55	0x3ee3c7fd	0.44488516
56	0x3f720d28	0.94551325
57	0xbf0214c0	-0.5081291
58	0xbf01d90a	-0.507218
59	0x3dcad0b5	0.09903089
60	0xbde78834	-0.113052756
61	0x3f1e5259	0.618444
62	0x3f889c22	1.0672648
63	0xbdcf85ae	-0.10132919
64	0xbe3ea206	-0.18616495
65	0xbd1ac72e	-0.03778761
66	0x3f10ead5	0.56608325
67	0x3d802323	0.06256702
68	0xbea0c32b	-0.313989
69	0x3f2edfe4	0.6831038
70	0x3ebdc8c4	0.37067235
71	0xbafe8ed5	-0.0019421229
72	0xbdfe0c29	-0.12404663
73	0xbf6d1894	-0.9261563
74	0xbed3e0a9	-0.4138234
75	0x3f2179c2	0.6307641
76	0xbf3f84d4	-0.74812055
77	0xbfbbcd30	-1.4671993
78	0x3f606b7e	0.8766402
79	0x3f6f42e4	0.9346144
80	0xbfcf0cf8	-1.6175833
81	0x3ea99b12	0.33126122
82	0xbed81c55	-0.42209116
83	0xbe455308	-0.19269955
84	0xbf70b17f	-0.9402084
85	0xbf62a0dd	-0.8852671
86	0x3ee42d7f	0.4456596
87	0x3ecf6d3f	0.40513036
88	0x3f49d683	0.78842944
89	0xbe4a86ec	-0.19778031
90	0x3f8c5741	1.0964128
91	0xbf29af44	-0.6628306
92	0x3f1739df	0.5907268
93	0xbefa4084	-0.48877347
94	0x3f4a9d51	0.79146296
95	0x3f4ca4ba	0.7993885
96	0xbefa201c	-0.48852623
97	0xbd5f83c4	-0.05456902
98	0x3f689aab	0.90861005
99	0x3ebe2659	0.37138632
100	0x3f1bbb6d	0.60832864
101	0xbf2d5dba	-0.6772114
102	0x3f6ba2cf	0.920453
103	0xbf083962	-0.5321256
104	0xbf3199fd	-0.6937559
105	0x3ed7c3ff	0.4214172
106	0x3f27e0cd	0.65577394
107	0xbf58f7bb	-0.84753007
108	0xbec83135	-0.39100042
109	0x3f2b9329	0.67021424
110	0x3f0d1065	0.5510314
111	0xbfa33c65	-1.2752806
112	0x3f6990e3	0.91236705
113	0xbf28de0a	-0.65963805
114	0x3f1949e3	0.5987837
115	0xbfb88e24	-1.4418378
116	0x3d473352	0.048632927
117	0xbe5af4fe	-0.2138252
118	0xbe9c4962	-0.30524737
119	0x3ff0aad9	1.8802139
120	0x3f523b17	0.82121414
121	0x3eb82101	0.3596268
122	0x3f487092	0.7829677
123	0x3f3cee06	0.73800695
124	0xbcf020f3	-0.029312586
125	0xbf7f1a0b	-0.99649113
126	0xbede4df9	-0.43418863
127	0x3f144a1e	0.57925594
128	0x3f54d220	0.83133125
129	0xbfad717f	-1.3550261
130	0xbed73f1f	-0.42040345
131	0x3f5848ce	0.8448609
132	0x3ed04709	0.40679196
133	0xbf0bdbe8	-0.54632425
134	0x3f2b9fa9	0.670405
135	0x3ee6c1d2	0.45069748
136	0xbef9de14	-0.48802245
137	0xbed108a5	-0.40826908
138	0x3df5f94f	0.120104425
139	0xbde5a11c	-0.1121237
140	0xbf40fece	-0.753888
141	0xbea0fb25	-0.31441608
142	0xbf62a751	-0.88536555
143	0x3f2cc578	0.67488813
144	0xbf88b9e6	-1.0681732
145	0x3e6776c6	0.22603902
146	0x3d338e27	0.04383674
147	0xbf4d0787	-0.8008961
148	0x3f2c539c	0.6731508
149	0xbf9567c4	-1.1672292
150	0x3f1aa4f2	0.60407937
151	0xbf083805	-0.5321048
152	0xbea39ff9	-0.31957987
153	0x3f7df487	0.99201244
154	0x3edd441d	0.4321603
155	0x3f0d510f	0.5520181
156	0x3e8d6333	0.27614745
157	0x3f554f0f	0.8332376
158	0x3db98a96	0.09059636
159	0x3e0b5beb	0.13609283
160	0xbfb7451e	-1.4317968
161	0xbe9bc43a	-0.30423146
162	0xbf82db36	-1.0223148
163	0xbef7a840	-0.48370552
164	0xbfaac985	-1.3342749
165	0x3fa56173	1.2920364
166	0x3f7752f9	0.9661098
167	0x3fa2023c	1.2656932
168	0x3f5a5eea	0.8530108
169	0xbfd15a39	-1.6355659
170	0x3f7280a4	0.9472754
171	0xbeb01199	-0.34388426
172	0xbf1d66ab	-0.61484784
173	0x3fb7dadc	1.4363666
174	0xbea17e39	-0.31541613
175	0xbe666ec8	-0.22503197
176	0x3f03c533	0.5147278
177	0xbec645e1	-0.38725188
178	0xbe6d20e5	-0.2315708
179	0xbe95e1f8	-0.29273963
180	0x3d95df62	0.073179975
181	0xbee80958	-0.4531963
182	0x3f37a993	0.71743125
183	0x3f0897dc	0.5335672
184	0xbe57cf81	-0.2107525
185	0xbec6bb4f	-0.3881478
186	0xbf12a9bc	-0.57290244
187	0x3d43a43c	0.047764048
188	0xbeb9dab7	-0.3629968
189	0x3f0e1267	0.5549683
190	0x3f8206de	1.0158346
191	0x3e5f1900	0.2178688
192	0x3d08bb80	0.03338194
193	0x3e15c54b	0.14626043
194	0x3f196ecb	0.5993468
195	0xbdf2ba7b	-0.118519746
196	0xbe86d29f	-0.26332566
197	0x3f2c6deb	0.6735522
198	0x3f86cf0a	1.0531933
199	0x3eedd1dc	0.46449172
200	0xbdce7765	-0.100813664
201	0xbf719bd1	-0.9437838
202	0x3ca96e19	0.020682381
203	0x3ed46446	0.41482753
204	0xbf675229	-0.9035974
205	0xbf7bfab5	-0.98429424
206	0x3f6a0e5e	0.9142817
207	0x3f41355d	0.7547205
208	0xbfeac2c0	-1.8340683
209	0x3f062e35	0.52414256
210	0xbd632d9a	-0.05546341
211	0xbe86cbb2	-0.26327282
212	0xbe7467a4	-0.23867661
213	0xbf4bb0f7	-0.795669
214	0x3ebc6bfb	0.36801133
215	0x3eb63ff9	0.35595682
216	0x3f4f1190	0.80886173
217	0xbf81a201	-1.0127565
218	0x3f93d2f5	1.1548754
219	0xbef3af5a	-0.4759472
220	0x3ed6d818	0.4196174
221	0xbe9cda2b	-0.306352
222	0x3f20e9a8	0.6285653
223	0x3f5bfdd5	0.8593419
224	0xbf0b27fe	-0.543579
225	0xbddbdc4d	-0.107353784
226	0x3f6a5d98	0.9154906
227	0x3eee6e91	0.4656873
228	0x3f08d77e	0.53453815
229	0xbf5011f0	-0.8127737
230	0x3f6bff91	0.9218684
231	0xbef6d96b	-0.48212752
232	0xbf189cba	-0.59614146
233	0x3f153547	0.5828442
234	0x3f276bba	0.6539875
235	0xbf59ff6c	-0.8515537
236	0xbeec095e	-0.46100897
237	0x3f188f3f	0.59593576
238	0x3f19b674	0.60044026
239	0xbffc50f1	-1.9712201
240	0x3f522a76	0.8209604
241	0xbecb61b8	-0.3972299
242	0x3f068007	0.52539104
243	0xbfca0368	-1.578229
244	0xbda24b67	-0.07924538
245	0xbe1370dd	-0.14398523
246	0xbeed6cb2	-0.4637199
247	0x3fea7b6c	1.8318915
248	0x3ed76782	0.42071158
249	0x3e8b54a0	0.27213
250	0x3f4c7ccb	0.7987792
251	0x3f4299bf	0.7601585
252	0x3e3d099b	0.18460695
253	0xbf7e2c76	-0.9928659
254	0xbf5d2104	-0.863785
255	0x3f2dd06c	0.6789615

fc3.bias f4 [4]
0	0x3e3bc13f	0.18335436
1	0x3da7f445	0.082008876
2	0xbbe79ae8	-0.007068027
3	0x3efa858c	0.48930013

exp_avg f4 [256, 8]
0	0x3ad56ffc	0.0016283984
1	0x3c102f3f	0.008800327
2	0xb964c1c2	-0.00021815955
3	0x3c156a0d	0.009119523
4	0x39193057	0.00014609225
5	0x3bbbd9e0	0.00573276
6	0xbace6c5e	-0.0015748849
7	0x3b2d6ab9	0.0026461317
8	0xbd5c9452	-0.053852387
9	0x3b744198	0.0037270542
10	0x3c5447ea	0.012956599
11	0x3ced32c8	0.028954878
12	0xbcf2c830	-0.029636472
13	0xbb1bf277	-0.0023795643
14	0xbe60378a	-0.21896186
15	0xbe15e18f	-0.14636825
16	0x3a03f49b	0.00050337025
17	0xbc6a6e4a	-0.0143085215
18	0xbc1b64cd	-0.009484482
19	0x3b8164bb	0.0039487756
20	0x3b28110c	0.0025644926
21	0xbc37abc4	-0.011210386
22	0xbc1290a6	-0.00894562
23	0xbcb184d0	-0.021669775
24	0x3ba87a5d	0.00514154
25	0xbb7a9118	-0.0038233455
26	0x3c8c94b1	0.017160745
27	0x3b810f84	0.003938617
28	0xbbe99e42	-0.0071294615
29	0xbd2cb2f9	-0.04216287
30	0x3d6dad07	0.05802634
31	0x3d85d38b	0.06534489
32	0xbae22282	-0.0017252716
33	0x3c581848	0.013189383
34	0xbb18e296	-0.0023328415
35	0xb9b96978	-0.0003536453
36	0x3c685cd8	0.014182292
37	0x3d086281	0.033297066
38	0x3d3e8692	0.046515055
39	0x3d63541a	0.055500127
40	0x3a7cbfe9	0.0009641634
41	0x3905d50a	0.00012763232
42	0xbc0b1cfb	-0.008490796
43	0xbb206f65	-0.0024480459
44	0xbb644c60	-0.0034835562
45	0x398db00d	0.00027024784
46	0x3c6cad49	0.014445611
47	0x3c5479ad	0.012968463
48	0xbc203432	-0.009778069
49	0x3d541384	0.051776424
50	0x3ad5dff1	0.001631735
51	0xbd07fa06	-0.033197425
52	0xbb325778	-0.002721278
53	0x3d2c7243	0.042101156
54	0x3d242298	0.040072054
55	0x3d225ec8	0.03964117
56	0xbb8fdcc5	-0.0043903315
57	0xbc99df3f	-0.01878321
58	0x3a399249	0.0007078988
59	0x3c056b34	0.008143235
60	0xbafdeb15	-0.0019372428
61	0x3c25e55e	0.010125486
62	0x3ca46a1e	0.020070132
63	0x3c327d0c	0.010894071
64	0xbc39883f	-0.0113239875
65	0x3cabde46	0.020980012
66	0x3c95066f	0.018191544
67	0xbba47145	-0.0050183856
68	0xbc92e296	-0.01793031
69	0xbc891839	-0.016735183
70	0xba6199b6	-0.00086059736
71	0x00000004	6e-45
72	0x3c3ad83a	0.0114040915
73	0xbcaec442	-0.021333817
74	0xbb9177f8	-0.00443935
75	0x3c25ebe0	0.010127038
76	0xbc0cefb3	-0.008602071
77	0xbd6eb7f9	-0.05828092
78	0xbdc4e3ce	-0.09613763
79	0xbd969f5c	-0.07354614
80	0xbb236a91	-0.0024935345
81	0xb95f1b37	-0.00021277076
82	0x3bc700bd	0.006073086
83	0x3a7bafb2	0.0009601071
84	0x3af6914c	0.0018811612
85	0xbb30b2b2	-0.002696198
86	0x3cb14001	0.021636965
87	0x3caf818e	0.021424081
88	0xbc43fd06	-0.011962181
89	0xbca34831	-0.019931884
90	0x3c9f988e	0.019481923
91	0x3d083551	0.03325397
92	0xb901e48b	-0.00012387538
93	0xbbe4718d	-0.006971544
94	0x3d0aa1f6	0.033845864
95	0x3ced4b5c	0.028966598
96	0xbbfa4848	-0.007638011
97	0x3b6c1f16	0.003602927
98	0xbbfc0738	-0.00769129
99	0x3c7cf7a6	0.015439903
100	0xbae781c0	-0.001766257
101	0x3c077f11	0.008270041
102	0xbc8b88f7	-0.017033083
103	0x3c4ff0f1	0.012691722
104	0xbc599b54	-0.013281662
105	0x39fff33c	0.00048818614
106	0xbba4fa72	-0.005034738
107	0x3b0a5ff3	0.002111432
108	0xbc0943b0	-0.008377954
109	0x3b351a0e	0.0027633938
110	0x3c298932	0.010347651
111	0x3c32c1d1	0.010910467
112	0x3a6bd15d	0.0008995736
113	0x3d80607c	0.06268403
114	0x3ae58c0a	0.0017513048
115	0xbcf5ca21	-0.03000361
116	0x3c30bf69	0.010787823
117	0x3d0a5351	0.033770863
118	0x3d59d0bf	0.05317759
119	0x3cbf73c6	0.023370635
120	0xb9e35024	-0.00043356523
121	0xbcad9e48	-0.021193638
122	0xbcdbef4d	-0.026847506
123	0xbc4378cc	-0.011930656
124	0x3c3eecd7	0.011653147
125	0x3b34af2a	0.0027570226
126	0xbab720fa	-0.001397162
127	0xbb17e030	-0.0023174398
128	0x3a53e57e	0.0008083208
129	0x3ac47d65	0.0014990984
130	0x3be88a97	0.0070965993
131	0x3b656eac	0.0035008593
132	0x3c5c5514	0.013448019
133	0x3c425839	0.011861854
134	0xbc8db8c4	-0.017300017
135	0xbbaca377	-0.00526851
136	0xbb2633a0	-0.002536036
137	0x3abb89d2	0.0014308041
138	0xbadceb93	-0.0016854875
139	0x3bba74d8	0.0056901984
140	0xbc551b19	-0.013006949
141	0x3d13c31f	0.036074754
142	0xbced214e	-0.028946545
143	0xbcad15e0	-0.021128595
144	0xb8cbd04b	-9.718592e-05
145	0x3baa2ea9	0.0051935506
146	0xbc45848c	-0.012055527
147	0x3b672bb8	0.003527386
148	0x3be35980	0.0069381595
149	0xbc08fa6f	-0.008360489
150	0x3d88d730	0.06681669
151	0x3d23ccc2	0.039990194
152	0x3baaf4b2	0.0052171582
153	0x3d4264e8	0.047459513
154	0x3c637583	0.013882997
155	0xbc9c14de	-0.019052919
156	0x3bd24702	0.006417156
157	0x3d014738	0.03156206
158	0x3dba817b	0.09106728
159	0x3dacf5f1	0.08445347
160	0xbb73a7fd	-0.0037178986
161	0xbb1d3d4b	-0.0023992832
162	0x3bc8d988	0.0061294474
163	0x3b2e5e6b	0.002660657
164	0xbc4215f3	-0.011846053
165	0xbb7d7935	-0.0038676981
166	0x3c79c5fe	0.015244959
167	0x3d5efb92	0.054439135
168	0x388755af	6.4532614e-05
169	0x3d874dfa	0.0660667
170	0x3c2de568	0.010613777
171	0xbd1dc0e8	-0.038514048
172	0xbb14cca1	-0.0022704976
173	0x3c570c74	0.013125528
174	0x3cd218a7	0.02564652
175	0x3cb4cfd3	0.022071755
176	0x3bc35602	0.0059611807
177	0x3b2c59d5	0.0026298661
178	0x3a39a54a	0.000708182
179	0xbbc24424	-0.005928533
180	0xbaaf4773	-0.0013372734
181	0xbc248a02	-0.010042669
182	0xadfe2fef	-2.8897744e-11
183	0x3c53d590	0.012929335
184	0xbb838bf8	-0.0040144883
185	0xbb1410de	-0.0022593061
186	0xbca2fceb	-0.019895991
187	0x3b6b0faf	0.0035867502
188	0x3a84b962	0.0010126049
189	0x3c12ff30	0.008971974
190	0x3c81e32f	0.0158554
191	0x3b8dd0ba	0.0043278607
192	0xbb0e35b8	-0.00216995
193	0xbc0e8558	-0.008698784
194	0xbb743dcc	-0.003726828
195	0xbb34675a	-0.0027527423
196	0x3bee3fff	0.0072708125
197	0xbc7b0533	-0.015321064
198	0x3c000b20	0.007815152
199	0xbbf4f22e	-0.007475159
200	0x3bb06fe5	0.0053844326
201	0x3a27e699	0.0006404906
202	0xbb4fb4c1	-0.003169343
203	0x3c30e373	0.010796416
204	0xbb5b7d03	-0.003349126
205	0xbbc5d7f7	-0.006037708
206	0xbe061388	-0.13093388
207	0xbdaba3fc	-0.08380887
208	0xbc73a414	-0.014870662
209	0xbcf2f741	-0.029658915
210	0xbc0e8fd2	-0.008701282
211	0x3c197a4e	0.009367539
212	0xbc03917e	-0.0080302935
213	0xbcafbc41	-0.021452071
214	0xbc9b3338	-0.018945321
215	0xbcc5a63b	-0.024127116
216	0x3bac45dd	0.005257352
217	0x3c4f65c4	0.01265854
218	0x3a86517a	0.001024767
219	0xbc48c049	-0.012252876
220	0x3bb435e1	0.005499587
221	0xbc643dca	-0.013930747
222	0x31063847	1.9531556e-09
223	0x3c8099e1	0.015698375
224	0xb9b1d397	-0.00033917718
225	0xbcafb3be	-0.021448012
226	0xbc257469	-0.010098555
227	0xbb3c52f4	-0.0028735967
228	0xbb819658	-0.00395469
229	0x39e6cd9f	0.00044022218
230	0x00000004	6e-45
231	0x00000004	6e-45
232	0xbc672100	-0.014106989
233	0xbca7291a	-0.020405341
234	0xbcd3a230	-0.025834173
235	0xba4eaad1	-0.000788373
236	0x3c7d1b74	0.01544844
237	0x3d6b7126	0.057480954
238	0xbcb6dcf0	-0.022322148
239	0xbc236daf	-0.009974881
240	0xbab8d698	-0.001410204
241	0x3ad37a41	0.0016134457
242	0xbc6c2a62	-0.014414402
243	0x39dcd921	0.00042123444
244	0xb908477f	-0.00012996605
245	0xba2373b3	-0.0006235197
246	0x3c808dbd	0.015692586
247	0x00000004	6e-45
248	0x3b6088e5	0.0034261283
249	0x3a1a93fa	0.0005896684
250	0xbb3835c2	-0.0028108214
251	0x3a2b236a	0.00065284094
252	0x3ac8ba38	0.0015314287
253	0xbb0fc5c5	-0.0021937948
254	0x3b4b201a	0.0030994476
255	0xbc4d241c	-0.012520816

exp_avg_sq f4 [256, 8]
0	0x3a82bcd2	0.0009974486
1	0x3a78f3ee	0.00094967976
2	0x3a026c2a	0.0004975224
3	0x3a098a2f	0.0005246726
4	0x39a8ea39	0.00032217967
5	0x3a93c183	0.0011272881
6	0x3bab5c6f	0.005229525
7	0x3b8978c5	0.004195305
8	0x3c9b3fe1	0.018951358
9	0x3a56b081	0.0008189753
10	0x3c891f09	0.016738432
11	0x3bca76bb	0.0061787046
12	0x3c1f94b0	0.00974004
13	0x3d569e6e	0.052397184
14	0x3eb606ee	0.35552162
15	0x3eba9b59	0.36446646
16	0x3a2814ed	0.00064118096
17	0x3b862b5d	0.004094525
18	0x3a56818e	0.00081827573
19	0x3a6cca1b	0.00090328016
20	0x39b9cc30	0.0003543808
21	0x3af97c78	0.0019034287
22	0x3b6818c1	0.0035415145
23	0x3bc9431f	0.0061420347
24	0x3b69791d	0.0035625168
25	0x3b04e407	0.0020277516
26	0x3bebfcb3	0.007201755
27	0x3b4ebf2e	0.0031547057
28	0x3bddc8a8	0.006768305
29	0x3c432f0f	0.011913075
30	0x3d29c040	0.04144311
31	0x3d52661a	0.051366903
32	0x3be670de	0.007032498
33	0x3d3700dd	0.044678558
34	0x3c281c76	0.010260692
35	0x3d278e8d	0.04090743
36	0x3b8d3bd2	0.0043101097
37	0x3c35dd52	0.01110013
38	0x3c90af84	0.017661817
39	0x3c87a590	0.016558439
40	0x39e61f42	0.00043892307
41	0x38a3093f	7.774168e-05
42	0x3a7eabd4	0.00097149354
43	0x39a623b9	0.00031688603
44	0x39827ab9	0.00024886968
45	0x3a55bc48	0.0008153361
46	0x3a783644	0.00094685354
47	0x3ad0a1bc	0.0015917341
48	0x3ba63fd4	0.005073527
49	0x3d782302	0.06058026
50	0x3bc45c45	0.0059924447
51	0x3cea0ab2	0.028569553
52	0x3b0db6d0	0.0021623857
53	0x3b861873	0.00409227
54	0x3b7181d5	0.0036851068
55	0x3ba32d08	0.0049797334
56	0x3a8d3109	0.001077206
57	0x3bb72d1c	0.0055900943
58	0x3aec799f	0.0018041617
59	0x3b167560	0.0022958145
60	0x39ea834b	0.0004472978
61	0x3b2fcf7f	0.0026826558
62	0x3c559a3a	0.013037259
63	0x3c688504	0.01419187
64	0x3abbb972	0.0014322235
65	0x3b942886	0.0045214323
66	0x3ac286fb	0.0014841253
67	0x3bef06a3	0.0072944923
68	0x3ada2a20	0.0016644634
69	0x3b240bb0	0.002503138
70	0x3bccdf74	0.0062522236
71	0x31416fb3	2.814869e-09
72	0x3c52e824	0.012872729
73	0x3e02b572	0.12764528
74	0x3c8210e3	0.015877193
75	0x3d952ff3	0.07284536
76	0x3c1dd166	0.009632444
77	0x3ca23185	0.019799003
78	0x3d9d1497	0.07669943
79	0x3d6bd98f	0.057580527
80	0x39a934c9	0.0003227352
81	0x392e97d1	0.00016650489
82	0x3a1c2ea3	0.0005957877
83	0x3a01f882	0.000495799
84	0x39ba80de	0.00035572698
85	0x3a501507	0.00079377036
86	0x3be51a62	0.0069916705
87	0x3bbab3ab	0.0056976876
88	0x3afaed63	0.0019144233
89	0x3c1d9ec3	0.009620371
90	0x3b786700	0.003790319
91	0x3c7cd9fe	0.015432833
92	0x3a409eab	0.0007347862
93	0x3ba393b4	0.004991973
94	0x3c0d78b9	0.00863474
95	0x3c820ab8	0.015874252
96	0x3c0764dc	0.008263793
97	0x3c533b20	0.0128925145
98	0x3babd333	0.005243683
99	0x3c6503e5	0.013977979
100	0x3b395a83	0.002828271
101	0x3bec8cfd	0.0072189556
102	0x3bffaedb	0.007802827
103	0x3c54508b	0.012958656
104	0x3a97f81a	0.0011594326
105	0x3a48f309	0.00076656096
106	0x3a7bc2ca	0.0009603916
107	0x3b353cd5	0.0027654667
108	0x39e9476f	0.00044494445
109	0x3b4a1cca	0.0030839914
110	0x3ba2a736	0.0049637808
111	0x3ac6c58f	0.0015165078
112	0x3b88fee2	0.004180775
113	0x3d870002	0.06591798
114	0x3bdb0674	0.006684119
115	0x3d2eabd7	0.042644348
116	0x3b482f80	0.003054589
117	0x3c0519d6	0.008123836
118	0x3c42f6de	0.011899678
119	0x3bfda7f7	0.0077409702
120	0x3b95e9b3	0.0045749783
121	0x3d55db43	0.052211057
122	0x3bf73e46	0.0075452654
123	0x3cb7e688	0.022448793
124	0x3bdb217b	0.006687341
125	0x3c769962	0.015051218
126	0x3bffaa9d	0.007802321
127	0x3ba31725	0.0049771243
128	0x39f1fc2b	0.00046154982
129	0x38d35099	0.000100762765
130	0x3b302806	0.0026879325
131	0x3a7a82c6	0.000955623
132	0x3ad2f2ba	0.0016094067
133	0x3b7bcf0e	0.0038422975
134	0x3ba15f56	0.004924695
135	0x3bb4717e	0.0055066934
136	0x3bab5e78	0.0052297674
137	0x397c8524	0.00024082192
138	0x3be0b709	0.006857757
139	0x3b887c62	0.004165218
140	0x3b2405ef	0.002502795
141	0x3c680f42	0.014163794
142	0x3cc279c9	0.023739712
143	0x3bc869ba	0.006116119
144	0x3a6ae008	0.0008959775
145	0x3bc5f14f	0.006040729
146	0x3b002707	0.0019554512
147	0x3ab98516	0.0014154043
148	0x3a2ef695	0.0006674317
149	0x3b1e4195	0.0024147977
150	0x3cd0b925	0.025478909
151	0x3cbc1a66	0.022961807
152	0x3b7123d1	0.003679503
153	0x3cd5ab80	0.026082754
154	0x3b512eeb	0.0031918834
155	0x3bcf4ca0	0.006326273
156	0x3ae45f35	0.0017423393
157	0x3bae6a2f	0.0053227167
158	0x3d420754	0.04737027
159	0x3d29d920	0.041466832
160	0x3ade21f2	0.0016947372
161	0x3a09c8eb	0.00052560744
162	0x3ae827a7	0.0017712013
163	0x3ae1f66c	0.0017239577
164	0x3a7a91f4	0.0009558492
165	0x3b545533	0.0032399416
166	0x3bfc7ce9	0.00770532
167	0x3c507448	0.012723036
168	0x3a8e9ce5	0.0010880498
169	0x3c8af10b	0.016960641
170	0x3b275cf7	0.002553759
171	0x3bd5c43b	0.0065236366
172	0x3a6a200d	0.00089311675
173	0x3b09ea72	0.0021044281
174	0x3b9c2c9c	0.00476606
175	0x3c24d44b	0.01006038
176	0x3a84d93c	0.0010135542
177	0x39e2f924	0.00043291703
178	0x3b0da425	0.002161273
179	0x3ad60902	0.0016329589
180	0x3a9c7a61	0.0011938327
181	0x3b3bc4f3	0.0028651326
182	0x388a0bff	6.582587e-05
183	0x3b98166e	0.0046413457
184	0x39f6aaf7	0.00047048155
185	0x3b3ec93e	0.002911165
186	0x3ad1198f	0.0015953052
187	0x3b1295d4	0.0022367137
188	0x3aa303ef	0.0012437085
189	0x3ae015fc	0.0017096396
190	0x3ae89b8d	0.0017746553
191	0x3ad30d4b	0.0016101984
192	0x3a9c3905	0.0011918849
193	0x3c99ddfe	0.018782612
194	0x3b080a47	0.002075808
195	0x3bdd2099	0.0067482707
196	0x3a8efc74	0.0010908977
197	0x3b01212d	0.0019703612
198	0x3b6b178a	0.0035872185
199	0x3b9797b1	0.0046262373
200	0x3b8a04b1	0.004211985
201	0x398dc047	0.00027036874
202	0x3b073b1b	0.0020634595
203	0x3ab1a60c	0.0013553514
204	0x3af3f417	0.0018612173
205	0x3beec46d	0.0072865994
206	0x3e0228ca	0.12710872
207	0x3ddea95a	0.10872145
208	0x3b6d391b	0.0036197368
209	0x3d88b387	0.06674867
210	0x3bd72b57	0.006566446
211	0x3cc2fa25	0.023800919
212	0x3b7c748c	0.0038521616
213	0x3b9d9eff	0.0048102136
214	0x3aaff757	0.0013425153
215	0x3c80a11e	0.015701827
216	0x3b1f924b	0.0024348672
217	0x3b68440b	0.0035440947
218	0x3ab9ba12	0.0014169833
219	0x3ba9dbfb	0.0051836944
220	0x3a2738d8	0.0006379015
221	0x3b444b0a	0.0029951953
222	0x37f06c33	2.8660614e-05
223	0x3ba9afdc	0.005178435
224	0x39aa452a	0.00032476458
225	0x3c249946	0.010046309
226	0x3acdbcf9	0.0015696577
227	0x3b878f44	0.0041369516
228	0x3ad399da	0.0016143874
229	0x3a1a79eb	0.0005892801
230	0x000001f4	7e-43
231	0x000001f4	7e-43
232	0x3c1331e4	0.008984063
233	0x3b49ed44	0.0030811587
234	0x3bb36c5d	0.0054755644
235	0x3a9a8d13	0.0011791311
236	0x3c818836	0.01581202
237	0x3ca44ab8	0.02005516
238	0x3d548170	0.051881254
239	0x3db14324	0.08655384
240	0x39f95a73	0.0004756037
241	0x3a389c01	0.00070422894
242	0x3a24431d	0.0006266104
243	0x3993523b	0.0002809929
244	0x38e3c995	0.00010861751
245	0x39d67ed1	0.00040911746
246	0x3a7ab0db	0.00095630967
247	0x35982455	1.1335457e-06
248	0x3a08a48f	0.00052125094
249	0x3ac2ad3f	0.0014852657
250	0x3a1484af	0.00056655233
251	0x3a80225e	0.0009775867
252	0x39caf5ef	0.00038711677
253	0x3afdcb5f	0.0019362977
254	0x3c32f135	0.010921766
255	0x3c4d3f58	0.012527309
