results/standard/models/checkpoint_ep800.pth (torch, 436170 bytes, 18 tensors)

fc1.weight f4 [256, 8]
0	0xbf6b067e	-0.9180678
1	0x3e4e4fd6	0.20147642
2	0x3f31d6ed	0.69468576
3	0x3da6b73e	0.081404194
4	0xbe868d92	-0.26279885
5	0x3ea58393	0.32326946
6	0x3f37a8e3	0.71742076
7	0xbf174935	-0.5909608
8	0x3d98a1e2	0.07452752
9	0xbe803f4b	-0.2504829
10	0x3ea98104	0.33106244
11	0x3f8215ce	1.0162904
12	0x3fac9e1e	1.3485754
13	0xbddfeacf	-0.10933458
14	0x3e8bf2ee	0.27333778
15	0x3f09b801	0.5379639
16	0x3f0e8e73	0.5568611
17	0x3e50cbe6	0.20390281
18	0xbe56f965	-0.20993574
19	0xbd06f9be	-0.032953016
20	0xbf152339	-0.5825687
21	0x3f4a2a51	0.7897082
22	0xbf42d2ef	-0.7610311
23	0x3f40b53c	0.7527654
24	0xbd110173	-0.035401773
25	0x3e1603e7	0.14649926
26	0x3f0dba48	0.5536237
27	0x3e4f75dd	0.20259805
28	0x3fd9298f	1.6965808
29	0xbf33258a	-0.69979155
30	0xbdfb05ea	-0.122569874
31	0x3f0f259e	0.55916774
32	0x3fccdf8c	1.6005721
33	0xbda7a4ff	-0.081857674
34	0xbd503975	-0.050836045
35	0xbe4af7ca	-0.19821087
36	0xbef90012	-0.48632866
37	0x3d289622	0.041158803
38	0x3e5d3b36	0.21604618
39	0xbbb1f7b5	-0.0054311403
40	0x3ed73fc0	0.42040825
41	0xbeb74b83	-0.35799798
42	0xbfc52d12	-1.5404379
43	0x3eb2852b	0.34867224
44	0x3ec47c11	0.38375905
45	0x3ee419f5	0.44551054
46	0x3dcdb3d2	0.10044064
47	0x3e8d18e0	0.2755804
48	0xbe3ac1f2	-0.18238047
49	0xbdc1a86b	-0.09455951
50	0x3ef96926	0.48713034
51	0x3e367aee	0.17820331
52	0xbf29e524	-0.66365266
53	0xbd3ab1e7	-0.045579817
54	0xbb9340a1	-0.0044937884
55	0x3f03dd9a	0.5151001
56	0x3f42f5e5	0.76156455
57	0x3e90a59e	0.28251356
58	0xbe585e36	-0.21129689
59	0x3df7a755	0.12092463
60	0x3f980767	1.1877259
61	0x3d926bc7	0.07149463
62	0xbd8b04d1	-0.06788028
63	0x3eb40dee	0.35166878
64	0xbf9de095	-1.2334162
65	0xbe60bec6	-0.21947774
66	0x3f429ca1	0.76020247
67	0xbf0bc25d	-0.5459345
68	0x3f21bf49	0.63182503
69	0x3ea2c6a1	0.31792167
70	0x3e4ca120	0.1998334
71	0xbfbe9b31	-1.4891111
72	0x3c9b0c13	0.018926656
73	0xbd5f6a0c	-0.054544494
74	0x3e775230	0.24152446
75	0xbfff75cb	-1.9957823
76	0xbd88c7f3	-0.06678762
77	0xbd761373	-0.060077142
78	0x3e389e7c	0.18029207
79	0xbd0e6487	-0.03476384
80	0xbf3b5534	-0.73176885
81	0xbe88c76b	-0.26714644
82	0xbd2a1b35	-0.041529853
83	0xbf850c5c	-1.0394397
84	0xbe50437b	-0.20338242
85	0xbef26d8c	-0.47349203
86	0x3f8ed29c	1.1158023
87	0xbf0e22e6	-0.55522
88	0x3f193c42	0.5985757
89	0x3e0b5d9e	0.13609931
90	0x3dfde298	0.12396735
91	0xbec74eda	-0.38927346
92	0x3fa4605d	1.2841908
93	0xbd1cb05a	-0.03825412
94	0xbddc2adc	-0.10750362
95	0x3f0f3825	0.55945045
96	0xbf427e3f	-0.75973886
97	0x3dd9f716	0.10642831
98	0x3efcfcce	0.49411625
99	0xbeb84a57	-0.35994217
100	0xc00021f9	-2.0020735
101	0xbe750711	-0.23928477
102	0xbef062b4	-0.46950305
103	0xbe227c3b	-0.15867703
104	0xbec30ca2	-0.38095576
105	0xbf66bbbe	-0.9013022
106	0x3e81ba04	0.2533723
107	0xbf342bfe	-0.70379627
108	0xbff1e66a	-1.8898442
109	0x3f6b0542	0.918049
110	0xbe0dbeb2	-0.13842276
111	0xbf60e158	-0.8784385
112	0x3fc71011	1.5551778
113	0xbe3b6e22	-0.18303731
114	0x3ecbb36a	0.3978532
115	0xbe91a9fd	-0.28450003
116	0xbee87c10	-0.45407152
117	0x3e21a3a6	0.15785083
118	0xbbdfcc3e	-0.0068297675
119	0x3f476279	0.7788463
120	0xbd5b31d2	-0.05351431
121	0x3fc59868	1.5437136
122	0x3e9f6757	0.3113353
123	0xbeb494e2	-0.3526984
124	0x3f4a2402	0.78961194
125	0x3f88519a	1.0649903
126	0xbe785e3b	-0.24254696
127	0xbf0a8f67	-0.54125065
128	0xbc7d22ed	-0.0154502215
129	0xbfafb901	-1.3728334
130	0xbf87bc82	-1.0604403
131	0xbf816620	-1.0109291
132	0xbec4d87b	-0.38446411
133	0x3d8e1b8d	0.06938849
134	0x3decad39	0.11556477
135	0x3f2ac85b	0.6671197
136	0x3f5b7127	0.8571953
137	0xbf7bd436	-0.98370683
138	0x3f279595	0.6546262
139	0x3edf4cc5	0.43613258
140	0xbfa84c00	-1.3148193
141	0xbf7649ef	-0.96206564
142	0x3e09a456	0.13441595
143	0xbf01a12e	-0.50636566
144	0xbc3b2f99	-0.011424922
145	0x3eb56ca0	0.35434437
146	0x3e9aa527	0.30204126
147	0x3e314743	0.1731234
148	0xbfa8dada	-1.3191788
149	0xbfa7437b	-1.3067468
150	0x3ec8b0c1	0.39197353
151	0x3ee90031	0.4550796
152	0x3dcfe12f	0.10150372
153	0x3ea98e71	0.33116487
154	0x3ea653fb	0.32485947
155	0x3f4dd48f	0.80402464
156	0xbf9dae60	-1.231884
157	0x3fc656ab	1.5495199
158	0x3f6ee932	0.9332458
159	0xbea06ad4	-0.31331503
160	0x3d946a29	0.07246811
161	0xbfd6c955	-1.6780192
162	0x3e92e14a	0.28687507
163	0xbf99fdfc	-1.2030635
164	0xbf40e566	-0.75350034
165	0x3f2a2b28	0.664721
166	0xbeb65602	-0.35612494
167	0x3f41e736	0.75743425
168	0x3e362f1c	0.17791408
169	0xbdc785b2	-0.09742297
170	0x3f5a85ac	0.8536022
171	0xbdc1a731	-0.09455717
172	0xbf3ab0bf	-0.72925943
173	0x3f51161a	0.8167435
174	0x3d017085	0.031601448
175	0x3f804513	1.002108
176	0x3deeaf36	0.116545126
177	0xbfaac47c	-1.3341212
178	0x3f009caf	0.5023908
179	0xbe8b453c	-0.2720126
180	0x3faa4b99	1.330432
181	0xbfc4cb46	-1.5374534
182	0xbfb1678b	-1.3859724
183	0x3e4b4ec6	0.19854268
184	0x3f00d0c9	0.5031858
185	0xbf1aa728	-0.6041131
186	0xbf37d67b	-0.71811646
187	0xbf7f3cb5	-0.99702007
188	0x3f891bb4	1.0711579
189	0x3f9aa216	1.2080715
190	0x3e8d0614	0.275437
191	0xbea432e8	-0.32070088
192	0xbeaa638a	-0.33279067
193	0x3d85f20f	0.0654031
194	0xbf00c4e3	-0.50300425
195	0xbf4ea147	-0.8071484
196	0x3f8a6443	1.0811847
197	0x3ee7299b	0.4514893
198	0xbe3daf32	-0.18523863
199	0x3ead6c17	0.33871529
200	0xbf615af9	-0.8802944
201	0xbf33d959	-0.7025352
202	0x3ef0c470	0.4702487
203	0x3fe2a229	1.7705737
204	0xbc5aa392	-0.013344662
205	0x3e244410	0.16041589
206	0x3f122a7d	0.5709608
207	0xbf689006	-0.9084476
208	0x3d1040ff	0.035218235
209	0x3e0bd517	0.13655506
210	0xbeb2ee34	-0.3494736
211	0xbefba3e3	-0.49148473
212	0x400ada21	2.1695635
213	0x3e8ed6db	0.27898297
214	0xbf9d67c6	-1.2297294
215	0x3e34d2e5	0.17658575
216	0x3eb32125	0.34986225
217	0xbf8b53ee	-1.0884988
218	0x3f0f0309	0.55864006
219	0xbe3d6eea	-0.18499342
220	0xbf73e8a8	-0.9527688
221	0xbe972bad	-0.2952551
222	0xbfc38918	-1.5276213
223	0x3ed42cb6	0.41440362
224	0xbe032dfb	-0.12810509
225	0x3f186db6	0.59542406
226	0xbc1d467a	-0.009599322
227	0xbf5ac11e	-0.85450923
228	0x3d79aa6b	0.06095354
229	0xbe93e454	-0.28885138
230	0xbf07722b	-0.5290858
231	0xbf6d8889	-0.9278646
232	0x3cbf9dac	0.023390613
233	0x3ea42133	0.3205658
234	0x3f1b11f2	0.6057426
235	0x400cfb2c	2.2028303
236	0x3fb147ee	1.3850076
237	0x3b9d37a1	0.0047978912
238	0xbeed90c7	-0.4639952
239	0x3e4d4b99	0.2004837
240	0x3c4747ce	0.012163116
241	0x3ec5c8b8	0.386297
242	0x3e8c5613	0.2740942
243	0x3ec2ee76	0.38072556
244	0xbf058454	-0.5215504
245	0xbf8de417	-1.1085232
246	0x3e948f02	0.29015356
247	0xbfed8d04	-1.855866
248	0xbf993a01	-1.1970826
249	0x3f00903d	0.5022009
250	0xbe9fb05c	-0.3118924
251	0x3e4284e6	0.18996009
252	0xbfdc2493	-1.7198662
253	0xbe5eaed9	-0.21746387
254	0xbe810412	-0.25198418
255	0x3f877152	1.0581458

fc1.bias f4 [256]
0	0xbe3464ac	-0.17616528
1	0xbcf60250	-0.0300304
2	0xbe87edb7	-0.2654855
3	0xbe5651c3	-0.20929627
4	0xbe23267a	-0.15932646
5	0xbe4e3e30	-0.2014091
6	0x3e51a7ba	0.20474139
7	0xbc5c5276	-0.013447395
8	0xbe3b4dfe	-0.1829147
9	0x3a4bea5e	0.0007778759
10	0xbf09c15c	-0.5381067
11	0xbe19f2bc	-0.15034002
12	0xbefc8809	-0.49322537
13	0x3d415cc8	0.047207624
14	0xbc8dd55b	-0.01731365
15	0xbe918b30	-0.28426504
16	0xbf23db5c	-0.6400659
17	0xbdffae0d	-0.124843694
18	0xbe90d7b8	-0.2828958
19	0x3ea33525	0.31876484
20	0xbeb67c55	-0.35641733
21	0xbe675c81	-0.22593881
22	0x3b4620bc	0.0030231914
23	0xbf08891a	-0.533342
24	0x3e9395f5	0.28825346
25	0x3ef4a64f	0.47783133
26	0x3d27fcbc	0.04101251
27	0x3e263cf5	0.16234191
28	0xbe853629	-0.26017883
29	0xbd1ec051	-0.038757626
30	0xbda5cc0c	-0.080955595
31	0xbf322f29	-0.6960321
32	0xbe52439f	-0.20533608
33	0xbe6db98f	-0.23215316
34	0x3e68cec6	0.22735128
35	0xbed4acdb	-0.41538128
36	0xbe8535a1	-0.26017478
37	0xbeec6a62	-0.46174914
38	0x3cc098f3	0.023510432
39	0xbe2b14b7	-0.16707121
40	0xbb5be2fe	-0.0033552046
41	0xbe7a8888	-0.24466145
42	0xbe7a7acb	-0.24460904
43	0x3ca9719f	0.020684062
44	0xbd9bbf27	-0.07604819
45	0x3e63c634	0.22243577
46	0xbce9ad6c	-0.028525077
47	0xbe85dab1	-0.2614341
48	0xbc7a7caf	-0.015288516
49	0xba60be02	-0.0008573235
50	0xbe3dac22	-0.18522695
51	0x3f0817e1	0.53161436
52	0x3d1c742a	0.03819672
53	0xbe2b0e4e	-0.16704676
54	0xbe5fd3cb	-0.21858136
55	0x3e780646	0.24221143
56	0xbe2d40a2	-0.16919187
57	0xbd8979cf	-0.06712686
58	0xbe803d43	-0.2504674
59	0x3db1eecf	0.08688127
60	0xbe95ed6a	-0.29282695
61	0xbc358cea	-0.01108096
62	0xbd988409	-0.07447059
63	0xbe5267f8	-0.20547473
64	0x38b01ac3	8.397319e-05
65	0xbbd8989f	-0.0066099907
66	0x3edeb7aa	0.434995
67	0x3c56bdaf	0.0131067475
68	0xbe21634d	-0.15760536
69	0x3dad14d0	0.08451235
70	0xbe3b1d45	-0.18272884
71	0xbf15ebd0	-0.58562946
72	0xbdc309de	-0.095233664
73	0xbe13c902	-0.14432147
74	0xbb6d1ecd	-0.0036181689
75	0xbd9338e8	-0.071885884
76	0xbdf81080	-0.12112522
77	0xbedc6ea3	-0.4305316
78	0xbeaff469	-0.34366158
79	0xbc8d4517	-0.017244859
80	0xbe34a25f	-0.17640065
81	0x3d189791	0.03725392
82	0xbe309c80	-0.172472
83	0x3ddd592b	0.10808023
84	0x3f031435	0.5120271
85	0xbed42b17	-0.41439125
86	0x3e43bb00	0.19114304
87	0x3ba33839	0.0049810675
88	0xbe2db1d8	-0.16962373
89	0x3e11928e	0.14216062
90	0xbee7ec9a	-0.452977
91	0xbd8b450b	-0.06800278
92	0xbdc6f9e0	-0.097156286
93	0x3ec408af	0.38287875
94	0xbe2937a1	-0.16525127
95	0x3c55e78c	0.013055693
96	0xbe43256d	-0.19057246
97	0x3cc91e72	0.02455065
98	0xbdb1acc5	-0.08675531
99	0xbd9dab2d	-0.07698665
100	0xbf0bae95	-0.54563266
101	0x3e8982bf	0.26857564
102	0xbd0c92b8	-0.03431961
103	0xbdd7de25	-0.105404176
104	0xbe20c477	-0.15699945
105	0xbef33536	-0.47501534
106	0x3e1c3586	0.15254793
107	0xbdb065b0	-0.08613145
108	0xbf63cb2c	-0.8898189
109	0x3ef53b13	0.47896633
110	0xbdcdae98	-0.10043067
111	0x3d02ae93	0.03190477
112	0x3c11c2da	0.008896554
113	0x3e0327e6	0.12808189
114	0x3e21ecb3	0.1581295
115	0xbe58b0d8	-0.2116121
116	0xbe2a6d4b	-0.16643254
117	0x3e724d75	0.2366236
118	0x3e621b30	0.22080684
119	0xbf0736ce	-0.52818
120	0x3f0424d0	0.5161867
121	0xbdab9a8b	-0.08379086
122	0x3d397b67	0.0452837
123	0xbd9a961a	-0.07548161
124	0x3e3fbe79	0.18725003
125	0x3e1fefef	0.15618871
126	0x3efd1fed	0.4943842
127	0x3e438c97	0.190966
128	0xbeebb743	-0.46038255
129	0xbd992a1b	-0.07478734
130	0xbdc95f4d	-0.0983263
131	0xbd2de052	-0.042450257
132	0xbe4e03ca	-0.20118633
133	0x3f010756	0.5040182
134	0xbe589d89	-0.21153845
135	0xbeff0944	-0.49811757
136	0x3e5c4c0c	0.21513385
137	0xbe1090a6	-0.14117679
138	0x3e727ec4	0.2368117
139	0xbe9564df	-0.2917852
140	0x3e24770b	0.16061036
141	0x3e70358c	0.23457927
142	0x3dfd18fe	0.123582825
143	0xbe3141b9	-0.17310227
144	0x3edce0da	0.43140298
145	0xbe27c220	-0.16382647
146	0x3ef64335	0.4809815
147	0x3ec171c2	0.37782103
148	0xbe45b978	-0.19309032
149	0x3f08bce1	0.53413206
150	0xbd152dd7	-0.03642067
151	0x3e18d74f	0.14925884
152	0x3dca0f3d	0.09866188
153	0xbd919ca9	-0.07109959
154	0xbe35056d	-0.17677851
155	0x3f2955b7	0.66146415
156	0x3e2b63a5	0.1673723
157	0xbe31ef6a	-0.17376485
158	0xbeafd5cd	-0.34342805
159	0xbe90d76e	-0.2828936
160	0x3e8af1ee	0.27137703
161	0x3ec9d09e	0.39416975
162	0x3ed9cfe0	0.4254141
163	0x3ecf7f04	0.40526593
164	0xbef867eb	-0.48516783
165	0x3de61c39	0.11235852
166	0xbeee8964	-0.46589196
167	0x3eb47dda	0.35252267
168	0xbd85da16	-0.06535737
169	0xbf279202	-0.65457165
170	0x3e67d609	0.22640242
171	0xbf17a3b8	-0.5923419
172	0xbe299724	-0.16561562
173	0xbe5fbdf7	-0.2184981
174	0xbeb81f4e	-0.35961384
175	0x3ecdfde6	0.40232772
176	0x3da8419f	0.08215641
177	0xbe304f28	-0.17217696
178	0x3d80ce0e	0.06289302
179	0x3e5e6afd	0.217205
180	0x3d331bce	0.04372769
181	0xbe82b31a	-0.2552727
182	0xbe8e8806	-0.27838153
183	0x3ded9580	0.116007805
184	0x3e3209e1	0.17386581
185	0xbdf9c55c	-0.121958464
186	0x3db1882f	0.08668553
187	0x3ec50f06	0.38488024
188	0xbe5afe67	-0.2138611
189	0xbef5dfb5	-0.48022237
190	0xbbbd21fe	-0.0057718745
191	0x3eeb58e3	0.45966253
192	0x3ad73455	0.0016418794
193	0xbd762560	-0.060094237
194	0xbd3c493d	-0.045968283
195	0xbea0a570	-0.3137622
196	0xbee1e925	-0.44123188
197	0xbe3f9b55	-0.18711598
198	0xbe13056f	-0.14357542
199	0x3e8c5ad8	0.27413058
200	0x3e13fde9	0.14452328
201	0x3c4ee177	0.012626997
202	0x3e1199e8	0.14218867
203	0x3ddb7d4e	0.10717259
204	0x3e0bb9d8	0.13645113
205	0x3dc0f539	0.094217725
206	0xbe930dca	-0.28721458
207	0xbefa3ad4	-0.48873007
208	0xbba76292	-0.005108186
209	0xbea7aee4	-0.32750618
210	0x3e8fbe6c	0.28074968
211	0xbec77014	-0.38952696
212	0xbd1d3f98	-0.038390726
213	0x3f173bb1	0.59075457
214	0xbda74cb8	-0.0816893
215	0xbc4aca94	-0.0123774
216	0x3d199406	0.03749468
217	0x3d592147	0.05301025
218	0x3f12fc37	0.574161
219	0x3e95a28d	0.2922558
220	0xbf0c81e8	-0.5488572
221	0x3e86392a	0.26215488
222	0xbe9949c8	-0.29939103
223	0x3d8cfe7d	0.06884477
224	0x3e578a14	0.21048766
225	0xbf3ca833	-0.7369415
226	0xbd8eefdf	-0.069793455
227	0xbd936ec9	-0.07198865
228	0xbe6fa743	-0.23403649
229	0xba181bd4	-0.00058024866
230	0x3e12a34c	0.14320105
231	0xbdcba6c8	-0.099439204
232	0x3e12a1ee	0.14319584
233	0xbe4db944	-0.20090204
234	0xbd28977d	-0.041160095
235	0xbb9a5188	-0.0047094263
236	0xbd67b902	-0.05657292
237	0xbe8bf01a	-0.2733162
238	0x3e9470a0	0.28992176
239	0x3e67024d	0.22559471
240	0x3f1bfe1c	0.60934615
241	0xbe8d3e88	-0.2758677
242	0xbea32c56	-0.31869763
243	0xbf043ae7	-0.5165238
244	0xbc975372	-0.018472407
245	0xbc2516e2	-0.0100762565
246	0x3ea34622	0.31889445
247	0xbf0ebbb7	-0.5575518
248	0xbe0bfa26	-0.13669643
249	0xbc3281bb	-0.010895188
250	0xbe841927	-0.2580044
251	0x3b91e394	0.0044521783
252	0x3de65dba	0.11248346
253	0x3eebe99c	0.46076667
254	0x3e7e6cbe	0.2484617
255	0x3d6caffb	0.057785016

fc2.weight f4 [128, 256]
0	0xbea8e53f	-0.329874
1	0xbe27b330	-0.16376948
2	0x3d64400a	0.055725135
3	0xbe479ccc	-0.19493407
4	0x3c2a0f36	0.010379603
5	0x3f1dc504	0.61628747
6	0x3d4759c3	0.048669588
7	0x3f1ca2f7	0.61186165
8	0x3e042d29	0.12907852
9	0x3e4ce76d	0.20010157
10	0xbd543b37	-0.051814284
11	0x3ef92be2	0.48666292
12	0x3f1afb55	0.6053975
13	0x3e93fb79	0.28902796
14	0x3e4b976b	0.1988198
15	0x3c457120	0.012050897
16	0x3f8e7ac5	1.1131216
17	0x3e72fbf0	0.23728919
18	0x3dfb1fe5	0.12261943
19	0x3ced74cb	0.028986355
20	0x3e301ca8	0.17198431
21	0x3e4e04c5	0.20119007
22	0x3ec2a7ba	0.3801859
23	0x3f39fa0e	0.7264718
24	0x3eb6ad9d	0.3567933
25	0xbdc18b0a	-0.09450348
26	0x3c885ae6	0.016644906
27	0x3c575d3c	0.013144787
28	0xbe69a8fd	-0.2281837
29	0xbe2bbf3b	-0.16772167
30	0xbea48328	-0.32131314
31	0xbe837a96	-0.25679463
32	0x3f1b7dac	0.60738635
33	0xbf02fa29	-0.51162964
34	0xbe293fd2	-0.16528252
35	0x3f00d5ca	0.50326216
36	0xbe97095f	-0.29499337
37	0xbdf498aa	-0.11943181
38	0x3e5ffd0c	0.21873873
39	0x3de026e4	0.10944918
40	0x3ec42ba1	0.38314536
41	0x3ee1319c	0.4398316
42	0x3f182787	0.59435314
43	0xbbe1520d	-0.0068762363
44	0xbeb81f1c	-0.35961235
45	0xbea5b177	-0.32361957
46	0x3e9834b9	0.29727724
47	0xbe161360	-0.14655828
48	0xbe8dfdef	-0.27732798
49	0xbeef06ec	-0.46684968
50	0xbe5d467d	-0.2160892
51	0xbe9a4802	-0.30133063
52	0xbdffed8e	-0.12496482
53	0x3d933a78	0.071888864
54	0x3e8617e0	0.2619009
55	0xbebaad97	-0.36460564
56	0x3e481bc1	0.19541837
57	0xbef1ee5c	-0.47252166
58	0xbedf1bfd	-0.4357604
59	0xbeea97a1	-0.4581881
60	0xbc114ebd	-0.00886887
61	0xbe24c186	-0.16089448
62	0xbed9910e	-0.4249348
63	0xbe0eebe5	-0.13957174
64	0x3dc1f13a	0.094698384
65	0xbdc1c5f5	-0.094615854
66	0x3e978638	0.29594588
67	0xbc7be083	-0.015373352
68	0xbf786fee	-0.9704579
69	0x3f23a71a	0.6392685
70	0xbf8c7c96	-1.0975521
71	0xbe007f3a	-0.12548533
72	0x3e99b941	0.3002415
73	0xbe152dbf	-0.14568232
74	0xbe2a8b9e	-0.16654822
75	0x3d8d5742	0.06901409
76	0x3caf5d54	0.021406807
77	0x3db7f4b2	0.08982219
78	0x3ec4249b	0.38309178
79	0xbf83b843	-1.0290607
80	0xbe869659	-0.2628658
81	0x3e83ac95	0.25717607
82	0xbea63a50	-0.32466364
83	0x3cdd4ab0	0.027013153
84	0xbd251a6d	-0.040308405
85	0x3e91784e	0.28412098
86	0xbdeb9582	-0.11503126
87	0xbe4cead8	-0.20011461
88	0xbd05aed3	-0.03263743
89	0xbbd6903d	-0.0065479563
90	0x3e85e647	0.2615225
91	0xbda68042	-0.08129932
92	0xbfeba52d	-1.8409783
93	0xbe249c81	-0.16075327
94	0x3f5e88a5	0.86927253
95	0xbfa809c6	-1.3127983
96	0xbdd3f6ee	-0.103498325
97	0xbfdc02b3	-1.7188324
98	0x3f4feb57	0.81218475
99	0xbe79ea76	-0.24405846
100	0xbd816512	-0.06318106
101	0x3ecd9e8c	0.40160024
102	0xbf408dd6	-0.75216424
103	0x3ca5cbde	0.020238813
104	0xbe6e27a3	-0.23257308
105	0xbe4c856e	-0.19972774
106	0xbe40c195	-0.18823846
107	0xbd87cf6a	-0.06631358
108	0xbe4eb913	-0.20187788
109	0x3eeee40f	0.4665837
110	0x3d901132	0.0703453
111	0xbf888037	-1.0664128
112	0xbe85c1f2	-0.2612453
113	0x3e85f041	0.26159862
114	0xbe1d2310	-0.15345407
115	0x3edefd22	0.435525
116	0x3e3408a1	0.17581417
117	0xbe49d4be	-0.19710061
118	0x3e527293	0.20551519
119	0x3dd1b3b3	0.10239353
120	0xbcf221ff	-0.029557226
121	0x3edcda07	0.43135092
122	0x3f0877e0	0.53307915
123	0x3f55b540	0.8347969
124	0x3f2b5e56	0.6694082
125	0x3e9da675	0.3079106
126	0xbf1efe1e	-0.621065
127	0x3e3f1c7a	0.18663207
128	0x3ddd77b1	0.10813845
129	0x3cbd0a55	0.023076216
130	0xbf500e9c	-0.8127229
131	0x3fb2802f	1.3945369
132	0x3de2c242	0.11072208
133	0xbf2e897c	-0.68178535
134	0x3f1b8597	0.60750717
135	0xbe202c5c	-0.15641922
136	0x3e6ba1b1	0.23010899
137	0x3f33cabf	0.7023124
138	0x3cb2b792	0.021816049
139	0xbe19f178	-0.1503352
140	0x3e828b50	0.25496912
141	0x3cddc6e7	0.027072383
142	0xbcf732de	-0.030175623
143	0x3e9b1a07	0.30293295
144	0xbdc75af5	-0.097341456
145	0x3e5e16fd	0.21688457
146	0x3e281072	0.16412523
147	0xbde010a8	-0.10940677
148	0x3d915855	0.07096926
149	0x3f3f6746	0.7476696
150	0x3f2aecd3	0.66767615
151	0xbe9d0dc2	-0.3067456
152	0xbee24b46	-0.44198054
153	0xbe568692	-0.20949772
154	0x3e569de7	0.20958672
155	0x3e55546a	0.20832983
156	0x3eb52cd5	0.35385767
157	0x3e2d0fac	0.1690051
158	0x3eab2259	0.33424643
159	0x3daed9bc	0.08537623
160	0x3eeb1157	0.45911667
161	0xbe8db891	-0.27679875
162	0xbf4ff124	-0.81227326
163	0x3e0dc8da	0.1384615
164	0x3eca8449	0.3955405
165	0x3e75d4e2	0.2400699
166	0x3ebf5d53	0.37375888
167	0xbfceedef	-1.6166362
168	0x3d91bf1c	0.07116529
169	0x3e8f02f8	0.27931952
170	0xbe36b76d	-0.17843409
171	0x3f102359	0.56303936
172	0xbd8bca98	-0.06825751
173	0x3eec4a2a	0.46150333
174	0xbe56f564	-0.20992047
175	0x3c243866	0.010023212
176	0x3e841338	0.25795913
177	0xbe863b4b	-0.26217112
178	0x3de423d8	0.11139649
179	0x3ea62470	0.32449675
180	0xbe8fceec	-0.28087556
181	0xbee8aefe	-0.45446008
182	0x3bd70cee	0.0065628206
183	0xbeea2ba6	-0.45736426
184	0x3e4e71cd	0.20160599
185	0xbe207a54	-0.15671664
186	0xbf0e10f2	-0.55494606
187	0xba1d8074	-0.0006008216
188	0xbe0ad9d9	-0.13559665
189	0x3bb200e8	0.005432237
190	0xbb0e865d	-0.0021747567
191	0xbe269803	-0.16268925
192	0x3f40ca9a	0.75309145
193	0x3e49be18	0.19701421
194	0xbe0f38ae	-0.13986465
195	0xbf0e5e0e	-0.55612266
196	0x3ed7bd5d	0.4213666
197	0x3e8ecaba	0.27889043
198	0xbec16a8f	-0.3777661
199	0x3ecac526	0.39603537
200	0x3ebf79e0	0.3739767
201	0x3f461061	0.7736874
202	0xbd9937a7	-0.07481318
203	0x3d140137	0.03613397
204	0x3ea788ef	0.3272166
205	0xbf3f4ffd	-0.7473143
206	0x3f0fcb0b	0.56169194
207	0x3f10e79f	0.56603426
208	0xbdc0ce2d	-0.09414325
209	0x3c2b5c92	0.010459082
210	0xbe138f0b	-0.14410035
211	0x3ef41d14	0.47678435
212	0xbd0a198f	-0.03371578
213	0x3e66bb48	0.2253238
214	0xbf69579e	-0.9114932
215	0x3c549f81	0.012977482
216	0xbd6ac112	-0.057313032
217	0x3f15d34a	0.58525527
218	0x3e641e26	0.22277126
219	0x3ea42519	0.32059553
220	0xbd09cd9a	-0.033643343
221	0x3e4d7422	0.20063832
222	0xbf3880c4	-0.7207148
223	0x3ed76932	0.42072445
224	0x3e8b66b1	0.27226785
225	0x3efc4d8c	0.49277914
226	0x3f63023c	0.88675284
227	0x3e2036c6	0.15645894
228	0x3e32afb1	0.17449833
229	0x3d76da00	0.060266495
230	0xbed366a9	-0.4128926
231	0xbd86ee73	-0.06588449
232	0xbe7262b9	-0.23670472
233	0x3e4ce1ed	0.20008059
234	0x3e373607	0.17891704
235	0x3e212d34	0.157399
236	0x3e9ceaef	0.3064799
237	0xbdd6f29e	-0.10495494
238	0x3ec6a2e9	0.38796166
239	0x3e6c43f5	0.23072799
240	0xbeaf5fef	-0.3425288
241	0x3da0a668	0.078442395
242	0x3ee5da2f	0.44893023
243	0x3eaff8ab	0.34369406
244	0xbdefa54f	-0.11701452
245	0x3ec47f86	0.38378543
246	0xbda85923	-0.082201265
247	0xbfadfadc	-1.3592181
248	0x3e6f4134	0.23364717
249	0x3e877b0e	0.2646107
250	0x3e38cd42	0.1804705
251	0x3dbcacba	0.092126325
252	0x3e812d77	0.2523
253	0xbe06602f	-0.13122629
254	0xbdd86be2	-0.10567452
255	0xbddd1476	-0.10794918

fc2.bias f4 [128]
0	0xbd5d1ad7	-0.053980675
1	0xbf36f535	-0.71467906
2	0xbe0cb95e	-0.13742587
3	0x3dad985b	0.08476325
4	0xbe44a1fc	-0.19202417
5	0x3e4bb0d7	0.19891678
6	0x3e1c1a5e	0.15244433
7	0x3b32a7e9	0.0027260727
8	0x3e906dd9	0.28208807
9	0x3e02b67d	0.12764926
10	0xbcdfe6d9	-0.027331756
11	0xbe0ed3d7	-0.13947998
12	0xbdfff83b	-0.12498518
13	0x3c51bbfd	0.012801168
14	0x3d379cf6	0.044827424
15	0x3e73bac1	0.2380171
16	0xbecca425	-0.39968982
17	0x3e6c9e28	0.23107207
18	0xbd4273fa	-0.047473885
19	0x3da2832b	0.079351746
20	0x3e8da89a	0.27667695
21	0x3d87ed21	0.066370256
22	0x3e1a3670	0.15059829
23	0x3d4e4c23	0.05036558
24	0xbe404bcb	-0.18778913
25	0x3ef6f74b	0.48235545
26	0xbe4e3f9f	-0.20141457
27	0x3e61e605	0.22060402
28	0x3eb51c99	0.3537338
29	0x3ccb6874	0.02483008
30	0x3e902343	0.28151903
31	0x3d93125c	0.07181236
32	0xbebbac87	-0.36655065
33	0x3c3252be	0.010883985
34	0x3dec5c16	0.115410015
35	0xbe42f887	-0.19040118
36	0xbdf40c62	-0.11916424
37	0x3d176955	0.036965687
38	0x3ee2e5f1	0.44316056
39	0xbe345ef9	-0.17614354
40	0x3e995c94	0.29953444
41	0xbd729680	-0.05922556
42	0x3ed92df6	0.42417878
43	0xbd973cb7	-0.07384627
44	0x3e6a1e5c	0.22863144
45	0x3e466087	0.1937276
46	0xbdab7317	-0.08371561
47	0x3d9c0a26	0.07619123
48	0xbecbb69e	-0.39787763
49	0xbe20b017	-0.15692173
50	0x3cbc36e1	0.022975387
51	0xbcb2962b	-0.021800121
52	0xbd1d4937	-0.0383999
53	0xbd4948f2	-0.04914183
54	0xbe7df32a	-0.24799791
55	0x3e30083f	0.17190646
56	0xbeb7bafa	-0.3588484
57	0x3e634306	0.22193536
58	0x3e322a28	0.17398894
59	0x3e6e6c03	0.2328339
60	0x3e61bc9f	0.2204461
61	0x3dabcd85	0.08388809
62	0x3e61c548	0.22047913
63	0xbd0c0e41	-0.03419328
64	0x3eeb1678	0.4591558
65	0xbd000892	-0.031258173
66	0x3dc2476e	0.094862804
67	0xbdf2ab72	-0.11849107
68	0xbe7e96f3	-0.2486227
69	0x3cd6f42d	0.026239479
70	0xbdb1be39	-0.0867886
71	0xbe053bb4	-0.13011056
72	0x3e0584b0	0.13038898
73	0x3e47327b	0.1945285
74	0xbe3901a1	-0.18067028
75	0xbd7d6ef8	-0.061873406
76	0x3dc31ada	0.09526606
77	0xbe3a5ac4	-0.18198687
78	0xbddbf33a	-0.10739751
79	0x3d852888	0.06501871
80	0xbe892d6f	-0.26792476
81	0xbe5e9733	-0.21737365
82	0xbf07ef52	-0.5309955
83	0x3d98ec1c	0.07466909
84	0xbeb75019	-0.35803297
85	0xbcb384d9	-0.021913933
86	0xbe090e12	-0.13384274
87	0x3eede597	0.46464226
88	0xbd4266ea	-0.047461428
89	0xbd02d5fb	-0.03194235
90	0x3e554042	0.20825294
91	0x3e9d95e7	0.3077843
92	0x3ea0b6cb	0.3138946
93	0xbe97b8f5	-0.296333
94	0x3e0c3454	0.13691837
95	0x3dd2c718	0.1029188
96	0x3e7fbc8e	0.24974272
97	0xbd378c7f	-0.044811722
98	0x3e9e9d12	0.3097921
99	0x3e1938a1	0.14963008
100	0x3d915024	0.07095364
101	0x3e0fa3a8	0.14027274
102	0x3ee4d1de	0.44691366
103	0xbd886553	-0.06659951
104	0x3d391c54	0.04519303
105	0x3e0ada59	0.13559856
106	0xbe3da619	-0.18520392
107	0xbe08a1ea	-0.13343015
108	0x3e11d41b	0.14241068
109	0x3b4b183c	0.0030989787
110	0xbe912d61	-0.28354934
111	0xbec3437e	-0.3813743
112	0xbe53aa6e	-0.20670483
113	0x3dd2d2a1	0.102940805
114	0x3eb2e484	0.3493997
115	0xbd1beb60	-0.038066268
116	0xbca957a6	-0.020671677
117	0x3eab3505	0.33438888
118	0x3e1f83dc	0.15577644
119	0x3eb37b78	0.35055137
120	0xbdddc3ab	-0.10828336
121	0x3d8fdef0	0.07024944
122	0x3d86232d	0.06549678
123	0x3e98fa8f	0.2987866
124	0xbde44202	-0.111454025
125	0xbe7e1c55	-0.24815495
126	0x3e39d65c	0.18148178
127	0x3dda8e90	0.10671723

fc3.weight f4 [4, 128]
0	0x3f2ec3e3	0.6826765
1	0xbfe0c250	-1.75593
2	0xbe922065	-0.2854034
3	0x3f560516	0.8360151
4	0x3f04e547	0.5191235
5	0xbf1fb3fc	-0.6238401
6	0x3e9cf704	0.30657208
7	0x3ec3263d	0.3811511
8	0xbebdd356	-0.370753
9	0xbe976e75	-0.2957646
10	0x3e77cb21	0.24198581
11	0xbe5ea7e0	-0.21743727
12	0xbf1805c3	-0.5938379
13	0xbea29b4e	-0.31759113
14	0xbf543b48	-0.82902956
15	0x3f2fb8e9	0.68641526
16	0x3dd7aeab	0.10531362
17	0x3ecea7af	0.40362307
18	0xbb1db2f2	-0.0024062959
19	0xbf387705	-0.7205661
20	0x3f468e16	0.77560556
21	0xbf8c30a2	-1.0952342
22	0x3f2879c1	0.6581078
23	0xbe8712b6	-0.26381463
24	0xbee12ef0	-0.43981123
25	0x3f5deec9	0.8669248
26	0x3f2fc4e0	0.6865978
27	0x3ee4e5d2	0.4470659
28	0x3ef48bd8	0.47762942
29	0x3f5fa7cd	0.8736542
30	0xbdc5c529	-0.09656746
31	0x3d8d5c2f	0.06902348
32	0xbe00cfc3	-0.12579255
33	0xbdb1e1e6	-0.08685665
34	0xbf8481e4	-1.035214
35	0xbf18d625	-0.5970176
36	0xbf3fe2b8	-0.7495532
37	0x3f50d00f	0.8156747
38	0x3f63242f	0.88727087
39	0x3f39b346	0.72539175
40	0x3f450467	0.7695984
41	0xbfedf7bf	-1.8591231
42	0x3f6d4af4	0.92692494
43	0xbf038ab2	-0.5138351
44	0xbf1d56ef	-0.61460775
45	0x3fa1dd87	1.264573
46	0x3ea3378e	0.31878322
47	0xbe9c137d	-0.30483618
48	0x3f02169e	0.5081576
49	0xbec60e79	-0.38682917
50	0xbd8c37e5	-0.068465985
51	0xbe95f3f3	-0.2928768
52	0x3dca8d62	0.09890248
53	0xbf10f9bd	-0.5663107
54	0x3f400429	0.7500635
55	0x3eddd3ee	0.43325752
56	0x3f6f35bb	0.9344136
57	0xbeefa6c3	-0.46806917
58	0xbef14b09	-0.4712756
59	0x3d337596	0.04381331
60	0xbd308d8a	-0.043103732
61	0x3f3ee099	0.7456146
62	0x3f9248b9	1.1428443
63	0xbdcf85ae	-0.10132919
64	0xbe4ae2f9	-0.19813146
65	0xbd1ac72e	-0.03778761
66	0x3f03aadc	0.51432586
67	0xbd43cf40	-0.04780507
68	0xbe85281e	-0.2600717
69	0x3f3d34ca	0.73908675
70	0x3eb2d531	0.34928277
71	0x3cf21e31	0.029555412
72	0xbe360027	-0.17773496
73	0xbf7a9f15	-0.9789899
74	0xbecb89d2	-0.39753586
75	0x3eba1067	0.3634064
76	0xbf4ed5dc	-0.80795074
77	0xbfb938a1	-1.4470407
78	0x3f729a44	0.9476664
79	0x3f7a18f2	0.97694314
80	0xbfe95da7	-1.8231705
81	0x3e29cc6f	0.16581891
82	0xbed81c55	-0.42209116
83	0xbe625a64	-0.22104794
84	0xbf70b17f	-0.9402084
85	0xbf5ecc78	-0.87030745
86	0x3e9c09d6	0.30476254
87	0x3ebc1627	0.3673565
88	0x3f3a9f10	0.7289896
89	0xbec32032	-0.381105
90	0x3f917530	1.1363888
91	0xbf1dba47	-0.6161236
92	0x3f0f2c6a	0.55927145
93	0xbefb3ac8	-0.49068284
94	0x3f50aa4a	0.8150984
95	0x3f48b264	0.783972
96	0xbf074612	-0.52841294
97	0xbd5f83c4	-0.05456902
98	0x3f68432d	0.907275
99	0x3ec37f91	0.38183263
100	0x3f0a97d7	0.5413794
101	0xbf38a124	-0.7212088
102	0x3f73f7a1	0.95299727
103	0xbf16ec5d	-0.5895441
104	0xbf10bbd2	-0.5653659
105	0x3edc0b1d	0.4297723
106	0x3f2324d8	0.63728094
107	0xbf54836c	-0.83013034
108	0xbecc3888	-0.3988688
109	0x3f2f8243	0.6855814
110	0x3f0ee9a4	0.5582526
111	0xbf826fe8	-1.0190401
112	0x3f7a8d1c	0.97871566
113	0xbf17998f	-0.59218687
114	0x3f234a41	0.6378518
115	0xbfb84461	-1.4395868
116	0x3d473352	0.048632927
117	0xbe2a2f1b	-0.16619532
118	0xbeaeb79e	-0.34124464
119	0x3ff57537	1.9176396
120	0x3f1871b5	0.59548503
121	0x3ec92158	0.39283252
122	0x3f4b2a55	0.7936147
123	0x3f3c376b	0.7352206
124	0xbc937d3b	-0.01800405
125	0xbf904763	-1.1271785
126	0xbeed9661	-0.46403793
127	0x3f1abba3	0.6044256
128	0x3f72609d	0.9467867
129	0xbfd7f31f	-1.687107
130	0xbee4e473	-0.44705543
131	0x3f5a610d	0.8530434
132	0x3e820c17	0.2539985
133	0xbf0d6eac	-0.55246997
134	0x3f45618f	0.7710199
135	0x3eaebbce	0.3412766
136	0xbefebc21	-0.49752906
137	0xbe878b20	-0.2647333
138	0x3df5f94f	0.120104425
139	0xbdf20dfa	-0.11819072
140	0xbf467848	-0.77527285
141	0xbeadfe7c	-0.3398322
142	0xbf79cca5	-0.9757789
143	0x3f39e857	0.7262015
144	0xbf8c32e9	-1.0953037
145	0x3e26bed3	0.16283731
146	0x3d338e27	0.04383674
147	0xbf3b1670	-0.7308111
148	0x3f226885	0.63440734
149	0xbf945c1d	-1.1590611
150	0x3f260cdd	0.6486338
151	0xbef346fd	-0.47515097
152	0xbea73f43	-0.32665452
153	0x3f73c6e8	0.9522538
154	0x3ed074cd	0.40714112
155	0x3f07ea66	0.5309204
156	0x3e6d0b51	0.23148848
157	0x3f350668	0.707129
158	0x3db782d5	0.08960501
159	0x3db364a2	0.087594286
160	0xbfb7451e	-1.4317968
161	0xbec084d6	-0.37601346
162	0xbf8569a3	-1.0422863
163	0xbf0546f1	-0.52061373
164	0xbf6bd4c2	-0.9212152
165	0x3f015eff	0.5053558
166	0x3f6e0703	0.9297945
167	0x3fb3de3f	1.4052199
168	0x3f5525b8	0.8326068
169	0xbfb95cd4	-1.4481454
170	0x3f7390b5	0.9514268
171	0xbecec917	-0.40387794
172	0xbf0ff620	-0.5623493
173	0x3faed3af	1.3658351
174	0xbea58de3	-0.32334813
175	0xbe6d21fd	-0.23157497
176	0x3f1aa223	0.6040365
177	0xbee3730f	-0.4442372
178	0xbe68a256	-0.22718176
179	0xbe8862cd	-0.2663788
180	0x3df5742e	0.1198505
181	0xbef93b58	-0.48678088
182	0x3f3ef4f8	0.7459254
183	0x3f05a489	0.52204186
184	0xbe5f2caa	-0.21794382
185	0xbe85aeab	-0.26109824
186	0xbf0bacf1	-0.5456076
187	0xba0407dc	-0.00050365715
188	0xbead9fb9	-0.3391092
189	0x3f09056d	0.53523904
190	0x3f92a660	1.1457024
191	0x3e5f1900	0.2178688
192	0x3cb81e8f	0.022475509
193	0x3e15c54b	0.14626043
194	0x3f1224cb	0.5708739
195	0xbdc136b8	-0.09434265
196	0xbea56250	-0.3230157
197	0x3f34a7b3	0.7056839
198	0x3f88199d	1.0632817
199	0x3ee22479	0.4416845
200	0xbde1361a	-0.10996647
201	0xbf76e337	-0.9644045
202	0x3d98d1af	0.07461869
203	0x3ea4618b	0.3210567
204	0xbf788d28	-0.9709039
205	0xbf82bd5e	-1.021404
206	0x3f7a7f10	0.9785013
207	0x3f437c98	0.7636199
208	0xbfedb95b	-1.8572191
209	0x3f1e444d	0.6182297
210	0xbd632d9a	-0.05546341
211	0xbe83083f	-0.2559223
212	0xbe89594f	-0.2682595
213	0xbf5a8c5b	-0.85370415
214	0x3e9ac156	0.3022563
215	0x3ebeeb29	0.37288788
216	0x3f6f33ac	0.9343822
217	0xbf6922c8	-0.91068697
218	0x3f97ef40	1.1869888
219	0xbf2089f2	-0.6271049
220	0x3ec29241	0.38002208
221	0xbead1976	-0.33808488
222	0x3f200458	0.6250663
223	0x3f621d5f	0.88326067
224	0xbf1133cb	-0.56719655
225	0xbddbdc4d	-0.107353784
226	0x3f5feec6	0.87473714
227	0x3edc7a67	0.43062136
228	0x3efb9ce3	0.49143133
229	0xbf3e2abe	-0.7428397
230	0x3f6dc74d	0.92882234
231	0xbf09a8dc	-0.53773284
232	0xbed75576	-0.4205739
233	0x3f17b10b	0.5925452
234	0x3f2affc1	0.667965
235	0xbf406a83	-0.75162524
236	0xbf0148d9	-0.5050178
237	0x3f1da7ff	0.61584467
238	0x3f27ecb8	0.6559558
239	0xbfff9ae4	-1.9969144
240	0x3f3ebfcf	0.74511427
241	0xbebeb110	-0.37244463
242	0x3f07a7b7	0.5299029
243	0xbfb09637	-1.3795842
244	0xbda24b67	-0.07924538
245	0xbdf1907d	-0.11795137
246	0xbf084384	-0.5322802
247	0x3ff67570	1.9254589
248	0x3e8a8000	0.2705078
249	0x3e3e9147	0.18610106
250	0x3f4929d7	0.7857947
251	0x3f490a01	0.7853089
252	0x3df67945	0.12034849
253	0xbf6e3f64	-0.93065476
254	0xbf5debbf	-0.86687845
255	0x3f1fc2b1	0.6240645

fc3.bias f4 [4]
0	0x3e3266bf	0.17422007
1	0x3ba760ca	0.0051079737
2	0xbd4196cd	-0.047262955
3	0x3eeb027b	0.4590033

exp_avg f4 [256, 8]
0	0xbb01e8e6	-0.0019822656
1	0x3c407253	0.011746007
2	0x3b7271cb	0.0036994095
3	0xbc1eaa80	-0.009684205
4	0x383776e2	4.374132e-05
5	0x3b6cdc62	0.00361421
6	0x3adf2956	0.0017025869
7	0x39ca2bf6	0.00038561196
8	0x3d863344	0.06552747
9	0xbb3fd9f3	-0.0029274195
10	0x3d5c9b4a	0.053859033
11	0xbd623f1c	-0.055235967
12	0x3ccaf34a	0.024774212
13	0x3c258a0f	0.0101037165
14	0xbe11c799	-0.14236297
15	0xbca60f88	-0.020271078
16	0xba43f583	-0.0007475244
17	0xbba66885	-0.0050783777
18	0x3c0b9016	0.0085182395
19	0x3af96ca8	0.0019029574
20	0x3aa89288	0.0012861053
21	0xbb6b023c	-0.0035859486
22	0x3b4139b4	0.0029483857
23	0x3c04f83d	0.008115825
24	0xbca00f09	-0.01953842
25	0xbbe8a6f9	-0.007099983
26	0xbc9f5b42	-0.019452695
27	0x3c6d8427	0.01449684
28	0xbb641bda	-0.003480664
29	0x3a22c724	0.0006209484
30	0x3c872f9c	0.016502194
31	0xbbe1161c	-0.0068690907
32	0xbb9e841d	-0.0048375265
33	0x3c80a85d	0.015705282
34	0xbc5242a9	-0.012833276
35	0xbbab2ccf	-0.0052238475
36	0xbb97741b	-0.004621995
37	0xbae9b7c5	-0.0017831257
38	0x3ce2bf43	0.027679091
39	0xbc4f73e7	-0.012661911
40	0xbb35b079	-0.0027723594
41	0xba68956e	-0.00088723644
42	0x3bb12353	0.0054058223
43	0x3b1ad8cc	0.0023627756
44	0xbb34cd9d	-0.0027588375
45	0xbb7d7ba4	-0.0038678432
46	0xbca27789	-0.01983239
47	0xbc789eb9	-0.015174561
48	0xbc7ac186	-0.015304929
49	0x3c147172	0.009060251
50	0x3c050f65	0.008121346
51	0xbc214200	-0.009842396
52	0x3b58b9ef	0.003306981
53	0x3b772e3f	0.0037716774
54	0x3c54c47e	0.0129863005
55	0x3a3782b8	0.00070003746
56	0xba610fc3	-0.00085854175
57	0xb91c0b07	-0.00014881427
58	0x3a4ffd31	0.0007934152
59	0xb9e638aa	-0.00043911237
60	0xbb00e3b9	-0.0019666983
61	0xbad64300	-0.0016346872
62	0x391fc043	0.00015235045
63	0xbbe535a7	-0.0069949212
64	0xba6686f4	-0.00087939133
65	0x3b357a71	0.002769139
66	0xbaf55031	-0.0018715916
67	0xbb92654e	-0.004467643
68	0xb8e4111c	-0.00010875074
69	0xbb9acf0c	-0.004724389
70	0x3ba61428	0.005068321
71	0x00000004	6e-45
72	0x3c5cde4a	0.013480732
73	0xbcd8c2b0	-0.026460022
74	0x3ab03d63	0.0013446029
75	0x3d0488db	0.032357078
76	0xbac2657a	-0.0014831268
77	0x3c5acfa0	0.013355166
78	0xbd71b4e2	-0.059010394
79	0xbcfeb63c	-0.031092755
80	0xbb25716a	-0.0025244602
81	0xbb2e000d	-0.0026550323
82	0xba0ef517	-0.00054533913
83	0xba7cd6a0	-0.0009645019
84	0xbb13af22	-0.0022534807
85	0xbb86e53a	-0.0041166814
86	0x3c259014	0.010105152
87	0x3b0347a9	0.0020031726
88	0xbc097816	-0.008390447
89	0xbca43f47	-0.020049704
90	0xbb864aae	-0.004098258
91	0xbbb3ddbc	-0.0054890793
92	0xbae779c9	-0.0017660196
93	0xbc4ae59c	-0.012383845
94	0x3c04483d	0.008073864
95	0x3c20e6bc	0.009820636
96	0xbbba0a5a	-0.0056775035
97	0x3c6ba1e9	0.014381864
98	0x3be3de9d	0.006954028
99	0x3bad6157	0.005291145
100	0x3a2e95e0	0.00066599064
101	0xba032ba9	-0.0005003759
102	0xb9ef217e	-0.00045610586
103	0xbb84af5e	-0.0040492257
104	0xbbd979e8	-0.006636847
105	0xbb9f7859	-0.0048666415
106	0xba228ef4	-0.0006201111
107	0x3a833056	0.0010008912
108	0x3aa4b914	0.0012567365
109	0xba9e60a1	-0.0012083241
110	0x3c89d6ed	0.016826117
111	0xb8ae463f	-8.310051e-05
112	0x3c126dae	0.0089372825
113	0x3d719443	0.058979284
114	0x3baa7184	0.0052015204
115	0xbd12e8f3	-0.03586669
116	0x3c1dbf5a	0.009628141
117	0x3c780714	0.015138406
118	0x3c0d75bc	0.008634027
119	0xbb58ee19	-0.0033100902
120	0xbcaf998f	-0.021435527
121	0xbc542554	-0.012948353
122	0xbbd16617	-0.006390344
123	0x3d1996a6	0.037497185
124	0xbc0ab0f1	-0.008465038
125	0xbc433cfe	-0.011916397
126	0x3bd024eb	0.006352057
127	0xbb01463b	-0.0019725699
128	0x3c4ef45c	0.012631502
129	0xbb0d30b9	-0.0021543934
130	0x3ca02e55	0.019553343
131	0xbb993238	-0.004675176
132	0xbb4ef865	-0.003158116
133	0xbbdd97b7	-0.0067624706
134	0xbd01ad90	-0.031659663
135	0xbc0bcddc	-0.008532967
136	0x3c708e55	0.014682372
137	0x3a871891	0.0010307004
138	0x3aa62534	0.0012675882
139	0xbba73fd0	-0.0051040426
140	0xbab3b133	-0.0013709426
141	0x3b009bb9	0.0019624068
142	0x3ab0c3bc	0.0013486068
143	0x3b20ede3	0.0024555854
144	0xbade8680	-0.001697734
145	0xbc31dd49	-0.010855981
146	0xbb89e777	-0.004208501
147	0xbc4864a8	-0.01223103
148	0xbbaa9648	-0.005205903
149	0xbc0b74c6	-0.008511728
150	0x3d54e442	0.051975496
151	0x3cb9d7a6	0.022685837
152	0xbad61d5d	-0.0016335655
153	0x3c724b49	0.014788457
154	0x3c8366ba	0.016040195
155	0xbd03ba43	-0.032160055
156	0x3bc1d9d9	0.005915862
157	0x3c3bf57b	0.011472101
158	0x3d87933b	0.06619879
159	0x3d238cda	0.03992925
160	0x3b7c98ce	0.0038543227
161	0x3b048f38	0.0020226967
162	0xbb1039e9	-0.0022007173
163	0x3bb2fec4	0.0054624993
164	0xbb42233c	-0.0029623052
165	0x3a46fd66	0.000759086
166	0xbc860508	-0.016359821
167	0xbcca745a	-0.024713684
168	0xbb8e1108	-0.0043355264
169	0x3b831a32	0.0040009255
170	0xbc04054a	-0.008057902
171	0xbb1c25a8	-0.0023826156
172	0xbb2c78c8	-0.0026317108
173	0x3c84959a	0.016184617
174	0x3c8bb90b	0.017056009
175	0xbc852f12	-0.016257796
176	0xbc940839	-0.018070327
177	0x3a9d0648	0.0011980021
178	0xbc516cd7	-0.012782297
179	0x3cbe6d2a	0.023245413
180	0xbbe96c00	-0.0071234703
181	0xbb8bb72d	-0.0042637796
182	0x3276cecc	1.4366105e-08
183	0xbcb9c22c	-0.022675596
184	0x3c504d24	0.012713704
185	0x3b9ebe7b	0.0048444844
186	0xbc4dc248	-0.012558527
187	0xbba56e5d	-0.0050485567
188	0xbba269ec	-0.0049564745
189	0xb9cb6ebf	-0.0003880169
190	0x3b7980f7	0.0038071254
191	0xbbcb373e	-0.0062016537
192	0xbc0a5076	-0.008442035
193	0xbc36ea0d	-0.0111642005
194	0xbb98428d	-0.0046466053
195	0x3c371bc1	0.011176051
196	0xbbe7336c	-0.0070556905
197	0xbc38cbe3	-0.011279079
198	0x3ca0a585	0.019610176
199	0xb8216fca	-3.8489503e-05
200	0x3b9836e1	0.004645214
201	0x3b689e9c	0.003549493
202	0x3bfc4e10	0.0076997355
203	0x3c03c3e1	0.008042307
204	0xba48367d	-0.0007637514
205	0xbc40686a	-0.011743644
206	0xbd84c74c	-0.06483325
207	0xbcbae039	-0.022811996
208	0x3ca60cf4	0.020269848
209	0xbcc4a5bd	-0.024004811
210	0x3c3dd349	0.011586019
211	0xbad13fda	-0.0015964464
212	0xbaa70f17	-0.0012745586
213	0xbb9c3702	-0.0047672996
214	0xba16f454	-0.00057584536
215	0x3cbb4055	0.022857824
216	0x3b5436e0	0.003238134
217	0x3c163193	0.009167093
218	0xbc265ec0	-0.010154426
219	0x3b7a0133	0.0038147687
220	0xbbbfccdb	-0.005853278
221	0x3b75fea2	0.0037535806
222	0xb64cc74d	-3.0514377e-06
223	0xbc9f3d38	-0.019438371
224	0xbb89164a	-0.0041835653
225	0xbb649541	-0.0034879001
226	0xbbf54e95	-0.0074861743
227	0x3c11c736	0.008897593
228	0xbb8c6ba5	-0.004285293
229	0xbbd78e3c	-0.006578235
230	0x00000004	6e-45
231	0x00000004	6e-45
232	0xbbbb401f	-0.005714431
233	0xbbe6b605	-0.0070407414
234	0x3b4420fa	0.0029926882
235	0xbb15c1c6	-0.0022851094
236	0xbbc721c2	-0.0060770223
237	0xbc1873f0	-0.009304985
238	0xbc8dcb23	-0.017308777
239	0x3cf734d6	0.030176561
240	0xbb9d3fcf	-0.0047988663
241	0xbc220669	-0.009889224
242	0x3aeff272	0.0018306507
243	0xbab26df1	-0.0013613087
244	0xbb29c56b	-0.0025905024
245	0x39c3b99e	0.00037331594
246	0x3c958f83	0.018256908
247	0x00000004	6e-45
248	0x3aa9d8ee	0.0012958327
249	0xba4c5db9	-0.0007795948
250	0x395a6f88	0.00020831649
251	0x3aab6f6a	0.0013079469
252	0xbab92aab	-0.0014127096
253	0x3bced524	0.0063120294
254	0x3cb85453	0.022501146
255	0x3c965e7d	0.018355602

exp_avg_sq f4 [256, 8]
0	0x3a6c1305	0.00090055197
1	0x3ab911ba	0.0014119663
2	0x39d42672	0.00040464435
3	0x3a5cfc46	0.00084299257
4	0x39b66b44	0.00034793664
5	0x3a7747e6	0.0009433016
6	0x3b51c6b1	0.0032009298
7	0x3afeff26	0.0019454702
8	0x3cda4e8b	0.02664878
9	0x3ad0528c	0.0015893742
10	0x3c2b2e98	0.010448121
11	0x3bc82fba	0.006109205
12	0x3bfd88b2	0.0077372426
13	0x3d2d4272	0.042299695
14	0x3ead4782	0.3384362
15	0x3eaf6efe	0.34264368
16	0x3a2a9f67	0.0006508738
17	0x3b5ed806	0.0034003272
18	0x3a147991	0.0005663867
19	0x3aae28d2	0.0013287312
20	0x3981fd63	0.00024793585
21	0x3a506ecb	0.000795108
22	0x3acb49cc	0.0015509664
23	0x3b49915a	0.0030756802
24	0x3b318ead	0.0027093098
25	0x3a2ad046	0.00065160205
26	0x3aae8efa	0.0013317757
27	0x3abdbd83	0.0014476035
28	0x3a8b5441	0.0010629968
29	0x3b973367	0.004614282
30	0x3cfdfae7	0.031003429
31	0x3d1eff85	0.0388179
32	0x3c080017	0.008300803
33	0x3d015b62	0.03158129
34	0x3c007fbb	0.007842953
35	0x3d038290	0.032106936
36	0x3b38bfe5	0.002819055
37	0x3bd2a79b	0.0064286715
38	0x3c4e4709	0.012590178
39	0x3c5c83fa	0.0134592
40	0x39df0753	0.00042539331
41	0x38697fa0	5.567039e-05
42	0x3a18ddbb	0.000583138
43	0x38f038c5	0.00011454666
44	0x39925895	0.0002791329
45	0x3a2f8ac7	0.00066963997
46	0x3b866900	0.0041018724
47	0x3b857b4a	0.004073535
48	0x3bd77b95	0.0065760114
49	0x3d185459	0.037189815
50	0x3b8a8fc4	0.004228564
51	0x3c96a733	0.018390274
52	0x3ad0546c	0.00158943
53	0x3b0f9d4b	0.0021913822
54	0x3bbbcaa7	0.005730945
55	0x3bdbaacb	0.0067037097
56	0x3a79b410	0.00095254276
57	0x3bedc198	0.007255744
58	0x3a99c0ad	0.0011730395
59	0x3b40a839	0.0029397144
60	0x39af57fe	0.0003344416
61	0x3a8a6914	0.001055988
62	0x3bb52e16	0.0055291755
63	0x3bb9d586	0.005671206
64	0x3a0fc52d	0.00054843986
65	0x3a48be2b	0.0007657732
66	0x39ed790d	0.00045294352
67	0x3affc45d	0.0019513477
68	0x394c9a97	0.00019512545
69	0x3a020010	0.0004959116
70	0x3acef990	0.0015790928
71	0x000001f4	7e-43
72	0x3c780a3e	0.015139161
73	0x3d94af4c	0.07259998
74	0x3c0eb3ac	0.008709829
75	0x3d1d7181	0.038438324
76	0x3b8fbb0a	0.0043863105
77	0x3c300080	0.010742307
78	0x3d5f1292	0.05446107
79	0x3d3503e7	0.044193175
80	0x39db40df	0.00041819268
81	0x39339bc6	0.000171288
82	0x394eb084	0.00019711448
83	0x3a0b1878	0.00053060753
84	0x39051d23	0.00012694723
85	0x3a89a910	0.0010502655
86	0x3bcbc34a	0.0062183486
87	0x3b744c8f	0.0037277078
88	0x3b08ec3d	0.0020892762
89	0x3b9c3264	0.004766749
90	0x3ad3b0e0	0.0016150735
91	0x3c0d4bd0	0.008624032
92	0x39f1f270	0.00046147732
93	0x3b27acbf	0.0025585142
94	0x3b7d5ecd	0.0038661242
95	0x3c2d0a13	0.010561484
96	0x3b39b4b7	0.0028336474
97	0x3c6229f6	0.01380395
98	0x3b604fdd	0.003422729
99	0x3c12ea26	0.008966958
100	0x3b099139	0.00209911
101	0x3b2d3700	0.0026430488
102	0x3b1183f2	0.002220389
103	0x3b8feab5	0.004391993
104	0x3abab9e1	0.001424607
105	0x3a995e2c	0.0011701039
106	0x3a3990e7	0.0007078782
107	0x3b55893a	0.0032583014
108	0x39e4d27a	0.00043644366
109	0x3aa43fd4	0.0012531229
110	0x3b5c1f24	0.0033587897
111	0x3a1a0dd4	0.00058766943
112	0x3bd3157f	0.0064417715
113	0x3d550c56	0.052013718
114	0x3c007c59	0.007842147
115	0x3d1b42c0	0.037905455
116	0x3b268cef	0.0025413593
117	0x3be41047	0.006959948
118	0x3c904c1f	0.017614422
119	0x3c566bd6	0.0130872335
120	0x3c1cba1a	0.009565854
121	0x3d75a820	0.05997479
122	0x3bef4cbc	0.0073028486
123	0x3cfc3a24	0.030789442
124	0x3b387816	0.0028147749
125	0x3c23db4e	0.010001017
126	0x3c22435d	0.009903756
127	0x3b5ac951	0.0033384154
128	0x3b2a5878	0.0025992673
129	0x397ad02e	0.00023919411
130	0x3b92404a	0.0044632303
131	0x3ac8967e	0.0015303639
132	0x3aa798f4	0.0012786672
133	0x3b6ffa8e	0.0036617848
134	0x3c697573	0.0142491935
135	0x3c883add	0.01662963
136	0x3c6cbd20	0.014449388
137	0x3a999c00	0.0011719465
138	0x3b35a300	0.0027715564
139	0x3acf9be0	0.0015839301
140	0x3b04180c	0.0020155935
141	0x3c08be9d	0.008346227
142	0x3cdd50bf	0.027016042
143	0x3bf028e9	0.0073290956
144	0x3b01907a	0.0019769953
145	0x3cc5e257	0.024155779
146	0x3b4c0743	0.0031132258
147	0x3bdf2773	0.0068101226
148	0x3a933784	0.0011231755
149	0x3ae039ef	0.0017107109
150	0x3d1f592b	0.038903397
151	0x3d0e26cd	0.034704972
152	0x3c2ef10f	0.01067759
153	0x3d23b5e1	0.039968375
154	0x3bb57572	0.005537682
155	0x3c45c39e	0.012070565
156	0x3af32212	0.0018549582
157	0x3bb016d3	0.0053738146
158	0x3d7e620e	0.06210523
159	0x3d59c496	0.053165995
160	0x3acdb860	0.0015695207
161	0x393007dd	0.00016787597
162	0x3a8e728b	0.0010867877
163	0x3a73c2f3	0.0009298764
164	0x3a276257	0.0006385198
165	0x3b0f44fa	0.0021861182
166	0x3befdd54	0.0073200855
167	0x3c62abc5	0.013834898
168	0x3b1ae160	0.002363287
169	0x3c922d2a	0.017843802
170	0x3b8b7a94	0.004256556
171	0x3bf15b37	0.00736561
172	0x3a561c44	0.0008167664
173	0x3b19ebaa	0.0023486414
174	0x3c45e063	0.012077424
175	0x3ca7d7d0	0.02048865
176	0x3ac5ad8a	0.0015081626
177	0x39945f77	0.00028299887
178	0x3a95ac0d	0.0011419073
179	0x3afdc146	0.0019359968
180	0x3a1b8424	0.0005932471
181	0x3b2690d1	0.0025415907
182	0x37abc863	2.04781e-05
183	0x3b964809	0.004586224
184	0x3a2b8605	0.0006543103
185	0x3a80ce8a	0.0009827178
186	0x3a2806b8	0.00064096926
187	0x3abff985	0.0014646506
188	0x39c06b0a	0.00036700844
189	0x3b012899	0.0019708036
190	0x3b5ff195	0.0034171094
191	0x3a16b83a	0.0005749498
192	0x3ad8524c	0.0016504019
193	0x3c6bcb51	0.014391736
194	0x3aed4c18	0.0018104343
195	0x3bc8db5f	0.0061296667
196	0x3a38a42e	0.00070435076
197	0x3abec92e	0.0014555806
198	0x3b97674a	0.0046204673
199	0x3b9ed06c	0.004846623
200	0x3ba27ecf	0.0049589644
201	0x39aa14dc	0.00032440468
202	0x3ac85dca	0.001528674
203	0x3a6826ca	0.00088558777
204	0x3ac3115c	0.0014882493
205	0x3b67e475	0.0035383974
206	0x3dd95825	0.10612515
207	0x3db3af80	0.08773708
208	0x3bdccdae	0.006738386
209	0x3d600bb6	0.05469867
210	0x3be71f1f	0.0070532705
211	0x3cbc8d4a	0.02301659
212	0x3b303d59	0.0026892035
213	0x3b778005	0.0037765515
214	0x3a1d0301	0.00059895223
215	0x3c62b053	0.013835984
216	0x3bdee2ee	0.0068019545
217	0x3ae44472	0.0017415418
218	0x3ac9fa7d	0.0015409734
219	0x3b016a60	0.0019747242
220	0x3a08b367	0.00052147213
221	0x3af3a4cb	0.0018588541
222	0x388d796c	6.7460205e-05
223	0x3b8cf14c	0.0043012258
224	0x3a2290bb	0.0006201376
225	0x3bea98eb	0.0071593425
226	0x3a776f1c	0.0009438859
227	0x3b94caf0	0.0045407936
228	0x39a8b649	0.0003217927
229	0x39c7cf14	0.00038110523
230	0x000001f4	7e-43
231	0x000001f4	7e-43
232	0x3c0ed6a8	0.00871817
233	0x3b3ee156	0.002912601
234	0x3ac3dbf7	0.0014942874
235	0x39ebb26a	0.00044955622
236	0x3b85069e	0.0040596267
237	0x3bcaee28	0.006192941
238	0x3cbbb254	0.022912182
239	0x3d439cc1	0.047756914
240	0x3a5257cc	0.0008023947
241	0x3b9bc7a7	0.004754025
242	0x3a2f38bf	0.0006684176
243	0x3aa67f4f	0.0012702736
244	0x391c6122	0.00014913504
245	0x39ac2023	0.0003283034
246	0x3a8b17d8	0.0010611964
247	0x363d64b5	2.8221814e-06
248	0x3a01e1f5	0.00049546297
249	0x3a8258e6	0.0009944707
250	0x39c4a819	0.00037509276
251	0x39fcbd4d	0.00048206226
252	0x3988e936	0.00026113697
253	0x39bca094	0.00035977794
254	0x3bc9b4a1	0.006155566
255	0x3be5650d	0.0070005716
