results/standard/models/checkpoint_ep200.pth (torch, 436170 bytes, 18 tensors)

fc1.weight f4 [256, 8]
0	0xbf10f6c2	-0.5662652
1	0x3e158d22	0.14604619
2	0x3ed9899d	0.42487803
3	0x3d9bfe04	0.07616809
4	0x3e440d09	0.19145598
5	0x3ee421b5	0.44556966
6	0x3f6cbac7	0.924725
7	0xbf263bb8	-0.64934874
8	0xbeefede5	-0.46861187
9	0x3e6b8477	0.2299975
10	0x3e9c3257	0.30507156
11	0x3f6b046a	0.9180361
12	0x3fa4216a	1.2822697
13	0xbd618141	-0.055054907
14	0x3a23082e	0.00062191754
15	0x3ee6abc2	0.45052916
16	0x3e809ef5	0.25121275
17	0x3f11025b	0.5664422
18	0xbdf9e22b	-0.12201341
19	0xbe7ed903	-0.24887471
20	0xbe2b3486	-0.16719255
21	0x3ec8d09d	0.3922166
22	0xbf39add1	-0.7253085
23	0x3f80fae0	1.0076561
24	0xbd859ef4	-0.065244585
25	0x3eb63fad	0.35595456
26	0xbd00cdd7	-0.031446304
27	0xbe665a78	-0.22495449
28	0x3f7c9762	0.9866849
29	0xbf491cd7	-0.7855963
30	0xbda598c1	-0.08085776
31	0x3f0d1f0d	0.55125505
32	0x3fab5c03	1.3387455
33	0xbe2baa1a	-0.16764107
34	0xbe19ad5f	-0.15007542
35	0x3d38b473	0.045093965
36	0xbefcaeab	-0.4935201
37	0x3d956c7b	0.07296082
38	0x3eefa22b	0.46803412
39	0x3f002415	0.50055057
40	0x3e6acbbf	0.22929285
41	0xbe493e53	-0.19652681
42	0xbf75d69c	-0.9603059
43	0xbe93ce9f	-0.28868577
44	0x3f1c9849	0.6116987
45	0x3e5bc8b3	0.2146328
46	0x3e2f8813	0.17141752
47	0x3f37de9c	0.7182405
48	0xbe1610b1	-0.14654805
49	0xbd38814e	-0.04504519
50	0x3f0ae75c	0.54259276
51	0x3e5d896a	0.2163445
52	0xbf0853e0	-0.53252983
53	0xbd1d8c0a	-0.03846363
54	0x3f0b233c	0.5435064
55	0x3f4a529c	0.790323
56	0x3f540a03	0.82827777
57	0x3e8b981f	0.27264497
58	0xbea67a5c	-0.32515228
59	0xbe23745d	-0.15962358
60	0x3f446a72	0.7672492
61	0xbe765a39	-0.24057855
62	0x3e5763f7	0.21034227
63	0x3ee39d9a	0.44456178
64	0xbf3f4118	-0.747087
65	0xbd77ebc2	-0.06052757
66	0x3f28849e	0.6582736
67	0xbef3cb9d	-0.47616282
68	0x3f9482f4	1.1602464
69	0x3eb69197	0.3565795
70	0x3ee5bd93	0.44871196
71	0xbfd8861f	-1.691593
72	0x3d3fbd51	0.046811406
73	0xbeffe039	-0.49975756
74	0x3e9e19b9	0.30879
75	0xbfbaa9e7	-1.45831
76	0xbed6bdbf	-0.4194164
77	0xbdce97c1	-0.100875385
78	0x3eb1f57f	0.3475761
79	0x3ca5ea60	0.02025336
80	0xbecc6204	-0.3991853
81	0xbe0d2318	-0.13782918
82	0xbd5fe1a8	-0.054658562
83	0xbf83553b	-1.0260385
84	0x3e551abd	0.20810981
85	0xbe52d1e9	-0.20587887
86	0x3fbf3bce	1.4940126
87	0xbeba25d5	-0.3635699
88	0x3ec1e20a	0.37867767
89	0x3e38ac48	0.1803447
90	0xbe6c3683	-0.2306767
91	0xbefdbfc9	-0.49560383
92	0x3f5d1777	0.8636393
93	0xba02c110	-0.0004987875
94	0x3e498f56	0.19683585
95	0x3f273eec	0.65330386
96	0xbf1e899b	-0.6192872
97	0xbd9d05b5	-0.07667104
98	0x3f0ffe45	0.5624736
99	0xbec33e53	-0.38133487
100	0xbfada628	-1.3566332
101	0xbddb1d95	-0.10699002
102	0xbf838c1d	-1.0277134
103	0x3c3eab19	0.011637473
104	0xbece53a4	-0.40298188
105	0xbf4e1af8	-0.805099
106	0x3eac9ff1	0.33715776
107	0xbf4fde5d	-0.81198674
108	0xbf3127d0	-0.69201374
109	0x3f9d0eea	1.2270176
110	0xbec49b08	-0.3839953
111	0xbf37a5a1	-0.71737105
112	0x3fc469c0	1.5344772
113	0xbf016af4	-0.5055382
114	0x3e21f043	0.15814309
115	0xbe41298b	-0.18863504
116	0xbf137f69	-0.5761629
117	0x3dd48f99	0.103789516
118	0x3ebbecd9	0.36704138
119	0x3f4fe997	0.81215805
120	0x3e4364f4	0.1908148
121	0x3fba97dd	1.4577595
122	0x3a1cafc7	0.00059771206
123	0xbef3b494	-0.47598708
124	0x3f8d064e	1.1017549
125	0x3f1847a0	0.5948429
126	0x3cdf1d15	0.027235547
127	0xbe82a8fa	-0.25519544
128	0x3d8f99d9	0.07011766
129	0xbf8455ad	-1.0338646
130	0xbf1b7c51	-0.60736567
131	0xbe83bd4b	-0.25730357
132	0xbed4650f	-0.41483352
133	0x3f22d215	0.6360181
134	0x3f2bc331	0.67094713
135	0x3f1b518f	0.60671324
136	0x3f25810a	0.64650023
137	0xbf5f2c0f	-0.87176603
138	0x3e142424	0.14466912
139	0x3f056504	0.5210726
140	0xbfafd372	-1.3736403
141	0xbe8403c9	-0.25784138
142	0x3e83f351	0.25771573
143	0xbf06d657	-0.52670807
144	0xbdcf1021	-0.10110498
145	0x3ea2b52e	0.31778854
146	0x3e89e0dc	0.26929367
147	0x3ddb6cec	0.107141346
148	0xbfa21b1e	-1.2664526
149	0xbfabf4b3	-1.3434051
150	0x3edf81d7	0.43653747
151	0x3f296f95	0.66185886
152	0xbe5a0ba3	-0.21293502
153	0x3e8f188b	0.27948412
154	0xbe0f53a4	-0.1399675
155	0x3f76f1a2	0.9646245
156	0xbe49b7e8	-0.19699061
157	0x3ffffab2	1.9998381
158	0x3f8d94ab	1.1060995
159	0x3e973cdd	0.29538622
160	0x3ce53039	0.027977096
161	0xbfe94857	-1.8225201
162	0x3f082460	0.53180504
163	0xbf370b8e	-0.71502006
164	0xbf24e8b0	-0.6441755
165	0x3ef3e74a	0.47637397
166	0xbdff3813	-0.12461867
167	0x3f0af107	0.5427403
168	0x3e238fc1	0.15972807
169	0xbf05fb8d	-0.5233696
170	0x3ebeebf4	0.37289393
171	0xbd81edb8	-0.063441694
172	0xbe1c622e	-0.15271828
173	0x3f9a6cb6	1.2064426
174	0x3f08090d	0.5313881
175	0x3f6d0687	0.92588085
176	0x3d935781	0.071944244
177	0xbf6ca268	-0.9243531
178	0x3edd8aa8	0.4326985
179	0xbf01b70a	-0.5066992
180	0x3e901383	0.28139886
181	0xbfbc272c	-1.4699454
182	0xbf0146f8	-0.50498915
183	0x3d1130b8	0.035446852
184	0x3edb5439	0.42837694
185	0xbfbc4b8a	-1.4710553
186	0xbf5f7913	-0.8729412
187	0xbf280da0	-0.6564579
188	0x3ebd19fa	0.3693388
189	0x3f8f309e	1.1186712
190	0x3f5fbac4	0.87394357
191	0x3f244553	0.6416828
192	0xbed6ec19	-0.41977003
193	0x3d6e1b0e	0.05813127
194	0xbf48525b	-0.78250664
195	0xbf57a1a8	-0.8423104
196	0x3faceae3	1.3509182
197	0x3f0885d6	0.5332922
198	0xbdbf3849	-0.093369074
199	0x3f1e87e6	0.61926115
200	0xbf7cc22c	-0.9873378
201	0xbeb6dff6	-0.35717744
202	0x3e9fbe13	0.31199703
203	0x3fa747c1	1.3068773
204	0xbec43840	-0.38324165
205	0xbe906ffc	-0.28210437
206	0x3f109c67	0.5648865
207	0xbf2f5dd4	-0.68502545
208	0xbe37d934	-0.1795395
209	0xbc6afc28	-0.014342345
210	0xbf0bc3a2	-0.54595387
211	0xbefd7641	-0.49504283
212	0x3f93ae13	1.1537498
213	0x3d50d8b9	0.050987933
214	0xbf564c30	-0.8371
215	0x3f142287	0.57865185
216	0x3ecd406a	0.40088207
217	0xbf938829	-1.1525928
218	0x3d6b1ff6	0.057403527
219	0xbe059767	-0.13046037
220	0xbee42da9	-0.44566086
221	0xbef9f76f	-0.4882159
222	0xbf1e65d3	-0.6187412
223	0x3e97e32c	0.29665506
224	0xbe3bfb54	-0.18357593
225	0x3f5828ab	0.84437054
226	0x3da4b63a	0.080425695
227	0xbf6ac1d0	-0.91701984
228	0xbe94ac95	-0.2903792
229	0xbe944a89	-0.28963116
230	0xbeb76980	-0.35822678
231	0xbf483d88	-0.7821889
232	0x3e5f8688	0.21828663
233	0x3e3497f1	0.17636086
234	0x3e90058a	0.28129226
235	0x3fae7456	1.3629253
236	0x3f143cb1	0.5790511
237	0xbf53aaa4	-0.8268225
238	0x3d49b5ea	0.049245752
239	0xbea7265e	-0.3264646
240	0x3e68d7e2	0.22738603
241	0x3f0b1dd3	0.54342383
242	0x3ecd944b	0.401522
243	0x3ea959f5	0.33076444
244	0xbf4da9d5	-0.8033727
245	0xbf7ac5df	-0.9795818
246	0x3f4a4e48	0.790257
247	0xbfeb045e	-1.8360708
248	0xbf480ffe	-0.781494
249	0x3eeb80eb	0.45996794
250	0x3e8aeb83	0.27132806
251	0xbec7772f	-0.38958117
252	0xbfd827cb	-1.6887144
253	0xbf50d17a	-0.81569636
254	0xbeddb6d7	-0.43303558
255	0x3f705ee0	0.9389477

fc1.bias f4 [256]
0	0x3d4102f6	0.047121964
1	0xbcbf9b1b	-0.02338939
2	0x3c87ef15	0.016593495
3	0xbdd5bc93	-0.10436358
4	0xbc8a4546	-0.016878735
5	0x3dfc6277	0.12323468
6	0x3defe5b1	0.11713732
7	0x3d02be0e	0.03191953
8	0x3e09a297	0.1344093
9	0x3d79445a	0.0608562
10	0xbdbefb1e	-0.093252406
11	0xbe2978bb	-0.16549961
12	0xbdf4c8b2	-0.11952342
13	0x3d87cd71	0.06630982
14	0x39b1fc90	0.00033948245
15	0xbcc5fd08	-0.024168506
16	0xbe2486ab	-0.16066997
17	0x3c2645d8	0.010148488
18	0xbddeb733	-0.10874786
19	0x3e623a69	0.22092594
20	0xbe00fdde	-0.12596843
21	0xbda19afc	-0.07890889
22	0x3e044a10	0.12918878
23	0x3aa27a39	0.0012396044
24	0x3ea07e16	0.31346196
25	0x3f0e988f	0.55701536
26	0x3e0d32af	0.13788866
27	0x3e400b34	0.18754274
28	0xbdac4eeb	-0.0841349
29	0x3bfd2583	0.007725419
30	0x3df1cdec	0.118068546
31	0xbedf01dc	-0.43556106
32	0xbd16be6b	-0.03680269
33	0xbd9ba0c4	-0.07599023
34	0xbd3cc847	-0.046089437
35	0xbe260231	-0.16211773
36	0xbd8ac20d	-0.067752935
37	0xbf09595e	-0.5365199
38	0x3dde37d5	0.10850493
39	0xbe2394a9	-0.15974678
40	0x3b5028d1	0.003176261
41	0xbd816493	-0.06318011
42	0xbe17e46f	-0.14833234
43	0x3d9fa1af	0.077945106
44	0x3d031dca	0.03201083
45	0x3ea8b56c	0.32950914
46	0xbdddd094	-0.10830799
47	0x3da480c3	0.08032372
48	0x3cb5bf47	0.022185935
49	0x3d019b82	0.031642444
50	0xbd519187	-0.051164176
51	0x3e5be7af	0.21475099
52	0x3de2a645	0.1106687
53	0x3db0aea7	0.08627062
54	0x3dc373d8	0.0954358
55	0x3e26c947	0.16287719
56	0x3e9a1be0	0.30099392
57	0xbc985c32	-0.01859865
58	0xbb8b9ccf	-0.0042606364
59	0x3d36bcfc	0.044613823
60	0x3dea89ad	0.11452041
61	0x3cfd486c	0.030918323
62	0x3c871b8c	0.016492628
63	0x3d18a01e	0.037262075
64	0xbb1c476f	-0.0023846289
65	0x3ceafc10	0.028684646
66	0x3e8ba5c3	0.27274904
67	0x3e4b0b46	0.19828519
68	0xbd22b2e6	-0.039721392
69	0xbd45cae5	-0.0482892
70	0xbdcc4d10	-0.09975636
71	0xbe8e8be6	-0.2784111
72	0xbe6b7011	-0.22991969
73	0x3ddf0d18	0.10891169
74	0x3db5d7d3	0.08879056
75	0xbd06fb51	-0.032954518
76	0x3d952c38	0.07283825
77	0xbe2c01ea	-0.16797605
78	0xbcc091e7	-0.023507072
79	0xbed51700	-0.4161911
80	0xbd8af9ed	-0.06785951
81	0xbb4362f9	-0.002981363
82	0xbc1a4399	-0.009415531
83	0x3e51ee9d	0.2050118
84	0x3f049c92	0.5180141
85	0xbce4c087	-0.027923835
86	0x3dc074ea	0.093972996
87	0x3dac67f1	0.08418263
88	0xbd3bf669	-0.045889292
89	0x3e18338a	0.1486341
90	0xbe0faaef	-0.1403005
91	0x3e8d2697	0.27568504
92	0xbe36c239	-0.17847528
93	0x3ecd1fd8	0.40063357
94	0xbe7a5cd5	-0.24449475
95	0xbd19fb55	-0.037593205
96	0x3c398f21	0.0113256285
97	0x3d34858f	0.044072684
98	0x3dd6121b	0.10452672
99	0xbd58e48c	-0.052952334
100	0xbe4f396c	-0.20236748
101	0x3d7c4d94	0.06159742
102	0xbd06bb87	-0.032893684
103	0x3e051b77	0.12998758
104	0xbe03382e	-0.128144
105	0xbe0b589c	-0.1360802
106	0x3df8667d	0.12128923
107	0xbd951e7d	-0.07281206
108	0xbe98e9df	-0.2986593
109	0x3ec7777c	0.38958347
110	0x3e15a242	0.14612678
111	0x3c862055	0.016372839
112	0x3da2125c	0.07913658
113	0xbc361178	-0.011112563
114	0x3c25226f	0.01007901
115	0xbd92a083	-0.071595214
116	0xbd44dc44	-0.048061624
117	0x3e545920	0.20737123
118	0x3e800e7a	0.25011045
119	0xbe963f1d	-0.29345027
120	0x3e749e5d	0.23888536
121	0xbdb6ab1a	-0.08919354
122	0x3cf52902	0.02992678
123	0x3d12d7fe	0.035850517
124	0xbc90e888	-0.017689005
125	0xbc13b925	-0.00901631
126	0x3f05fdae	0.5234021
127	0x3e2a88f7	0.1665381
128	0xbe0eb405	-0.1393586
129	0xbc8bd714	-0.01707033
130	0xbd81eb66	-0.06343727
131	0xbde3d60e	-0.11124812
132	0x3e012abb	0.12613957
133	0x3ed8508e	0.42248958
134	0x3cf3b713	0.029750383
135	0xbe409950	-0.18808484
136	0x3e5af7c6	0.2138358
137	0xbe24846c	-0.1606614
138	0x3e35def0	0.17760825
139	0xbdab5de5	-0.08367518
140	0x3e99a1c1	0.3000622
141	0x3e14f28b	0.14545648
142	0x3e1f2ab7	0.15543638
143	0x3cb42eeb	0.021995028
144	0x3e06ea1a	0.1317524
145	0x3d8d831a	0.06909771
146	0x3eb0ed76	0.34556168
147	0x3e686dbc	0.2269811
148	0xbe3d49a1	-0.18485118
149	0x3dc0545e	0.09391092
150	0x3c4f2b69	0.012644627
151	0x3da4ee9a	0.08053322
152	0x3dd7747e	0.10520266
153	0xbe5de5da	-0.21669713
154	0x3d580d93	0.05274732
155	0x3eec75b2	0.46183544
156	0x3e80edd4	0.25181448
157	0x3e1d7392	0.15376118
158	0x3dbe54b3	0.09293499
159	0xbd96240d	-0.07331095
160	0x3e281dea	0.16417661
161	0x3e9887ef	0.2979121
162	0x3ed9cbf5	0.4253842
163	0x3e515522	0.20442632
164	0x3dad9aed	0.084768154
165	0x3e165039	0.1467904
166	0xbe9bcbbb	-0.30428872
167	0x3e8bfcfd	0.27341452
168	0x3d04fd1d	0.03246795
169	0xbead8a2e	-0.33894485
170	0x3cfe503e	0.031044122
171	0xbe459f66	-0.19299087
172	0x3d5498cd	0.051903535
173	0xbe2fb1bc	-0.17157644
174	0xbdfb9a05	-0.12285236
175	0x3e5186d8	0.20461595
176	0x3e3dc657	0.18532692
177	0xbd5b8558	-0.053593963
178	0x3e41d38e	0.18928358
179	0x3e4590d4	0.19293529
180	0x3d36c391	0.0446201
181	0xbc9bd1a8	-0.01902087
182	0x3e44f5cf	0.19234394
183	0x3dda60b0	0.10662973
184	0x3d569f8e	0.052398257
185	0x3cc816ea	0.024424989
186	0x3d8a926f	0.06766211
187	0x3f0139c0	0.50478745
188	0xbd2ae86a	-0.041725554
189	0xbe4f1936	-0.20224461
190	0x3e1e69ff	0.15470122
191	0x3e6815e7	0.22664605
192	0xbaec7c7e	-0.0018042473
193	0x3db88ab0	0.090108275
194	0xbcd4de3a	-0.025984872
195	0x3ddcbafc	0.10777852
196	0xbd8e62bb	-0.06952425
197	0xbe36f66d	-0.17867441
198	0x3cd74183	0.026276356
199	0x3dee0617	0.11622255
200	0x3c32b277	0.010906807
201	0x3d995c01	0.074882515
202	0xb987714b	-0.00025833616
203	0x3c8fd29a	0.017556477
204	0xbdb63746	-0.08897261
205	0x3df4b112	0.11947836
206	0x3d07f261	0.033190135
207	0xbe0c8c87	-0.13725482
208	0x3d604182	0.054749973
209	0xbea6ac41	-0.32553294
210	0x3e08ce35	0.13359912
211	0xbd8535b6	-0.06504385
212	0x3d8f566e	0.06998907
213	0x3ed71b9d	0.42013255
214	0x3c52a438	0.012856536
215	0xbbdf96b8	-0.006823387
216	0x3db6ec98	0.089318454
217	0x3bf082c0	0.0073398054
218	0x3ef29f2c	0.47387064
219	0x3e53650b	0.20644014
220	0xbe4c1fb6	-0.19933972
221	0x3e6ce7f6	0.23135361
222	0x3d881f70	0.06646621
223	0x3df0d3de	0.117591605
224	0x3cf69c25	0.030103752
225	0xbe966e0a	-0.29380828
226	0xbc426ff1	-0.011867509
227	0x3dcdb55b	0.100443564
228	0x3af248da	0.0018484846
229	0x3b7e3914	0.0038791345
230	0x3ea83ae5	0.32857433
231	0xbd96c284	-0.0736132
232	0x3da8f4ba	0.08249803
233	0x3de991e8	0.114047825
234	0x3c9253f6	0.017862301
235	0x3d48b2c2	0.0489986
236	0x3de18cf3	0.11013212
237	0xbd4fc82c	-0.05072801
238	0x3e14ad0c	0.14519137
239	0x3e067fd0	0.13134694
240	0x3ed07763	0.40716085
241	0x3e032b96	0.12809595
242	0xbdd96c1e	-0.10616325
243	0x3d1e466c	0.03864138
244	0x3d95f226	0.07321577
245	0x3db24888	0.087052405
246	0x3e0ce054	0.1375745
247	0xbed3bdb8	-0.4135568
248	0x3e603f28	0.21899092
249	0xbc056319	-0.0081413025
250	0xbe8380be	-0.2568416
251	0xbcd7385b	-0.02627199
252	0x3e0f8221	0.14014484
253	0x3e895b2c	0.2682737
254	0x3db574f0	0.08860195
255	0x3e0eb030	0.13934398

fc2.weight f4 [128, 256]
0	0xbc4aa3a5	-0.012368117
1	0xbe694cfb	-0.22783272
2	0x3e07986a	0.13241735
3	0x3d07fa1f	0.03319752
4	0xbe205b39	-0.15659799
5	0x3e00109e	0.12506339
6	0x3cbad202	0.022805218
7	0x3e1ad265	0.15119322
8	0xbe192664	-0.14956051
9	0x3ded474f	0.11585867
10	0x3db24317	0.087042026
11	0x3e22f593	0.15913992
12	0x3e0b8d70	0.13628173
13	0xbda3556f	-0.079752795
14	0x3d44e328	0.048068196
15	0x3c810f91	0.015754493
16	0x3ea66b9d	0.32503977
17	0xbd900976	-0.070330545
18	0x3dec5f10	0.11541569
19	0xbe56d0d7	-0.20978104
20	0x3db72370	0.08942306
21	0x3e1af396	0.15131983
22	0xbd5554a0	-0.052082658
23	0x3ea44fd2	0.32092148
24	0x3e295c3a	0.16539088
25	0xbe17f178	-0.14838207
26	0xbd211ea3	-0.039335858
27	0xbdbeb676	-0.093121454
28	0xbd600b2b	-0.05469815
29	0xbd8d1b5a	-0.068899825
30	0xbdb84bcc	-0.08998832
31	0x3dbeba08	0.093128264
32	0x3e2c7a33	0.1684349
33	0xbe9d74d9	-0.3075321
34	0x3dddf3c2	0.10837509
35	0x3e52edef	0.20598577
36	0xbe3412df	-0.17585324
37	0xbe9f1449	-0.31070164
38	0x3dac51e7	0.08414059
39	0xbe1036cb	-0.14083402
40	0x3dfc40dc	0.123170584
41	0xbdbffd18	-0.09374446
42	0x3e6c0b9a	0.230513
43	0xbdcc4143	-0.09973385
44	0xbe2746ee	-0.16335651
45	0xbe9dc24e	-0.30812305
46	0x3e6ee5bf	0.23329829
47	0xbe0d60e2	-0.13806489
48	0x3e1e6704	0.15468985
49	0x3da67e19	0.0812952
50	0x3bae0620	0.0053107888
51	0xbd64fb76	-0.055903874
52	0xbe5b8c9e	-0.2144036
53	0x3dad4d9b	0.08462068
54	0x3e0f9ed7	0.14025436
55	0xbe6bd5cd	-0.23030777
56	0x3bc534be	0.0060182502
57	0x3de22862	0.11042859
58	0xbe5dd492	-0.2166312
59	0xbe8b340c	-0.27188146
60	0x3e0a8b82	0.1352978
61	0xbe5c70e1	-0.21527435
62	0xbe37c9c0	-0.17948055
63	0x3d6d53a1	0.057941083
64	0x3d970934	0.07374802
65	0x3e0eb0fa	0.13934699
66	0x3d6a420f	0.057191905
67	0xbd88bd15	-0.066766895
68	0x3d374d0c	0.044751212
69	0x3dc6d00c	0.097076505
70	0x3d03d349	0.03218392
71	0x3d959206	0.073032424
72	0x3f281b9f	0.65667146
73	0xbd558881	-0.052132133
74	0x3d059d12	0.032620497
75	0xbe750740	-0.23928547
76	0xbd8dd2e8	-0.06924993
77	0x3eb58dd7	0.35459778
78	0x3d894781	0.067030914
79	0xbd9cc61d	-0.076549746
80	0xbe1072c8	-0.14106286
81	0x3df2e7df	0.11860632
82	0x3aed7ed8	0.0018119467
83	0xbdf3095b	-0.11867019
84	0xbdb75cce	-0.08953248
85	0x3e0d26e1	0.13784362
86	0xbe0eb939	-0.13937844
87	0x3d8dadcd	0.069179155
88	0xbd931b16	-0.071829006
89	0x3cc72a17	0.024312062
90	0x3e448e02	0.19194797
91	0xbdb7854a	-0.0896097
92	0xbf24c122	-0.643572
93	0xbcea952a	-0.02863558
94	0xbc0fab43	-0.008768859
95	0xbe858fe2	-0.26086336
96	0xbd96861c	-0.07349798
97	0xbf49b076	-0.78784883
98	0x3e6e1726	0.23251018
99	0xbe6e68d9	-0.23282184
100	0x3c5d8bb8	0.013522081
101	0x3e352ca2	0.17692807
102	0xbeb015d0	-0.34391642
103	0xbd1a3f26	-0.03765788
104	0xbcc81027	-0.024421765
105	0x3eb3949f	0.35074326
106	0x3d924d0a	0.071436
107	0x3b80afbb	0.0039271987
108	0xbbda31c9	-0.006658767
109	0x3cd40416	0.025880855
110	0xbc06b6f3	-0.008222329
111	0xbf2f8938	-0.68568754
112	0xbe8195f3	-0.25309715
113	0x3e5425fb	0.20717613
114	0x3dd16929	0.10225136
115	0xbcbc7eb3	-0.023009634
116	0x3e20c188	0.15698826
117	0x3dc7236f	0.09723555
118	0x3e1ea2bc	0.15491766
119	0x3eb0c5d5	0.34525934
120	0xbd62cce9	-0.0553712
121	0x3f0a011f	0.5390796
122	0xbcb42558	-0.021990463
123	0x3e25db88	0.16197026
124	0x3ea6e1ee	0.32594246
125	0x3d876050	0.06610167
126	0xbf22b2c9	-0.63554054
127	0x3ddd0a4e	0.10792981
128	0x3e0560b1	0.13025166
129	0x3dfd4a91	0.12367738
130	0xbf2a88bc	-0.6661489
131	0x3e779e4d	0.2418148
132	0x3de02fa9	0.109465905
133	0xbf106575	-0.5640481
134	0x3e5f249f	0.21791314
135	0x3db5a4a0	0.0886929
136	0x3e7fa2df	0.24964474
137	0x3e9cfb9b	0.3066071
138	0xbdbcc643	-0.09217503
139	0x3d292c63	0.041302096
140	0xbeee535c	-0.46547973
141	0x3e5b2f83	0.21404843
142	0xbd9a7eb2	-0.075436965
143	0x3ccc4273	0.02493403
144	0xbd413a51	-0.047174755
145	0x3d9c6d08	0.076379836
146	0x3e016902	0.12637714
147	0xbd7b99c7	-0.06142595
148	0x3e22a05f	0.15881489
149	0x3ec6ed92	0.38853127
150	0x3e8a0924	0.269601
151	0xbe87e1d1	-0.26539472
152	0xbe821805	-0.2540895
153	0xbdba1469	-0.09085924
154	0x3e0d217b	0.13782303
155	0x3e2a7f81	0.16650201
156	0x3e301b00	0.171978
157	0x3dbe3a64	0.09288481
158	0x3e2d126b	0.16901557
159	0x3d34bfb7	0.044128146
160	0x3e2db65d	0.16964097
161	0xbe798d46	-0.24370298
162	0xbee25853	-0.4420801
163	0xbe898753	-0.26861057
164	0x3eabbd41	0.33542827
165	0xbcd2d74d	-0.025737429
166	0x3e23d15f	0.15997837
167	0xbf18ea20	-0.59732246
168	0xbdd4c95e	-0.1038997
169	0xbc92d955	-0.017925898
170	0xbe4f6b83	-0.20255856
171	0x3e9ebbeb	0.31002745
172	0x3cfcf80a	0.030879993
173	0x3e5624f3	0.20912533
174	0xbc0b963d	-0.008519706
175	0x3d98766e	0.07444464
176	0x3b9b647e	0.004742204
177	0xbe62d4d7	-0.22151504
178	0x3aaf551e	0.0013376807
179	0x3d829941	0.06376887
180	0xbdd91f3d	-0.10601661
181	0xbdeda6e9	-0.11604101
182	0x3da9f53e	0.08298729
183	0xbe627a31	-0.22116925
184	0xbd2a315e	-0.041550986
185	0xbe8689c8	-0.26276994
186	0xbb9c874d	-0.0047768713
187	0xbe153b23	-0.1457334
188	0x3e32a060	0.1744399
189	0x3bcfad41	0.006337792
190	0x3e5739a3	0.2101808
191	0xbec16de0	-0.3777914
192	0x3f06a1e2	0.52590764
193	0x3d1d7af6	0.038447343
194	0xbd8bedad	-0.068324424
195	0xbe1bd2d4	-0.15217143
196	0x3e22ada5	0.15886553
197	0x3ea5a609	0.32353237
198	0x3db4324a	0.087986544
199	0x3db10c81	0.08644963
200	0xbc8fb88c	-0.017544053
201	0x3e39b1ab	0.18134181
202	0xbc8c95fd	-0.017161364
203	0x3d9423d9	0.072334
204	0x3d70833e	0.058718912
205	0xbe615752	-0.22005966
206	0x3e41333d	0.18867202
207	0x3d70f6db	0.05882917
208	0xbd0b800f	-0.034057673
209	0x3e3fab18	0.18717611
210	0x3cdb643a	0.02678119
211	0xbda1889f	-0.078873865
212	0x3c7697b3	0.015050816
213	0x3dbe8bad	0.09303985
214	0xbe08a671	-0.13344742
215	0xbcd1cc54	-0.025610127
216	0xbe14bb2c	-0.14524525
217	0x3eb033f5	0.3441464
218	0xbd446295	-0.047945578
219	0x3e4053b8	0.18781936
220	0x3e5f2af5	0.2179373
221	0x3cc1a7a5	0.02363951
222	0xbcc7f4d7	-0.02440874
223	0xbe245b59	-0.16050471
224	0xbc9c1006	-0.01905061
225	0x3e1d2ef6	0.15349945
226	0x3e5366ab	0.20644633
227	0x3d987c45	0.074455775
228	0x3c1bc1bd	0.00950664
229	0x3d8e3c49	0.06945092
230	0xbde33ddd	-0.11095784
231	0xbe21b19e	-0.15790412
232	0x3cd4f2b6	0.02599464
233	0xbdabc819	-0.08387775
234	0x3e695ec2	0.22790053
235	0xbcfc0f07	-0.030768884
236	0x3e2a8bf7	0.16654955
237	0x3ca43014	0.020042457
238	0x3eeef0f0	0.46668196
239	0x3e7fec6a	0.24992529
240	0xbe6f00f2	-0.23340204
241	0x3da4ba80	0.080433846
242	0x3c39a8c4	0.011331741
243	0x3dcebc63	0.10094526
244	0xbdfb4e7d	-0.1227083
245	0x3e13cb05	0.14432915
246	0xbcaec8b4	-0.021335937
247	0xbed0b914	-0.40766203
248	0xbed0e9de	-0.40803427
249	0xbe253b83	-0.16135983
250	0x3e0e2a30	0.13883281
251	0x3e8cc347	0.27492735
252	0x3d71a896	0.058998667
253	0x3d2c0379	0.0419955
254	0xbe76dc90	-0.24107575
255	0xbd7a4c2e	-0.061107807

fc2.bias f4 [128]
0	0xbde12847	-0.109940104
1	0xbe8018d5	-0.25018945
2	0xbda20116	-0.079103634
3	0x3e60f438	0.21968162
4	0xbe21af9d	-0.15789647
5	0x3c0dc1cb	0.008652161
6	0x3ca7a8fb	0.020466318
7	0xbccc2758	-0.024921104
8	0x3e15a835	0.14614947
9	0x3d4efad8	0.050532192
10	0xbcdfe6d9	-0.027331756
11	0xbda62911	-0.081133015
12	0xbd0ba06c	-0.034088537
13	0x3dde78e8	0.10862905
14	0xbe12c208	-0.1433183
15	0x3d972a4b	0.073811136
16	0xbe10660d	-0.1410143
17	0x3e6563f7	0.22401415
18	0xbd0201be	-0.031739943
19	0x3d681e3d	0.056669462
20	0x3db02ca3	0.08602264
21	0xbd30ab3e	-0.04313206
22	0x3e5cf925	0.21579416
23	0x3d36de43	0.04464556
24	0xbbccf85a	-0.0062551918
25	0x3e095408	0.13410962
26	0xbdf4f093	-0.119599484
27	0x3d0f0500	0.034916878
28	0x3db253b9	0.08707375
29	0x3e3104fd	0.17287059
30	0x3e0e03b6	0.13868603
31	0x3da5a9dd	0.080890395
32	0xbe089b5f	-0.1334052
33	0x3d303a64	0.043024436
34	0x3c27dfc6	0.010246223
35	0xbe3bfaa9	-0.18357338
36	0xbdaa3535	-0.0831093
37	0x3e3bf98d	0.18356915
38	0x3df41345	0.11917738
39	0xbe9efc0d	-0.31051674
40	0x3d9edd9b	0.07757112
41	0x3cb4b3cb	0.022058388
42	0x3e8f5a87	0.27998754
43	0xbdf49b7b	-0.11943718
44	0x3e272d40	0.16325855
45	0x3e430373	0.19044285
46	0x3dd0c62c	0.10194048
47	0x3df34206	0.11877827
48	0xbe02647d	-0.12733646
49	0x3b0b205e	0.002122901
50	0x3d8b7ad0	0.06810534
51	0xbe3c5d5a	-0.18394986
52	0xbd5949f3	-0.05304904
53	0x3d764b45	0.060130376
54	0xbdc27c61	-0.0949638
55	0xbd4bf3ac	-0.04979293
56	0xbe3a777f	-0.18209647
57	0x3dc1e941	0.09468318
58	0x3d1a69cc	0.037698552
59	0x3dbb5bb7	0.091483526
60	0x3da0d4a5	0.07853059
61	0xbd0387c7	-0.03211191
62	0x3e984780	0.2974205
63	0xbc960362	-0.01831216
64	0x3e836b27	0.25667688
65	0xbc7fc8d2	-0.015611844
66	0x3b924996	0.0044643385
67	0x3d636237	0.055513587
68	0xbdd412b7	-0.10355132
69	0xbe1576f6	-0.14596161
70	0xbd8704d0	-0.06592715
71	0xbc5571c5	-0.013027613
72	0x3d81a8fa	0.06331058
73	0x3e1adbfc	0.1512298
74	0xbdf71aec	-0.12065682
75	0x3b908434	0.004410291
76	0xbc811697	-0.015757842
77	0x3c486d1e	0.012233047
78	0xbd0ac0ab	-0.03387515
79	0x3e5ccdbe	0.2156286
80	0xbdbe3c2a	-0.09288819
81	0x3dd127c8	0.10212666
82	0xbe5e72c3	-0.21723466
83	0x3d87d6fb	0.06632801
84	0xbdcbbf49	-0.09948594
85	0xbd3806f7	-0.044928517
86	0xbb220d22	-0.0024727066
87	0x3e68eaa0	0.22745752
88	0xbb9eccc6	-0.0048461882
89	0xbdaec24f	-0.08533155
90	0x3e7e8562	0.24855569
91	0x3e6d215b	0.23157255
92	0x3d39244d	0.045200635
93	0x3c9dc5a4	0.019259281
94	0x3e0e27e9	0.13882412
95	0x3ad70479	0.0016404531
96	0x3d9e5d0f	0.07732593
97	0xbced011b	-0.028931191
98	0x3d9f480f	0.07777416
99	0x3ca1014c	0.019653939
100	0xbb85710e	-0.004072315
101	0xbcd4ee03	-0.0259924
102	0x3e8e93ad	0.27847043
103	0xbe084538	-0.13307655
104	0x3c0460aa	0.008079687
105	0x3d12ab55	0.035807926
106	0xb9f2d630	-0.0004631742
107	0x3d3c94ca	0.046040334
108	0x3e02e966	0.12784347
109	0x3d42d6a7	0.04756799
110	0xbe0c2ce9	-0.13689007
111	0xbdf407af	-0.11915528
112	0xbc3a3e41	-0.011367382
113	0x3c3e2b9f	0.01160708
114	0x3e013b0a	0.12620178
115	0xbde21984	-0.11040023
116	0xbca957a6	-0.020671677
117	0x3dd2119d	0.10257266
118	0x3ddd58ce	0.10807954
119	0x3e23ee95	0.1600898
120	0xbcac66d1	-0.02104512
121	0x3d0256a9	0.031820927
122	0x3d18ed7a	0.03733585
123	0x3d6cd8a3	0.05782379
124	0x3dc096cb	0.094037615
125	0xbc8ef622	-0.01745135
126	0xbd42d9a9	-0.04757086
127	0x3e266e54	0.16253024

fc3.weight f4 [4, 128]
0	0xbdc5df60	-0.09661746
1	0xbee89876	-0.45428818
2	0xbe2de2e3	-0.16981082
3	0x3f5ede17	0.8705763
4	0x3e871770	0.2638507
5	0xbea8b579	-0.32950953
6	0x3eb6d03a	0.3570574
7	0x3f0eedac	0.5583141
8	0xbeda492c	-0.4263395
9	0xbe1ab282	-0.15107158
10	0x3e77cb21	0.24198581
11	0xbd993e34	-0.074825674
12	0xbf0f3805	-0.55944854
13	0xbecd2178	-0.40064597
14	0xbe9cf10c	-0.30652654
15	0x3f2b9b73	0.6703407
16	0x3f03164f	0.51205915
17	0x3e98d6e8	0.2985146
18	0xbb1db2f2	-0.0024062959
19	0x3bef68d5	0.007306198
20	0x3f0d90fa	0.5529934
21	0xbf4ba002	-0.7954103
22	0x3ec03456	0.3753993
23	0xbe64afbf	-0.22332667
24	0xbedf8475	-0.43655744
25	0x3f1282d3	0.5723087
26	0xbe7466fb	-0.23867409
27	0xbba8f9ed	-0.0051567466
28	0x3e6c04e7	0.23048745
29	0x3ebb7aa7	0.36617014
30	0xbe7b0c4f	-0.24516414
31	0x3e46034c	0.19337195
32	0x3ebb670d	0.3660206
33	0xbeaba81f	-0.33526704
34	0xbf5eaf5b	-0.8698632
35	0xbe920f4b	-0.28527293
36	0xbeecea48	-0.46272492
37	0xbe96d3f6	-0.29458588
38	0x3f1f0f86	0.6213306
39	0xbe67772a	-0.22604051
40	0x3f4122b1	0.7544356
41	0xbf091445	-0.53546554
42	0x3f3e4754	0.7432759
43	0xbed144dd	-0.4087285
44	0xbeb1d7fd	-0.34735098
45	0x3e77070e	0.24123785
46	0x3ef3f175	0.47645155
47	0xbe3f8f15	-0.18706925
48	0x3f2ce1f6	0.6753229
49	0xbe93bbec	-0.2885431
50	0xbe514664	-0.20437008
51	0xbee89d1f	-0.45432374
52	0xbe8c4f07	-0.27404043
53	0xbf20059b	-0.62508553
54	0x3f0bc2a9	0.545939
55	0x3ebf6781	0.37383655
56	0x3eea63d7	0.45779297
57	0xbe4e6691	-0.20156313
58	0xbefe9c90	-0.49728823
59	0xbde97c49	-0.11400659
60	0xbe7e3476	-0.248247
61	0x3f28a51e	0.6587695
62	0x3e78d0c4	0.24298388
63	0xbdcf85ae	-0.10132919
64	0xbe88ca66	-0.26716918
65	0xbd1ac72e	-0.03778761
66	0x3eb9361c	0.36174095
67	0xbea3e2ac	-0.32008874
68	0xbe6cebe9	-0.23136868
69	0x3e0d84c8	0.13820183
70	0xbcecdc40	-0.028913617
71	0x3ea84cb5	0.32871023
72	0xbe6a6a29	-0.2289206
73	0xbe1b8988	-0.15189183
74	0xbed382e4	-0.413108
75	0x3e066f99	0.13128509
76	0xbecd7e41	-0.40135387
77	0xbee866ae	-0.45390838
78	0x3f2350e1	0.63795286
79	0x3eda4a70	0.42634916
80	0xbf10d4d0	-0.56574726
81	0xbd92316b	-0.07138332
82	0x3e32224e	0.17395899
83	0xbebf2b04	-0.37337506
84	0xbec841b9	-0.39112642
85	0xbca28f73	-0.019843793
86	0xbe68af45	-0.2272311
87	0x3eb56945	0.35431877
88	0x3f371c5e	0.7152766
89	0xbe173ff6	-0.14770493
90	0x3ed28911	0.41120198
91	0xbebf0567	-0.3730881
92	0xbdad1349	-0.08450944
93	0xbf078f42	-0.5295297
94	0x3f5e2a6b	0.86783475
95	0x3f18f9a7	0.5975594
96	0xbf19e33e	-0.6011237
97	0xbd5f83c4	-0.05456902
98	0x3f029233	0.5100433
99	0x3ece8c5a	0.40341455
100	0x3eaaa92c	0.33332193
101	0xbe70815c	-0.23486847
102	0x3ee8e737	0.45488903
103	0xbef57e1e	-0.47947782
104	0xbe632319	-0.22181357
105	0x3e3a058d	0.1816618
106	0x3f1f0c53	0.6212818
107	0xbeead0f6	-0.4586255
108	0xbee200c2	-0.44141203
109	0xbd4ce3e2	-0.050022013
110	0x3f31f1aa	0.69509375
111	0xbeca3ea4	-0.39500916
112	0x3e42c9c2	0.19022277
113	0xbe794d21	-0.24345829
114	0x3f4c4145	0.79787093
115	0xbf7c3985	-0.9852527
116	0x3d473352	0.048632927
117	0xbe91c74f	-0.28472373
118	0xbe52695d	-0.20548005
119	0x3f48f20a	0.7849432
120	0xbceb8d19	-0.028753804
121	0x3eeeab8f	0.46615264
122	0x3f318738	0.6934695
123	0x3f649cbe	0.8930167
124	0xbe42e634	-0.19033128
125	0xbf29bd2a	-0.66304266
126	0x3e478512	0.19484356
127	0x3f79c280	0.9756241
128	0x3e7a9555	0.24471028
129	0xbf16e176	-0.58937776
130	0xbf0b4a6d	-0.5441044
131	0x3f37f438	0.71857023
132	0xbf531edf	-0.8246898
133	0xbda28bd7	-0.079368286
134	0x3f1c4909	0.6104894
135	0x3d8f8d17	0.070093326
136	0xbef5e7e2	-0.48028475
137	0xbe0f0771	-0.13967682
138	0x3df5f94f	0.120104425
139	0x3e5e776e	0.21725246
140	0xbf1c35f5	-0.6101983
141	0xbebcb23b	-0.3685473
142	0xbf0e6b85	-0.5563281
143	0x3f2c6733	0.6734497
144	0xbf063fdf	-0.5244121
145	0xbe659f0d	-0.22423954
146	0x3d338e27	0.04383674
147	0xbe23d80c	-0.16000384
148	0x3f02d092	0.51099503
149	0xbf019315	-0.50615054
150	0x3f057b21	0.52141005
151	0xbe8e81b1	-0.27833322
152	0xbeb46d88	-0.35239816
153	0x3f4698aa	0.77576697
154	0xbed015bd	-0.40641585
155	0x3dd7f110	0.10544026
156	0xbe488cf0	-0.19585013
157	0x3f42bfe3	0.76074046
158	0x3dd78f5d	0.10525391
159	0xbe055fba	-0.13024798
160	0xbf1eedee	-0.620818
161	0xbe85cedc	-0.26134384
162	0xbeb5fd13	-0.35544643
163	0xbe8aa8f7	-0.27082035
164	0xbe038ac5	-0.12845905
165	0xbec66f46	-0.3875677
166	0x3ee04d23	0.4380885
167	0x3f54d3a3	0.8313543
168	0x3f1761f5	0.59133846
169	0xbf1e234a	-0.61772597
170	0x3f3ee367	0.7456574
171	0xbea69a70	-0.325397
172	0xbed1908b	-0.4093059
173	0x3f0581b3	0.5215103
174	0x3d93e5c3	0.07221558
175	0xbe9ca017	-0.3059089
176	0x3f0a2851	0.5396777
177	0xbf01b5e4	-0.5066817
178	0xbebb3223	-0.3656169
179	0xbe4240c6	-0.18970022
180	0x3cd463ab	0.025926432
181	0xbed6e64d	-0.4197258
182	0x3e6aa7ef	0.22915624
183	0x3ea83fa6	0.3286106
184	0xbebf27cb	-0.37335047
185	0xbe5e8629	-0.21730866
186	0xbefafa30	-0.49019003
187	0xbdfdc1d1	-0.12390483
188	0xbee6de86	-0.45091647
189	0x3d9d1ac7	0.07671123
190	0x3f50ae85	0.81516296
191	0x3e5f1900	0.2178688
192	0xbde3aa42	-0.111164585
193	0x3e15c54b	0.14626043
194	0x3ed1671a	0.40898973
195	0xbef53a5d	-0.4789609
196	0xbe77ed71	-0.2421167
197	0x3ee61333	0.44936523
198	0x3f690c85	0.9103473
199	0x3ed77a47	0.42085478
200	0xbe600c19	-0.21879615
201	0xbf25dd0f	-0.64790434
202	0x3ed3c0ad	0.41357937
203	0x3eac505b	0.33655056
204	0xbec86847	-0.39142057
205	0xbf4b8e2f	-0.7951383
206	0x3f729c6d	0.94769937
207	0x3f1a2eed	0.60227853
208	0xbf575dba	-0.8412739
209	0x3f0477fa	0.5174557
210	0xbef11b4b	-0.47091135
211	0xbe8465db	-0.2585896
212	0xbe051677	-0.12996851
213	0xbebd4b7c	-0.36971653
214	0x3ec26a9d	0.37971964
215	0x3ebc022f	0.36720416
216	0x3f394a68	0.7237916
217	0xbe511332	-0.20417479
218	0x3f84052a	1.0314076
219	0xbef7f3ce	-0.48428196
220	0xbddefc2a	-0.1088794
221	0xbe92d6bd	-0.28679457
222	0x3f061f8c	0.52391887
223	0x3e88584d	0.26629868
224	0xbee418dc	-0.44550216
225	0xbddbdc4d	-0.107353784
226	0x3f2a2f4e	0.6647843
227	0x3ed97e31	0.4247909
228	0x3eb81bf2	0.3595882
229	0x3b33cb1c	0.0027434295
230	0x3f57fc46	0.84369314
231	0xbde3f78e	-0.11131202
232	0xbe5a0cbc	-0.2129392
233	0x3f2ab4f0	0.6668234
234	0x3f1c9b04	0.61174035
235	0xbf047fb6	-0.5175737
236	0xbf09626f	-0.5366582
237	0x3cbb4523	0.022860115
238	0x3f297beb	0.6620471
239	0xbf59cd5f	-0.85078996
240	0x3dcc1094	0.099640995
241	0xbdefa33e	-0.11701058
242	0x3f0a18be	0.53944004
243	0xbeb5b734	-0.35491335
244	0xbda24b67	-0.07924538
245	0xbe87d269	-0.26527718
246	0xbed49cb3	-0.41525802
247	0x3f0aef6a	0.54271567
248	0xbe2b0244	-0.16700083
249	0x3eebfc20	0.46090794
250	0x3f320eeb	0.69554013
251	0x3f4875b1	0.7830458
252	0xbe93cd46	-0.2886755
253	0xbefe81f9	-0.49708536
254	0xbf0e1294	-0.554971
255	0x3f286faf	0.65795416

fc3.bias f4 [4]
0	0xbca0f1ca	-0.019646544
1	0xbdc00dcb	-0.09377631
2	0x3bbdb42e	0.0057893014
3	0xbc6c5921	-0.014425547

exp_avg f4 [256, 8]
0	0xba38543e	-0.0007031596
1	0x3c096fb6	0.00838845
2	0xbae1d681	-0.0017230065
3	0x3b0f05fb	0.0021823633
4	0x3c55dadf	0.013052671
5	0xbc903536	-0.017603498
6	0xbbfca593	-0.0077101677
7	0xbb91eaf2	-0.0044530565
8	0xbdb5ad5f	-0.088709585
9	0xbc3e9073	-0.011631119
10	0x3c6c3231	0.014416263
11	0xbcb1275d	-0.021625215
12	0x3caa5e48	0.02079691
13	0x3c0f82b4	0.008759189
14	0x3dd0d481	0.10196782
15	0x3d8ddcc2	0.06926872
16	0xbc077ddb	-0.008269752
17	0x3c9ba0bc	0.018997543
18	0xbba66000	-0.005077362
19	0x3c427f64	0.011871193
20	0xb8bb726b	-8.938167e-05
21	0xbc514b22	-0.012774261
22	0x3bd3d69a	0.0064647915
23	0x3b801d3b	0.0039097345
24	0x3cb11065	0.021614263
25	0x3b9176da	0.004439217
26	0x3c737259	0.014858806
27	0xbcbc4bc3	-0.022985345
28	0xbb12c5f0	-0.0022395812
29	0x3c2d986a	0.01059542
30	0x3b0f67cb	0.0021881934
31	0x3c061a28	0.008184947
32	0xbaa19ee0	-0.0012330674
33	0xbb15594c	-0.002278882
34	0xba7a408a	-0.000954636
35	0xbcba2903	-0.022724634
36	0xbcea6493	-0.02861241
37	0xbc2e8111	-0.010650889
38	0x3d03b4b0	0.03215474
39	0x3d0804d2	0.033207722
40	0x3d03b612	0.032156058
41	0xbc16394c	-0.009168934
42	0x3c2c242a	0.010506669
43	0xbc7a014f	-0.015259101
44	0xbbd87ef1	-0.0066069295
45	0x3cbd3e86	0.023101103
46	0x3c9bcaaf	0.019017546
47	0x3c8f8920	0.017521441
48	0xbb860928	-0.004090447
49	0xbcfe62c4	-0.031052954
50	0xbc811298	-0.015755937
51	0xbbd2e153	-0.006435552
52	0xbcbb6a15	-0.022877732
53	0x3b3bcf19	0.0028657375
54	0x3affa18f	0.0019503104
55	0x3c363be2	0.011122676
56	0x3c79d2c8	0.015248008
57	0x3bde256b	0.006779363
58	0x3b9f16ee	0.0048550284
59	0xbc82cd35	-0.015966991
60	0xbbc65367	-0.006052423
61	0x3c073d12	0.008254306
62	0x3cae925d	0.021310026
63	0x3bd32a8b	0.0064442805
64	0x3be75ea3	0.007060842
65	0x3c7d238e	0.015450371
66	0x3c94e47f	0.018175362
67	0xbca95b12	-0.020673309
68	0xbc0ec08c	-0.008712899
69	0x3cbe6cc5	0.023245225
70	0xbc385f7e	-0.011253236
71	0xb70b8ea1	-8.318254e-06
72	0xbba973e0	-0.005171284
73	0x3c97716e	0.018486705
74	0xbaa149f9	-0.0012305371
75	0xbc56aa68	-0.013102151
76	0x3c87b639	0.016566383
77	0xbc9518bf	-0.018200276
78	0xbc175419	-0.009236359
79	0x3a020714	0.0004960161
80	0x3c8ec869	0.017429547
81	0x3c09f372	0.008419858
82	0x3ace5ede	0.0015744825
83	0xbcd8ef92	-0.026481424
84	0x3bc3c4e6	0.0059744
85	0x3bf019c5	0.0073272907
86	0xbc142fbd	-0.009044585
87	0xba946cbd	-0.001132391
88	0x3cdf22cc	0.027238272
89	0xba1702d4	-0.00057606143
90	0x3b33fc7b	0.0027463723
91	0xbce481e9	-0.027893977
92	0xbc2f5e7f	-0.010703682
93	0xbacacfad	-0.0015473269
94	0x3ba84104	0.0051347036
95	0x3cd3fae3	0.025876468
96	0xbb9caf09	-0.004781608
97	0x3cdcd16c	0.026955329
98	0xbbcb9a27	-0.0062134448
99	0x3c44cf11	0.012012259
100	0x3ab03e95	0.0013446385
101	0xbc10968a	-0.008824954
102	0x3cf7fdb2	0.030272339
103	0xbbe303de	-0.0069279512
104	0xbd290c6b	-0.04127161
105	0x3cb6303b	0.022239795
106	0x3bab6a7c	0.0052312
107	0xbcd931fd	-0.026513094
108	0x3be412da	0.006960255
109	0xbd06a0bf	-0.032868143
110	0x3cfc9012	0.030830417
111	0xbb0414e9	-0.0020154065
112	0x3d25db11	0.04049212
113	0x3a300a59	0.0006715409
114	0xbca2dbee	-0.019880261
115	0xbcb96bde	-0.022634443
116	0x3b8f69b6	0.0043766154
117	0x3bb87cb0	0.0056300983
118	0xbca61aea	-0.020276506
119	0x3d2a85fa	0.041631676
120	0xbca3ed08	-0.020010486
121	0x3cc3a3de	0.023881849
122	0xbc51d991	-0.0128082195
123	0x3d688be3	0.05677403
124	0xbc1891e2	-0.009312125
125	0xbc98388e	-0.018581655
126	0xbba31f71	-0.0049781133
127	0xbc9c210d	-0.019058729
128	0xbc4b6a17	-0.0124154305
129	0x3a203109	0.00061108224
130	0x3bb07a4b	0.005385672
131	0x3912cc1b	0.0001399968
132	0x3cb6f3d1	0.022333058
133	0xbc0eef1d	-0.008724001
134	0xbc61c0bc	-0.013778862
135	0xbbdb0520	-0.0066839606
136	0x3be6e859	0.007046741
137	0xbbc8b779	-0.0061253873
138	0x3c3dd31f	0.01158598
139	0xbcb9fcd9	-0.022703575
140	0xbaaad212	-0.0013032577
141	0x3b0a5866	0.0021109818
142	0x3d030e2a	0.03199593
143	0xb96f0ec6	-0.0002279832
144	0x3c740e7f	0.014896034
145	0xbca0cdb3	-0.019629335
146	0x3bd0cfca	0.0063724266
147	0x3c604a50	0.0136895925
148	0xbc3cbb6f	-0.011519297
149	0x3bff05f9	0.0077826944
150	0x3c1787bd	0.009248671
151	0x3cec984a	0.02888121
152	0x3cf89759	0.030345606
153	0xbc619424	-0.01376823
154	0xbd064da0	-0.032788873
155	0x3c77bf48	0.015121289
156	0xbc035988	-0.008016951
157	0x3ccd1fc3	0.02503956
158	0x3c6c777a	0.014432782
159	0x3d051b59	0.032496784
160	0xbc13cdd8	-0.009021245
161	0x3beeb452	0.0072846795
162	0x3c6e43e9	0.014542558
163	0xbd21bf0c	-0.039488837
164	0xbbd31fb3	-0.006442988
165	0x3c1ac4fd	0.00944638
166	0x3cc1b608	0.02364637
167	0x3ba28ef4	0.004960889
168	0x3a35353e	0.0006912536
169	0x3b859262	0.004076288
170	0x3b7db18e	0.0038710567
171	0xbd537842	-0.05162836
172	0xbc87317e	-0.016503092
173	0x3ca90a4d	0.020634795
174	0x3caa4db8	0.020789012
175	0x3c8f519c	0.01749497
176	0x3d3f1dc4	0.046659246
177	0xbbafc11b	-0.005363596
178	0x3cb010ab	0.021492323
179	0xbd7bd702	-0.061484344
180	0x3c381af8	0.011236899
181	0x3c865700	0.016398907
182	0xb9421f4e	-0.00018512944
183	0x3ca0d4d9	0.019632744
184	0x3ce974e3	0.028498119
185	0x3b12a68f	0.0022377109
186	0x3bccf523	0.0062548085
187	0xbd0f84ea	-0.035038866
188	0x3cb8a242	0.022538308
189	0x3ba2959a	0.0049616816
190	0xbc31ec6b	-0.010859589
191	0x3c9f3c35	0.019437889
192	0x3d2c805f	0.04211461
193	0x3c23ff71	0.010009632
194	0x3c9fca17	0.019505544
195	0xbcd4ab59	-0.025960611
196	0x3c07d45d	0.008290377
197	0x3cfed544	0.031107552
198	0xbc821f5c	-0.015884094
199	0x3c4ff2fb	0.012692208
200	0xbcd08d83	-0.025458103
201	0x3c3e500b	0.011615763
202	0x3a1d84aa	0.0006008843
203	0xbcb70078	-0.02233909
204	0x3cbe9ab8	0.023267135
205	0xbd4e9f8f	-0.050445136
206	0x3c004a38	0.007830195
207	0xb97d957a	-0.00024183645
208	0xbc1e5c3a	-0.009665543
209	0x3cf7601f	0.030197201
210	0xbb442e43	-0.00299348
211	0x3ca5acee	0.02022406
212	0x36f3f09e	7.269976e-06
213	0xbb757b5d	-0.0037457563
214	0xbb8a46f1	-0.0042198827
215	0xbc2e9587	-0.010655767
216	0x3ce97a0f	0.028500585
217	0x3c004459	0.007828795
218	0x3b891707	0.0041836533
219	0xbda0e084	-0.07855323
220	0xbca1051f	-0.019655762
221	0x3c477617	0.012174151
222	0x3c77ce90	0.015124932
223	0x3c506c2f	0.0127211055
224	0xbbbac1b4	-0.0056993607
225	0x3c510028	0.012756385
226	0xbbd6664c	-0.0065429565
227	0xbb2e129a	-0.002656138
228	0x3be10b6b	0.006867816
229	0xbb926eb1	-0.004468762
230	0x3b068b03	0.0020529635
231	0xba2589b9	-0.0006314773
232	0xbd0d0164	-0.034425154
233	0xbd627778	-0.055289716
234	0xbc09cbcc	-0.008410405
235	0xbc62bf23	-0.013839516
236	0x3c4d6706	0.01253677
237	0xbd840d0b	-0.064478
238	0xbd220ead	-0.039564777
239	0x3d06db82	0.032924183
240	0xbb4c88b7	-0.0031209418
241	0xbcc845fa	-0.02444743
242	0x3c2e0d9d	0.010623363
243	0xbc16276f	-0.009164675
244	0xbbb52bc9	-0.0055289012
245	0x3b5afd3a	0.0033415095
246	0x3cfd7476	0.030939322
247	0x38b9e78f	8.8646186e-05
248	0x3be1b184	0.0068876166
249	0xbb9b6456	-0.0047421856
250	0xbba5ba42	-0.005057604
251	0x3b9f4fde	0.004861816
252	0xbb959d7e	-0.0045658937
253	0xbb33b0d0	-0.002741862
254	0xbc296ad8	-0.010340415
255	0x3c9dfb48	0.01928486

exp_avg_sq f4 [256, 8]
0	0x3b9634e9	0.004583944
1	0x3c57cb43	0.01317102
2	0x3b2a30da	0.002596906
3	0x3bf688bc	0.007523624
4	0x3bbffdd5	0.0058591166
5	0x3b917d70	0.004440002
6	0x3c34182f	0.010992094
7	0x3ac501a8	0.0015030401
8	0x3db2d7e9	0.08732588
9	0x3db889bd	0.090106465
10	0x3d230ded	0.039808203
11	0x3d1bfd98	0.038083643
12	0x3d3fa815	0.046791155
13	0x3df03cb9	0.11730332
14	0x3e3424e5	0.17592199
15	0x3e795c59	0.24351634
16	0x3aa3efdf	0.00125074
17	0x3c296816	0.010339757
18	0x3b0a538f	0.0021106934
19	0x3bc32252	0.005955019
20	0x3aafec2d	0.0013421826
21	0x3a81ec82	0.0009912404
22	0x39d3e1e2	0.00040413352
23	0x3acc082c	0.00155664
24	0x3b075a65	0.0020653245
25	0x3a3ea556	0.0007272562
26	0x3ad14e46	0.0015968762
27	0x3b47c1c1	0.0030480477
28	0x3ab3c247	0.0013714515
29	0x3b5a0579	0.0033267422
30	0x3ba2e0fe	0.004970669
31	0x3bce0d8a	0.006288235
32	0x3b7fb545	0.0039017957
33	0x3baf8da9	0.0053574634
34	0x3b899f1a	0.0041998746
35	0x3c2efd17	0.0106804585
36	0x3befaf7a	0.0073146196
37	0x3bdb9a8d	0.0067017735
38	0x3c1d4474	0.00959884
39	0x3c0e4d38	0.008685403
40	0x3b4c074b	0.0031132277
41	0x3a9e5134	0.0012078644
42	0x3b09bc0a	0.002101662
43	0x3ba7277e	0.0051011434
44	0x3b0f26a9	0.0021843112
45	0x3b8b2ab5	0.0042470344
46	0x3c2bc473	0.010483849
47	0x3ba683e0	0.0050816387
48	0x3b991152	0.004671254
49	0x3d1c10f0	0.03810209
50	0x3bcb84fa	0.0062109204
51	0x3c8fc48b	0.017549774
52	0x3c082477	0.008309475
53	0x3b8d18d2	0.0043059373
54	0x3b89856b	0.004196813
55	0x3b917a22	0.004439608
56	0x3a87c9b4	0.0010359795
57	0x3ad0b808	0.0015923986
58	0x3a601586	0.0008548129
59	0x3aec3cae	0.0018023455
60	0x3a622bd6	0.0008627748
61	0x3b0731b0	0.0020628981
62	0x3baf6315	0.0053523877
63	0x3b915f13	0.0044363826
64	0x3b75e81d	0.0037522383
65	0x3b752ac9	0.0037409535
66	0x3b4b4a9e	0.0031019817
67	0x3bf68a6e	0.0075238263
68	0x3b40d79a	0.0029425384
69	0x3b871a94	0.0041230414
70	0x3bebb809	0.0071935696
71	0x38f84351	0.000118381
72	0x3b126d68	0.0022343043
73	0x3b7e08ff	0.0038762686
74	0x3ad9eead	0.0016626917
75	0x3b84b00d	0.004049307
76	0x3b3805c7	0.0028079615
77	0x3b236a59	0.0024935214
78	0x3b9f3134	0.0048581604
79	0x3acfd076	0.0015854973
80	0x3aade410	0.001326682
81	0x3a23dfac	0.0006251286
82	0x3ad2c94e	0.0016081722
83	0x3b94520a	0.0045263814
84	0x3ae1c792	0.0017225614
85	0x3b38a6eb	0.0028175663
86	0x3b57a1c5	0.0032902819
87	0x3b7c79b5	0.0038524691
88	0x3b5b0712	0.0033420962
89	0x3ac10099	0.001472491
90	0x3b32d064	0.0027284855
91	0x3bf5ecb2	0.007505023
92	0x3b155943	0.00227888
93	0x3bb25eaf	0.005443416
94	0x3c7622ea	0.015022973
95	0x3c5b454f	0.013383224
96	0x3c041c40	0.008063376
97	0x3c93d47a	0.018045653
98	0x3c01efc4	0.0079307
99	0x3d011936	0.031518184
100	0x3c134c09	0.008990296
101	0x3bba8657	0.005692284
102	0x3bc90fe3	0.006135927
103	0x3b7f9b91	0.0039002637
104	0x3bc99379	0.0061516133
105	0x3b226792	0.002478097
106	0x3b55e60c	0.003263834
107	0x3c0478e0	0.0080854595
108	0x3bea2ab9	0.007146206
109	0x3babecf1	0.0052467515
110	0x3c04614b	0.008079837
111	0x3a8276a7	0.0009953574
112	0x3bd5f587	0.0065295133
113	0x3b280e54	0.0025643306
114	0x3bc6c4eb	0.006065955
115	0x3cae68c4	0.02129019
116	0x3c277dfa	0.010222906
117	0x3c5caf0f	0.013469472
118	0x3cdc4cb1	0.026892038
119	0x3cb2d4f7	0.021830065
120	0x3bdefb33	0.0068048476
121	0x3d2aff12	0.04174716
122	0x3c38de99	0.01128354
123	0x3d14ecd7	0.03635868
124	0x3bdc15d6	0.0067164702
125	0x3bbb042c	0.0057072844
126	0x3c0b8a45	0.008516853
127	0x3bff09bf	0.0077831442
128	0x3ab8868e	0.0014078186
129	0x38326a8e	4.2537744e-05
130	0x3a6f23e3	0.0009122474
131	0x3a800a2b	0.0009768655
132	0x3acffb3a	0.0015867718
133	0x3ab9baa7	0.0014170007
134	0x3b885c50	0.004161395
135	0x3b028cc7	0.0019920336
136	0x3bb6b032	0.0055752033
137	0x39eaf787	0.0004481638
138	0x3bc3f36b	0.0059799454
139	0x3cde2678	0.027117953
140	0x3c3cf237	0.011532358
141	0x3c10d38d	0.0088395
142	0x3cdb4b9d	0.026769454
143	0x3ac730bb	0.0015197018
144	0x3b9e514b	0.004831468
145	0x3d2f1a1f	0.04274952
146	0x3be29ed6	0.0069159074
147	0x3c9090cd	0.017647171
148	0x3be81bce	0.0070833927
149	0x3bdba1b9	0.0067026285
150	0x3c50337c	0.012707587
151	0x3bec8a43	0.0072186305
152	0x3cc2c119	0.023773717
153	0x3e17dac7	0.1482955
154	0x3c8540ad	0.016266191
155	0x3cfc0954	0.030766167
156	0x3cafd049	0.021461623
157	0x3ca51a43	0.020154124
158	0x3d7ad437	0.06123754
159	0x3d16b2d4	0.036791638
160	0x3ad64384	0.0016347026
161	0x397f85e8	0.00024368579
162	0x3aad4900	0.0013220608
163	0x3bd9982d	0.006640455
164	0x3b041384	0.0020153234
165	0x3a9f2705	0.0012142366
166	0x3b463739	0.0030245318
167	0x3b5daa6c	0.0033823503
168	0x3b96b2d2	0.0045989538
169	0x3a389c78	0.00070423586
170	0x3b85d974	0.0040847603
171	0x3c8359ba	0.016033996
172	0x3bf7248c	0.0075421985
173	0x3b70beb3	0.003673476
174	0x3c55bc17	0.013045332
175	0x3c274087	0.010208256
176	0x3bd8a478	0.006611403
177	0x3adcd9e9	0.001684961
178	0x3c27ea8b	0.0102487905
179	0x3d239620	0.039938092
180	0x3c197d6c	0.009368282
181	0x3c1a157e	0.009404538
182	0x3bff1f21	0.0077856933
183	0x3c82614d	0.015915537
184	0x3b4dcd7b	0.0031402993
185	0x39c642d0	0.00037815282
186	0x3b905289	0.00440437
187	0x3c86fc22	0.016477648
188	0x3b74dc83	0.003736288
189	0x3ba43366	0.00501101
190	0x3bfb704f	0.0076733003
191	0x3bfea0e7	0.007770646
192	0x3c0f12a8	0.008732475
193	0x3abbcea1	0.0014328548
194	0x3baae256	0.0052149696
195	0x3c5b8018	0.013397239
196	0x3bb0e7f6	0.0053987456
197	0x3c4c0310	0.012451902
198	0x3cac2f72	0.021018717
199	0x3c8becc5	0.017080674
200	0x3c12bd4a	0.008956263
201	0x3b4bf0f6	0.0031118966
202	0x3bb05748	0.0053814985
203	0x3c6fed9c	0.014644053
204	0x3c17df0f	0.00926949
205	0x3c6bdc0e	0.014395727
206	0x3d200337	0.039065566
207	0x3c2dd43f	0.010609685
208	0x3b4146a4	0.0029491568
209	0x3d0395fc	0.032125458
210	0x3ba70350	0.0050968304
211	0x3c7f3cd5	0.015578468
212	0x3b3a3b5f	0.0028416736
213	0x3b24c894	0.0025143968
214	0x3a0970f6	0.0005242968
215	0x3b95163b	0.004549769
216	0x3bad44d5	0.0052877464
217	0x3a65cc23	0.00087660755
218	0x3bc53a80	0.0060189366
219	0x3ca701b2	0.02038655
220	0x3c0aeb3c	0.008478936
221	0x3bbadcec	0.0057026055
222	0x3bba5674	0.0056865755
223	0x3c626b98	0.013819598
224	0x3a7d138d	0.00096540974
225	0x3be8fb84	0.007110061
226	0x3ac48d50	0.0014995728
227	0x3b9fb640	0.004874021
228	0x3abc865f	0.0014383307
229	0x3a929972	0.0011184646
230	0x3a2ec179	0.0006666403
231	0x39eaaefe	0.00044762337
232	0x3c7c78c0	0.015409648
233	0x3cca5fb1	0.024703832
234	0x3c078107	0.008270509
235	0x3b39b075	0.0028333936
236	0x3c364707	0.011125333
237	0x3d497392	0.049182482
238	0x3d3807c2	0.044929273
239	0x3c968602	0.018374447
240	0x3ae57712	0.0017506799
241	0x3b7f7b02	0.003898323
242	0x3af1c8f1	0.0018446726
243	0x3c14a155	0.009071668
244	0x3b38146f	0.0028088351
245	0x3b3452f1	0.0027515257
246	0x3c08f05e	0.008358089
247	0x39786636	0.000236892
248	0x3ad2b313	0.0016075097
249	0x3b01eab2	0.0019823727
250	0x3ad7aaf3	0.0016454145
251	0x3ba8af62	0.0051478604
252	0x3b5148f4	0.0031934353
253	0x3b5b9905	0.0033507955
254	0x3b93e7cc	0.0045137163
255	0x3b11b84f	0.00222351
