results/standard/models/checkpoint_ep700.pth (torch, 436170 bytes, 18 tensors)

fc1.weight f4 [256, 8]
0	0xbf681cc2	-0.9066888
1	0x3e41945d	0.18904252
2	0x3f28e13b	0.65968674
3	0x3ba2e799	0.0049714562
4	0xbe557939	-0.20847024
5	0x3ed719f0	0.42011976
6	0x3f31897d	0.69350415
7	0xbf2b8698	-0.6700225
8	0x3db91ede	0.090390906
9	0xbe8b007c	-0.27148807
10	0x3ebde72b	0.3709043
11	0x3f7292c4	0.94755197
12	0x3fb1138c	1.383409
13	0xbe1b9edc	-0.15197319
14	0x3e8876a0	0.26653004
15	0x3f0d0a08	0.5509343
16	0x3ef2cbaa	0.47421008
17	0x3e5278e0	0.20553923
18	0xbe850bc5	-0.25985542
19	0xbd555dee	-0.05209153
20	0xbee292e2	-0.44252688
21	0x3f3b0674	0.7305672
22	0xbf3ff217	-0.74978775
23	0x3f50dec4	0.81589913
24	0xbda18095	-0.07885853
25	0x3e41102c	0.18853825
26	0x3f1b9480	0.6077347
27	0x3dabb8a2	0.08384825
28	0x3fdba5dd	1.7159992
29	0xbf436d96	-0.7633909
30	0xbe247e4d	-0.16063805
31	0x3f091b9c	0.53557754
32	0x3fc4272d	1.5324455
33	0xbd668754	-0.056281403
34	0xbde671a9	-0.11252148
35	0xbe479498	-0.19490278
36	0xbf22d700	-0.63609314
37	0x3beef7a7	0.007292706
38	0x3e7a73dc	0.2445826
39	0x3d8b1490	0.06791031
40	0x3e97604e	0.29565662
41	0xbea11c79	-0.31467035
42	0xbfbe9b3b	-1.4891123
43	0x3ec48faa	0.38390857
44	0x3ecf5c55	0.4050013
45	0x3ebc9761	0.36834243
46	0x3e05977d	0.1304607
47	0x3e82d904	0.25556195
48	0xbe56d43b	-0.20979397
49	0xbda68874	-0.08131495
50	0x3f031b04	0.512131
51	0x3e636acb	0.22208707
52	0xbf34ef4e	-0.7067765
53	0xbd574f8d	-0.0525661
54	0x3d99bd94	0.07506862
55	0x3f0d9b77	0.55315346
56	0x3f37a2d5	0.71732837
57	0x3e8264e1	0.2546759
58	0xbe85a0bf	-0.26099202
59	0x3de2cbbd	0.11074016
60	0x3f8ef190	1.1167469
61	0xbdca27fe	-0.09870909
62	0xbd32cc27	-0.043651726
63	0x3ea25f7a	0.31713468
64	0xbf96fbfe	-1.1795652
65	0xbe902ce8	-0.2815926
66	0x3f3ed736	0.74547136
67	0xbf0206f8	-0.50791883
68	0x3f449c21	0.76800734
69	0x3e92860b	0.28617892
70	0x3e0f17f7	0.13973986
71	0xbfbe9b31	-1.4891111
72	0x3d11aacf	0.035563286
73	0xbdac4578	-0.084116876
74	0x3e9212c7	0.2852995
75	0xbffaf586	-1.9606178
76	0xbd6c6cc4	-0.057720914
77	0xbc23e5d3	-0.010003525
78	0x3e3b7955	0.18308003
79	0xbd4517e3	-0.048118483
80	0xbf2b9fa8	-0.6704049
81	0xbea84f64	-0.3287307
82	0xbcb38db7	-0.02191816
83	0xbf8bfb21	-1.0936013
84	0xbe296492	-0.16542271
85	0xbefa8c12	-0.4893499
86	0x3f90e53a	1.1319954
87	0xbf11944a	-0.56866896
88	0x3f141c46	0.5785564
89	0x3e2d9962	0.16953042
90	0x3e6edb0f	0.23325752
91	0xbedf3e93	-0.43602428
92	0x3fa808e9	1.3127719
93	0x3ce86908	0.028370395
94	0xbdf67f04	-0.12035945
95	0x3f0637e4	0.5242903
96	0xbf318764	-0.69347215
97	0x3e10e35e	0.14149234
98	0x3f00a532	0.5025207
99	0xbeb7fa0d	-0.3593296
100	0xbffde2ba	-1.9834816
101	0xbd9d7c52	-0.07689728
102	0xbf0fc2d5	-0.56156665
103	0xbe57e497	-0.21083294
104	0xbea4f450	-0.32217646
105	0xbf7818ae	-0.9691266
106	0x3eacbd17	0.33738014
107	0xbf2dc8c6	-0.6788448
108	0xbfdca85a	-1.7238877
109	0x3f8c0abd	1.0940777
110	0xbdf9c971	-0.12196625
111	0xbf55bb06	-0.834885
112	0x3fc6e9e2	1.5540125
113	0xbe718000	-0.23583984
114	0x3ea74aad	0.3267416
115	0xbe8687b0	-0.26275396
116	0xbee5bd43	-0.44870958
117	0x3dafbbc0	0.08580732
118	0xbc56052b	-0.013062756
119	0x3f533481	0.8250199
120	0xbdb251b2	-0.087069884
121	0x3fc682a6	1.5508621
122	0x3e68914d	0.22711678
123	0xbec04267	-0.3755066
124	0x3f5c314b	0.86012715
125	0x3f804780	1.002182
126	0xbe87f94b	-0.26557383
127	0xbeea2414	-0.4573065
128	0xbcd72662	-0.02626342
129	0xbfbdd1d4	-1.482966
130	0xbf8a2030	-1.0791073
131	0xbf8afbcb	-1.0858091
132	0xbf0d288d	-0.5514
133	0xbbbf6fe2	-0.005842195
134	0x3e020da6	0.12700519
135	0x3f296db4	0.6618302
136	0x3f5eb32d	0.8699215
137	0xbf809ef3	-1.0048507
138	0x3f134e7c	0.5754163
139	0x3f002c2a	0.5006739
140	0xbfa9a0cc	-1.3252196
141	0xbf625071	-0.88403994
142	0x3e20d930	0.1570785
143	0xbf09bc0e	-0.53802574
144	0xbd37599c	-0.044763193
145	0x3ed0a928	0.40754056
146	0x3ead1837	0.33807537
147	0x3de4762f	0.11155354
148	0xbfb32692	-1.3996146
149	0xbfa20ae0	-1.2659569
150	0x3eb7aa3b	0.35872063
151	0x3ef0343f	0.4691486
152	0x3d405165	0.046952624
153	0x3e956d38	0.2918489
154	0x3e90e482	0.28299338
155	0x3f5a967d	0.85385877
156	0xbf90f8a4	-1.1325879
157	0x3fcf3f87	1.6191262
158	0x3f758a54	0.95914197
159	0xbe9718c0	-0.2951107
160	0x3e11d81f	0.142426
161	0xbfe1325f	-1.7593497
162	0x3e80c97b	0.25153717
163	0xbf901861	-1.125744
164	0xbf5045e2	-0.8135663
165	0x3f1e86e2	0.61924565
166	0xbe9ffc91	-0.3124738
167	0x3f479cb0	0.7797346
168	0x3e7ffda0	0.24999094
169	0xbe3e9afe	-0.18613812
170	0x3f4247b8	0.75890684
171	0xbe201ea0	-0.15636683
172	0xbf379a51	-0.71719843
173	0x3f5b253e	0.856037
174	0x3d7fc2f6	0.06244179
175	0x3f890f56	1.0707805
176	0x3e111a3e	0.14170167
177	0xbfb7f26d	-1.4370857
178	0x3eef93a3	0.46792325
179	0xbeaa08ec	-0.33209932
180	0x3f9608c8	1.172143
181	0xbfc46809	-1.5344249
182	0xbfa0a99e	-1.2551763
183	0x3e5748c1	0.21023847
184	0x3f0b81ce	0.5449494
185	0xbf12599e	-0.57167995
186	0xbf303773	-0.6883461
187	0xbf79c230	-0.9756193
188	0x3f6b9e48	0.92038393
189	0x3fa23e22	1.2675211
190	0x3e987828	0.29779172
191	0xbec0d9be	-0.37666124
192	0xbe8ca6d2	-0.27471024
193	0x3d94e311	0.07269872
194	0xbf07e24a	-0.53079665
195	0xbf56855e	-0.8379725
196	0x3f88dcbc	1.0692363
197	0x3ee2d6dc	0.4430455
198	0xbe5b499d	-0.214148
199	0x3eb7372c	0.3578428
200	0xbf6106a0	-0.87900734
201	0xbf3ffbad	-0.749934
202	0x3efc7440	0.49307442
203	0x3fd64a24	1.6741376
204	0xbccb4372	-0.024812434
205	0x3d8310af	0.063996665
206	0x3f147f23	0.58006495
207	0xbf6d3062	-0.9265195
208	0x3d0df368	0.03465596
209	0x3e0954ae	0.13411209
210	0xbe9e23a7	-0.30886576
211	0xbf04cbc0	-0.518734
212	0x4007e1f9	2.1231673
213	0x3e75e13a	0.24011698
214	0xbfabcaf3	-1.342131
215	0x3e3c8e9c	0.18413776
216	0x3eb90e4d	0.36143723
217	0xbf8af059	-1.0854598
218	0x3f063eaf	0.524394
219	0xbe139d21	-0.14415409
220	0xbf6eea96	-0.933267
221	0xbeb75d75	-0.3581349
222	0xbfc9ff57	-1.5781049
223	0x3ec05adb	0.37569317
224	0xbdaaf57b	-0.08347603
225	0x3f1fc42a	0.624087
226	0xbd2c06e6	-0.041998766
227	0xbf6661d0	-0.89993
228	0xbca9d69d	-0.020732218
229	0xbde22dd5	-0.11043898
230	0xbf07722b	-0.5290858
231	0xbf6d8889	-0.9278646
232	0x3dc4f00f	0.096161
233	0x3ebe78d6	0.37201566
234	0x3efaaded	0.4896082
235	0x401163e9	2.271723
236	0x3faf9d65	1.3719908
237	0xbdc7358b	-0.097270094
238	0xbef146ac	-0.4712423
239	0x3e2e1646	0.17000684
240	0x3d485e3e	0.048918
241	0x3eca05f5	0.3945767
242	0x3ec3804e	0.38183826
243	0x3ebb4367	0.3657486
244	0xbf276060	-0.6538143
245	0xbf769048	-0.96313906
246	0x3ec5dcc1	0.38644984
247	0xbfe904ed	-1.8204628
248	0xbf9f9ad4	-1.2469125
249	0x3f0ae790	0.54259586
250	0xbe96dc97	-0.29465172
251	0x3df90b6e	0.12160383
252	0xbfe80763	-1.8127254
253	0xbeb67f57	-0.35644028
254	0xbe8063d1	-0.25076154
255	0x3f809997	1.0046872

fc1.bias f4 [256]
0	0xbe0014a5	-0.12507875
1	0xbd76bee5	-0.060240645
2	0xbe8d9ee1	-0.27660277
3	0xbe2a5a88	-0.16636097
4	0xbe2ab122	-0.16669133
5	0xbe2359c0	-0.15952206
6	0x3e271130	0.1631515
7	0x3d4f0b29	0.050547753
8	0xbe169747	-0.14706145
9	0x38c4013a	9.346237e-05
10	0xbf0909b3	-0.53530425
11	0xbe0a1d82	-0.13487819
12	0xbefb260c	-0.49052465
13	0x3c53eb45	0.012934511
14	0xbc9db581	-0.019251587
15	0xbe6c7ac8	-0.23093712
16	0xbf14719a	-0.5798584
17	0xbe051b1e	-0.12998626
18	0xbe6cf385	-0.2313977
19	0x3e9325db	0.2873982
20	0xbea862a1	-0.32887748
21	0xbe2e4fe6	-0.17022666
22	0x3b039ccf	0.002008248
23	0xbf050af0	-0.51969814
24	0x3e9566f3	0.29180107
25	0x3ef51c9f	0.478734
26	0x3d3b11f7	0.04567143
27	0x3e131bef	0.14366125
28	0xbe75748e	-0.23970243
29	0xbd48d1f5	-0.049028356
30	0xbd3fc7ae	-0.04682129
31	0xbf2d3afc	-0.6766813
32	0xbe21c8eb	-0.157993
33	0xbe805ab1	-0.25069192
34	0x3e7802be	0.24219796
35	0xbeb6736a	-0.3563493
36	0xbe8b48c1	-0.27203944
37	0xbef61ac7	-0.48067304
38	0x3d80794b	0.06273135
39	0xbe391245	-0.18073376
40	0xbb5a6bdc	-0.003332845
41	0xbe7295ce	-0.23689958
42	0xbe5de549	-0.21669497
43	0x3d4d8494	0.050175264
44	0xbdcf51b2	-0.10123004
45	0x3e1472fb	0.14496987
46	0xbd4bd246	-0.04976108
47	0xbe81efe7	-0.25378343
48	0xbbd3f135	-0.006467963
49	0xbac3b7e6	-0.0014932125
50	0xbe333fa1	-0.17504741
51	0x3ee8db01	0.45479587
52	0x3d94250a	0.07233627
53	0xbe2f6a89	-0.17130484
54	0xbe3cebc9	-0.1844932
55	0x3e139cb6	0.14415249
56	0xbe18f8a7	-0.14938603
57	0xbd599ecc	-0.053129956
58	0xbe5aefc4	-0.21380526
59	0x3d8d42cc	0.06897506
60	0xbe857e6f	-0.26073024
61	0x3ba9737c	0.0051712375
62	0xbdc5298d	-0.09627066
63	0xbdec610b	-0.11541947
64	0x3d136202	0.03598214
65	0x3b5db49a	0.003382957
66	0x3edd73bb	0.43252358
67	0x3c9eab3e	0.019368764
68	0xbe096bea	-0.13420072
69	0x3d610841	0.054939512
70	0xbe38aee5	-0.18035467
71	0xbf0f070b	-0.5587012
72	0xbdca9495	-0.09891621
73	0xbdf9a1ab	-0.12189039
74	0xbcaa5343	-0.020791655
75	0xbd49b9db	-0.04924951
76	0xbd943a17	-0.07237642
77	0xbeea0e08	-0.4571383
78	0xbeaba0ea	-0.33521205
79	0xbc21fe7e	-0.009887336
80	0xbe6905d4	-0.2275613
81	0xba760977	-0.00093855656
82	0xbdde5251	-0.10855544
83	0x3d96ea3d	0.07368896
84	0x3f0478b2	0.51746666
85	0xbe9e1712	-0.30876976
86	0x3e2e2c7e	0.1700916
87	0x3ce6ea65	0.02818794
88	0xbe2ea485	-0.17054947
89	0x3e1e1925	0.1543928
90	0xbee5cfb8	-0.4488504
91	0xbd6b69a0	-0.05747378
92	0xbdec54dc	-0.11539623
93	0x3eb76337	0.35817882
94	0xbe0a4a2d	-0.13504858
95	0xbb235caf	-0.002492707
96	0xbe42fdea	-0.19042173
97	0x3cdbd3b2	0.026834343
98	0xbd8b675b	-0.06806823
99	0xbdd82b9c	-0.10555193
100	0xbf03914b	-0.51393574
101	0x3e6b42aa	0.22974649
102	0xbd1715b8	-0.036885947
103	0xbdcceffa	-0.100067094
104	0xbe1043a0	-0.14088297
105	0xbee8b2db	-0.45448956
106	0x3e11550a	0.14192596
107	0xbdeb7346	-0.11496596
108	0xbf59daa3	-0.8509924
109	0x3f00959a	0.50228274
110	0xbdcc6d93	-0.09981837
111	0x3d0c3032	0.03422565
112	0x3cfd285b	0.030903032
113	0x3e0df21a	0.13861886
114	0x3dbcebd1	0.09224666
115	0xbe1cef2a	-0.15325609
116	0xbe08160b	-0.13289659
117	0x3e728823	0.23684745
118	0x3e6e2b43	0.2325869
119	0xbf0ec765	-0.55773
120	0x3eee6723	0.46563062
121	0xbda90ef9	-0.08254809
122	0x3d1edb12	0.03878314
123	0xbdb28fcd	-0.08718834
124	0x3e41e720	0.18935823
125	0x3e05592a	0.13022295
126	0x3ef58f56	0.4796092
127	0x3e3ede06	0.18639383
128	0xbed5ce9f	-0.41759202
129	0xbd7a7ccf	-0.061154183
130	0xbdacad42	-0.08431484
131	0xbd932ff1	-0.071868785
132	0xbe2a5267	-0.16632996
133	0x3edd1d0a	0.43186218
134	0xbe8dddc8	-0.27708268
135	0xbf0878c2	-0.5330926
136	0x3e603f8f	0.21899246
137	0xbe0d0490	-0.13771272
138	0x3e645d92	0.22301319
139	0xbe7f578c	-0.2493574
140	0x3e1fd290	0.15607667
141	0x3e5dcfab	0.2166125
142	0x3e067bd6	0.13133177
143	0xbe2ac1f1	-0.16675545
144	0x3eda84af	0.42679355
145	0xbdf35cea	-0.11882956
146	0x3ee4c8d6	0.44684476
147	0x3eabfcc3	0.3359128
148	0xbe394995	-0.18094476
149	0x3ef163d2	0.4714647
150	0xbd45bad0	-0.04827386
151	0x3e322c84	0.17399794
152	0x3dd344ae	0.10315834
153	0xbd7b6460	-0.061375022
154	0xbe5163df	-0.20448254
155	0x3f1ab045	0.60425216
156	0x3e3d7038	0.1849984
157	0xbe03ec47	-0.12883101
158	0xbe90b06d	-0.28259602
159	0xbea137c2	-0.31487852
160	0x3e73b8c6	0.23800954
161	0x3ecfb9b2	0.40571362
162	0x3ed86fd3	0.42272815
163	0x3ed7bcdd	0.4213628
164	0xbee3f66a	-0.44523937
165	0x3d9cba8e	0.0765277
166	0xbeeab2bd	-0.4583949
167	0x3eab5ccf	0.33469245
168	0xbd72ac60	-0.05924642
169	0xbf2a76db	-0.6658761
170	0x3e2e6afc	0.17032999
171	0xbf1382a3	-0.5762121
172	0xbda5e5c6	-0.081004664
173	0xbe336117	-0.17517506
174	0xbeb2bc0b	-0.3490909
175	0x3ec9dabe	0.394247
176	0x3ddda35c	0.10822174
177	0xbe1c1f12	-0.15246227
178	0x3d7182c3	0.058962595
179	0x3e366376	0.17811379
180	0x3d1f4397	0.038882818
181	0xbea36b1a	-0.3191765
182	0xbe5ad56f	-0.21370481
183	0x3df8a744	0.121412784
184	0x3e3734ec	0.17891282
185	0xbdc71b93	-0.09722056
186	0x3d851f1c	0.06500074
187	0x3ebdd6f0	0.37078047
188	0xbe628b88	-0.2212354
189	0xbefae290	-0.49000978
190	0xbd5b060f	-0.053472575
191	0x3edb0452	0.42776734
192	0xbc36d5e9	-0.011159399
193	0xbccd1f1a	-0.025039244
194	0xbd299bac	-0.041408226
195	0xbe85202c	-0.26001108
196	0xbed6d6e6	-0.4196083
197	0xbe72edf3	-0.23723583
198	0xbde231ef	-0.1104468
199	0x3e9333c2	0.28750426
200	0x3e175952	0.14780167
201	0x3d4a6efb	0.049422245
202	0x3e0dbe18	0.13842046
203	0x3db2a333	0.08722534
204	0x3e09117d	0.13385577
205	0x3dfa3eab	0.12218984
206	0xbe95be24	-0.29246628
207	0xbef1203b	-0.47094902
208	0x3bdc86d0	0.006729938
209	0xbebc6e24	-0.3680278
210	0x3e722818	0.23648107
211	0xbeb9fae9	-0.36324242
212	0xbcd40eaa	-0.025885899
213	0x3f158652	0.5840808
214	0xbb8621be	-0.004093378
215	0xbcb20ba2	-0.021734063
216	0x3da9c1f6	0.08288948
217	0x3da4bc61	0.08043743
218	0x3f0f166b	0.5589358
219	0x3e91ddfe	0.2848968
220	0xbf0e747c	-0.5564649
221	0x3eacafc8	0.3372786
222	0xbe9418a0	-0.28925037
223	0x3db0df11	0.086362965
224	0x3e1b7b8a	0.15183845
225	0xbf2f710d	-0.68531877
226	0xbdb5f11e	-0.0888388
227	0xbdc86e32	-0.09786643
228	0xbe3ffb6d	-0.18748255
229	0xba8ad5de	-0.0010592302
230	0x3dee15ce	0.11625253
231	0xbe19eea1	-0.15032436
232	0x3e0654c1	0.13118269
233	0xbe1b3a42	-0.15158942
234	0xbd9d16fc	-0.076703995
235	0xba95d02c	-0.0011429838
236	0xbdfadd27	-0.12249213
237	0xbe890307	-0.26760122
238	0x3e83c0de	0.25733083
239	0x3e5e1332	0.2168701
240	0x3f190973	0.59780043
241	0xbe78aedb	-0.24285452
242	0xbe9bf929	-0.30463532
243	0xbef4888d	-0.4776043
244	0x3ccdfd4e	0.0251452
245	0xbc27b82d	-0.010236782
246	0x3e917aeb	0.2841409
247	0xbf1de506	-0.6167759
248	0xbe119b6a	-0.14219442
249	0x3c9142f9	0.01773213
250	0xbe84aded	-0.25913945
251	0xbaab1bd7	-0.0013054562
252	0x3e1a892c	0.1509139
253	0x3edd1ad6	0.43184537
254	0x3e696e72	0.22796038
255	0x3d77accf	0.060467537

fc2.weight f4 [128, 256]
0	0xbeaf9480	-0.34292984
1	0xbe115e98	-0.14196241
2	0x3d2a1034	0.04151936
3	0xbe2b7046	-0.16742048
4	0x3cf893fa	0.030343998
5	0x3f131474	0.57453084
6	0x3d6356a2	0.05550254
7	0x3f197588	0.59944963
8	0xbd1aa8be	-0.03775858
9	0x3e60fd6d	0.21971674
10	0xbd836acd	-0.06416855
11	0x3ee92432	0.45535427
12	0x3f21b913	0.63173026
13	0x3e442c67	0.19157563
14	0x3e3fcc1e	0.18730208
15	0x3b6d51b9	0.003621204
16	0x3f9cb20b	1.2241834
17	0x3e670ad6	0.22562727
18	0x3e3cad85	0.18425567
19	0x3ce5a982	0.02803493
20	0x3e19321a	0.14960518
21	0x3e5aacb8	0.2135495
22	0x3ea3ffaf	0.3203101
23	0x3f2d7ba9	0.67766815
24	0x3eb16c99	0.34653166
25	0xbe6886ba	-0.22707644
26	0xbd19c64f	-0.037542637
27	0xbd883cf9	-0.066522546
28	0xbe58bd76	-0.21166024
29	0xbd31ca39	-0.043405745
30	0xbec09c6f	-0.3761935
31	0xbdbd8792	-0.092543736
32	0x3f175de4	0.5912764
33	0xbf0a94cd	-0.541333
34	0xbe23f3cb	-0.16010968
35	0x3eff842e	0.49905533
36	0xbe9c5820	-0.30535984
37	0x3cfbfe68	0.030760959
38	0x3e3cfb98	0.1845535
39	0x3dcf2215	0.101139225
40	0x3ecbf9d5	0.39839044
41	0x3ee15126	0.44007224
42	0x3f1340e7	0.5752091
43	0x3d281d83	0.04104377
44	0xbe913928	-0.2836392
45	0xbeb8cb29	-0.360925
46	0x3e89e857	0.26935074
47	0xbe81aa23	-0.25325117
48	0xbe31e089	-0.1737081
49	0xbf0958f2	-0.53651345
50	0xbe8d3ad9	-0.2758396
51	0xbe9ace03	-0.302353
52	0xbe318a4f	-0.17337917
53	0x3d8aebb6	0.067832395
54	0x3e6fc06f	0.23413251
55	0xbec50d76	-0.38486832
56	0x3e15e70d	0.1463892
57	0xbeb2f6a1	-0.34953788
58	0xbf15afd3	-0.5847141
59	0xbeef40ed	-0.46729222
60	0x3d3cae8b	0.046064895
61	0xbe154d32	-0.14580229
62	0xbf00a9ef	-0.502593
63	0xbe029e02	-0.12755588
64	0x3df22d82	0.11825086
65	0xbd970166	-0.073733136
66	0x3e7e150c	0.24812716
67	0x3ca459fe	0.020062443
68	0xbf83a289	-1.0283977
69	0x3f141923	0.57850856
70	0xbf864a94	-1.049151
71	0xbde2a7d2	-0.110671654
72	0x3db0b3c7	0.0862804
73	0xbe4a0564	-0.19728619
74	0xbe15650a	-0.14589325
75	0xbcc8da26	-0.024518084
76	0xbc8fa5ef	-0.017535178
77	0x3dd27705	0.102766074
78	0x3f07d685	0.53061706
79	0xbf837a46	-1.027169
80	0xbe587c7a	-0.21141234
81	0x3e733b62	0.23753121
82	0xbec8a6e2	-0.3918982
83	0x3c97827a	0.018494833
84	0xbd43d6d0	-0.047812283
85	0x3e759cc1	0.23985578
86	0xbe015e1e	-0.12633559
87	0xbea09215	-0.31361452
88	0x3d06626f	0.032808717
89	0xbc8d82ba	-0.01727425
90	0x3ea7496a	0.32673198
91	0xbd7c61f7	-0.061616864
92	0xbfec068d	-1.8439499
93	0xbe080675	-0.13283713
94	0x3f3e0b6e	0.7423619
95	0xbf99ce95	-1.2016169
96	0xbdc159b7	-0.0944094
97	0xbfcfca42	-1.6233599
98	0x3f486277	0.78275245
99	0xbefe4e17	-0.49668953
100	0xbd0f05d5	-0.03491767
101	0x3ed29dd5	0.4113604
102	0xbf4ae563	-0.79256266
103	0xbd620654	-0.055181816
104	0xbe3bb19f	-0.18329476
105	0xbe266e3d	-0.1625299
106	0xbe87d526	-0.26529807
107	0xbd572ffe	-0.052536003
108	0xbe41e855	-0.18936284
109	0x3ebaae7f	0.36461255
110	0x3de74613	0.112926625
111	0xbf80fe51	-1.0077611
112	0xbe80b854	-0.2514063
113	0x3e7b1d9a	0.24523011
114	0xbe5b3224	-0.21405846
115	0x3edb15a0	0.42789936
116	0x3e1f5a65	0.15561827
117	0xbe4b8502	-0.19874957
118	0x3e3dbd9e	0.18529364
119	0x3ddb123a	0.10696836
120	0xbdb714cc	-0.089395136
121	0x3ec1b723	0.37835035
122	0x3ed904f5	0.42386594
123	0x3f5973e4	0.8494246
124	0x3f29cebd	0.6633108
125	0x3e6a136b	0.2285897
126	0xbf20868d	-0.6270531
127	0x3e2a206c	0.1661393
128	0x3e1c4006	0.15258798
129	0x3e02b2b9	0.1276349
130	0xbf55ee97	-0.83567184
131	0x3faa33dd	1.3297077
132	0x3d54a01b	0.0519105
133	0xbf362b1f	-0.7115955
134	0x3eb249bb	0.34821877
135	0xbe1b7f18	-0.15185201
136	0x3e09e4b5	0.13466151
137	0x3f2a1664	0.66440415
138	0x3ca482c3	0.020081883
139	0xbe8dda8e	-0.27705806
140	0x3ea6c15e	0.32569402
141	0x3d459220	0.04823506
142	0xbd80eeb8	-0.06295532
143	0x3e9053e1	0.28188995
144	0xbe025f34	-0.1273163
145	0x3dd3bf1e	0.10339187
146	0x3e243cf8	0.16038883
147	0xbe3b1eb8	-0.18273437
148	0x3e033508	0.12813199
149	0x3f3ef63b	0.7459447
150	0x3f28bcb3	0.6591293
151	0xbe9960e2	-0.29956728
152	0xbeea8e0f	-0.45811507
153	0xbe670e8c	-0.22564143
154	0x3e5cb08b	0.21551721
155	0x3e317a67	0.17331849
156	0x3e89f799	0.26946715
157	0x3e0f7d87	0.14012729
158	0x3ea6d89a	0.3258713
159	0x3e1864c0	0.14882183
160	0x3ec32396	0.38113087
161	0xbe8fb35e	-0.28066534
162	0xbf5eaa46	-0.86978567
163	0x3e10ed3f	0.14153002
164	0x3ee176e9	0.44036034
165	0x3ea4a9ae	0.32160705
166	0x3ec82efb	0.39098343
167	0xbfd88127	-1.6914414
168	0x3d844554	0.06458536
169	0x3e8cff50	0.27538538
170	0xbe8efd77	-0.27927753
171	0x3f17f4d5	0.5935796
172	0x3cd12ea5	0.025534937
173	0x3ef65ef5	0.4811932
174	0xbe86de3e	-0.26341432
175	0x3c9bf46c	0.019037448
176	0x3e6fb242	0.23407844
177	0xbe94a79c	-0.29034126
178	0x3e01ce31	0.12676312
179	0x3e92796f	0.2860827
180	0xbe8f67e7	-0.2800896
181	0xbee003a0	-0.43752766
182	0xbd7ecd1e	-0.062207334
183	0xbef81f50	-0.4846139
184	0x3e6ffbdf	0.23435925
185	0xbe704700	-0.23464584
186	0xbf228a8b	-0.6349265
187	0xbb278f46	-0.0025567575
188	0x3d22b6c3	0.039725076
189	0xbd562686	-0.052282833
190	0xbd3883f5	-0.04504772
191	0xbe46e3a6	-0.19422778
192	0x3f4863fe	0.78277576
193	0x3e51832d	0.20460196
194	0xbdda8f03	-0.106718086
195	0xbefddf28	-0.49584317
196	0x3eba42cb	0.36379084
197	0x3eab07d9	0.33404425
198	0xbeda146e	-0.42593712
199	0x3eb0fea9	0.3456929
200	0x3ec2352a	0.37931186
201	0x3f1ff609	0.62484795
202	0xbdea34e4	-0.11435869
203	0x3c3b094c	0.011415791
204	0x3e8d9339	0.27651384
205	0xbf3fd926	-0.7494072
206	0x3f124de4	0.571501
207	0x3f15005b	0.5820367
208	0xbe06e097	-0.13171612
209	0xbd6af050	-0.057358086
210	0xbdc15f3a	-0.09441991
211	0x3ec71bf3	0.3888851
212	0xbd99d5eb	-0.07511505
213	0x3e4fb6e4	0.20284611
214	0xbf6c6fa9	-0.9235788
215	0x3c0953be	0.008381782
216	0xbd4cf09d	-0.050034154
217	0x3f16c4c7	0.5889401
218	0x3e61cb39	0.2205018
219	0x3eaa2cf0	0.3323741
220	0x3e483317	0.19550739
221	0x3e0862dc	0.13318962
222	0xbf2a6f3c	-0.6657598
223	0x3ec5be65	0.38621822
224	0x3da3441a	0.07971974
225	0x3f07feb1	0.53123003
226	0x3f55cece	0.83518684
227	0x3e102274	0.14075643
228	0x3db8110c	0.089876264
229	0x3d900e89	0.07034022
230	0xbebe70d4	-0.37195456
231	0xbd37c202	-0.044862755
232	0xbe64bba5	-0.22337206
233	0x3e741daf	0.23839448
234	0x3e0fed2a	0.14055315
235	0x3e28a9cc	0.16471022
236	0x3ecaaa8b	0.3958324
237	0xbde5de8b	-0.11224087
238	0x3eda9b7c	0.4269675
239	0x3e848d7d	0.25889197
240	0xbeb78ec5	-0.35851112
241	0x3e5d6039	0.21618737
242	0x3ecd1382	0.40053946
243	0x3ec67772	0.38763005
244	0xbdb4ca66	-0.08827667
245	0x3ec577d0	0.38567972
246	0xbd74f3f0	-0.05980295
247	0xbfa0b182	-1.2554171
248	0x3d21cde9	0.03950301
249	0x3e8b55ca	0.2721389
250	0x3e306544	0.1722613
251	0x3dd1f48f	0.10251724
252	0x3e46e4d8	0.19423234
253	0xbe5b4d68	-0.21416247
254	0xbdd26ac7	-0.102742724
255	0xbddf47f3	-0.10902395

fc2.bias f4 [128]
0	0xbd905d13	-0.070490025
1	0xbf31417c	-0.69240546
2	0xbe12421f	-0.14283036
3	0x3ddd313a	0.10800405
4	0xbe3e0bc5	-0.18559177
5	0x3e817947	0.2528784
6	0x3dbbd5d3	0.09171643
7	0xbd67aeb7	-0.056563105
8	0x3e7c6bb4	0.2465046
9	0x3e1b5f39	0.15173043
10	0xbcdfe6d9	-0.027331756
11	0xbe0c39fb	-0.13693993
12	0xbda07761	-0.0783527
13	0x3d3d0383	0.046145927
14	0x3d7195e9	0.058980856
15	0x3e69bd3c	0.22826093
16	0xbec4845c	-0.38382232
17	0x3e615c0f	0.22007774
18	0xbd4273fa	-0.047473885
19	0x3d4bd9af	0.049768146
20	0x3e77e726	0.2420927
21	0x3e097ef4	0.13427335
22	0x3e23c5f6	0.15993485
23	0x3d93f62e	0.072246894
24	0xbe4a5324	-0.19758278
25	0x3eeba99b	0.46027836
26	0xbe6a1f03	-0.22863393
27	0x3e416144	0.1888476
28	0x3e9335d3	0.28752002
29	0x3d813b65	0.06310157
30	0x3e859898	0.26092982
31	0x3d9f547b	0.07779785
32	0xbeae54e8	-0.34049153
33	0xbb9f2193	-0.0048562973
34	0x3dcfd207	0.101474814
35	0xbe34854c	-0.17628974
36	0xbdcd6804	-0.10029605
37	0x3cb287b5	0.021793226
38	0x3ecdde56	0.4020869
39	0xbe3c2c15	-0.18376191
40	0x3e8da8a4	0.27667725
41	0xbcc375d3	-0.023859894
42	0x3ecd85bf	0.40141103
43	0xbd854658	-0.06507558
44	0x3e52f0fd	0.20599742
45	0x3e4675f8	0.19380939
46	0xbe002f66	-0.12518081
47	0x3d8b9403	0.0681534
48	0xbebf6fd0	-0.37389994
49	0xbe1bda68	-0.15220034
50	0x3d164064	0.0366825
51	0xbccc9f35	-0.02497826
52	0xbc1f65d2	-0.009728866
53	0xbd50ab87	-0.05094483
54	0xbe828428	-0.25491452
55	0x3e0ac043	0.13549905
56	0xbeb7bafa	-0.3588484
57	0x3e5a2db3	0.21306495
58	0x3e300cda	0.17192402
59	0x3e58db7c	0.21177477
60	0x3e3fb968	0.1872307
61	0x3d5a6926	0.053322934
62	0x3e32b916	0.17453417
63	0xbd0c0e41	-0.03419328
64	0x3ee91854	0.45526373
65	0xbd000892	-0.031258173
66	0x3d969fb8	0.07354683
67	0xbda2ce85	-0.07949547
68	0xbe796faf	-0.2435901
69	0xbc80a172	-0.015701983
70	0xbda5101b	-0.080597125
71	0xbdfc43c5	-0.123176135
72	0x3de33a83	0.110951446
73	0x3e5452fe	0.20734784
74	0xbe2d2c92	-0.16911533
75	0xbd2efb30	-0.04272002
76	0x3daac156	0.08337657
77	0xbe3a3b30	-0.1818664
78	0xbd9b9703	-0.075971626
79	0x3df59506	0.119913146
80	0xbe866e61	-0.26256087
81	0xbe56934c	-0.20954627
82	0xbef5d98b	-0.48017535
83	0x3d9b55a4	0.07584694
84	0xbebf6c37	-0.3738725
85	0x3cd9c879	0.02658485
86	0xbdecff41	-0.11572123
87	0x3ee2e396	0.4431426
88	0xbcbe61c4	-0.023239978
89	0xbc3c191d	-0.011480597
90	0x3e45e646	0.19326124
91	0x3e952e03	0.29136667
92	0x3e980ba4	0.2969638
93	0xbe95ecf7	-0.29282352
94	0x3df68066	0.12036209
95	0x3c97aa0a	0.018513698
96	0x3e82e9f4	0.25569117
97	0xbced011b	-0.028931191
98	0x3e8e9b27	0.27852747
99	0x3e01f6d1	0.12691809
100	0x3d56dcbd	0.052456606
101	0x3e10ac6c	0.14128274
102	0x3ef19f16	0.47191685
103	0xbd1c8f48	-0.03822258
104	0x3c910839	0.017704116
105	0x3e06da15	0.13169129
106	0xbdf7dc92	-0.12102617
107	0xbdd8348e	-0.10556899
108	0x3e0d67e8	0.13809168
109	0xbcdfbaba	-0.027310718
110	0xbe90914e	-0.2823586
111	0xbeb10750	-0.34575891
112	0xbe58cbeb	-0.21171539
113	0x3d1ce027	0.038299706
114	0x3e9d386c	0.3070711
115	0xbdcaf26f	-0.09909522
116	0xbca957a6	-0.020671677
117	0x3e8f7f74	0.28026927
118	0x3e276ecf	0.16350864
119	0x3ea049a2	0.31306177
120	0xbde89305	-0.11356167
121	0x3d2e9b5b	0.042628627
122	0x3d62e797	0.055396643
123	0x3e7eee0a	0.24895492
124	0xbdc2ea54	-0.09517351
125	0xbe6ced82	-0.23137477
126	0x3e3a15fc	0.18172449
127	0x3dd41769	0.10356028

fc3.weight f4 [4, 128]
0	0x3f2ebd56	0.68257654
1	0xbfcfb23a	-1.6226265
2	0xbe996ce1	-0.2996588
3	0x3f5599b7	0.83437675
4	0x3e58f548	0.21187317
5	0xbf13a363	-0.57671183
6	0x3e6a668e	0.22890684
7	0x3ec4f916	0.38471287
8	0xbedc3495	-0.43008867
9	0xbeb3b6ff	-0.35100552
10	0x3e77cb21	0.24198581
11	0xbe4c3494	-0.19941932
12	0xbf252308	-0.6450658
13	0xbeb941c6	-0.36182994
14	0xbf57f550	-0.8435869
15	0x3f2e5944	0.6810496
16	0x3e8e3c00	0.2778015
17	0x3ebf0361	0.37307265
18	0xbb1db2f2	-0.0024062959
19	0xbf25579b	-0.645868
20	0x3f4ec008	0.80761766
21	0xbf8fa6ae	-1.1222742
22	0x3f25f67b	0.64829224
23	0xbe39a5b9	-0.18129624
24	0xbeec4bab	-0.4615148
25	0x3f50d6fe	0.8157805
26	0x3f2d02e7	0.67582554
27	0x3edb95bd	0.4288768
28	0x3ef7bcdc	0.48386276
29	0x3f29380b	0.6610114
30	0xbdbcf704	-0.09226802
31	0x3d6746ce	0.05646401
32	0xbe2d30a5	-0.16913088
33	0xbe18f0ab	-0.14935558
34	0xbf8a9f1e	-1.0829809
35	0xbf0c7b52	-0.5487567
36	0xbf402c99	-0.7506805
37	0x3f4782f5	0.779342
38	0x3f592767	0.8482575
39	0x3f3b6875	0.73206264
40	0x3f4ca67a	0.79941523
41	0xbfcadab5	-1.5847994
42	0x3f7124ef	0.9419698
43	0xbf19f839	-0.6014438
44	0xbf1215f4	-0.5706475
45	0x3f86d99d	1.053516
46	0x3f06f5a6	0.5271858
47	0xbe9629c5	-0.29328743
48	0x3f0e5e0b	0.5561225
49	0xbecc1e37	-0.39866802
50	0xbd6f41d0	-0.058412373
51	0xbead7ca6	-0.33884162
52	0x3dab2c4c	0.08358058
53	0xbf13022d	-0.57425195
54	0x3f42284e	0.7584275
55	0x3eed1a78	0.46309257
56	0x3f6f35bb	0.9344136
57	0xbeb9250e	-0.36161083
58	0xbee71150	-0.45130396
59	0x3d0cddd9	0.034391258
60	0xbc2e3185	-0.010631924
61	0x3f525875	0.82166225
62	0x3f9fd1f0	1.2485943
63	0xbdcf85ae	-0.10132919
64	0xbe62b3bd	-0.22138877
65	0xbd1ac72e	-0.03778761
66	0x3edf224c	0.43580854
67	0xbdad2865	-0.0845497
68	0xbe90f5c9	-0.2831252
69	0x3f392380	0.72319794
70	0x3e79ee9f	0.24407433
71	0x3e6e60d9	0.23279132
72	0xbe3ceaca	-0.1844894
73	0xbf811073	-1.0083145
74	0xbed1de0a	-0.40989715
75	0x3e882bb9	0.26595858
76	0xbf4d29df	-0.80142015
77	0xbfaebcb5	-1.3651339
78	0x3f7033c2	0.93828976
79	0x3f64e1d1	0.8940707
80	0xbffe287b	-1.9856104
81	0x3e3a3ff6	0.18188462
82	0xbede2dc0	-0.4339428
83	0xbe621d77	-0.22081552
84	0xbf70b17f	-0.9402084
85	0xbf77d101	-0.9680329
86	0x3e927f63	0.28612813
87	0x3eb6ab53	0.35677585
88	0x3f3e6d2a	0.7438532
89	0xbeef137f	-0.46694562
90	0x3f98a0d0	1.1924076
91	0xbf1ddea2	-0.61667836
92	0x3f0b9cf8	0.5453639
93	0xbefe2f04	-0.49645245
94	0x3f5447dc	0.8292215
95	0x3f5f947c	0.87335944
96	0xbf0c6eb5	-0.54856426
97	0xbd5f83c4	-0.05456902
98	0x3f6680f4	0.90040517
99	0x3ec03c84	0.3754617
100	0x3f04c177	0.51857704
101	0xbf3fd132	-0.7492858
102	0x3f7a852d	0.9785946
103	0xbf31fefb	-0.69529694
104	0xbf0f1370	-0.55889034
105	0x3ed8fefe	0.42382044
106	0x3f255a00	0.64590454
107	0xbf6432ce	-0.8914002
108	0xbece893b	-0.40339074
109	0x3f2dabbd	0.67840177
110	0x3f1484d9	0.5801521
111	0xbf92d8e2	-1.1472437
112	0x3f829c3e	1.0203931
113	0xbf1d8898	-0.6153655
114	0x3f1bcbc3	0.6085779
115	0xbfa963c8	-1.3233576
116	0x3d473352	0.048632927
117	0xbe1bfc0c	-0.15232867
118	0xbeaa3b94	-0.3324858
119	0x3ff65aab	1.924642
120	0x3eddf234	0.4334885
121	0x3ed96781	0.4246178
122	0x3f501626	0.81283796
123	0x3f3fed6d	0.7497166
124	0x3cd3ec83	0.025869614
125	0xbf970560	-1.1798515
126	0xbeea33b4	-0.4574257
127	0x3f225739	0.6341434
128	0x3f7ca3a4	0.98687196
129	0xbfc0f545	-1.507485
130	0xbee32583	-0.44364557
131	0x3f6ade46	0.9174541
132	0x3e5a2399	0.21302642
133	0xbf0c9179	-0.54909474
134	0x3f4f2ba5	0.8092597
135	0x3ec65717	0.3873832
136	0xbeeff907	-0.4686968
137	0xbe9968d8	-0.29962802
138	0x3df5f94f	0.120104425
139	0xbdd5c927	-0.104387574
140	0xbf3beb5d	-0.7340601
141	0xbecdbb0c	-0.40181768
142	0xbf864ac7	-1.049157
143	0x3f3a784d	0.72839814
144	0xbf8542ac	-1.0410972
145	0x3dd92519	0.10602779
146	0x3d338e27	0.04383674
147	0xbf3499c8	-0.7054715
148	0x3f1a5867	0.6029114
149	0xbf95475a	-1.16624
150	0x3f3a2d2f	0.72725195
151	0xbecd3155	-0.400767
152	0xbea3801f	-0.31933686
153	0x3f6f33fb	0.9343869
154	0x3e8a0269	0.26954964
155	0x3f0abc3f	0.5419349
156	0x3e382951	0.17984511
157	0x3f298fb9	0.6623493
158	0x3d3c03cf	0.04590207
159	0x3d358cb8	0.044323653
160	0xbfb9ad17	-1.4505948
161	0xbed6ae40	-0.41929817
162	0xbf89446e	-1.0724008
163	0xbf120967	-0.57045597
164	0xbf83a05d	-1.0283314
165	0x3e14f83a	0.14547816
166	0x3f76b963	0.9637663
167	0x3fb72ef1	1.43112
168	0x3f4f0880	0.80872345
169	0xbfbc0831	-1.469
170	0x3f70b19d	0.94021016
171	0xbef311b3	-0.4747444
172	0xbf1ac46a	-0.60455954
173	0x3fabdd6d	1.3426949
174	0xbe98dfcb	-0.2985824
175	0xbe78cd90	-0.24297166
176	0x3f0cb794	0.5496762
177	0xbef35bca	-0.47530967
178	0xbe7e3bd3	-0.24827509
179	0xbe99cff6	-0.30041474
180	0x3e6e74be	0.23286721
181	0xbefcfb8c	-0.49410665
182	0x3f3c2083	0.7348711
183	0x3ef32cf9	0.4749525
184	0xbe5f2caa	-0.21794382
185	0xbe8ff876	-0.28119248
186	0xbf0e2a96	-0.5553373
187	0xbc98488e	-0.018589284
188	0xbe93300c	-0.28747594
189	0x3eeb20ba	0.45923406
190	0x3f99921c	1.1997714
191	0x3e5f1900	0.2178688
192	0x3d57bca8	0.05267015
193	0x3e15c54b	0.14626043
194	0x3f0f5a13	0.5599682
195	0xbe400d59	-0.18755092
196	0xbeabd889	-0.3356364
197	0x3f3b6362	0.7319852
198	0x3f8b8aa5	1.0901686
199	0x3f056e54	0.5212147
200	0xbe386fc8	-0.18011391
201	0xbf78fcc4	-0.9726069
202	0x3ddd1970	0.107958674
203	0x3e732b8b	0.23747079
204	0xbf725b74	-0.94670796
205	0xbf6ad168	-0.9172578
206	0x3f825983	1.0183567
207	0x3f5c13f0	0.8596792
208	0xbfe95f4d	-1.8232208
209	0x3f28708f	0.6579675
210	0xbce0d176	-0.027443629
211	0xbe89f1a5	-0.26942173
212	0xbeb5410e	-0.35401195
213	0xbf53401d	-0.82519704
214	0x3e8820c1	0.2658749
215	0x3ebb7bf2	0.36618
216	0x3f7a6ce3	0.978224
217	0xbf42ebde	-0.76141155
218	0x3fab1dc1	1.3368455
219	0xbf2ceaa6	-0.67545545
220	0x3eb4f112	0.35340172
221	0xbeb3b06b	-0.35095534
222	0x3f20cee1	0.6281567
223	0x3f6be789	0.9215017
224	0xbf13ef40	-0.5778694
225	0xbddbdc4d	-0.107353784
226	0x3f573201	0.84060675
227	0x3ed173b8	0.409086
228	0x3ef1fba9	0.47262314
229	0xbf2dee05	-0.67941314
230	0x3f7e03a4	0.99224305
231	0xbf04fb81	-0.51946265
232	0xbeb64c6c	-0.3560518
233	0x3f1c8de2	0.61153996
234	0x3f2f3a09	0.6844793
235	0xbf2f7938	-0.6854434
236	0xbf01d499	-0.50715023
237	0x3f19b8ed	0.600478
238	0x3f2dd24d	0.6789902
239	0xbfe39734	-1.7780519
240	0x3f337739	0.70103794
241	0xbe92ffcc	-0.28710783
242	0x3efa75c8	0.48917985
243	0xbfab3190	-1.33745
244	0xbda24b67	-0.07924538
245	0xbe38e0d2	-0.18054512
246	0xbf07fd71	-0.53121096
247	0x3ff7c6ee	1.9357584
248	0x3e7d1a67	0.24717103
249	0x3e589c57	0.21153389
250	0x3f4ee67e	0.80820453
251	0x3f40ff41	0.75389487
252	0x3d4fca72	0.050730176
253	0xbf93f793	-1.1559929
254	0xbf5365b2	-0.8257705
255	0x3f1ec7b4	0.6202347

fc3.bias f4 [4]
0	0x3e2f7f4c	0.17138404
1	0xbcc7fdd7	-0.024413032
2	0xbd949773	-0.07255449
3	0x3ee69217	0.45033333

exp_avg f4 [256, 8]
0	0xbbd97214	-0.0066359136
1	0x3be14934	0.0068751816
2	0x3abe9ce9	0.0014542612
3	0xbc030ad1	-0.007998184
4	0xbb53cf62	-0.0032319655
5	0x3b8d2a57	0.004308026
6	0x3b61ba5c	0.0034443354
7	0xbbb80d3c	-0.005616812
8	0x3c721abd	0.014776883
9	0xbc8e1907	-0.017345918
10	0x3baa0eac	0.0051897373
11	0x3ace0175	0.0015716987
12	0x38ab05b3	8.154977e-05
13	0xbd84b5c8	-0.064799845
14	0xbc82fd2f	-0.015989868
15	0x3e0c7701	0.13717271
16	0xbaf537b4	-0.0018708617
17	0x3b18e506	0.0023329868
18	0x3a899b40	0.0010498539
19	0xbab8d6e7	-0.0014102132
20	0xbb13e3d4	-0.0022566216
21	0x3b1f4869	0.0024304634
22	0x3856d915	5.122375e-05
23	0xbb14e3ef	-0.0022718867
24	0xbcf3eb47	-0.029775275
25	0x3b873b40	0.004126936
26	0x3c181d41	0.009284318
27	0xbb8ef45a	-0.004362625
28	0xbbd599de	-0.0065185865
29	0x3c91311f	0.017723618
30	0xbc239492	-0.009984152
31	0xbd0e98e4	-0.034813777
32	0xbbe41541	-0.0069605415
33	0x3c8f1247	0.01746477
34	0x3d0eb413	0.0348397
35	0xbbf91ca7	-0.0076022926
36	0xbc6336f6	-0.013868084
37	0x3cfa2b27	0.030538155
38	0x3b4ea606	0.0031532063
39	0xbd0df2b0	-0.034655273
40	0x3b28afb9	0.0025739504
41	0xbaaa53a4	-0.0012994898
42	0xbbf79c88	-0.007556502
43	0xba65d06c	-0.0008766714
44	0x3b8e2dfb	0.0043389774
45	0xbb6543e7	-0.00349831
46	0x3c25abb5	0.010111739
47	0x3c06cedd	0.008228031
48	0x3cc33f02	0.023833755
49	0x3ce3a8ff	0.027790545
50	0x3c8db7b6	0.017299514
51	0xbbc193e5	-0.005907523
52	0x3c707731	0.014676855
53	0x3c5a7c00	0.013335228
54	0x3b1c2514	0.0023825811
55	0xbc916acd	-0.017751122
56	0x394b143f	0.00019367131
57	0xba2b01ff	-0.000652343
58	0xbb9d0c10	-0.0047926977
59	0xbc0fe617	-0.008782885
60	0x3aa8e803	0.0012886528
61	0x3bb9c305	0.005669
62	0x3cb0cd43	0.021582251
63	0x3c4c2d64	0.012461994
64	0x3ad29d98	0.0016068695
65	0x3bc73095	0.0060787895
66	0x3bc08890	0.0058756545
67	0xbc23c199	-0.009994888
68	0xba6ead6c	-0.00091048214
69	0x3b0c15a1	0.0021375197
70	0x3c1b9d45	0.009497945
71	0x00000004	6e-45
72	0xbc907966	-0.017636012
73	0xbd4b2592	-0.049596377
74	0xbcdf61d1	-0.027268322
75	0x3c33d1cf	0.010975315
76	0xbaa5b14c	-0.001264134
77	0xbd15f7a3	-0.036613118
78	0xbc3ea30b	-0.011635552
79	0x3d980118	0.074220836
80	0x3c51fc9f	0.012816577
81	0xbae68ae7	-0.0017589004
82	0x3b2cdfb0	0.0026378445
83	0xbae960e0	-0.001780536
84	0x3a68176f	0.00088535895
85	0x3bd734e7	0.0065675857
86	0x3ccd7ad8	0.02508299
87	0xbc2624b6	-0.0101405885
88	0xbc2c61ab	-0.010521333
89	0x3c7d423d	0.015457687
90	0x3c810680	0.01575017
91	0xbc962827	-0.018329693
92	0xbc017bd2	-0.007903056
93	0x3c2a487e	0.01039326
94	0x3c8ccaa1	0.017186465
95	0x3c816417	0.015794797
96	0xbc06f4bd	-0.008237061
97	0xbabf4e80	-0.0014595538
98	0xbb86973b	-0.0041073835
99	0x3b0bea4f	0.0021349376
100	0xba8bef46	-0.0010676167
101	0xbb3032be	-0.0026885713
102	0x3b14d658	0.0022710767
103	0xbb6bf539	-0.0036004318
104	0x3bf89c7f	0.007587015
105	0x3c02508a	0.007953772
106	0x3c010278	0.007874124
107	0xbc79216b	-0.015205721
108	0xbb63a8d9	-0.0034738092
109	0x3bbd1088	0.005769793
110	0x3ca4f3a0	0.0201357
111	0x3a9e37f7	0.0012071122
112	0x3c07e70d	0.008294833
113	0x3cbb211a	0.022842932
114	0x3cacee11	0.021109613
115	0xbcd158bb	-0.025555005
116	0xbc21b41f	-0.009869604
117	0x3cbb2e62	0.022849265
118	0x3a21fd45	0.00061794027
119	0xbcb5a086	-0.02217127
120	0xbd4617ac	-0.04836242
121	0xbd0fec09	-0.03513721
122	0xbc195923	-0.009359631
123	0x3cad3cad	0.021147097
124	0xbbeeb95f	-0.0072852816
125	0xbc71738b	-0.01473702
126	0xbc80dcb0	-0.015730232
127	0xbb840abd	-0.0040296004
128	0x3c373898	0.011182927
129	0xbb28292c	-0.0025659306
130	0xbbfe40fd	-0.007759212
131	0x3b3dd653	0.0028966859
132	0xb9a3a23f	-0.00031210665
133	0xbc6dbfb9	-0.014511042
134	0x3cdca943	0.026936179
135	0x3d22176f	0.03957313
136	0xbca50c6b	-0.020147523
137	0xbccf6d88	-0.025320783
138	0xba33c6e2	-0.0006857944
139	0x39d9e48e	0.00041559752
140	0xbaba90cf	-0.001423383
141	0xbc2c3996	-0.010511776
142	0xbd0f8c45	-0.03504588
143	0x3cac1b56	0.021009129
144	0xbc4b5903	-0.012411359
145	0x3c703e34	0.014663268
146	0x3a8eec79	0.0010904215
147	0xbb029298	-0.0019923802
148	0x3aca9d87	0.0015458324
149	0x3c20ff8f	0.009826555
150	0xbd235dfc	-0.039884552
151	0xbd5f4374	-0.054507688
152	0x3d407cfd	0.046994198
153	0x3d65d1ac	0.05610816
154	0x3ba7c553	0.0051199584
155	0xbc0ae735	-0.008477976
156	0x3bdeb8eb	0.0067969463
157	0x3c87a3af	0.016557543
158	0x3ba0522a	0.004892607
159	0xbd2d79e2	-0.042352565
160	0x3bfe8437	0.007767226
161	0xba452ef5	-0.0007521951
162	0xb9bd1034	-0.0003606096
163	0xb99edecd	-0.00030302108
164	0x3b38dcca	0.0028207772
165	0xbc0cf8c9	-0.008604237
166	0xbb343bac	-0.0027501388
167	0xbb2eb873	-0.0026660233
168	0xbc8baafe	-0.017049309
169	0xbca2d257	-0.019875688
170	0xbba2194c	-0.0049468633
171	0x3c44b0fe	0.012005089
172	0x3b5e0245	0.0033875864
173	0x3c8163e8	0.01579471
174	0xbbf01e2f	-0.007327817
175	0xbd4bbec6	-0.049742483
176	0xba995619	-0.0011698633
177	0x3b3af27b	0.0028525877
178	0xbcb9c507	-0.022676958
179	0xbc023c58	-0.007948957
180	0x3c58c29b	0.013229991
181	0x390849c5	0.00012997452
182	0x3640c98e	2.872755e-06
183	0xbc936527	-0.01799257
184	0xbb642a12	-0.0034815115
185	0xbb2a0c69	-0.0025947338
186	0x3a38bf50	0.0007047551
187	0x3aee7493	0.0018192701
188	0xbaab8ddf	-0.0013088546
189	0xbaf91d23	-0.0019005876
190	0xbc1ef04d	-0.009700847
191	0x3a87d273	0.0010362401
192	0x3b6b31b8	0.003588779
193	0xbb231651	-0.0024885128
194	0xb73d6f6b	-1.1291219e-05
195	0xbb0bc4cb	-0.0021327015
196	0x3b14dc1e	0.0022714208
197	0x3bc3cf62	0.0059756497
198	0x3cb02b5b	0.021505048
199	0x3b636bbf	0.0034701673
200	0xbc9627df	-0.018329559
201	0xba0a33b2	-0.00052719854
202	0xbbb9019d	-0.0056459443
203	0xbb285828	-0.002568731
204	0xbad85700	-0.001650542
205	0xbc590301	-0.013245345
206	0xbbba8b98	-0.0056929104
207	0x3cf6b4a8	0.03011544
208	0xba1ca18f	-0.0005975002
209	0xbd17def5	-0.037077863
210	0xbc975440	-0.01847279
211	0x3c22cce0	0.009936541
212	0x3b87bccf	0.004142381
213	0xbcae3715	-0.0212665
214	0xbaacb5d5	-0.0013176749
215	0x3d14ece0	0.036358714
216	0x3c804d1c	0.015661769
217	0x3cbb4350	0.022859246
218	0x3b41f909	0.00295979
219	0x3a582a27	0.0008246027
220	0xb9952850	-0.0002844953
221	0x3c11b28f	0.008892669
222	0xb1422157	-2.8249667e-09
223	0xbc8c7342	-0.017144803
224	0xbc1f6202	-0.009727957
225	0xbbd763a8	-0.0065731592
226	0xbb41b3bb	-0.002955659
227	0x3c0940bb	0.008377249
228	0xbacd5c9c	-0.0015667859
229	0x3abdf589	0.0014492731
230	0x00000004	6e-45
231	0x00000004	6e-45
232	0x3c1e0377	0.009644381
233	0xb91ec7b1	-0.00015142445
234	0x3c0ce4ca	0.008599469
235	0xbbc8fd72	-0.0061337287
236	0x3bdafe93	0.0066831796
237	0xbc983f95	-0.018585006
238	0x3cad801e	0.021179255
239	0x3d5c476e	0.05377906
240	0x3cc3dca5	0.023908922
241	0x3c8d1c34	0.017225362
242	0x3b3c7f0c	0.002876225
243	0xbb8c973f	-0.004290491
244	0x3ba3f6cc	0.0050037857
245	0x3b3f794c	0.0029216586
246	0x3ca59cf4	0.020216443
247	0xb0fb9134	-1.8303923e-09
248	0x3b5007ff	0.0031743047
249	0xbbbcbdeb	-0.0057599447
250	0xba28ac53	-0.000643437
251	0x3bbd6a45	0.0057804906
252	0x3ba0a9f5	0.004903073
253	0xbb7fca9b	-0.0039030674
254	0xbc4d41a6	-0.012527859
255	0x3b8c2fa1	0.0042781387

exp_avg_sq f4 [256, 8]
0	0x3aa97b96	0.0012930508
1	0x3a9cdc15	0.0011967445
2	0x39ef5b97	0.00045653872
3	0x3ab87ace	0.0014074685
4	0x3a178375	0.00057797815
5	0x3a6dfb50	0.0009078281
6	0x3b388d90	0.002816055
7	0x3ae92082	0.0017786177
8	0x3d1a6695	0.037695486
9	0x3b2bbce5	0.002620512
10	0x3c00e6dc	0.007867541
11	0x3bb1b21f	0.005422845
12	0x3c147914	0.00906207
13	0x3d38f54e	0.045155816
14	0x3eb4ba23	0.3529826
15	0x3ebfc5f4	0.37455714
16	0x3a20afc9	0.00061297097
17	0x3aa134a5	0.0012299014
18	0x399460b5	0.00028300812
19	0x3a10e149	0.0005526734
20	0x39022388	0.00012411003
21	0x39f9473e	0.0004754606
22	0x3a7c3152	0.00096203864
23	0x3b37a109	0.0028019568
24	0x3b7ba93c	0.0038400432
25	0x3aa2288c	0.0012371703
26	0x3a8836c0	0.0010392293
27	0x3b064295	0.0020486463
28	0x3a89f7e0	0.0010526143
29	0x3bbb3598	0.005713176
30	0x3d07e320	0.033175588
31	0x3d3b8aab	0.04578654
32	0x3c3522e8	0.011055686
33	0x3cdd097b	0.02698206
34	0x3c0ab839	0.008466774
35	0x3cb7d64b	0.02244105
36	0x3b0de779	0.002165286
37	0x3bc80431	0.0061040153
38	0x3c1c9dfb	0.00955915
39	0x3c73cb1b	0.014879967
40	0x39b2c31e	0.0003409618
41	0x3890967e	6.8944864e-05
42	0x39777b93	0.0002360179
43	0x384d423a	4.8937487e-05
44	0x3943c119	0.00018668584
45	0x39c5895b	0.00037677106
46	0x3b7301a3	0.0037079833
47	0x3b6f39a2	0.0036502858
48	0x3c2eadce	0.010661555
49	0x3cd92e90	0.02651146
50	0x3ba2260d	0.0049483837
51	0x3c7af13d	0.015316305
52	0x3ab2b561	0.0013634377
53	0x3b1a5d5f	0.0023554189
54	0x3be41654	0.0069606695
55	0x3c150baf	0.009097024
56	0x3aaf64ed	0.0013381519
57	0x3be93cbc	0.007117836
58	0x3a992139	0.0011682875
59	0x3b5d1e3c	0.0033739945
60	0x396ee5d2	0.00022783063
61	0x3aa72151	0.0012751018
62	0x3ba76406	0.0051083593
63	0x3bc3240d	0.0059552253
64	0x399a5cb9	0.00029442253
65	0x3a16ba7d	0.0005749835
66	0x399b5643	0.00029628174
67	0x3ab127ed	0.0013515927
68	0x390c7206	0.00013393917
69	0x398ef71a	0.00027268456
70	0x3a20ec81	0.00061387575
71	0x033f8352	5.6280604e-37
72	0x3cb57799	0.022151755
73	0x3d46c555	0.048528034
74	0x3be66b37	0.007031824
75	0x3cca6856	0.024707954
76	0x3b4767bc	0.003042682
77	0x3c011daa	0.007880608
78	0x3d2b8cb7	0.041882243
79	0x3d129026	0.035782002
80	0x3a7acc41	0.00095671794
81	0x3a1d5582	0.00060018164
82	0x39c06313	0.0003669491
83	0x3ad74750	0.0016424451
84	0x3981c6f5	0.00024753032
85	0x3adf8ca8	0.0017055469
86	0x3c4f9fdc	0.012672391
87	0x3c0098a3	0.007848891
88	0x3b64f481	0.0034935775
89	0x3b6c3fcb	0.0036048766
90	0x3aaa94ae	0.0013014281
91	0x3bb31008	0.0054645576
92	0x39cf6c27	0.00039562696
93	0x3b3603f6	0.0027773357
94	0x3b45ded3	0.0030192628
95	0x3c24ce1f	0.010058909
96	0x3b176eed	0.0023106888
97	0x3c5f277c	0.013620254
98	0x3b628b2b	0.0034567814
99	0x3c0700a8	0.008239903
100	0x3af4d25b	0.0018678413
101	0x3b0d46c3	0.002155707
102	0x3b46883b	0.0030293602
103	0x3b3a3428	0.0028412435
104	0x3aaf6af0	0.001338331
105	0x3a941b06	0.0011299558
106	0x3a299bc9	0.0006470052
107	0x3b42d9ee	0.0029731947
108	0x3994228f	0.00028254508
109	0x3a448092	0.0007495965
110	0x3b0b64e6	0.0021269857
111	0x3959d3ce	0.00020773636
112	0x3c254423	0.010087046
113	0x3d0bb1e6	0.034105204
114	0x3bfe49d6	0.007760267
115	0x3ce21f2e	0.027602758
116	0x3b096f54	0.0020970898
117	0x3bd7c1bb	0.006584374
118	0x3c9bec5c	0.019033603
119	0x3c995788	0.018718496
120	0x3cab3e1f	0.020903645
121	0x3d518fcf	0.051162537
122	0x3c075e3a	0.008262211
123	0x3ce5de7b	0.028060189
124	0x3b18faf5	0.0023342941
125	0x3bd55bc0	0.0065111816
126	0x3bd3c96e	0.0064632213
127	0x3b47505c	0.0030412888
128	0x3b571f50	0.003282506
129	0x39b10467	0.0003376335
130	0x3b495670	0.0030721687
131	0x3b08ee07	0.0020893828
132	0x3afb322e	0.0019164735
133	0x3b8ecf67	0.0043582204
134	0x3d0f94f6	0.03505417
135	0x3d3151a8	0.043290764
136	0x3d297a96	0.041376673
137	0x3bb97da9	0.005660732
138	0x3b378b31	0.0028006549
139	0x3b277733	0.0025553226
140	0x3b00902f	0.001961719
141	0x3bfd48b4	0.007729614
142	0x3cdf5df5	0.027266482
143	0x3c169a69	0.009192088
144	0x3b75f201	0.0037528279
145	0x3cf2f9e9	0.029660182
146	0x3b73907f	0.0037164984
147	0x3c372db7	0.011180333
148	0x3aa59d51	0.0012635385
149	0x3b16967d	0.0022977882
150	0x3d2fde8b	0.042936843
151	0x3d2d1368	0.042254835
152	0x3cfd8d50	0.030951172
153	0x3d31347d	0.043262947
154	0x3c0cfe43	0.008605543
155	0x3c638a2f	0.013887926
156	0x3b050418	0.002029663
157	0x3b9829a8	0.0046436377
158	0x3d7bedb3	0.061505985
159	0x3d4f2998	0.050576776
160	0x3ac96326	0.0015364632
161	0x38d9e033	0.00010389127
162	0x3a1afde6	0.00059124676
163	0x3a6e57c9	0.00090920605
164	0x3a38bee4	0.0007047488
165	0x3b262471	0.002535131
166	0x3c30f4ef	0.010800584
167	0x3c9c571c	0.019084506
168	0x3c3a6c6f	0.011378392
169	0x3ce489b9	0.027897703
170	0x3c0930a6	0.008373415
171	0x3c8787b5	0.016544202
172	0x3ab0180f	0.0013434904
173	0x3b86d42d	0.004114649
174	0x3c885374	0.016641356
175	0x3cfb4195	0.03067092
176	0x3acf8265	0.0015831707
177	0x39164348	0.00014330179
178	0x3a69e53f	0.0008922405
179	0x3af228b7	0.0018475269
180	0x3a2753cb	0.00063830306
181	0x3b35c58e	0.002773616
182	0x396fe31a	0.00022877418
183	0x3bbe0dcb	0.005799984
184	0x39e5bed7	0.0004382047
185	0x3a6a3675	0.00089345063
186	0x39b04134	0.00033617916
187	0x3abe64e2	0.0014525915
188	0x394410cf	0.00018698278
189	0x3a3fbfa3	0.0007314628
190	0x3aadeb51	0.0013268982
191	0x3995a2b7	0.00028540727
192	0x3b1640ef	0.0022926887
193	0x3c0d9e6b	0.008643727
194	0x3aab7e16	0.0013083841
195	0x3b8bdbb5	0.0042681345
196	0x39fc021d	0.0004806676
197	0x3af0c0d3	0.0018368013
198	0x3ba223c2	0.0049481103
199	0x3bb784f4	0.005600566
200	0x3bae40bb	0.005317775
201	0x39c2af2c	0.00037133077
202	0x3a97a68b	0.0011570019
203	0x3aae5666	0.0013300895
204	0x3ac72a30	0.0015195068
205	0x3b820df3	0.003968948
206	0x3dd4bc34	0.103874594
207	0x3dac4e9c	0.08413431
208	0x3c32b89c	0.010908272
209	0x3d2325b2	0.03983087
210	0x3be301e8	0.0069277175
211	0x3c92ad0e	0.017904785
212	0x3ae2817a	0.0017281019
213	0x3b1265aa	0.0022338429
214	0x39de5223	0.00042404336
215	0x3c2f5226	0.010700738
216	0x3c9cbcc7	0.019132985
217	0x3b7ec0da	0.0038872273
218	0x3b07d88e	0.0020728442
219	0x3b019f1f	0.0019778681
220	0x3a0069bf	0.000489857
221	0x3afe9d86	0.0019425608
222	0x36ee67bc	7.105029e-06
223	0x3b8c5ec9	0.00428376
224	0x3a36b0d7	0.00069691
225	0x3ba7ce5f	0.005121037
226	0x3a34d3c2	0.00068980095
227	0x3b69b752	0.0035662246
228	0x391a5382	0.00014717694
229	0x3938eed9	0.00017636585
230	0x000001f4	7e-43
231	0x000001f4	7e-43
232	0x3c89a15e	0.016800579
233	0x3b854437	0.0040669697
234	0x3ab02c6f	0.0013440977
235	0x39d4b378	0.00040569506
236	0x3b4c3493	0.0031159266
237	0x3b5fc6db	0.0034145627
238	0x3c1e98c6	0.009679979
239	0x3d650970	0.055917203
240	0x3b030aef	0.001999553
241	0x3bc9633c	0.006145863
242	0x3a6de178	0.000907443
243	0x3b0aa36b	0.0021154534
244	0x39171d96	0.00014411504
245	0x39ba9bf1	0.0003559287
246	0x3b04a1e9	0.0020238108
247	0x36d7a92e	6.4271944e-06
248	0x39f10520	0.0004597092
249	0x3aa823d8	0.0012828065
250	0x3993e9d7	0.0002821225
251	0x3a2d7ebf	0.0006618313
252	0x39fa406a	0.00047731708
253	0x39e76566	0.000441353
254	0x3bb1292c	0.0054065194
255	0x3bcdbcaa	0.006278594
