results/models/baseline_dqn_ep900.pth (torch, 436226 bytes, 18 tensors)

fc1.weight f4 [256, 8]
0	0x3c641130	0.013920113
1	0x400b3a7c	2.1754446
2	0xbea5fe7e	-0.32420725
3	0x3f6ba5f6	0.9205011
4	0xbfe143fa	-1.759887
5	0xbfeea711	-1.8644735
6	0xbebcee8e	-0.36900753
7	0x3e8a3a58	0.26997638
8	0x3e3298b9	0.17441072
9	0xbf40a38d	-0.7524956
10	0xc0147038	-2.3193493
11	0x3e6187d4	0.2202447
12	0x3f8563b3	1.0421051
13	0x3e3415b3	0.17586403
14	0x3e5aee06	0.21379861
15	0x3c626cf1	0.013819919
16	0xbf070511	-0.52742106
17	0xc05065aa	-3.256205
18	0x3f40786d	0.75183755
19	0x3f6b3ad1	0.9188662
20	0x3da4e824	0.0805209
21	0x3f21e28d	0.63236314
22	0x3e299b15	0.16563065
23	0x3f184ca2	0.5949193
24	0xbf41de91	-0.75730234
25	0xbf3ebbe0	-0.74505424
26	0xbfa93b73	-1.3221267
27	0xbeaeb9c7	-0.34126112
28	0x3e9279a2	0.28608423
29	0x3f4b56b9	0.79429203
30	0x3f207762	0.62682164
31	0x3f083b67	0.5321564
32	0x3ea22c90	0.31674623
33	0x3f08632f	0.5327634
34	0xbf176fe5	-0.5915511
35	0xbfc1b147	-1.5132226
36	0xbf077d2c	-0.5292537
37	0x3ec2500a	0.3795169
38	0xbe9cc212	-0.30616814
39	0xbfad6dc2	-1.354912
40	0xbfc1d711	-1.5143758
41	0x3f38d449	0.7219892
42	0xbee533f9	-0.44766214
43	0xbe4b28cf	-0.19839786
44	0xbf7d9b35	-0.9906495
45	0x3f1f0529	0.6211725
46	0x3e978a6c	0.29597795
47	0x3de9e03d	0.11419723
48	0xbe45ef24	-0.19329506
49	0xbd5a3e05	-0.053281803
50	0x3f6567e2	0.8961164
51	0x3d01eb89	0.031718764
52	0x3f99b4e3	1.2008327
53	0x3faf58be	1.3698957
54	0x3f89be1e	1.0761144
55	0xbf7edc2d	-0.9955471
56	0xbf44befc	-0.7685392
57	0xbfb24c46	-1.3929527
58	0xbf7d4fcf	-0.98949903
59	0x3c6d37ec	0.014478665
60	0x3f8cbd87	1.0995339
61	0xbfef09e2	-1.8674891
62	0xbf8d7361	-1.1050836
63	0x3e9ed610	0.31022692
64	0xbe81233b	-0.2522219
65	0x3f42dba8	0.7611642
66	0xbd0a4a48	-0.033762246
67	0x3f0dac3d	0.5534094
68	0x3f91d0a2	1.1391795
69	0x3f65e29b	0.897989
70	0x3f163209	0.586701
71	0x3efbb4cd	0.49161378
72	0x3f00f5ae	0.5037488
73	0x4043e441	3.0608065
74	0xbe2f7dc1	-0.17137815
75	0x3e861886	0.26190585
76	0xbfc796b8	-1.5592871
77	0xbf4bc1e0	-0.79592705
78	0xbdd0c37c	-0.10193536
79	0xbea9ad2a	-0.33139926
80	0xbe8632bd	-0.26210585
81	0x3da39c28	0.07988769
82	0xbf4eb995	-0.80751926
83	0xbeab7ba6	-0.33492774
84	0xbfa2b851	-1.2712499
85	0x40078877	2.1177042
86	0x3c206b0b	0.009791146
87	0xbf8fe27d	-1.1240994
88	0xbe07aadf	-0.13248776
89	0xc08caafe	-4.395873
90	0xbec5e238	-0.38649154
91	0xc00d532f	-2.2082021
92	0x3f3652f5	0.7122033
93	0xbebd65e5	-0.36991802
94	0x3f34a89d	0.70569783
95	0xbeec3fa5	-0.46142307
96	0xbfd2a52b	-1.6456655
97	0x401883a6	2.3830352
98	0xbe598ddd	-0.21245523
99	0x3f896b13	1.0735801
100	0x3efebcfa	0.49753553
101	0x3d08cd4b	0.033398908
102	0xbed073e9	-0.40713432
103	0x3f6b15ab	0.9182994
104	0xbe3084ad	-0.17238112
105	0x3ebce8de	0.36896414
106	0xc0192dd7	-2.3934228
107	0x3ff20d38	1.8910284
108	0xbe757cce	-0.2397339
109	0xbfc11720	-1.5085182
110	0xbfe1392f	-1.7595576
111	0xbed50543	-0.41605577
112	0x3f70d299	0.94071347
113	0x3fba4396	1.4551876
114	0x3fe238d6	1.7673595
115	0x3e62f180	0.22162437
116	0xc01359bd	-2.3023522
117	0xbf91789f	-1.1364936
118	0xbeca6d28	-0.39536405
119	0xbedacc49	-0.42733982
120	0x3eef2b8f	0.4671292
121	0x3eeba563	0.46024618
122	0xc048693c	-3.131423
123	0x3e7ea263	0.24866633
124	0x3f4acd95	0.79219943
125	0xbf09a6ba	-0.5377003
126	0xbeb7a2b8	-0.35866332
127	0x3f228b9f	0.63494295
128	0xbeeaaea0	-0.45836353
129	0xbf2ef952	-0.6834918
130	0x3ea8c1b8	0.32960296
131	0xbe0fbfd2	-0.14038017
132	0xbe963f1e	-0.2934503
133	0xbf3ad4cf	-0.7298097
134	0xbd989ff1	-0.074523814
135	0xbf1ed886	-0.6204914
136	0xbec1731f	-0.37783143
137	0x40111dbc	2.2674398
138	0xbf6ca70c	-0.92442393
139	0x3f134913	0.5753338
140	0xbfd5c077	-1.6699361
141	0xbd3affd1	-0.04565412
142	0xbf217ba8	-0.6307931
143	0x3f40350b	0.7508094
144	0xbeead4df	-0.45865533
145	0x3e301b58	0.17197931
146	0xbf96e975	-1.1789995
147	0x408759e4	4.229723
148	0x3f1ad55c	0.6048181
149	0xbfaf6493	-1.3702568
150	0x3eca8154	0.39551795
151	0x3ed57419	0.41690138
152	0x3c9cfd5d	0.019163782
153	0xc0758638	-3.836317
154	0xbfb81653	-1.4381813
155	0xbf7e1dc4	-0.9926417
156	0x3fa9c9be	1.3264692
157	0xbd807603	-0.06272509
158	0x3ecde5ed	0.40214482
159	0xbca4f4b7	-0.02013622
160	0x3eff11ca	0.4981826
161	0x3f9350f1	1.1509076
162	0x3fb4a27a	1.4112084
163	0xbd1247d0	-0.035713017
164	0xbeaaad22	-0.33335215
165	0xbf351739	-0.7073856
166	0xbf834acc	-1.0257201
167	0x3eb3e6a3	0.351369
168	0xbe065730	-0.13119197
169	0x3fc67337	1.5503911
170	0xbeefe1e1	-0.4685202
171	0x3ea04e45	0.31309715
172	0xc00ad55d	-2.1692727
173	0x3e6d3282	0.23163798
174	0x3dc23173	0.09482088
175	0xbfac290f	-1.345003
176	0xbf350ff7	-0.70727485
177	0xbf9df46e	-1.2340219
178	0x3e43bc34	0.19114763
179	0x3d7a29e0	0.06107509
180	0x3d877da6	0.066157624
181	0xbfa043f5	-1.2520739
182	0xbfdf9765	-1.7468077
183	0x3f56b7d9	0.8387428
184	0xbf9413fa	-1.1568596
185	0xbf61bc64	-0.88178086
186	0x3d8da6ee	0.06916605
187	0x3fca3244	1.579659
188	0xbf31f533	-0.6951477
189	0x3f0f6ebc	0.5602834
190	0x3ede02e5	0.43361583
191	0xbe7ba48e	-0.24574491
192	0xbf0226f1	-0.5084067
193	0x3ec6d560	0.38834667
194	0x3c08edfb	0.00835752
195	0xbf28b1cd	-0.658963
196	0xbf5e4f03	-0.8683931
197	0x3f0c44b6	0.54792345
198	0x3e8755e6	0.26432723
199	0xbf84299f	-1.0325202
200	0x3cdfbe71	0.02731249
201	0xc0c7dc90	-6.245674
202	0xbd3c9de4	-0.046049014
203	0xbf81d8da	-1.0144303
204	0x3f921f89	1.1415874
205	0x3e17bbbb	0.14817707
206	0xbd1f2cc0	-0.038861036
207	0xbe8c0cb3	-0.2735344
208	0x3da15544	0.07877591
209	0x4040759b	3.007178
210	0x3e51be30	0.20482707
211	0x3f952eab	1.1654867
212	0x3f9abe5e	1.2089345
213	0xbe7a2588	-0.2442838
214	0xbee973b2	-0.4559608
215	0x3ddaffa9	0.106932946
216	0x3fd22e9b	1.6420473
217	0x3fc4b31b	1.5367159
218	0xbf94dbd4	-1.1629586
219	0x3e48e05b	0.19616835
220	0xbe3e44b2	-0.18580893
221	0xbd690f67	-0.056899454
222	0x3e2fdf45	0.17175014
223	0x3edc2bc6	0.43002146
224	0xbedfec54	-0.43734992
225	0x3e86e294	0.2634474
226	0xbf0ee093	-0.55811423
227	0xbd8d9a1a	-0.06914158
228	0x3fa52fb5	1.2905184
229	0xc015403c	-2.3320456
230	0x3e192e09	0.14958967
231	0x3e925d72	0.28586918
232	0x3ccaf261	0.024773778
233	0xbb94c778	-0.00454038
234	0xbd0d2b77	-0.03446528
235	0x3ba8d92a	0.005152841
236	0x40a828de	5.2549887
237	0xbe312fbd	-0.17303367
238	0xbd4602a6	-0.04834237
239	0xbfaef4e0	-1.366848
240	0xbf97071c	-1.1799045
241	0xc050f924	-3.2652063
242	0xc0029551	-2.0403636
243	0x3e8a7547	0.270426
244	0xbfd956af	-1.6979579
245	0x3f580e40	0.84396744
246	0xbd1c0812	-0.038093634
247	0xbecccf1a	-0.40001756
248	0x3f3e9793	0.74450034
249	0x3f8aeb30	1.0853024
250	0x3ffb3374	1.9625077
251	0x3f76795c	0.9627893
252	0xbf91a42f	-1.137823
253	0x3f48f9d8	0.7850623
254	0xbe4c37ce	-0.19943163
255	0x3ec9962b	0.39372382

fc1.bias f4 [256]
0	0xbbfc9a53	-0.0077088266
1	0x3dd9d5aa	0.10636456
2	0xbdb82374	-0.08991137
3	0xbec58220	-0.3857584
4	0x3d704d55	0.0586675
5	0xbe441524	-0.1914869
6	0xbcb56aff	-0.022145746
7	0xbe8480a0	-0.25879383
8	0x3da3f2f6	0.080053255
9	0x3e842a9f	0.25813767
10	0xbf198586	-0.59969366
11	0xbe9d08b9	-0.30670717
12	0xbe05a433	-0.13050918
13	0xbca92ae7	-0.02065034
14	0xbebaa77a	-0.364559
15	0x3c5ba70f	0.013406529
16	0x3f00e733	0.5035278
17	0x3e58219f	0.21106575
18	0xbf007d79	-0.50191456
19	0xbec6892f	-0.38776538
20	0xbe88326c	-0.2660097
21	0xbeb4930e	-0.35268444
22	0x3d438b4a	0.04774026
23	0xbbbf72b7	-0.0058425325
24	0xbe8b565c	-0.27214324
25	0x3e9dac43	0.30795488
26	0x3e3995f4	0.18123609
27	0x3ea932dd	0.33046618
28	0xbf15a7f5	-0.5845941
29	0x3c514e29	0.0127749825
30	0x3f233cfa	0.6376492
31	0xbf572fd8	-0.8405738
32	0xbeea3d12	-0.45749718
33	0x3e4706fa	0.19436255
34	0xbec93052	-0.39294678
35	0xbf66fdc7	-0.90230983
36	0xbefca9dd	-0.49348345
37	0xbf6d206b	-0.9262759
38	0xbee59722	-0.44841868
39	0xbdb0a571	-0.086253054
40	0xbf20e237	-0.62845176
41	0x3edf0f72	0.4356647
42	0xbd26aac3	-0.040690195
43	0x3e9b123f	0.30287358
44	0x3dc13af6	0.09435074
45	0xbe9fcc42	-0.31210524
46	0x390dce47	0.00013523652
47	0x3e5866a2	0.21132901
48	0xbf46c645	-0.77646285
49	0xbf5a74e0	-0.8533459
50	0x3e3e475b	0.18581907
51	0x3edc5da4	0.43040192
52	0xbefcc81d	-0.49371424
53	0xbf4ca6b6	-0.7994188
54	0xbef39d8c	-0.47581136
55	0x3e2d0c05	0.16899116
56	0xbeec9576	-0.4620778
57	0xbef66ee3	-0.48131475
58	0xbccca56f	-0.024981229
59	0x3e333a23	0.17502646
60	0xbf6b3a8e	-0.9188622
61	0xbf349a58	-0.7054801
62	0xbc747ba2	-0.0149220545
63	0xbebcb591	-0.36857274
64	0x3f2231cf	0.6335725
65	0xbf1a037b	-0.6016156
66	0x3ef8c24e	0.48585743
67	0x3ea35b4c	0.3190559
68	0xbd66852a	-0.05627934
69	0x3e0885b4	0.13332254
70	0xbe4c27ac	-0.19937009
71	0xbe07173c	-0.13192457
72	0xbedcc9fd	-0.43122855
73	0x3edd9cf4	0.43283808
74	0xbefc11e3	-0.49232396
75	0xbe796bae	-0.24357483
76	0x3e981d47	0.29709837
77	0xbeccad86	-0.39976138
78	0xbee60399	-0.4492462
79	0xbf0cda0a	-0.550202
80	0xbc27cb68	-0.010241367
81	0xbf017db6	-0.50582445
82	0xbe2bc1fb	-0.16773216
83	0xbf36658c	-0.712487
84	0xbf17d090	-0.59302616
85	0xbe8f805a	-0.28027612
86	0x3d5602aa	0.052248634
87	0x3ef5db15	0.4801871
88	0xbed9ea10	-0.42561388
89	0x3efdcd98	0.49570918
90	0xbebc2099	-0.3674362
91	0xbeee0427	-0.46487543
92	0xbc8fd966	-0.017559718
93	0xbe09e3bf	-0.13465784
94	0xbd1c0bf5	-0.03809734
95	0xbde2687c	-0.11055085
96	0xbca0131c	-0.019540362
97	0x3eb29e87	0.34886572
98	0xbe41ad0d	-0.1891367
99	0xbe29423a	-0.1652917
100	0xbe125352	-0.14289597
101	0xbe08715e	-0.13324496
102	0xbe3f8654	-0.18703586
103	0xbd8811d9	-0.06644029
104	0x3e729d1e	0.23692748
105	0xbe9031cd	-0.28162995
106	0xbd560573	-0.05225129
107	0xbef16461	-0.47146896
108	0xbf1dde0e	-0.61666954
109	0xbea76742	-0.32695967
110	0x3e3d9bbd	0.1851644
111	0xbe937235	-0.2879807
112	0xbe453f59	-0.19262446
113	0x3e49bb7a	0.19700423
114	0xbdb5520c	-0.0885354
115	0x3e094b6d	0.13407679
116	0xbed4152d	-0.41422406
117	0xbe834b43	-0.25643358
118	0xbf39c43f	-0.7256507
119	0xbf2e38f8	-0.6805568
120	0xbf5722d0	-0.84037495
121	0x3d471085	0.04859974
122	0xbf00af80	-0.5026779
123	0xbef0de5a	-0.4704464
124	0x3cb55e4d	0.022139693
125	0xbf05062e	-0.51962554
126	0x3c365c5d	0.01113042
127	0xbf62202d	-0.88330346
128	0xbe1822ae	-0.14856979
129	0xbe953383	-0.29140863
130	0x3e3b9e20	0.18322039
131	0xbed29f96	-0.4113738
132	0xbf183904	-0.59462
133	0xbe9cbb70	-0.30611753
134	0xbf81e94c	-1.0149322
135	0xbe0bd1a9	-0.13654198
136	0x3e22f46c	0.15913552
137	0xbe12c173	-0.14331608
138	0x3ee0bddc	0.4389485
139	0xbe9a6b88	-0.30160165
140	0x3e5e5a74	0.21714193
141	0xbd3b895e	-0.0457853
142	0x3ed97a83	0.42476282
143	0xbdcdf984	-0.10057357
144	0xbeaadb09	-0.33370236
145	0xbf152bd7	-0.5827002
146	0x3dc53508	0.096292555
147	0xbe85b1be	-0.2611217
148	0xbf12d9c2	-0.5736352
149	0xbe5cbc7d	-0.21556278
150	0x3e5c90ea	0.21539655
151	0xbf084ac1	-0.53239065
152	0x3cf8ece3	0.030386394
153	0xbdadee05	-0.08492664
154	0xbf14557c	-0.5794294
155	0xbdecf97b	-0.11571022
156	0x3e8b4fe9	0.27209404
157	0x3e7dca0a	0.24784103
158	0xbcd4e060	-0.025985897
159	0xbda8f472	-0.08249749
160	0xbe9215e5	-0.2853233
161	0x3f214d25	0.6300834
162	0x3e958559	0.292033
163	0xbeaedddb	-0.34153637
164	0x3ea39c09	0.31954983
165	0x3c4d78d6	0.012541017
166	0xbe68d85e	-0.22738788
167	0xbec186be	-0.37798113
168	0xbec17aa5	-0.37788883
169	0xbe33c9c3	-0.17557435
170	0xbf5658ff	-0.8372955
171	0x3f16cf11	0.5890971
172	0xbe86388d	-0.2621502
173	0xbf0f0432	-0.55865777
174	0x3e95c931	0.2925506
175	0xbf187a32	-0.59561455
176	0xbf371ed3	-0.7153141
177	0xbe92c1f0	-0.28663588
178	0xbf0edb90	-0.55803776
179	0x3e13e7c7	0.14443885
180	0x3d0d9641	0.03456712
181	0xbf27a4bf	-0.6548576
182	0xbdbec9b4	-0.093158156
183	0x3da2233e	0.07916878
184	0xbf7b6181	-0.98195654
185	0xbeab9cd8	-0.335181
186	0xbeecbd26	-0.4623806
187	0xbe9510bb	-0.29114327
188	0xbe9dccc7	-0.30820295
189	0xbd3be533	-0.04587288
190	0xbeaf97bd	-0.34295455
191	0xbe8b2766	-0.27178496
192	0x3e85f058	0.2615993
193	0xbf13a708	-0.57676744
194	0xbf2083c9	-0.6270109
195	0x3eb39b0d	0.35079232
196	0x3ed72e9e	0.42027754
197	0xbe85d30d	-0.2613758
198	0x3d108c60	0.035290122
199	0xbf3c3468	-0.73517466
200	0xbf518da5	-0.8185676
201	0x3dcdad97	0.10042875
202	0x3e90777d	0.28216162
203	0x3f06528b	0.524697
204	0xbf3b8ee0	-0.73264885
205	0xbf1cf98f	-0.61318296
206	0xbf555957	-0.83339447
207	0xbf308761	-0.6895657
208	0xbea95d87	-0.33079168
209	0x3e163402	0.14668277
210	0xbf7b7e14	-0.98239255
211	0xbee0086a	-0.4375642
212	0xbbeccab8	-0.0072263144
213	0xbdb4ab30	-0.08821714
214	0x3f345608	0.70443773
215	0xbd0ca773	-0.03433938
216	0x3e4c3cdf	0.19945095
217	0xbf0cf439	-0.55060154
218	0x3e624447	0.22096358
219	0xbed84033	-0.4223648
220	0xbf6ddd8d	-0.92916185
221	0xbe633830	-0.22189403
222	0xbee35bc4	-0.4440595
223	0x3e644e5e	0.2229552
224	0xbdb72af8	-0.089437425
225	0xbef6a724	-0.48174393
226	0xbe14ea9f	-0.14542626
227	0x3e91d8df	0.28485772
228	0xbed8d0f4	-0.4234692
229	0xbe5c549c	-0.21516651
230	0xbf13a874	-0.57678914
231	0x3c803a2d	0.01565274
232	0xbe8140e2	-0.25244814
233	0x3ef42519	0.47684553
234	0x3e1e822b	0.15479343
235	0xbf4b0a23	-0.7931234
236	0xbf00b36f	-0.50273794
237	0x3e0a0b7d	0.13480945
238	0x3f27ec80	0.65595245
239	0x3eb2f3f6	0.34951752
240	0xbe40b480	-0.18818855
241	0xbf8fff96	-1.1249874
242	0x3e06904d	0.13140984
243	0xbf501044	-0.8127482
244	0xbe66bb44	-0.22532374
245	0xbef5c627	-0.4800274
246	0xbe02626f	-0.12732862
247	0x3e6310fc	0.22174448
248	0xbd838a68	-0.06422883
249	0x3d557bd5	0.05212005
250	0x3e554d56	0.20830283
251	0xbf34b4df	-0.7058849
252	0xbec703e0	-0.38870144
253	0x3f115309	0.56767327
254	0x3ea5a916	0.32355565
255	0x3e906790	0.28204012

fc2.weight f4 [128, 256]
0	0xbe9cab3c	-0.3059939
1	0x3e13cbdc	0.14433235
2	0x3ddce968	0.10786706
3	0xbeac4e09	-0.33653286
4	0x3ec3ec51	0.38266233
5	0x3d513ebb	0.051085215
6	0xbf52348a	-0.8211142
7	0x3e56f7bb	0.20992939
8	0xbeb2d5bd	-0.34928694
9	0x3e81581b	0.25262532
10	0xbeb2d2f6	-0.34926575
11	0x3ebf7401	0.3739319
12	0x3dba8b37	0.091085844
13	0x3f122ba1	0.5709782
14	0xbe0e6554	-0.13905841
15	0x3f3c5500	0.735672
16	0x3f28905b	0.6584527
17	0xbee0be25	-0.4389507
18	0x3f62e1c7	0.8862576
19	0xbf110e11	-0.5666209
20	0xbcb93912	-0.022610221
21	0x3e8848cf	0.2661805
22	0x3e077164	0.13226849
23	0x3f7acfc9	0.97973305
24	0x3e74014a	0.23828617
25	0xc049be03	-3.1522224
26	0xbd9fa1e8	-0.07794553
27	0x3f47797b	0.7791974
28	0xbc843b5e	-0.01614159
29	0x3fc12401	1.5089113
30	0x3e8a6461	0.27029708
31	0xbeb8097e	-0.35944742
32	0xbdfdb6d5	-0.12388388
33	0xbe401168	-0.1875664
34	0xbff4e509	-1.9132396
35	0xbf76a77a	-0.963493
36	0xbf27b286	-0.6550678
37	0xbdcde10d	-0.10052691
38	0xbde29bb5	-0.11064855
39	0x3e6a10f5	0.22858031
40	0xbe9a1363	-0.30092916
41	0x3e797e6e	0.24364635
42	0xbf2d8730	-0.67784405
43	0x3d10f9e8	0.03539458
44	0xbe1799d5	-0.14804776
45	0x3ee9266f	0.45537135
46	0x3f58b8a8	0.84656763
47	0xbba25500	-0.0049539804
48	0xbde27bac	-0.11058745
49	0x3eceb3cc	0.4037155
50	0x3d75738f	0.05992466
51	0x3e996274	0.29957926
52	0x3c94b906	0.018154632
53	0x3eb37922	0.35053355
54	0x3e35e8ae	0.17764542
55	0xbea9a762	-0.33135515
56	0x3d5b8e44	0.053602472
57	0x3e5b316c	0.21405572
58	0x3ea77ee9	0.32714012
59	0x3e101167	0.14069138
60	0xbde775bc	-0.11301753
61	0xbeb11f18	-0.34594035
62	0xbfe603b5	-1.7969881
63	0xbf983c72	-1.1893446
64	0x3e148f49	0.14507784
65	0xbe8e7080	-0.27820206
66	0x3f5fc10b	0.87403935
67	0xbe710d48	-0.23540223
68	0x3f736a01	0.95083624
69	0x3e2a08c1	0.16604902
70	0x3e9302e3	0.2871314
71	0xbd0a9593	-0.03383405
72	0x3dbf8592	0.093516484
73	0xbfb6c25c	-1.4278064
74	0xbf06d1b0	-0.5266371
75	0xbfafc17e	-1.3730924
76	0x3d1ab4e4	0.037770167
77	0xbe84b30e	-0.25917858
78	0x3edb2da9	0.42808273
79	0xbd0396b8	-0.03212616
80	0x3e3d5c8d	0.18492337
81	0x3e97ec4b	0.29672465
82	0xbe28cbed	-0.16484042
83	0xbf0bb663	-0.54575175
84	0x3e0459f9	0.12924947
85	0xbf15603a	-0.58349955
86	0x3d951251	0.07278884
87	0x3e8ed949	0.2790015
88	0x3c97000f	0.018432645
89	0x3dc9aff4	0.098480135
90	0x3de96b0d	0.113973714
91	0xbfa9e3b6	-1.3272617
92	0x3f4ab032	0.791751
93	0xbea65a0e	-0.3249058
94	0x3f88b73a	1.0680916
95	0xbe863f9c	-0.26220405
96	0x3ec50a0e	0.38484234
97	0x3fb358f2	1.4011519
98	0xbee39a4f	-0.44453666
99	0x3dd132ae	0.102147445
100	0xbf97d24f	-1.1861056
101	0x3ee7c455	0.45266977
102	0xbea37640	-0.31926155
103	0xbd25c697	-0.040472593
104	0xc00925b3	-2.142926
105	0x3f19eceb	0.60127133
106	0xbe341234	-0.17585069
107	0x3f133296	0.57499063
108	0xbea458d4	-0.3209902
109	0x3f0839a9	0.5321298
110	0x3e0a5eaa	0.13512674
111	0xbe357687	-0.17720996
112	0x3d116756	0.03549894
113	0x3d99e6fb	0.07514759
114	0x3f0e9e0d	0.55709916
115	0xbea52858	-0.32257342
116	0xbef05b21	-0.46944526
117	0x3d4e6895	0.050392706
118	0x3d6233d4	0.05522521
119	0xbe9a852b	-0.30179724
120	0x3eff8e00	0.49913025
121	0xbfc141bf	-1.5098189
122	0xbea88a8e	-0.3291821
123	0x3e223bca	0.1584312
124	0x400473f7	2.069578
125	0xbe0113a0	-0.12605143
126	0x3dc9807d	0.0983896
127	0xbf250166	-0.6445526
128	0xbf1c44b3	-0.61042327
129	0xbf997d34	-1.1991334
130	0x3d9be0ce	0.076112375
131	0xbf2f4f61	-0.684805
132	0x3e7fbe81	0.24975015
133	0xbfc35988	-1.5261698
134	0xbde983a0	-0.114020586
135	0x3f3ae091	0.7299891
136	0xbefb8859	-0.49127463
137	0xbe0ad05f	-0.1355605
138	0xbefef46f	-0.49795863
139	0x3f701c26	0.9379295
140	0x3e10ec53	0.1415265
141	0x3e7257a8	0.2366625
142	0x3d9c8c18	0.07643908
143	0xbf00f9f0	-0.50381374
144	0xc01758ba	-2.3647904
145	0x3f1c8ce3	0.61152476
146	0x3e17a805	0.14810188
147	0xbe0459b8	-0.1292485
148	0x3f8aba1f	1.083805
149	0x3e07846d	0.1323411
150	0x3f2068d4	0.62659955
151	0x3cfc3a6c	0.030789576
152	0x3f12137e	0.5706099
153	0x3dfd8116	0.12378137
154	0xbe6ce335	-0.23133548
155	0xc0fd4af2	-7.9153986
156	0x3dbb2880	0.09138584
157	0xbf9d81ea	-1.2305272
158	0x3fb23f91	1.3925649
159	0x3ec68d7b	0.38779816
160	0xbfe4d6c3	-1.787804
161	0xbede7c37	-0.43454143
162	0x3d90dde5	0.07073573
163	0xbd32bfec	-0.043640062
164	0xbf0f10f2	-0.5588523
165	0xbf2b1bcb	-0.66839284
166	0xbfe0cbfe	-1.7562253
167	0xbfc10f83	-1.5082859
168	0xbd9f970d	-0.077924825
169	0x3c08fdb3	0.008361268
170	0xc0124380	-2.2853699
171	0xbee9a428	-0.45633054
172	0x3e7a305a	0.24432507
173	0xbeb7f4c9	-0.35928944
174	0x3d52e51e	0.051488034
175	0x3eb3c08a	0.35107833
176	0x3d1492fb	0.036272984
177	0xbedff220	-0.43739414
178	0xbf706b52	-0.9391376
179	0x3ee993c0	0.45620537
180	0x3f323089	0.6960531
181	0x3ed3196e	0.4123034
182	0xbdb7d28e	-0.08975707
183	0x3f2905cf	0.6602449
184	0xbedd6cef	-0.43247172
185	0x3d8d50aa	0.06900151
186	0xbf67e1c0	-0.9057884
187	0xbf748441	-0.95514303
188	0xbf3f38c4	-0.7469599
189	0x3e998c14	0.29989684
190	0xbf6d0b8c	-0.92595744
191	0x3de5d1d9	0.11221666
192	0x3e2966bd	0.16543098
193	0x3e1724aa	0.1476008
194	0x3e8cc8f0	0.27497053
195	0x3f54de56	0.8315176
196	0x3f05bdf7	0.5224299
197	0xbe15206a	-0.14563146
198	0x3ce27a9d	0.027646357
199	0x3f0282ec	0.5098102
200	0xbec1c899	-0.37848356
201	0x3ddca709	0.10774047
202	0xbf176734	-0.5914185
203	0xbe83c5ed	-0.25736943
204	0xbf5d73db	-0.86504906
205	0x3e3590a6	0.1773096
206	0xbeee21c2	-0.4651013
207	0xbf02ec7f	-0.51142114
208	0xbdbcf894	-0.092271
209	0xbdfadfab	-0.122496925
210	0xbe0ffec9	-0.14062037
211	0xbeb28164	-0.34864342
212	0xbf43ddc2	-0.7651025
213	0xbf8bebdf	-1.0931357
214	0x3f21f3ac	0.6326244
215	0xbff3533c	-1.9009776
216	0xbf172f7a	-0.5905682
217	0x3dcd6289	0.1002856
218	0xbd076a82	-0.03306056
219	0x3e7cc68c	0.24685115
220	0xbb72b599	-0.003703451
221	0x3eb06593	0.34452495
222	0xbe9ca1e3	-0.3059226
223	0xbe9121e8	-0.2834618
224	0xbf017198	-0.50563955
225	0xbd7bb99c	-0.061456308
226	0x3ec76e3a	0.38951284
227	0x3d44155a	0.047871925
228	0x3dfe8b73	0.124289416
229	0x3dfe7a72	0.12425698
230	0xbf2b27da	-0.66857684
231	0xbeadf5fe	-0.3397674
232	0xbf1f9455	-0.6233571
233	0xbddc4b5c	-0.10756561
234	0x3f2e28cf	0.6803102
235	0x3d354435	0.0442545
236	0x3e21f509	0.1581613
237	0xbd65950d	-0.05605035
238	0xbd2b4fe1	-0.041824225
239	0xbea51edd	-0.3225011
240	0xbfbb8db9	-1.4652625
241	0xbdc7b180	-0.09750652
242	0xbf210350	-0.6289568
243	0xbf846b81	-1.0345308
244	0x3eac997c	0.3371085
245	0x3eadf0b3	0.339727
246	0x3fc5a108	1.5439768
247	0xc00f40e5	-2.2383358
248	0xbe8e886f	-0.27838466
249	0x3dc00775	0.09376422
250	0x3e565a7a	0.20932952
251	0xbebebbed	-0.3725275
252	0xbfa7bc49	-1.3104335
253	0x3e3b1404	0.18269354
254	0x3efa7a50	0.48921442
255	0xbeadc73f	-0.33941075

fc2.bias f4 [128]
0	0x3e4d9d93	0.20079641
1	0x3d12b9c8	0.035821706
2	0xbe477fbd	-0.19482322
3	0xbd9cea20	-0.07661843
4	0x3e7a869c	0.24465412
5	0x3ce789ed	0.02826401
6	0xbf25c911	-0.6475993
7	0xbf0c89a5	-0.5489753
8	0x3d2a4de8	0.041578203
9	0x3f124a11	0.57144266
10	0x3ef2864e	0.4736809
11	0x3e9079a9	0.2821782
12	0xbf18ba5e	-0.59659374
13	0xbe3a3de8	-0.18187678
14	0x3ebeb0b3	0.37244186
15	0x3e49dee9	0.1971394
16	0xbde1d84a	-0.11027582
17	0x3dac4535	0.08411638
18	0x3eb3bcf1	0.35105088
19	0x3c72c625	0.014817749
20	0xbe744036	-0.2385262
21	0xbdd8fbf4	-0.10594931
22	0x3e3a8f4f	0.1821873
23	0xbc8148f7	-0.015781863
24	0x3ed4d917	0.41571876
25	0x3cc5cb7e	0.024144884
26	0x3ca6bb16	0.020352881
27	0xbed2642c	-0.4109205
28	0xbb9a7fbb	-0.0047149337
29	0xbd002ee6	-0.031294726
30	0x3e5ee8c9	0.21768488
31	0xbe228a33	-0.15873031
32	0x3dd35cfe	0.10320471
33	0xbeb11c83	-0.34592065
34	0xbeddba94	-0.4330641
35	0xbe621bdf	-0.22080944
36	0xbe825ef0	-0.25463057
37	0x3ef26f1b	0.47350392
38	0x3daa2a95	0.08308903
39	0x3ead43fb	0.33840927
40	0x3d23fe11	0.04003722
41	0x3db96653	0.0905272
42	0xbd2e8b54	-0.042613342
43	0x3e5fbd27	0.218495
44	0xbe1c9cdb	-0.1529421
45	0xbcd0e45a	-0.025499512
46	0x3ecdb17f	0.4017448
47	0xbf4fbaf0	-0.8114462
48	0xbe3cb2d7	-0.18427597
49	0xbf3c05fc	-0.7344663
50	0x3eb6bd7e	0.35691446
51	0xbedf36ef	-0.43596599
52	0x3e0de19b	0.13855593
53	0xbcd54441	-0.026033523
54	0xbeb7a541	-0.35868266
55	0xbdb7c6ab	-0.0897344
56	0x3e8490f6	0.25891846
57	0xbe684eb6	-0.22686276
58	0xbeeb88c6	-0.46002787
59	0x3e9e6982	0.3093987
60	0xbdcaa3b4	-0.09894505
61	0xbd284978	-0.04108569
62	0x3e3794b7	0.17927824
63	0xbe605989	-0.21909155
64	0x3e2eba4f	0.17063259
65	0x3da97833	0.08274879
66	0xbdfc3f20	-0.12316728
67	0x3f273ad4	0.6532414
68	0x3e71043e	0.23536775
69	0x3d9604ef	0.0732516
70	0x3eca6ef9	0.3953779
71	0xbcf3b17b	-0.029747715
72	0xbd2e4977	-0.04255053
73	0xbf21e7ea	-0.632445
74	0xbe0bb769	-0.13644184
75	0x3df09970	0.11748016
76	0x3e842475	0.25809065
77	0xbf3eee11	-0.7458201
78	0x3e95b16c	0.29236925
79	0xbddb73a1	-0.10715414
80	0x3ec38c7c	0.3819312
81	0xbe8876eb	-0.26653227
82	0xbeac14b8	-0.33609557
83	0x3e6b5ad7	0.22983871
84	0x3dc53682	0.09629537
85	0x3ef8a7e7	0.485656
86	0xbe9b517e	-0.3033561
87	0xbe8a843c	-0.27054012
88	0x3ceba756	0.028766315
89	0xbf07ddef	-0.5307302
90	0xbdeba7b4	-0.11506596
91	0xbd6574b1	-0.05601949
92	0x3da2f5a4	0.079570085
93	0xbf5cba16	-0.86221445
94	0xbdf341bf	-0.118777744
95	0xbd7efd46	-0.06225326
96	0x3e2f1d20	0.17100954
97	0xbfaad6b3	-1.3346771
98	0xbe615cf2	-0.22008112
99	0x3eb34024	0.35009873
100	0x3e03c6ec	0.12868851
101	0xbe68e80c	-0.22744769
102	0xbe673e45	-0.22582348
103	0x3da7f56a	0.08201106
104	0x3e805424	0.25064194
105	0x3d885a5d	0.066578604
106	0xbd8f57b6	-0.069991514
107	0xbe25cf7f	-0.16192435
108	0x3e0c938a	0.13728157
109	0xbd749817	-0.059715357
110	0xbeadecc3	-0.33969697
111	0xbde316e7	-0.11088353
112	0xbe30a923	-0.1725202
113	0xbf4829d4	-0.78188825
114	0x3e473422	0.19453481
115	0xbce0362e	-0.027369585
116	0xbf2c7d1c	-0.673784
117	0xbe58e67d	-0.21181674
118	0xbe84af57	-0.25915024
119	0xbe354902	-0.17703632
120	0xbf8e3f54	-1.1113076
121	0xbea1d5f3	-0.31608543
122	0xbe57c0e5	-0.21069677
123	0xbd35c35f	-0.044375774
124	0x3ddafb30	0.106924415
125	0xbcb616d5	-0.022227684
126	0x3e3932dc	0.18085808
127	0xbd279bc4	-0.040920034

fc3.weight f4 [4, 128]
0	0x3f6bd85c	0.92127013
1	0x3f313044	0.6921427
2	0x3f1ed201	0.6203919
3	0xbef16b45	-0.47152153
4	0x3f8c48cd	1.0959717
5	0xbea3e402	-0.32009894
6	0xbf88e9cd	-1.069635
7	0x3ef40c1e	0.47665495
8	0x3f21e0d8	0.6323371
9	0x3edf42fe	0.43605798
10	0x3f3f02db	0.7461373
11	0x3f7de328	0.9917474
12	0xbfa51d7d	-1.2899624
13	0xbf7d737c	-0.9900434
14	0xbfb30c08	-1.3988047
15	0xbf46783d	-0.7752722
16	0xbf02d1b7	-0.5110125
17	0x3f62fa4b	0.88663167
18	0x3f70ea3b	0.9410741
19	0xbf626f6e	-0.8845128
20	0xc0084d74	-2.1297274
21	0xbfe153d3	-1.7603706
22	0x3ee12544	0.43973744
23	0x3d0346f1	0.032050077
24	0x3e3154f8	0.1731757
25	0x3f3d1159	0.73854595
26	0x3f693e71	0.91110903
27	0x3eddd922	0.43329722
28	0xbe800070	-0.25000334
29	0xbfa74a10	-1.3069477
30	0x3f0085af	0.50203985
31	0x40052c5d	2.0808327
32	0xbf745c95	-0.9545377
33	0xbddd6367	-0.10809975
34	0xbf5a505c	-0.8527887
35	0xbf1f6bac	-0.6227367
36	0xbf5e569f	-0.86850923
37	0xbfbf00b9	-1.4922096
38	0x3f812cce	1.0091798
39	0xbe5026f3	-0.20327358
40	0x3cd6fb78	0.026242957
41	0xbf0fcd50	-0.56172657
42	0xbd89403a	-0.06701703
43	0x3f47d594	0.7806027
44	0x3d3af945	0.04564788
45	0xbda61e23	-0.08111217
46	0x3ef5f5f1	0.480392
47	0xbf3017eb	-0.68786496
48	0xbc48bd2d	-0.012252134
49	0xbf223122	-0.6335622
50	0x3f153ac6	0.58292806
51	0xbf0d9199	-0.5530029
52	0xbf501e2d	-0.81296045
53	0xbdb9777f	-0.09055995
54	0xbe46ba31	-0.19406964
55	0xbe97aaac	-0.296224
56	0xbefd11d6	-0.4942767
57	0x3f303547	0.68831295
58	0xbf7d569e	-0.9896029
59	0x3f1be5bc	0.6089742
60	0x3f334089	0.7002035
61	0xbdd77e0a	-0.10522087
62	0x3e4e04aa	0.20118967
63	0xbfa04049	-1.2519618
64	0xbf67550d	-0.9036415
65	0x3e9747df	0.2954702
66	0xbfd253a0	-1.643177
67	0x3fb31913	1.3992027
68	0x3f3979a1	0.72451216
69	0xbf2a62a1	-0.66556746
70	0xbebe29c6	-0.37141246
71	0xbf31c97a	-0.69448054
72	0x3e80d233	0.2516037
73	0xc0042300	-2.0646362
74	0xbea96793	-0.33086833
75	0x3edc13ed	0.42983952
76	0xbe99a1fa	-0.3000639
77	0xbecf8928	-0.4053433
78	0x3f87ce74	1.060988
79	0x3f84bd5f	1.0370291
80	0x3f377fc7	0.7167935
81	0xbf6859a3	-0.90761775
82	0xbf22a59e	-0.6353396
83	0xbfbb5d9b	-1.4637941
84	0xbf9b5b15	-1.2137171
85	0xbeb560e0	-0.35425472
86	0x3f104aef	0.5636434
87	0x3f7a25ba	0.97713816
88	0x3fbd3889	1.4782878
89	0xbfea89fd	-1.8323361
90	0x3f88b889	1.0681316
91	0xbd9c603b	-0.07635542
92	0xbf9733aa	-1.1812642
93	0xbf14e1ec	-0.5815723
94	0x3eed405a	0.4633816
95	0xbf0f58f9	-0.55995136
96	0x3f7360b3	0.95069426
97	0xbfd20f4f	-1.6410922
98	0xbf7c1de9	-0.9848314
99	0x3f7d9b96	0.9906553
100	0x3ede8964	0.43464196
101	0xbf39c8da	-0.725721
102	0x3f8c1ca5	1.0946242
103	0x3ed041ea	0.40675288
104	0x3e7a58c8	0.2444793
105	0xbf582aa7	-0.8444008
106	0xbf86e479	-1.0538474
107	0x3eb60db6	0.35557336
108	0x3eee6582	0.4656182
109	0xbd8b7ae7	-0.06810551
110	0xbf03d84f	-0.51501936
111	0xbf5b1483	-0.85578173
112	0x3ef8c419	0.4858711
113	0x3f261fbf	0.6489219
114	0x3f001988	0.5003896
115	0xbdd56054	-0.10418764
116	0xbf12cfb4	-0.5734818
117	0xbfc4152e	-1.5318964
118	0x3f57e2be	0.84330356
119	0xbf8d0398	-1.1016722
120	0x3fec8356	1.847758
121	0x3de26301	0.1105404
122	0x3f2bcc06	0.6710819
123	0x3f712605	0.9419864
124	0x3f60943e	0.877262
125	0xbfe14ad9	-1.7600967
126	0x3f1bce8d	0.60862046
127	0x3fab1198	1.3364744
128	0x3f695423	0.9114401
129	0x3f0f4788	0.55968523
130	0x3f14cda2	0.5812627
131	0xbf19ff71	-0.601554
132	0x3f841e92	1.0321829
133	0x3e23564f	0.15950893
134	0xbf64cc27	-0.8937401
135	0x3f162b47	0.58659786
136	0x3f12a6c5	0.5728572
137	0x3f44e406	0.76910436
138	0x3f38b743	0.72154635
139	0x3f801102	1.000519
140	0xbf23c6a1	-0.6397496
141	0xbf8bedce	-1.0931947
142	0xc004e619	-2.076544
143	0xbf32d7e0	-0.6986065
144	0xbf207c63	-0.626898
145	0x3f8292f9	1.0201102
146	0x3f8382ad	1.0274254
147	0xbf238609	-0.63876396
148	0xbff805dc	-1.9376788
149	0xbfcfc7fa	-1.6232903
150	0x3ed019cf	0.4064469
151	0xbe49d390	-0.19709611
152	0xbe672c22	-0.22575429
153	0x3c81a0b5	0.015823701
154	0x3f7aa55f	0.97908586
155	0x3f9035e5	1.1266447
156	0xbeaa9dec	-0.3332361
157	0xbf42e368	-0.76128244
158	0x3eee3bfc	0.4653014
159	0x400e0afd	2.2194207
160	0xbfb31bdd	-1.3992878
161	0xbf8370a8	-1.0268755
162	0xbfca2476	-1.5792377
163	0xbefd2c26	-0.49447745
164	0xbeb1cddb	-0.34727368
165	0xbf80d6f9	-1.0065604
166	0x3f8771e5	1.0581633
167	0xbf07e8ae	-0.53089416
168	0x3e592641	0.21205999
169	0xbefcf17e	-0.49402994
170	0xbd66f7b6	-0.05638858
171	0x3f4183f0	0.75591946
172	0x3ee16d56	0.4402873
173	0xbd995147	-0.074862055
174	0x3eec1a84	0.4611398
175	0xbe6ea643	-0.23305611
176	0x3f18a6a0	0.5962925
177	0xbf2f0dba	-0.6838032
178	0x3eed334c	0.463282
179	0xbede4660	-0.43413067
180	0xbf59e28d	-0.85111314
181	0xbe940cfc	-0.28916156
182	0xbef627f6	-0.48077363
183	0xbed2a2a5	-0.41139713
184	0xbf4cdf88	-0.8002858
185	0x3f362cc1	0.7116204
186	0xbf155332	-0.5833007
187	0x3f2ccba5	0.67498237
188	0x3f574da8	0.8410287
189	0xbcf1f35a	-0.029534984
190	0x3ec1774d	0.37786332
191	0xbfb6e533	-1.4288696
192	0xbfc03848	-1.5017176
193	0x3edbc35d	0.42922488
194	0xbfb71600	-1.4303589
195	0x3fa78bd2	1.3089545
196	0x3f01f8d0	0.5077028
197	0xbf1e2c67	-0.617865
198	0xbe94cbb6	-0.2906167
199	0xbe1d5438	-0.15364158
200	0x3e7ba662	0.24575189
201	0xc0303f98	-2.7538815
202	0xbf05f49d	-0.52326375
203	0x3f1a066c	0.6016605
204	0xbe38a442	-0.1803141
205	0xbea27408	-0.3172915
206	0x3f804dd3	1.002375
207	0x3f866b88	1.0501566
208	0x3f360017	0.7109389
209	0xbf60484d	-0.8761032
210	0xbe904b1e	-0.2818231
211	0xbfdd4adb	-1.7288469
212	0xbf7ebc02	-0.9950563
213	0xbe6c1e08	-0.23058331
214	0x3f234b68	0.63786936
215	0x3e8b60ab	0.2722219
216	0x3fe9b4e7	1.8258332
217	0xbf99c8cb	-1.2014402
218	0x3f8eb11b	1.1147798
219	0x3e220bf6	0.15824875
220	0xbfa1e14b	-1.2646879
221	0xbf15dfcd	-0.5854462
222	0x3e950b7e	0.2911033
223	0xbf17dc0d	-0.59320146
224	0x3f6e2aa4	0.93033814
225	0xbfb4a0ed	-1.4111611
226	0xbf819213	-1.0122703
227	0x3f8136e6	1.0094879
228	0x3df40821	0.11915613
229	0xbf9d6f20	-1.2299538
230	0x3fa9de11	1.3270894
231	0x3e897a3c	0.2685107
232	0x3e8465a5	0.258588
233	0xbf7223be	-0.9458579
234	0xbf6362f9	-0.88822895
235	0x3e2c8355	0.16846974
236	0x3f13c4eb	0.5772235
237	0xbc3a65b2	-0.011376785
238	0xbf1e8ad0	-0.6193056
239	0xbf727758	-0.94713354
240	0x3efeebb9	0.49789217
241	0x3ef00315	0.4687735
242	0x3f2522ea	0.645064
243	0x3e4e87d2	0.20168999
244	0xbeb9971e	-0.36248106
245	0xbf995689	-1.1979533
246	0x3f78c95b	0.97182244
247	0xbfa2d86e	-1.2722299
248	0xbededf80	-0.43529892
249	0x3e68ff4a	0.22753635
250	0x3f06fd72	0.52730477
251	0x3f82c360	1.0215874
252	0x3f817b7c	1.011581
253	0xbf64a685	-0.8931659
254	0x3f345fb2	0.7045852
255	0x3fa69209	1.3013316

fc3.bias f4 [4]
0	0x3eee871c	0.46587455
1	0x3e7e3a79	0.24826993
2	0x3db32474	0.08747187
3	0x3ed295e6	0.41129988

exp_avg f4 [256, 8]
0	0x3c9a11a4	0.01880724
1	0x3c252709	0.0100801075
2	0x3afcfe54	0.001930187
3	0xbc9e2891	-0.019306453
4	0x3c5cc565	0.013474797
5	0x3b71521e	0.0036822627
6	0xbb7afab9	-0.0038296415
7	0x3b5d99f3	0.0033813685
8	0x3bdb591b	0.006693972
9	0x3a528ff6	0.0008032316
10	0xbb4e2936	-0.003145767
11	0xb94a762d	-0.00019308245
12	0xbbc80e09	-0.0061051887
13	0x3c322640	0.010873377
14	0x3d0319cf	0.032007035
15	0x3d8156d8	0.06315392
16	0x3bcbdda5	0.0062214904
17	0xb986a52f	-0.00025681543
18	0x3c4fa102	0.012672665
19	0x382d25e8	4.1281717e-05
20	0xbb91d1fb	-0.0044500805
21	0x3c0f6117	0.008751175
22	0x3c47a0a3	0.012184295
23	0xbd640ff7	-0.055679288
24	0xbadbde74	-0.001677467
25	0xbbaa6193	-0.00519962
26	0xbbad0d93	-0.005281159
27	0x3b5b6c2e	0.0033481228
28	0x3bcd6d9c	0.00626917
29	0xbb179a67	-0.0023132802
30	0xbb8c7d9f	-0.004287436
31	0x3ced4f7c	0.028968565
32	0xbd0fb176	-0.03508135
33	0x3c6c50aa	0.014423529
34	0xbbfe5947	-0.0077621075
35	0x3d163899	0.03667507
36	0xbc9cb7e4	-0.019130655
37	0x3ca48e71	0.020087453
38	0xbbbbd536	-0.005732204
39	0x00000004	6e-45
40	0x3a4da804	0.00078451657
41	0x3cada2c7	0.021195782
42	0x3bc393e5	0.005968558
43	0xbc30b300	-0.010784864
44	0xbbd99311	-0.006639846
45	0xbc002ccc	-0.00782318
46	0xbca4a26a	-0.020096976
47	0xbca84a54	-0.020543255
48	0x3d4b0059	0.04956088
49	0xbcf0fad2	-0.029416475
50	0xbbaa761f	-0.0052020694
51	0xbd2ebe3e	-0.042661898
52	0x3cee0b13	0.029058015
53	0xbc77be8c	-0.0151211135
54	0xbce04a21	-0.027379097
55	0xbd158401	-0.03650284
56	0x3c540a39	0.01294189
57	0x3b1191bd	0.002221211
58	0x3c3ef45e	0.011654941
59	0xbaac9ae9	-0.0013168725
60	0xbbffaee3	-0.0078028305
61	0xbcd4e006	-0.025985729
62	0xbb96b26a	-0.0045989053
63	0x3c0dd82c	0.008657496
64	0x3d31894a	0.04334382
65	0xbc92a54b	-0.017901083
66	0x3c15f67c	0.009153005
67	0xbc569e59	-0.013099276
68	0x3c871bdb	0.016492775
69	0xbc83eac8	-0.016103163
70	0x3ba520fc	0.0050393324
71	0xbad7a566	-0.0016452491
72	0x3b894b52	0.004189887
73	0x3baac9c4	0.0052120406
74	0xbc42b471	-0.011883841
75	0xbbbbc637	-0.005730416
76	0xbc07b2ba	-0.008282358
77	0xbaf6db2c	-0.0018833629
78	0x3c74e5bf	0.014947354
79	0x3cdbdfce	0.026840117
80	0x3aea9489	0.001789705
81	0xbbc6fe31	-0.0060727824
82	0x3b6bd585	0.0035985422
83	0x3ba69963	0.005084203
84	0x388907e7	6.534141e-05
85	0xbb9b84e6	-0.0047460673
86	0xbb0755fe	-0.002065062
87	0xba902493	-0.0010997228
88	0xbc15a42c	-0.00913338
89	0x3b9cb0ba	0.0047818096
90	0xbbd1b4d7	-0.0063997316
91	0xbabfdfc5	-0.0014638832
92	0x3bb8b716	0.00563706
93	0x3b66f849	0.0035243204
94	0xbc32cbcf	-0.01091285
95	0xbc4603f6	-0.012085905
96	0x3a820134	0.0009918571
97	0xbcc0ad47	-0.023520125
98	0x3bd44540	0.006477982
99	0xbc03aafa	-0.008036369
100	0x3ba36b23	0.004987137
101	0xbcbb1cac	-0.02284082
102	0xbcbe8fd2	-0.023261938
103	0xbd4f9fca	-0.050689496
104	0xbc860ab0	-0.016362518
105	0x39fe22a3	0.00048472462
106	0x3b7b105b	0.003830931
107	0x3b432824	0.0029778564
108	0x3b9bb430	0.0047517046
109	0x3afa3bd1	0.0019091313
110	0x00000004	6e-45
111	0x3c401caa	0.011725584
112	0x3c6ea651	0.01456602
113	0xbc682c4b	-0.0141707165
114	0x3b2a600b	0.0025997187
115	0x3c810a84	0.015752085
116	0xbbc13572	-0.0058962638
117	0x3a8f9c0a	0.0010956537
118	0x3ca820f7	0.020523531
119	0x3d1a5b24	0.037684575
120	0xbc60ba03	-0.013716224
121	0xbc1d59a4	-0.0096038915
122	0x3b80c4b8	0.0039297007
123	0x3c8bce5a	0.01706617
124	0xba6f976d	-0.00091396907
125	0x3c328bb1	0.010897563
126	0x3d0bf79e	0.034171693
127	0x3cd007a0	0.02539426
128	0x3ab7a8c3	0.0014012087
129	0x3be9f1c7	0.007139418
130	0x3c2ce985	0.010553722
131	0x3a2b15d9	0.0006526388
132	0xbbd49123	-0.006487028
133	0x3c48c42b	0.012253801
134	0x3c47cd3b	0.012194927
135	0x3b929897	0.0044737565
136	0x3c75f974	0.015013088
137	0xbad10564	-0.0015947041
138	0xba73ab16	-0.0009295208
139	0xbc73ee07	-0.014888293
140	0x3a960da0	0.0011448152
141	0xbb1a9c20	-0.0023591593
142	0x3d0e4746	0.03473594
143	0x3cb3fbc8	0.021970645
144	0x3cc430ed	0.02394911
145	0xb9cb13c2	-0.00038733898
146	0x3c61c902	0.013780834
147	0x3ae6ede9	0.001761851
148	0xbcb7ae9b	-0.022422126
149	0x3c1ff9f1	0.0097641805
150	0xbd9569cd	-0.072955705
151	0xbdc13bfb	-0.094352685
152	0xbc698abf	-0.014254271
153	0xbaabb017	-0.0013098744
154	0x3afb45db	0.0019170599
155	0x3adbd931	0.0016773102
156	0xbbe808f2	-0.0070811445
157	0x3d0cdad2	0.03438837
158	0x3cbf2621	0.023333611
159	0xbc0f8a0b	-0.008760939
160	0x3a8355bb	0.0010020057
161	0x3c20efa6	0.009822762
162	0xbbb8fe13	-0.0056455224
163	0xbb828ff3	-0.0039844452
164	0xb9dc8dd7	-0.0004206735
165	0x3c87c5aa	0.016573746
166	0xbc054232	-0.008133458
167	0x3bd71af4	0.0065644924
168	0x3c404a96	0.011736533
169	0x3a827a82	0.0009954723
170	0x3b40fe5c	0.0029448485
171	0xbbe9a033	-0.007129693
172	0xb9fbe9ec	-0.00048048736
173	0x3b572218	0.0032826718
174	0x3c1c6a42	0.009546818
175	0x00000004	6e-45
176	0x3c5997d6	0.013280829
177	0x3a1168f0	0.0005546948
178	0xbab033a0	-0.001344312
179	0xbaf791a3	-0.0018888008
180	0x3a12877f	0.00055896485
181	0xbc18ce08	-0.009326465
182	0x3b18191c	0.0023208326
183	0x3c6295b9	0.013829642
184	0xbba8b49f	-0.005148485
185	0x3b3b513a	0.002858235
186	0x3b65d064	0.0035066837
187	0x3aa033c5	0.001222246
188	0x3a2ee291	0.0006671334
189	0xbaa1e449	-0.001235136
190	0xbc0e3c64	-0.00868139
191	0xbc2df08c	-0.010616433
192	0xbc200599	-0.00976696
193	0x3c4b3bae	0.012404365
194	0xbc054f59	-0.008136594
195	0x3a61712f	0.00085999345
196	0xbbae7c68	-0.005324889
197	0x3b39d8b8	0.0028357934
198	0xbc0f92c7	-0.008763022
199	0x00000004	6e-45
200	0x3a9f1844	0.0012137969
201	0xbba6bdf6	-0.005088563
202	0xbc8b7295	-0.01702241
203	0x3b4f1df7	0.0031603554
204	0xbd02a0d3	-0.031891655
205	0x3c84f6a0	0.016230881
206	0xbc2063c8	-0.009789415
207	0x3cb81b2d	0.022473896
208	0xb92c2460	-0.00016416749
209	0x3c5ed7ff	0.013601302
210	0xbc02bd01	-0.007979632
211	0xbc4b9eff	-0.012428044
212	0xbc1a4695	-0.009416242
213	0x3c9d0949	0.019169467
214	0xbb1c29e4	-0.002382868
215	0x3d1c1ffc	0.03811644
216	0xbc88a49c	-0.016680054
217	0xbc1905d8	-0.009339772
218	0x3967c065	0.00022101549
219	0x3d2e42ca	0.042544164
220	0xbc60f001	-0.013729096
221	0x3cdb5d6c	0.026777945
222	0xbc7fb6d2	-0.015607553
223	0xbd0250f5	-0.031815488
224	0xbc261521	-0.010136873
225	0x3b9adb88	0.004725877
226	0x394a8bdc	0.00019316323
227	0xbc4f309b	-0.012645866
228	0xbaa0a201	-0.0012255312
229	0x3b82b0ad	0.0039883466
230	0x3bc0cda6	0.00588389
231	0x39bcdb6e	0.00036021642
232	0xbdb49feb	-0.088195644
233	0xbd795624	-0.060873166
234	0xbd16ef2f	-0.036849197
235	0x3e32e2b8	0.17469299
236	0xbd795fb8	-0.0608823
237	0x3c837064	0.016044803
238	0x3c477790	0.012174502
239	0x3d439bbc	0.04775594
240	0x3caf77cc	0.021419428
241	0xba1ec831	-0.00060570525
242	0x3bd6c330	0.00655403
243	0x3b6b484a	0.0035901242
244	0xbc3d5a91	-0.011557237
245	0x3cd1b83d	0.025600547
246	0x3d3b7655	0.045767147
247	0x3c74598c	0.014913928
248	0x3c0f8ef8	0.008762114
249	0x3c498d0b	0.012301694
250	0x3c832381	0.01600814
251	0xbc8e449f	-0.017366705
252	0x3c2ca6f1	0.010537849
253	0xbbecc3c1	-0.007225484
254	0x3b8de128	0.004329819
255	0x3c568815	0.013093968

exp_avg_sq f4 [256, 8]
0	0x3b8822ea	0.0041545527
1	0x3d2399f9	0.03994176
2	0x3b83610f	0.004009373
3	0x3cabdc85	0.020979175
4	0x3ad01d50	0.0015877876
5	0x3a9c4a60	0.0011924021
6	0x3ad84bd8	0.0016502095
7	0x3b8ca4c5	0.004292103
8	0x3b4bd642	0.003110305
9	0x3a2adde5	0.000651805
10	0x3a2d0cde	0.00066013436
11	0x3a90f51d	0.0011059378
12	0x3abbc45f	0.0014325491
13	0x3bd57059	0.006513637
14	0x3cfbfe40	0.030760884
15	0x3d17b6d9	0.03703961
16	0x3b3b3ae0	0.0028569028
17	0x391f9a0e	0.00015220811
18	0x3aab881d	0.001308683
19	0x3a472c49	0.00075978466
20	0x3ad4ed4e	0.0016245039
21	0x3bbb5f6b	0.005718162
22	0x3cd2e9da	0.025746275
23	0x3d24a939	0.040200446
24	0x3b1d8434	0.0024035098
25	0x39d16a77	0.0003994291
26	0x3a7c17e0	0.0009616595
27	0x3a614b41	0.00085942826
28	0x3ad505f2	0.0016252382
29	0x3bb3b57a	0.00548428
30	0x3caedb1a	0.02134471
31	0x3c986f08	0.018607631
32	0x3cb4993e	0.022045728
33	0x3e01a745	0.12661465
34	0x3c939a07	0.018017782
35	0x3d973a10	0.073841214
36	0x3c21a9f6	0.009867182
37	0x3c972718	0.018451259
38	0x3cb381cc	0.021912478
39	0x000001f4	7e-43
40	0x3ad0911e	0.0015912389
41	0x3ac8d5a3	0.0015322458
42	0x3a570d1f	0.00082035543
43	0x3b1ed279	0.0024234338
44	0x3a025c7c	0.00049728877
45	0x3b1b9f71	0.0023746158
46	0x3b747de8	0.0037306491
47	0x3b30104e	0.0026865187
48	0x3cdb104d	0.026741171
49	0x3e20e9b6	0.15714154
50	0x3cb40729	0.02197607
51	0x3d66c137	0.056336608
52	0x3bcc1694	0.0062282775
53	0x3b93a682	0.0045059333
54	0x3c5e3938	0.013563447
55	0x3c16e18a	0.009209046
56	0x3b09d74f	0.0021032875
57	0x390e9c1a	0.00013600328
58	0x3a452f1a	0.00075219723
59	0x39eb42c0	0.00044872425
60	0x3a8270bd	0.0009951812
61	0x3b6069f0	0.0034242831
62	0x3a9ab266	0.0011802434
63	0x3c82e10c	0.015976451
64	0x3ce40c48	0.027837887
65	0x3e7a294e	0.24429819
66	0x3cd75e6c	0.026290141
67	0x3de00575	0.10938541
68	0x3c3471ca	0.011013458
69	0x3cb84dea	0.02249809
70	0x3cdd2c90	0.026998788
71	0x3cada5fd	0.021197313
72	0x3b6ebbe1	0.0036427903
73	0x3bc9c094	0.0061569903
74	0x3b57f5a5	0.0032952812
75	0x3b7c8529	0.0038531518
76	0x3ae3b9c4	0.0017374088
77	0x3b4bc9fb	0.0031095732
78	0x3c1c5409	0.00954152
79	0x3c5e3046	0.013561314
80	0x3aaae387	0.0013037779
81	0x3a944c9f	0.0011314339
82	0x3a4fd003	0.00079274195
83	0x3ae767fc	0.0017654891
84	0x3a900fab	0.0010990998
85	0x3c0b8d39	0.008517557
86	0x3c57724c	0.013149809
87	0x399703e6	0.0002880387
88	0x3b5d5ca8	0.0033777151
89	0x3997e8dc	0.00028974458
90	0x3ad77e16	0.0016440775
91	0x3aa3b17e	0.001248881
92	0x3a792924	0.00095047266
93	0x3b9b885a	0.004746479
94	0x3cb2f1d4	0.021843828
95	0x3c7d11b8	0.015446119
96	0x3be8d90b	0.0071059517
97	0x3d8cd21e	0.06876014
98	0x3be798b7	0.0070677656
99	0x3ce51aea	0.027966935
100	0x3b3345be	0.0027354802
101	0x3b35990d	0.0027709634
102	0x3bf98e36	0.00761583
103	0x3c4a296b	0.012338976
104	0x3be21352	0.006899276
105	0x3adc9091	0.0016827752
106	0x3b51a758	0.0031990614
107	0x3a8ceb68	0.0010751309
108	0x3b88aa71	0.004170709
109	0x3b8fc27b	0.0043871976
110	0x39e85875	0.00044316394
111	0x3b9ca2ec	0.004780164
112	0x3c365d22	0.011130603
113	0x3c136533	0.008996296
114	0x3bb18940	0.005417973
115	0x3c35c3d2	0.0110940505
116	0x3b7c3721	0.0038485008
117	0x3bbf724f	0.005842484
118	0x3c6cf423	0.014462504
119	0x3c5ddecc	0.013541888
120	0x3b2f99ff	0.002679467
121	0x3c021138	0.007938676
122	0x3b0a248c	0.0021078913
123	0x3b6d6b09	0.0036227128
124	0x3ab20294	0.0013581091
125	0x3bb032cd	0.0053771497
126	0x3cb792f7	0.022408945
127	0x3d1abdb3	0.037778568
128	0x3b9b756b	0.004744222
129	0x3b37ecc5	0.002806471
130	0x3ac2a4c4	0.0014850129
131	0x3b6960f3	0.0035610765
132	0x3ab9ef5a	0.0014185712
133	0x3b2c47e5	0.002628797
134	0x3c0ac2a0	0.008469254
135	0x3b25cc71	0.0025298859
136	0x3b72e3c4	0.0037062028
137	0x3cdc8b7c	0.02692198
138	0x3b54db65	0.0032479402
139	0x3c58ba0e	0.013227953
140	0x3acc2ad0	0.0015576724
141	0x3afccb19	0.0019286602
142	0x3c62254b	0.013802837
143	0x3c85900a	0.016304035
144	0x3b40606e	0.0029354352
145	0x3a50868f	0.0007954621
146	0x3a82afbf	0.0009970589
147	0x38da4b77	0.000104091065
148	0x3a9a1390	0.0011755098
149	0x3acec1e8	0.0015774341
150	0x3d2005bb	0.039067965
151	0x3d3b171d	0.04567634
152	0x3a9a6691	0.0011779835
153	0x38a4380d	7.83057e-05
154	0x3a63c1ca	0.00086882396
155	0x399411a7	0.00028241912
156	0x3a472490	0.0007596696
157	0x3b196f90	0.0023412444
158	0x3c88f5bf	0.016718743
159	0x3c93aba0	0.018026173
160	0x3a5714aa	0.00082046783
161	0x3b2d5cf8	0.0026453119
162	0x3a034cf4	0.00050087203
163	0x3b05018c	0.0020295111
164	0x3a07bf16	0.00051783153
165	0x3aa6efef	0.0012736301
166	0x39bbd4ca	0.0003582596
167	0x3b94ae14	0.0045373533
168	0x3a987617	0.0011631873
169	0x3b85ab7a	0.0040792795
170	0x3a8d0314	0.0010758364
171	0x3b819f11	0.00395573
172	0x3a8ddce6	0.0010823279
173	0x3aa5cadb	0.0012648957
174	0x3bae3bca	0.005317186
175	0x33a2dbd2	7.583698e-08
176	0x3c07d3ac	0.008290213
177	0x3ab9fee2	0.0014190341
178	0x3a6db79d	0.0009068193
179	0x3a382fce	0.00070261664
180	0x3a31690a	0.0006767666
181	0x3aae82a9	0.0013314086
182	0x39add75a	0.0003315758
183	0x3bbc9dfa	0.005756137
184	0x3bee33f4	0.007269377
185	0x3a9968f3	0.0011704251
186	0x3a8ed705	0.0010897821
187	0x39b05a49	0.00033636604
188	0x3ad21938	0.0016029244
189	0x3b54e7af	0.0032486727
190	0x3c8fe893	0.017566955
191	0x3c384332	0.011246489
192	0x3b4298ed	0.0029693202
193	0x3ca51c69	0.020155149
194	0x3b0c14a4	0.0021374607
195	0x3c34e880	0.01104176
196	0x3a81b360	0.0009895377
197	0x3a5e8ba2	0.0008489435
198	0x3b694d84	0.0035599181
199	0x36911b13	4.3244886e-06
200	0x3d3b3dd2	0.045713253
201	0x3b3057e1	0.0026907849
202	0x3c98d089	0.018654125
203	0x3d4c134c	0.04982309
204	0x3ca9865d	0.020693952
205	0x3d80df48	0.062925875
206	0x3e1f37cc	0.15548629
207	0x3e68c306	0.22730646
208	0x3c0b7d9e	0.008513836
209	0x3c818eb7	0.015815122
210	0x3bd086e9	0.006363739
211	0x3c1310aa	0.008976141
212	0x3b7e763b	0.0038827795
213	0x3c594c47	0.013262815
214	0x3b55bc59	0.0032613485
215	0x3d8d1972	0.06889619
216	0x3c9b8a96	0.018986981
217	0x3db65310	0.08902562
218	0x3c7246bc	0.014787372
219	0x3d61a506	0.05508902
220	0x3c25ff6f	0.010131701
221	0x3c9ff0c0	0.019523978
222	0x3de1f568	0.11033136
223	0x3df4bab9	0.11949677
224	0x3a8db15e	0.0010810306
225	0x3bbf900c	0.005846029
226	0x3adbf7e4	0.0016782251
227	0x3b24f9db	0.002517334
228	0x3a0c9bee	0.00053638115
229	0x3ab6449b	0.0013905944
230	0x3b0b2c1e	0.0021236013
231	0x3bc08aa5	0.0058759027
232	0x3de34ff1	0.11099232
233	0x3f6efe47	0.93356746
234	0x3e079a74	0.13242513
235	0x3ec6e77d	0.38848487
236	0x3d36429a	0.04449711
237	0x3d83725e	0.06418298
238	0x3d7ffbd3	0.062496018
239	0x3d43d4d8	0.047810405
240	0x3b86e40b	0.0041165403
241	0x39f769f7	0.0004719046
242	0x3a9cbbcc	0.0011957823
243	0x3acf73bf	0.0015827342
244	0x3ad6c947	0.001638689
245	0x3bc44c1d	0.0059905187
246	0x3ce55880	0.027996302
247	0x3cc55091	0.024086269
248	0x3b779f6f	0.0037784239
249	0x3c92754a	0.017878193
250	0x3b847bd7	0.004043083
251	0x3bb51acc	0.005526876
252	0x3a9e8262	0.00120933
253	0x3af97ff7	0.0019035329
254	0x3bdc03c2	0.006714315
255	0x3b90ba07	0.0044167074
