results/models/baseline_dqn_ep800.pth (torch, 436226 bytes, 18 tensors)

fc1.weight f4 [256, 8]
000000 b8 32 df 3c e8 92 0b 40 83 18 b3 be 67 61 74 3f
       0.027245864 2.1808414 -0.34979638 0.95461124
000010 0b 98 e0 bf 08 b5 e8 bf 90 47 df be 56 40 89 3e
       -1.75464 -1.8180246 -0.43609285 0.26806897
000020 31 1f 84 3e cc 94 4a bf 27 0b 16 c0 f8 09 5a 3e
       0.25805047 -0.79133296 -2.3444307 0.21292865
000030 2d ef 8c 3f 56 58 6f 3d 98 63 8b 3e ec 11 5a 3b
       1.1010491 0.058433853 0.27224422 0.0033274842
000040 b0 e5 2d bf 52 22 46 c0 45 fc 42 3f 19 40 46 3f
       -0.679286 -3.0958447 0.7616618 0.77441555
000050 57 58 21 3e e9 f8 1f 3f 95 73 12 3e 28 c5 24 3f
       0.15756355 0.6248918 0.14301904 0.64363337
000060 c8 86 3d bf 7c 9f 68 bf 9d b0 a9 bf 8a 34 a3 be
       -0.74033785 -0.90868354 -1.3257023 -0.31876022
000070 c2 d7 a9 3e d2 e8 3b 3f 51 a2 2c 3f 69 62 09 3f
       0.33172423 0.7340213 0.67435175 0.53665787
000080 6c 86 9d 3e 9d e7 07 3f ba cd 1b bf fe dc c0 bf
       0.30766618 0.5308779 -0.6086079 -1.5067441
000090 cd 8d 21 bf 95 df bd 3e 37 b4 8f be c2 6d ad bf
       -0.63106996 0.37084642 -0.2806718 -1.354912
0000a0 db ad b0 bf e6 74 43 3f 11 b1 aa be 5a ac 1a be
       -1.3803056 0.7635025 -0.33338216 -0.1510481
0000b0 35 3a 93 bf 2f d2 38 3f e3 b9 79 3e c0 2e 7c 3d
       -1.1502138 0.72195715 0.24387316 0.06156802
0000c0 c4 8c 2c be 18 eb 15 bd d8 b5 5e 3f 3b 63 a7 bb
       -0.16850573 -0.036601156 0.8699622 -0.0051082647
0000d0 31 c1 a1 3f 35 e3 b2 3f 32 ff 87 3f e5 1a 75 bf
       1.2637082 1.3975588 1.0624754 -0.9574416
0000e0 d0 b0 49 bf b6 82 94 bf 45 24 7a bf f1 d2 15 3e
       -0.7878542 -1.160239 -0.9771159 0.14631249
0000f0 f2 82 80 3f ad b7 ec bf e8 fe 86 bf 72 c1 9b 3e
       1.0039961 -1.8493553 -1.0546541 0.30421025
000100 19 23 8a be c1 1f 46 3f d1 11 91 bd ea 54 09 3f
       -0.26979902 0.773922 -0.07083476 0.53645194
000110 ab 94 98 3f f2 12 50 3f 1d 4a 22 3f 2d 56 ea 3e
       1.192037 0.8127891 0.6339434 0.45768872
000120 a1 73 03 3f aa 49 46 40 c3 b1 5c be 22 b3 87 3e
       0.5134831 3.098246 -0.21552186 0.26503855
000130 36 d8 c9 bf a7 db 3e bf 23 d2 4c be 3e 08 be be
       -1.5769107 -0.7455391 -0.20002036 -0.37115663
000140 b6 e0 09 be d9 d3 2e 3e fb 12 22 bf 3e a0 fa be
       -0.13464627 0.17073001 -0.6331021 -0.4895038
000150 f0 9c ba bf 5f 79 04 40 64 21 e7 39 b0 1e 8a bf
       -1.4579144 2.069908 0.0004408463 -1.0790615
000160 bc 29 38 be 4c c4 8e c0 cd 24 b8 be e6 1b 10 c0
       -0.1798467 -4.461462 -0.35965577 -2.2517028
000170 ac ee 50 3f 2a e2 a5 be da 3a 29 3f 18 65 c8 be
       0.81614184 -0.32399112 0.66105425 -0.39139628
000180 2d a4 c0 bf 32 a2 19 40 c2 d2 5e be 4d ad 84 3f
       -1.5050102 2.4005246 -0.21760085 1.0365387
000190 9e 34 0e 3f 50 31 69 3d 65 c8 a7 be 7b d7 81 3f
       0.5554904 0.056931794 -0.32770076 1.0143884
0001a0 91 86 1f be 49 f2 b7 3e 1e aa 17 c0 a7 fd 06 40
       -0.15578677 0.35927036 -2.3697581 2.1092317
0001b0 de 53 96 be 38 4d cc bf 56 66 ca bf 51 b9 95 be
       -0.2936086 -1.5961065 -1.581248 -0.29242948
0001c0 e5 73 7d 3f c4 27 b8 3f 38 28 df 3f 08 f4 e5 3d
       0.99004966 1.4387136 1.7434149 0.11228186
0001d0 74 4e 11 c0 42 b0 97 bf 31 0a b3 be ee 62 f2 be
       -2.2704134 -1.1850665 -0.34968713 -0.47341102
0001e0 ab bf a2 3e 1d c2 f8 3e 3f f7 4c c0 e6 f8 94 3e
       0.31786856 0.48585597 -3.2025907 0.29096144
0001f0 67 2d 5b 3f 12 4a c0 be 2b 74 c8 be fb d6 0e 3f
       0.85616153 -0.3755651 -0.3915113 0.55796784
000200 40 27 09 bf 99 b9 28 bf e5 df 94 3e 3c 13 c9 bd
       -0.53575516 -0.659082 0.29077068 -0.09818122
000210 5a 7b 9a be ea 8f 25 bf 61 76 b2 bd 48 53 20 bf
       -0.30172235 -0.6467272 -0.08713985 -0.6262708
000220 bc b0 cc be 88 8f 13 40 cc d9 5b bf 74 92 01 3f
       -0.39978588 2.3056355 -0.85879207 0.50614095
000230 56 db cb bf 99 b3 a3 bc f5 e0 1f bf f5 cd 44 3f
       -1.5926311 -0.0199831 -0.6245263 0.76876765
000240 fd ba 0c bf 4c d2 a3 3e bd ff a5 bf 8f 4f 8e 40
       -0.5497282 0.3199638 -1.296867 4.4472117
000250 49 88 21 3f c1 d6 aa bf 35 ce ce 3e f5 31 ae 3e
       0.6309858 -1.3346788 0.40391698 0.3402249
000260 ab ac b9 bc 4c 3c 75 c0 8e 32 be bf 78 c9 3e bf
       -0.022665342 -3.8318052 -1.4859178 -0.74526167
000270 18 8e 94 3f ec 76 22 be 6c f2 cc 3e 7f a9 41 bd
       1.1605864 -0.15865678 0.40028703 -0.047280785
000280 0a 8e f4 3e 66 c9 98 3f 2a 33 b3 3f 45 c6 37 bb
       0.47764617 1.1936462 1.3999989 -0.0028041762
000290 59 48 ce be 49 f6 2e bf ff c6 88 bf 84 12 93 3e
       -0.40289572 -0.6834455 -1.0685729 0.28725064
0002a0 e8 af 47 be a0 92 d7 3f fb 55 18 be c2 44 6e 3e
       -0.19500697 1.6841621 -0.14876549 0.23268417
0002b0 b4 94 05 c0 43 e6 ae 3e 0e 0a 2e 3e ad ee a8 bf
       -2.087201 0.3416005 0.16996023 -1.3197838
0002c0 8a a0 35 bf ef f4 93 bf ca ae c6 3c 44 9e 08 3e
       -0.7094809 -1.1559123 0.024253268 0.13341624
0002d0 a7 70 00 bc dc 8e a9 bf e8 9c ce bf da 21 46 3f
       -0.007839358 -1.3246722 -1.6141634 0.77395403
0002e0 fc 72 88 bf 5e 80 80 bf ad b6 1d bd fb 0e ba 3f
       -1.066009 -1.0039175 -0.03850429 1.4535822
0002f0 92 8e fc be ab 84 1e 3f 61 d2 cf 3e 2b a2 a5 be
       -0.49327523 0.61921185 0.40590194 -0.32350287
000300 15 27 ed be 4f 81 d8 3e 06 70 82 bd f3 85 39 bf
       -0.4631888 0.42286155 -0.06369023 -0.72470015
000310 05 f2 41 bf 68 bd 20 3f a5 a7 70 3e 3b cc 85 bf
       -0.7575992 0.6278901 0.23501451 -1.0452951
000320 f1 64 62 bd 4f ed cd c0 fd 43 f1 bd d5 67 4d bf
       -0.055272046 -6.4352183 -0.11780546 -0.8023656
000330 2e 3e a6 3f 41 bc 61 3e c7 b0 57 3d 63 b4 4e be
       1.2987726 0.2204447 0.052658822 -0.20186
000340 a8 bc ff 3d f0 44 42 40 7f 40 12 3e 24 57 9a 3f
       0.12487155 3.0354576 0.14282416 1.2057843
000350 a6 c4 a3 3f cc b3 57 be b6 55 d7 be 49 fe 8f 3b
       1.2794387 -0.21064681 -0.4205758 0.004394327
000360 c5 27 cb 3f 97 62 c5 3f 3e b3 98 bf 81 eb 54 3e
       1.5871512 1.5420712 -1.19297 0.20792963
000370 b8 2d 52 be 6b 9e de bd 5a 70 0e 3e ea 85 d6 3e
       -0.20525253 -0.108700596 0.13910046 0.41899043
000380 79 7b ea be 97 0d 9c 3e 65 9c 28 bf 78 af 22 be
       -0.45797327 0.30479118 -0.6586364 -0.15887249
000390 28 2e 98 3f a4 45 17 c0 67 bd ec 3d f7 d6 8f 3e
       1.1889086 -2.3636255 0.11559563 0.28093693
0003a0 32 49 5e 3a 56 bc 02 3b 37 b0 0d bd 21 eb 89 3b
       0.0008479535 0.0019948683 -0.03459188 0.0042089378
0003b0 30 3b a6 40 42 71 80 be df cf 2f bd 2e 0b a7 bf
       5.194725 -0.2508641 -0.04292285 -1.3050287
0003c0 20 b0 a3 bf 12 8f 51 c0 80 19 00 c0 29 4e d5 3e
       -1.2788124 -3.2743573 -2.0015564 0.41661194
0003d0 5c 91 cb bf 39 dd 65 3f 78 33 f6 bd 05 8c ca be
       -1.5903735 0.89790684 -0.12021536 -0.3955995
0003e0 a0 12 49 3f c7 b2 91 3f 8c b5 f5 3f d6 92 61 3f
       0.78544044 1.1382684 1.9196029 0.8811468
0003f0 2b a9 83 bf 64 21 7c 3f 28 e5 c8 bd ac ec e3 3e
       -1.0286001 0.9848845 -0.09809333 0.44516504

fc1.bias f4 [256]
000000 5b 53 89 bd 32 69 04 3e ff 43 24 bd 0e 35 b9 be
       -0.06705352 0.12930754 -0.04010391 -0.3617329
000010 67 51 02 3d f2 d6 12 be 8e d6 4b bd 52 f5 8c be
       0.031815913 -0.14339808 -0.049765162 -0.27530915
000020 09 42 7f 3d f3 92 84 3e 3c f3 20 bf 95 d3 97 be
       0.062318835 0.25893363 -0.62871146 -0.29653612
000030 2c 03 b6 bd ae 2e 90 3c 4d 48 a3 be f3 96 00 bd
       -0.08887324 0.017600384 -0.318911 -0.031393956
000040 48 10 07 3f 24 56 52 3e 00 1a e5 be 97 59 bb be
       0.5275922 0.20540673 -0.447464 -0.3659179
000050 09 2e 82 be 8a fd b6 be d0 b1 ba ba 77 52 86 3d
       -0.25425747 -0.3574031 -0.0014243666 0.06558698
000060 e4 2f 58 be 8a 0f 11 3e 69 5a 54 3e c9 9b a3 3e
       -0.21112019 0.14166084 0.20737614 0.31954792
000070 fa 7a 0d bf e8 7b ec ba 64 e0 0f 3f 7a 15 44 bf
       -0.5526577 -0.0018042298 0.5620177 -0.7659527
000080 cb 56 c9 be 00 e1 56 3e a2 a6 d0 be 19 aa 66 bf
       -0.3932403 0.20984268 -0.4075213 -0.901033
000090 b0 26 00 bf 3e f1 66 bf 1b b8 e0 be 77 1e e0 bd
       -0.5005903 -0.90211856 -0.4389046 -0.10943311
0000a0 47 35 24 bf 01 3b dc 3e 0a 2c 32 bd 71 38 98 3e
       -0.64143795 0.43013766 -0.04349903 0.2973056
0000b0 f4 32 f3 3d fd 41 ab be 3e da e5 3a 41 1c 72 3e
       0.11874953 -0.33448783 0.0017536355 0.2364359
0000c0 fc 72 32 bf 1f 71 6f bf b0 a6 e2 3d 77 be db 3e
       -0.697067 -0.93531984 0.11066949 0.4291875
0000d0 e8 f8 d9 be 97 b1 4c bf 9f f0 ec be 86 7a 11 3e
       -0.42572713 -0.7995848 -0.4627733 0.14206895
0000e0 0c 0c 9d be a2 26 f0 be 9e 40 88 bd fd ed d1 3d
       -0.30673254 -0.46904474 -0.0665295 0.10250471
0000f0 53 b6 6a bf 2d d9 21 bf f1 ce 0f bd 87 6a b0 be
       -0.91684455 -0.6322201 -0.035109464 -0.34456274
000100 29 21 2a 3f a4 7f 19 bf db ea e3 3e 62 e2 80 3e
       0.6645685 -0.5996039 0.44515118 0.25172716
000110 f5 23 ce bd 9f 1e cd 3d 3c 80 18 be a5 bb d3 bd
       -0.10065452 0.10015606 -0.14892668 -0.10338525
000120 04 fb da be b2 cd c6 3e a1 04 e1 be 92 97 6f be
       -0.42769635 0.38828808 -0.43948844 -0.23397663
000130 e4 07 88 3e 0c 96 bb be 62 a7 b5 be 0f e9 cd be
       0.2656852 -0.36637914 -0.35479265 -0.40216872
000140 22 c3 2a 3c 76 b9 02 bf 28 6b 2f be 4a 85 3c bf
       0.0104225 -0.5106424 -0.1713072 -0.7364088
000150 f1 c5 0f bf ec 5d 92 be a3 04 64 3d 69 dd de 3e
       -0.5616141 -0.28587282 0.055668484 0.43528298
000160 a2 77 da be fa 07 e3 3e 73 30 c8 be d1 50 02 bf
       -0.42669398 0.44342023 -0.39099464 -0.50904566
000170 d8 6c 5f bd d0 1c b9 bd a6 04 d8 bc f6 69 1a be
       -0.05454716 -0.09038699 -0.026369404 -0.15079483
000180 8f bd 91 3c d7 99 9f 3e 80 08 43 be 14 44 c0 bd
       0.017790584 0.31172058 -0.19046211 -0.09387985
000190 d6 12 25 be cb 13 dc bd cd 4e 6f be 7e 65 a8 bd
       -0.16120467 -0.10745963 -0.23369904 -0.08222483
0001a0 64 3a 62 3e 07 4d 9d be 0c b9 19 bc 8b bf c0 be
       0.22092587 -0.3072283 -0.0093824975 -0.37646136
0001b0 e2 80 18 bf 5e 1e 8e be f8 3c 5e 3e 28 29 94 be
       -0.5957166 -0.27757543 0.21702945 -0.2893765
0001c0 fb 89 11 be 8f 5b 77 3e 81 ce 39 be 37 22 1e 3e
       -0.14212792 0.2415602 -0.18145181 0.1544274
0001d0 81 20 b7 be 83 1a 8f be 86 77 31 bf 2e 05 1c bf
       -0.35766986 -0.27949914 -0.69323003 -0.60945404
0001e0 7f 6a 54 bf 05 cd af 3c 1c cc 01 bf 36 f1 ef be
       -0.82975 0.021460066 -0.5070207 -0.46863717
0001f0 36 65 f2 3c 09 b5 e9 be 68 ad 9a 3d d7 ef 6d bf
       0.029589277 -0.4564593 0.07552606 -0.9294409
000200 f8 32 16 be 14 32 a1 be b6 2e 16 3e a3 3e ca be
       -0.1466788 -0.3148352 0.14666256 -0.39500913
000210 c2 c8 0a bf 54 2a a9 be fe c0 87 bf f3 ea 51 be
       -0.5421258 -0.33040106 -1.0605772 -0.20499782
000220 ab 94 34 3e d3 c3 2d be a6 34 e2 3e 04 44 c2 be
       0.17634837 -0.16969232 0.44180793 -0.37942517
000230 3a 77 67 3e 54 3e 14 3c 9d af f8 3e 3a 35 4d be
       0.22604075 0.009048063 0.48571482 -0.20039836
000240 c0 a1 ae be 0b 03 00 bf 95 da 98 3d 6c db 55 be
       -0.3410778 -0.50004643 0.07463566 -0.20884484
000250 a0 8f ec be 92 af 53 be f6 1f 3c 3e 82 c6 08 bf
       -0.46203327 -0.20672444 0.18371567 -0.534279
000260 53 e8 80 3d 42 29 d6 bd f0 94 18 bf 5e 7e f3 bd
       0.06294312 -0.10457088 -0.5960226 -0.11889337
000270 b9 dd 93 3e ce b0 62 3e cd 78 56 3c bf 5c b1 bd
       0.28880098 0.22137758 0.013090325 -0.08660268
000280 9d e4 98 be 2b 54 1c 3f a8 a9 75 3e a3 b0 a4 be
       -0.29861918 0.6106593 0.239905 -0.32166013
000290 89 24 75 3e 6f 9b 32 bb b5 d5 85 be 4b 95 83 be
       0.23939718 -0.002725329 -0.26139608 -0.2569984
0002a0 d5 83 ab be d9 9c 55 be 54 ba 6a bf 1c f8 13 3f
       -0.33499017 -0.20860614 -0.91690564 0.5780046
0002b0 c5 7e 90 be fb 35 03 bf 1b 2b 8b 3e dc 6f fd be
       -0.28221717 -0.5125424 0.27181324 -0.49499404
0002c0 f7 3e 27 bf 1a 28 95 be 06 fe ff be 3b 7f 1e 3e
       -0.6533045 -0.29132158 -0.49998492 0.15478222
0002d0 3b b7 89 3c c1 80 0d bf ad b3 ff bd b9 da d4 3d
       0.016811004 -0.5527459 -0.12485442 0.103932805
0002e0 df 3a 68 bf f7 54 aa be c1 31 e9 be a0 ed 6c be
       -0.9071483 -0.33267948 -0.45545772 -0.23137522
0002f0 1d 48 a1 be d6 38 8a bd 09 95 c4 be e3 a9 9e be
       -0.3150033 -0.06749122 -0.38394955 -0.30988988
000300 5d 34 5c 3e a9 f4 17 bf bf 88 2e bf d4 0d 58 3e
       0.2150435 -0.59357697 -0.6817741 0.21099025
000310 bc 21 d4 3e 44 73 90 be df ca 82 3c 03 4c 35 bf
       0.41431987 -0.2821294 0.015965877 -0.7081911
000320 73 13 4b bf ee e0 7f 3d 06 9b 6d 3e e6 28 f3 3e
       -0.7932655 0.06247037 0.23203668 0.4749214
000330 a9 99 32 bf f8 62 1b bf 82 b5 48 bf d1 4c 23 bf
       -0.69765717 -0.6069789 -0.7840196 -0.6378909
000340 96 a7 bd be 25 d6 07 3e 1a a6 64 bf 63 da d0 be
       -0.3704192 0.13265283 -0.8931595 -0.40791616
000350 96 46 2e bc 3c 7c ad bd 67 21 14 3f ad ba 02 bd
       -0.010636946 -0.084709615 0.5786347 -0.03191631
000360 0d 16 43 3e ac 4e 09 bf dd d9 5b 3e 82 63 dc be
       0.1905138 -0.5363567 0.21469827 -0.43044668
000370 43 4c 58 bf b8 9f 43 be cc 96 de be 33 b9 46 3e
       -0.84491366 -0.19103897 -0.43474424 0.19406585
000380 3a e4 a5 bd eb 5d e0 be 31 aa 7f be 39 f4 8c 3e
       -0.081001714 -0.43821654 -0.24967267 0.27530077
000390 51 bd c4 be 62 10 4a be d0 9f 11 bf 2f 52 72 bd
       -0.38425687 -0.19732812 -0.5688448 -0.059160408
0003a0 47 ae 75 be 97 f2 ce 3e 73 56 03 3e 9f 7e 4c bf
       -0.23992263 0.40419456 0.12825947 -0.7988071
0003b0 2a ea e6 be 29 d5 bc 3d 9f 4e 0d 3f a9 4e ae 3e
       -0.45100528 0.092203446 0.5519809 0.34044388
0003c0 ce 4a 45 be 45 08 8e bf 86 50 0e 3e 47 a5 4b bf
       -0.19266817 -1.1096274 0.13897905 -0.7954907
0003d0 10 29 23 be de bf fc be 24 f1 cc bd c9 21 4f 3e
       -0.15933633 -0.49365133 -0.100069314 0.20227732
0003e0 49 e8 44 be 10 bc 44 3d 4c 16 28 3e 0c f4 29 bf
       -0.19229235 0.048030913 0.16414756 -0.6638801
0003f0 cf 30 bc be ed 28 0d 3f 59 51 9f 3e 7f 01 87 3e
       -0.36755988 0.5514057 0.3111675 0.2636833

fc2.weight f4 [128, 256]
000000 14 2c a3 be de c2 c7 3d db 01 7e 3e b6 b7 83 be
       -0.31869566 0.09753965 0.24805395 -0.25726098
000010 66 a6 c8 3e eb 48 94 3d 26 0b 6e bf 19 ad 5e 3e
       0.39189452 0.072404705 -0.9298576 0.21745719
000020 da 40 b8 be a7 a4 82 3e 06 9c dc be 46 f3 6a 3e
       -0.35986978 0.25516245 -0.43087786 0.22944364
000030 d5 03 a9 3d 11 d1 0d 3f 33 39 e6 bd 44 ad 40 3f
       0.08252684 0.55397135 -0.11241379 0.7526438
000040 3c d1 2c 3f 7d 40 db be 69 93 58 3f 69 52 ea be
       0.67506766 -0.42822638 0.8459993 -0.45766
000050 ed af 50 bd 0b bb 78 3e d4 e2 00 3e c7 b4 6b 3f
       -0.050949026 0.24290101 0.12586528 0.9207272
000060 ef 34 64 3e e8 25 4e c0 76 85 c3 bd d8 3a 46 3f
       0.22285818 -3.2210636 -0.0954694 0.7743354
000070 de 96 9a bb 68 a7 b2 3f 3b 0d 88 3e 56 45 a4 be
       -0.004717692 1.3957338 0.26572594 -0.3208415
000080 b6 41 12 be d9 20 2d be bb 08 f2 bf ce 2e 71 bf
       -0.14282879 -0.16907062 -1.8908914 -0.94212043
000090 49 35 29 bf 9b 7b e9 bc dc 1c 3d be 47 bb 6d 3e
       -0.6609693 -0.028501322 -0.1846804 0.23215972
0000a0 bb 91 19 bf 2e 43 84 3e f5 04 1c bf 9d 21 9b 3d
       -0.5998799 0.25832504 -0.60945064 0.075747706
0000b0 86 76 25 be 59 4c c2 3e 1c 7d 55 3f 98 3d 4f bd
       -0.16158494 0.37948874 0.83394027 -0.05059585
0000c0 f3 be f1 bd 0b c6 f0 3e 40 73 7f 3e a0 3d c9 3e
       -0.11803999 0.47026095 0.24946308 0.3930483
0000d0 56 84 ac 3c b6 08 9f 3e 42 70 b3 3d 82 13 84 be
       0.021059196 0.31061333 0.08761646 -0.25796133
0000e0 0e 71 7c 3d c4 39 5e 3e a7 8e 6c 3e 57 27 81 3e
       0.061631255 0.21701723 0.23101293 0.25225326
0000f0 48 9c de bd a9 ea 84 be 80 06 ff bf ef 4d 98 bf
       -0.10869652 -0.25960281 -1.9923859 -1.1898783
000100 0b a2 12 3e 5f b5 8a be 4c b1 63 3f 01 19 57 be
       0.14319627 -0.270915 0.8894241 -0.21005632
000110 90 5e 6b 3f 56 fb 2e 3e b6 28 a3 3e 79 d1 59 be
       0.91941166 0.17088065 0.31866997 -0.21271314
000120 ee b2 04 3e 84 36 c0 bf fe a4 f0 be dd 7b b2 bf
       0.12958881 -1.5016637 -0.4700088 -1.394405
000130 65 a9 e5 bd 20 e7 96 be 58 9b df 3e b9 2c 07 bd
       -0.1121395 -0.2947321 0.43673205 -0.033001635
000140 ae b0 5d 3e 57 10 44 3e e0 b8 2b be 2f e4 ef be
       0.21649429 0.19146858 -0.16769743 -0.46853778
000150 69 31 30 3e fb 1e 0d bf 92 6a c0 3d 0c 57 90 3e
       0.17206348 -0.551254 0.09395327 0.28191411
000160 eb 6d b5 3c 02 30 88 3e cc db c1 3d 82 4a ae bf
       0.02214714 0.26599127 0.09465751 -1.3616488
000170 2b 72 45 3f 99 3a b7 be 9e f2 8c 3f 05 9c ff be
       0.7712733 -0.35786894 1.1011541 -0.4992372
000180 3d 60 ca 3e dc df b1 3f 41 da f5 be 18 41 84 3d
       0.3952655 1.3896441 -0.48018077 0.06457728
000190 04 78 9f bf 56 e5 c8 3e 22 79 96 be 6a 62 24 bd
       -1.2458501 0.3923747 -0.29389292 -0.040132917
0001a0 62 68 08 c0 2a 53 1e 3f 9b 76 45 be ba da 10 3f
       -2.131371 0.6184565 -0.19283526 0.5658375
0001b0 c0 7e a3 be af df 1d 3f d9 19 10 3e fd 88 88 bd
       -0.3193264 0.6166944 0.1407236 -0.066667534
0001c0 2c 04 66 3d 20 4b e2 3d ca cb d5 3e a4 51 b9 be
       0.056156322 0.11049485 0.4175704 -0.361951
0001d0 95 eb eb be 74 89 a7 3d 94 45 0e 3c 90 de ab be
       -0.46078172 0.08180514 0.008683581 -0.3356824
0001e0 b0 a0 fe 3e 33 39 bd bf 46 c3 c1 be 81 e8 37 3e
       0.4973197 -1.4783081 -0.37844294 0.17959787
0001f0 3e f9 07 40 5d c1 01 be be 0a 19 3d 24 57 49 bf
       2.1245875 -0.12671418 0.03736376 -0.7864859
000200 ba ba 1c bf 43 9c 8c bf 0a 9e c4 bd 7b a2 2a bf
       -0.6122242 -1.0985187 -0.09600456 -0.66654176
000210 45 86 00 3e c6 b1 c4 bf cf c1 9d bd 32 bf 47 3f
       0.1255122 -1.5366752 -0.07702982 0.78026116
000220 d5 ff f9 be 90 cb 38 be 46 63 f6 be 3d 2f 34 3f
       -0.48827997 -0.18046403 -0.48122615 0.7038458
000230 19 5b 33 3e 7c f7 26 3e 72 87 9d 3d 31 d4 17 bf
       0.1751522 0.16305345 0.0769185 -0.59308153
000240 68 8a 1c c0 12 b1 21 3f 75 44 30 3e 35 1e f5 bd
       -2.4459476 0.6316081 0.17213614 -0.11968652
000250 3c 31 86 3f 4a 45 c9 3d 0b a6 2a 3f 37 66 dc 3c
       1.0483775 0.09827669 0.6665961 0.026904209
000260 01 49 19 3f 49 14 f3 3d 60 dd 6a be 72 de 05 c1
       0.5987702 0.118691035 -0.2293601 -8.366808
000270 c5 86 c5 3d f9 69 90 bf e8 e4 ae 3f 46 88 c6 3e
       0.09644846 -1.128234 1.3663607 0.38775843
000280 9d 37 d9 bf 5a 77 e4 be 1d bf 04 3e 84 1a 2a bd
       -1.6970097 -0.44622308 0.12963529 -0.041529194
000290 9b a3 0c bf 44 f7 4b bf 04 8f cb bf e6 8c b3 bf
       -0.5493714 -0.7967417 -1.590302 -1.4027374
0002a0 be 09 6d bd e7 ba dc bc 56 0e 18 c0 d1 44 e7 be
       -0.05787062 -0.02694459 -2.375875 -0.4516969
0002b0 32 44 56 3e 7f 2b a6 be 2e 54 22 bd 33 96 a6 3e
       0.20924452 -0.3245506 -0.03963106 0.32536468
0002c0 75 d4 df 3c 36 3a 83 be 58 9a 70 bf 7f e1 01 3f
       0.027322987 -0.2563035 -0.9398551 0.50734705
0002d0 44 d5 32 3f 4f 38 cd 3e cd aa c0 bd e5 5f 2b 3f
       0.6985667 0.40082023 -0.09407578 0.669432
0002e0 9e 13 e4 be ab 64 be 3d 45 4f 4a bf 87 c6 81 bf
       -0.44546217 0.09296545 -0.79027206 -1.0138711
0002f0 c9 ac 39 bf 55 f4 a1 3e 33 24 3f bf 28 fc e7 3d
       -0.72529274 0.31631723 -0.7466461 0.11327392
000300 75 fc 51 3e 94 7f b7 3d 86 3c 99 3e 12 6c 53 3f
       0.20506461 0.089598805 0.29928988 0.8258678
000310 e0 49 31 3f 1b 33 a9 be 53 79 d3 3d b6 23 ee 3e
       0.6925335 -0.33046803 0.10325875 0.4651162
000320 8d 0e b6 be c3 40 a2 3d 69 29 12 bf 97 14 92 be
       -0.35557976 0.079225086 -0.57094437 -0.28531334
000330 bd 5a 5b bf 77 69 64 3e 82 99 09 bf ed 0f 06 bf
       -0.8568533 0.22305857 -0.5374986 -0.5236805
000340 61 4f cc bd 33 2c e7 bd ac f2 09 be 0b bc b8 be
       -0.09976078 -0.11287727 -0.13471478 -0.36080965
000350 a1 08 52 bf b5 5d b6 bf a9 02 23 3f 7a a6 ef bf
       -0.82044417 -1.4247347 0.63675934 -1.872268
000360 29 fd 00 bf 40 75 d9 3d 57 80 c3 bd 1b 84 79 3e
       -0.5038629 0.10618067 -0.09545963 0.243668
000370 97 b2 cb bc 8a 10 b7 3e f7 27 ee be 34 af a1 be
       -0.024865432 0.35754806 -0.46514866 -0.31578982
000380 d2 4b 03 bf 0b 48 5a bd e1 02 c3 3e 80 29 f6 bc
       -0.5128757 -0.05329136 0.38088134 -0.030049086
000390 ef 67 03 3d 1a a1 a5 3d 35 e0 2f bf 58 d0 ad be
       0.03208154 0.08087368 -0.6870149 -0.33948016
0003a0 f6 8e 0b bf 63 29 bc bd d3 4d 22 3f cb a4 cb bc
       -0.54515016 -0.091875814 0.634 -0.024858853
0003b0 64 91 3b 3e 22 c5 a6 bd a6 4d 0c bd 72 97 ad be
       0.18317181 -0.08143069 -0.03425374 -0.33904606
0003c0 40 21 f7 bf 61 11 eb bd 31 1b 21 bf ce 34 84 bf
       -1.9307022 -0.11477924 -0.62932116 -1.0328615
0003d0 8d 9d b9 3e f6 13 a2 3e d4 44 c5 3f 6e fd 16 c0
       0.36253014 0.31655854 1.541163 -2.3592181
0003e0 e6 f2 f2 be 44 4d 25 3e 58 05 28 3e 64 8d c2 be
       -0.47450942 0.16142756 0.16408288 -0.37998497
0003f0 e7 a2 eb bf bf 75 4e 3e a3 24 ec 3e 77 e2 ac be
       -1.8409089 0.20162104 0.46121702 -0.3376653

fc2.bias f4 [128]
000000 17 c0 59 3e a3 f4 77 3c b4 d7 23 be 8c cd b2 bd
       0.21264683 0.0151340095 -0.16000253 -0.08730611
000010 a4 c3 41 3e d8 a2 9e 3c ea 8f 0d bf 05 4a 09 bf
       0.18922287 0.01936476 -0.5529772 -0.5362857
000020 ee c3 0f 3d c7 6b 08 3f 68 53 ea 3e 99 0e 90 3e
       0.035098962 0.53289455 0.4576676 0.28136137
000030 07 80 1a bf 14 5b 70 be 73 3e a9 3e 7e a5 48 3e
       -0.60351604 -0.23472244 0.33055457 0.1959438
000040 8b 2d 05 be f2 b4 72 3d c5 16 c5 3e e1 47 ad 3c
       -0.13005655 0.059254594 0.38493934 0.021152439
000050 98 dd 92 be 68 0a 1b be bc cc 37 3e f7 48 81 bc
       -0.28684688 -0.15140688 0.17949194 -0.015781863
000060 5a 91 c3 3e 7e cb c5 3c aa 0f 8b 3d 2c 64 d2 be
       0.38196832 0.024144884 0.06790097 -0.4109205
000070 8a 49 02 3c d6 04 0c 3d 54 9d 5a 3e 62 97 3a be
       0.007952103 0.0341843 0.21349078 -0.1822181
000080 73 28 02 3e f4 5f a9 be 98 93 d0 be 51 63 53 be
       0.12710743 -0.3308102 -0.40737605 -0.20643355
000090 9f 8a 88 be be fc e1 3e e4 07 a8 3d 82 a7 89 3e
       -0.2666826 0.4413814 0.0820463 0.2688561
0000a0 36 54 58 3d 51 e1 2f 3d 54 8b 2e bd 59 3e 5c 3e
       0.052814685 0.042939488 -0.042613342 0.21508159
0000b0 bb 18 3a be 5a e4 d0 bc 05 f7 af 3e cd 62 40 bf
       -0.18173496 -0.025499512 0.34368148 -0.7515076
0000c0 61 c0 24 be fc 05 3c bf 87 31 b2 3e bf 22 d7 be
       -0.16089012 -0.7344663 0.3480341 -0.42018697
0000d0 b5 94 0a 3e 9f 7d 33 bc cc c3 a8 be dd e6 c3 bd
       0.1353329 -0.010955243 -0.3296188 -0.09565518
0000e0 1a 1f 9e 3e 67 47 7f be 25 40 cf be 97 19 95 3e
       0.30883104 -0.24929582 -0.40478626 0.29121086
0000f0 6f 2d 2e bd 78 49 28 bd f6 47 22 3e 94 05 56 be
       -0.042523798 -0.04108569 0.15847763 -0.20900565
000100 53 19 34 3e ce 71 fa 3d 9a 34 2f be 12 74 25 3f
       0.17587785 0.12228738 -0.1710991 0.64630234
000110 e0 62 47 3e 6e e7 81 3d 03 5d bf 3e fb 60 0e bc
       0.19471312 0.0634297 0.3737565 -0.008690114
000120 6d 65 57 bd 4c f4 19 bf 73 88 15 be 08 a9 bd 3d
       -0.05258696 -0.6013839 -0.14602832 0.09260756
000130 ae cd 69 3e bc 92 3f bf 47 58 9b 3e b3 ce c8 bd
       0.22832367 -0.74833274 0.30340788 -0.0980505
000140 b5 21 ba 3e 67 f8 79 be ef b6 8f be e1 1a 32 3e
       0.3635384 -0.24411164 -0.28069255 0.17393066
000150 7a dc bd 3d a5 ec d2 3e 2f 07 8d be ec 09 95 be
       0.09270568 0.4119617 -0.27544543 -0.29109132
000160 04 30 12 3d 38 f2 03 bf 35 6e a3 bd b1 74 65 bd
       0.035690323 -0.5154147 -0.07980005 -0.05601949
000170 11 f1 7a 3d 89 9e 55 bf fa 54 47 be d4 f7 0a bd
       0.061265055 -0.8344503 -0.1946601 -0.033927754
000180 d3 60 39 3e b3 d6 aa bf 49 33 67 be cc d8 bf 3e
       0.18103342 -1.3346771 -0.22578157 0.3747009
000190 1b 1c 0f 3e e8 62 22 be 67 07 a3 be 0c 54 69 3d
       0.13975565 -0.15858042 -0.31841585 0.05696492
0001a0 08 6c 84 3e 76 e2 b4 3d 6d 87 e5 bd 35 05 57 be
       0.2586367 0.088322565 -0.11207471 -0.2099808
0001b0 47 88 0e 3e 17 98 74 bd 3b d6 b7 be 54 c6 3f be
       0.13919173 -0.059715357 -0.35905632 -0.18728
0001c0 bd 60 55 be d4 29 48 bf 58 d2 ff 3d 2e 36 e0 bc
       -0.20837684 -0.78188825 0.12491292 -0.027369585
0001d0 a3 09 26 bf 35 23 3d be 7f 4f 5f be d7 c6 1b be
       -0.64858454 -0.18470462 -0.21807669 -0.1521257
0001e0 54 3f 8e bf b9 db 8a be ed ad 53 be 07 dd 7c bc
       -1.1113076 -0.2712076 -0.20671816 -0.015433556
0001f0 b6 24 9a 3d d5 16 b6 bc 40 5a 73 3e 9b 81 4e bd
       0.07526533 -0.022227684 0.23764896 -0.05041657

fc3.weight f4 [4, 128]
000000 95 37 78 3f af b2 22 3f b7 44 1e 3f 2d 7d e6 be
       0.9695981 0.635539 0.618236 -0.45017377
000010 8e ff 7c 3f 69 1f ce bd cd e9 88 bf 87 37 f8 3e
       0.98827446 -0.10064585 -1.069635 0.48479864
000020 78 72 25 3f a3 a9 d2 3e 81 6d 3e 3f 31 05 83 3f
       0.6462779 0.41145048 0.7438584 1.0235959
000030 06 1e a5 bf 7b ee 86 bf b3 0d b0 bf 03 33 35 bf
       -1.2899787 -1.0541528 -1.3754181 -0.7078096
000040 24 b7 00 bf 1e 4f 52 3f 34 e9 74 3f b5 28 58 bf
       -0.5027945 0.82151973 0.9566834 -0.84437114
000050 2a d0 0e c0 83 2e ec bf 7d c5 ed 3e f1 46 03 3d
       -2.2314553 -1.8451694 0.46439734 0.032050077
000060 b8 7e 33 3e 59 11 3d 3f dc 3a 6e 3f 22 d9 dd 3e
       0.17528808 0.73854595 0.9305856 0.43329722
000070 db 02 90 be 9c 12 c3 bf 57 84 fe 3e 0c 89 09 40
       -0.2812718 -1.5240054 0.49710342 2.1489897
000080 80 f7 98 bf 25 25 a1 bd 5a bf 83 bf 3e 90 18 bf
       -1.1950531 -0.07868413 -1.0292771 -0.59595096
000090 c4 35 60 bf 98 56 cc bf 28 3a 80 3f 0c d5 81 be
       -0.8758204 -1.5963926 1.0017748 -0.25357854
0000a0 13 23 9f be db 59 01 bf 3a 40 89 bd 64 15 37 3f
       -0.31081447 -0.50527734 -0.06701703 0.71517015
0000b0 2a 6d f5 3d 23 1e a6 bd 40 fa e5 3e 27 81 2b bf
       0.11983712 -0.08111217 0.44917488 -0.66993946
0000c0 d2 37 86 bc 22 31 22 bf 5a 55 0d 3f 0d bc 10 bf
       -0.01638404 -0.6335622 0.5520836 -0.5653694
0000d0 75 3e 47 bf 79 f6 16 be 46 5a 9d be 12 05 59 be
       -0.77829677 -0.1474246 -0.30732936 -0.2119334
0000e0 ca 4f 1c bf d6 1b 2c 3f 56 fa 83 bf b1 c1 19 3f
       -0.6105925 0.67229974 -1.0310771 0.60061175
0000f0 62 36 41 3f 0a 7e d7 bd 33 e6 3e 3e 94 db a5 bf
       0.75473607 -0.10522087 0.18642502 -1.2957635
000100 97 58 80 bf aa 81 96 3e 8a af e7 bf e1 56 ac 3f
       -1.0027035 0.293958 -1.8100445 1.3464013
000110 28 9e 31 3f 56 b8 1e bf c1 39 d3 be aa ec 30 bf
       0.6938195 -0.62000024 -0.41255 -0.6911112
000120 25 16 50 3e 2e a4 fc bf e0 20 84 be 69 da e2 3e
       0.20320947 -1.9737604 -0.25806332 0.4430726
000130 24 c4 95 be 11 10 ec be e5 19 82 3f 12 03 8a 3f
       -0.29251206 -0.46106008 1.0164152 1.0782187
000140 07 6e 30 3f 80 c4 69 bf 73 2d e2 be a9 6e b1 bf
       0.6891789 -0.9131546 -0.441753 -1.3861896
000150 7b 26 a0 bf af bc b2 be 30 e8 18 3f ca 14 80 3f
       -1.2511743 -0.3490958 0.5972929 1.0006344
000160 f7 a3 b1 3f 8c aa d7 bf 7d 4d 89 3f 3b 60 9c bd
       1.3878163 -1.6848922 1.0726773 -0.07635542
000170 47 9b 9b bf 6a 20 e5 be d0 4a 94 3e 3a 25 09 bf
       -1.2156762 -0.44751292 0.28963327 -0.5357243
000180 b9 54 77 3f 4f 0f d2 bf f5 78 8a bf 88 4c 82 3f
       0.9661365 -1.6410922 -1.0818163 1.0179605
000190 b4 55 d1 3e 80 dc 2e bf 09 8e 9a 3f 35 68 ca 3e
       0.408857 -0.68305206 1.2074596 0.3953263
0001a0 30 c5 5f 3e 63 a8 4e bf 22 b3 87 bf 93 ae 96 3e
       0.21852565 -0.8072569 -1.0601542 0.29430065
0001b0 b7 f7 e6 3e e7 7a 8b bd 84 53 12 bf bc 72 e4 be
       0.45110866 -0.06810551 -0.57158685 -0.44618785
0001c0 d1 39 07 3f bf 1f 26 3f 50 ff e3 3e 54 60 d5 bd
       0.52822596 0.6489219 0.44530725 -0.10418764
0001d0 fd ac 1a bf 14 fe 99 bf a7 4b 59 3f b9 3b 93 bf
       -0.6042021 -1.2030663 0.8488106 -1.1502601
0001e0 56 83 ec 3f 4d 0a d9 3d fa 69 2b 3f 5a f6 73 3f
       1.847758 0.10597668 0.6695858 0.9529778
0001f0 13 de 62 3f d9 4a e1 bf a4 07 22 3f c8 8b ab 3f
       0.8862011 -1.7600967 0.6329291 1.3402033
000200 93 5c 77 3f 18 e0 11 3f 35 e4 05 3f 02 b2 16 bf
       0.9662563 0.56982565 0.5230134 -0.5886537
000210 27 d1 72 3f 60 67 bb 3e 27 cc 64 bf 76 8b f5 3e
       0.9485039 0.36602306 -0.8937401 0.47957963
000220 18 75 0c 3f 27 13 3c 3f c6 cd 29 3f b3 71 80 3f
       0.5486617 0.73466724 0.6632961 1.0034698
000230 a1 c6 23 bf ee ac 5d bf a7 a7 0b c0 dc 15 30 bf
       -0.6397496 -0.86591995 -2.1821077 -0.68783355
000240 95 16 11 bf d1 ee 6c 3f 48 9f 89 3f 4b 62 13 bf
       -0.5667508 0.92551905 1.0751734 -0.5757186
000250 c7 95 e6 bf 93 f8 d1 bf 3d 07 c8 3e 90 d3 49 be
       -1.8014458 -1.6403984 0.39068022 -0.19709611
000260 09 64 5b be b5 a0 81 3c 28 0a 6a 3f e5 35 90 3f
       -0.21424879 0.015823701 0.9142175 1.1266447
000270 a6 05 b7 be 06 6b 52 bf 90 f9 fb 3e a9 3f 0c 40
       -0.35746497 -0.82194555 0.4921384 2.1913855
000280 1c e6 b3 bf af 56 4b bf 09 dd ce bf ea 10 07 bf
       -1.4054599 -0.79429144 -1.6161205 -0.52760184
000290 74 1d b0 be 40 03 8a bf b1 bd 90 3f 9a 75 0d bf
       -0.3439747 -1.0782242 1.1307889 -0.5525757
0002a0 2e 50 3f 3e fb 74 05 bf b6 f7 66 bd ce 59 27 3f
       0.1868293 -0.52131623 -0.05638858 0.65371406
0002b0 71 1c 09 3f 47 51 99 bd ae 1e e2 3e c6 8b b9 be
       0.53559023 -0.074862055 0.44164032 -0.3623945
0002c0 e6 b0 19 3f ba 0d 2f bf 69 9c d6 3e 78 9a 0a bf
       0.6003555 -0.6838032 0.41916206 -0.5414195
0002d0 f8 b0 4f bf 82 c7 bb be c9 fc e9 be b1 eb da be
       -0.8112941 -0.3667565 -0.45700672 -0.42757943
0002e0 a6 55 34 bf 5f 53 33 3f bb 8a 1c bf d9 c6 23 3f
       -0.7044319 0.7004909 -0.61149186 0.6397529
0002f0 dd 0e 63 3f 5a f3 f1 bc 10 80 c0 3e 70 87 b8 bf
       0.88694555 -0.029534984 0.37597704 -1.4416332
000300 03 e2 e0 bf f7 ae ec 3e 84 3e b9 bf d2 a7 ae 3f
       -1.7568973 0.46227238 -1.4472203 1.3644965
000310 b4 ac fe 3e e1 8a 07 bf 32 65 81 be 19 6b 60 bd
       0.49741137 -0.5294629 -0.25272518 -0.054789636
000320 0d c2 7e 3e 1e 13 1f c0 d6 e1 eb be 41 63 0c 3f
       0.24878712 -2.4855418 -0.46070737 0.5483895
000330 39 71 39 be 6b a2 b4 be 3c cc 7b 3f 3b 38 8b 3f
       -0.18109597 -0.35280165 0.9835851 1.0876535
000340 81 87 31 3f 9c 6b 5f bf 74 8a 1e be 38 ed e8 bf
       0.6934739 -0.87273574 -0.15482503 -1.8197393
000350 dc 8b 70 bf 97 72 6b be 46 24 2d 3f 0e a9 c8 3c
       -0.9396341 -0.22992931 0.67633474 0.024494674
000360 1a f6 ed 3f be 61 8f bf 06 9e 8f 3f f6 0b 22 3e
       1.8590729 -1.1201704 1.12201 0.15824875
000370 c5 32 a3 bf c0 3f 10 bf d2 88 0f 3d 99 f8 12 bf
       -1.2749869 -0.56347275 0.03504259 -0.5741058
000380 d5 dc 71 3f ed a0 b4 bf ac 88 83 bf e3 39 86 3f
       0.9447759 -1.4111611 -1.0276084 1.0486416
000390 67 99 44 3d cb 04 9e bf f7 22 c8 3f cd 2c 51 3e
       0.04799786 -1.2345213 1.563567 0.20427246
0003a0 b2 49 4c 3e 88 e3 71 bf e2 cf 7c bf ef 59 36 3e
       0.19949988 -0.9448781 -0.98754704 0.17807744
0003b0 32 86 0e 3f b2 65 3a bc ec 9a 18 bf 86 39 4b bf
       0.55673516 -0.011376785 -0.5961139 -0.7938465
0003c0 5b 85 f9 3e 15 03 f0 3e 02 06 18 3f d2 87 4e 3e
       0.48734555 0.4687735 0.5938417 0.20168999
0003d0 92 aa bf be df fc 9b bf c4 06 66 3f 2b a6 9c bf
       -0.37434822 -1.2186545 0.89854074 -1.223821
0003e0 80 df de be 98 b1 47 3e bd a3 02 3f 42 65 85 3f
       -0.43529892 0.1950134 0.51031095 1.0421526
0003f0 41 5c 71 3f 85 a6 64 bf b6 af 36 3f 5e e6 a8 3f
       0.94281393 -0.8931659 0.71361864 1.3195302

fc3.bias f4 [4]
000000 e3 4b e6 3e cd 8b 37 3e 27 36 df 3c 36 30 c4 3e
       0.44979772 0.17924424 0.027247502 0.38318032

exp_avg f4 [256, 8]
000000 dd 5a d8 3b 1b 2c 53 bc 15 14 05 3c c7 b2 42 bc
       0.0066026286 -0.0128889335 0.008122464 -0.011883444
000010 39 4d 3e 3c fd 26 1e 3c a1 76 83 bc ba 77 97 bc
       0.011615091 0.00965285 -0.016047778 -0.018489707
000020 8d 2a 03 3c d5 50 ef bc 47 14 a0 3c 4d 77 20 3c
       0.00800575 -0.029213348 0.019540919 0.0097940685
000030 00 55 54 3c b6 cf ae ba 92 0d d3 3c ed 50 cd bc
       0.012959719 -0.0013337049 0.025763307 -0.025063002
000040 b7 32 75 3c 89 d9 09 bc d6 43 43 bc 66 a2 37 bb
       0.014965705 -0.008413681 -0.011918029 -0.002802038
000050 8a 65 c0 ba 47 1f 06 3d ed f1 07 3d d1 3a 98 3c
       -0.0014678698 0.032744672 0.033189703 0.018582733
000060 07 0c 98 3c 7b 9e 25 bc 01 b7 18 3c bb b9 7d 3c
       0.018560423 -0.0101085855 0.009320975 0.015486176
000070 8d 6f 94 3b 8a e2 93 bc 7c 0a 3b bd ca 25 42 bd
       0.0045298995 -0.018052358 -0.045664296 -0.04739932
000080 be b2 85 bd 35 3e e4 3c 92 75 14 bd 1c 7c bc 3c
       -0.06528233 0.027861694 -0.036244936 0.023008399
000090 22 c4 37 bc 08 5c 14 3d 08 1b f8 3c 04 00 00 00
       -0.011216195 0.03622058 0.030286327 6e-45
0000a0 34 f2 66 bb db 97 0c 3c 0a 57 99 3b 4f 0a 1b 3c
       -0.003523958 0.008581127 0.0046795653 0.009462907
0000b0 ba bf f8 bb b0 a0 c6 bc c4 2b 91 bc 06 39 d3 bc
       -0.007591215 -0.024246544 -0.017721064 -0.025784027
0000c0 a7 e3 08 3d c7 dd a8 bc 12 73 2b bd b7 a9 a6 bd
       0.03342023 -0.020613564 -0.041857786 -0.08137839
0000d0 6f bb cb 3c 47 3e 5b 3c 6f 76 06 bd f6 f9 86 3c
       0.024869649 0.013381547 -0.03282779 0.016476613
0000e0 7a 49 4a bb 4e 00 3e bc 94 cc e0 3a 2a c2 3c 3c
       -0.003086655 -0.011596752 0.0017150813 0.011520902
0000f0 ec ad 6c bb 92 67 0a 3b 5c 1a 9d 3c ac 51 0f 3d
       -0.0036114408 0.0021118862 0.019177608 0.034989998
000100 23 39 be 3c 73 01 59 bd a8 31 16 3d 42 c2 89 bc
       0.023220604 -0.052979898 0.03666845 -0.016816262
000110 82 7a 8d 3c a4 c3 06 bd f3 5e 77 bd 78 9b c8 bc
       0.01727033 -0.03290142 -0.060393285 -0.024488196
000120 a3 30 ce 3c 38 09 c0 bc 87 f9 ac 3c 29 14 4a 3c
       0.025169676 -0.023441896 0.021115078 0.012333908
000130 00 56 09 3c 76 68 b2 39 51 d6 57 bc 15 b4 7d bb
       0.00838232 0.00034028635 -0.013173656 -0.0038712074
000140 86 b5 c2 3a 42 7c 49 b9 4c f4 3a bb bb e4 87 ba
       0.0014855124 -0.00019215143 -0.002852696 -0.001036785
000150 9d 2d 8d 3b 3d 00 ea 3c 2e 80 ca 3b aa cb d0 39
       0.004308416 0.028564567 0.006179831 0.00039824593
000160 8d ff a3 3b 34 4b e6 b9 db 1a a3 39 10 5e c0 b9
       0.0050048293 -0.0004392505 0.00031109792 -0.00036691176
000170 35 7f 04 3b c5 8b a0 ba cb a5 35 bd 7a b2 de bc
       0.0020217423 -0.0012248686 -0.044347566 -0.027184714
000180 d5 5f f0 3c 61 d0 da bc dc f3 a3 3c c8 67 04 3b
       0.029342571 -0.02671069 0.020013742 0.002020346
000190 67 ee 96 b8 fa 17 22 bb 90 b6 3b 3c 74 41 1c ba
       -7.196963e-05 -0.002473353 0.0114571005 -0.0005960681
0001a0 ed 37 fc 3a 8a 95 3e bc 16 2e eb b9 e4 5d 39 b7
       0.0019242741 -0.011632333 -0.0004485703 -1.104872e-05
0001b0 55 cd 35 bb f8 25 02 bc 2e 4a e6 35 15 69 5f 3a
       -0.0027740796 -0.007943623 1.7157925e-06 0.00085224333
0001c0 aa 65 94 bc fe 2a 28 bc fc 7f 7b 3b 1d 1b d2 3c
       -0.018114883 -0.010264156 0.0038375845 0.025647694
0001d0 2b ba ea ba 6d 81 37 3a cd ec 34 3c 16 a9 83 3b
       -0.0017908266 0.0007000182 0.011042786 0.0040179593
0001e0 1d ed bc bc e8 06 bf 3c 3b ca 61 bc 76 85 a2 bc
       -0.023062283 0.023318723 -0.013781126 -0.01983903
0001f0 68 39 fd 39 89 20 c2 bb d5 d6 d5 3c 9d 65 f3 3c
       0.0004829869 -0.0059242886 0.026103416 0.029711539
000200 d6 af ba bc 56 bd a5 3a e1 33 82 bb 1c 5f 91 3c
       -0.022788923 0.0012644927 -0.0039734696 0.017745547
000210 57 b2 d7 bb 38 5c e4 3b d7 2f d3 39 40 a9 92 3a
       -0.006582539 0.006969001 0.000402807 0.0011189356
000220 e1 fb b4 3b db c0 32 bc de 8d 8a 3c 2e d5 5b ba
       0.0055231904 -0.010910238 0.01691335 -0.0008385953
000230 57 7c 9b 3b 80 13 24 3b 00 14 1d bc fa 44 87 bb
       0.004745047 0.0025036037 -0.009587288 -0.0041280957
000240 19 fb ba bc ba 17 62 bb 86 62 27 bc a5 f1 92 3a
       -0.02282481 -0.0034499005 -0.010216361 0.0011210932
000250 a6 d2 2a bc ec cc 48 bc d7 60 96 3d 6c de 1f 3d
       -0.010426199 -0.012255888 0.073426895 0.039030477
000260 ba 93 a1 3b 9b 19 c3 b9 12 a6 73 bb 5f ac 1b bb
       0.0049309405 -0.00037212376 -0.0037177843 -0.0023753864
000270 83 84 09 3b 12 5c 65 3c 8b 47 22 3c f0 c3 fd 3a
       0.0020983524 0.013999002 0.0099047525 0.0019360762
000280 00 a8 64 bb b8 7b 8b 3c dc a1 8c 3b de ea c7 bb
       -0.0034890175 0.017026767 0.004291756 -0.0061009964
000290 57 6d b9 39 59 7c 9b b9 04 00 00 00 6a 70 d4 bb
       0.00035367414 -0.0002965655 6e-45 -0.0064831274
0002a0 57 f7 11 bb cb d1 1e 3c b4 47 00 bc b6 60 60 bb
       -0.002227267 0.009693573 -0.007829595 -0.0034237332
0002b0 70 dd fa 39 58 3e ad ba 58 b9 1e 3b b4 ba b1 9e
       0.000478487 -0.0013217432 0.002421936 -1.8817823e-20
0002c0 7f 19 49 ba 4f 42 0b bb c9 97 69 39 60 b7 ea 3a
       -0.0007671341 -0.002124924 0.00022277156 0.0017907433
0002d0 eb c8 5e 3a d3 11 12 3b 2f e9 06 3a f3 90 97 3c
       0.0008498567 0.0022288456 0.00051464414 0.018501734
0002e0 cc ad ed bb 08 40 08 3c b4 7d d2 b9 5c 8c 70 3b
       -0.007253384 0.0083160475 -0.00040147977 0.0036704754
0002f0 4f 1b c5 bb 0c b3 75 3c d6 8f c9 3c 18 57 5a 3b
       -0.0060152183 0.014996301 0.02460472 0.0033316072
000300 72 1c e3 bc 30 f7 03 3c b9 fe 39 bc 74 eb 1d 3c
       -0.027723525 0.00805454 -0.0113522345 0.009638656
000310 12 8c 0c bc a0 a6 16 bc 98 ae 13 3c f0 3f 62 1e
       -0.008578317 -0.009195 0.009013794 1.1977562e-20
000320 89 e9 38 3c dd 05 44 bb 9e 85 4f 3b 52 f4 bd 3b
       0.011286148 -0.0029910721 0.0031665335 0.0057969475
000330 20 85 09 3c d2 b5 dd bc 24 49 4d bc 44 4f 7d 3b
       0.008393556 -0.027064238 -0.012529645 0.0038651982
000340 2d d1 ca 3c d4 f1 d1 bc 42 02 ed 3c 34 2e 01 3c
       0.024757946 -0.025628008 0.02893174 0.007884551
000350 79 da 1d 3c dd 70 27 3c 4c b0 83 bb 3b a1 84 bd
       0.0096346075 0.01021978 -0.004018819 -0.06476065
000360 1a 61 5c bd 08 6f 81 3c 6c fb 1e bd c3 1f 8f 3c
       -0.05380354 0.015800014 -0.038813993 0.0174712
000370 12 dc 83 bc d6 2f 5f 3b 35 e2 80 3d 27 ee 9a 3d
       -0.016096149 0.0034055612 0.062931456 0.07564955
000380 91 d3 05 3c 5c 64 99 bc d2 cd b7 3c 13 9e b7 3c
       0.008168117 -0.018724613 0.02243701 0.022414243
000390 4e 5c 99 3b 77 fe fd 3a 6d 59 ce bb 19 d8 9d 3c
       0.004680193 0.0019378205 -0.0062972815 0.019268082
0003a0 c5 1c 85 3d 75 fa 54 be af 71 76 3b 38 82 25 3e
       0.06499628 -0.20798667 0.0037604382 0.16162956
0003b0 e5 87 51 bc 75 00 46 3d e4 5f ac 3d b1 71 9f 3c
       -0.012788747 0.04834028 0.08416727 0.019463392
0003c0 24 28 44 bc bb 74 cc 3b fe 51 ff bb 75 0d 98 bb
       -0.011972461 0.0062395013 -0.0077917567 -0.004640276
0003d0 65 30 b5 3b 55 ee 21 3d cd dd 4f 3d cc 19 49 3d
       0.0055294507 0.03953393 0.050748635 0.049096867
0003e0 41 26 81 3b 13 f5 e3 ba 84 3f bc bb 77 f7 37 bb
       0.003941328 -0.0017391763 -0.0057448763 -0.0028071085
0003f0 3b bb d3 3a ba ff 16 3b 04 be 8f bb 94 ae a1 bb
       0.0016153821 0.0023040609 -0.0043866653 -0.0049341414

exp_avg_sq f4 [256, 8]
000000 e4 c7 a5 3b be 5a 27 3d a3 ad 9d 3b 16 51 b7 3c
       0.005059229 0.040858023 0.004811959 0.022377532
000010 31 c7 ab 3a 46 d5 a8 3a 21 51 44 3a b5 16 44 3b
       0.0013105628 0.0012880943 0.0007488896 0.002992076
000020 f9 7d 7d 3b 65 8d 22 3b dc 64 34 3b 3c 9b 62 3b
       0.0038679822 0.0024803516 0.0027525937 0.003457739
000030 a7 0c e1 3a 21 83 e7 3b 9d 96 ce 3c 52 4f 13 3d
       0.0017169908 0.0070651923 0.025218302 0.035964318
000040 ed 06 68 3b 51 7f b3 39 36 33 05 3b 74 b8 0d 3a
       0.0035404519 0.000342364 0.0020324714 0.0005406209
000050 c1 cf 26 3b b1 86 d9 3b 5f 53 d1 3c cc af 26 3d
       0.002545342 0.006638371 0.02555245 0.040694997
000060 ca 24 4c 3b 51 ff 1e 3a e4 a0 e0 3a de c1 ab 3a
       0.0031149858 0.0006065267 0.0017137793 0.0013104042
000070 ba 30 1b 3b 23 c0 bf 3b e7 b6 c1 3c 89 74 af 3c
       0.0023680166 0.005851762 0.023646785 0.021417873
000080 8b 7b 90 3c 8f e4 08 3e 27 a5 b3 3c bb 15 8d 3d
       0.017637035 0.13368438 0.021929337 0.068889104
000090 02 10 0f 3c 01 44 38 3c 4f 47 18 3c c6 59 ca 04
       0.008731844 0.011246682 0.009294345 4.7572416e-36
0000a0 0f 12 38 3b b5 c1 a3 3b 0d 2c ac 3a f7 15 c2 3a
       0.0028086936 0.004997457 0.0013135687 0.0014807571
0000b0 88 55 0d 3a 25 35 10 3b cb 3c 86 3b ac f5 68 3b
       0.00053914683 0.0022004333 0.0040966026 0.0035546822
0000c0 30 ec 44 3d 60 2a 5a 3e ae d2 f8 3c ae ca a3 3d
       0.04807681 0.21305227 0.030373897 0.079976425
0000d0 7b 08 17 3c 4e e4 ba 3b cf 80 37 3c 90 63 f4 3b
       0.0092183305 0.0057034856 0.011200144 0.007458158
0000e0 27 96 0f 3b ce 88 b6 39 dc 87 21 3b 63 36 f1 3a
       0.0021909566 0.00034815673 0.002464763 0.0018403049
0000f0 4b f8 ed 3a 7d 0f c1 3b 2d da 0f 3b f9 9f 9a 3c
       0.0018155662 0.005891739 0.0021950111 0.018875109
000100 bc 0d 0e 3d c2 a3 82 3e 59 aa 06 3d d2 0b 01 3e
       0.034681067 0.25515562 0.0328773 0.12602165
000110 a6 23 2c 3c 71 95 86 3c 2a 72 bd 3c 46 66 a3 3c
       0.010506546 0.016428681 0.023125727 0.019946229
000120 ea 8b 0e 3c 33 bf 1e 3c 21 83 e9 3b 99 81 e2 3b
       0.00870035 0.00968914 0.0071262275 0.006912422
000130 54 48 52 3b 6b c4 8a 3b 27 fe 02 3c 83 19 61 3c
       0.0032086568 0.0042348406 0.007995165 0.013738993
000140 d8 ca 80 3a 96 75 bf 3a 35 58 08 3a 89 d7 a5 3a
       0.0009826077 0.0014607187 0.0005201132 0.0012652735
000150 c3 12 38 3a 05 23 af 3b 36 e0 1c 3c dd 55 2d 39
       0.00070218387 0.005344751 0.00957494 0.00016530552
000160 92 a3 b3 3a 8d 88 02 39 cd 8e 97 3a 90 cb 93 3a
       0.0013705364 0.00012448635 0.0011562944 0.0011275876
000170 3e e5 b9 3a c0 d7 80 3b 28 02 8a 3c c6 e3 3f 3c
       0.0014182699 0.0039319694 0.016846731 0.01171202
000180 cf 06 06 3c 60 e6 74 3d 8a 11 f7 3b 09 93 e0 3c
       0.008180334 0.059790015 0.0075399326 0.027413862
000190 d1 cc 31 3b 48 6a 41 3b 94 4a d0 3b 1d aa 37 3c
       0.0027130137 0.0029512811 0.0063565467 0.011209992
0001a0 7e 61 15 3c 27 e1 3d 3b c2 4e 18 3c 62 94 cd 3b
       0.009117482 0.0028973313 0.009296121 0.006273792
0001b0 8c 01 23 3c 54 b6 55 3c ab 86 0f 3b 81 9a 81 3c
       0.009949099 0.013043959 0.0021900337 0.015820744
0001c0 65 72 e8 3a 32 e4 a1 3b a5 46 93 3a ba 8a 9b 3b
       0.0017734288 0.004940533 0.0011236264 0.004746762
0001d0 7e 3e b6 3a b1 33 f6 3a 29 3c 39 3b 75 61 83 3b
       0.0013904122 0.0018783716 0.0028264618 0.0040094205
0001e0 e7 ed 65 3b 76 f6 4d 3c b8 50 93 3b cc ef c2 3b
       0.0035084428 0.012570968 0.0044957064 0.005948996
0001f0 ee 22 ab 3a ec a8 63 3b 08 de 5a 3c 0e 0d cd 3c
       0.0013056675 0.0034738136 0.0133586 0.025030639
000200 d0 de a4 3b e2 8a 83 3b 9e 7b f1 3a 2d c4 8e 3b
       0.005031444 0.004014359 0.0018423682 0.004356882
000210 1c 31 bc 3a f7 88 0a 3b f4 fa 8c 3b ed 6b 04 3b
       0.0014357897 0.0021138766 0.004302377 0.002020593
000220 45 51 66 3b 19 25 c2 3c d1 dd 58 3b df e2 4e 3c
       0.0035143655 0.02369933 0.0033091197 0.0126273325
000230 12 11 b5 3a f6 90 08 3b 2f f2 25 3c ed f1 61 3c
       0.0013814291 0.0020838357 0.010128542 0.01379059
000240 de 5d 5c 3b 26 52 3c 3a f0 20 01 3b 12 08 cf 39
       0.0033625285 0.0007183872 0.001970347 0.0003948813
000250 32 ec 02 3b e2 99 a5 3b 90 63 41 3d fa c5 34 3d
       0.001997721 0.0050537447 0.04721409 0.044134118
000260 5a 2a 37 3a b7 d5 3a 38 92 f4 ce 3a 82 8e 17 3a
       0.0006987207 4.4544893e-05 0.001578944 0.0005781428
000270 a6 53 06 3a d3 90 93 3b 2f 7b cf 3c 79 78 d8 3c
       0.0005124159 0.0045033484 0.025327293 0.026424633
000280 89 3a f8 39 1b fc 11 3b fb 3c ea 39 c8 d8 95 3a
       0.00047345858 0.002227551 0.00044677392 0.0011432404
000290 70 c6 d6 39 db 49 9f 3a 11 bd 9f 29 69 c4 29 3b
       0.00040965108 0.0012152748 7.093816e-14 0.0025904423
0002a0 ce 98 86 3a f2 82 08 3b fc d9 59 3a 3b f3 b2 3a
       0.0010268928 0.0020830003 0.0008310375 0.0013652811
0002b0 a5 0b d9 39 c0 a5 2d 3a bf 36 16 3b ed 7b 92 35
       0.0004139814 0.0006624125 0.0022920815 1.0913915e-06
0002c0 c9 b5 36 3c 6f 01 f0 3a db 8a 68 3a 1a 91 f8 39
       0.011151739 0.0018310974 0.0008870789 0.00047410355
0002d0 c6 93 2c 3a 41 3c c8 3a 1e 19 e9 38 fc e8 04 3c
       0.0006583299 0.0015276746 0.00011114984 0.008112188
0002e0 a6 bc 44 3c e5 50 12 3b b5 fe c2 3a c5 b9 aa 39
       0.012007868 0.002232605 0.0014876934 0.00032563336
0002f0 a9 c7 cb 3a 93 59 18 3b 33 cf 81 3c 59 64 5e 3c
       0.0015547174 0.002324675 0.01584587 0.013573729
000300 0e 3b a6 3b ff 9b 90 3c a7 bd 1f 3b 69 0c 27 3c
       0.005072958 0.01765251 0.0024374516 0.01019583
000310 6f 47 4c 3a e5 dd 13 3a 59 36 0e 3b 9e 5e 14 37
       0.0007792627 0.000564067 0.0021699874 8.843517e-06
000320 b8 ce 4d 3c 0a c4 50 3a 10 29 47 3c fb 87 89 3c
       0.012561493 0.00079637824 0.012155786 0.016788473
000330 52 0a 48 3c 8b 9b 15 3d e3 3d 47 3d a1 41 89 3d
       0.012209492 0.03652529 0.048643004 0.06701971
000340 e0 03 80 3c 27 24 aa 3c a5 5f 5b 3c 94 4e 4f 3c
       0.015626848 0.020769192 0.013389503 0.012653012
000350 7f 48 7a 3b d5 a3 63 3c 42 2e 2b 3b 4f 55 8b 3d
       0.0038190184 0.013894041 0.00261201 0.06803381
000360 dc e6 66 3c 99 06 b0 3d e5 c6 9d 3c 35 7f 62 3d
       0.014093127 0.085950084 0.01925988 0.055297095
000370 01 0c 57 3c d5 65 ab 3c 98 df cd 3d 45 de f3 3d
       0.013125421 0.02092258 0.10052413 0.11907629
000380 bd a8 2c 3b f3 bc 28 3c 4d 0d 85 3b 65 b9 cc 3b
       0.0026345693 0.010298955 0.0040604235 0.0062476867
000390 45 06 79 3a 43 a0 2b 3b d6 83 30 3b 82 d8 13 3c
       0.00094995304 0.0026188053 0.002693405 0.009023787
0003a0 ba 61 10 3e 94 e4 9c 3f 11 03 4b 3e 78 31 00 3f
       0.1409978 1.2257257 0.19825388 0.50075483
0003b0 b5 ce 5a 3d 74 cf 81 3d cc d1 23 3d 09 34 02 3d
       0.053419787 0.06338397 0.039995 0.031787906
0003c0 3c 1a b9 3b db 3a 6f 3a 7d 99 2c 3b ec a9 e5 3a
       0.0056488793 0.00091258966 0.0026336603 0.0017521954
0003d0 af ce 2b 3b 79 04 f4 3b 48 90 bb 3c 18 c1 a9 3c
       0.0026215722 0.0074468222 0.022895947 0.020721957
0003e0 c9 79 1c 3a fe e1 50 3c 7a 0f c8 3a d3 9a 91 3b
       0.0005969075 0.012749193 0.0015263401 0.0044435053
0003f0 cf 10 42 3a 57 af ea 3a 9a b0 1c 3b 70 5e f1 3a
       0.00074030174 0.0017905039 0.0023908974 0.0018414985
