results/models/independent_dqn_heavy_ep900.pth (torch, 581220 bytes, 24 tensors)

fc1.weight f4 [256, 8]
-0.17311421 -0.57927775 -0.40686402 -0.55286205 0.95345956 0.2939297 0.50850606 -1.081522
-0.09976042 -0.23288433 -0.1621645 -0.35306647 -1.8673728 0.06995196 0.14240499 -0.09138543
0.04076066 -0.2607887 0.23974481 -0.6602193 -0.9904709 -0.9328339 0.051150657 -1.1035029
-0.90597063 -0.2387467 0.28404146 -0.4968259 -0.2054932 0.05728675 -0.09328399 0.100638665
-0.5417995 0.14303473 -0.07322848 0.2518098 -0.3083449 0.49250245 0.52108705 0.3302739
-0.3292114 -0.8338211 -1.0979822 0.46562532 0.61466146 0.031711917 -0.7910083 0.77182263
0.050822455 0.23676686 -0.5952672 0.38156855 0.101525836 -0.09334773 -1.0238392 0.053027727
-0.37626344 0.6109959 0.028850054 -0.61748534 -0.2773277 0.4254945 -0.5002332 -0.2462021
0.35485256 -0.14653157 0.6511562 0.48849675 0.8480856 0.39759713 -0.10965288 0.053844098
-0.77665657 0.050805002 -0.1282691 -0.5482334 0.82008094 0.053134587 0.29987013 0.26863533
-0.0023155513 -1.5521641 0.32300872 -0.47457594 -0.5444147 -0.44175112 -0.24599895 0.5240523
0.41274264 -0.40822956 -0.07523761 -0.6400468 -0.94148904 -0.6089444 -0.17128317 0.07176499
-0.40631616 -0.37285385 -0.04846937 -0.09331803 -0.00096749375 -0.17908299 -0.0857028 0.40350002
-0.684326 -0.7331383 0.16567296 -0.5330965 0.5038974 0.031606384 0.2342329 -0.026177261
-0.51077557 0.09253827 0.29744905 0.1885168 0.38394293 -0.07458241 -0.2689612 0.18248765
-0.8248891 -0.22797841 -0.5178596 -0.42297295 -0.33581227 0.97613645 0.55381924 -0.417681
0.24252304 0.054868273 -0.7351863 0.17576328 0.46719846 -1.1691581 0.18954766 -0.20920771
-0.07985687 -0.67414266 -0.07523126 -0.6177028 0.15426913 0.25368914 0.23125339 -0.07943339
0.40538236 -0.44837454 0.11322085 -0.41014585 0.031601448 0.17824632 -0.13908808 0.31242824
-0.5902647 -3.3363087 0.29487363 -0.53939235 0.87622905 0.34969503 0.23977365 0.28879616
-0.6393692 -0.7732117 -0.5666781 -0.46718666 -0.59056664 0.44815665 0.8915922 -0.035524324
-0.3245482 -0.60542685 -0.2934277 -0.46640956 0.28004894 0.07555856 -0.0532774 -0.050527174
0.57095796 -0.39656273 -0.034908418 0.10223804 0.26472163 0.026833206 0.25967708 -0.10579012
0.16213678 -0.57775486 -0.13902481 -0.8048507 1.0302848 0.5354847 -0.814549 -0.8911757
0.28468645 0.3996765 -0.64612454 -0.11350762 -0.80383515 -0.044619475 -0.2607588 0.31443518
0.3043004 -0.3341922 0.28032586 0.28260615 -0.031759568 -0.32304108 0.5059775 -0.17439051
-0.20065697 -0.3996559 -0.17595284 -0.081372745 0.5550098 0.031760495 0.1692943 0.29279324
0.12169799 -0.62615925 -0.09525926 -0.8968535 0.17728023 0.1681161 0.049811132 -0.18406312
0.56225216 -1.1294118 0.01087843 -0.5475898 -0.7975081 -0.07720569 -0.44027948 -0.073340885
0.047616795 0.28280118 0.25470892 0.41970545 -0.80149573 -1.1179696 -0.08070262 0.76830477
-0.0034148677 -0.87817466 -0.9569049 1.3566976 0.083797835 0.38755307 0.63100517 -0.39546138
0.16774045 -0.87997717 -0.35854897 -0.57147115 -0.5500072 0.21870697 0.5262245 -0.53928226
00000000: da44 31be 8c4b 14bf 7b50 d0be 5e88 0dbf
00000010: ed15 743f f47d 963e 742d 023f 506f 8abf
00000020: 314f ccbd 3b79 6ebe 730e 26be 21c5 b4be
00000030: 1206 efbf f942 8f3d 9dd2 113e 4928 bbbd
00000040: a6f4 263d 1986 85be aa7f 753e 2204 29bf
00000050: 808f 7dbf 34ce 6ebf 5a83 513d 953f 8dbf
00000060: b1ed 67bf 047a 74be e26d 913e f75f febe
00000070: cf6c 52be 83a5 6a3d ad0b bfbd a51b ce3d
00000080: 5fb3 0abf b277 123e d0f8 95bd 37ed 803e
00000090: 62df 9dbe 4829 fc3e f665 053f a919 a93e
000000a0: 668e a8be 4d75 55bf ae8a 8cbf 7166 ee3e
000000b0: 745a 1d3f 5be4 013d 857f 4abf 2b96 453f
000000c0: 352b 503d 0373 723e 6e63 18bf f45c c33e
000000d0: c7ec cf3d 182d bfbd 2a0d 83bf 9a33 593d
000000e0: 9aa5 c0be 3a6a 1c3f f356 ec3c 8513 1ebf
000000f0: e5fd 8dbe 6ada d93e 480f 00bf 671c 7cbe
00000100: 3caf b53e 5f0c 16be 2cb2 263f 3f1c fa3e
00000110: 231c 593f da91 cb3e b091 e0bd a18b 5c3d
00000120: f7d2 46bf e818 503d fa58 03be 0659 0cbf
00000130: d3f0 513f a7a3 593d 9488 993e 928a 893e
00000140: 81c0 17bb 50ad c6bf 6661 a53e 9efb f2be
00000150: c35e 0bbf 342d e2be 26e7 7bbe 4b28 063f
00000160: 0153 d33e 7703 d1be 2d16 9abd 1bda 23bf
00000170: 6d05 71bf c8e3 1bbf db64 2fbe 86f9 923d
00000180: ac08 d0be b3e6 bebe d187 46bd 861d bfbd
00000190: 689f 7dba 8861 37be f384 afbd 8e97 ce3e
000001a0: fd2f 2fbf f4ae 3bbf 2ca6 293e 0379 08bf
000001b0: 6cff 003f b275 013d c0da 6f3e b271 d6bc
000001c0: 30c2 02bf b484 bd3d 3e4b 983e 8c0a 413e
000001d0: 2b94 c43e aabe 98bd 48b5 89be 0bde 3a3e
000001e0: ef2b 53bf 2c73 69be 7292 04bf e98f d8be
000001f0: 96ef abbe 14e4 793f 19c7 0d3f 49da d5be
00000200: f657 783e 8ebd 603d 2b35 3cbf 4afb 333e
00000210: a334 ef3e f9a6 95bf c818 423e 8c3a 56be
00000220: 008c a3bd 9d94 2cbf d912 9abd c521 1ebf
00000230: baf8 1d3e 8be3 813e b0cd 6c3e f9ad a2bd
00000240: 478e cf3e 5991 e5be 55e0 e73d a3fe d1be
00000250: 8570 013d 3486 363e 1b6d 0ebe 98f6 9f3e
00000260: 961b 17bf 1586 55c0 adf9 963e 9e15 0abf
00000270: 8c50 603f 3a0b b33e 3987 753e 17dd 933e
00000280: b3ad 23bf 34f1 45bf d111 11bf 1733 efbe
00000290: 602f 17bf ca74 e53e 633f 643f f481 11bd
000002a0: 2f2b a6be 41fd 1abf 283c 96be 3ccd eebe
000002b0: 9362 8f3e 72be 9a3d 6739 5abd 95f5 4ebd
000002c0: 4d2a 123f 450a cbbe 21fc 0ebd 2d62 d13d
000002d0: 9889 873e 50d1 db3c 65f4 843e 7ea8 d8bd
000002e0: 2f07 263e bee7 13bf 855c 0ebe b20a 4ebf
000002f0: 5fe0 833f 8615 093f 4986 50bf 1724 64bf
00000300: 6cc2 913e 66a2 cc3e 6b68 25bf af76 e8bd
00000310: 24c8 4dbf e9c2 36bd 2d82 85be a6fd a03e
00000320: 43cd 9b3e 3d1b abbe df86 8f3e c1b1 903e
00000330: 5216 02bd a465 a5be be87 013f 6d93 32be
00000340: 0579 4dbe b39f ccbe fb2c 34be c1a6 a6bd
00000350: 1f15 0e3f 4b17 023d 7c5b 2d3e ffe8 953e
00000360: cc3c f93d f94b 20bf 4917 c3bd 3198 65bf
00000370: f388 353e a026 2c3e c206 4c3d 0b7b 3cbe
00000380: c2ef 0f3f 9190 90bf 713b 323c d82e 0cbf
00000390: 7e29 4cbf 041e 9ebd 506c e1be bf33 96bd
000003a0: d409 433d 51cb 903e 3569 823e a2e3 d63e
000003b0: d32e 4dbf a119 8fbf 6a47 a5bd 9faf 443f
000003c0: f9cb 5fbb 0ed0 60bf b8f7 74bf 44a8 ad3f
000003d0: 339e ab3d 5b6d c63e 8e89 213f ea79 cabe
000003e0: 27c4 2b3e 2f46 61bf bb93 b7be ef4b 12bf
000003f0: 46cd 0cbf b8f4 5f3e a6b6 063f 670e 0abf

fc1.bias f4 [256]
0.062744 0.34229437 -0.5033247 -0.062719986 -0.2882305 0.00034605138 0.46947297 0.4409897
-0.27777106 -0.2760679 -0.4963608 -0.100119725 0.50164706 0.036777742 0.4759356 -0.60118425
-0.27000442 -0.37234795 0.15229633 -0.14297195 -0.3351727 0.51743865 -0.25685626 -0.07536231
-0.12535222 -0.042167626 0.29124007 0.05963508 -0.29899916 0.08434364 -0.38820302 0.052739296
0.064336516 -0.15077539 0.028119884 -0.081658125 0.20058386 -0.0065601016 0.29123437 -0.16373213
-0.26489207 -0.07254471 -0.45418954 0.19876426 -0.05351671 0.078384824 -0.55241394 0.057859544
-0.11512441 0.3536767 0.40613827 -0.13454281 0.48762882 -0.2252425 0.010062168 0.29389247
-0.09047688 -0.5148961 -0.18846491 -0.09948172 0.0013873132 -0.17876874 0.5427643 -0.01353333
-0.18256752 0.43454003 0.06164695 -0.6374435 -0.045050032 -0.35235515 0.39233276 0.027914394
0.096808344 0.48754236 0.064943746 0.2368806 -0.07056294 -0.10437702 -0.2746491 -0.17795198
0.06112761 -0.23050752 -0.030409383 -0.3209047 -0.77685165 -0.11892818 -0.12077115 0.4701546
0.09943379 0.61999077 -0.67339295 -0.12255357 -0.07207785 0.016196495 -0.08171361 0.42231593
-0.14716655 -0.39441097 -0.25853452 0.1923505 0.13040781 -0.97353435 -0.018010823 0.1106889
-0.03428912 0.26070812 0.52307934 0.17955461 0.04808246 0.22931106 0.035484888 0.60458076
0.08503831 -0.4512865 0.006258435 -0.18495268 -0.05280875 0.2708527 0.2494588 -0.38276318
-0.0008654314 -0.005147976 -0.057105776 0.5747319 -0.097836316 -0.3851203 -0.23200819 -0.08926818
0.31937963 0.17162322 0.20907716 -0.017332288 -0.48546067 -0.0057575665 -0.43871737 -0.4655415
-0.5096759 -0.34101564 0.57689494 0.062421806 -0.23914717 -0.22802475 0.36030534 0.22416015
0.41912115 -0.40830395 -0.18158513 0.17233501 -0.22186469 0.014467649 -0.6231098 -0.5467274
-0.08057965 -0.46626884 -0.27600893 -0.6386218 -0.020996995 -0.21364018 0.035512798 -0.03063127
-0.4944533 0.018431004 0.32341313 0.4878669 0.34103546 -0.00042257085 -0.0028485134 0.2556345
-0.27769554 0.42302474 -0.2280586 -0.28539473 0.22291186 -0.14904217 0.044184916 0.09127646
0.06270304 0.4275045 0.45957586 -0.1943605 -0.050315473 -0.05846124 0.21133839 0.005061025
0.34430665 -0.38695887 -0.04952399 -0.13194151 -0.27264693 0.38410065 -0.15486693 -0.31297565
-0.028176947 0.45061988 0.085335664 -0.055280846 -0.5191713 0.061358158 0.21899438 -0.2316841
-0.4365778 -0.24876972 0.4097097 -0.29936817 0.23382388 -0.14993669 0.345122 -0.4703796
0.049364045 0.19733085 -0.07562289 -0.071080506 -0.10626875 -0.48572576 -0.5900711 -0.4460018
-0.41904804 0.23566335 0.011074857 -0.6295099 -0.027526584 0.4575945 -0.09649113 -0.45152423
-0.1808194 -0.13749744 0.1101022 0.054552455 -0.10988467 0.46086034 -0.018417593 -0.50738364
-0.086328454 -0.1776084 -0.15560634 -0.32806846 -0.02140581 -0.04166426 -0.033453647 -0.06300414
0.38309604 -0.36692017 -0.1266605 0.73999166 -0.17030466 0.19570886 0.20385526 -0.58479285
-0.104935184 -0.0054506455 -0.13728926 -0.21727563 -0.5698961 -0.28701627 0.5130042 0.47850046
00000000: ed7f 803d 3541 af3e e3d9 00bf 5673 80bd
00000010: f392 93be 3b6e b539 c35e f03e 67c9 e13e
00000020: 0238 8ebe c658 8dbe 0123 febe 920b cdbd
00000030: f16b 003f 42a4 163d d5ad f33e 36e7 19bf
00000040: 053e 8abe 64a4 bebe 92f3 1b3e 3d67 12be
00000050: c29b abbe dc76 043f aa82 83be 8e57 9abd
00000060: 555c 00be f6b7 2cbd 6b1d 953e ea43 743d
00000070: 6b16 99be 5cbc ac3d 8cc2 c6be 2905 583d
00000080: ddc2 833d dd64 1abe ac5b e63c 603c a7bd
00000090: db65 4d3e 1ff6 d6bb ac1c 953e 65a9 27be
000000a0: ef9f 87be 5292 94bd 888b e8be dc88 4b3e
000000b0: 5634 5bbd 3988 a03d 006b 0dbf 21fe 6c3d
000000c0: 59c6 ebbd 1d15 b53e 5bf1 cf3e 97c5 09be
000000d0: 7caa f93e f8a5 66be cbdb 243c 1379 963e
000000e0: f14b b9bd 3bd0 03bf f2fc 40be 12bd cbbd
000000f0: 82d6 b53a 270f 37be 9af2 0a3f e6ba 5dbc
00000100: fbf2 3abe 087c de3e 8381 7c3d 7f2f 23bf
00000110: 6286 38bd e567 b4be d7df c83e baac e43c
00000120: 7443 c63d 279f f93e 3a01 853d d490 723e
00000130: 4d83 90bd 9ec3 d5bd cf9e 8cbe 0b39 36be
00000140: f260 7a3d 2a0a 6cbe 191d f9bc 9f4d a4be
00000150: c0df 46bf 9e90 f3bd dd56 f7bd 1bb8 f03e
00000160: f1a3 cb3d b7b7 1e3f 7b63 2cbf 5efd fabd
00000170: 8d9d 93bd 83ae 843c 7759 a7bd cb39 d83e
00000180: d4b2 16be 3cf0 c9be a35e 84be 88f7 443e
00000190: a089 053e 8c39 79bf 6f8b 93bc ddb0 e23d
000001a0: c072 0cbd 897b 853e 87e8 053f 2add 373e
000001b0: 1df2 443d 85d0 6a3e 9a58 113d cec5 1a3f
000001c0: 9128 ae3d 060f e7be 8f13 cd3b 3c64 3dbe
000001d0: fd4d 58bd 35ad 8a3e 2172 7f3e 89f9 c3be
000001e0: 1ede 62ba 5ab0 a8bb bfe7 69bd a121 133f
000001f0: 685e c8bd 7d2e c5be 8e93 6dbe 3cd2 b6bd
00000200: ba85 a33e ffbd 2f3e 5318 563e 71fc 8dbc
00000210: 4d8e f8be f8a9 bcbb 909f e0be 755b eebe
00000220: 1f7a 02bf 9a99 aebe 63af 133f 02ae 7f3d
00000230: ffe2 74be 527f 69be f179 b83e 3d8a 653e
00000240: 0c97 d63e 370d d1be 74f1 39be 9778 303e
00000250: 7f30 63be b809 6d3c 2084 1fbf 54f6 0bbf
00000260: f206 a5bd caba eebe 0b51 8dbe b87c 23bf
00000270: e401 acbc 7ec4 5abe de75 113d 6eee fabc
00000280: fc28 fdbe 9efc 963c 6896 a53e b1c9 f93e
00000290: 339c ae3e 808c ddb9 20ae 3abb 86e2 823e
000002a0: 1c2e 8ebe b396 d83e 3288 69be 421f 92be
000002b0: 0243 643e 839e 18be 3efb 343d 27ef ba3d
000002c0: 746a 803d dfe1 da3e 874d eb3e 7006 47be
000002d0: 9917 4ebd 0e75 6fbd 1769 583e f4d6 a53b
000002e0: f648 b03e 791f c6be abd9 4abd ad1b 07be
000002f0: 6198 8bbe d7a8 c43e 7095 1ebe 583e a0be
00000300: 57d3 e6bc a6b7 e63e 77c4 ae3d 2b6e 62bd
00000310: 69e8 04bf b152 7b3d 1040 603e 993e 6dbe
00000320: 2087 dfbe 7dbd 7ebe 78c5 d13e c946 99be
00000330: 876f 6f3e 0189 19be d5b3 b03e 98d5 f0be
00000340: f431 4a3d 1911 4a3e 2ce0 9abd a892 91bd
00000350: 6ea3 d9bd 0cb1 f8be e60e 17bf 595a e4be
00000360: 778d d6be bc51 713e 5173 353c 9027 21bf
00000370: 6e7f e1bc d449 ea3e 249d c5bd 2f2e e7be
00000380: b928 39be 21cc 0cbe 437d e13d 6572 5f3d
00000390: 370b e1bd e3f5 eb3e 7ee0 96bc e5e3 01bf
000003a0: f9cc b0bd fade 35be 4557 1fbe 97f8 a7be
000003b0: 3d5b afbc 25a8 2abd b106 09bd 5108 81bd
000003c0: 2a25 c43e f6dc bbbe 4ab3 01be 1870 3d3f
000003d0: 5864 2ebe e767 483e 6fbf 503e fcb4 15bf
000003e0: 42e8 d6bd 549b b2bb 8e95 0cbe 817d 5ebe
000003f0: b6e4 11bf ccf3 92be 3e54 033f 03fe f43e

fc2.weight f4 [128, 256]
0.6951254 0.05344388 -0.17126781 0.19684035 0.04060766 -0.5304167 -0.22542588 -0.18484265
0.95807415 0.10924427 -0.5183116 0.02062846 0.013231784 0.13281365 -0.13569176 0.8343459
0.24772951 0.121649764 -0.24417149 0.8670501 0.040004876 -0.110844664 0.2807766 -0.364219
-0.110822335 0.20968752 -0.028335048 -0.18146548 -0.119818375 0.12628306 0.28049868 -0.34614295
0.20308524 0.3914406 -0.08843862 0.18008918 -0.02459752 -0.0872802 -0.10227539 -0.111601055
0.50407773 -0.34134954 0.6242468 0.010294143 0.00015039444 0.017634554 -0.13372831 -0.3265208
-0.07643937 0.1753136 -0.020214641 0.09600096 -0.13863654 -0.13638356 -0.2460627 -0.78795916
-0.11443179 -0.59313256 0.09320108 0.037331462 -0.9236946 0.07541236 0.699191 -1.2954192
-0.06673611 0.022936504 -0.04831711 -0.46214077 0.025016427 -0.4405737 0.07332153 0.024532672
0.08291582 0.27765945 -0.10876698 0.2115884 -0.0073813736 -0.30652422 -0.22863483 -0.12551661
-0.46226963 0.37212595 -0.14520304 -0.30921915 0.19643041 0.28498107 -0.008200231 0.015294565
-0.048737243 0.14355469 -0.4825013 -0.14086322 0.1937036 -1.273953 -0.053197905 -0.5216194
-0.06805609 -1.2025493 0.14539312 -0.36074883 0.013566451 -0.53308666 -0.5555983 -0.08915624
-0.530446 0.41990495 0.21730477 -0.20373344 -0.5773435 0.088800445 -0.17083538 0.31259218
-0.12690666 0.48363984 -0.025501858 -0.001690314 0.3557344 -0.1279334 -0.04035016 0.39733407
0.1758647 -0.98844934 0.04480764 0.051271956 -0.011697601 -0.5055191 0.6217297 -0.08881817
0.20481378 -0.12208049 0.15670392 -0.3064609 0.14058109 -1.4454522 0.46720427 -0.16093776
0.30688274 0.015982814 -0.36908886 -0.22684202 0.16993731 0.13565302 0.29251572 0.13342208
-0.11476552 0.7001018 0.40100098 -0.00732909 0.07299989 0.24472977 1.0135754 -0.48544288
0.38979903 -0.31753322 0.38122436 -0.89801455 0.1133549 0.27527097 0.4332378 -0.015482929
1.2016606 0.09705813 -0.038935862 0.12298178 -0.38424328 0.32958812 0.010269297 -0.086365364
-0.10075881 0.09474289 -0.47450876 0.3457636 0.057509188 -0.40392682 0.071932696 1.0955689
-0.1664333 0.035835188 0.015320795 -0.19868222 0.030176086 0.360217 0.1930206 -0.77088684
0.03296536 0.22610344 -0.5731278 0.30571324 -0.94336563 0.29339567 -0.021128368 -0.5831761
-0.37462363 0.1294228 0.20781484 0.07316898 -1.14701 -0.13326176 -0.40670526 0.30938575
0.8161092 -0.4553162 -0.17968388 0.21315713 0.4607199 0.13519342 0.89227617 0.49545756
0.17073187 0.25352326 0.18842126 -0.064981386 0.16902821 0.79756874 -0.04982167 0.99065435
-0.9776474 -0.04522624 -0.23940466 -0.114171274 -0.06991379 0.066623 -0.19967553 0.28208566
0.28849924 0.18278737 -0.16441856 0.17829248 0.22515118 -0.050365493 -0.10500294 -0.8320781
-0.24250987 0.07355784 -0.025299722 0.1660088 -0.072051 -1.2687715 -0.40653533 0.25911573
-0.06462628 -0.5489272 -0.26264015 0.5792074 -0.27368098 0.072766416 -0.123427026 -0.78125286
-0.04987261 -0.3559226 0.048531335 0.8271122 0.94917554 -0.75653505 0.15305588 0.15585642
00000000: bdf3 313f f8e7 5a3d d460 2fbe 8490 493e
00000010: 3854 263d 64c9 07bf 0bd6 66be 6447 3dbe
00000020: 5944 753f 76bb df3d 12b0 04bf 04fd a83c
00000030: 20ca 583c 4d00 083e c8f2 0abe b197 553f
00000040: ceac 7d3e 8323 f93d 1708 7abe fff6 5d3f
00000050: 27dc 233d 8702 e3bd f3c1 8f3e ea7a babe
00000060: d2f6 e2bd 53b8 563e e71e e8bc 16d2 39be
00000070: 5663 f5bd 5950 013e 869d 8f3e a639 b1be
00000080: 94f5 4f3e e76a c83e 4f1f b5bd 4c69 383e
00000090: bd80 c9bc f6bf b2bd c275 d1bd 188f e4bd
000000a0: 3d0b 013f 5ec5 aebe a3ce 1f3f c4a8 283c
000000b0: 33b3 1d39 5776 903c 13f0 08be bc2d a7be
000000c0: 3f8c 9cbd 6985 333e 2d99 a5bc 279c c43d
000000d0: bdf6 0dbe 22a8 0bbe dcf7 7bbe b1b7 49bf
000000e0: 375b eabd 89d7 17bf 35e0 be3d e0e8 183d
000000f0: 4077 6cbf cc71 9a3d 2efe 323f 4cd0 a5bf
00000100: f1ac 88bd 56e5 bb3c 29e8 45bd b79d ecbe
00000110: 40ef cc3c e092 e1be 9929 963d bef8 c83c
00000120: c5cf a93d 6129 8e3e 39c1 debd a1aa 583e
00000130: 73df f1bb bef0 9cbe 401f 6abe 6d87 00be
00000140: 9bae ecbe 4b87 be3e 1bb0 14be f951 9ebe
00000150: 0e25 493e 0ae9 913e 435a 06bc 0e96 7a3c
00000160: b4a0 47bd 0000 133e 690a f7be 733e 10be
00000170: 3d5a 463e e410 a3bf 0ce6 59bd d988 05bf
00000180: fe60 8bbd 23ed 99bf efe1 143e 12b4 b8be
00000190: d245 5e3c 5e78 08bf b13b 0ebf 8c97 b6bd
000001a0: 4fcb 07bf c8fd d63e 2485 5e3e 809f 50be
000001b0: c9cc 13bf 02dd b53d 78ef 2ebe 150c a03e
000001c0: d2f3 01be a49f f73e 46e9 d0bc 878d ddba
000001d0: d222 b63e f900 03be 3646 25bd 5f6f cb3e
000001e0: e015 343e 040b 7dbf 3788 373d 8b02 523d
000001f0: 4ba7 3fbc b369 01bf ad29 1f3f 4de6 b5bd
00000200: b4ba 513e 5605 fabd fe76 203e 71e8 9cbe
00000210: 7df4 0f3e 9404 b9bf 6635 ef3e decc 24be
00000220: bc1f 9d3e 64ee 823c 37f9 bcbe 4649 68be
00000230: 0c04 2e3e a0e8 0a3e 9fc4 953e cc9f 083e
00000240: 2f0a ebbd df39 333f 0050 cd3e dd28 f0bb
00000250: f780 953d 719a 7a3e d7bc 813f f88b f8be
00000260: bd93 c73e b793 a2be d72f c33e 48e4 65bf
00000270: 9d26 e83d 51f0 8c3e 58d1 dd3e 1cac 7dbc
00000280: 04d0 993f 6ac6 c63d 367b 1fbd dfdd fb3d
00000290: 89bb c4be c6bf a83e 8e40 283c 53e0 b0bd
000002a0: a35a cebd 8f08 c23d d0f2 f2be ed07 b13e
000002b0: c18e 6b3d 7fcf cebe 7351 933d 9a3b 8c3f
000002c0: 7e6d 2abe ebc7 123d 1204 7b3c 5a73 4bbe
000002d0: d733 f73c 5d6e b83e 31a7 453e d758 45bf
000002e0: af06 073d a987 673e 81b8 12bf 7286 9c3e
000002f0: 6980 71bf f537 963e 6615 adbc 074b 15bf
00000300: abce bfbe 6987 043e 6acd 543e 9ed9 953d
00000310: 39d1 92bf c575 08be ac3b d0be cf67 9e3e
00000320: 88ec 503f 341f e9be 0dff 37be dd45 5a3e
00000330: 7be3 eb3e 2570 0a3e 366c 643f 9dac fd3e
00000340: 56d4 2e3e cdcd 813e 81f1 403e f614 85bd
00000350: bb15 2d3e 772d 4c3f cf11 4cbd 869b 7d3f
00000360: 1a47 7abf 263f 39bd 7f26 75be a1d2 e9bd
00000370: f62e 8fbd a471 883d be77 4cbe 886d 903e
00000380: 2cb6 933e 9d2c 3b3e 575d 28be 4e92 363e
00000390: 088e 663e 0c4c 4ebd c80b d7bd 1203 55bf
000003a0: 8254 78be 7ea5 963d 5d41 cfbc 36fe 293e
000003b0: 7a8f 93bd 1b67 a2bf 6625 d0be d1aa 843e
000003c0: c85a 84bd 7e86 0cbf c578 86be f046 143f
000003d0: ea1f 8cbe 8f06 953d 4fc7 fcbd 3000 48bf
000003e0: 3947 4cbd 7d3b b6be cbc8 463d a0bd 533f
000003f0: 2bfd 723f 48ac 41bf aeba 1c3e d398 1f3e

fc2.bias f4 [128]
-0.057735924 -0.031435374 0.23373006 0.004174436 -0.09640934 -0.094528385 -0.59997714 -0.041163933
-0.15677504 0.005049957 -0.06263894 -0.056387316 -0.0198603 0.10593088 0.17108694 -0.016394025
-0.028952371 -0.032757774 0.11090847 0.0402821 0.015805349 -0.04064006 -0.05684751 -0.030909015
0.034301836 0.0027242147 -0.058221042 -0.024486382 -0.06350146 0.15410331 -0.025304193 0.023349328
0.33264887 -0.027795976 0.29307276 -0.06584826 0.22394857 -0.053967033 0.028474625 -0.09835571
-0.2011669 -0.025917428 -0.19176573 -0.058844376 -0.07657549 0.068554096 -0.015826646 -0.071860775
-0.22817652 -0.0014617487 -0.12668495 -0.019697834 -0.075907715 0.16078407 0.0071529276 0.10491773
-0.07532209 -0.012743394 -0.049703542 0.13679744 0.04040344 0.027112367 -0.0485492 -0.0197469
0.25397027 -0.27621284 -0.02216767 -0.2097915 0.2087727 -0.41305467 -0.014731002 0.013634248
0.018037522 0.16060007 -0.09752833 0.0015367877 -0.0072212303 -0.014490358 -0.07166807 -0.09456929
0.0061651757 -0.042620562 -0.06449222 -0.15687896 0.15729104 0.12765704 -0.12074687 0.029440166
0.0844698 0.017570587 -0.026646957 -0.042924743 -0.12177665 -0.033849034 -0.07462711 -0.07012412
-0.27194217 0.016968725 0.0011265278 0.100279935 -0.087965466 -0.011208562 -0.17595829 0.27268812
0.019448785 -0.016745528 -0.0022240577 -0.022140112 0.29850686 0.010670294 -0.038622838 -0.050260648
-0.3554878 -0.15760678 -0.062355105 -0.5155742 0.027376233 0.27248186 0.0043590283 -0.050415117
-0.049104482 0.23685202 0.4230748 -0.13319387 0.010852443 0.001051195 -0.025245965 -0.54725266
00000000: 817c 6cbd 61c2 00bd ef56 6f3e b5c9 883b
00000010: 4372 c5bd 1998 c1bd 1a98 19bf 839b 28bd
00000020: a389 20be 1c7a a53b d848 80bd 63f6 66bd
00000030: 11b2 a2bc 4af2 d83d 6a31 2f3e c34c 86bc
00000040: 862d edbc 042d 06bd fb23 e33d d8fe 243d
00000050: 387a 813c 3176 26bd efd8 68bd e734 fdbc
00000060: 1580 0c3d bd88 323b 3079 6ebd aa97 c8bc
00000070: 0e0d 82bd 42cd 1d3e bd4a cfbc 1747 bf3c
00000080: f450 aa3e 63b4 e3bc a20d 963e 74db 86bd
00000090: c652 653e 890c 5dbd 9e43 e93c b86e c9bd
000000a0: b2fe 4dbe c950 d4bc 3c5e 44be cd06 71bd
000000b0: 9cd3 9cbd 1766 8c3d e2a6 81bc be2b 93bd
000000c0: 1ba7 69be 2698 bfba b3b9 01be 5a5d a1bc
000000d0: 8175 9bbd 94a4 243e 1b63 ea3b 1bdf d63d
000000e0: 7842 9abd abc9 50bc f195 4bbd a114 0c3e
000000f0: 147e 253d c11a de3c 87db 46bd 40c4 a1bc
00000100: 6408 823e c56b 8dbe f998 b5bc 95d3 56be
00000110: 83c8 553e e77b d3be 4d5a 71bc 2e62 5f3c
00000120: 6dc3 933c 5874 243e efbc c7bd 0a6e c93a
00000130: 12a0 ecbb f768 6dbc b6c6 92bd 8bad c1bd
00000140: 3e05 ca3b e692 2ebd 7f14 84bd e1a4 20be
00000150: e710 213e 87b8 023e 234a f7bd 812c f13c
00000160: 81fe ac3d 31f0 8f3c b84a dabc dbd1 2fbd
00000170: 0966 f9bd 49a5 0abd 19d6 98bd 3c9d 8fbd
00000180: 013c 8bbe ff01 8b3c 00a8 933a 915f cd3d
00000190: 3d27 b4bd 1ea4 37bc 692e 34be c79d 8b3e
000001a0: 0f53 9f3c eb2d 89bc 7fc1 11bb 2e5f b5bc
000001b0: e4d5 983e 75d2 2e3c fb32 1ebd 1cde 4dbd
000001c0: 7f02 b6be ac63 21be 1168 7fbd acfc 03bf
000001d0: 1f44 e03c be82 8b3e 2ed6 8e3b 1580 4ebd
000001e0: c821 49bd 5689 723e 439d d83e f963 08be
000001f0: 72ce 313c 40c8 893a a0d0 cebc c018 0cbf

fc3.weight f4 [4, 128]
-0.24485447 0.07802341 -0.53631073 -0.24099371 -0.28550184 0.30613738 1.1791731 0.037248693
-0.7643974 0.011018742 -0.31523585 0.009299313 -0.19126904 -0.8920448 1.2690382 -0.3748095
0.079387926 -0.05156374 -0.48340037 -0.407299 -0.1844216 -0.3898404 -0.012129578 0.07497233
0.006603628 -0.18759228 -1.0202118 -0.020077955 -1.2120622 0.30318058 1.407009 -0.048545457
-0.42157573 -0.002577368 0.5067056 -0.21881916 -0.54987556 -0.13903938 0.04276633 1.1425145
1.5073178 1.4747064 -0.8088132 0.061331756 -0.02686244 -0.1752618 0.022851732 0.07744761
0.45622218 -0.22811024 -0.2537052 -0.23190878 0.036895193 -0.21508735 0.06509702 -0.18862268
0.07181142 -0.93747324 -0.5406151 -0.76033384 -0.12693937 0.01511648 0.016587302 0.029763216
1.4397417 0.6907796 -0.19181837 -0.26454222 0.023638172 -0.7927159 -0.19317946 -0.29959247
0.9427064 -0.40024182 -0.13632451 -0.57927364 -0.13000406 -0.25159234 -0.5236959 0.091224484
-0.089648746 -0.3102483 0.04546502 -0.3724386 0.93481404 1.5614645 -0.33382413 0.09190464
0.7847041 0.01714957 -0.22915645 -0.40955776 -0.94699204 -0.19966102 -0.5536404 0.048994083
0.17189747 -0.02133943 0.008450728 0.7585009 -0.24237095 -0.17777249 1.199497 1.2488335
-0.049671747 -0.30194858 -0.13530391 -0.20931539 0.05737161 1.1791849 -0.020902336 0.013545949
0.7325963 -0.6624797 0.011126709 2.2514117 0.05840824 1.2666316 -0.3069687 -0.70133865
-0.1537425 -0.5507575 1.4155154 -0.3605618 -0.28203678 -0.25959283 -0.21286474 0.6959456
-0.241401 -0.01820113 -0.23065172 -0.2125916 -0.1857686 -0.38433114 1.1831316 0.017056312
-0.69764763 0.079572774 -0.4870004 -0.069303945 -0.1819039 -0.72256196 1.5672722 -0.3406699
0.0074505294 0.015250017 -0.8529803 -0.2831572 -0.111105375 -0.20189703 -0.060321257 -0.011747786
0.017459355 -0.13312544 -0.8196979 -0.026393108 -1.4451191 0.6449381 1.7565746 -0.011252183
-0.84769803 0.21305782 1.0637498 0.17633714 -0.34174067 -0.28386715 0.06369197 1.2121396
0.67417336 1.3126953 -1.1264137 0.03994096 0.033358164 -0.42382646 -0.024831789 -0.04504858
0.44821185 -0.1957223 -0.15383117 -0.34394094 0.006809487 -0.32088378 0.024962947 -0.28728795
-0.011115432 -0.5435372 -0.5119131 -0.6618444 -0.23612161 -0.076194994 0.029769458 0.036707956
1.661096 1.3586135 -0.31199732 -0.3486189 0.19631355 -0.7896519 -0.19694705 -0.36289558
0.8446983 -0.49937385 -0.3768785 -0.6193208 -0.2467944 -0.11922816 -0.7376521 -0.45424485
-0.3651151 -0.1905835 -0.010728038 -0.279498 0.71525574 1.6184945 -0.6725808 0.15646002
0.8519825 -0.045978706 -0.24509226 -0.75265825 -0.8160501 -0.26216573 -0.37015277 -0.025248604
-0.79040897 0.02334681 -0.033543654 0.83861065 0.25140926 -0.2634102 1.1947542 0.6988523
-0.082006134 -0.24507096 -0.27775612 -0.08231557 -0.15385582 1.0592391 0.026000137 0.03581073
-0.19910473 -0.56896853 0.044348724 1.5731536 -0.040688105 1.3227372 -0.19430865 -1.0307907
-0.22913651 -0.38835436 1.3599153 0.20532341 -0.37676758 -0.1947649 -0.16854934 1.0087649
00000000: 21bb 7abe bdca 9f3d a94b 09bf 0ec7 76be
00000010: 4c2d 92be 0abe 9c3e 25ef 963f 1692 183d
00000020: 8caf 43bf f487 343c 9866 a1be 255c 183c
00000030: 08dc 43be 0c5d 64bf d86f a23f 08e7 bfbe
00000040: 2396 a23d 8034 53bd 4180 f7be 7f89 d0be
00000050: 04d9 3cbe 2999 c7be 23bb 46bc 188b 993d
00000060: 3f63 d83b 3118 40be 4d96 82bf 867a a4bc
00000070: db24 9bbf 7c3a 9b3e df18 b43f 9ad7 46bd
00000080: c6d8 d7be 0fe9 28bb 75b7 013f 2112 60be
00000090: a5c4 0cbf 5760 0ebe bf2b 2f3d ea3d 923f
000000a0: caef c03f 2ec3 bc3f 620e 4fbf 0237 7b3d
000000b0: 9f0e dcbc d477 33be 8e33 bb3c da9c 9e3d
000000c0: f495 e93e bb95 69be a6e5 81be 7f79 6dbe
000000d0: 6a1f 173d dc3f 5cbe 9651 853d 4e26 41be
000000e0: de11 933d 3ffe 6fbf c065 0abf 3da5 42bf
000000f0: 65fc 01be 1dab 773c 18e2 873c fdd1 f33c
00000100: 7549 b83f efd6 303f 096c 44be 1472 87be
00000110: d7a4 c13c 6eef 4abf d6d0 45be 2f64 99be
00000120: 3555 713f 7fec ccbe a798 0bbe 474b 14bf
00000130: c91f 05be b6d0 80be ef10 06bf e7d3 ba3d
00000140: c399 b7bd ddd8 9ebe 8739 3a3d 46b0 bebe
00000150: f94f 6f3f 12de c73f ffea aabe 8038 bc3d
00000160: 5ee2 483f 417d 8c3c fda7 6abe 8eb1 d1be
00000170: 126e 72bf f073 4cbe 61bb 0dbf 05ae 483d
00000180: e405 303e 07d0 aebc ec74 0a3c 1d2d 423f
00000190: 1730 78be fe09 36be 1e89 993f c7d9 9f3f
000001a0: 9a74 4bbd 0199 9abe 1c8d 0abe c656 56be
000001b0: 7efe 6a3d 88ef 963f 603b abbc d4ef 5d3c
000001c0: 6e8b 3b3f 4598 29bf cd4c 363c 2117 1040
000001d0: 7b3d 6f3d fc20 a23f 002b 9dbe ee8a 33bf
000001e0: ad6e 1dbe 72fe 0cbf 9c2f b53f 8e9b b8be
000001f0: 2067 90be 5ae9 84be 37f9 59be 7e29 323f
00000200: d331 77be 891a 95bc f72f 6cbe 9db1 59be
00000210: 203a 3ebe 0dc7 c4be db70 973f aeb9 8b3c
00000220: 0999 32bf 0df7 a23d 1e58 f9be 3aef 8dbd
00000230: 0445 3abe d2f9 38bf 609c c83f 496c aebe
00000240: 9223 f43b 35db 793c eb5c 5abf fbf9 90be
00000250: 378b e3bd 18be 4ebe 6c13 77bd c979 40bc
00000260: ec06 8f3c 0952 08be b9d7 51bf 5c36 d8bc
00000270: aaf9 b8bf aa1a 253f 70d7 e03f 135b 38bc
00000280: bd02 59bf d42b 5a3e f428 883f b991 343e
00000290: a2f8 aebe 0957 91be f070 823d 6427 9b3f
000002a0: a096 2c3f 6606 a83f 532e 90bf 2299 233d
000002b0: 92a2 083d c8ff d8be 096c cbbc dc84 38bd
000002c0: 067c e53e 6d6b 48be eb85 1dbe 0719 b0be
000002d0: 1e22 df3b e14a a4be 187f cc3c 6817 93be
000002e0: 801d 36bc 4125 0bbf bd0c 03bf a26e 29bf
000002f0: ddc9 71be 1f0c 9cbd 14df f33c 155b 163d
00000300: cb9e d43f 0ce7 ad3f 1dbe 9fbe 2d7e b2be
00000310: 6b06 493e a026 4abf 7dac 49be 73cd b9be
00000320: 263e 583f eead ffbe 38f6 c0be cf8b 1ebf
00000330: acb7 7cbe e52d f4bd c5d6 3cbf c892 e8be
00000340: 5ef0 babe 5228 43be a7c4 2fbc 5d1a 8fbe
00000350: 001b 373f d42a cf3f 412e 2cbf 0e37 203e
00000360: 861b 5a3f 2b54 3cbd 77f9 7abe 36ae 40bf
00000370: a9e8 50bf 963a 86be aa84 bdbe 29d6 cebc
00000380: 3e58 4abf cf41 bf3c 1265 09bd 30af 563f
00000390: b7b8 803e b4dd 86be b5ed 983f fce7 323f
000003a0: d5f2 a7bd e2f3 7abe 0d36 8ebe 1195 a8bd
000003b0: 618c 1dbe 2695 873f 3dfe d43c 46ae 123d
000003c0: 1ce2 4bbe eca7 11bf 02a7 353d 195d c93f
000003d0: 92a8 26bd 744f a93f d9f8 46be f3f0 83bf
000003e0: c3a2 6abe 62d6 c6be b411 ae3f 4d40 523e
000003f0: aee7 c0be 7370 47be 3398 2cbe 351f 813f

fc3.bias f4 [4]
-0.2553679 -0.18879725 0.08913445 -0.22615549
00000000: 95bf 82be 1154 41be 1f8c b63d 4e95 67be

fc1.weight f4 [256, 8]
-0.17311421 -0.57927775 -0.40686402 -0.55286205 0.95345956 0.2939297 0.50850606 -1.081522
-0.09976042 -0.23288433 -0.1621645 -0.35306647 -1.8673728 0.06995196 0.14240499 -0.09138543
0.04076066 -0.2607887 0.23974481 -0.6602193 -0.9904709 -0.9328339 0.051150657 -1.1035029
-0.90597063 -0.2387467 0.28404146 -0.4968259 -0.2054932 0.05728675 -0.09328399 0.100638665
-0.5417995 0.14303473 -0.07322848 0.2518098 -0.3083449 0.49250245 0.52108705 0.3302739
-0.3292114 -0.8338211 -1.0979822 0.46562532 0.61466146 0.031711917 -0.7910083 0.77182263
0.050822455 0.23676686 -0.5952672 0.38156855 0.101525836 -0.09334773 -1.0238392 0.053027727
-0.37626344 0.6109959 0.028850054 -0.61748534 -0.2773277 0.4254945 -0.5002332 -0.2462021
0.35485256 -0.14653157 0.6511562 0.48849675 0.8480856 0.39759713 -0.10965288 0.053844098
-0.77665657 0.050805002 -0.1282691 -0.5482334 0.82008094 0.053134587 0.29987013 0.26863533
-0.0023155513 -1.5521641 0.32300872 -0.47457594 -0.5444147 -0.44175112 -0.24599895 0.5240523
0.41274264 -0.40822956 -0.07523761 -0.6400468 -0.94148904 -0.6089444 -0.17128317 0.07176499
-0.40631616 -0.37285385 -0.04846937 -0.09331803 -0.00096749375 -0.17908299 -0.0857028 0.40350002
-0.684326 -0.7331383 0.16567296 -0.5330965 0.5038974 0.031606384 0.2342329 -0.026177261
-0.51077557 0.09253827 0.29744905 0.1885168 0.38394293 -0.07458241 -0.2689612 0.18248765
-0.8248891 -0.22797841 -0.5178596 -0.42297295 -0.33581227 0.97613645 0.55381924 -0.417681
0.24252304 0.054868273 -0.7351863 0.17576328 0.46719846 -1.1691581 0.18954766 -0.20920771
-0.07985687 -0.67414266 -0.07523126 -0.6177028 0.15426913 0.25368914 0.23125339 -0.07943339
0.40538236 -0.44837454 0.11322085 -0.41014585 0.031601448 0.17824632 -0.13908808 0.31242824
-0.5902647 -3.3363087 0.29487363 -0.53939235 0.87622905 0.34969503 0.23977365 0.28879616
-0.6393692 -0.7732117 -0.5666781 -0.46718666 -0.59056664 0.44815665 0.8915922 -0.035524324
-0.3245482 -0.60542685 -0.2934277 -0.46640956 0.28004894 0.07555856 -0.0532774 -0.050527174
0.57095796 -0.39656273 -0.034908418 0.10223804 0.26472163 0.026833206 0.25967708 -0.10579012
0.16213678 -0.57775486 -0.13902481 -0.8048507 1.0302848 0.5354847 -0.814549 -0.8911757
0.28468645 0.3996765 -0.64612454 -0.11350762 -0.80383515 -0.044619475 -0.2607588 0.31443518
0.3043004 -0.3341922 0.28032586 0.28260615 -0.031759568 -0.32304108 0.5059775 -0.17439051
-0.20065697 -0.3996559 -0.17595284 -0.081372745 0.5550098 0.031760495 0.1692943 0.29279324
0.12169799 -0.62615925 -0.09525926 -0.8968535 0.17728023 0.1681161 0.049811132 -0.18406312
0.56225216 -1.1294118 0.01087843 -0.5475898 -0.7975081 -0.07720569 -0.44027948 -0.073340885
0.047616795 0.28280118 0.25470892 0.41970545 -0.80149573 -1.1179696 -0.08070262 0.76830477
-0.0034148677 -0.87817466 -0.9569049 1.3566976 0.083797835 0.38755307 0.63100517 -0.39546138
0.16774045 -0.87997717 -0.35854897 -0.57147115 -0.5500072 0.21870697 0.5262245 -0.53928226
00000000: da44 31be 8c4b 14bf 7b50 d0be 5e88 0dbf
00000010: ed15 743f f47d 963e 742d 023f 506f 8abf
00000020: 314f ccbd 3b79 6ebe 730e 26be 21c5 b4be
00000030: 1206 efbf f942 8f3d 9dd2 113e 4928 bbbd
00000040: a6f4 263d 1986 85be aa7f 753e 2204 29bf
00000050: 808f 7dbf 34ce 6ebf 5a83 513d 953f 8dbf
00000060: b1ed 67bf 047a 74be e26d 913e f75f febe
00000070: cf6c 52be 83a5 6a3d ad0b bfbd a51b ce3d
00000080: 5fb3 0abf b277 123e d0f8 95bd 37ed 803e
00000090: 62df 9dbe 4829 fc3e f665 053f a919 a93e
000000a0: 668e a8be 4d75 55bf ae8a 8cbf 7166 ee3e
000000b0: 745a 1d3f 5be4 013d 857f 4abf 2b96 453f
000000c0: 352b 503d 0373 723e 6e63 18bf f45c c33e
000000d0: c7ec cf3d 182d bfbd 2a0d 83bf 9a33 593d
000000e0: 9aa5 c0be 3a6a 1c3f f356 ec3c 8513 1ebf
000000f0: e5fd 8dbe 6ada d93e 480f 00bf 671c 7cbe
00000100: 3caf b53e 5f0c 16be 2cb2 263f 3f1c fa3e
00000110: 231c 593f da91 cb3e b091 e0bd a18b 5c3d
00000120: f7d2 46bf e818 503d fa58 03be 0659 0cbf
00000130: d3f0 513f a7a3 593d 9488 993e 928a 893e
00000140: 81c0 17bb 50ad c6bf 6661 a53e 9efb f2be
00000150: c35e 0bbf 342d e2be 26e7 7bbe 4b28 063f
00000160: 0153 d33e 7703 d1be 2d16 9abd 1bda 23bf
00000170: 6d05 71bf c8e3 1bbf db64 2fbe 86f9 923d
00000180: ac08 d0be b3e6 bebe d187 46bd 861d bfbd
00000190: 689f 7dba 8861 37be f384 afbd 8e97 ce3e
000001a0: fd2f 2fbf f4ae 3bbf 2ca6 293e 0379 08bf
000001b0: 6cff 003f b275 013d c0da 6f3e b271 d6bc
000001c0: 30c2 02bf b484 bd3d 3e4b 983e 8c0a 413e
000001d0: 2b94 c43e aabe 98bd 48b5 89be 0bde 3a3e
000001e0: ef2b 53bf 2c73 69be 7292 04bf e98f d8be
000001f0: 96ef abbe 14e4 793f 19c7 0d3f 49da d5be
00000200: f657 783e 8ebd 603d 2b35 3cbf 4afb 333e
00000210: a334 ef3e f9a6 95bf c818 423e 8c3a 56be
00000220: 008c a3bd 9d94 2cbf d912 9abd c521 1ebf
00000230: baf8 1d3e 8be3 813e b0cd 6c3e f9ad a2bd
00000240: 478e cf3e 5991 e5be 55e0 e73d a3fe d1be
00000250: 8570 013d 3486 363e 1b6d 0ebe 98f6 9f3e
00000260: 961b 17bf 1586 55c0 adf9 963e 9e15 0abf
00000270: 8c50 603f 3a0b b33e 3987 753e 17dd 933e
00000280: b3ad 23bf 34f1 45bf d111 11bf 1733 efbe
00000290: 602f 17bf ca74 e53e 633f 643f f481 11bd
000002a0: 2f2b a6be 41fd 1abf 283c 96be 3ccd eebe
000002b0: 9362 8f3e 72be 9a3d 6739 5abd 95f5 4ebd
000002c0: 4d2a 123f 450a cbbe 21fc 0ebd 2d62 d13d
000002d0: 9889 873e 50d1 db3c 65f4 843e 7ea8 d8bd
000002e0: 2f07 263e bee7 13bf 855c 0ebe b20a 4ebf
000002f0: 5fe0 833f 8615 093f 4986 50bf 1724 64bf
00000300: 6cc2 913e 66a2 cc3e 6b68 25bf af76 e8bd
00000310: 24c8 4dbf e9c2 36bd 2d82 85be a6fd a03e
00000320: 43cd 9b3e 3d1b abbe df86 8f3e c1b1 903e
00000330: 5216 02bd a465 a5be be87 013f 6d93 32be
00000340: 0579 4dbe b39f ccbe fb2c 34be c1a6 a6bd
00000350: 1f15 0e3f 4b17 023d 7c5b 2d3e ffe8 953e
00000360: cc3c f93d f94b 20bf 4917 c3bd 3198 65bf
00000370: f388 353e a026 2c3e c206 4c3d 0b7b 3cbe
00000380: c2ef 0f3f 9190 90bf 713b 323c d82e 0cbf
00000390: 7e29 4cbf 041e 9ebd 506c e1be bf33 96bd
000003a0: d409 433d 51cb 903e 3569 823e a2e3 d63e
000003b0: d32e 4dbf a119 8fbf 6a47 a5bd 9faf 443f
000003c0: f9cb 5fbb 0ed0 60bf b8f7 74bf 44a8 ad3f
000003d0: 339e ab3d 5b6d c63e 8e89 213f ea79 cabe
000003e0: 27c4 2b3e 2f46 61bf bb93 b7be ef4b 12bf
000003f0: 46cd 0cbf b8f4 5f3e a6b6 063f 670e 0abf

fc1.bias f4 [256]
0.062744 0.34229437 -0.5033247 -0.062719986 -0.2882305 0.00034605138 0.46947297 0.4409897
-0.27777106 -0.2760679 -0.4963608 -0.100119725 0.50164706 0.036777742 0.4759356 -0.60118425
-0.27000442 -0.37234795 0.15229633 -0.14297195 -0.3351727 0.51743865 -0.25685626 -0.07536231
-0.12535222 -0.042167626 0.29124007 0.05963508 -0.29899916 0.08434364 -0.38820302 0.052739296
0.064336516 -0.15077539 0.028119884 -0.081658125 0.20058386 -0.0065601016 0.29123437 -0.16373213
-0.26489207 -0.07254471 -0.45418954 0.19876426 -0.05351671 0.078384824 -0.55241394 0.057859544
-0.11512441 0.3536767 0.40613827 -0.13454281 0.48762882 -0.2252425 0.010062168 0.29389247
-0.09047688 -0.5148961 -0.18846491 -0.09948172 0.0013873132 -0.17876874 0.5427643 -0.01353333
-0.18256752 0.43454003 0.06164695 -0.6374435 -0.045050032 -0.35235515 0.39233276 0.027914394
0.096808344 0.48754236 0.064943746 0.2368806 -0.07056294 -0.10437702 -0.2746491 -0.17795198
0.06112761 -0.23050752 -0.030409383 -0.3209047 -0.77685165 -0.11892818 -0.12077115 0.4701546
0.09943379 0.61999077 -0.67339295 -0.12255357 -0.07207785 0.016196495 -0.08171361 0.42231593
-0.14716655 -0.39441097 -0.25853452 0.1923505 0.13040781 -0.97353435 -0.018010823 0.1106889
-0.03428912 0.26070812 0.52307934 0.17955461 0.04808246 0.22931106 0.035484888 0.60458076
0.08503831 -0.4512865 0.006258435 -0.18495268 -0.05280875 0.2708527 0.2494588 -0.38276318
-0.0008654314 -0.005147976 -0.057105776 0.5747319 -0.097836316 -0.3851203 -0.23200819 -0.08926818
0.31937963 0.17162322 0.20907716 -0.017332288 -0.48546067 -0.0057575665 -0.43871737 -0.4655415
-0.5096759 -0.34101564 0.57689494 0.062421806 -0.23914717 -0.22802475 0.36030534 0.22416015
0.41912115 -0.40830395 -0.18158513 0.17233501 -0.22186469 0.014467649 -0.6231098 -0.5467274
-0.08057965 -0.46626884 -0.27600893 -0.6386218 -0.020996995 -0.21364018 0.035512798 -0.03063127
-0.4944533 0.018431004 0.32341313 0.4878669 0.34103546 -0.00042257085 -0.0028485134 0.2556345
-0.27769554 0.42302474 -0.2280586 -0.28539473 0.22291186 -0.14904217 0.044184916 0.09127646
0.06270304 0.4275045 0.45957586 -0.1943605 -0.050315473 -0.05846124 0.21133839 0.005061025
0.34430665 -0.38695887 -0.04952399 -0.13194151 -0.27264693 0.38410065 -0.15486693 -0.31297565
-0.028176947 0.45061988 0.085335664 -0.055280846 -0.5191713 0.061358158 0.21899438 -0.2316841
-0.4365778 -0.24876972 0.4097097 -0.29936817 0.23382388 -0.14993669 0.345122 -0.4703796
0.049364045 0.19733085 -0.07562289 -0.071080506 -0.10626875 -0.48572576 -0.5900711 -0.4460018
-0.41904804 0.23566335 0.011074857 -0.6295099 -0.027526584 0.4575945 -0.09649113 -0.45152423
-0.1808194 -0.13749744 0.1101022 0.054552455 -0.10988467 0.46086034 -0.018417593 -0.50738364
-0.086328454 -0.1776084 -0.15560634 -0.32806846 -0.02140581 -0.04166426 -0.033453647 -0.06300414
0.38309604 -0.36692017 -0.1266605 0.73999166 -0.17030466 0.19570886 0.20385526 -0.58479285
-0.104935184 -0.0054506455 -0.13728926 -0.21727563 -0.5698961 -0.28701627 0.5130042 0.47850046
00000000: ed7f 803d 3541 af3e e3d9 00bf 5673 80bd
00000010: f392 93be 3b6e b539 c35e f03e 67c9 e13e
00000020: 0238 8ebe c658 8dbe 0123 febe 920b cdbd
00000030: f16b 003f 42a4 163d d5ad f33e 36e7 19bf
00000040: 053e 8abe 64a4 bebe 92f3 1b3e 3d67 12be
00000050: c29b abbe dc76 043f aa82 83be 8e57 9abd
00000060: 555c 00be f6b7 2cbd 6b1d 953e ea43 743d
00000070: 6b16 99be 5cbc ac3d 8cc2 c6be 2905 583d
00000080: ddc2 833d dd64 1abe ac5b e63c 603c a7bd
00000090: db65 4d3e 1ff6 d6bb ac1c 953e 65a9 27be
000000a0: ef9f 87be 5292 94bd 888b e8be dc88 4b3e
000000b0: 5634 5bbd 3988 a03d 006b 0dbf 21fe 6c3d
000000c0: 59c6 ebbd 1d15 b53e 5bf1 cf3e 97c5 09be
000000d0: 7caa f93e f8a5 66be cbdb 243c 1379 963e
000000e0: f14b b9bd 3bd0 03bf f2fc 40be 12bd cbbd
000000f0: 82d6 b53a 270f 37be 9af2 0a3f e6ba 5dbc
00000100: fbf2 3abe 087c de3e 8381 7c3d 7f2f 23bf
00000110: 6286 38bd e567 b4be d7df c83e baac e43c
00000120: 7443 c63d 279f f93e 3a01 853d d490 723e
00000130: 4d83 90bd 9ec3 d5bd cf9e 8cbe 0b39 36be
00000140: f260 7a3d 2a0a 6cbe 191d f9bc 9f4d a4be
00000150: c0df 46bf 9e90 f3bd dd56 f7bd 1bb8 f03e
00000160: f1a3 cb3d b7b7 1e3f 7b63 2cbf 5efd fabd
00000170: 8d9d 93bd 83ae 843c 7759 a7bd cb39 d83e
00000180: d4b2 16be 3cf0 c9be a35e 84be 88f7 443e
00000190: a089 053e 8c39 79bf 6f8b 93bc ddb0 e23d
000001a0: c072 0cbd 897b 853e 87e8 053f 2add 373e
000001b0: 1df2 443d 85d0 6a3e 9a58 113d cec5 1a3f
000001c0: 9128 ae3d 060f e7be 8f13 cd3b 3c64 3dbe
000001d0: fd4d 58bd 35ad 8a3e 2172 7f3e 89f9 c3be
000001e0: 1ede 62ba 5ab0 a8bb bfe7 69bd a121 133f
000001f0: 685e c8bd 7d2e c5be 8e93 6dbe 3cd2 b6bd
00000200: ba85 a33e ffbd 2f3e 5318 563e 71fc 8dbc
00000210: 4d8e f8be f8a9 bcbb 909f e0be 755b eebe
00000220: 1f7a 02bf 9a99 aebe 63af 133f 02ae 7f3d
00000230: ffe2 74be 527f 69be f179 b83e 3d8a 653e
00000240: 0c97 d63e 370d d1be 74f1 39be 9778 303e
00000250: 7f30 63be b809 6d3c 2084 1fbf 54f6 0bbf
00000260: f206 a5bd caba eebe 0b51 8dbe b87c 23bf
00000270: e401 acbc 7ec4 5abe de75 113d 6eee fabc
00000280: fc28 fdbe 9efc 963c 6896 a53e b1c9 f93e
00000290: 339c ae3e 808c ddb9 20ae 3abb 86e2 823e
000002a0: 1c2e 8ebe b396 d83e 3288 69be 421f 92be
000002b0: 0243 643e 839e 18be 3efb 343d 27ef ba3d
000002c0: 746a 803d dfe1 da3e 874d eb3e 7006 47be
000002d0: 9917 4ebd 0e75 6fbd 1769 583e f4d6 a53b
000002e0: f648 b03e 791f c6be abd9 4abd ad1b 07be
000002f0: 6198 8bbe d7a8 c43e 7095 1ebe 583e a0be
00000300: 57d3 e6bc a6b7 e63e 77c4 ae3d 2b6e 62bd
00000310: 69e8 04bf b152 7b3d 1040 603e 993e 6dbe
00000320: 2087 dfbe 7dbd 7ebe 78c5 d13e c946 99be
00000330: 876f 6f3e 0189 19be d5b3 b03e 98d5 f0be
00000340: f431 4a3d 1911 4a3e 2ce0 9abd a892 91bd
00000350: 6ea3 d9bd 0cb1 f8be e60e 17bf 595a e4be
00000360: 778d d6be bc51 713e 5173 353c 9027 21bf
00000370: 6e7f e1bc d449 ea3e 249d c5bd 2f2e e7be
00000380: b928 39be 21cc 0cbe 437d e13d 6572 5f3d
00000390: 370b e1bd e3f5 eb3e 7ee0 96bc e5e3 01bf
000003a0: f9cc b0bd fade 35be 4557 1fbe 97f8 a7be
000003b0: 3d5b afbc 25a8 2abd b106 09bd 5108 81bd
000003c0: 2a25 c43e f6dc bbbe 4ab3 01be 1870 3d3f
000003d0: 5864 2ebe e767 483e 6fbf 503e fcb4 15bf
000003e0: 42e8 d6bd 549b b2bb 8e95 0cbe 817d 5ebe
000003f0: b6e4 11bf ccf3 92be 3e54 033f 03fe f43e

fc2.weight f4 [128, 256]
0.6951254 0.05344388 -0.17126781 0.19684035 0.04060766 -0.5304167 -0.22542588 -0.18484265
0.95807415 0.10924427 -0.5183116 0.02062846 0.013231784 0.13281365 -0.13569176 0.8343459
0.24772951 0.121649764 -0.24417149 0.8670501 0.040004876 -0.110844664 0.2807766 -0.364219
-0.110822335 0.20968752 -0.028335048 -0.18146548 -0.119818375 0.12628306 0.28049868 -0.34614295
0.20308524 0.3914406 -0.08843862 0.18008918 -0.02459752 -0.0872802 -0.10227539 -0.111601055
0.50407773 -0.34134954 0.6242468 0.010294143 0.00015039444 0.017634554 -0.13372831 -0.3265208
-0.07643937 0.1753136 -0.020214641 0.09600096 -0.13863654 -0.13638356 -0.2460627 -0.78795916
-0.11443179 -0.59313256 0.09320108 0.037331462 -0.9236946 0.07541236 0.699191 -1.2954192
-0.06673611 0.022936504 -0.04831711 -0.46214077 0.025016427 -0.4405737 0.07332153 0.024532672
0.08291582 0.27765945 -0.10876698 0.2115884 -0.0073813736 -0.30652422 -0.22863483 -0.12551661
-0.46226963 0.37212595 -0.14520304 -0.30921915 0.19643041 0.28498107 -0.008200231 0.015294565
-0.048737243 0.14355469 -0.4825013 -0.14086322 0.1937036 -1.273953 -0.053197905 -0.5216194
-0.06805609 -1.2025493 0.14539312 -0.36074883 0.013566451 -0.53308666 -0.5555983 -0.08915624
-0.530446 0.41990495 0.21730477 -0.20373344 -0.5773435 0.088800445 -0.17083538 0.31259218
-0.12690666 0.48363984 -0.025501858 -0.001690314 0.3557344 -0.1279334 -0.04035016 0.39733407
0.1758647 -0.98844934 0.04480764 0.051271956 -0.011697601 -0.5055191 0.6217297 -0.08881817
0.20481378 -0.12208049 0.15670392 -0.3064609 0.14058109 -1.4454522 0.46720427 -0.16093776
0.30688274 0.015982814 -0.36908886 -0.22684202 0.16993731 0.13565302 0.29251572 0.13342208
-0.11476552 0.7001018 0.40100098 -0.00732909 0.07299989 0.24472977 1.0135754 -0.48544288
0.38979903 -0.31753322 0.38122436 -0.89801455 0.1133549 0.27527097 0.4332378 -0.015482929
1.2016606 0.09705813 -0.038935862 0.12298178 -0.38424328 0.32958812 0.010269297 -0.086365364
-0.10075881 0.09474289 -0.47450876 0.3457636 0.057509188 -0.40392682 0.071932696 1.0955689
-0.1664333 0.035835188 0.015320795 -0.19868222 0.030176086 0.360217 0.1930206 -0.77088684
0.03296536 0.22610344 -0.5731278 0.30571324 -0.94336563 0.29339567 -0.021128368 -0.5831761
-0.37462363 0.1294228 0.20781484 0.07316898 -1.14701 -0.13326176 -0.40670526 0.30938575
0.8161092 -0.4553162 -0.17968388 0.21315713 0.4607199 0.13519342 0.89227617 0.49545756
0.17073187 0.25352326 0.18842126 -0.064981386 0.16902821 0.79756874 -0.04982167 0.99065435
-0.9776474 -0.04522624 -0.23940466 -0.114171274 -0.06991379 0.066623 -0.19967553 0.28208566
0.28849924 0.18278737 -0.16441856 0.17829248 0.22515118 -0.050365493 -0.10500294 -0.8320781
-0.24250987 0.07355784 -0.025299722 0.1660088 -0.072051 -1.2687715 -0.40653533 0.25911573
-0.06462628 -0.5489272 -0.26264015 0.5792074 -0.27368098 0.072766416 -0.123427026 -0.78125286
-0.04987261 -0.3559226 0.048531335 0.8271122 0.94917554 -0.75653505 0.15305588 0.15585642
00000000: bdf3 313f f8e7 5a3d d460 2fbe 8490 493e
00000010: 3854 263d 64c9 07bf 0bd6 66be 6447 3dbe
00000020: 5944 753f 76bb df3d 12b0 04bf 04fd a83c
00000030: 20ca 583c 4d00 083e c8f2 0abe b197 553f
00000040: ceac 7d3e 8323 f93d 1708 7abe fff6 5d3f
00000050: 27dc 233d 8702 e3bd f3c1 8f3e ea7a babe
00000060: d2f6 e2bd 53b8 563e e71e e8bc 16d2 39be
00000070: 5663 f5bd 5950 013e 869d 8f3e a639 b1be
00000080: 94f5 4f3e e76a c83e 4f1f b5bd 4c69 383e
00000090: bd80 c9bc f6bf b2bd c275 d1bd 188f e4bd
000000a0: 3d0b 013f 5ec5 aebe a3ce 1f3f c4a8 283c
000000b0: 33b3 1d39 5776 903c 13f0 08be bc2d a7be
000000c0: 3f8c 9cbd 6985 333e 2d99 a5bc 279c c43d
000000d0: bdf6 0dbe 22a8 0bbe dcf7 7bbe b1b7 49bf
000000e0: 375b eabd 89d7 17bf 35e0 be3d e0e8 183d
000000f0: 4077 6cbf cc71 9a3d 2efe 323f 4cd0 a5bf
00000100: f1ac 88bd 56e5 bb3c 29e8 45bd b79d ecbe
00000110: 40ef cc3c e092 e1be 9929 963d bef8 c83c
00000120: c5cf a93d 6129 8e3e 39c1 debd a1aa 583e
00000130: 73df f1bb bef0 9cbe 401f 6abe 6d87 00be
00000140: 9bae ecbe 4b87 be3e 1bb0 14be f951 9ebe
00000150: 0e25 493e 0ae9 913e 435a 06bc 0e96 7a3c
00000160: b4a0 47bd 0000 133e 690a f7be 733e 10be
00000170: 3d5a 463e e410 a3bf 0ce6 59bd d988 05bf
00000180: fe60 8bbd 23ed 99bf efe1 143e 12b4 b8be
00000190: d245 5e3c 5e78 08bf b13b 0ebf 8c97 b6bd
000001a0: 4fcb 07bf c8fd d63e 2485 5e3e 809f 50be
000001b0: c9cc 13bf 02dd b53d 78ef 2ebe 150c a03e
000001c0: d2f3 01be a49f f73e 46e9 d0bc 878d ddba
000001d0: d222 b63e f900 03be 3646 25bd 5f6f cb3e
000001e0: e015 343e 040b 7dbf 3788 373d 8b02 523d
000001f0: 4ba7 3fbc b369 01bf ad29 1f3f 4de6 b5bd
00000200: b4ba 513e 5605 fabd fe76 203e 71e8 9cbe
00000210: 7df4 0f3e 9404 b9bf 6635 ef3e decc 24be
00000220: bc1f 9d3e 64ee 823c 37f9 bcbe 4649 68be
00000230: 0c04 2e3e a0e8 0a3e 9fc4 953e cc9f 083e
00000240: 2f0a ebbd df39 333f 0050 cd3e dd28 f0bb
00000250: f780 953d 719a 7a3e d7bc 813f f88b f8be
00000260: bd93 c73e b793 a2be d72f c33e 48e4 65bf
00000270: 9d26 e83d 51f0 8c3e 58d1 dd3e 1cac 7dbc
00000280: 04d0 993f 6ac6 c63d 367b 1fbd dfdd fb3d
00000290: 89bb c4be c6bf a83e 8e40 283c 53e0 b0bd
000002a0: a35a cebd 8f08 c23d d0f2 f2be ed07 b13e
000002b0: c18e 6b3d 7fcf cebe 7351 933d 9a3b 8c3f
000002c0: 7e6d 2abe ebc7 123d 1204 7b3c 5a73 4bbe
000002d0: d733 f73c 5d6e b83e 31a7 453e d758 45bf
000002e0: af06 073d a987 673e 81b8 12bf 7286 9c3e
000002f0: 6980 71bf f537 963e 6615 adbc 074b 15bf
00000300: abce bfbe 6987 043e 6acd 543e 9ed9 953d
00000310: 39d1 92bf c575 08be ac3b d0be cf67 9e3e
00000320: 88ec 503f 341f e9be 0dff 37be dd45 5a3e
00000330: 7be3 eb3e 2570 0a3e 366c 643f 9dac fd3e
00000340: 56d4 2e3e cdcd 813e 81f1 403e f614 85bd
00000350: bb15 2d3e 772d 4c3f cf11 4cbd 869b 7d3f
00000360: 1a47 7abf 263f 39bd 7f26 75be a1d2 e9bd
00000370: f62e 8fbd a471 883d be77 4cbe 886d 903e
00000380: 2cb6 933e 9d2c 3b3e 575d 28be 4e92 363e
00000390: 088e 663e 0c4c 4ebd c80b d7bd 1203 55bf
000003a0: 8254 78be 7ea5 963d 5d41 cfbc 36fe 293e
000003b0: 7a8f 93bd 1b67 a2bf 6625 d0be d1aa 843e
000003c0: c85a 84bd 7e86 0cbf c578 86be f046 143f
000003d0: ea1f 8cbe 8f06 953d 4fc7 fcbd 3000 48bf
000003e0: 3947 4cbd 7d3b b6be cbc8 463d a0bd 533f
000003f0: 2bfd 723f 48ac 41bf aeba 1c3e d398 1f3e

fc2.bias f4 [128]
-0.057735924 -0.031435374 0.23373006 0.004174436 -0.09640934 -0.094528385 -0.59997714 -0.041163933
-0.15677504 0.005049957 -0.06263894 -0.056387316 -0.0198603 0.10593088 0.17108694 -0.016394025
-0.028952371 -0.032757774 0.11090847 0.0402821 0.015805349 -0.04064006 -0.05684751 -0.030909015
0.034301836 0.0027242147 -0.058221042 -0.024486382 -0.06350146 0.15410331 -0.025304193 0.023349328
0.33264887 -0.027795976 0.29307276 -0.06584826 0.22394857 -0.053967033 0.028474625 -0.09835571
-0.2011669 -0.025917428 -0.19176573 -0.058844376 -0.07657549 0.068554096 -0.015826646 -0.071860775
-0.22817652 -0.0014617487 -0.12668495 -0.019697834 -0.075907715 0.16078407 0.0071529276 0.10491773
-0.07532209 -0.012743394 -0.049703542 0.13679744 0.04040344 0.027112367 -0.0485492 -0.0197469
0.25397027 -0.27621284 -0.02216767 -0.2097915 0.2087727 -0.41305467 -0.014731002 0.013634248
0.018037522 0.16060007 -0.09752833 0.0015367877 -0.0072212303 -0.014490358 -0.07166807 -0.09456929
0.0061651757 -0.042620562 -0.06449222 -0.15687896 0.15729104 0.12765704 -0.12074687 0.029440166
0.0844698 0.017570587 -0.026646957 -0.042924743 -0.12177665 -0.033849034 -0.07462711 -0.07012412
-0.27194217 0.016968725 0.0011265278 0.100279935 -0.087965466 -0.011208562 -0.17595829 0.27268812
0.019448785 -0.016745528 -0.0022240577 -0.022140112 0.29850686 0.010670294 -0.038622838 -0.050260648
-0.3554878 -0.15760678 -0.062355105 -0.5155742 0.027376233 0.27248186 0.0043590283 -0.050415117
-0.049104482 0.23685202 0.4230748 -0.13319387 0.010852443 0.001051195 -0.025245965 -0.54725266
00000000: 817c 6cbd 61c2 00bd ef56 6f3e b5c9 883b
00000010: 4372 c5bd 1998 c1bd 1a98 19bf 839b 28bd
00000020: a389 20be 1c7a a53b d848 80bd 63f6 66bd
00000030: 11b2 a2bc 4af2 d83d 6a31 2f3e c34c 86bc
00000040: 862d edbc 042d 06bd fb23 e33d d8fe 243d
00000050: 387a 813c 3176 26bd efd8 68bd e734 fdbc
00000060: 1580 0c3d bd88 323b 3079 6ebd aa97 c8bc
00000070: 0e0d 82bd 42cd 1d3e bd4a cfbc 1747 bf3c
00000080: f450 aa3e 63b4 e3bc a20d 963e 74db 86bd
00000090: c652 653e 890c 5dbd 9e43 e93c b86e c9bd
000000a0: b2fe 4dbe c950 d4bc 3c5e 44be cd06 71bd
000000b0: 9cd3 9cbd 1766 8c3d e2a6 81bc be2b 93bd
000000c0: 1ba7 69be 2698 bfba b3b9 01be 5a5d a1bc
000000d0: 8175 9bbd 94a4 243e 1b63 ea3b 1bdf d63d
000000e0: 7842 9abd abc9 50bc f195 4bbd a114 0c3e
000000f0: 147e 253d c11a de3c 87db 46bd 40c4 a1bc
00000100: 6408 823e c56b 8dbe f998 b5bc 95d3 56be
00000110: 83c8 553e e77b d3be 4d5a 71bc 2e62 5f3c
00000120: 6dc3 933c 5874 243e efbc c7bd 0a6e c93a
00000130: 12a0 ecbb f768 6dbc b6c6 92bd 8bad c1bd
00000140: 3e05 ca3b e692 2ebd 7f14 84bd e1a4 20be
00000150: e710 213e 87b8 023e 234a f7bd 812c f13c
00000160: 81fe ac3d 31f0 8f3c b84a dabc dbd1 2fbd
00000170: 0966 f9bd 49a5 0abd 19d6 98bd 3c9d 8fbd
00000180: 013c 8bbe ff01 8b3c 00a8 933a 915f cd3d
00000190: 3d27 b4bd 1ea4 37bc 692e 34be c79d 8b3e
000001a0: 0f53 9f3c eb2d 89bc 7fc1 11bb 2e5f b5bc
000001b0: e4d5 983e 75d2 2e3c fb32 1ebd 1cde 4dbd
000001c0: 7f02 b6be ac63 21be 1168 7fbd acfc 03bf
000001d0: 1f44 e03c be82 8b3e 2ed6 8e3b 1580 4ebd
000001e0: c821 49bd 5689 723e 439d d83e f963 08be
000001f0: 72ce 313c 40c8 893a a0d0 cebc c018 0cbf
