results/models/independent_dqn_heavy_ep400.pth (torch, 581220 bytes, 24 tensors)

fc1.weight f4 [256, 8]
0	0xbd44e779	-0.048072312
1	0xbf15ea4b	-0.5856063
2	0xbe5dd375	-0.21662696
3	0xbe10d036	-0.14141926
4	0x3f197eb1	0.5995894
5	0x3ea27cfe	0.31735986
6	0x3de94489	0.11390025
7	0xbf6cfa19	-0.9256912
8	0x3d44976c	0.04799597
9	0xbde65781	-0.11247159
10	0x3e282e9c	0.1642403
11	0xbdbb12c5	-0.091344394
12	0xbf756f75	-0.95873195
13	0x3e772613	0.24135618
14	0x3e8bf375	0.2733418
15	0x3da54b56	0.0807101
16	0x3ead5692	0.3385511
17	0xbec7e296	-0.3904006
18	0x3e02ab8b	0.12760751
19	0xbe652a43	-0.22379403
20	0xbf5c8388	-0.861382
21	0xbf358fb6	-0.7092241
22	0xbdca63df	-0.0988233
23	0xbf4962df	-0.7866649
24	0xbe78d1db	-0.24298804
25	0x3e18b4e1	0.1491275
26	0x3e86af74	0.26305735
27	0xbedca1cc	-0.4309219
28	0xbdf91659	-0.121624656
29	0x3e45c1e5	0.19312246
30	0x3eb6261f	0.3557596
31	0xbd6c3c12	-0.057674475
32	0xbec9e2c3	-0.39430818
33	0x3c7beab7	0.015375785
34	0x3d9860e5	0.07440356
35	0x3e71e738	0.23623359
36	0x3e833bb0	0.25631475
37	0x3f3d4dd1	0.73946863
38	0x3f2fed1a	0.68721163
39	0x3e8edc41	0.27902415
40	0xbe4713d1	-0.19441153
41	0xbe574ab2	-0.21024588
42	0xbe7fadee	-0.24968693
43	0x3ed36935	0.41291204
44	0x3e0dd628	0.13851225
45	0x3bd75e8d	0.0065725506
46	0xbf3ab55d	-0.7293299
47	0x3f2b99c7	0.6703152
48	0x3e2f2b8e	0.17106459
49	0x3eb3ed4f	0.3514199
50	0xbf0be849	-0.54651314
51	0x3e8c30ad	0.27380887
52	0x3eafa908	0.34308648
53	0x3d586984	0.052835003
54	0xbf57790d	-0.84169084
55	0xbbbf213d	-0.0058328197
56	0xbe63bf73	-0.22241001
57	0x3f29f72a	0.6639277
58	0x3e2e0813	0.16995268
59	0xbdf24449	-0.118294306
60	0xbc82819c	-0.015930943
61	0x3eef1448	0.4669516
62	0xbeb470df	-0.35242364
63	0xbebd3eaa	-0.3696187
64	0xbd7388a1	-0.05945647
65	0xbd353d06	-0.04424765
66	0x3e06bd1b	0.13158076
67	0x3f8c0bf7	1.0941151
68	0x3f197ac1	0.5995293
69	0x3e078d5f	0.13237523
70	0xbd80aed8	-0.06283349
71	0xbdb660a2	-0.0890515
72	0xbeaaf49b	-0.33389744
73	0xbe7113eb	-0.23542754
74	0xbf162daa	-0.5866343
75	0xbe958ebe	-0.29210466
76	0x3f440114	0.76564145
77	0x3e9b2f2e	0.30309433
78	0x3e2ff581	0.17183496
79	0x3e075af2	0.13218287
80	0xbe33311d	-0.17499204
81	0xbfa0ff29	-1.2577869
82	0xbd99a89f	-0.07502865
83	0xbed45356	-0.4146983
84	0xbe98d6e2	-0.29851443
85	0xbd4449a9	-0.04792181
86	0xbd4a62a7	-0.04941049
87	0x3edb7e12	0.42869622
88	0x3ecd5626	0.4010479
89	0xbf285f98	-0.65770864
90	0x3db8426f	0.08997046
91	0xbe81bfe7	-0.25341722
92	0xbf0d1907	-0.55116314
93	0xbe653544	-0.223836
94	0x3e57b851	0.21066405
95	0x3e4bc09b	0.19897692
96	0xbe498cee	-0.19682667
97	0xbeebe439	-0.46072558
98	0x3d328772	0.043586202
99	0xbe16a295	-0.14710458
100	0x3e394e00	0.18096161
101	0xbe840b54	-0.25789893
102	0x3d8e3ef4	0.06945601
103	0x3f0e356e	0.5555028
104	0xbef55d26	-0.4792263
105	0xbf1bc112	-0.60841477
106	0x3d857b85	0.065177
107	0xbe9d1a45	-0.30684105
108	0x3efe5352	0.49672943
109	0x3e377b06	0.17918023
110	0x3edfb2c5	0.43691078
111	0x3d9c9282	0.07645132
112	0xbef28df6	-0.47373933
113	0x3e7179eb	0.23581664
114	0x3da32960	0.07966876
115	0x3e638d20	0.22221804
116	0x3f29dd6b	0.6635348
117	0x3d527686	0.051382564
118	0xbe8ba514	-0.27274382
119	0x3e06e660	0.13173819
120	0xbf3f1045	-0.746342
121	0x3d0f0a6d	0.034922052
122	0xbf0b71af	-0.5447034
123	0xbe040744	-0.12893397
124	0xbf1da5c5	-0.6158107
125	0x3f4da289	0.80326134
126	0x3dac04ce	0.08399354
127	0xbee00973	-0.4375721
128	0x3e39811f	0.18115662
129	0x3d95523d	0.07291076
130	0xbef65461	-0.4811125
131	0x3e1056cd	0.14095612
132	0xbf081113	-0.53151053
133	0xbf70d83b	-0.9407994
134	0x3ed32a6d	0.41243306
135	0xbe863e2d	-0.2621931
136	0x3dadbc0b	0.08483132
137	0xbf1dbf25	-0.6161979
138	0xbe2b51d9	-0.16730441
139	0xbf1c8e11	-0.61154276
140	0x3e60fc9b	0.21971361
141	0x3e026a1e	0.12735793
142	0x3ddf2d12	0.10897268
143	0x3d5af2a2	0.05345405
144	0x3e8a641e	0.27029508
145	0xbf13b577	-0.5769877
146	0xbcb1a527	-0.021685196
147	0xbead7a29	-0.33882263
148	0x3d9927db	0.07478305
149	0xbe1f0cd1	-0.15532233
150	0xbd6097e4	-0.054832354
151	0x3ed6fdba	0.41990453
152	0xbc936752	-0.017993603
153	0xc012a9a4	-2.291604
154	0xbdbefdbc	-0.0932574
155	0x39a22881	0.00030929226
156	0x3f18e82f	0.59729284
157	0xbc91fa24	-0.017819472
158	0x3e86931e	0.26284117
159	0x3dd3f683	0.10349753
160	0xbf03a5eb	-0.51425046
161	0xbef1d5f6	-0.47233552
162	0xbee8cd36	-0.45469064
163	0xbd8cbad4	-0.06871572
164	0xbe238a05	-0.15970619
165	0x3e8a2309	0.26979855
166	0x3f662d8e	0.8991326
167	0x3e875a40	0.26436043
168	0xbdef1b10	-0.11675084
169	0xbf48c3a5	-0.7842353
170	0xbe754da3	-0.23955397
171	0xbedf1ac8	-0.4357512
172	0xbd8916f9	-0.06693835
173	0xbe301477	-0.17195307
174	0x3ea03321	0.31289008
175	0x3dabbb30	0.083853126
176	0x3f07da96	0.5306791
177	0x3dbc2d15	0.09188286
178	0x3dc5dfc6	0.09661822
179	0xbecaf1f8	-0.39637733
180	0x3e396132	0.18103483
181	0x3ddb006d	0.106934406
182	0xbd8f4000	-0.06994629
183	0xbdbf3177	-0.093356065
184	0xbe518a7e	-0.20462987
185	0xbf2c4416	-0.6729139
186	0xbe1280af	-0.14306901
187	0xbeca5919	-0.395211
188	0xbd616452	-0.055027314
189	0xbe034789	-0.12820257
190	0xbf3ff158	-0.74977636
191	0xbf522520	-0.820879
192	0x3e336428	0.17518675
193	0x3ef8f5a0	0.48624897
194	0xbe5fe343	-0.21864037
195	0xbe00e474	-0.12587148
196	0xbeb71cd0	-0.3576417
197	0xbe4f74c0	-0.2025938
198	0xbecef5c8	-0.4042189
199	0x3eb260ce	0.3483948
200	0x3ef54abc	0.4790858
201	0xbe60d84a	-0.21957508
202	0x3f182f04	0.5944674
203	0x3e4a9442	0.19783118
204	0xbe71038c	-0.2353651
205	0xbf0fac69	-0.5612245
206	0x3f1244e4	0.5713637
207	0xbed127a2	-0.4085055
208	0xbe7021f0	-0.23450446
209	0xbef9da77	-0.48799488
210	0x3cf77bd2	0.03021041
211	0xbeadd324	-0.3395015
212	0x3e8d79ca	0.2763198
213	0xbe920ef7	-0.28527042
214	0x3ec340a8	0.38135266
215	0x3f0309ea	0.51187
216	0xbcd3aee0	-0.025840223
217	0xbf0e98b9	-0.55701786
218	0xbd8bd1cd	-0.06827126
219	0xbece9277	-0.4034612
220	0x3b64ea26	0.0034929602
221	0xbe0ec008	-0.13940442
222	0x3ebbb95f	0.36664864
223	0x3dab6eeb	0.08370765
224	0x3ed18644	0.4092275
225	0xbefe4c9c	-0.49667823
226	0x3db2cea6	0.08730821
227	0xbf01caf0	-0.50700283
228	0xbec06a0c	-0.37580907
229	0x3cacda40	0.021100163
230	0xbde9617b	-0.11395546
231	0x3ed800e0	0.42188168
232	0x3dc77475	0.09739009
233	0x3e187a79	0.1489047
234	0x3d2a2f98	0.041549295
235	0x3e5dce18	0.2166065
236	0xbe8c30ec	-0.27381074
237	0xbf7fb09f	-0.9987888
238	0xbc78790e	-0.01516558
239	0x3f03f0ef	0.5153951
240	0x3d228a4d	0.039682675
241	0xbf1a9eca	-0.6039854
242	0xbe844601	-0.2583466
243	0x3f8c22f8	1.0948172
244	0x3f1ce2e3	0.612837
245	0x3e19d322	0.15021947
246	0x3eede821	0.46466163
247	0xbe9347cf	-0.28765723
248	0x3e6e4ec1	0.2327223
249	0xbf599a8d	-0.8500145
250	0xbeca9204	-0.39564526
251	0xbf12302c	-0.57104754
252	0xbebd50f2	-0.3697582
253	0x3d718204	0.058961883
254	0x3eff7bcb	0.49899134
255	0xbef4ba7b	-0.47798523

fc1.bias f4 [256]
0	0x3e48fb6d	0.19627161
1	0x3ece5209	0.40296963
2	0xbeb0bcd6	-0.3451907
3	0x3df0fb0c	0.117666334
4	0xbd2695a2	-0.040670045
5	0x3e195fde	0.14977977
6	0x3edb34a2	0.42813593
7	0x3e900abf	0.281332
8	0xbe00a093	-0.12561254
9	0xbd876e7d	-0.06612871
10	0xbeb668a8	-0.3562672
11	0x3e463369	0.19355549
12	0x3ebc7ba5	0.36813083
13	0x3e3c5f80	0.18395805
14	0x3ece7b11	0.40328267
15	0xbf14b6d5	-0.5809148
16	0xbe6d948a	-0.23201194
17	0xbda4030c	-0.08008394
18	0x3e8be45b	0.2732266
19	0xbe6b719e	-0.2299256
20	0xbe729827	-0.23690854
21	0x3ef33065	0.4749786
22	0x3eb7d903	0.35907754
23	0x3e7cb3c4	0.2467795
24	0x3dc5f9bc	0.09666774
25	0xbe60c34e	-0.21949503
26	0x3e3c10b0	0.18365741
27	0x3e6560cd	0.22400208
28	0xbe5d6c52	-0.21623352
29	0x3de0f53b	0.10984274
30	0xbe08674e	-0.13320658
31	0xbd75c21e	-0.059999578
32	0xbd48b4a7	-0.04900041
33	0x3e2c2889	0.16812338
34	0x3cafbd5c	0.021452598
35	0xbdea8813	-0.11451735
36	0x3da51bae	0.0806192
37	0xbd9c972d	-0.07646022
38	0x3ef2c3f9	0.4741514
39	0x3e6713b6	0.22566113
40	0xbe524525	-0.20534189
41	0x3c81353a	0.01577245
42	0xbe83de83	-0.257557
43	0x3e824212	0.25441033
44	0x3ecbfdb6	0.39842004
45	0x3deaf344	0.114721805
46	0xbec0a82f	-0.37628314
47	0x3e681f89	0.2266828
48	0xbe1634bb	-0.14668553
49	0x3e23e0cc	0.16003722
50	0x3f10d2b2	0.56571496
51	0xbdf0d70f	-0.11759769
52	0x3ebc7ea9	0.36815384
53	0xbd8a84c3	-0.067636035
54	0xbe0a3152	-0.13495377
55	0x3ea3c676	0.3198735
56	0xbcd2ac59	-0.025716947
57	0xbed9aab1	-0.4251304
58	0x3d301f52	0.04299862
59	0x3da9644b	0.082710825
60	0xbe080449	-0.13282885
61	0x3e0ee3eb	0.13954131
62	0x3ea0ce3a	0.31407338
63	0xbe054137	-0.13013159
64	0x3cd3896d	0.025822366
65	0x3ebf7baa	0.37399036
66	0x3dd2bba2	0.10289694
67	0xbf1c8c3a	-0.6115147
68	0xbd836cb6	-0.06417219
69	0xbe77c3fa	-0.24195853
70	0x3e9aebb9	0.30257967
71	0xbcc21cb0	-0.02369532
72	0x3e23e308	0.16004574
73	0x3e73cc60	0.23808432
74	0x3e76a6af	0.24087022
75	0x3cb8c596	0.022555154
76	0xbe1ba5ee	-0.15200016
77	0xbe2e8fdc	-0.17047065
78	0xbe519efc	-0.20470804
79	0xbc6ff60f	-0.014646067
80	0x3deb03da	0.11475344
81	0xbe293ae7	-0.16526376
82	0xbe1a7794	-0.15084678
83	0xbe9ac5ed	-0.3022913
84	0xbf1a0afb	-0.60173005
85	0xbbe1a976	-0.0068866564
86	0x3effc618	0.4995582
87	0x3e94089f	0.28912827
88	0x3e76d5a7	0.2410494
89	0x3ed71174	0.42005503
90	0xbed911b5	-0.42396322
91	0xbb12ad59	-0.0022381155
92	0xbd79203a	-0.06082175
93	0x3b177957	0.0023113096
94	0x3e668743	0.22512536
95	0x3e77e45f	0.2420821
96	0x3e770d88	0.24126256
97	0xbedbbcdb	-0.42917523
98	0x3da65350	0.08121359
99	0x3e773c96	0.24144205
100	0x3e084f93	0.13311605
101	0xbf207019	-0.6267105
102	0xbe0ecbc1	-0.13944913
103	0x3d969ea2	0.073544756
104	0xbba76bb5	-0.005109275
105	0x3e98dd40	0.298563
106	0x3ec0db58	0.37667346
107	0x3e7a1689	0.24422659
108	0x3ed4edcc	0.41587675
109	0x3d872445	0.06598715
110	0x3e9515c7	0.29118177
111	0x3ee01fb9	0.43774202
112	0x3e600a61	0.21878959
113	0xbea48412	-0.32132012
114	0xbdd450cf	-0.103669755
115	0x3d243476	0.040089093
116	0x3d26014f	0.04052859
117	0x3e724911	0.23660685
118	0x3e7bb05d	0.24578996
119	0xbf09ae48	-0.5378156
120	0x3ddb5a0f	0.10710537
121	0xbd37a30f	-0.04483324
122	0x3de5a827	0.11213713
123	0x3ed674a5	0.41885868
124	0x3de0089d	0.10939143
125	0xbea2f088	-0.31824136
126	0xbd99268f	-0.074780576
127	0x3db3ac7f	0.087731354
128	0x3e56a797	0.20962368
129	0x3e19bf9e	0.15014502
130	0x3e93fcdb	0.2890385
131	0xbc2a455f	-0.010392516
132	0xbdb2d359	-0.087317176
133	0x3b382559	0.0028098433
134	0x3e04a3fe	0.12953183
135	0xbe8b63c9	-0.27224568
136	0xbe88e639	-0.26738146
137	0xbea6786a	-0.32513744
138	0x3f001b17	0.50041336
139	0x3eb57055	0.35437265
140	0xb80abd20	-3.30779e-05
141	0xbd2eed5b	-0.04270683
142	0x3ef716bf	0.4825954
143	0x3ea17967	0.31537935
144	0x3f23961c	0.63900924
145	0x3df237cd	0.118270494
146	0x3d8d9f97	0.06915205
147	0x3e63fa87	0.22263537
148	0xbe11970d	-0.14217778
149	0x3d151bdc	0.036403522
150	0xbeb25363	-0.34829244
151	0xbe8bfabe	-0.2733974
152	0x3e35e43f	0.1776285
153	0xbe5588e4	-0.20853001
154	0xbd761826	-0.060081623
155	0xbea8f4fc	-0.32999408
156	0x3e701a5b	0.23447554
157	0xbc204b4d	-0.009783578
158	0x3c80f3f9	0.015741335
159	0x3e8c3708	0.27385736
160	0xbe4eacad	-0.20183058
161	0x3da669bf	0.08125638
162	0x3e640954	0.22269183
163	0x3ed12100	0.4084549
164	0x3e2d8d63	0.16948466
165	0x3d8f57c4	0.06999162
166	0x3d2c4a3a	0.042062975
167	0x3edaa845	0.42706504
168	0x3d43ca29	0.047800217
169	0x3ea99969	0.33124855
170	0xbed9b518	-0.42520976
171	0xbe134585	-0.14381988
172	0x3dda2062	0.10650708
173	0x3d8ffaea	0.0703028
174	0x3ee24abf	0.44197652
175	0xbe018e4a	-0.12651935
176	0x3e0bfe7c	0.13671297
177	0x3e9bd5c8	0.3043654
178	0x3e83216b	0.25611433
179	0x3e21a5d6	0.15785918
180	0xbd7a4246	-0.06109836
181	0xbd726627	-0.05917945
182	0x3e1b935f	0.15192936
183	0x3e4b3cd0	0.19847417
184	0x3ee30af8	0.44344306
185	0xbe99b8c7	-0.30023786
186	0xbe26c673	-0.1628664
187	0xbe26eb55	-0.1630071
188	0xbea507d8	-0.32232547
189	0x3e8abb4b	0.27096018
190	0xbd89fb29	-0.06737358
191	0x3decf483	0.115700744
192	0xbdc605d1	-0.09669078
193	0x3e915bbd	0.28390303
194	0x3d88c8d1	0.06678928
195	0xbca807d4	-0.020511545
196	0xbefd68a6	-0.49493903
197	0x3e033850	0.1281445
198	0x3c85c3da	0.01632874
199	0x3e4b9668	0.19881594
200	0xbdfed6a6	-0.12443285
201	0xbdb0f579	-0.0864057
202	0x3ec49fd5	0.38403192
203	0x3d242a77	0.04007956
204	0x3e4b4264	0.19849545
205	0x3e320bc0	0.17387295
206	0x3ed887bc	0.42291057
207	0xbbca170b	-0.0061672977
208	0x3e0288ba	0.1274747
209	0x3924ca2f	0.00015715578
210	0x3db367c5	0.08760027
211	0x3e766b91	0.24064471
212	0xbe0a4b02	-0.13505176
213	0xbe21b2ee	-0.15790913
214	0xbe85c12b	-0.26123938
215	0x3dc01791	0.09379495
216	0xbea4b1c4	-0.32166874
217	0x3eaea3a4	0.34109223
218	0x3e50378e	0.20333692
219	0xbf137758	-0.5760398
220	0x3e0cb360	0.13740301
221	0x3e8f040c	0.27932775
222	0x3d7e4361	0.062075976
223	0xbe8c48d1	-0.27399305
224	0xbde7f83e	-0.11326645
225	0x3e11aaf6	0.14225373
226	0x3d982aa0	0.07430005
227	0x3eb2edcf	0.3494706
228	0x3d055b22	0.032557614
229	0x3e9c60d4	0.30542624
230	0x3e4d84e8	0.20070231
231	0xbe11b67e	-0.14229771
232	0x3e191ba1	0.14951946
233	0xbde77ab5	-0.113027014
234	0xbe8426c2	-0.2581082
235	0xbe70f7b4	-0.23531991
236	0xbd613841	-0.05498529
237	0x3d0251d3	0.031816315
238	0x3c66f87b	0.014097328
239	0xbe47a7bf	-0.19497584
240	0x3e7c783b	0.2465524
241	0xbe81e74c	-0.25371778
242	0xbdd9de26	-0.106380746
243	0x3f12d16e	0.57350814
244	0xbdb86159	-0.090029426
245	0x3e999c22	0.30001932
246	0x3ed561a1	0.41676047
247	0xbee197f2	-0.44061238
248	0xbceb859f	-0.028750239
249	0xbbc9a4bd	-0.0061536715
250	0x3c9e97d2	0.019359503
251	0xbe70ab69	-0.23502888
252	0xbe5de8c4	-0.21670824
253	0xbe802b91	-0.2503324
254	0x3eb184a8	0.3467152
255	0x3ea8d4ef	0.32974955

fc2.weight f4 [128, 256]
0	0x3f5d8330	0.865283
1	0x3e473c3b	0.1945657
2	0xbd9ae4d0	-0.07563174
3	0x3db85b6e	0.09001814
4	0x3e06b31b	0.13154261
5	0xbe70b2ec	-0.23505753
6	0xbe30e639	-0.17275323
7	0xbd8db5e4	-0.069194585
8	0x3ebddb4e	0.3708138
9	0x3d9a0953	0.0752131
10	0xbea89c60	-0.32931805
11	0x3da4623f	0.080265515
12	0x3db13308	0.086523116
13	0x3e473b3a	0.19456187
14	0x3ae5bae0	0.0017527007
15	0x3eb98638	0.36235213
16	0x3ebbd46f	0.3668551
17	0x3e984642	0.29741102
18	0x39a63825	0.00031703818
19	0x3e1ea6ae	0.15493271
20	0x3de3e0a6	0.11126833
21	0x382d620a	4.133772e-05
22	0x3d73311d	0.05937301
23	0x3d90eabd	0.07076023
24	0xbb82f463	-0.0039964183
25	0xbd70f7fc	-0.058830246
26	0x3e2e4324	0.170178
27	0x3d5f9bfc	0.054592118
28	0x3c506cd1	0.012721256
29	0x3e495de1	0.19664718
30	0x3f04f62d	0.51938134
31	0xbea9991c	-0.33124626
32	0x3db8b808	0.09019476
33	0x3eaeda0b	0.3415073
34	0xbe1f2654	-0.15541965
35	0x3e493533	0.196492
36	0x3e2d1ef3	0.16906337
37	0xbe580cf1	-0.21098687
38	0x3d6e9705	0.058249492
39	0x3c585308	0.01320339
40	0xbd3243ca	-0.04352168
41	0xbe676909	-0.22598661
42	0x3eaa571d	0.33269587
43	0x3e0bfbad	0.13670225
44	0x3e21cb4b	0.15800206
45	0x3d847445	0.06467489
46	0xbe2923af	-0.16517518
47	0x3d9743e4	0.07385996
48	0xbe242416	-0.1602939
49	0x3e0fa070	0.14026046
50	0x3e87e277	0.26539966
51	0x3dcf03d6	0.101081535
52	0xbe47a375	-0.19495948
53	0x3e3d2267	0.18470155
54	0xbe7f0613	-0.24904661
55	0xbf1f6782	-0.62267315
56	0x3e5882dd	0.2114367
57	0xbe9c7e34	-0.30565035
58	0x3dcf0e83	0.1011019
59	0xbd2a2eff	-0.041548725
60	0xbe571623	-0.21004538
61	0x3e21bd2d	0.15794821
62	0x3ec85fe6	0.39135665
63	0xbfbbf223	-1.4683269
64	0x3e2fa72b	0.17153613
65	0x3da6e037	0.08148234
66	0x3d9aa495	0.07550923
67	0xbe9aab78	-0.30208945
68	0x3e1e9914	0.15488082
69	0xbebf030f	-0.3730702
70	0x3e59e673	0.21279316
71	0x3d9c8f94	0.07644573
72	0x3e53701a	0.20648232
73	0x3e0aad96	0.1354278
74	0x3dd7744b	0.10520228
75	0x3ed8250c	0.42215765
76	0xbe56ca8e	-0.20975706
77	0xbe3ceb36	-0.18449101
78	0x3dd45dc7	0.10369449
79	0xbd4771db	-0.048692565
80	0x3d2a99e1	0.041650657
81	0x3e93287b	0.28741822
82	0xbe4c472f	-0.1994903
83	0xbec0d031	-0.37658837
84	0xbcb64e8c	-0.022254251
85	0x3ee68b81	0.45028308
86	0x397de0f2	0.00024211759
87	0x3da600c6	0.08105616
88	0x3d573e53	0.05254967
89	0x3e329881	0.17440988
90	0xbed55bba	-0.41671544
91	0xbd599e3b	-0.053129416
92	0x3ea766f9	0.3269575
93	0xbf5c80b7	-0.86133903
94	0x3e0001d1	0.12500693
95	0xbec809e2	-0.3907004
96	0x3e3e0849	0.18557848
97	0xbee02ace	-0.43782657
98	0x3e072ea2	0.13201383
99	0x3dd4a676	0.103833124
100	0x3e9ac2a3	0.3022662
101	0xbea6239d	-0.32449046
102	0xbf65c807	-0.8975834
103	0x3e48ead0	0.19620824
104	0xbe0e2fc6	-0.13885412
105	0x3effb8be	0.49945635
106	0x3e3e8c38	0.18608177
107	0x3c82bbdc	0.015958719
108	0xbc61231a	-0.013741279
109	0x3ea67a15	0.32515016
110	0xbd97a740	-0.07404947
111	0x3ebc761d	0.36808863
112	0x3de64486	0.112435386
113	0x3da5af32	0.080900565
114	0x3db57178	0.08859533
115	0x3d84d8f5	0.06486694
116	0x3ec2614c	0.37964857
117	0xbcb54b58	-0.022130653
118	0x3c134daa	0.0089906845
119	0xbd8403de	-0.0644605
120	0x3d9c70bb	0.07638689
121	0xbf9f1736	-1.2428958
122	0x3db5be80	0.088742256
123	0x3d018598	0.031621546
124	0xbc167230	-0.009182498
125	0xbe21de6e	-0.15807506
126	0x3df79cce	0.12090455
127	0xbdcfc703	-0.1014538
128	0x3e212dcb	0.15740125
129	0xbebd8baa	-0.37020618
130	0x3ed0751b	0.40714344
131	0xbe0e8ae7	-0.13920175
132	0xbc91d752	-0.017802868
133	0xbf62e761	-0.88634306
134	0x3c15bea9	0.009139695
135	0xbe8396e0	-0.25701046
136	0x3dd9f620	0.10642648
137	0x3c82ee64	0.015982814
138	0xbe9f473f	-0.31109044
139	0xbd1f89e3	-0.03894986
140	0x3e8fef2b	0.28112158
141	0x3e1ba51e	0.15199706
142	0x3eac1b38	0.33614516
143	0x3d9a7d38	0.07543415
144	0x3e29d67a	0.16585723
145	0x3d555d86	0.052091144
146	0x3d207ff2	0.03918452
147	0x3e565eb0	0.20934558
148	0x3e2e2e46	0.1700984
149	0x3ec6eb26	0.3885128
150	0x3e6453a6	0.22297534
151	0xbe3155b4	-0.1731785
152	0x3ea68494	0.32523024
153	0xbeda29c4	-0.4260999
154	0x3cb47f37	0.022033317
155	0xbeb70648	-0.3574698
156	0x3e4e05bb	0.20119374
157	0x3e9d9545	0.30777946
158	0x3f082deb	0.53195065
159	0x3e21b375	0.15791114
160	0x3e9fcbb9	0.31210116
161	0x3e178006	0.14794931
162	0x3bd69a24	0.0065491367
163	0x3d3b9be0	0.04580295
164	0xbb70f3ef	-0.003676649
165	0x3ec25aef	0.37960002
166	0x3e41ec4c	0.18937796
167	0xbd258eee	-0.04041951
168	0xbcfef39d	-0.031122023
169	0x3e428a71	0.18998124
170	0xbf1eff6f	-0.6210851
171	0x3ec79e9f	0.38988206
172	0x3d87905a	0.0661933
173	0x3d9b60e3	0.07586839
174	0x3dc79a54	0.09746233
175	0x3e231104	0.1592446
176	0x3e36e281	0.17859842
177	0x3deb5a96	0.11491887
178	0x3dfcce2c	0.12344012
179	0x3d824315	0.06360451
180	0xbea40f06	-0.32042712
181	0x3e560b11	0.20902659
182	0x3ec7261d	0.38896266
183	0xbd1a7fec	-0.037719652
184	0x3eadcba9	0.33944443
185	0x3c87fa13	0.016598737
186	0xbecda4e9	-0.4016488
187	0x3eea4363	0.45754537
188	0xbf8aee92	-1.0854056
189	0x3e78cc44	0.24296671
190	0xbda23ee7	-0.07922154
191	0x3d04f522	0.03246034
192	0xbe90af92	-0.2825895
193	0x3e33ad6e	0.17546627
194	0x3ef71261	0.4825621
195	0x3ec941e2	0.39308077
196	0xbf0529f8	-0.52017164
197	0x3b59506e	0.0033159512
198	0xbe75f511	-0.24019267
199	0x3d99c71a	0.07508679
200	0xbc9516d0	-0.018199354
201	0xbe8aa88b	-0.27081713
202	0xbda22010	-0.07916272
203	0x3d1123f8	0.035434693
204	0x3eec7882	0.4618569
205	0x3e8ab406	0.27090472
206	0x3f4c5b63	0.79826945
207	0xbb8939a5	-0.00418778
208	0x3e7feef3	0.24993496
209	0x3ecfd375	0.40591016
210	0x3e486908	0.19571316
211	0x3e2e9331	0.17048337
212	0x3e97e0ec	0.2966379
213	0x3d1ed7e1	0.038780097
214	0xbdc6c12a	-0.09704812
215	0x3dfd6984	0.12373641
216	0xbf140a99	-0.5782867
217	0x3c790467	0.0151988035
218	0x3cdff968	0.027340606
219	0xbe19fdeb	-0.15038268
220	0x3e47fe51	0.19530608
221	0x3e404517	0.18776356
222	0x3e062d99	0.13103332
223	0x3e0a9aaa	0.13535562
224	0x3de9a8dc	0.114091605
225	0x3e237b54	0.15965015
226	0xbe191624	-0.14949852
227	0x3e5d4024	0.21606499
228	0x3d8a76f0	0.06760967
229	0x3c2b2c2f	0.010447546
230	0xbd8104a7	-0.062997155
231	0xbe436aed	-0.19083758
232	0xbd03e71b	-0.03220282
233	0xbe0f574f	-0.1399815
234	0xbec872a2	-0.39149958
235	0xbc41feac	-0.011840504
236	0x3dd586b5	0.10426084
237	0xbec5b310	-0.38613176
238	0xbeb1d1c4	-0.3473035
239	0x3e47ae78	0.19500148
240	0x3df3b441	0.11899615
241	0xbe1eb310	-0.15497994
242	0xbd16e13f	-0.036835905
243	0x3ea21842	0.31659132
244	0x3e57b0f5	0.21063598
245	0xbc0bd961	-0.008535714
246	0x3db62b12	0.08894934
247	0xbe4fa762	-0.20278695
248	0x3e321666	0.17391357
249	0xbe17430d	-0.14771672
250	0x3d62bb44	0.05535437
251	0x3f653c7a	0.89545405
252	0x3cc1cb1b	0.023656419
253	0xbf7a0a03	-0.97671527
254	0x3d20aa75	0.03922506
255	0x3e326ffc	0.17425531

fc2.bias f4 [128]
0	0x3e03572c	0.12826222
1	0xbd00c261	-0.031435374
2	0x3e99b358	0.3001964
3	0x3e00a68a	0.1256353
4	0x3e347985	0.17624481
5	0xbe04f749	-0.12984957
6	0xbe9a66da	-0.30156595
7	0xbd289b83	-0.041163933
8	0x3b8f6f65	0.004377293
9	0x3cab01a1	0.0208748
10	0x3de1e774	0.11030474
11	0xbd66f663	-0.056387316
12	0x3e0f39f1	0.13986947
13	0x3dae08ae	0.08497749
14	0x3de1ad50	0.11019385
15	0x3e0a45c1	0.13503172
16	0xbced2d86	-0.028952371
17	0xbd062d04	-0.032757774
18	0x3e45c180	0.19312096
19	0x3dbe5c1f	0.092949145
20	0x3e03a978	0.12857616
21	0x3e1414f6	0.14461121
22	0xbd2a3d24	-0.041562214
23	0xbcfd34e7	-0.030909015
24	0x3d0c8015	0.034301836
25	0x3e432d3c	0.19060224
26	0x3c2d007f	0.0105592
27	0xbc52b53e	-0.012860594
28	0x3dd2145e	0.10257791
29	0x3b6dbc29	0.0036275482
30	0x3e11329e	0.14179465
31	0x3cbf4717	0.023349328
32	0x3e6338df	0.22189663
33	0x3dd2f925	0.10301427
34	0x3e9d9807	0.3078005
35	0x3e2f8d3b	0.17143719
36	0x3e97277f	0.2952232
37	0x3db21d97	0.0869705
38	0x3ce9439e	0.028474625
39	0xbe669b1a	-0.22520104
40	0xbe1ec3ec	-0.15504426
41	0xbe8a0d1d	-0.2696313
42	0xbde80f8c	-0.1133109
43	0xbd412024	-0.047149792
44	0xbd9cd39c	-0.07657549
45	0x3e3df799	0.18551482
46	0xbc81a6e2	-0.015826646
47	0xbd932bbe	-0.071860775
48	0xbe27dd47	-0.16393004
49	0x3dad14d9	0.08451242
50	0x3de25cec	0.1105288
51	0x3e024669	0.12722172
52	0xbd9b7581	-0.075907715
53	0x3e8bd884	0.27313626
54	0x3bea631b	0.0071529276
55	0x3e3d8422	0.18507436
56	0xbd9a4278	-0.07532209
57	0x3d9c35a7	0.07627421
58	0x3dfa545d	0.12223122
59	0x3e6d2165	0.2315727
60	0x3e362d84	0.177908
61	0x3d1b37c6	0.037894987
62	0xbd46db87	-0.0485492
63	0xbca1c440	-0.0197469
64	0x3e1ef235	0.15522082
65	0xbe9dc926	-0.30817527
66	0x3d9e06b1	0.0771612
67	0xbd788117	-0.060669985
68	0x3e132676	0.1437014
69	0xbd6235b1	-0.055226985
70	0x3e111612	0.14168575
71	0x3e3fb9b9	0.18723191
72	0xbdc2b134	-0.09506455
73	0x3e6ddd14	0.23228866
74	0x3d15bbb5	0.036555964
75	0x3e1b24d0	0.15150762
76	0x3e4e905c	0.20172256
77	0x3e0e5ce3	0.13902621
78	0x3c527fdd	0.012847868
79	0x3d4a7fc0	0.04943824
80	0x3dfe6238	0.124210775
81	0x3df3d235	0.11905328
82	0xbd84147f	-0.06449222
83	0x3c4a0883	0.012331131
84	0x3d2ab21f	0.041673776
85	0x3d7ab413	0.06120689
86	0x3dd1245b	0.102120124
87	0x39905f42	0.00027536793
88	0x3980878c	0.00024515053
89	0x3c8ff031	0.017570587
90	0x3de5c94e	0.112200364
91	0x3df06594	0.117381245
92	0x3dd0d35a	0.10196562
93	0x3de440a6	0.11145143
94	0x3cbb2521	0.022844853
95	0xbd5e2d18	-0.054242224
96	0xbea6fbb1	-0.326139
97	0x3c8b01ff	0.016968725
98	0x3a93a800	0.0011265278
99	0x3db917dd	0.09037755
100	0xbda8b8b8	-0.08238357
101	0x3e00da05	0.12583168
102	0x3c05a919	0.008157992
103	0x3e61c601	0.22048189
104	0x3c9f530f	0.019448785
105	0x3da55817	0.080734424
106	0x3e16072b	0.14651172
107	0xbb150b0c	-0.002274218
108	0x3ea55185	0.32288757
109	0xbdc9bf97	-0.09850996
110	0xbd1e32fb	-0.038622838
111	0xbd4dde1c	-0.050260648
112	0xbeca0201	-0.39454654
113	0x394f26e3	0.00019755545
114	0xbd7f6811	-0.062355105
115	0xbe311380	-0.17292595
116	0x3d311e5f	0.043241855
117	0x3e3b168b	0.18270318
118	0xbd986b51	-0.07442344
119	0x3e2ef0df	0.17084073
120	0x3dc4dba9	0.09612209
121	0x3eb0658c	0.34452474
122	0x3e7051f1	0.23468758
123	0x3d832f45	0.064055
124	0x3de50c1b	0.111839496
125	0x3e1d5897	0.15365826
126	0x3dea525e	0.114414915
127	0xbed54a2c	-0.4165815

fc3.weight f4 [4, 128]
0	0xbe6eeba9	-0.23332085
1	0x3d9fcabd	0.07802341
2	0xbf0cd584	-0.550133
3	0xbe89a032	-0.26880032
4	0xbe910475	-0.28323713
5	0x3e3c0ca6	0.183642
6	0x3f824f1f	1.0180396
7	0x3d189216	0.037248693
8	0xbe92159b	-0.2853211
9	0xbb8bd2a7	-0.004267055
10	0xbe7489dd	-0.23880716
11	0x3c185c25	0.009299313
12	0xbe7bb584	-0.24580961
13	0xbee00a79	-0.4375799
14	0x3fa049ad	1.2522484
15	0xbe889565	-0.2667648
16	0x3da29623	0.079387926
17	0xbd533480	-0.05156374
18	0xbe34e363	-0.17664866
19	0xbe32f4ce	-0.17476198
20	0xbe945db1	-0.2897773
21	0xbe453276	-0.1925753
22	0x3ccf2397	0.025285525
23	0x3d998b18	0.07497233
24	0x3bd8633f	0.006603628
25	0xbe93f834	-0.289003
26	0xbf0528f9	-0.52015644
27	0xbd2aaaf2	-0.041666932
28	0xbe9990cc	-0.29993284
29	0xbd786b58	-0.060649246
30	0x3f5f99a9	0.8734384
31	0xbd46d79a	-0.048545457
32	0xbe220c19	-0.15824927
33	0x3e6d0153	0.23145036
34	0xbec72dbf	-0.3890209
35	0xbea54c1c	-0.3228463
36	0xbeb524f2	-0.3537975
37	0xbe4cab13	-0.19987135
38	0x3d2f2bbf	0.04276633
39	0x3f59c2d3	0.85062903
40	0x3f8f8ab1	1.12142
41	0x3faf07c0	1.367424
42	0xbf06c6d1	-0.5264712
43	0x3d9e1f23	0.077207826
44	0xbcdc0e9f	-0.02686244
45	0xbe02079a	-0.12698212
46	0x3cbb338e	0.022851732
47	0x3d9e9cda	0.07744761
48	0x3f28109b	0.6565034
49	0xbe82b437	-0.25528118
50	0xbe8274bc	-0.25479686
51	0xbe6fc5b7	-0.23415266
52	0x3d171f6a	0.036895193
53	0xbe0f8c5a	-0.14018384
54	0x3d855196	0.06509702
55	0xbe6a0ce5	-0.22856481
56	0x3d9311de	0.07181142
57	0xbef32c56	-0.47494763
58	0xbed32b3a	-0.41243917
59	0xbf2d6ee1	-0.6774731
60	0xbe6467cb	-0.22305219
61	0x3d07c450	0.033146203
62	0x3c87e218	0.016587302
63	0x3cf3d1fd	0.029763216
64	0x3fa9754b	1.323892
65	0xbdb8f243	-0.09030583
66	0xbe99918f	-0.29993865
67	0xbd99b23d	-0.075046994
68	0xbd97d294	-0.074132115
69	0xbc26c4a4	-0.010178719
70	0xbe71307a	-0.23553649
71	0xbeb1da8e	-0.34737056
72	0x3f693b83	0.9110643
73	0xbea9b14f	-0.33143088
74	0xbe7d07f5	-0.24710067
75	0xbe8ddf6b	-0.27709517
76	0xbe767b75	-0.24070533
77	0xbe7c9f69	-0.24670185
78	0xbe837eae	-0.25682586
79	0x3c097cd1	0.008391575
80	0xbe7b5b40	-0.24546528
81	0xbe88dc83	-0.26730737
82	0x3d3a3987	0.04546502
83	0xbe8bc288	-0.27296853
84	0x3f7f6e40	0.99777603
85	0x3f9c0ce7	1.2191437
86	0xbe9c3e81	-0.30516437
87	0xbe8dd421	-0.27700904
88	0x3ebe771a	0.37200242
89	0x3c8c7d41	0.01714957
90	0xbe742f81	-0.23846246
91	0xbea8e66f	-0.32988307
92	0xbe50344b	-0.20332448
93	0xbe6e9730	-0.23299861
94	0xbe2f1b85	-0.17100342
95	0x3d849823	0.0647433
96	0x3c96e0b7	0.0184177
97	0xbcaed007	-0.02133943
98	0x3c0a74ec	0.008450728
99	0xbd85a2c3	-0.06525185
100	0xbe6fafcf	-0.2340691
101	0xbe90947b	-0.28238282
102	0x3fad2947	1.3528222
103	0x3fabd8ce	1.3425539
104	0xbd4b749a	-0.049671747
105	0xbea1e6a3	-0.31621274
106	0xbd63a641	-0.055578474
107	0xbe1c4ac2	-0.15262893
108	0xbe7d7a5d	-0.24753709
109	0x3f86f492	1.0543387
110	0xbcab3b60	-0.020902336
111	0x3c5defd4	0.013545949
112	0x3dae23a6	0.08502893
113	0xbe5afecb	-0.21386258
114	0x3c364ccd	0.011126709
115	0x3e7c1e65	0.2462097
116	0x3d6f3d7b	0.05840824
117	0x3f9ea29c	1.2393374
118	0xbecc779d	-0.39935008
119	0xbe788d34	-0.24272615
120	0xbe673e6d	-0.22582407
121	0xbf0877ed	-0.5330799
122	0x3faeeadf	1.3665427
123	0xbe77fa81	-0.24216653
124	0xbe3ced60	-0.18449926
125	0xbe9687f2	-0.29400593
126	0xbe80e183	-0.25172052
127	0x3edb4a34	0.4283005
128	0xbe072d2d	-0.13200827
129	0xbc951a89	-0.01820113
130	0xbe472193	-0.19446401
131	0xbe765f53	-0.24059801
132	0xbe3ee459	-0.18641795
133	0xbe0ff56e	-0.14058468
134	0x3f9841db	1.1895097
135	0x3c8bb9ae	0.017056312
136	0xbec51755	-0.38494363
137	0x3da2f70d	0.079572774
138	0xbe7861f1	-0.24256112
139	0xbd8def3a	-0.069303945
140	0xbe54f462	-0.2079635
141	0xbeee7e07	-0.46580526
142	0x3fc57eff	1.5429381
143	0xbe8fb833	-0.2807022
144	0x3bf42392	0.0074505294
145	0x3c79db35	0.015250017
146	0xbf2d9581	-0.6780625
147	0xbedb41fe	-0.42823786
148	0xbe14bc04	-0.14524847
149	0xbec36bed	-0.38168278
150	0xbd36eb4a	-0.044657983
151	0xbc4079c9	-0.011747786
152	0x3c8f06ec	0.017459355
153	0xbe202e3c	-0.15642637
154	0xbf15eff6	-0.58569276
155	0xbce132fa	-0.027490128
156	0xbeb39e42	-0.3508168
157	0x3e87a473	0.26492652
158	0x3e98fbae	0.29879516
159	0xbc385b13	-0.011252183
160	0xbf259e75	-0.6469491
161	0x3e37dc16	0.1795505
162	0x3d134bed	0.03596108
163	0xbe1ff80b	-0.15621965
164	0xbe71d743	-0.23617272
165	0xbe878669	-0.26469734
166	0x3d8270f0	0.06369197
167	0x3f954b74	1.1663651
168	0x3f1ee69a	0.6207062
169	0x3f8d5aa7	1.104329
170	0xbf0fe6f2	-0.5621177
171	0x3d239922	0.03994096
172	0x3d08a292	0.033358164
173	0xbed2e5b5	-0.41190878
174	0xbccb6c09	-0.024831789
175	0xbd3884dc	-0.04504858
176	0x3c9b892f	0.018986313
177	0xbea23e49	-0.31688145
178	0xbe45231b	-0.19251673
179	0xbe9dad8c	-0.30796468
180	0x3bdf221e	0.006809487
181	0xbf1236a4	-0.57114625
182	0x3ccc7f18	0.024962947
183	0xbe208bd2	-0.15678337
184	0xbc361d80	-0.011115432
185	0xbe9452be	-0.28969377
186	0xbec4c05f	-0.38428017
187	0xbf041433	-0.5159332
188	0xbe860ed6	-0.26183194
189	0xbd99978a	-0.07499607
190	0x3cf3df14	0.029769458
191	0x3d165b15	0.036707956
192	0x3fcce8cd	1.6008545
193	0x3f03e899	0.5152679
194	0xbe556921	-0.20840885
195	0xbeb086b3	-0.34477767
196	0x3e1cdab2	0.153178
197	0xbd9a1751	-0.075239785
198	0xbe63a0a9	-0.22229256
199	0xbe986c08	-0.2976992
200	0x3f2d9e6f	0.67819875
201	0xbedcedb3	-0.431501
202	0xbe9601b8	-0.29298186
203	0xbeb043a7	-0.34426615
204	0xbe8522bc	-0.26003063
205	0xbdf3d1d1	-0.11905254
206	0xbe9a6b07	-0.3015978
207	0xbedc6825	-0.43048206
208	0xbeb38b6d	-0.3506731
209	0xbe305534	-0.17220002
210	0xbc2fc4a7	-0.010728038
211	0xbe8c1952	-0.27363068
212	0x3f4665ab	0.77498883
213	0x3fb7ce81	1.4359895
214	0xbea144f3	-0.31497917
215	0x3e39b19b	0.18134157
216	0x3f69ccf2	0.91328347
217	0xbd3c542b	-0.045978706
218	0xbe997f96	-0.29980153
219	0xbec95060	-0.39319134
220	0xbe64a179	-0.22327222
221	0xbe8d9b13	-0.27657375
222	0xbeb4d74d	-0.3532051
223	0xbcced629	-0.025248604
224	0xbf0f6ec1	-0.5602837
225	0x3cbf41cf	0.02334681
226	0xbd096512	-0.033543654
227	0xbe3a0f4e	-0.18169901
228	0x3e8f9e5d	0.2805051
229	0xbe5c756a	-0.21529165
230	0x3f571a54	0.8402455
231	0x3f18ce49	0.59689766
232	0xbda7f2d5	-0.082006134
233	0xbe85daff	-0.26143643
234	0xbe8fb3a7	-0.2806675
235	0xbeb13ac2	-0.3461514
236	0xbd43a689	-0.047766242
237	0x3f6ff627	0.93734974
238	0x3cd4fe3d	0.026000137
239	0x3d12ae46	0.03581073
240	0xbf0889b4	-0.5333512
241	0xbeb0e82e	-0.3455214
242	0x3d35a702	0.044348724
243	0x3eda260e	0.42607158
244	0xbd26a892	-0.040688105
245	0x3fb0304d	1.376474
246	0xbe3fde1a	-0.18737069
247	0xbebc535a	-0.36782342
248	0xbe8002d2	-0.25002152
249	0xbe8e1a24	-0.2775432
250	0x3fb49fc8	1.4111261
251	0xbe2f98b1	-0.17148091
252	0xbeb94e8a	-0.36192733
253	0xbe67e377	-0.22645365
254	0xbe37a46e	-0.17933819
255	0x3eca45c7	0.3950636

fc3.bias f4 [4]
0	0xbe1740a9	-0.1477076
1	0xbe3f662f	-0.18691324
2	0x3cf549bc	0.029942386
3	0xbe8e4d15	-0.27793184

fc1.weight f4 [256, 8]
0	0xbd44e779	-0.048072312
1	0xbf15ea4b	-0.5856063
2	0xbe5dd375	-0.21662696
3	0xbe10d036	-0.14141926
4	0x3f197eb1	0.5995894
5	0x3ea27cfe	0.31735986
6	0x3de94489	0.11390025
7	0xbf6cfa19	-0.9256912
8	0x3d44976c	0.04799597
9	0xbde65781	-0.11247159
10	0x3e282e9c	0.1642403
11	0xbdbb12c5	-0.091344394
12	0xbf756f75	-0.95873195
13	0x3e772613	0.24135618
14	0x3e8bf375	0.2733418
15	0x3da54b56	0.0807101
16	0x3ead5692	0.3385511
17	0xbec7e296	-0.3904006
18	0x3e02ab8b	0.12760751
19	0xbe652a43	-0.22379403
20	0xbf5c8388	-0.861382
21	0xbf358fb6	-0.7092241
22	0xbdca63df	-0.0988233
23	0xbf4962df	-0.7866649
24	0xbe78d1db	-0.24298804
25	0x3e18b4e1	0.1491275
26	0x3e86af74	0.26305735
27	0xbedca1cc	-0.4309219
28	0xbdf91659	-0.121624656
29	0x3e45c1e5	0.19312246
30	0x3eb6261f	0.3557596
31	0xbd6c3c12	-0.057674475
32	0xbec9e2c3	-0.39430818
33	0x3c7beab7	0.015375785
34	0x3d9860e5	0.07440356
35	0x3e71e738	0.23623359
36	0x3e833bb0	0.25631475
37	0x3f3d4dd1	0.73946863
38	0x3f2fed1a	0.68721163
39	0x3e8edc41	0.27902415
40	0xbe4713d1	-0.19441153
41	0xbe574ab2	-0.21024588
42	0xbe7fadee	-0.24968693
43	0x3ed36935	0.41291204
44	0x3e0dd628	0.13851225
45	0x3bd75e8d	0.0065725506
46	0xbf3ab55d	-0.7293299
47	0x3f2b99c7	0.6703152
48	0x3e2f2b8e	0.17106459
49	0x3eb3ed4f	0.3514199
50	0xbf0be849	-0.54651314
51	0x3e8c30ad	0.27380887
52	0x3eafa908	0.34308648
53	0x3d586984	0.052835003
54	0xbf57790d	-0.84169084
55	0xbbbf213d	-0.0058328197
56	0xbe63bf73	-0.22241001
57	0x3f29f72a	0.6639277
58	0x3e2e0813	0.16995268
59	0xbdf24449	-0.118294306
60	0xbc82819c	-0.015930943
61	0x3eef1448	0.4669516
62	0xbeb470df	-0.35242364
63	0xbebd3eaa	-0.3696187
64	0xbd7388a1	-0.05945647
65	0xbd353d06	-0.04424765
66	0x3e06bd1b	0.13158076
67	0x3f8c0bf7	1.0941151
68	0x3f197ac1	0.5995293
69	0x3e078d5f	0.13237523
70	0xbd80aed8	-0.06283349
71	0xbdb660a2	-0.0890515
72	0xbeaaf49b	-0.33389744
73	0xbe7113eb	-0.23542754
74	0xbf162daa	-0.5866343
75	0xbe958ebe	-0.29210466
76	0x3f440114	0.76564145
77	0x3e9b2f2e	0.30309433
78	0x3e2ff581	0.17183496
79	0x3e075af2	0.13218287
80	0xbe33311d	-0.17499204
81	0xbfa0ff29	-1.2577869
82	0xbd99a89f	-0.07502865
83	0xbed45356	-0.4146983
84	0xbe98d6e2	-0.29851443
85	0xbd4449a9	-0.04792181
86	0xbd4a62a7	-0.04941049
87	0x3edb7e12	0.42869622
88	0x3ecd5626	0.4010479
89	0xbf285f98	-0.65770864
90	0x3db8426f	0.08997046
91	0xbe81bfe7	-0.25341722
92	0xbf0d1907	-0.55116314
93	0xbe653544	-0.223836
94	0x3e57b851	0.21066405
95	0x3e4bc09b	0.19897692
96	0xbe498cee	-0.19682667
97	0xbeebe439	-0.46072558
98	0x3d328772	0.043586202
99	0xbe16a295	-0.14710458
100	0x3e394e00	0.18096161
101	0xbe840b54	-0.25789893
102	0x3d8e3ef4	0.06945601
103	0x3f0e356e	0.5555028
104	0xbef55d26	-0.4792263
105	0xbf1bc112	-0.60841477
106	0x3d857b85	0.065177
107	0xbe9d1a45	-0.30684105
108	0x3efe5352	0.49672943
109	0x3e377b06	0.17918023
110	0x3edfb2c5	0.43691078
111	0x3d9c9282	0.07645132
112	0xbef28df6	-0.47373933
113	0x3e7179eb	0.23581664
114	0x3da32960	0.07966876
115	0x3e638d20	0.22221804
116	0x3f29dd6b	0.6635348
117	0x3d527686	0.051382564
118	0xbe8ba514	-0.27274382
119	0x3e06e660	0.13173819
120	0xbf3f1045	-0.746342
121	0x3d0f0a6d	0.034922052
122	0xbf0b71af	-0.5447034
123	0xbe040744	-0.12893397
124	0xbf1da5c5	-0.6158107
125	0x3f4da289	0.80326134
126	0x3dac04ce	0.08399354
127	0xbee00973	-0.4375721
128	0x3e39811f	0.18115662
129	0x3d95523d	0.07291076
130	0xbef65461	-0.4811125
131	0x3e1056cd	0.14095612
132	0xbf081113	-0.53151053
133	0xbf70d83b	-0.9407994
134	0x3ed32a6d	0.41243306
135	0xbe863e2d	-0.2621931
136	0x3dadbc0b	0.08483132
137	0xbf1dbf25	-0.6161979
138	0xbe2b51d9	-0.16730441
139	0xbf1c8e11	-0.61154276
140	0x3e60fc9b	0.21971361
141	0x3e026a1e	0.12735793
142	0x3ddf2d12	0.10897268
143	0x3d5af2a2	0.05345405
144	0x3e8a641e	0.27029508
145	0xbf13b577	-0.5769877
146	0xbcb1a527	-0.021685196
147	0xbead7a29	-0.33882263
148	0x3d9927db	0.07478305
149	0xbe1f0cd1	-0.15532233
150	0xbd6097e4	-0.054832354
151	0x3ed6fdba	0.41990453
152	0xbc936752	-0.017993603
153	0xc012a9a4	-2.291604
154	0xbdbefdbc	-0.0932574
155	0x39a22881	0.00030929226
156	0x3f18e82f	0.59729284
157	0xbc91fa24	-0.017819472
158	0x3e86931e	0.26284117
159	0x3dd3f683	0.10349753
160	0xbf03a5eb	-0.51425046
161	0xbef1d5f6	-0.47233552
162	0xbee8cd36	-0.45469064
163	0xbd8cbad4	-0.06871572
164	0xbe238a05	-0.15970619
165	0x3e8a2309	0.26979855
166	0x3f662d8e	0.8991326
167	0x3e875a40	0.26436043
168	0xbdef1b10	-0.11675084
169	0xbf48c3a5	-0.7842353
170	0xbe754da3	-0.23955397
171	0xbedf1ac8	-0.4357512
172	0xbd8916f9	-0.06693835
173	0xbe301477	-0.17195307
174	0x3ea03321	0.31289008
175	0x3dabbb30	0.083853126
176	0x3f07da96	0.5306791
177	0x3dbc2d15	0.09188286
178	0x3dc5dfc6	0.09661822
179	0xbecaf1f8	-0.39637733
180	0x3e396132	0.18103483
181	0x3ddb006d	0.106934406
182	0xbd8f4000	-0.06994629
183	0xbdbf3177	-0.093356065
184	0xbe518a7e	-0.20462987
185	0xbf2c4416	-0.6729139
186	0xbe1280af	-0.14306901
187	0xbeca5919	-0.395211
188	0xbd616452	-0.055027314
189	0xbe034789	-0.12820257
190	0xbf3ff158	-0.74977636
191	0xbf522520	-0.820879
192	0x3e336428	0.17518675
193	0x3ef8f5a0	0.48624897
194	0xbe5fe343	-0.21864037
195	0xbe00e474	-0.12587148
196	0xbeb71cd0	-0.3576417
197	0xbe4f74c0	-0.2025938
198	0xbecef5c8	-0.4042189
199	0x3eb260ce	0.3483948
200	0x3ef54abc	0.4790858
201	0xbe60d84a	-0.21957508
202	0x3f182f04	0.5944674
203	0x3e4a9442	0.19783118
204	0xbe71038c	-0.2353651
205	0xbf0fac69	-0.5612245
206	0x3f1244e4	0.5713637
207	0xbed127a2	-0.4085055
208	0xbe7021f0	-0.23450446
209	0xbef9da77	-0.48799488
210	0x3cf77bd2	0.03021041
211	0xbeadd324	-0.3395015
212	0x3e8d79ca	0.2763198
213	0xbe920ef7	-0.28527042
214	0x3ec340a8	0.38135266
215	0x3f0309ea	0.51187
216	0xbcd3aee0	-0.025840223
217	0xbf0e98b9	-0.55701786
218	0xbd8bd1cd	-0.06827126
219	0xbece9277	-0.4034612
220	0x3b64ea26	0.0034929602
221	0xbe0ec008	-0.13940442
222	0x3ebbb95f	0.36664864
223	0x3dab6eeb	0.08370765
224	0x3ed18644	0.4092275
225	0xbefe4c9c	-0.49667823
226	0x3db2cea6	0.08730821
227	0xbf01caf0	-0.50700283
228	0xbec06a0c	-0.37580907
229	0x3cacda40	0.021100163
230	0xbde9617b	-0.11395546
231	0x3ed800e0	0.42188168
232	0x3dc77475	0.09739009
233	0x3e187a79	0.1489047
234	0x3d2a2f98	0.041549295
235	0x3e5dce18	0.2166065
236	0xbe8c30ec	-0.27381074
237	0xbf7fb09f	-0.9987888
238	0xbc78790e	-0.01516558
239	0x3f03f0ef	0.5153951
240	0x3d228a4d	0.039682675
241	0xbf1a9eca	-0.6039854
242	0xbe844601	-0.2583466
243	0x3f8c22f8	1.0948172
244	0x3f1ce2e3	0.612837
245	0x3e19d322	0.15021947
246	0x3eede821	0.46466163
247	0xbe9347cf	-0.28765723
248	0x3e6e4ec1	0.2327223
249	0xbf599a8d	-0.8500145
250	0xbeca9204	-0.39564526
251	0xbf12302c	-0.57104754
252	0xbebd50f2	-0.3697582
253	0x3d718204	0.058961883
254	0x3eff7bcb	0.49899134
255	0xbef4ba7b	-0.47798523

fc1.bias f4 [256]
0	0x3e48fb6d	0.19627161
1	0x3ece5209	0.40296963
2	0xbeb0bcd6	-0.3451907
3	0x3df0fb0c	0.117666334
4	0xbd2695a2	-0.040670045
5	0x3e195fde	0.14977977
6	0x3edb34a2	0.42813593
7	0x3e900abf	0.281332
8	0xbe00a093	-0.12561254
9	0xbd876e7d	-0.06612871
10	0xbeb668a8	-0.3562672
11	0x3e463369	0.19355549
12	0x3ebc7ba5	0.36813083
13	0x3e3c5f80	0.18395805
14	0x3ece7b11	0.40328267
15	0xbf14b6d5	-0.5809148
16	0xbe6d948a	-0.23201194
17	0xbda4030c	-0.08008394
18	0x3e8be45b	0.2732266
19	0xbe6b719e	-0.2299256
20	0xbe729827	-0.23690854
21	0x3ef33065	0.4749786
22	0x3eb7d903	0.35907754
23	0x3e7cb3c4	0.2467795
24	0x3dc5f9bc	0.09666774
25	0xbe60c34e	-0.21949503
26	0x3e3c10b0	0.18365741
27	0x3e6560cd	0.22400208
28	0xbe5d6c52	-0.21623352
29	0x3de0f53b	0.10984274
30	0xbe08674e	-0.13320658
31	0xbd75c21e	-0.059999578
32	0xbd48b4a7	-0.04900041
33	0x3e2c2889	0.16812338
34	0x3cafbd5c	0.021452598
35	0xbdea8813	-0.11451735
36	0x3da51bae	0.0806192
37	0xbd9c972d	-0.07646022
38	0x3ef2c3f9	0.4741514
39	0x3e6713b6	0.22566113
40	0xbe524525	-0.20534189
41	0x3c81353a	0.01577245
42	0xbe83de83	-0.257557
43	0x3e824212	0.25441033
44	0x3ecbfdb6	0.39842004
45	0x3deaf344	0.114721805
46	0xbec0a82f	-0.37628314
47	0x3e681f89	0.2266828
48	0xbe1634bb	-0.14668553
49	0x3e23e0cc	0.16003722
50	0x3f10d2b2	0.56571496
51	0xbdf0d70f	-0.11759769
52	0x3ebc7ea9	0.36815384
53	0xbd8a84c3	-0.067636035
54	0xbe0a3152	-0.13495377
55	0x3ea3c676	0.3198735
56	0xbcd2ac59	-0.025716947
57	0xbed9aab1	-0.4251304
58	0x3d301f52	0.04299862
59	0x3da9644b	0.082710825
60	0xbe080449	-0.13282885
61	0x3e0ee3eb	0.13954131
62	0x3ea0ce3a	0.31407338
63	0xbe054137	-0.13013159
64	0x3cd3896d	0.025822366
65	0x3ebf7baa	0.37399036
66	0x3dd2bba2	0.10289694
67	0xbf1c8c3a	-0.6115147
68	0xbd836cb6	-0.06417219
69	0xbe77c3fa	-0.24195853
70	0x3e9aebb9	0.30257967
71	0xbcc21cb0	-0.02369532
72	0x3e23e308	0.16004574
73	0x3e73cc60	0.23808432
74	0x3e76a6af	0.24087022
75	0x3cb8c596	0.022555154
76	0xbe1ba5ee	-0.15200016
77	0xbe2e8fdc	-0.17047065
78	0xbe519efc	-0.20470804
79	0xbc6ff60f	-0.014646067
80	0x3deb03da	0.11475344
81	0xbe293ae7	-0.16526376
82	0xbe1a7794	-0.15084678
83	0xbe9ac5ed	-0.3022913
84	0xbf1a0afb	-0.60173005
85	0xbbe1a976	-0.0068866564
86	0x3effc618	0.4995582
87	0x3e94089f	0.28912827
88	0x3e76d5a7	0.2410494
89	0x3ed71174	0.42005503
90	0xbed911b5	-0.42396322
91	0xbb12ad59	-0.0022381155
92	0xbd79203a	-0.06082175
93	0x3b177957	0.0023113096
94	0x3e668743	0.22512536
95	0x3e77e45f	0.2420821
96	0x3e770d88	0.24126256
97	0xbedbbcdb	-0.42917523
98	0x3da65350	0.08121359
99	0x3e773c96	0.24144205
100	0x3e084f93	0.13311605
101	0xbf207019	-0.6267105
102	0xbe0ecbc1	-0.13944913
103	0x3d969ea2	0.073544756
104	0xbba76bb5	-0.005109275
105	0x3e98dd40	0.298563
106	0x3ec0db58	0.37667346
107	0x3e7a1689	0.24422659
108	0x3ed4edcc	0.41587675
109	0x3d872445	0.06598715
110	0x3e9515c7	0.29118177
111	0x3ee01fb9	0.43774202
112	0x3e600a61	0.21878959
113	0xbea48412	-0.32132012
114	0xbdd450cf	-0.103669755
115	0x3d243476	0.040089093
116	0x3d26014f	0.04052859
117	0x3e724911	0.23660685
118	0x3e7bb05d	0.24578996
119	0xbf09ae48	-0.5378156
120	0x3ddb5a0f	0.10710537
121	0xbd37a30f	-0.04483324
122	0x3de5a827	0.11213713
123	0x3ed674a5	0.41885868
124	0x3de0089d	0.10939143
125	0xbea2f088	-0.31824136
126	0xbd99268f	-0.074780576
127	0x3db3ac7f	0.087731354
128	0x3e56a797	0.20962368
129	0x3e19bf9e	0.15014502
130	0x3e93fcdb	0.2890385
131	0xbc2a455f	-0.010392516
132	0xbdb2d359	-0.087317176
133	0x3b382559	0.0028098433
134	0x3e04a3fe	0.12953183
135	0xbe8b63c9	-0.27224568
136	0xbe88e639	-0.26738146
137	0xbea6786a	-0.32513744
138	0x3f001b17	0.50041336
139	0x3eb57055	0.35437265
140	0xb80abd20	-3.30779e-05
141	0xbd2eed5b	-0.04270683
142	0x3ef716bf	0.4825954
143	0x3ea17967	0.31537935
144	0x3f23961c	0.63900924
145	0x3df237cd	0.118270494
146	0x3d8d9f97	0.06915205
147	0x3e63fa87	0.22263537
148	0xbe11970d	-0.14217778
149	0x3d151bdc	0.036403522
150	0xbeb25363	-0.34829244
151	0xbe8bfabe	-0.2733974
152	0x3e35e43f	0.1776285
153	0xbe5588e4	-0.20853001
154	0xbd761826	-0.060081623
155	0xbea8f4fc	-0.32999408
156	0x3e701a5b	0.23447554
157	0xbc204b4d	-0.009783578
158	0x3c80f3f9	0.015741335
159	0x3e8c3708	0.27385736
160	0xbe4eacad	-0.20183058
161	0x3da669bf	0.08125638
162	0x3e640954	0.22269183
163	0x3ed12100	0.4084549
164	0x3e2d8d63	0.16948466
165	0x3d8f57c4	0.06999162
166	0x3d2c4a3a	0.042062975
167	0x3edaa845	0.42706504
168	0x3d43ca29	0.047800217
169	0x3ea99969	0.33124855
170	0xbed9b518	-0.42520976
171	0xbe134585	-0.14381988
172	0x3dda2062	0.10650708
173	0x3d8ffaea	0.0703028
174	0x3ee24abf	0.44197652
175	0xbe018e4a	-0.12651935
176	0x3e0bfe7c	0.13671297
177	0x3e9bd5c8	0.3043654
178	0x3e83216b	0.25611433
179	0x3e21a5d6	0.15785918
180	0xbd7a4246	-0.06109836
181	0xbd726627	-0.05917945
182	0x3e1b935f	0.15192936
183	0x3e4b3cd0	0.19847417
184	0x3ee30af8	0.44344306
185	0xbe99b8c7	-0.30023786
186	0xbe26c673	-0.1628664
187	0xbe26eb55	-0.1630071
188	0xbea507d8	-0.32232547
189	0x3e8abb4b	0.27096018
190	0xbd89fb29	-0.06737358
191	0x3decf483	0.115700744
192	0xbdc605d1	-0.09669078
193	0x3e915bbd	0.28390303
194	0x3d88c8d1	0.06678928
195	0xbca807d4	-0.020511545
196	0xbefd68a6	-0.49493903
197	0x3e033850	0.1281445
198	0x3c85c3da	0.01632874
199	0x3e4b9668	0.19881594
200	0xbdfed6a6	-0.12443285
201	0xbdb0f579	-0.0864057
202	0x3ec49fd5	0.38403192
203	0x3d242a77	0.04007956
204	0x3e4b4264	0.19849545
205	0x3e320bc0	0.17387295
206	0x3ed887bc	0.42291057
207	0xbbca170b	-0.0061672977
208	0x3e0288ba	0.1274747
209	0x3924ca2f	0.00015715578
210	0x3db367c5	0.08760027
211	0x3e766b91	0.24064471
212	0xbe0a4b02	-0.13505176
213	0xbe21b2ee	-0.15790913
214	0xbe85c12b	-0.26123938
215	0x3dc01791	0.09379495
216	0xbea4b1c4	-0.32166874
217	0x3eaea3a4	0.34109223
218	0x3e50378e	0.20333692
219	0xbf137758	-0.5760398
220	0x3e0cb360	0.13740301
221	0x3e8f040c	0.27932775
222	0x3d7e4361	0.062075976
223	0xbe8c48d1	-0.27399305
224	0xbde7f83e	-0.11326645
225	0x3e11aaf6	0.14225373
226	0x3d982aa0	0.07430005
227	0x3eb2edcf	0.3494706
228	0x3d055b22	0.032557614
229	0x3e9c60d4	0.30542624
230	0x3e4d84e8	0.20070231
231	0xbe11b67e	-0.14229771
232	0x3e191ba1	0.14951946
233	0xbde77ab5	-0.113027014
234	0xbe8426c2	-0.2581082
235	0xbe70f7b4	-0.23531991
236	0xbd613841	-0.05498529
237	0x3d0251d3	0.031816315
238	0x3c66f87b	0.014097328
239	0xbe47a7bf	-0.19497584
240	0x3e7c783b	0.2465524
241	0xbe81e74c	-0.25371778
242	0xbdd9de26	-0.106380746
243	0x3f12d16e	0.57350814
244	0xbdb86159	-0.090029426
245	0x3e999c22	0.30001932
246	0x3ed561a1	0.41676047
247	0xbee197f2	-0.44061238
248	0xbceb859f	-0.028750239
249	0xbbc9a4bd	-0.0061536715
250	0x3c9e97d2	0.019359503
251	0xbe70ab69	-0.23502888
252	0xbe5de8c4	-0.21670824
253	0xbe802b91	-0.2503324
254	0x3eb184a8	0.3467152
255	0x3ea8d4ef	0.32974955

fc2.weight f4 [128, 256]
0	0x3f5d8330	0.865283
1	0x3e473c3b	0.1945657
2	0xbd9ae4d0	-0.07563174
3	0x3db85b6e	0.09001814
4	0x3e06b31b	0.13154261
5	0xbe70b2ec	-0.23505753
6	0xbe30e639	-0.17275323
7	0xbd8db5e4	-0.069194585
8	0x3ebddb4e	0.3708138
9	0x3d9a0953	0.0752131
10	0xbea89c60	-0.32931805
11	0x3da4623f	0.080265515
12	0x3db13308	0.086523116
13	0x3e473b3a	0.19456187
14	0x3ae5bae0	0.0017527007
15	0x3eb98638	0.36235213
16	0x3ebbd46f	0.3668551
17	0x3e984642	0.29741102
18	0x39a63825	0.00031703818
19	0x3e1ea6ae	0.15493271
20	0x3de3e0a6	0.11126833
21	0x382d620a	4.133772e-05
22	0x3d73311d	0.05937301
23	0x3d90eabd	0.07076023
24	0xbb82f463	-0.0039964183
25	0xbd70f7fc	-0.058830246
26	0x3e2e4324	0.170178
27	0x3d5f9bfc	0.054592118
28	0x3c506cd1	0.012721256
29	0x3e495de1	0.19664718
30	0x3f04f62d	0.51938134
31	0xbea9991c	-0.33124626
32	0x3db8b808	0.09019476
33	0x3eaeda0b	0.3415073
34	0xbe1f2654	-0.15541965
35	0x3e493533	0.196492
36	0x3e2d1ef3	0.16906337
37	0xbe580cf1	-0.21098687
38	0x3d6e9705	0.058249492
39	0x3c585308	0.01320339
40	0xbd3243ca	-0.04352168
41	0xbe676909	-0.22598661
42	0x3eaa571d	0.33269587
43	0x3e0bfbad	0.13670225
44	0x3e21cb4b	0.15800206
45	0x3d847445	0.06467489
46	0xbe2923af	-0.16517518
47	0x3d9743e4	0.07385996
48	0xbe242416	-0.1602939
49	0x3e0fa070	0.14026046
50	0x3e87e277	0.26539966
51	0x3dcf03d6	0.101081535
52	0xbe47a375	-0.19495948
53	0x3e3d2267	0.18470155
54	0xbe7f0613	-0.24904661
55	0xbf1f6782	-0.62267315
56	0x3e5882dd	0.2114367
57	0xbe9c7e34	-0.30565035
58	0x3dcf0e83	0.1011019
59	0xbd2a2eff	-0.041548725
60	0xbe571623	-0.21004538
61	0x3e21bd2d	0.15794821
62	0x3ec85fe6	0.39135665
63	0xbfbbf223	-1.4683269
64	0x3e2fa72b	0.17153613
65	0x3da6e037	0.08148234
66	0x3d9aa495	0.07550923
67	0xbe9aab78	-0.30208945
68	0x3e1e9914	0.15488082
69	0xbebf030f	-0.3730702
70	0x3e59e673	0.21279316
71	0x3d9c8f94	0.07644573
72	0x3e53701a	0.20648232
73	0x3e0aad96	0.1354278
74	0x3dd7744b	0.10520228
75	0x3ed8250c	0.42215765
76	0xbe56ca8e	-0.20975706
77	0xbe3ceb36	-0.18449101
78	0x3dd45dc7	0.10369449
79	0xbd4771db	-0.048692565
80	0x3d2a99e1	0.041650657
81	0x3e93287b	0.28741822
82	0xbe4c472f	-0.1994903
83	0xbec0d031	-0.37658837
84	0xbcb64e8c	-0.022254251
85	0x3ee68b81	0.45028308
86	0x397de0f2	0.00024211759
87	0x3da600c6	0.08105616
88	0x3d573e53	0.05254967
89	0x3e329881	0.17440988
90	0xbed55bba	-0.41671544
91	0xbd599e3b	-0.053129416
92	0x3ea766f9	0.3269575
93	0xbf5c80b7	-0.86133903
94	0x3e0001d1	0.12500693
95	0xbec809e2	-0.3907004
96	0x3e3e0849	0.18557848
97	0xbee02ace	-0.43782657
98	0x3e072ea2	0.13201383
99	0x3dd4a676	0.103833124
100	0x3e9ac2a3	0.3022662
101	0xbea6239d	-0.32449046
102	0xbf65c807	-0.8975834
103	0x3e48ead0	0.19620824
104	0xbe0e2fc6	-0.13885412
105	0x3effb8be	0.49945635
106	0x3e3e8c38	0.18608177
107	0x3c82bbdc	0.015958719
108	0xbc61231a	-0.013741279
109	0x3ea67a15	0.32515016
110	0xbd97a740	-0.07404947
111	0x3ebc761d	0.36808863
112	0x3de64486	0.112435386
113	0x3da5af32	0.080900565
114	0x3db57178	0.08859533
115	0x3d84d8f5	0.06486694
116	0x3ec2614c	0.37964857
117	0xbcb54b58	-0.022130653
118	0x3c134daa	0.0089906845
119	0xbd8403de	-0.0644605
120	0x3d9c70bb	0.07638689
121	0xbf9f1736	-1.2428958
122	0x3db5be80	0.088742256
123	0x3d018598	0.031621546
124	0xbc167230	-0.009182498
125	0xbe21de6e	-0.15807506
126	0x3df79cce	0.12090455
127	0xbdcfc703	-0.1014538
128	0x3e212dcb	0.15740125
129	0xbebd8baa	-0.37020618
130	0x3ed0751b	0.40714344
131	0xbe0e8ae7	-0.13920175
132	0xbc91d752	-0.017802868
133	0xbf62e761	-0.88634306
134	0x3c15bea9	0.009139695
135	0xbe8396e0	-0.25701046
136	0x3dd9f620	0.10642648
137	0x3c82ee64	0.015982814
138	0xbe9f473f	-0.31109044
139	0xbd1f89e3	-0.03894986
140	0x3e8fef2b	0.28112158
141	0x3e1ba51e	0.15199706
142	0x3eac1b38	0.33614516
143	0x3d9a7d38	0.07543415
144	0x3e29d67a	0.16585723
145	0x3d555d86	0.052091144
146	0x3d207ff2	0.03918452
147	0x3e565eb0	0.20934558
148	0x3e2e2e46	0.1700984
149	0x3ec6eb26	0.3885128
150	0x3e6453a6	0.22297534
151	0xbe3155b4	-0.1731785
152	0x3ea68494	0.32523024
153	0xbeda29c4	-0.4260999
154	0x3cb47f37	0.022033317
155	0xbeb70648	-0.3574698
156	0x3e4e05bb	0.20119374
157	0x3e9d9545	0.30777946
158	0x3f082deb	0.53195065
159	0x3e21b375	0.15791114
160	0x3e9fcbb9	0.31210116
161	0x3e178006	0.14794931
162	0x3bd69a24	0.0065491367
163	0x3d3b9be0	0.04580295
164	0xbb70f3ef	-0.003676649
165	0x3ec25aef	0.37960002
166	0x3e41ec4c	0.18937796
167	0xbd258eee	-0.04041951
168	0xbcfef39d	-0.031122023
169	0x3e428a71	0.18998124
170	0xbf1eff6f	-0.6210851
171	0x3ec79e9f	0.38988206
172	0x3d87905a	0.0661933
173	0x3d9b60e3	0.07586839
174	0x3dc79a54	0.09746233
175	0x3e231104	0.1592446
176	0x3e36e281	0.17859842
177	0x3deb5a96	0.11491887
178	0x3dfcce2c	0.12344012
179	0x3d824315	0.06360451
180	0xbea40f06	-0.32042712
181	0x3e560b11	0.20902659
182	0x3ec7261d	0.38896266
183	0xbd1a7fec	-0.037719652
184	0x3eadcba9	0.33944443
185	0x3c87fa13	0.016598737
186	0xbecda4e9	-0.4016488
187	0x3eea4363	0.45754537
188	0xbf8aee92	-1.0854056
189	0x3e78cc44	0.24296671
190	0xbda23ee7	-0.07922154
191	0x3d04f522	0.03246034
192	0xbe90af92	-0.2825895
193	0x3e33ad6e	0.17546627
194	0x3ef71261	0.4825621
195	0x3ec941e2	0.39308077
196	0xbf0529f8	-0.52017164
197	0x3b59506e	0.0033159512
198	0xbe75f511	-0.24019267
199	0x3d99c71a	0.07508679
200	0xbc9516d0	-0.018199354
201	0xbe8aa88b	-0.27081713
202	0xbda22010	-0.07916272
203	0x3d1123f8	0.035434693
204	0x3eec7882	0.4618569
205	0x3e8ab406	0.27090472
206	0x3f4c5b63	0.79826945
207	0xbb8939a5	-0.00418778
208	0x3e7feef3	0.24993496
209	0x3ecfd375	0.40591016
210	0x3e486908	0.19571316
211	0x3e2e9331	0.17048337
212	0x3e97e0ec	0.2966379
213	0x3d1ed7e1	0.038780097
214	0xbdc6c12a	-0.09704812
215	0x3dfd6984	0.12373641
216	0xbf140a99	-0.5782867
217	0x3c790467	0.0151988035
218	0x3cdff968	0.027340606
219	0xbe19fdeb	-0.15038268
220	0x3e47fe51	0.19530608
221	0x3e404517	0.18776356
222	0x3e062d99	0.13103332
223	0x3e0a9aaa	0.13535562
224	0x3de9a8dc	0.114091605
225	0x3e237b54	0.15965015
226	0xbe191624	-0.14949852
227	0x3e5d4024	0.21606499
228	0x3d8a76f0	0.06760967
229	0x3c2b2c2f	0.010447546
230	0xbd8104a7	-0.062997155
231	0xbe436aed	-0.19083758
232	0xbd03e71b	-0.03220282
233	0xbe0f574f	-0.1399815
234	0xbec872a2	-0.39149958
235	0xbc41feac	-0.011840504
236	0x3dd586b5	0.10426084
237	0xbec5b310	-0.38613176
238	0xbeb1d1c4	-0.3473035
239	0x3e47ae78	0.19500148
240	0x3df3b441	0.11899615
241	0xbe1eb310	-0.15497994
242	0xbd16e13f	-0.036835905
243	0x3ea21842	0.31659132
244	0x3e57b0f5	0.21063598
245	0xbc0bd961	-0.008535714
246	0x3db62b12	0.08894934
247	0xbe4fa762	-0.20278695
248	0x3e321666	0.17391357
249	0xbe17430d	-0.14771672
250	0x3d62bb44	0.05535437
251	0x3f653c7a	0.89545405
252	0x3cc1cb1b	0.023656419
253	0xbf7a0a03	-0.97671527
254	0x3d20aa75	0.03922506
255	0x3e326ffc	0.17425531
