results/models/independent_dqn_heavy_ep800.pth (torch, 581220 bytes, 24 tensors)

fc1.weight f4 [256, 8]
0	0xbdae4d8a	-0.08510883
1	0xbf13d465	-0.57745963
2	0xbeeb0b21	-0.45906928
3	0xbefd589b	-0.49481663
4	0x3f7a3fc1	0.9775353
5	0x3e91ecdb	0.2850102
6	0x3e89c4f4	0.26908076
7	0xbf8f0281	-1.1172639
8	0xbcedc3ee	-0.02902409
9	0xbe747fab	-0.23876826
10	0xbdf98639	-0.12183804
11	0xbe867bcb	-0.26266322
12	0xbfce9ea4	-1.6142163
13	0x3df5ad1d	0.11995909
14	0x3e8c9e78	0.27464652
15	0xbc29daab	-0.010367076
16	0x3d8e8bfd	0.069602944
17	0xbebdc59a	-0.3706482
18	0x3e7f09ad	0.24906035
19	0xbf2e1264	-0.6799681
20	0xbf85c0dd	-1.0449482
21	0xbf70a9b6	-0.9400896
22	0x3a172016	0.0005764974
23	0xbf8f4809	-1.1193858
24	0xbf5f63f3	-0.87261885
25	0xbe707768	-0.2348305
26	0x3e9b8061	0.30371383
27	0xbec396cd	-0.3820099
28	0xbe3d8c35	-0.18510516
29	0x3e2348fa	0.15945807
30	0x3ddd3acb	0.108022295
31	0x3d53742b	0.05162446
32	0xbeddd54d	-0.43326798
33	0x3e053584	0.13008696
34	0x3d385797	0.045005407
35	0x3eaa83df	0.33303735
36	0xbe3a5eaf	-0.18200181
37	0x3f10130e	0.56279075
38	0x3f00357c	0.5008161
39	0x3ebf0b83	0.3731347
40	0xbebb1169	-0.3653672
41	0xbf760d21	-0.96113783
42	0xbf974277	-1.1817158
43	0x3eebab81	0.46029285
44	0x3f16e770	0.58946896
45	0xbd2fd5e6	-0.0429286
46	0xbf4a7c76	-0.7909616
47	0x3f3a969c	0.7288606
48	0x3d9e78a5	0.07737855
49	0x3e753649	0.2394649
50	0xbf1a3b49	-0.6024671
51	0x3ece12f9	0.4024885
52	0x3da058ab	0.07829412
53	0xbdcf8f80	-0.10134792
54	0xbf6edcfb	-0.9330594
55	0x3d86ef5d	0.06588624
56	0xbeb6320a	-0.35585052
57	0x3f1af8c2	0.60535824
58	0x3b8db870	0.004324965
59	0xbf03798c	-0.5135734
60	0xbe54efd9	-0.2079462
61	0x3ef218a9	0.4728444
62	0xbed02d4f	-0.40659568
63	0xbeb2359f	-0.34806535
64	0x3e9f0cec	0.31064546
65	0xbdfbb4cf	-0.12290346
66	0x3f25cd7c	0.6476667
67	0x3f0dacec	0.5534198
68	0x3f4b380b	0.7938239
69	0x3eafc8d8	0.3433292
70	0xbe056f2f	-0.13030694
71	0x3df810fa	0.12112613
72	0xbf3e2ea8	-0.7428994
73	0xbc1ab521	-0.009442599
74	0xbd85b0da	-0.065278724
75	0xbf03b909	-0.51454216
76	0x3f3d79bb	0.7401387
77	0x3dcbac8d	0.09945021
78	0x3e8ca4c0	0.27469444
79	0x3e8c1cfd	0.27365866
80	0xbcfa424c	-0.030549191
81	0xbfbe9167	-1.4888123
82	0x3eadc43e	0.33938783
83	0xbf09fca8	-0.5390115
84	0xbf11edf1	-0.57003695
85	0xbefe7438	-0.49698043
86	0xbe953fe9	-0.29150322
87	0x3eda3415	0.4261786
88	0x3ee1ba0b	0.44087252
89	0xbed7e054	-0.42163336
90	0xbd3d5738	-0.046225756
91	0xbf2e1d7b	-0.68013734
92	0xbf28df24	-0.65965486
93	0xbf185e73	-0.5951912
94	0xbd7fdf7b	-0.062468987
95	0xbe00a752	-0.12563828
96	0xbec5606c	-0.38550127
97	0xbec9fc09	-0.394501
98	0xbceba3c9	-0.028764622
99	0xbdf924c4	-0.121652156
100	0x3ca3882a	0.019962389
101	0xbdf8ae9e	-0.121426806
102	0x3c586fe4	0.013210271
103	0x3edc110d	0.4298176
104	0xbf3171e9	-0.6931444
105	0xbf4c3a28	-0.7977624
106	0x3e367388	0.17817509
107	0xbf0a8044	-0.5410197
108	0x3ece3ec9	0.40282276
109	0x3db062fd	0.086126305
110	0x3dc79b6c	0.09746441
111	0xbc3753c0	-0.011189401
112	0xbf04bc08	-0.5184941
113	0x3dc2695b	0.09492751
114	0x3e63a9f1	0.22232796
115	0x3e8a01b9	0.2695444
116	0x3eebd39c	0.46059883
117	0x3cfb907a	0.03070854
118	0xbe905654	-0.28190863
119	0x3e48357c	0.19551653
120	0xbf5022ca	-0.81303084
121	0xbe247588	-0.1606046
122	0xbf0c4aff	-0.54801935
123	0xbeec11a0	-0.46107197
124	0xbe863322	-0.26210886
125	0x3f75afd6	0.9597143
126	0x3edd1242	0.43177992
127	0xbecb6a2e	-0.39729446
128	0x3e66d072	0.22540453
129	0x3cd82dc0	0.026389003
130	0xbf42e034	-0.76123357
131	0x3e493159	0.19647731
132	0x3eb544bc	0.35404003
133	0xbf991c59	-1.1961776
134	0x3e831540	0.2560215
135	0xbdc9846b	-0.0983971
136	0x3df158e7	0.11784535
137	0xbef1e8e7	-0.47248003
138	0x3bd0f211	0.006376513
139	0xbf4bafee	-0.7956532
140	0x3d9c8dc3	0.076442264
141	0x3e8f7bef	0.2802424
142	0x3e082f88	0.13299382
143	0xbdb2fba9	-0.087394066
144	0x3ebce442	0.36892897
145	0xbee8b9b4	-0.4545418
146	0x3de34a6c	0.11098179
147	0xbedb033e	-0.4277591
148	0x3d4423ff	0.04788589
149	0x3e1aeef3	0.15130214
150	0xbddf403a	-0.10900922
151	0x3e4c715c	0.19965118
152	0xbf26379f	-0.6492862
153	0xc04e96f5	-3.2279637
154	0x3e742109	0.23840727
155	0xbeec12fc	-0.46108234
156	0x3f4a44a1	0.7901097
157	0x3eb29742	0.34881026
158	0x3e283be0	0.1642909
159	0x3e9891b0	0.2979865
160	0xbf139c08	-0.5765996
161	0xbf60021b	-0.8750321
162	0xbefd4d1a	-0.49472886
163	0xbec36e19	-0.38169935
164	0xbf12325d	-0.571081
165	0x3eaa8298	0.3330276
166	0x3f57f070	0.84351254
167	0xbc1d1d3c	-0.00958949
168	0xbe9d5ffb	-0.3073729
169	0xbf1c38c8	-0.6102414
170	0xbeb6e342	-0.3572026
171	0xbf031931	-0.51210314
172	0x3dbf750e	0.09348498
173	0x3b353111	0.0027647654
174	0x3cb7dfc3	0.022445565
175	0xbdabe333	-0.08392944
176	0x3f0ee281	0.5581437
177	0xbec6284d	-0.38702622
178	0xbe5fc12f	-0.21851037
179	0x3defb840	0.11705065
180	0x3e808669	0.25102547
181	0xbd74e310	-0.059786856
182	0x3e175909	0.14780058
183	0xbe40454a	-0.18776432
184	0x3d7ee371	0.062228624
185	0xbf246b1a	-0.64225924
186	0xbeb28bfd	-0.34872428
187	0xbf4a93cc	-0.7913177
188	0x3f749997	0.9554686
189	0x3e1eb9b9	0.15500535
190	0xbf4c759d	-0.79866964
191	0xbf595119	-0.8488937
192	0x3e4c4679	0.19948758
193	0x3eb0f492	0.34561592
194	0xbf295d3d	-0.66157895
195	0xbe645afe	-0.22300336
196	0xbf38bd9d	-0.72164327
197	0xbe0121f8	-0.12610614
198	0xbe1fa292	-0.1558936
199	0x3ee40251	0.44533017
200	0x3ea9c201	0.33155826
201	0xbebc9c0a	-0.36837798
202	0x3ec442b9	0.38332155
203	0x3e49f880	0.19723701
204	0xbe172484	-0.14760023
205	0xbebcc02a	-0.3686536
206	0x3efb9edf	0.49144647
207	0xbdf02628	-0.11726028
208	0xbe62072d	-0.2207305
209	0xbed959ac	-0.42451227
210	0xbe3f9538	-0.18709266
211	0xbdea5f7a	-0.11443992
212	0x3f0fe073	0.5620186
213	0xbd0006fd	-0.031256665
214	0x3e3b14db	0.18269674
215	0x3eadd398	0.33950496
216	0x3d2b118b	0.041764777
217	0xbf262a1a	-0.6490799
218	0xbdb4af0b	-0.08822449
219	0xbf592263	-0.84818095
220	0x3d983fdd	0.07434056
221	0x3dfafe29	0.122555085
222	0x3e0ba2e8	0.13636363
223	0xbe2aab6d	-0.16666956
224	0x3f120c7a	0.5705029
225	0xbf9d9f1a	-1.2314179
226	0xbd6dccb3	-0.058056545
227	0xbf17f21a	-0.5935379
228	0xbf33efb9	-0.7028766
229	0x3d7d7223	0.061876427
230	0xbebe6c27	-0.3719189
231	0x3e11c700	0.14236069
232	0x3d86903a	0.06570478
233	0x3e8bf6d9	0.27336767
234	0x3e64f0e9	0.22357525
235	0x3ed6cb71	0.41952088
236	0xbf450e49	-0.7697492
237	0xbf8b5c33	-1.0887512
238	0xbca3690a	-0.019947547
239	0x3f2b6ebe	0.66965854
240	0xbd7d9a5d	-0.06191479
241	0xbf34782a	-0.70495856
242	0xbea5cf09	-0.32384518
243	0x3f6e96a3	0.93198603
244	0x3e3d3b30	0.1847961
245	0x3e8978fc	0.26850116
246	0x3f1f39e1	0.6219769
247	0xbeec687b	-0.46173462
248	0x3e204bbe	0.15653893
249	0xbf35646f	-0.70856375
250	0xbea9c539	-0.3315828
251	0xbf0757b6	-0.5286821
252	0xbeeb439d	-0.45950022
253	0x3e648d1d	0.22319455
254	0x3f081bf2	0.5316764
255	0xbf0a4c7d	-0.5402296

fc1.bias f4 [256]
0	0x3da73987	0.08165269
1	0x3eb90fa2	0.3614474
2	0xbeffcc25	-0.49960437
3	0xbd7d631a	-0.06186209
4	0xbe8556d1	-0.26042798
5	0x3c46cb93	0.012133497
6	0x3ef838f0	0.4848094
7	0x3edd49b0	0.43220282
8	0xbe8a77c6	-0.27044505
9	0xbe44f957	-0.1923574
10	0xbef07e69	-0.46971443
11	0xbdd90d16	-0.10598199
12	0x3efc5ccd	0.4928955
13	0xbcbb531b	-0.022866776
14	0x3eeecce3	0.4664069
15	0xbf15a434	-0.5845368
16	0xbe9d4eb3	-0.30724105
17	0xbe6fa22a	-0.23401704
18	0x3e15882a	0.14602724
19	0xbe27ae80	-0.1637516
20	0xbecb1e75	-0.39671674
21	0x3f070d3a	0.5275456
22	0xbe5efe06	-0.2177659
23	0x3c8c1324	0.01709897
24	0xbdc5cd37	-0.09658282
25	0xbd03f585	-0.032216568
26	0x3e851565	0.25992885
27	0x3b980db8	0.0046403073
28	0xbe84aa4c	-0.25911176
29	0x3d133d0a	0.035946883
30	0xbe9b9444	-0.30386555
31	0x3d80906f	0.062775485
32	0xbd3a97e6	-0.045555018
33	0xbdba03ee	-0.09082781
34	0x3d84308a	0.064545706
35	0xbd0955e4	-0.033529177
36	0x3e763f5f	0.24047612
37	0xbc2cced0	-0.010547355
38	0x3ea6e81d	0.32598963
39	0xbde98f9c	-0.114043444
40	0xbe855a0b	-0.2604526
41	0xbc5ade75	-0.013358702
42	0xbee96bd7	-0.45590088
43	0x3e2d9d2a	0.16954485
44	0x3e18f529	0.14937271
45	0x3d4b9e76	0.049711667
46	0xbeebca72	-0.4605289
47	0x3d835c26	0.0641406
48	0xbdbff3d5	-0.09372679
49	0x3ea9e9a6	0.33186072
50	0x3ed880de	0.42285818
51	0xbe01c9f7	-0.126747
52	0x3ef8f1b9	0.4862192
53	0xbe27b3c7	-0.16377173
54	0x3c45b543	0.012067142
55	0x3eb66092	0.35620552
56	0xbdc0b768	-0.09409982
57	0xbee80b76	-0.45321244
58	0xbe486cbe	-0.19572732
59	0xbd41e6bd	-0.04733919
60	0xbaa96beb	-0.0012925839
61	0xbe0110bd	-0.12604041
62	0x3f02fcec	0.5116718
63	0xbc9fab05	-0.019490728
64	0xbe3c1fc5	-0.18371494
65	0x3edef0c7	0.43543074
66	0x3d64c87f	0.05585527
67	0xbf262960	-0.64906883
68	0xbd045f24	-0.032317296
69	0xbe901bad	-0.28146115
70	0x3ecfe235	0.4060227
71	0x3d16be8b	0.03680281
72	0x3dcea849	0.100906916
73	0x3ee3ff73	0.4453083
74	0x3d8c178d	0.068404295
75	0x3e6d4eec	0.23174638
76	0xbd090051	-0.033447567
77	0xbd0786f0	-0.03308767
78	0xbe7ac539	-0.24489297
79	0xbe137b17	-0.14402424
80	0x3dfc4bcb	0.12319144
81	0xbe735043	-0.23761086
82	0xbc59cc37	-0.0132933175
83	0xbea33580	-0.31876755
84	0xbf461ed2	-0.7739078
85	0xbdae3267	-0.08505707
86	0xbd9a3ceb	-0.075311504
87	0x3edfcb3e	0.4370975
88	0x3db2f0b1	0.087373145
89	0x3f1cdb52	0.61272156
90	0xbf225747	-0.63414425
91	0xbe1310d2	-0.14361885
92	0xbdd8d2dc	-0.10587093
93	0x3bb3d048	0.0054874755
94	0xbb63876f	-0.0034718176
95	0x3eda0641	0.42582896
96	0xbdc2cc33	-0.09511604
97	0xbee12a3b	-0.43977532
98	0xbe1a94ef	-0.15095876
99	0x3e5659e1	0.20932724
100	0x3e01ea69	0.12687077
101	0xbf5d9a32	-0.8656341
102	0xbb5cbf63	-0.0033683411
103	0x3d9fa010	0.077942014
104	0x3d416ab0	0.047220886
105	0x3e837bd5	0.25680414
106	0x3f0b28a7	0.54358906
107	0x3e46693f	0.19376086
108	0x3c3893a8	0.011265673
109	0x3e56ca4d	0.20975609
110	0x3d24f22e	0.040270023
111	0x3f124105	0.5713046
112	0x3d91a86e	0.071122035
113	0xbeeed6ba	-0.46648198
114	0x3c038f1e	0.008029727
115	0xbe511c52	-0.2042096
116	0xbd48edb2	-0.04905481
117	0x3e918c3d	0.28427306
118	0x3e96fc44	0.29489338
119	0xbebfea5a	-0.37483484
120	0xbba8138a	-0.0051292824
121	0xbbfdcafd	-0.0077451454
122	0xbcf88b2f	-0.030339805
123	0x3f0e4228	0.55569696
124	0xbc349b02	-0.011023285
125	0xbed29122	-0.41126353
126	0xbe5f26d1	-0.21792151
127	0xbcad5ffb	-0.021163931
128	0x3e9d71f9	0.30751017
129	0x3e422e7b	0.18963043
130	0x3e456d99	0.1928009
131	0x3a617c77	0.00086016156
132	0xbed72494	-0.42020094
133	0x3b5c1f2d	0.0033587918
134	0xbecaead2	-0.3963228
135	0xbedd5da6	-0.4323551
136	0xbedb2571	-0.42802003
137	0xbeae999a	-0.34101564
138	0x3f144468	0.5791688
139	0x3d3778c8	0.04479292
140	0xbe645299	-0.22297134
141	0xbe82a38a	-0.25515395
142	0x3ebbd0bf	0.36682698
143	0x3e516b00	0.20450974
144	0x3eeda7bf	0.46417043
145	0xbec665ad	-0.38749447
146	0xbe14fc2a	-0.14549318
147	0x3e2ef275	0.17084678
148	0xbe7531e4	-0.23944813
149	0x3bb4eac4	0.0055211503
150	0xbf18bb7a	-0.59661067
151	0xbeeaf650	-0.45891047
152	0xbcd6104a	-0.026130814
153	0xbedec835	-0.4351212
154	0xbe58dab0	-0.21177173
155	0xbf04dc5d	-0.5189875
156	0x3d27f45f	0.041004535
157	0xbe198adc	-0.14994377
158	0x3c9683da	0.018373419
159	0xbd43ea2f	-0.047830757
160	0xbeeb9c62	-0.46017748
161	0x3c06bbe4	0.008223508
162	0x3ea471b1	0.3211799
163	0x3efa06c9	0.48833302
164	0x3ec823ec	0.39089906
165	0x3d3564eb	0.044285696
166	0xbbf684c6	-0.007523152
167	0x3e84b6aa	0.25920612
168	0xbe53869f	-0.20656823
169	0x3ede620a	0.43434173
170	0xbe093967	-0.13400804
171	0xbe8e5751	-0.27800992
172	0x3d9892d4	0.0744988
173	0xbe3972e4	-0.18110234
174	0x3e396198	0.18103635
175	0x3d5dab5a	0.05411849
176	0x3dd9a473	0.10627069
177	0x3ed74bac	0.4204992
178	0x3eeb6d6a	0.45981914
179	0xbdb5843c	-0.08863112
180	0xbda34a1f	-0.07973122
181	0xbd4e8819	-0.05042276
182	0x3e2b09b7	0.16702925
183	0x3c141707	0.009038693
184	0x3eb6508d	0.3560833
185	0xbec70eac	-0.3887838
186	0x3d3b19be	0.045678847
187	0xbe158663	-0.14602046
188	0xbe9a60c0	-0.3015194
189	0x3ee045c3	0.43803224
190	0xbdff87e0	-0.12477088
191	0xbe4954e9	-0.19661297
192	0xbd3c87ea	-0.046028055
193	0x3eecf123	0.46277723
194	0x3d88dce7	0.06682759
195	0xbd5b5cde	-0.053555362
196	0xbefccbe5	-0.4937431
197	0x3d857fc4	0.0651851
198	0x3e668942	0.22513297
199	0xbe464c84	-0.19365126
200	0xbed72927	-0.42023584
201	0xbe7c69f8	-0.24649799
202	0x3edada61	0.42744735
203	0xbe5c40a1	-0.21509029
204	0x3e4f1c68	0.2022568
205	0xbda612dd	-0.08109067
206	0x3eb1a5a9	0.346967
207	0xbee433e9	-0.44570854
208	0x3b80ce4c	0.0039308425
209	0x3e4651d0	0.19367146
210	0xbddd4ba4	-0.10805443
211	0xbba81723	-0.0051297112
212	0xbdff132d	-0.12454829
213	0xbef2f487	-0.47452185
214	0xbf024f5f	-0.5090236
215	0xbed61595	-0.4181334
216	0xbeb76242	-0.35817152
217	0x3e72dea3	0.23717742
218	0x3c1df4ab	0.009640853
219	0xbf1940d3	-0.5986454
220	0x3c979add	0.018506462
221	0x3ee81eec	0.45336092
222	0xbd89c5ed	-0.067272045
223	0xbed3e676	-0.41386765
224	0xbe1b196d	-0.15146418
225	0xbdd9a587	-0.10627275
226	0x3e041080	0.12896919
227	0x3dd93683	0.106061004
228	0xbdccb6d3	-0.099958085
229	0x3eead6ed	0.458671
230	0xbc1b49b2	-0.00947802
231	0xbec4fe01	-0.3847504
232	0xbdb4ab28	-0.08821708
233	0xbdc245f0	-0.09485996
234	0xbe3dec79	-0.18547238
235	0xbed154b6	-0.40884942
236	0xbdc98f98	-0.098418415
237	0x3d22379c	0.039603814
238	0xbd43f01b	-0.047836404
239	0xbe00240d	-0.12513752
240	0x3eb7b31e	0.35878843
241	0xbec6d96e	-0.3883776
242	0xbdd8bf0d	-0.10583315
243	0x3f39658e	0.72420585
244	0xbe166b26	-0.14689311
245	0x3e363d65	0.17796858
246	0x3df9e5c8	0.122020304
247	0xbf019597	-0.5061888
248	0xbde41412	-0.111366406
249	0xbc0ba83b	-0.008523996
250	0xbdbca7da	-0.09211703
251	0xbe88206c	-0.26587236
252	0xbf0a6192	-0.5405513
253	0xbe80b871	-0.25140718
254	0x3f002950	0.5006304
255	0x3edd4929	0.4321988

fc2.weight f4 [128, 256]
0	0x3f350c62	0.7072202
1	0x3c80716e	0.015679087
2	0xbdb56fa6	-0.08859186
3	0x3dff5365	0.12467078
4	0x3def972e	0.11698757
5	0xbeed8355	-0.4638926
6	0xbe78f838	-0.24313438
7	0xbe5d4fe6	-0.2161251
8	0x3f74bbd8	0.95599127
9	0x3d8f2e3e	0.06991242
10	0xbecd3b1b	-0.40084156
11	0xbd3341f1	-0.04376406
12	0x3d13bf76	0.036071263
13	0x3d982e41	0.07430697
14	0xbe13361e	-0.14376113
15	0x3f3d1af8	0.73869276
16	0x3f42ad8d	0.7604607
17	0x3dbfc931	0.09364546
18	0xbe347ab1	-0.17624928
19	0x3f518aba	0.81852305
20	0xbd960ae7	-0.07326298
21	0xbdb80a93	-0.08986392
22	0x3eac78be	0.3368587
23	0xbef66b5e	-0.4812879
24	0xbd2e834f	-0.042605694
25	0x3e125fdc	0.1429438
26	0x3d737db6	0.05944606
27	0xbeae4a8e	-0.34041256
28	0x39c8a12d	0.00038267058
29	0x3e22de74	0.15905172
30	0x3eb6e1e8	0.35719228
31	0xbeb0938b	-0.34487566
32	0x3e40ffb1	0.18847539
33	0x3e8a814e	0.27051777
34	0xbe8400d8	-0.25781894
35	0x3e24b079	0.16082944
36	0x3c9d598d	0.01920774
37	0xbdf02fd7	-0.11727875
38	0xbdc070b3	-0.09396496
39	0xbc7103d9	-0.01471039
40	0x3ebabf43	0.36474046
41	0xbe8ed614	-0.27897704
42	0x3f25c528	0.6475396
43	0xbc77ea8c	-0.015131604
44	0xbcd555e1	-0.026041927
45	0x3da0d6f7	0.07853501
46	0xbe02adce	-0.12761614
47	0xbe90e15b	-0.28296933
48	0xbd455a38	-0.048181742
49	0x3e3eb1a1	0.18622448
50	0x3ccd4242	0.025056008
51	0x3de5c9e1	0.11220146
52	0xbe78d017	-0.2429813
53	0x3d3dace1	0.04630745
54	0xbe924d40	-0.28574562
55	0xbf367a97	-0.7128081
56	0x3e1523d1	0.14564444
57	0xbf2abde7	-0.6669602
58	0xbd5aa71e	-0.05338203
59	0xbd21832b	-0.039431732
60	0xbf46132d	-0.7737301
61	0x3e847625	0.25871387
62	0x3f32bf97	0.6982359
63	0xbf895d0a	-1.0731518
64	0xbc38b75a	-0.011274183
65	0xbca45c76	-0.02006362
66	0xbb32b9e1	-0.0027271437
67	0xbedff26b	-0.43739638
68	0x3df75caf	0.12078225
69	0xbf03f8c5	-0.5155147
70	0x3e08f849	0.13375963
71	0xbc25289c	-0.010080483
72	0x3de0008c	0.10937604
73	0x3e7d3f87	0.24731265
74	0xbb27d624	-0.0025609815
75	0x3e90e023	0.28296003
76	0xbd1a3b84	-0.037654415
77	0xbe78ccd2	-0.24296883
78	0xbe6de4fd	-0.23231883
79	0xbdc0f450	-0.09421599
80	0xbeb47b2c	-0.35250223
81	0x3ed77b39	0.420862
82	0xbe1b6fa4	-0.15179306
83	0xbea6ca3f	-0.32576177
84	0x3dc2691c	0.09492704
85	0x3ea0d549	0.31412724
86	0x3d2611bf	0.040544268
87	0x3c9d78ea	0.019222695
88	0x3b194129	0.0023384786
89	0x3e19f8bb	0.1503629
90	0xbf12d037	-0.5734896
91	0xbe146679	-0.14492215
92	0x3ec3c200	0.38233948
93	0xbf93b7ae	-1.154043
94	0xbdbaa275	-0.091130175
95	0xbf0bf856	-0.54675806
96	0x3e8c8307	0.27443716
97	0xbf921233	-1.1411804
98	0x3e23afda	0.15985051
99	0xbe80d5f4	-0.25163233
100	0x3e0f6be1	0.14005996
101	0xbea68fde	-0.32531637
102	0xbf0de2e5	-0.5542434
103	0x3c7725a8	0.015084662
104	0xbf1d81db	-0.6152627
105	0x3ef55aca	0.4792083
106	0x3e823af6	0.2543561
107	0xbe5963d2	-0.21229485
108	0xbdabc073	-0.08386316
109	0x3dedac04	0.11605075
110	0xbd832e6b	-0.06405338
111	0x3eaa1632	0.3322006
112	0xbdf94058	-0.12170476
113	0x3ef4f17d	0.4784049
114	0x3cb56d9f	0.022146998
115	0xb980030f	-0.0002441634
116	0x3ee0fb49	0.43941715
117	0xbde3273f	-0.1109147
118	0xbd5e2030	-0.054229915
119	0x3eb48cc4	0.35263646
120	0x3e0eee50	0.13958097
121	0xbf65701d	-0.89624196
122	0x3e0922ff	0.13392256
123	0x3c426545	0.011864965
124	0xbd508072	-0.050903745
125	0xbe8ebd44	-0.27878773
126	0x3ecaf809	0.3964236
127	0xbd967d35	-0.073481
128	0x3dfbacdc	0.1228883
129	0xbe445060	-0.19171286
130	0x3e68aaa1	0.2272134
131	0xbe94c2de	-0.29054922
132	0x3e1597aa	0.14608636
133	0xbfb5abf9	-1.4193107
134	0x3eadb7b0	0.33929205
135	0xbe007961	-0.12546302
136	0x3e749045	0.2388316
137	0x3c82ee64	0.015982814
138	0xbeb774e9	-0.35831383
139	0xbe337981	-0.17526819
140	0x3e5af177	0.21381174
141	0xbdbbfddf	-0.091792814
142	0x3e92cede	0.28673452
143	0x3d241753	0.040061306
144	0xbdc12bc4	-0.09432176
145	0x3f35a631	0.7095671
146	0x3e71fb9e	0.2363114
147	0x3dc4554d	0.09586582
148	0x3e04b15f	0.12958287
149	0x3eb48768	0.35259557
150	0x3f9068d3	1.128199
151	0xbef54ca8	-0.47910047
152	0x3e9287ca	0.28619224
153	0xbecc2cf3	-0.39878044
154	0x3e4fff64	0.20312268
155	0xbf4019d0	-0.75039387
156	0x3e22a8f0	0.15884757
157	0x3e9ca727	0.30596277
158	0x3f052b8c	0.5201957
159	0x3ca2643e	0.01982319
160	0x3f90ee59	1.1322738
161	0x3df056db	0.11735316
162	0xbab693da	-0.0013929561
163	0x3e05100b	0.12994401
164	0xbebf02a6	-0.37306708
165	0x3e836c04	0.25668347
166	0x3ce28f65	0.027656266
167	0xbdf1bc9c	-0.118035525
168	0x3d6ce4d3	0.05783541
169	0x3e04e868	0.12979281
170	0xbeb2a313	-0.3489004
171	0x3efa2331	0.48854974
172	0xbdda91e7	-0.1067236
173	0xbe889337	-0.26674816
174	0x3d82d15e	0.0638759
175	0x3f81ef74	1.01512
176	0xbe4a7ddf	-0.19774579
177	0x3dabc89a	0.08387871
178	0x3d39ba16	0.04534348
179	0xbe58c737	-0.21169744
180	0xbc429144	-0.011875454
181	0x3ed509f6	0.41609162
182	0x3e8135d8	0.25236392
183	0xbef505a0	-0.47855854
184	0x3d9831bb	0.0743136
185	0x3e2979d5	0.16550381
186	0xbf21d635	-0.6321748
187	0x3edaa754	0.42705786
188	0xbf8e9f8e	-1.1142442
189	0x3e88b3b4	0.26699603
190	0xbda4e029	-0.08050568
191	0xbf022bd3	-0.5084812
192	0xbe87cc7f	-0.26523206
193	0x3e216082	0.15759471
194	0x3ea7394f	0.3266091
195	0x3e200484	0.15626723
196	0xbf86fd47	-1.0546044
197	0xbe11bc69	-0.14232029
198	0xbebad79d	-0.36492625
199	0x3d400823	0.04688276
200	0x3f66930f	0.90068144
201	0xbed10a5b	-0.40828213
202	0xbe35b3ba	-0.17744341
203	0x3e6107a4	0.21975571
204	0x3f007753	0.50182074
205	0x3e491c21	0.19639637
206	0x3f60aa54	0.877599
207	0x3f1146c9	0.56748635
208	0x3de7d153	0.11319222
209	0x3ea36c3e	0.3191852
210	0x3e1b7f36	0.15185246
211	0x3b3de98f	0.0028978323
212	0x3e88840b	0.2666324
213	0x3f4483fc	0.7676389
214	0xbd5e8191	-0.054322783
215	0x3f7a3374	0.9773476
216	0xbf682403	-0.9067995
217	0xbe2e1ca2	-0.1700311
218	0xbe777cba	-0.24168673
219	0xbd77af97	-0.06047019
220	0x3cc97154	0.024590172
221	0x3dc4d075	0.096100725
222	0x3e5513c2	0.20808318
223	0x3e87ffe4	0.26562417
224	0x3e6aae67	0.22918092
225	0x3e6a26d3	0.22866373
226	0xbe38e310	-0.18055367
227	0x3e5d71fe	0.21625516
228	0x3d989b4f	0.07451498
229	0xbd4500dd	-0.048096526
230	0xbd62c8be	-0.055367224
231	0xbf343692	-0.7039577
232	0xbdbab04b	-0.091156565
233	0xbdad4ca7	-0.08461886
234	0xbde77767	-0.11302071
235	0x3e5b93a1	0.21443035
236	0x3c297a4f	0.010344102
237	0xbf8751e7	-1.057187
238	0xbeb7e1f8	-0.35914588
239	0x3ed094d7	0.40738556
240	0xbad7ab42	-0.0016454237
241	0xbeb42265	-0.3518249
242	0x3dacdb56	0.084402725
243	0x3f0f5991	0.5599604
244	0xbea458cf	-0.32099006
245	0xbcadc293	-0.021210944
246	0xbd4e4fbf	-0.05036902
247	0xbf29c3bc	-0.6631429
248	0x3d3c9667	0.046041872
249	0xbe962a6c	-0.2932924
250	0x3d97ab2e	0.07405697
251	0x3f5f8f45	0.87327987
252	0x3f936af2	1.1517012
253	0xbf84cd03	-1.0375065
254	0x3dc810f5	0.09768859
255	0x3d66b2a9	0.056322727

fc2.bias f4 [128]
0	0xbd25fda5	-0.040525097
1	0xbd00c261	-0.031435374
2	0x3e85beae	0.2612204
3	0xbb560678	-0.0032657664
4	0xbc893b7c	-0.016751997
5	0xbc9a668d	-0.018847728
6	0xbf11be66	-0.5693115
7	0xbd289b83	-0.041163933
8	0xbe134f67	-0.14385758
9	0x3ba57a1c	0.005049957
10	0xbdad36a6	-0.08457689
11	0xbd66f663	-0.056387316
12	0xbc35d0da	-0.011097157
13	0x3d9e0fd4	0.07717863
14	0x3e24fac7	0.16111289
15	0x3b9fee7e	0.0048807254
16	0xbced2d86	-0.028952371
17	0xbd062d04	-0.032757774
18	0x3df0a98c	0.117510885
19	0x3dd4bdf5	0.10387794
20	0x3c304efd	0.01076102
21	0x3d96dec1	0.07366706
22	0xbd68d8ef	-0.05684751
23	0xbcfd34e7	-0.030909015
24	0x3d0c8015	0.034301836
25	0x3928a664	0.00016083714
26	0xbd7e7680	-0.06212473
27	0xbcc897aa	-0.024486382
28	0xbd7e5aab	-0.062098186
29	0x3e16d5ef	0.14730047
30	0xbc93aca2	-0.018026654
31	0x3cbf4717	0.023349328
32	0x3ea3b12e	0.31971115
33	0xbcea8914	-0.028629817
34	0x3eacd700	0.33757782
35	0xbd6a2c23	-0.057171
36	0x3e6f32c6	0.23359212
37	0xbc912bb0	-0.017721027
38	0x3ce9439e	0.028474625
39	0xbdc391ce	-0.095492944
40	0xbe4dfeb2	-0.2011669
41	0xbd1feea3	-0.03904594
42	0xbe341aa5	-0.17588289
43	0xbd7106cd	-0.058844376
44	0xbd9cd39c	-0.07657549
45	0x3d81babc	0.06334445
46	0xbc81a6e2	-0.015826646
47	0xbd932bbe	-0.071860775
48	0xbe4c971e	-0.19979522
49	0xbcd283ce	-0.025697615
50	0xbddb4137	-0.10705798
51	0x3b619bf6	0.0034425235
52	0xbd9b7581	-0.075907715
53	0x3e600d50	0.21880078
54	0x3bea631b	0.0071529276
55	0x3dd82819	0.10554523
56	0xbd9a4278	-0.07532209
57	0x3c88961e	0.016673144
58	0xbd16ae36	-0.036787234
59	0x3e2e07c8	0.16995156
60	0x3d6412bf	0.05568194
61	0x3d1b37c6	0.037894987
62	0xbd46db87	-0.0485492
63	0xbca1c440	-0.0197469
64	0x3e78e66a	0.24306646
65	0xbe840404	-0.25784314
66	0x3aebb026	0.0017981573
67	0xbe639b79	-0.22227277
68	0x3e4f4498	0.2024101
69	0xbed60983	-0.41804132
70	0xbd17a314	-0.037020758
71	0x3c5860b3	0.013206649
72	0x3cc9a137	0.024613006
73	0x3e1f3fb0	0.15551639
74	0xbdb2b513	-0.087259434
75	0x3c97e0e0	0.018539846
76	0x3c852707	0.016253961
77	0x3c4a3dde	0.012343852
78	0xbd694ec0	-0.056959867
79	0xbd9a840f	-0.075447194
80	0x3c10e4e1	0.0088436315
81	0xbd8351e8	-0.06412107
82	0xbd84147f	-0.06449222
83	0xbe2732d0	-0.16327977
84	0x3e20c2b5	0.15699275
85	0x3e26c0cc	0.16284484
86	0xbde5a3a8	-0.112128556
87	0x3d3c0aa6	0.045908593
88	0x3dcec86a	0.1009682
89	0x3c8ff031	0.017570587
90	0xbd0671f9	-0.032823537
91	0xbcf1f08d	-0.029533649
92	0xbe01ee8d	-0.12688656
93	0xbd2c7d48	-0.042111665
94	0xbcc8f68d	-0.024531627
95	0xbd8f9d3c	-0.07012412
96	0xbe82f1af	-0.25575015
97	0x3c8b01ff	0.016968725
98	0x3a93a800	0.0011265278
99	0x3e1b4967	0.1516472
100	0xbda218c1	-0.07914878
101	0x3c82c70e	0.015964057
102	0xbe13b24a	-0.1442348
103	0x3e99163a	0.2989977
104	0x3c9f530f	0.019448785
105	0xbd0fb85d	-0.035087932
106	0x3c37e468	0.01122389
107	0xbd401a48	-0.046900064
108	0x3e9d1a34	0.30684054
109	0x3c4264a5	0.011864816
110	0xbd1e32fb	-0.038622838
111	0xbd4dde1c	-0.050260648
112	0xbe9f1a53	-0.3107477
113	0xbe141433	-0.1446083
114	0xbd7f6811	-0.062355105
115	0xbec467f2	-0.38360554
116	0x3ce0441f	0.027376233
117	0x3e8bc377	0.27297565
118	0xbcea16c5	-0.02857531
119	0xbc50824b	-0.012726377
120	0xbd4ff75a	-0.050773002
121	0x3e883d6b	0.26609358
122	0x3ec91335	0.39272466
123	0xbdbe096c	-0.09279141
124	0xbc4e0741	-0.012574972
125	0xbc98fc01	-0.018674852
126	0xbc561e92	-0.013068812
127	0xbf0c18c0	-0.54725266

fc3.weight f4 [4, 128]
0	0xbe1dece2	-0.15422395
1	0x3d9fcabd	0.07802341
2	0xbf1fb508	-0.62385607
3	0xbe8c4638	-0.27397323
4	0xbea06860	-0.31329632
5	0x3e9d186e	0.306827
6	0x3f937463	1.1519893
7	0x3d189216	0.037248693
8	0xbf485ca1	-0.7826634
9	0x3c3487f4	0.011018742
10	0xbeac1041	-0.3360615
11	0x3c185c25	0.009299313
12	0xbe697bdf	-0.2280116
13	0xbf5ed953	-0.8705036
14	0x3fa938d3	1.3220466
15	0xbe96baa7	-0.2943928
16	0x3da29623	0.079387926
17	0xbd533480	-0.05156374
18	0xbeba9f26	-0.36449546
19	0xbee50921	-0.44733527
20	0xbe6a24e8	-0.22865641
21	0xbec6b5cf	-0.38810584
22	0xbc46bb23	-0.012129578
23	0x3d998b18	0.07497233
24	0x3bd8633f	0.006603628
25	0xbe5a26c9	-0.21303858
26	0xbf834095	-1.0254084
27	0xbca47a86	-0.020077955
28	0xbf9a4c4b	-1.2054533
29	0x3e9fbcc6	0.3119871
30	0x3fd41858	1.6569929
31	0xbd46d79a	-0.048545457
32	0xbec653f6	-0.38735932
33	0x3d8271b9	0.06369347
34	0xbd3dfbcd	-0.046382714
35	0xbee1c95e	-0.44098943
36	0xbf01440a	-0.50494444
37	0xbe551ed2	-0.20812538
38	0x3d2f2bbf	0.04276633
39	0x3fa3a415	1.2784449
40	0x3fc0efca	1.5073178
41	0x3fc690e5	1.5512968
42	0xbf4f0e62	-0.8088132
43	0x3d7b3702	0.061331756
44	0xbcdc0e9f	-0.02686244
45	0xbe7a17a7	-0.24423085
46	0x3cbb338e	0.022851732
47	0x3d9e9cda	0.07744761
48	0x3ed21a0c	0.41035497
49	0xbe9e6d5e	-0.30942816
50	0xbe8afcae	-0.27145904
51	0xbe8a593c	-0.27021205
52	0x3d171f6a	0.036895193
53	0xbe3c9e40	-0.18419743
54	0x3d855196	0.06509702
55	0xbe180050	-0.14843869
56	0x3d9311de	0.07181142
57	0xbf9567f0	-1.1672344
58	0xbf16bdd4	-0.58883405
59	0xbf467bf2	-0.77532876
60	0xbe3eec73	-0.18644886
61	0x3d07c450	0.033146203
62	0x3c87e218	0.016587302
63	0x3cf3d1fd	0.029763216
64	0x3fb943b2	1.4473784
65	0x3f30d6ef	0.6907796
66	0xbe87e193	-0.26539287
67	0xbe62b648	-0.22139847
68	0xbd787697	-0.06065997
69	0xbf7dcf53	-0.99144477
70	0xbe7cb63b	-0.2467889
71	0xbea34d76	-0.31895036
72	0x3f81bc72	1.0135634
73	0xbeb900d0	-0.36133432
74	0xbe4773ee	-0.19477817
75	0xbefe809c	-0.49707496
76	0xbe64d624	-0.22347313
77	0xbe7703c4	-0.2412253
78	0xbf01548c	-0.50519633
79	0xbd53b5ab	-0.051686924
80	0xbe105449	-0.14094652
81	0xbeb34469	-0.3501313
82	0x3d3a3987	0.04546502
83	0xbedd2770	-0.4319415
84	0x3f6ddf2c	0.9291866
85	0x3fe8b201	1.8179322
86	0xbefb3bcc	-0.4906906
87	0x3da8f849	0.08250482
88	0x3f640e50	0.8908434
89	0x3c8c7d41	0.01714957
90	0xbe875254	-0.2643
91	0xbecfeb86	-0.40609378
92	0xbf4f2dc5	-0.80929214
93	0xbe77fa24	-0.24216515
94	0xbf1e6e06	-0.6188663
95	0x3d48ae05	0.048994083
96	0x3d6f8d1f	0.058484193
97	0xbcaed007	-0.02133943
98	0x3c0a74ec	0.008450728
99	0x3f480a88	0.7814107
100	0xbe39f645	-0.1816035
101	0xbe82bdd3	-0.2553545
102	0x3fad4702	1.3537295
103	0x3fa41be8	1.2821016
104	0xbd4b749a	-0.049671747
105	0xbeab8976	-0.33503312
106	0xbe1bea7b	-0.15226166
107	0x3cb7f456	0.022455376
108	0x3cd8b4f4	0.026453473
109	0x3f9a6bb5	1.206412
110	0xbcab3b60	-0.020902336
111	0x3c5defd4	0.013545949
112	0x3f3a9b45	0.7289317
113	0xbedc9d84	-0.43088925
114	0x3c364ccd	0.011126709
115	0x400143e3	2.0197685
116	0x3d6f3d7b	0.05840824
117	0x3fa78ace	1.3089235
118	0xbe949762	-0.29021746
119	0xbf428214	-0.75979733
120	0xbe47431e	-0.19459197
121	0xbf1af8a4	-0.60535645
122	0x3fbdd424	1.4830365
123	0xbec19223	-0.37806806
124	0xbea0b190	-0.3138547
125	0xbe9e4e19	-0.3091896
126	0xbe7d9cf8	-0.2476691
127	0x3f32297e	0.6959456
128	0xbe490bbc	-0.19633383
129	0xbc951a89	-0.01820113
130	0xbea14771	-0.31499818
131	0xbe88662e	-0.26640457
132	0xbe42d46e	-0.19026348
133	0xbedc27b4	-0.4299904
134	0x3f9395f3	1.1530136
135	0x3c8bb9ae	0.017056312
136	0xbf1d847f	-0.615303
137	0x3da2f70d	0.079572774
138	0xbed56883	-0.416813
139	0xbd8def3a	-0.069303945
140	0xbe4d38f3	-0.20041256
141	0xbf39e8a5	-0.7262061
142	0x3fdf3c86	1.7440345
143	0xbe5c20ea	-0.2149693
144	0x3bf42392	0.0074505294
145	0x3c79db35	0.015250017
146	0xbf7bbd63	-0.98335856
147	0xbe6911bc	-0.22760671
148	0xbe3c97e5	-0.18417318
149	0xbe95040c	-0.2910465
150	0xbd77136c	-0.060321257
151	0xbc4079c9	-0.011747786
152	0x3c8f06ec	0.017459355
153	0xbdb887a8	-0.090102494
154	0xbf4c55e7	-0.79818577
155	0xbcd8365c	-0.026393108
156	0xbf9a5f35	-1.2060305
157	0x3f341ab0	0.7035322
158	0x40078935	2.1177495
159	0xbc385b13	-0.011252183
160	0xbf6168c4	-0.88050485
161	0x3d884828	0.06654388
162	0x3f4351f4	0.76296926
163	0x3d5fd191	0.054643217
164	0xbeb821e7	-0.35963365
165	0xbe8ceb6f	-0.27523372
166	0x3d8270f0	0.06369197
167	0x3fb5e4b0	1.4210415
168	0x3f2c96a0	0.67417336
169	0x3fb62554	1.4230142
170	0xbf902e53	-1.1264137
171	0x3d239922	0.03994096
172	0x3d08a292	0.033358164
173	0xbece5b9d	-0.4030427
174	0xbccb6c09	-0.024831789
175	0xbd3884dc	-0.04504858
176	0x3ee12af5	0.43978086
177	0xbe94887f	-0.29010388
178	0xbe651b6e	-0.22373745
179	0xbeb9a602	-0.36259466
180	0x3bdf221e	0.006809487
181	0xbef41c90	-0.4767804
182	0x3ccc7f18	0.024962947
183	0xbea41a11	-0.32051137
184	0xbc361d80	-0.011115432
185	0xbf13d0f9	-0.5774074
186	0xbf115bc0	-0.56780624
187	0xbf288d0b	-0.65840214
188	0xbe714f75	-0.23565467
189	0xbd99978a	-0.07499607
190	0x3cf3df14	0.029769458
191	0x3d165b15	0.036707956
192	0x3fc62f16	1.548312
193	0x3f9c18bf	1.2195052
194	0xbe9b8323	-0.30373487
195	0xbee00346	-0.43752497
196	0x3eab0bb9	0.3340738
197	0xbf10c41c	-0.5654924
198	0xbe68d007	-0.22735606
199	0xbecfe63a	-0.40605336
200	0x3f4e6579	0.80623585
201	0xbf1320d9	-0.57471997
202	0xbea0d5da	-0.31413156
203	0xbec42292	-0.38307625
204	0xbe8736f3	-0.2640911
205	0xbe03cc47	-0.12870894
206	0xbf2d6de9	-0.67745835
207	0xbecfd129	-0.40589264
208	0xbeb3eb1a	-0.35140306
209	0xbe5cebab	-0.21574275
210	0xbc2fc4a7	-0.010728038
211	0xbea4408a	-0.3208049
212	0x3f30975d	0.6898096
213	0x3ff6a72e	1.9269769
214	0xbf18496e	-0.59487045
215	0x3e38d6c9	0.18050684
216	0x3f7ea829	0.9947534
217	0xbd3c542b	-0.045978706
218	0xbe90858b	-0.28226885
219	0xbf2bf5af	-0.6717176
220	0xbf422b29	-0.7584711
221	0xbe8bd882	-0.2731362
222	0xbed534d0	-0.41641855
223	0xbcced629	-0.025248604
224	0xbf28c4c5	-0.65925246
225	0x3cbf41cf	0.02334681
226	0xbd096512	-0.033543654
227	0x3ee250e9	0.44202355
228	0x3e6b963a	0.23006526
229	0xbe71e9f2	-0.236244
230	0x3f96a917	1.1770352
231	0x3f240a25	0.6407798
232	0xbda7f2d5	-0.082006134
233	0xbe8a99d0	-0.27070475
234	0xbe9c1c6e	-0.3049044
235	0xbe0ccbd6	-0.13749632
236	0xbddba824	-0.1072543
237	0x3f8ae9f0	1.0852642
238	0x3cd4fe3d	0.026000137
239	0x3d12ae46	0.03581073
240	0xbf11a635	-0.56894237
241	0xbf07e7f6	-0.5308832
242	0x3d35a702	0.044348724
243	0x3fb20647	1.3908166
244	0xbd26a892	-0.040688105
245	0x3fb551c1	1.4165574
246	0xbe48c678	-0.1960696
247	0xbf3e8281	-0.74417883
248	0xbe6964fd	-0.2279243
249	0xbeeb7c60	-0.45993328
250	0x3fc02bc5	1.5013357
251	0xba2be47c	-0.0006557179
252	0xbed201ff	-0.41017148
253	0xbe647e65	-0.2231384
254	0xbe4df8ca	-0.20114437
255	0x3f811f35	1.0087649

fc3.bias f4 [4]
0	0xbe83769e	-0.25676435
1	0xbe6f67b6	-0.23379406
2	0x3d9697e6	0.07353191
3	0xbe3150f3	-0.17316036

fc1.weight f4 [256, 8]
0	0xbdae4d8a	-0.08510883
1	0xbf13d465	-0.57745963
2	0xbeeb0b21	-0.45906928
3	0xbefd589b	-0.49481663
4	0x3f7a3fc1	0.9775353
5	0x3e91ecdb	0.2850102
6	0x3e89c4f4	0.26908076
7	0xbf8f0281	-1.1172639
8	0xbcedc3ee	-0.02902409
9	0xbe747fab	-0.23876826
10	0xbdf98639	-0.12183804
11	0xbe867bcb	-0.26266322
12	0xbfce9ea4	-1.6142163
13	0x3df5ad1d	0.11995909
14	0x3e8c9e78	0.27464652
15	0xbc29daab	-0.010367076
16	0x3d8e8bfd	0.069602944
17	0xbebdc59a	-0.3706482
18	0x3e7f09ad	0.24906035
19	0xbf2e1264	-0.6799681
20	0xbf85c0dd	-1.0449482
21	0xbf70a9b6	-0.9400896
22	0x3a172016	0.0005764974
23	0xbf8f4809	-1.1193858
24	0xbf5f63f3	-0.87261885
25	0xbe707768	-0.2348305
26	0x3e9b8061	0.30371383
27	0xbec396cd	-0.3820099
28	0xbe3d8c35	-0.18510516
29	0x3e2348fa	0.15945807
30	0x3ddd3acb	0.108022295
31	0x3d53742b	0.05162446
32	0xbeddd54d	-0.43326798
33	0x3e053584	0.13008696
34	0x3d385797	0.045005407
35	0x3eaa83df	0.33303735
36	0xbe3a5eaf	-0.18200181
37	0x3f10130e	0.56279075
38	0x3f00357c	0.5008161
39	0x3ebf0b83	0.3731347
40	0xbebb1169	-0.3653672
41	0xbf760d21	-0.96113783
42	0xbf974277	-1.1817158
43	0x3eebab81	0.46029285
44	0x3f16e770	0.58946896
45	0xbd2fd5e6	-0.0429286
46	0xbf4a7c76	-0.7909616
47	0x3f3a969c	0.7288606
48	0x3d9e78a5	0.07737855
49	0x3e753649	0.2394649
50	0xbf1a3b49	-0.6024671
51	0x3ece12f9	0.4024885
52	0x3da058ab	0.07829412
53	0xbdcf8f80	-0.10134792
54	0xbf6edcfb	-0.9330594
55	0x3d86ef5d	0.06588624
56	0xbeb6320a	-0.35585052
57	0x3f1af8c2	0.60535824
58	0x3b8db870	0.004324965
59	0xbf03798c	-0.5135734
60	0xbe54efd9	-0.2079462
61	0x3ef218a9	0.4728444
62	0xbed02d4f	-0.40659568
63	0xbeb2359f	-0.34806535
64	0x3e9f0cec	0.31064546
65	0xbdfbb4cf	-0.12290346
66	0x3f25cd7c	0.6476667
67	0x3f0dacec	0.5534198
68	0x3f4b380b	0.7938239
69	0x3eafc8d8	0.3433292
70	0xbe056f2f	-0.13030694
71	0x3df810fa	0.12112613
72	0xbf3e2ea8	-0.7428994
73	0xbc1ab521	-0.009442599
74	0xbd85b0da	-0.065278724
75	0xbf03b909	-0.51454216
76	0x3f3d79bb	0.7401387
77	0x3dcbac8d	0.09945021
78	0x3e8ca4c0	0.27469444
79	0x3e8c1cfd	0.27365866
80	0xbcfa424c	-0.030549191
81	0xbfbe9167	-1.4888123
82	0x3eadc43e	0.33938783
83	0xbf09fca8	-0.5390115
84	0xbf11edf1	-0.57003695
85	0xbefe7438	-0.49698043
86	0xbe953fe9	-0.29150322
87	0x3eda3415	0.4261786
88	0x3ee1ba0b	0.44087252
89	0xbed7e054	-0.42163336
90	0xbd3d5738	-0.046225756
91	0xbf2e1d7b	-0.68013734
92	0xbf28df24	-0.65965486
93	0xbf185e73	-0.5951912
94	0xbd7fdf7b	-0.062468987
95	0xbe00a752	-0.12563828
96	0xbec5606c	-0.38550127
97	0xbec9fc09	-0.394501
98	0xbceba3c9	-0.028764622
99	0xbdf924c4	-0.121652156
100	0x3ca3882a	0.019962389
101	0xbdf8ae9e	-0.121426806
102	0x3c586fe4	0.013210271
103	0x3edc110d	0.4298176
104	0xbf3171e9	-0.6931444
105	0xbf4c3a28	-0.7977624
106	0x3e367388	0.17817509
107	0xbf0a8044	-0.5410197
108	0x3ece3ec9	0.40282276
109	0x3db062fd	0.086126305
110	0x3dc79b6c	0.09746441
111	0xbc3753c0	-0.011189401
112	0xbf04bc08	-0.5184941
113	0x3dc2695b	0.09492751
114	0x3e63a9f1	0.22232796
115	0x3e8a01b9	0.2695444
116	0x3eebd39c	0.46059883
117	0x3cfb907a	0.03070854
118	0xbe905654	-0.28190863
119	0x3e48357c	0.19551653
120	0xbf5022ca	-0.81303084
121	0xbe247588	-0.1606046
122	0xbf0c4aff	-0.54801935
123	0xbeec11a0	-0.46107197
124	0xbe863322	-0.26210886
125	0x3f75afd6	0.9597143
126	0x3edd1242	0.43177992
127	0xbecb6a2e	-0.39729446
128	0x3e66d072	0.22540453
129	0x3cd82dc0	0.026389003
130	0xbf42e034	-0.76123357
131	0x3e493159	0.19647731
132	0x3eb544bc	0.35404003
133	0xbf991c59	-1.1961776
134	0x3e831540	0.2560215
135	0xbdc9846b	-0.0983971
136	0x3df158e7	0.11784535
137	0xbef1e8e7	-0.47248003
138	0x3bd0f211	0.006376513
139	0xbf4bafee	-0.7956532
140	0x3d9c8dc3	0.076442264
141	0x3e8f7bef	0.2802424
142	0x3e082f88	0.13299382
143	0xbdb2fba9	-0.087394066
144	0x3ebce442	0.36892897
145	0xbee8b9b4	-0.4545418
146	0x3de34a6c	0.11098179
147	0xbedb033e	-0.4277591
148	0x3d4423ff	0.04788589
149	0x3e1aeef3	0.15130214
150	0xbddf403a	-0.10900922
151	0x3e4c715c	0.19965118
152	0xbf26379f	-0.6492862
153	0xc04e96f5	-3.2279637
154	0x3e742109	0.23840727
155	0xbeec12fc	-0.46108234
156	0x3f4a44a1	0.7901097
157	0x3eb29742	0.34881026
158	0x3e283be0	0.1642909
159	0x3e9891b0	0.2979865
160	0xbf139c08	-0.5765996
161	0xbf60021b	-0.8750321
162	0xbefd4d1a	-0.49472886
163	0xbec36e19	-0.38169935
164	0xbf12325d	-0.571081
165	0x3eaa8298	0.3330276
166	0x3f57f070	0.84351254
167	0xbc1d1d3c	-0.00958949
168	0xbe9d5ffb	-0.3073729
169	0xbf1c38c8	-0.6102414
170	0xbeb6e342	-0.3572026
171	0xbf031931	-0.51210314
172	0x3dbf750e	0.09348498
173	0x3b353111	0.0027647654
174	0x3cb7dfc3	0.022445565
175	0xbdabe333	-0.08392944
176	0x3f0ee281	0.5581437
177	0xbec6284d	-0.38702622
178	0xbe5fc12f	-0.21851037
179	0x3defb840	0.11705065
180	0x3e808669	0.25102547
181	0xbd74e310	-0.059786856
182	0x3e175909	0.14780058
183	0xbe40454a	-0.18776432
184	0x3d7ee371	0.062228624
185	0xbf246b1a	-0.64225924
186	0xbeb28bfd	-0.34872428
187	0xbf4a93cc	-0.7913177
188	0x3f749997	0.9554686
189	0x3e1eb9b9	0.15500535
190	0xbf4c759d	-0.79866964
191	0xbf595119	-0.8488937
192	0x3e4c4679	0.19948758
193	0x3eb0f492	0.34561592
194	0xbf295d3d	-0.66157895
195	0xbe645afe	-0.22300336
196	0xbf38bd9d	-0.72164327
197	0xbe0121f8	-0.12610614
198	0xbe1fa292	-0.1558936
199	0x3ee40251	0.44533017
200	0x3ea9c201	0.33155826
201	0xbebc9c0a	-0.36837798
202	0x3ec442b9	0.38332155
203	0x3e49f880	0.19723701
204	0xbe172484	-0.14760023
205	0xbebcc02a	-0.3686536
206	0x3efb9edf	0.49144647
207	0xbdf02628	-0.11726028
208	0xbe62072d	-0.2207305
209	0xbed959ac	-0.42451227
210	0xbe3f9538	-0.18709266
211	0xbdea5f7a	-0.11443992
212	0x3f0fe073	0.5620186
213	0xbd0006fd	-0.031256665
214	0x3e3b14db	0.18269674
215	0x3eadd398	0.33950496
216	0x3d2b118b	0.041764777
217	0xbf262a1a	-0.6490799
218	0xbdb4af0b	-0.08822449
219	0xbf592263	-0.84818095
220	0x3d983fdd	0.07434056
221	0x3dfafe29	0.122555085
222	0x3e0ba2e8	0.13636363
223	0xbe2aab6d	-0.16666956
224	0x3f120c7a	0.5705029
225	0xbf9d9f1a	-1.2314179
226	0xbd6dccb3	-0.058056545
227	0xbf17f21a	-0.5935379
228	0xbf33efb9	-0.7028766
229	0x3d7d7223	0.061876427
230	0xbebe6c27	-0.3719189
231	0x3e11c700	0.14236069
232	0x3d86903a	0.06570478
233	0x3e8bf6d9	0.27336767
234	0x3e64f0e9	0.22357525
235	0x3ed6cb71	0.41952088
236	0xbf450e49	-0.7697492
237	0xbf8b5c33	-1.0887512
238	0xbca3690a	-0.019947547
239	0x3f2b6ebe	0.66965854
240	0xbd7d9a5d	-0.06191479
241	0xbf34782a	-0.70495856
242	0xbea5cf09	-0.32384518
243	0x3f6e96a3	0.93198603
244	0x3e3d3b30	0.1847961
245	0x3e8978fc	0.26850116
246	0x3f1f39e1	0.6219769
247	0xbeec687b	-0.46173462
248	0x3e204bbe	0.15653893
249	0xbf35646f	-0.70856375
250	0xbea9c539	-0.3315828
251	0xbf0757b6	-0.5286821
252	0xbeeb439d	-0.45950022
253	0x3e648d1d	0.22319455
254	0x3f081bf2	0.5316764
255	0xbf0a4c7d	-0.5402296

fc1.bias f4 [256]
0	0x3da73987	0.08165269
1	0x3eb90fa2	0.3614474
2	0xbeffcc25	-0.49960437
3	0xbd7d631a	-0.06186209
4	0xbe8556d1	-0.26042798
5	0x3c46cb93	0.012133497
6	0x3ef838f0	0.4848094
7	0x3edd49b0	0.43220282
8	0xbe8a77c6	-0.27044505
9	0xbe44f957	-0.1923574
10	0xbef07e69	-0.46971443
11	0xbdd90d16	-0.10598199
12	0x3efc5ccd	0.4928955
13	0xbcbb531b	-0.022866776
14	0x3eeecce3	0.4664069
15	0xbf15a434	-0.5845368
16	0xbe9d4eb3	-0.30724105
17	0xbe6fa22a	-0.23401704
18	0x3e15882a	0.14602724
19	0xbe27ae80	-0.1637516
20	0xbecb1e75	-0.39671674
21	0x3f070d3a	0.5275456
22	0xbe5efe06	-0.2177659
23	0x3c8c1324	0.01709897
24	0xbdc5cd37	-0.09658282
25	0xbd03f585	-0.032216568
26	0x3e851565	0.25992885
27	0x3b980db8	0.0046403073
28	0xbe84aa4c	-0.25911176
29	0x3d133d0a	0.035946883
30	0xbe9b9444	-0.30386555
31	0x3d80906f	0.062775485
32	0xbd3a97e6	-0.045555018
33	0xbdba03ee	-0.09082781
34	0x3d84308a	0.064545706
35	0xbd0955e4	-0.033529177
36	0x3e763f5f	0.24047612
37	0xbc2cced0	-0.010547355
38	0x3ea6e81d	0.32598963
39	0xbde98f9c	-0.114043444
40	0xbe855a0b	-0.2604526
41	0xbc5ade75	-0.013358702
42	0xbee96bd7	-0.45590088
43	0x3e2d9d2a	0.16954485
44	0x3e18f529	0.14937271
45	0x3d4b9e76	0.049711667
46	0xbeebca72	-0.4605289
47	0x3d835c26	0.0641406
48	0xbdbff3d5	-0.09372679
49	0x3ea9e9a6	0.33186072
50	0x3ed880de	0.42285818
51	0xbe01c9f7	-0.126747
52	0x3ef8f1b9	0.4862192
53	0xbe27b3c7	-0.16377173
54	0x3c45b543	0.012067142
55	0x3eb66092	0.35620552
56	0xbdc0b768	-0.09409982
57	0xbee80b76	-0.45321244
58	0xbe486cbe	-0.19572732
59	0xbd41e6bd	-0.04733919
60	0xbaa96beb	-0.0012925839
61	0xbe0110bd	-0.12604041
62	0x3f02fcec	0.5116718
63	0xbc9fab05	-0.019490728
64	0xbe3c1fc5	-0.18371494
65	0x3edef0c7	0.43543074
66	0x3d64c87f	0.05585527
67	0xbf262960	-0.64906883
68	0xbd045f24	-0.032317296
69	0xbe901bad	-0.28146115
70	0x3ecfe235	0.4060227
71	0x3d16be8b	0.03680281
72	0x3dcea849	0.100906916
73	0x3ee3ff73	0.4453083
74	0x3d8c178d	0.068404295
75	0x3e6d4eec	0.23174638
76	0xbd090051	-0.033447567
77	0xbd0786f0	-0.03308767
78	0xbe7ac539	-0.24489297
79	0xbe137b17	-0.14402424
80	0x3dfc4bcb	0.12319144
81	0xbe735043	-0.23761086
82	0xbc59cc37	-0.0132933175
83	0xbea33580	-0.31876755
84	0xbf461ed2	-0.7739078
85	0xbdae3267	-0.08505707
86	0xbd9a3ceb	-0.075311504
87	0x3edfcb3e	0.4370975
88	0x3db2f0b1	0.087373145
89	0x3f1cdb52	0.61272156
90	0xbf225747	-0.63414425
91	0xbe1310d2	-0.14361885
92	0xbdd8d2dc	-0.10587093
93	0x3bb3d048	0.0054874755
94	0xbb63876f	-0.0034718176
95	0x3eda0641	0.42582896
96	0xbdc2cc33	-0.09511604
97	0xbee12a3b	-0.43977532
98	0xbe1a94ef	-0.15095876
99	0x3e5659e1	0.20932724
100	0x3e01ea69	0.12687077
101	0xbf5d9a32	-0.8656341
102	0xbb5cbf63	-0.0033683411
103	0x3d9fa010	0.077942014
104	0x3d416ab0	0.047220886
105	0x3e837bd5	0.25680414
106	0x3f0b28a7	0.54358906
107	0x3e46693f	0.19376086
108	0x3c3893a8	0.011265673
109	0x3e56ca4d	0.20975609
110	0x3d24f22e	0.040270023
111	0x3f124105	0.5713046
112	0x3d91a86e	0.071122035
113	0xbeeed6ba	-0.46648198
114	0x3c038f1e	0.008029727
115	0xbe511c52	-0.2042096
116	0xbd48edb2	-0.04905481
117	0x3e918c3d	0.28427306
118	0x3e96fc44	0.29489338
119	0xbebfea5a	-0.37483484
120	0xbba8138a	-0.0051292824
121	0xbbfdcafd	-0.0077451454
122	0xbcf88b2f	-0.030339805
123	0x3f0e4228	0.55569696
124	0xbc349b02	-0.011023285
125	0xbed29122	-0.41126353
126	0xbe5f26d1	-0.21792151
127	0xbcad5ffb	-0.021163931
128	0x3e9d71f9	0.30751017
129	0x3e422e7b	0.18963043
130	0x3e456d99	0.1928009
131	0x3a617c77	0.00086016156
132	0xbed72494	-0.42020094
133	0x3b5c1f2d	0.0033587918
134	0xbecaead2	-0.3963228
135	0xbedd5da6	-0.4323551
136	0xbedb2571	-0.42802003
137	0xbeae999a	-0.34101564
138	0x3f144468	0.5791688
139	0x3d3778c8	0.04479292
140	0xbe645299	-0.22297134
141	0xbe82a38a	-0.25515395
142	0x3ebbd0bf	0.36682698
143	0x3e516b00	0.20450974
144	0x3eeda7bf	0.46417043
145	0xbec665ad	-0.38749447
146	0xbe14fc2a	-0.14549318
147	0x3e2ef275	0.17084678
148	0xbe7531e4	-0.23944813
149	0x3bb4eac4	0.0055211503
150	0xbf18bb7a	-0.59661067
151	0xbeeaf650	-0.45891047
152	0xbcd6104a	-0.026130814
153	0xbedec835	-0.4351212
154	0xbe58dab0	-0.21177173
155	0xbf04dc5d	-0.5189875
156	0x3d27f45f	0.041004535
157	0xbe198adc	-0.14994377
158	0x3c9683da	0.018373419
159	0xbd43ea2f	-0.047830757
160	0xbeeb9c62	-0.46017748
161	0x3c06bbe4	0.008223508
162	0x3ea471b1	0.3211799
163	0x3efa06c9	0.48833302
164	0x3ec823ec	0.39089906
165	0x3d3564eb	0.044285696
166	0xbbf684c6	-0.007523152
167	0x3e84b6aa	0.25920612
168	0xbe53869f	-0.20656823
169	0x3ede620a	0.43434173
170	0xbe093967	-0.13400804
171	0xbe8e5751	-0.27800992
172	0x3d9892d4	0.0744988
173	0xbe3972e4	-0.18110234
174	0x3e396198	0.18103635
175	0x3d5dab5a	0.05411849
176	0x3dd9a473	0.10627069
177	0x3ed74bac	0.4204992
178	0x3eeb6d6a	0.45981914
179	0xbdb5843c	-0.08863112
180	0xbda34a1f	-0.07973122
181	0xbd4e8819	-0.05042276
182	0x3e2b09b7	0.16702925
183	0x3c141707	0.009038693
184	0x3eb6508d	0.3560833
185	0xbec70eac	-0.3887838
186	0x3d3b19be	0.045678847
187	0xbe158663	-0.14602046
188	0xbe9a60c0	-0.3015194
189	0x3ee045c3	0.43803224
190	0xbdff87e0	-0.12477088
191	0xbe4954e9	-0.19661297
192	0xbd3c87ea	-0.046028055
193	0x3eecf123	0.46277723
194	0x3d88dce7	0.06682759
195	0xbd5b5cde	-0.053555362
196	0xbefccbe5	-0.4937431
197	0x3d857fc4	0.0651851
198	0x3e668942	0.22513297
199	0xbe464c84	-0.19365126
200	0xbed72927	-0.42023584
201	0xbe7c69f8	-0.24649799
202	0x3edada61	0.42744735
203	0xbe5c40a1	-0.21509029
204	0x3e4f1c68	0.2022568
205	0xbda612dd	-0.08109067
206	0x3eb1a5a9	0.346967
207	0xbee433e9	-0.44570854
208	0x3b80ce4c	0.0039308425
209	0x3e4651d0	0.19367146
210	0xbddd4ba4	-0.10805443
211	0xbba81723	-0.0051297112
212	0xbdff132d	-0.12454829
213	0xbef2f487	-0.47452185
214	0xbf024f5f	-0.5090236
215	0xbed61595	-0.4181334
216	0xbeb76242	-0.35817152
217	0x3e72dea3	0.23717742
218	0x3c1df4ab	0.009640853
219	0xbf1940d3	-0.5986454
220	0x3c979add	0.018506462
221	0x3ee81eec	0.45336092
222	0xbd89c5ed	-0.067272045
223	0xbed3e676	-0.41386765
224	0xbe1b196d	-0.15146418
225	0xbdd9a587	-0.10627275
226	0x3e041080	0.12896919
227	0x3dd93683	0.106061004
228	0xbdccb6d3	-0.099958085
229	0x3eead6ed	0.458671
230	0xbc1b49b2	-0.00947802
231	0xbec4fe01	-0.3847504
232	0xbdb4ab28	-0.08821708
233	0xbdc245f0	-0.09485996
234	0xbe3dec79	-0.18547238
235	0xbed154b6	-0.40884942
236	0xbdc98f98	-0.098418415
237	0x3d22379c	0.039603814
238	0xbd43f01b	-0.047836404
239	0xbe00240d	-0.12513752
240	0x3eb7b31e	0.35878843
241	0xbec6d96e	-0.3883776
242	0xbdd8bf0d	-0.10583315
243	0x3f39658e	0.72420585
244	0xbe166b26	-0.14689311
245	0x3e363d65	0.17796858
246	0x3df9e5c8	0.122020304
247	0xbf019597	-0.5061888
248	0xbde41412	-0.111366406
249	0xbc0ba83b	-0.008523996
250	0xbdbca7da	-0.09211703
251	0xbe88206c	-0.26587236
252	0xbf0a6192	-0.5405513
253	0xbe80b871	-0.25140718
254	0x3f002950	0.5006304
255	0x3edd4929	0.4321988
