results/windy/models/best.pth (torch, 434874 bytes, 18 tensors)

fc1.weight f4 [256, 8]
-0.40412357 -0.26613063 -1.0653827 0.7006902 1.2742965 0.11201275 0.20870104 -0.99202675
0.7831266 0.614712 0.3974008 -1.5214734 0.018102327 -1.2284676 -0.78434676 0.18817191
0.16214362 -0.013026055 0.8043215 0.63047314 -0.036035646 0.807828 0.329034 0.51557493
-0.2613294 0.28284213 0.33495677 0.31363046 0.9191153 0.05935043 -0.2553379 0.6964486
-0.00081063155 0.0078004887 0.6203837 2.8947034 -0.036374673 -0.02405064 0.7246797 0.3452199
0.5524526 -0.8736218 -0.45876032 -0.19270645 0.99561447 -0.5388795 0.15877189 -1.278024
0.3414883 0.23118186 -0.08262872 -0.72074646 -0.03017791 -0.9402478 -1.2479625 0.008499829
-0.40068018 -0.04564028 -0.37114212 -0.37805158 -0.47598478 -0.67099786 -0.82433736 0.35274178
-0.13565348 -0.67680126 0.044221893 -0.41989502 -0.8469195 -0.36176565 -1.7646804 0.55034244
0.8670617 -0.4829396 0.7607048 -0.61902404 -0.116744414 0.35578638 -0.31342974 0.90690243
0.16146456 0.2386462 0.06054747 -0.53358155 -0.9348343 0.5422731 -0.17437823 0.8043412
0.3897045 -2.1972978 -0.432375 -0.8579326 0.13371962 0.82689553 0.1836235 -0.78511655
1.0605377 -1.0561644 0.73328143 -0.76191396 1.8657198 0.12579693 -0.393743 0.29292867
0.47169966 0.57774484 -0.8417866 0.25754622 -0.6746188 -0.26873726 -0.17599769 -0.14303604
-0.3850144 0.48774993 0.030194916 0.3962724 -0.0012625916 1.4973135 0.46795696 0.866316
0.34968227 -0.5802844 1.3462843 0.10051931 0.8414234 -1.7397616 -1.3054099 -0.4684285
-0.48710138 0.40523076 -0.253148 1.0677546 0.7706933 -0.17026012 0.5626879 0.2737278
0.81477576 -1.103514 1.0913632 -0.20853972 -0.046738908 -0.42293057 -0.39350587 0.86181736
-0.6611192 -1.2829114 -1.1937505 -0.015770352 0.24281618 -1.1559964 -0.03618756 0.07396257
0.4090941 -1.9314164 -0.5691932 -0.4263168 -0.97097015 0.7144996 0.6349523 0.12242879
0.9987642 -0.64618146 -0.39012933 0.16328444 0.3956623 0.66795903 0.046749365 -0.21814051
0.17982653 -0.087789044 -0.22533828 -0.5720366 -0.11416867 0.16161703 -0.8363384 -0.7046687
0.22953606 -2.9560096 -1.120448 -0.046508342 -0.5197339 -0.95657057 0.6486367 0.62965924
-0.8172148 -0.66487676 -1.0232536 0.66364235 0.8298686 -0.45587182 0.88507354 0.7732274
0.113560066 0.14413007 0.11850978 0.27013215 -0.47106895 -0.3183875 0.6227375 0.655336
0.07028638 -0.035488065 -0.24806231 0.078229584 -0.6783959 -0.09980605 0.5938096 0.4950813
-0.95549464 -1.3905064 0.65642345 1.1880144 1.0073487 0.23221311 0.5431672 1.5488431
-0.17082788 0.41984838 -0.5830276 1.2203976 -0.10845075 -0.315832 0.4528125 -0.381754
-0.057932284 -0.07220516 0.9877159 -1.1808279 -0.042705633 -0.16372499 0.20948097 0.5585469
-0.39062032 -0.43437365 0.344545 -0.19556822 0.81362194 0.16382626 1.0219048 -0.14779255
-0.034551967 -0.06803009 -1.8856273 0.730248 -0.44961607 0.23568268 -0.291384 -0.009315121
-0.111422405 0.35157427 -0.49996507 -1.0854936 -0.46146357 0.9135058 -0.75854945 -0.8360691
00000000: 49e9 cebe 4642 88be 765e 88bf 6f60 333f
00000010: 261c a33f f166 e53d bab5 553e 77f5 7dbf
00000020: fc7a 483f c45d 1d3f 1e78 cb3e a4bf c2bf
00000030: 554b 943c 6d3e 9dbf f3ca 48bf 23b0 403e
00000040: fa08 263e 3c6b 55bc 04e8 4d3f b066 213f
00000050: 1d9a 13bd d1cd 4e3f 2577 a83e b8fc 033f
00000060: f8cc 85be afd0 903e 747f ab3e 2c94 a03e
00000070: 244b 6b3f 7019 733d a6bb 82be 754a 323f
00000080: 9080 54ba 3e9b ff3b 77d1 1e3f d242 3940
00000090: 9cfd 14bd d905 c5bc 9c84 393f aac0 b03e
000000a0: 896d 0d3f aea5 5fbf a2e2 eabe d754 45be
000000b0: 97e0 7e3f 02f4 09bf 1995 223e 4a96 a3bf
000000c0: 8ed7 ae3e f0ba 6c3e 3f39 a9bd d782 38bf
000000d0: aa37 f7bc 14b4 70bf 3cbd 9fbf de42 0b3c
000000e0: f425 cdbe 4df1 3abd 5706 bebe fa8f c1be
000000f0: 47b4 f3be 84c6 2bbf c607 53bf 929a b43e
00000100: bfe8 0abe d942 2dbf 0422 353d 7bfc d6be
00000110: b7cf 58bf 5939 b9be 0ce1 e1bf 3ee3 0c3f
00000120: c1f7 5d3f dc43 f7be 8dbd 423f 5c78 1ebf
00000130: b217 efbd a229 b63e dd79 a0be c22a 683f
00000140: f756 253e ab5f 743e a000 783d cd98 08bf
00000150: 4d51 6fbf 69d2 0a3f 3590 32be 4ee9 4d3f
00000160: 5987 c73e 87a0 0cc0 4260 ddbe 79a1 5bbf
00000170: cced 083e 6daf 533f cc07 3c3e 66fd 48bf
00000180: b3bf 873f 6530 87bf 55b8 3b3f cb0c 43bf
00000190: e8cf ee3f e9d0 003e af98 c9be bffa 953e
000001a0: 9e82 f13e 16e7 133f 547f 57bf 19dd 833e
000001b0: d1b3 2cbf ee97 89be bd38 34be 0a78 12be
000001c0: 9c20 c5be 5cba f93e 545b f73c 37e4 ca3e
000001d0: 8b7d a5ba f8a7 bf3f 0e98 ef3e e3c6 5d3f
000001e0: 8e09 b33e 858d 14bf 0b53 ac3f 11dd cd3d
000001f0: 8667 573f 82b0 debf ac17 a7bf dcd5 efbe
00000200: 5a65 f9be 687a cf3e 9d9c 81be 2fac 883f
00000210: 284c 453f ab58 2ebe 500c 103f 0d26 8c3e
00000220: 2595 503f f23f 8dbf cab1 8b3f 708b 55be
00000230: 4c71 3fbd 5b8a d8be 9a79 c9be 10a0 5c3f
00000240: 1c3f 29bf 7136 a4bf d1cc 98bf d330 81bc
00000250: cea4 783e b1f7 93bf 6839 14bd b079 973d
00000260: c874 d13e a738 f7bf a5b6 11bf 3246 dabe
00000270: 8091 78bf 72e9 363f 3c8c 223f f2bb fa3d
00000280: 03af 7f3f 266c 25bf 08bf c7be 0934 273e
00000290: 4094 ca3e 5dff 2a3f 437c 3f3d 3a60 5fbe
000002a0: 7224 383e beca b3bd 14bf 66be fe70 12bf
000002b0: 43d1 e9bd ef7e 253e 461a 56bf 2b65 34bf
000002c0: 800b 6b3e 432f 3dc0 d76a 8fbf 887f 3ebd
000002d0: 480d 05bf cfe1 74bf 0e0d 263f 5931 213f
000002e0: fd34 51bf 5d35 2abf f9f9 82bf 77e4 293f
000002f0: 4572 543f 0868 e9be 2e94 623f 3bf2 453f
00000300: 2e92 e83d d596 133e 41b5 f23d c34e 8a3e
00000310: f32f f1be b003 a3be ba6b 1f3f 1ac4 273f
00000320: 4ef2 8f3d ef5b 11bd 0c04 7ebe d536 a03d
00000330: 5bab 2dbf 1d67 ccbd e803 183f 4c7b fd3e
00000340: 4c9b 74bf 1dfc b1bf 5e0b 283f db10 983f
00000350: cdf0 803f 46c9 6d3e 010d 0b3f 7e40 c63f
00000360: 81ed 2ebe 5ef6 d63e 4c41 15bf fd35 9c3f
00000370: 6d1b debd bbb4 a1be 0ad7 e73e 4375 c3be
00000380: 674a 6dbd 4de0 93bd f3da 7c3f 5e25 97bf
00000390: 1aec 2ebd 86a7 27be 2e82 563e eefc 0e3f
000003a0: 63ff c7be 3966 debe 3468 b03e 0943 48be
000003b0: 8749 503f 12c2 273e c7cd 823f ee56 17be
000003c0: 5d86 0dbd 5c53 8bbd 3c5c f1bf 88f1 3a3f
000003d0: 1434 e6be cd56 713e 4930 95be 739e 18bc
000003e0: 6e31 e4bd 8b01 b43e 6cfb ffbe 74f1 8abf
000003f0: f444 ecbe 84db 693f 4c30 42bf a008 56bf

fc1.bias f4 [256]
-0.28929192 -0.20740384 0.089077055 -0.007049859 -0.0025235717 0.10627011 0.026449958 -0.03254733
0.3927875 -0.022975087 -0.13206221 -0.07629365 0.075749144 0.050003953 -0.0018041425 -0.012352616
0.015738273 -0.34171537 -0.08632064 -0.14298467 0.13620761 0.13534161 -0.15671816 -0.1514954
0.0013171895 0.00823365 0.21373506 0.28850055 0.06672557 0.10961967 0.010762218 -0.07215561
-0.003499627 0.31507516 0.06499929 -0.1875902 0.0003296169 0.21916999 0.22123212 0.090678625
-0.26997262 -0.22413765 -0.056224253 -0.05598748 -0.4338812 -0.18090896 0.037318707 0.13448927
0.03273271 0.101180404 0.003512391 0.15538812 -0.093143575 -0.09963416 -0.007476717 -0.06548187
-0.069144614 0.0022694995 0.05816566 0.06321126 -0.03405504 0.14194797 0.041312527 0.27037463
0.18916613 0.013277326 -0.1381242 0.065603815 -0.11533346 -0.103107974 0.26187947 -0.08483115
-0.18542898 0.041634597 0.12063255 -0.42239818 0.28300235 -0.2708709 0.04641295 0.0047856644
0.20531933 -0.04462665 -0.44868135 -0.06560857 0.04998297 -0.003688338 0.15995091 -0.029343024
-0.18402001 -0.00033157124 0.021796912 0.053068984 -0.14418025 -0.02731477 0.001609167 -0.14598289
0.0687513 0.15370522 0.038038246 -0.000116790514 -0.08549289 0.10417486 0.013631389 -0.099161044
0.024179837 -0.0025103202 -0.33409205 -0.26487944 -0.021009324 -0.01085255 0.054146 -0.21068093
0.107063994 -0.24649654 0.26774004 0.002011503 0.20639886 0.09763096 0.06863374 0.35833997
-0.35939354 0.14899042 -0.11964746 0.10283582 0.06669158 0.20216113 -0.0147943795 0.021982873
0.12852982 -0.24812107 -0.20213903 0.060402803 -0.5265043 -0.16961049 -0.022469454 0.001330027
-0.12699589 -0.007705872 -0.004086323 -0.25376782 0.16741693 0.031163327 0.038733363 0.14565475
0.21224132 -0.27289653 -0.14412811 0.33760363 0.09252282 0.0006213882 -0.022712978 -0.19166304
0.16673961 -0.016340468 0.09920231 -0.256378 -0.040765353 -0.1618909 -0.013671358 -0.30955178
-0.15916465 0.14811347 -0.2390935 -0.19258666 0.079506814 0.23852713 -0.043040745 0.031962037
-0.18971737 -0.2183726 -0.23606974 -0.15068813 0.33933076 0.022995481 -0.2808803 0.2607718
-0.023651985 -0.14683874 -0.30096674 0.070412055 0.0063618557 0.2112249 0.17114705 0.31904995
0.10181463 0.02475637 -0.17939007 -0.011094916 0.10295146 -0.0065649357 -0.07551519 -0.04563052
0.12309913 -0.0642392 0.20961021 0.07053951 0.10727826 -0.17439125 -0.4024638 -0.21891584
-0.2628456 -0.2760157 0.09328111 -0.3955758 0.1355832 -0.3381521 0.12743565 0.2478635
0.068727255 0.040667024 -0.24321166 -0.0071499003 -0.15915652 -0.04879881 -0.2805634 -0.38530472
-0.031424373 -0.0009904032 0.001372336 -0.17251049 0.03122937 -0.1529429 0.004759045 0.052676767
0.11271721 0.1499803 0.21517721 -0.20938872 0.48213714 0.0048387256 -0.011108259 -0.39549205
0.00089681946 -0.088235036 -0.19324386 -0.24248506 0.27659094 -0.10134755 0.06681079 -0.02300984
-0.027157512 0.10763932 0.26867932 0.25729185 -0.11151417 -0.010900532 0.0069210404 -0.038119517
-0.21778415 -0.05373809 -0.41832376 0.3656396 0.0789785 -0.028303038 0.00031008787 -0.0142193725
00000000: 121e 94be ac61 54be 086e b63d 8102 e7bb
00000010: 8262 25bb 25a4 d93d 95ad d83c 5950 05bd
00000020: 711b c93e 4036 bcbc 513b 07be d83f 9cbd
00000030: 5e22 9b3d f2d0 4c3d fa78 ecba a062 4abc
00000040: 8ded 803c 51f5 aebe e0c8 b0bd 936a 12be
00000050: 027a 0b3e fe96 0a3e ba7a 20be 9c21 1bbe
00000060: 8ca5 ac3a 6ee6 063c 5ddd 5a3e 58b6 933e
00000070: 6aa7 883d 4780 e03d 0454 303c 52c6 93bd
00000080: 005a 65bb 8851 a13e 591e 853d a517 40be
00000090: 6ed0 ac39 196e 603e ac8a 623e b7b5 b93d
000000a0: da39 8abe 5784 65be 674b 66bd 2153 65bd
000000b0: ad25 debe 3340 39be 80db 183d 8eb7 093e
000000c0: bc12 063d ac37 cf3d 2430 663b 101e 1f3e
000000d0: 0fc2 bebd ff0c ccbd 3fff f4bb 5c1b 86bd
000000e0: b19b 8dbd e2bb 143b 1d3f 6e3d e874 813d
000000f0: 4c7d 0bbd cf5a 113e 5337 293d 8b6e 8a3e
00000100: c4b4 413e 2489 593c 6e70 0dbe 4b5b 863d
00000110: f333 ecbd 462a d3bd 1115 863e f4bb adbd
00000120: 18e1 3dbe 0a89 2a3d 330e f73d 9344 d8be
00000130: afe5 903e 97af 8abe 811b 3e3d 10d1 9c3b
00000140: 3b3f 523e 6fca 36bd 90b9 e5be c95d 86bd
00000150: f1ba 4c3d 0bb8 71bb 2cca 233e c860 f0bc
00000160: be6f 3cbe bdd6 adb9 708f b23c dd5e 593d
00000170: fda3 13be 39c3 dfbc afea d23a 8a7c 15be
00000180: 7bcd 8c3d e764 1d3e fecd 1b3d 6eed f4b8
00000190: e516 afbd a159 d53d 3056 5f3c f214 cbbd
000001a0: cb14 c63c 2f84 24bb 1d0e abbe 479e 87be
000001b0: bf1b acbc e5ce 31bc 32c8 5d3d bebc 57be
000001c0: 5e44 db3d 9769 7cbe 3915 893e 6cd3 033b
000001d0: 395a 533e bef2 c73d d98f 8c3d 5678 b73e
000001e0: 6e02 b8be f290 183e ba09 f5bd 969b d23d
000001f0: 9895 883d 5403 4f3e 2064 72bc 6d15 b43c
00000200: 529d 033e 7313 7ebe 89fd 4ebe ee68 773d
00000210: fcc8 06bf 5fae 2dbe dc11 b8bc 4d54 ae3a
00000220: 360b 02be 8a81 fcbb 90e6 85bb dbed 81be
00000230: 586f 2b3e 3c4a ff3c e0a6 1e3d 8526 153e
00000240: ca55 593e 18b9 8bbe 5296 13be 62da ac3e
00000250: 9b7c bd3d a8e4 223a 9110 babc 5143 44be
00000260: cabd 2a3e 72dc 85bc 952a cb3d fa43 83be
00000270: 92f9 26bd bac6 25be d5fd 5fbc 927d 9ebe
00000280: 0ffc 22be 0fab 173e edd4 74be 7035 45be
00000290: 78d4 a23d 7540 743e 7e4b 30bd a0ea 023d
000002a0: 4545 42be 119d 5fbe 44bc 71be fd4d 1abe
000002b0: c3bc ad3e 0561 bc3c 8bcf 8fbe e283 853e
000002c0: cfc1 c1bc e55c 16be 5018 9abe 3234 903d
000002d0: 1d77 d03b 574b 583e 2c41 2f3e 845a a33e
000002e0: 3084 d03d dfcd ca3c 08b2 37be 73c7 35bc
000002f0: 37d8 d23d ac1e d7bb b5a7 9abd 11e7 3abd
00000300: 661b fc3d d78f 83bd 0fa4 563e 0577 903d
00000310: b4b4 db3d 9f93 32be bc0f cebe 792b 60be
00000320: b393 86be ee51 8dbe 2b0a bf3d e988 cabe
00000330: 53d6 0a3e 4622 adbe 7e7e 023e eecf 7d3e
00000340: e0c0 8c3d 7792 263d 7a0c 79be b649 eabb
00000350: edf9 22be 43e1 47bd 02a6 8fbe a946 c5be
00000360: d8b6 00bd 6bd0 81ba f4df b33a 97a6 30be
00000370: bcd4 ff3c 109d 1cbe c3f1 9b3b 98c3 573d
00000380: 48d8 e63d 7094 193e 6a57 5c3e ff69 56be
00000390: aeda f63e 2c8e 9e3b 6aff 35bc ef7d cabe
000003a0: 8918 6b3a 92b4 b4bd b8e1 45be 014e 78be
000003b0: 549d 8d3e 4e8f cfbd 18d4 883d 227f bcbc
000003c0: 6e79 debc 0172 dc3d 5690 893e c2bb 833e
000003d0: 8b61 e4bd 2598 32bc e5c9 e23b 3623 1cbd
000003e0: cf02 5fbe 791c 5cbd 882e d6be 1d35 bb3e
000003f0: 7bbf a13d c6db e7bc 4a93 a239 5ff8 68bc

fc2.weight f4 [128, 256]
-0.19140205 0.2784294 -0.0464796 0.07154165 -0.32180956 -0.043132525 0.0018934724 -0.96972555
0.09595412 -0.002822687 -0.11149241 0.536514 0.24555875 0.2167673 0.103459544 0.054329548
-0.17157665 -0.086557806 -0.024756111 0.31218633 0.16943164 -0.1656611 0.10269454 -0.020037789
0.013739718 0.05049216 0.015179482 -0.268007 -0.00089229166 0.18291013 1.2683878 -0.4106615
0.11374711 0.28985897 0.32788488 0.18157172 -0.102170475 0.020535126 0.033857007 0.5121048
-0.17132062 0.42626533 0.29585725 -0.024399389 0.05787058 0.06396037 0.20190164 -0.036555495
0.029425949 -1.6622549 0.18168288 -0.50501126 0.03399735 -0.96716034 -0.47985384 -1.3059359
0.09058755 0.037623208 -0.165622 -0.5343507 0.27343306 0.6112675 -0.021252526 -0.15840562
0.26874322 -0.008786554 0.21060793 0.045349404 -0.13851118 0.18786612 -0.25026274 0.0073093036
-0.0021945864 0.029300505 0.10665973 0.2266231 0.47726995 0.18365645 0.37100407 0.23695701
0.8822676 -0.18955325 -0.27399257 -0.45690992 0.17746837 0.068171754 0.15854006 0.025123423
0.14851302 -0.5147458 0.03826422 0.32801846 0.16654342 0.14427249 -0.17428908 -0.14771166
0.15923221 -1.1080984 0.010891691 -0.0003011503 0.2056154 0.20965526 -0.07477998 -0.0368175
0.3676358 0.31429467 -0.13326867 0.20217893 0.04269757 0.09974399 -0.22252996 0.16643593
-0.26577225 -0.6876711 0.030211559 -0.21104431 -0.36677542 -0.13689117 -0.18215172 -0.13549392
-0.49216658 0.01805507 0.40060207 -0.2883942 0.03950034 -0.1278945 -0.3920426 0.19248562
0.21120743 -0.36857685 0.18741791 0.2094385 -0.33129457 0.21907303 -0.044814173 -0.02184083
0.90409595 0.088644125 0.6898007 0.29442027 0.1489712 -0.5432771 -0.19020133 0.21707611
-0.32955894 -0.04758244 -0.24787657 0.12880851 -1.1463724 0.20419586 0.22432317 -0.19276248
-0.6890861 -0.11400447 0.060283434 0.3278305 -0.032262888 0.093732916 -0.22051395 0.0760575
0.11307931 -0.032972187 0.046811014 -0.28137308 -0.066638544 -0.66922206 0.05391452 -0.55072635
-1.3195792 0.14200144 -0.025079405 0.28359836 0.8599165 -0.25646195 0.013272831 -0.2583026
0.04417589 0.04558517 0.10406801 0.30502096 -0.12587681 0.13502617 0.20264255 0.23643512
-0.5032833 -0.0042690556 0.09241223 -0.18237825 -0.25959012 -0.18432118 -0.054226235 0.054052327
0.010710264 0.2585626 -0.14368796 -0.15089096 -0.18344584 -0.16587503 0.21167813 0.12930372
-0.072559476 -0.402868 0.3079642 0.121189415 0.21940939 0.18701431 -0.046491917 0.137758
-0.9622403 -0.43627524 0.1561096 0.11299953 0.15858157 -0.35701844 0.20937923 0.37198496
0.07170068 0.102544695 -0.3274207 0.26689294 -0.13708584 0.0409527 0.22869495 -0.30090025
-0.17437205 0.12341624 -0.14285633 -0.04379428 0.059663523 0.48459128 -0.10135996 0.08940482
0.12841776 0.049688954 0.13328391 -0.32771772 0.07040134 0.08862685 -0.8153235 -0.17584643
-0.14742811 -0.2269731 0.35795227 -0.48972908 -0.18451983 -0.3462159 0.08538075 -0.04701531
-0.2625943 0.5401601 0.056216538 0.0278623 -0.17183502 -0.18306081 0.16816741 -0.024387948
00000000: e6fe 43be 4c8e 8e3e 6561 3ebd 6e84 923d
00000010: 39c4 a4be bbab 30bd 642e f83a ef3f 78bf
00000020: 9883 c43d d4fc 38bb 2256 e4bd fb58 093f
00000030: c173 7b3e 3ff8 5d3e 99e2 d33d a988 5e3d
00000040: cab1 2fbe 3845 b1bd 54cd cabc e3d6 9f3e
00000050: 7d7f 2d3e 10a3 29be 8451 d23d 4a26 a4bc
00000060: 8e1c 613c ded0 4e3d 5db3 783c 3738 89be
00000070: aee8 69ba cb4c 3b3e 885a a23f 3942 d2be
00000080: 3ff4 e83d 6568 943e 87e0 a73e f0ed 393e
00000090: c13e d1bd 4839 a83c a5ad 0a3d 4d19 033f
000000a0: ac6e 2fbe 733f da3e 9a7a 973e 3ae1 c7bc
000000b0: b409 6d3d a8fd 823d 4ebf 4e3e 37bb 15bd
000000c0: b00e f13c c5c4 d4bf 140b 3a3e 6b48 01bf
000000d0: ce40 0b3d d297 77bf 67af f5be e828 a7bf
000000e0: f785 b93d cb1a 1a3d d098 29be 35cb 08bf
000000f0: 6bff 8b3e 077c 1c3f c719 aebc 1535 22be
00000100: b698 893e 7bf5 0fbc 9ba9 573e 4cc0 393d
00000110: e0d5 0dbe fa5f 403e 7022 80be e282 ef3b
00000120: 0dd3 0fbb 9d07 f03c 6b70 da3d e30f 683e
00000130: ba5c f43e 7010 3c3e 3ff4 bd3e dca4 723e
00000140: 4adc 613f 3f1a 42be c148 8cbe 19f0 e9be
00000150: 45ba 353e a29d 8b3d 5358 223e a3cf cd3c
00000160: cc13 183e 61c6 03bf f1ba 1c3d 09f2 a73e
00000170: 5c8a 2a3e 2bbc 133e d678 32be ba41 17be
00000180: c50d 233e 2bd6 8dbf 1073 323c b6e3 9db9
00000190: d88c 523e deaf 563e 3f26 99bd f2cd 16bd
000001a0: c23a bc3e 3beb a03e 9577 08be fe07 4f3e
000001b0: a6e3 2e3d 9446 cc3d e5de 63be 2e6e 2a3e
000001c0: 4d13 88be 370b 30bf 3b7e f73c 001c 58be
000001d0: fdc9 bbbe 332d 0cbe fb85 3abe ebbe 0abe
000001e0: 42fd fbbe 3ae8 933c b71b cd3e 68a8 93be
000001f0: 1ccb 213d c7f6 02be cfb9 c8be f31a 453e
00000200: c346 583e 1bb6 bcbe 7bea 3f3e 0c77 563e
00000210: 719f a9be ae54 603e 118f 37bd 8aeb b2bc
00000220: d572 673f 0d8b b53d c796 303f 41be 963e
00000230: e88b 183e 3514 0bbf 23c4 42be 3349 5e3e
00000240: f3bb a8be cee5 42bd 5bd3 7dbe 61e6 033e
00000250: 55bc 92bf b818 513e f9b4 653e 8763 45be
00000260: f267 30bf 2d7b e9bd c3eb 763d 66d9 a73e
00000270: 1726 04bd 0bf7 bf3d 69ce 61be 09c4 9b3d
00000280: 2096 e73d d80d 07bd e8bc 3f3d 2210 90be
00000290: ca79 88bd 2352 2bbf 79d5 5c3d 67fc 0cbf
000002a0: f9e7 a8bf d368 113e 5373 cdbc ce33 913e
000002b0: 7d23 5c3f fb4e 83be 4a76 593c 3d40 84be
000002c0: c7f1 343d 84b7 3a3d 9c21 d53d b52b 9c3e
000002d0: dae5 00be 4d44 0a3e 8781 4f3e 0c1c 723e
000002e0: 2dd7 00bf 6fe3 8bbb a042 bd3d 5dc1 3abe
000002f0: ffe8 84be b1be 3cbe 541c 5ebd f965 5d3d
00000300: 1a7a 2f3c 5162 843e f022 13be 2983 1abe
00000310: 3ad9 3bbe 25db 29be 27c2 583e 3268 043e
00000320: 109a 94bd b744 cebe 7cad 9d3e 2832 f83d
00000330: dbac 603e ae80 3f3e 4f6e 3ebd 6f10 0d3e
00000340: 6155 76bf 785f dfbe 32db 1f3e 4c6c e73d
00000350: 3563 223e 1fcb b6be 8267 563e d074 be3e
00000360: ced7 923d f402 d23d b0a3 a7be 31a6 883e
00000370: 3b60 0cbe 05be 273d 022f 6a3e 990f 9abe
00000380: 968e 32be a7c1 fc3d ee48 12be a261 33bd
00000390: bd61 743d 591c f83e d095 cfbd e019 b73d
000003a0: f27f 033e a586 4b3d 947b 083e 9eca a7be
000003b0: 942e 903d fe81 b53d 0ab9 50bf 1611 34be
000003c0: 65f7 16be a36b 68be 8545 b73e c5bd fabe
000003d0: c4f2 3cbe 3643 b1be 1adc ae3d 2093 40bd
000003e0: c372 86be ef47 0a3f 5043 663d 7a3f e43c
000003f0: 85f5 2fbe 4b74 3bbe 1434 2c3e 3cc9 c7bc

fc2.bias f4 [128]
0.15445954 -0.13267955 -0.021478545 0.22707386 -0.054475024 0.034721576 0.11858188 0.061646476
0.048015732 -0.21561709 0.035746932 0.14552787 0.2516836 0.2437946 -0.17884998 0.20711029
-0.04579745 -0.015880626 0.06667385 -0.17679992 0.1704885 -0.31180483 -0.10542918 0.07949732
-0.0935286 -0.2109884 -0.30339754 0.13346714 0.060704082 0.13301641 0.45103 -0.465434
0.1031582 0.13533394 0.15032864 0.0021499156 0.13527735 -0.2860713 0.1785666 0.081438355
0.11618118 0.07499117 -0.12279245 0.21660654 0.06712999 0.21101971 -0.24869853 -0.10498472
0.11257157 -0.32127064 0.111953795 0.115614735 -0.1087309 0.1617151 -0.022665014 0.20992534
-0.04337519 0.09597996 0.09665921 0.3016323 -0.022191226 -0.23998266 0.17043528 -0.101828285
0.051201403 0.11656877 -0.041479792 0.024717247 0.18007074 0.016644388 0.09630978 0.15124258
0.25205576 -0.25635868 -0.14915067 -0.004796794 -0.07813886 0.198676 0.11877341 0.08293874
-0.0827918 0.14012788 0.21988884 0.11212271 0.01146052 0.079971604 0.040644314 0.16745023
-0.1404478 -0.019007254 0.032091543 0.04298807 -0.015764264 0.0013230491 0.067692794 -0.068165794
0.0060795676 0.08126432 0.045114666 0.07227022 0.13807002 -0.367162 0.14420414 -0.3209429
-0.01962205 0.16849272 -0.20713498 0.33605972 0.21172011 0.14402477 -0.015657876 -0.16095304
-0.103970475 0.17256653 0.19396882 -0.13518864 0.10441927 -0.22429274 -0.01387285 -0.2343099
-0.24471703 0.12726496 0.15797694 -0.02483156 -0.04515534 -0.092547074 -0.046631876 -0.4013138
00000000: a42a 1e3e 26dd 07be c6f3 afbc 0d86 683e
00000010: 3421 5fbd 3638 0e3d 0fdb f23d 0481 7c3d
00000020: 25ac 443d baca 5cbe 606b 123d 4205 153e
00000030: acdc 803e 4ba5 793e 7324 37be b814 543e
00000040: 1b96 3bbd 1618 82bc 4d8c 883d 0a0b 35be
00000050: 8a94 2e3e e2a4 9fbe 41eb d7bd 7ecf a23d
00000060: ec8b bfbd 580d 58be ec56 9bbe 9cab 083e
00000070: d8a4 783d 7435 083e 67ed e63e 5e4d eebe
00000080: 9b44 d33d fb94 0a3e c0ef 193e 99e5 0c3b
00000090: 2586 0a3e f077 92be 2ada 363e 27c9 a63d
000000a0: 66f0 ed3d f894 993d 9c7a fbbd 1bce 5d3e
000000b0: 737b 893d 8d15 583e d4aa 7ebe 3b02 d7bd
000000c0: ec8b e63d 967d a4be 0848 e53d 6bc7 ec3d
000000d0: 4eae debd a598 253e fbab b9bc abf6 563e
000000e0: 2faa 31bd 2491 c43d 44f5 c53d 8c6f 9a3e
000000f0: 60ca b5bc 04be 75be 9686 2e3e 598b d0bd
00000100: 90b8 513d 9bbb ee3d b7e6 29bd d37b ca3c
00000110: 7764 383e d059 883c 103e c53d 56df 1a3e
00000120: 740d 813e 7241 83be f4ba 18be 6d2e 9dbb
00000130: 4407 a0bd b971 4b3e 793f f33d c9db a93d
00000140: bf8e a9bd af7d 0f3e 8a2a 613e 97a0 e53d
00000150: e8c4 3b3c 27c8 a33d a77a 263d 1378 2b3e
00000160: 8cd1 0fbe 1ab5 9bbc 6c72 033d 4214 303d
00000170: 0f24 81bc 296a ad3a 85a2 8a3d 829a 8bbd
00000180: 1c37 c73b e86d a63d 28ca 383d 6902 943d
00000190: 3a62 0d3e a8fc bbbe 40aa 133e a152 a4be
000001a0: 6cbe a0bc 5b89 2c3e 311b 54be 0510 ac3e
000001b0: 28cd 583e 3b7b 133e f244 80bc e0d0 24be
000001c0: 79ee d4bd 48b5 303e c39f 463e e46e 0abe
000001d0: c5d9 d53d ffac 65be f34a 63bc efee 6fbe
000001e0: 1a97 7abe bf51 023e b5c4 213e 8e6b cbbc
000001f0: cef4 38bd 5289 bdbd 1101 3fbd 0179 cdbe

fc3.weight f4 [4, 128]
0.38666332 -0.36876455 -0.1245639 0.5258277 -0.44502565 -0.19508752 0.5888086 0.6951598
-0.32768118 -0.66192067 0.95185935 -0.4022682 -0.6989517 1.2107003 -0.18801522 0.53059554
0.2200088 -0.23281804 0.78436005 0.85047066 0.50422734 -1.1228966 -0.3581179 0.3384898
-0.60701257 -0.36626092 0.020616354 -0.45636144 0.09948861 -0.29873946 -0.67013913 -0.7320138
0.5560817 -0.38950595 0.22880909 -0.42122725 0.66369253 -0.8822276 0.21792625 -0.28416607
0.44247332 0.697866 0.75411534 0.6660009 0.13272978 -0.3898635 -0.160414 0.54458284
-0.35398707 -0.8089263 -0.3371224 0.6961554 -0.27660614 -0.105454676 -0.6540672 0.57484674
-0.43014413 -0.34966227 -0.22025426 -0.49187666 0.21961048 -0.562859 0.60866034 0.46827507
-0.12096947 0.8534167 0.5560776 -0.3359793 0.5367957 -1.13693 0.53652865 -0.53856575
-0.34549353 -0.84092945 0.8025099 1.0050226 -0.3927803 -0.5615236 0.27723503 0.7020074
-0.31366587 0.35620987 0.1233941 -0.34894142 -0.35463312 0.5012234 0.59875435 0.45837772
-1.0453069 -0.2841912 -0.74087113 0.5420416 -0.005471337 -0.5842727 0.8767481 -0.11412186
-0.06386837 1.3658494 -1.1032051 0.39820352 0.5831029 -0.67615277 0.35654166 -0.69047624
-0.055677824 -0.6652044 0.9415637 -0.5652191 0.60286975 0.4761442 -0.26251206 0.23305625
-0.3894844 0.4256259 0.5190491 1.2954841 0.38111982 -0.5281504 0.7647692 -0.8247418
-0.04120732 0.27694327 0.2575376 -0.42925104 0.43364462 0.731838 -0.48055163 -0.4484214
0.26706377 -0.2854128 -0.2035929 0.6334611 -0.24482858 -0.30670193 0.66405964 0.71986735
-0.32444453 -0.9380085 1.0361509 -0.04386568 -0.6650195 0.8921019 -0.23801167 0.44309384
0.5794699 0.31276593 0.73856205 0.8400331 0.4400542 -0.6987524 -0.46600425 0.40508473
-0.46887183 -0.38534737 -0.49009034 -0.037847806 -0.13430811 -0.4726364 -0.67949057 0.10147235
0.6655038 -0.33901283 0.28409216 -0.42495468 0.2864802 -0.9544035 0.21328214 -0.1969127
0.50287586 0.09038714 0.69483936 0.45500425 0.30251804 -0.6112345 0.10923659 0.8324311
-0.7609194 0.85915834 -0.41463575 0.7742467 -0.2897594 -0.13652366 -0.61574376 0.18667723
-0.5278071 -0.40907568 0.17740306 -0.5128261 0.27955592 -0.4665511 0.46875852 -0.0051825508
0.69624084 0.445567 0.698982 -0.48287466 0.5918668 -0.7006891 0.5793155 -0.3236803
-0.43550956 -0.37487572 -0.6222887 1.0457594 -0.61591506 -0.43637607 -0.084509656 0.5141001
-0.29899594 0.5207683 0.26215994 -0.5081161 -0.12366991 0.7338109 0.84754354 0.33843178
-0.66728145 -0.42408943 -0.5562437 0.54872906 -0.05570515 -0.63803434 0.94339603 -0.28487328
0.37354004 0.9832281 -0.9240123 0.36274785 0.18905836 -0.6239432 0.62287223 -0.9173389
0.003661605 -0.9035012 0.06925673 -0.6266456 0.4833929 1.2125255 -0.39076832 0.12676305
-0.41278383 0.4879563 0.7763117 1.295584 0.17190802 -0.42262807 0.75854707 -0.566856
0.2753278 -0.058151986 0.3538723 -0.20318276 0.44860262 0.7338374 -0.6536454 -0.6508801
00000000: bcf8 c53e b5ce bcbe 5c1b ffbd a59c 063f
00000010: 67da e3be 06c5 47be 29bc 163f fef5 313f
00000020: d4c5 a7be a273 29bf 0ead 733f 19f6 cdbe
00000030: 80ee 32bf 3af8 9a3f 1087 40be 1cd5 073f
00000040: fd49 613e da67 6ebe d2cb 483f 72b8 593f
00000050: 0b15 013f 13bb 8fbf 3b5b b7be 894e ad3e
00000060: 2d65 1bbf 8d86 bbbe a1e3 a83c 35a8 e9be
00000070: afc0 cb3d 61f4 98be 3d8e 2bbf 4265 3bbf
00000080: 5f5b 0e3f 536d c7be ee4c 6a3e 19ab d7be
00000090: c1e7 293f abd9 61bf 0f28 5f3e 377e 91be
000000a0: dd8b e23e 59a7 323f b40d 413f 097f 2a3f
000000b0: 51ea 073e 309c c7be 9143 24be c869 0b3f
000000c0: cb3d b5be cb15 4fbf 4f9b acbe 3e37 323f
000000d0: 529f 8dbe 9ff8 d7bd f370 27bf 2829 133f
000000e0: da3b dcbe ef06 b3be 558a 61be 42d7 fbbe
000000f0: 92e1 603e 8717 10bf 2ad1 1b3f c0c1 ef3e
00000100: d7be f7bd 8479 5a3f 1a5b 0e3f 7b05 acbe
00000110: 716b 093f ec86 91bf f159 093f 72df 09bf
00000120: 87e4 b0be 2747 57bf 4a71 4d3f 95a4 803f
00000130: 801a c9be 03c0 0fbf c0f1 8d3e c2b6 333f
00000140: d098 a0be 2461 b63e 0cb6 fc3d 73a8 b2be
00000150: 7992 b5be 2d50 003f f747 193f 7cb0 ea3e
00000160: 9ecc 85bf 8281 91be bba9 3dbf 3dc3 0a3f
00000170: e748 b3bb e592 15bf 9072 603f b9b8 e9bd
00000180: 6ccd 82bd 27d4 ae3f d335 8dbf 55e1 cb3e
00000190: 3b46 153f 5918 2dbf a18c b63e 0dc3 30bf
000001a0: 6e0e 64bd d64a 2abf 520a 713f 33b2 10bf
000001b0: ac55 1a3f 2cc9 f33e fb67 86be 4ca6 6e3e
000001c0: 806a c7be a3eb d93e 67e0 043f 6cd2 a53f
000001d0: 2322 c33e dd34 07bf eac7 433f 4722 53bf
000001e0: 02c9 28bd 82cb 8d3e f8db 833e cbc6 dbbe
000001f0: ab06 de3e bc59 3b3f dd0a f6be 7d97 e5be
00000200: 95bc 883e a021 92be a87a 50be 822a 223f
00000210: 58b4 7abe 0908 9dbe d0ff 293f 3a49 383f
00000220: 981d a6be 5321 70bf 98a0 843f 80ac 33bd
00000230: b83e 2abf ca60 643f 55b9 73be 32dd e23e
00000240: 2458 143f db22 a03e 6712 3d3f 690c 573f
00000250: c94e e13e 70e1 32bf 1c98 eebe 4467 cf3e
00000260: f80f f0be 404c c5be 1fed fabe 4d06 1bbd
00000270: 1188 09be 66fd f1be 18f3 2dbf bcd0 cf3d
00000280: 755e 2a3f 1793 adbe 8774 913e a993 d9be
00000290: 88ad 923e ca53 74bf a266 5a3e 7ca3 49be
000002a0: 79bc 003f e51c b93d fee0 313f 51f6 e83e
000002b0: a5e3 9a3e dd79 1cbf 6fb7 df3d 341a 553f
000002c0: 9dcb 42bf cdf1 5b3f 234b d4be 0835 463f
000002d0: 585b 94be dccc 0bbe 62a1 1dbf 5128 3f3e
000002e0: 5e1e 07bf 5e72 d1be 26a9 353e 9248 03bf
000002f0: f421 8f3e c9df eebe 1e01 f03e 63d2 a9bb
00000300: d73c 323f 5c21 e43e 7cf0 323f 593b f7be
00000310: 9584 173f 5c60 33bf 054e 143f 6db9 a5be
00000320: 1cfb debe b6ef bfbe 504e 1fbf 72db 853f
00000330: 9cac 1dbf af6c dfbe 6613 adbd 109c 033f
00000340: ff15 99be 1251 053f d439 863e e613 02bf
00000350: a646 fdbd 08db 3b3f 9df8 583f ee46 ad3e
00000360: f5d2 2abf 4022 d9be fd65 0ebf 8279 0c3f
00000370: 152b 64bd 3856 23bf 6782 713f e9da 91be
00000380: a440 bf3e d6b4 7b3f 128c 6cbf 16ba b93e
00000390: 8498 413e beba 1fbf 8e74 1f3f b9d6 6abf
000003a0: 8af7 6f3b db4b 67bf 79d6 8d3d d96b 20bf
000003b0: 467f f73e 0934 9b3f c912 c8be 2cce 013e
000003c0: 6758 d3be 68d5 f93e 5dbc 463f b2d5 a53f
000003d0: a808 303e b562 d8be 2430 423f 7a1d 11bf
000003e0: c4f7 8c3e c730 6ebd c02e b53e 240f 50be
000003f0: 3eaf e53e c5dc 3b3f 4e55 27bf 14a0 26bf

fc3.bias f4 [4]
0.12713598 0.02106352 0.11040198 -0.0074103335
00000000: ef2f 023e 678d ac3c 6f1a e23d 62d2 f2bb

exp_avg f4 [256, 8]
0.0010403381 0.0013246821 -0.0004162386 0.0012976779 -0.00024371779 -0.0024581281 -0.011084884 6e-45
-0.011362411 -0.014651327 -0.00092761056 0.0053622485 0.00063710875 0.0007041203 8.563801e-05 -0.0011348582
0.045932468 0.019028636 -0.0022781314 0.01793201 0.0041076955 -0.042140253 -0.034804795 0.026721975
0.008314979 0.010421979 0.0006206437 0.0058154613 -0.0011622547 -0.01388557 2.3886205e-05 0.0055846237
0.00654848 0.0046626083 0.012354734 -0.0033848265 0.0046181874 0.0036466876 0.021020085 -0.0062901718
-0.008967071 -0.005092883 -0.0023595681 0.0025863678 -0.0053438027 0.0016228089 0.05815169 -6e-45
-0.0050635803 -0.007944878 0.002733767 0.004566961 0.0012843957 -0.0020998027 6e-45 -0.0054795076
0.004452172 0.0017789225 0.00096524745 -0.00054346264 -0.0016792129 0.00028080956 -0.00010319848 -0.0005165401
-0.03283865 0.012959859 -0.0025687371 -0.012035205 0.0045985924 -0.0029376603 6e-45 -0.028796896
0.037179556 0.04992714 0.008921909 0.017874932 0.0031922904 -0.033790708 -0.021763286 -0.0040638843
-0.003536755 -0.0033644417 -0.0044715903 0.005987202 0.00051398674 -0.007896828 -0.0066400236 -0.0064408435
-0.02012703 -0.0015679953 -0.0048622736 -0.009404855 -0.004212502 0.016229156 0.040849663 0.01039288
-0.031241158 -0.0012206888 -0.008488315 -0.032596074 0.012466363 0.02964391 -0.01373282 -0.03493605
-0.0051906793 -0.011379202 0.000962154 0.0059004184 0.001454257 0.0018347268 0.0026831715 -0.003992547
0.015928838 0.011571654 -0.001821308 0.0033916892 0.0003004023 -0.015975446 -0.011869572 0.005737067
0.002266416 -0.000619011 -4.777178e-05 -0.0010305666 0.00019152409 -0.0020345305 6e-45 0.0021115672
0.018937938 -0.0011978622 -0.004211819 0.008410043 -0.0069376626 -0.022866685 -0.007900723 0.039319076
0.00079649367 0.0001747051 -0.0033371183 0.0034753787 0.0025711649 -0.0063744057 -0.00925318 -0.010001311
-0.00702455 -0.0015732282 -0.003825396 -0.01620725 0.0150818955 0.01998643 0.0042093378 -0.0024730822
0.025422664 0.0041391025 -0.001757648 0.032816593 -0.002384681 -0.05027772 -0.042976066 0.0104135815
-0.0580324 -0.02037917 -0.024747187 -0.029135685 0.0027873348 0.04796369 0.07237987 0.010885282
-0.018383177 -0.02742532 -0.0063233213 0.01297868 0.0022051171 0.0034887912 6e-45 6e-45
-0.026693892 -0.0065865903 -0.01749844 -0.035412654 0.01268046 0.04650027 0.044376254 -0.015647123
0.005003254 0.0018472621 -0.0001527032 0.010191607 3.0728894e-05 -0.014393891 -0.0106555335 0.012899738
0.022556057 0.044399228 -0.0033895683 -0.0064278725 0.00076040335 -0.031784724 -0.029983036 -0.0048153186
0.0034972217 -0.00093882607 -0.0011556796 0.0024084225 0.00040301404 -0.0030423533 -0.00923897 -0.012794705
-0.038278773 -0.003799081 0.0037851837 -0.052962374 3.281641e-05 0.06871385 0.06189544 0.026312668
0.021647492 0.013202485 -0.00024600246 -0.0023554545 -4.3310974e-05 -0.004300359 0.002799532 0.026968185
0.0062812413 0.005535743 0.0060550855 0.014052512 -0.0029939455 -0.02182717 -0.021992896 -0.00505658
-0.033880092 -0.0037962315 0.010583468 -0.023504307 -0.002589582 0.03855578 0.040045388 0.016817441
-0.03248008 -0.037461303 -0.023405442 -0.052414495 0.016489467 0.06956146 0.06369634 0.017949425
0.012496856 -0.0029989295 0.0045024157 0.014533037 -0.003536779 -0.018662415 -0.019258633 -0.019258633
00000000: f45b 883a f5a0 ad3a 993a dab9 d816 aa3a
00000010: 7f8e 7fb9 8c18 21bb 609d 35bc 0400 0000
00000020: 6829 3abc 1f0c 70bc e42a 73ba cdb5 af3b
00000030: a503 273a b794 383a 8e98 b338 86bf 94ba
00000040: af23 3c3d f1e1 9b3c b44c 15bb 27e6 923c
00000050: d999 863b 429b 2cbd 798f 0ebd 0be8 da3c
00000060: 8d3b 083c f3c0 2a3c b2b2 223a a08f be3b
00000070: cc56 98ba 4d80 63bc 3c5f c837 38ff b63b
00000080: a294 d63b cbc8 983b 836b 4a3c f7d3 5dbb
00000090: 2a54 973b 44fd 6e3b 5032 ac3c c91d cebb
000000a0: 9fea 12bc 33e2 a6bb fca2 1abb 0d80 293b
000000b0: 111b afbb 6eb4 d43a 7730 6e3d 0400 0080
000000c0: 64ec a5bb 3c2b 02bc 0029 333b 72a6 953b
000000d0: 2b59 a83a d89c 09bb 0400 0000 718d b3bb
000000e0: 87e3 913b bc2a e93a a908 7d3a 2977 0eba
000000f0: 0919 dcba 9f39 9339 436c d8b8 6b68 07ba
00000100: d281 06bd 9755 543c 4258 28bb 4f2f 45bc
00000110: caaf 963b c385 40bb 0400 0000 78e7 ebbc
00000120: 9749 183d 6780 4c3d 332d 123c 736e 923c
00000130: bf35 513b 2068 0abd eb48 b2bc 552a 85bb
00000140: e7c8 67bb f77d 5cbb 6b86 92bb 4a30 c43b
00000150: 11bd 063a b361 01bc 8e94 d9bb b60d d3bb
00000160: 71e1 a4bc 3185 cdba b553 9fbb d216 1abc
00000170: 0709 8abb 02f3 843c fa51 273d e646 2a3c
00000180: 75ed ffbc 85ff 9fba 9312 0bbc 7683 05bd
00000190: b73f 4c3c c9d7 f23c 9fff 60bc 1b19 0fbd
000001a0: 9316 aabb d56f 3abc 1039 7c3a 4c58 c13b
000001b0: c59c be3a 377b f03a 26d8 2f3b e9d3 82bb
000001c0: 327d 823c 0997 3d3c f5b8 eeba 1a47 5e3b
000001d0: 507f 9d39 f0de 82bc 9878 42bc 02fe bb3b
000001e0: 2788 143b 2045 22ba 8f5e 48b8 1414 87ba
000001f0: dbd3 4839 c255 05bb 0400 0000 3862 0a3b
00000200: bc23 9b3c 9601 9dba 4c03 8abb 47ca 093c
00000210: 5555 e3bb ea52 bbbc 0972 01bc 0a0d 213d
00000220: c9cb 503a 0b31 3739 8eb3 5abb 2ec3 633b
00000230: fd80 283b 64e0 d0bb a69a 17bc 8adc 23bc
00000240: 322e e6bb c734 ceba 7fb3 7abb 11c5 84bc
00000250: 0e1a 773c 95ba a33c 7cee 893b 6f13 22bb
00000260: 3143 d03c 4fa1 873b e160 e6ba b16a 063d
00000270: 4f48 1cbb 03f0 4dbd ac07 30bd ba9d 2a3c
00000280: 62b3 6dbd 38f2 a6bc 9dba cabc f6ad eebc
00000290: b8ab 363b 9375 443d e63b 943d 2f58 323c
000002a0: 5198 96bc 11ab e0bc dd33 cfbb 88a4 543c
000002b0: ba83 103b 34a4 643b 0400 0000 0400 0000
000002c0: 26ad dabc 53d4 d7bb e358 8fbc dc0c 11bd
000002d0: b4c1 4f3c 1177 3e3d e0c3 353d 652e 80bc
000002e0: 56f2 a33b d51f f23a f41e 20b9 b3fa 263c
000002f0: e6e2 0038 5bd4 6bbc 8c94 2ebc 6c59 533c
00000300: 7bc7 b83c f7db 353d 8523 5ebb e7a0 d2bb
00000310: ce55 473a b330 02bd fc9e f5bc d2c9 9dbb
00000320: a531 653b 8d1b 76ba 2c7a 97ba a0d6 1d3b
00000330: a14b d339 3862 47bb 0c5f 17bc e2a0 51bc
00000340: 34ca 1cbd 01fa 78bb d810 783b 13ef 58bd
00000350: 5aa4 0938 d9b9 8c3d 1386 7d3d aa8d d73c
00000360: 1556 b13c 3c4f 583c e4f9 80b9 f85d 1abb
00000370: cea8 35b8 07ea 8cbb 5a78 373b 62ec dc3c
00000380: dfd2 cd3b 2e65 b53b bd69 c63b 823c 663c
00000390: 1236 44bb e5ce b2bc 722a b4bc abb1 a5bb
000003a0: dac5 0abd 32ca 78bb 4866 2d3c 1b8c c0bc
000003b0: fab5 29bb aaec 1d3d a206 243d bbc4 893c
000003c0: d509 05bd 0671 19bd c5bc bfbc 95b0 56bd
000003d0: eb14 873c 3d76 8e3d 3a73 823d ac0a 933c
000003e0: 9dbf 4c3c b089 44bb 0089 933b fa1b 6e3c
000003f0: 4ec9 67bb ece1 98bc 48c4 9dbc 48c4 9dbc

exp_avg_sq f4 [256, 8]
0.0006303767 0.0032953168 0.0007334595 0.00024809965 0.00029874788 0.0017688642 0.0100476565 7e-43
0.0022845117 0.03203082 0.003220473 0.008095454 0.00081468374 0.0008250683 3.9445178e-05 0.0008671294
0.0077603916 0.040340587 0.007790249 0.008032791 0.0031191627 0.007263814 0.098124094 0.09296791
0.00035446306 0.0021693716 0.00024058843 0.00019788693 0.00013403015 0.00036812242 0.0051306766 0.0064825467
0.0028707285 0.022991687 0.002363814 0.0006308227 0.0011022526 0.002498234 0.019851623 0.0063513024
0.008527858 0.0010431601 0.0020287624 0.0019271835 0.0015167078 0.00734827 0.078893736 7e-43
0.0010618885 0.008749073 0.0010820937 0.0020003512 0.000372813 0.0007427684 2.7235599e-06 0.001958226
0.00043065427 0.003722467 0.00040942818 0.00096053065 0.00012018116 0.00024734432 4.0135357e-05 0.00054445857
0.018206026 0.03570146 0.006984549 0.019701043 0.0036842984 0.009111286 2.1427833e-05 0.029876288
0.006176058 0.021613467 0.0041738437 0.008053546 0.001575819 0.004491473 0.03474435 0.046356842
0.0006517622 0.007145339 0.0008435843 0.0019777706 0.00020046969 0.00022853643 0.0016337503 0.0017447022
0.002019558 5.930854e-05 0.00071544916 0.00057629653 0.0007609032 0.0042715897 0.03532633 0.0002471508
0.004565511 0.011390367 0.0035623107 0.0051392117 0.0017111617 0.0067872875 0.04744987 0.08064128
0.0020541183 0.02197788 0.0030257634 0.003861551 0.0006024733 0.00084747636 0.0023207997 0.0008994157
0.001073579 0.008182534 0.00090748776 0.0012703534 0.00030740717 0.0006339256 0.010268811 0.007242287
0.00046248053 0.00049558515 0.00025250044 0.0002724461 0.00023245577 0.0018163698 7e-43 0.0065052044
0.006661584 0.043124333 0.0051652254 0.00298234 0.0023503643 0.005671512 0.057706792 0.057089344
8.057526e-05 4.134139e-06 8.0140875e-05 0.00010513784 0.00014832524 0.00031144999 0.0007057995 0.0010706879
0.0038062807 0.00037566386 0.0012567895 0.0015369429 0.0017027025 0.0057776645 0.021814601 0.03538672
0.0019496685 0.00034802483 0.0015826247 0.003460966 0.0015905126 0.0026771133 0.03893305 0.043755636
0.011942657 0.003999042 0.0024077296 0.0031639047 0.0029129907 0.008336931 0.109485894 0.04836667
0.0029260663 0.03361446 0.0035797397 0.006459424 0.00067664654 0.00080074766 5.5730894e-21 7e-43
0.0040297066 0.00012749255 0.0014808973 0.0013941723 0.0027660842 0.008605768 0.07921582 0.078637995
0.0006171615 3.8068945e-05 0.00018409599 0.00012196942 0.0003554887 0.0012049805 0.022149326 0.01734734
0.0029397379 0.0322925 0.0037666552 0.0044909897 0.0009882287 0.0017739162 0.011109258 0.01115854
0.00016237558 0.00016447516 6.4376676e-05 4.7864447e-05 0.00013334253 0.00013616953 0.002811118 0.0023846328
0.0029549224 0.00039785638 0.0010023449 0.0009758898 0.0013971393 0.004189993 0.051198006 0.057700396
0.0043027843 0.020674912 0.002068891 0.003427071 0.0014985057 0.0035381126 0.04981953 0.037209697
0.00066760875 0.002530004 0.00032866746 0.00084651395 0.00026188142 0.0006529939 0.010396582 0.008743605
0.010619819 0.008504349 0.0031898627 0.006722805 0.0024721574 0.0062905275 0.05307864 0.040610164
0.020809002 0.073925056 0.01479329 0.019408105 0.0038727198 0.007756257 0.022496492 0.018110588
0.0003115526 0.0032529905 0.00047236585 0.0011916622 0.00014988694 0.0002605062 0.00014025117 7.677084e-05
00000000: dd3f 253a 3ef6 573b a245 403a 5f13 8239
00000010: 43a1 9c39 3cd9 e73a ed9e 243c f401 0000
00000020: bfb7 153b c032 033d 920e 533b cca2 043c
00000030: 8090 553a 6549 583a f071 2538 1250 633a
00000040: e24a fe3b 2c3c 253d 5845 ff3b f89b 033c
00000050: de6a 4c3b 4a05 ee3b 49f5 c83d f665 be3d
00000060: 3ad7 b939 042c 0e3b 7746 7c39 de7f 4f39
00000070: 728a 0c39 8e00 c139 3c1f a83b 8b6b d43b
00000080: d522 3c3b 1059 bc3c 38ea 1a3b cb5d 253a
00000090: 7679 903a 69b9 233b df9f a23c 961e d03b
000000a0: 6eb8 0b3c a5ba 883a fcf4 043b 8c99 fc3a
000000b0: 45cc c63a c2c9 f03b 0a93 a13d f401 0000
000000c0: 112f 8b3a 4658 0f3c 0ad5 8d3a 5318 033b
000000d0: 1d76 c339 58b6 423a 67c6 3636 9555 003b
000000e0: 70c9 e139 a2f4 733b 85a8 d639 1fcc 7b3a
000000f0: c509 fc38 fead 8139 0357 2838 ffb9 0e3a
00000100: ce24 953c b23b 123d a5de e43b 1564 a13c
00000110: 4574 713b 8147 153c ecbf b337 1ebf f43c
00000120: 8860 ca3b ba0e b13c bdc4 883b 05f3 033c
00000130: b68b ce3a 352d 933b 1750 0e3d ace0 3d3d
00000140: 05db 2a3a 7323 ea3b fc23 5d3a 7c9d 013b
00000150: 2c35 5239 48a3 6f39 9023 d63a 7eae e43a
00000160: 905a 043b 0fc2 7838 fb8c 3b3a 9b12 173a
00000170: 5977 473a b1f8 8b3b 58b2 103d 0594 8139
00000180: 489a 953b a99e 3a3c a875 693b d566 a83b
00000190: 0f49 e03a e567 de3b cb5a 423d 4127 a53d
000001a0: 639e 063b f40a b43c e34b 463b 1312 7d3b
000001b0: 4cef 1d3a 2d29 5e3a 8f18 183b c4c6 6b3a
000001c0: 55b7 8c3a 0910 063c 79e4 6d3a fd81 a63a
000001d0: 7e2b a139 072e 263a 843e 283c b550 ed3b
000001e0: 1679 f239 28ea 013a 0962 8439 19d7 8e39
000001f0: 5fbf 7339 4213 ee3a f401 0000 9c29 d53b
00000200: 6b49 da3b 24a3 303d 0d41 a93b 5d73 433b
00000210: 9208 1a3b 17d8 b93b f55d 6c3d 84d6 693d
00000220: 83fa a838 fcb7 8a36 4e11 a838 737d dc38
00000230: c187 1b39 1c4a a339 6705 393a 5356 8c3a
00000240: cb72 793b c0f4 c439 dcba a43a 3f73 c93a
00000250: 372d df3a 9052 bd3b 89b4 b23c aaf1 103d
00000260: 058c ff3a 1a77 b639 1370 cf3a 60d1 623b
00000270: bf78 d03a 8272 2f3b 4378 1f3d 1c39 333d
00000280: 22ab 433c 650a 833b 00cb 1d3b 8359 4f3b
00000290: e0e7 3e3b 9f97 083c 243a e03d 211c 463d
000002a0: 3fc3 3f3b 51af 093d 119a 6a3b 93a9 d33b
000002b0: fb60 313a 44e9 513a 9d8b d21d f401 0000
000002c0: a10b 843b 85af 0539 ab1a c23a a9bc b63a
000002d0: 3147 353b 35ff 0c3c e73b a23d f50c a13d
000002e0: 02c9 213a 38ac 1f38 e409 4139 d5c9 ff38
000002f0: e360 ba39 70f0 9d3a 8172 b53c 021c 8e3c
00000300: 9ea8 403b 2445 043d fdd9 763b 2729 933b
00000310: 7487 813a c082 e83a 9b03 363c 4fd2 363c
00000320: 5d43 2a39 f776 2c39 f701 8738 0fc2 4838
00000330: ddd1 0b39 bbc8 0e39 bc3a 383b 8047 1c3b
00000340: 5fa7 413b 6197 d039 1d61 833a dbd2 7f3a
00000350: 3720 b73a 354c 893b 00b5 513d 4057 6c3d
00000360: 5ffe 8c3b 6f5e a93c 3b96 073b b698 603b
00000370: 8269 c43a aedf 673b 900f 4c3d 3269 183d
00000380: 7702 2f3a 6cce 253b 0051 ac39 97e8 5d3a
00000390: 214d 8939 ae2d 2b3a 6d56 2a3c 5641 0f3c
000003a0: c0fe 2d3c d355 0b3c 040d 513b fa4a dc3b
000003b0: eb03 223b c520 ce3b fd68 593d d856 263d
000003c0: a477 aa3c 0566 973d 8e5f 723c bffd 9e3c
000003d0: 75cd 7d3b 3328 fe3b 904a b83c a85c 943c
000003e0: e257 a339 2030 553b dfa7 f739 8c31 9c3a
000003f0: f82a 1d39 8d94 8839 6310 1339 0800 a138

exp_avg f4 [256]
-0.010747608 -0.02724679 -0.025722682 0.008114441 0.018539267 0.026059747 -0.033605166 -0.01000752
-0.0071545267 0.0361899 -0.007048987 0.022196148 -0.011488217 -0.031065425 -0.0014488167 0.011617334
-0.03226768 -0.009802648 -0.028042624 -0.009497688 0.02495844 -0.017632807 0.008228582 -0.0017753484
0.02673013 -0.007123597 0.074517064 0.012917544 -0.0031331058 0.05517229 -0.0038643442 -0.0038760402
-0.085766874 -0.043277368 0.008320244 -0.110751234 -0.029644031 -0.0095484285 -0.019439848 -0.0067491513
-0.029448772 0.04581468 -0.0019892156 -0.01231021 0.03409718 0.017294994 0.013805191 -0.08814129
0.007013917 -0.048060954 0.010039387 -0.03485897 -0.0341132 0.011452372 0.026598059 0.04393573
-0.019582491 0.031552676 0.0046683517 0.0034210745 -0.0052809347 0.03425309 -0.027733564 0.011024549
0.101370126 0.005905486 0.011003957 -0.0124756135 0.053252794 -0.017125158 0.061418265 -0.017954707
-0.007037324 -0.022843689 -0.010086141 -0.00538189 -0.0270855 0.039140612 0.0032913166 0.004168014
-0.00783623 0.04374537 0.0036016852 0.03075378 0.008839336 -0.19260544 0.015707925 -0.0027310262
-0.030872028 -0.016498528 0.028215678 0.0731058 0.004062658 0.015691003 -0.0023209043 -0.04784729
-0.008800634 -0.033272006 0.051043045 0.021954853 0.07420291 0.0399153 0.0043828604 -0.045421753
-0.032677237 -0.12012022 0.01352913 -0.029478211 0.0061863656 0.033420358 -0.014832988 -0.005072757
0.003748008 -0.17374644 0.06341159 0.006122668 0.006578511 0.029583976 -0.011353702 0.018948441
-0.08739251 0.027099913 0.027206853 0.06315263 0.020014936 0.005121268 -0.118471675 -0.008577958
-0.086365245 0.013444393 -0.039739206 0.022184476 6e-45 0.021913739 -0.0744691 -0.0022313131
0.007629632 -0.036115054 -0.016998371 0.012772415 0.08871421 -0.051634006 -0.011065261 0.017199432
-0.012919526 0.023005877 0.003615826 0.025101164 0.05891177 0.03158407 -0.02284467 -0.07483952
0.056712497 -0.0061783413 -0.009539787 -0.045168906 -0.004635768 0.0072371657 -0.008138163 -0.013503529
-0.021699898 -0.034717403 0.07329175 -0.06473557 0.0013377658 0.016923718 -0.024612525 0.013198545
-0.010989832 -0.0063788877 0.026608832 -0.0032508378 0.05856744 -0.021468632 0.04191439 0.0074654752
-0.026101684 0.026565647 -0.027601864 -0.011787364 -0.10457517 0.014416973 -0.024978014 0.03474605
0.09590364 0.029928574 -0.0042223143 -0.06753235 0.08617897 -0.02554188 -0.06394116 -0.06526143
-0.11578907 -0.008071972 0.008823718 0.019032417 -0.008595069 0.008400863 -0.02191551 0.0016069353
0.052205484 -0.0049996837 -0.050476003 0.017692802 -0.00960753 -0.07362142 0.013249896 0.012986969
0.023990553 0.05911423 -0.00257396 -0.33607247 -0.016361192 -0.004417928 -0.013616395 0.048759155
0.02245061 -0.016190885 -0.000103863196 -0.00013329388 0.09769624 -0.044437207 -0.010218212 0.015042084
-0.03946215 0.0054476094 -0.026203452 -0.04861564 0.02339683 0.06661991 -0.0115829995 -0.009654939
-0.085838646 -0.041860987 -0.04732085 -0.013540423 -0.000452078 0.00682723 0.022348901 -0.0282433
0.012862296 -0.12128097 0.0015410115 0.06922487 -0.014783788 -0.06667269 0.008945646 0.0039244113
-0.0068704174 0.05391866 -0.048114475 0.013894409 -0.024532935 -0.01837351 -0.14959748 -0.026392393
00000000: bc16 30bc a934 dfbc 60b8 d2bc 6ff2 043c
00000010: a9df 973c 407b d53c 92a5 09bd 95f6 23bc
00000020: 8570 eabb dc3b 143d 30fb e6bb b2d4 b53c
00000030: 1339 3cbc eb7c febc 39e6 bdba a156 3e3c
00000040: 1d2b 04bd 499b 20bc a5b9 e5bc 319c 1bbc
00000050: a475 cc3c ad72 90bc 2dd1 063c cfb2 e8ba
00000060: 25f9 da3c 106d e9bb 679c 983d 1ba4 533c
00000070: cb54 4dbb 57fc 613d f040 7dbb 2a05 7ebb
00000080: 8ba6 afbd 9c43 31bd a251 083c 8bd1 e2bd
00000090: 0ad8 f2bc 0371 1cbc 5140 9fbc fc27 ddbb
000000a0: 8d3e f1bc 2da8 3b3d 805d 02bb c3b0 49bc
000000b0: 7ca9 0b3d 3bae 8d3c 2b2f 623c 6c83 b4bd
000000c0: 00d5 e53b 90db 44bd 3e7c 243c 48c8 0ebd
000000d0: 48ba 0bbd bba2 3b3c 2ce4 d93c f4f5 333d
000000e0: 766b a0bc 613d 013d f9f8 983b 1b34 603b
000000f0: b10b adbb f84c 0c3d 8031 e3bc 4fa0 343c
00000100: 249b cf3d cf82 c13b f149 343c 8466 4cbc
00000110: 9a1f 5a3d 0f4a 8cbc b891 7b3d c015 93bc
00000120: 5a99 e6bb b022 bbbc 5740 25bc 915a b0bb
00000130: 69e2 ddbc e851 203d 21b3 573b d693 883b
00000140: 8863 00bc 582e 333d 400a 6c3b 5aef fb3c
00000150: ddd2 103c 5c3a 45be e8ad 803c 04fb 32bb
00000160: 56e7 fcbc ec27 87bc 9124 e73c 7eb8 953d
00000170: 0c20 853b 6b8a 803c 501a 18bb 85fb 43bd
00000180: 8930 10bc 3a48 08bd 8312 513d aada b33c
00000190: b2f7 973d 3a7e 233d 199e 8f3b 290c 3abd
000001a0: 91d8 05bd 9701 f6bd 49a9 5d3c 4a7c f1bc
000001b0: ffb6 ca3b c9e3 083d 1006 73bc 5f39 a6bb
000001c0: 24a1 753b 96ea 31be f0dd 813d a9a0 c83b
000001d0: 8d90 d73b 185a f23c e104 3abc c339 9b3c
000001e0: d8fa b2bd a300 de3c e8e0 de3c 2b56 813d
000001f0: 5df6 a33c 4fd0 a73b 47a1 f2bd 908a 0cbc
00000200: 43e0 b0bd df45 5c3c 94c5 22bd 38bc b53c
00000210: 0400 0000 7184 b33c 4183 98bd 393b 12bb
00000220: fe01 fa3b 61ed 13bd 2b40 8bbc 6443 513c
00000230: ccaf b53d 2e7e 53bd 124b 35bc d3e5 8c3c
00000240: 6bac 53bc d276 bc3c 7ef7 6c3b f5a0 cd3c
00000250: 784d 713d 4c5e 013d bf24 bbbc 7645 99bd
00000260: 5d4b 683d af73 cabb c44c 1cbc 0803 39bd
00000270: a4e7 97bb bf25 ed3b ee55 05bc e83d 5dbc
00000280: fcc3 b1bc d633 0ebd fc19 963d 1594 84bd
00000290: f957 af3a 9ca3 8a3c 35a0 c9bc b63e 583c
000002a0: b20e 34bc fd05 d1bb c4fa d93c 020c 55bb
000002b0: 69e4 6f3d fcde afbc 6cae 2b3d f2a0 f43b
000002c0: 33d3 d5bc 33a0 d93c 4e1d e2bc ca1f 41bc
000002d0: 822b d6bd 2b35 6c3c b19e ccbc e051 0e3d
000002e0: 2169 c43d c52c f53c 575b 8abb 674e 8abd
000002f0: 9a7e b03d 343d d1bc 95f3 82bd c9a7 85bd
00000300: d222 edbd 4e40 04bc 5b91 103c dfe9 9b3c
00000310: 55d2 0cbc c6a3 093c 2888 b3bc cd9f d23a
00000320: 6bd5 553d 63d4 a3bb edbf 4ebd 7ff0 903c
00000330: e768 1dbc d4c6 96bd 1716 593c 4cc7 543c
00000340: d687 c43c c321 723d e2af 28bb b111 acbe
00000350: e807 86bc 44c4 90bb 4d17 5fbc aeb7 473d
00000360: 57ea b73c bfa2 84bc 21d1 d9b8 cec4 0bb9
00000370: f714 c83d ca03 36bd 4a6a 27bc 1373 763c
00000380: 10a3 21bd dc81 b23b 9fa8 d6bc 3121 47bd
00000390: b5aa bf3c 0570 883d 9fc6 3dbc c02f 1ebc
000003a0: 2ccc afbd 6d76 2bbd 82d3 41bd a6d8 5dbc
000003b0: e204 edb9 f5b6 df3b 0b15 b73c 7e5e e7bc
000003c0: 61bc 523c 2862 f8bd c4fb c93a c5c5 8d3d
000003d0: b337 72bc b18b 88bd c290 123c 5998 803b
000003e0: 3d21 e1bb d0d9 5c3d af13 45bd 60a5 633c
000003f0: 4bf9 c8bc 0b84 96bc 1530 19be dc34 d8bc
