results/windy/models/checkpoint_ep1300.pth (torch, 436198 bytes, 18 tensors)

fc1.weight f4 [256, 8]
0	0xbe6dd2b3	-0.23224907
1	0xbe7e7070	-0.24847579
2	0xbf8c56c7	-1.0963982
3	0x3f4984db	0.78718346
4	0x3f9eaaa2	1.2395823
5	0x3e46d894	0.19418555
6	0x3e56afa3	0.20965438
7	0xbf7df577	-0.99202675
8	0x3f3f7eca	0.7480284
9	0x3f1f069e	0.6211947
10	0x3eb55c40	0.35421944
11	0xbfc2f123	-1.5229839
12	0xbcab3dbe	-0.020903464
13	0xbf9ce017	-1.2255887
14	0xbf535692	-0.8255397
15	0x3e5dc905	0.21658714
16	0x3e216e9c	0.1576485
17	0xbd13ba64	-0.036066428
18	0x3f4ddd68	0.80415964
19	0x3f1a29be	0.60219944
20	0xbd8c6bb5	-0.06856481
21	0x3f5182d2	0.8184024
22	0x3ea77936	0.32709664
23	0x3efcc7af	0.49371096
24	0xbe4cf1ae	-0.20014068
25	0x3e7da867	0.24771272
26	0x3ec5a62d	0.38603345
27	0x3ebe2dbb	0.37144265
28	0x3f692951	0.9107867
29	0x3df7cc8c	0.12099561
30	0xbe7d96c6	-0.24764547
31	0x3f2e2e3e	0.6803931
32	0x3bbbeecf	0.0057352553
33	0xbc8d63df	-0.017259536
34	0x3f0d6519	0.5523239
35	0x4046434c	3.0978575
36	0x3a09f33e	0.0005262381
37	0xbbc17b98	-0.005904626
38	0x3f358b8b	0.7091605
39	0x3e87cde7	0.2652428
40	0x3f0cc260	0.5498409
41	0xbf6c4326	-0.9228996
42	0xbedb5fe1	-0.42846587
43	0xbe76e1f4	-0.24109632
44	0x3f85c65b	1.0451158
45	0xbf036ab7	-0.5133471
46	0x3e1dbac4	0.15403277
47	0xbfa3964a	-1.278024
48	0x3eaddd29	0.33957794
49	0x3e6c174f	0.23055767
50	0xbdb6e19d	-0.08929751
51	0xbf31d8d2	-0.69471467
52	0xbde9dd86	-0.11419205
53	0xbf762cb1	-0.96161944
54	0xbfa1573f	-1.260475
55	0x3bbbeaaf	0.0057347636
56	0xbebfe111	-0.374764
57	0xbdc3363b	-0.09531828
58	0xbe8faf5e	-0.28063482
59	0xbec28acc	-0.3799652
60	0xbee73142	-0.45154768
61	0xbf20fd21	-0.62886244
62	0xbf5cb41c	-0.86212325
63	0x3ec43c7d	0.383274
64	0xbe29b670	-0.165735
65	0xbf250a63	-0.64468974
66	0xbb4cce3a	-0.003125085
67	0xbedf9db3	-0.43675002
68	0xbf559d2e	-0.8344296
69	0xbed14cc2	-0.40878874
70	0xbfdb24ef	-1.7120646
71	0x3f0bb660	0.5457516
72	0x3f5549f8	0.8331599
73	0xbedffb2c	-0.43746316
74	0x3f571445	0.84015304
75	0xbf202e16	-0.6257032
76	0xbe3a027c	-0.1816501
77	0x3e79f534	0.24409944
78	0xbeb99176	-0.3624379
79	0x3f66281a	0.8990494
80	0x3e38b016	0.18035921
81	0x3e84218e	0.2580685
82	0x3cf96375	0.030442933
83	0xbf041295	-0.51590854
84	0xbf7064de	-0.9390391
85	0x3f0f426b	0.5596072
86	0xbe415bb9	-0.18882646
87	0x3f4404c2	0.7656976
88	0x3eb5b328	0.35488248
89	0xc024ea44	-2.5767984
90	0xbed8cdcd	-0.42344514
91	0xbf3d7252	-0.74002564
92	0x3d9e7dae	0.07738815
93	0x3f47ee33	0.7809784
94	0x3e41dd79	0.18932141
95	0xbf51df14	-0.81981015
96	0x3f919b73	1.1375564
97	0xbf820c1b	-1.0159944
98	0x3f50af3a	0.81517375
99	0xbf497a32	-0.7870208
100	0x3ffabc2d	1.9588677
101	0x3e8c1621	0.27360633
102	0xbeb82d94	-0.35972273
103	0x3e726a20	0.23673296
104	0x3eee160e	0.465012
105	0x3f110043	0.56641024
106	0xbf51f479	-0.8201366
107	0x3e882ab3	0.26595077
108	0xbf3213d7	-0.69561523
109	0xbeab686c	-0.33478105
110	0xbe68ceaf	-0.22735094
111	0xbd9180f1	-0.07104672
112	0xbec243d5	-0.37942377
113	0x3ef58f4e	0.47960895
114	0x3d52f9a6	0.051507615
115	0x3ed5605a	0.41675073
116	0xbca435c0	-0.020045161
117	0x3fb944ff	1.4474181
118	0x3ef1321c	0.47108543
119	0x3f5b2868	0.8560853
120	0x3e83d01b	0.2574471
121	0xbf23f1f7	-0.64041084
122	0x3fbadced	1.4598671
123	0x3e45e79d	0.19326635
124	0x3f451385	0.7698291
125	0xbfdb02d9	-1.7110244
126	0xbf9827c6	-1.1887138
127	0xbee84c67	-0.4537079
128	0xbefb50b8	-0.4908502
129	0x3ed68c05	0.419037
130	0xbe8e82a8	-0.27834058
131	0x3f853cda	1.0409195
132	0x3f3ed24c	0.7453964
133	0xbe4d8ed2	-0.20074013
134	0x3f0f43e1	0.5596295
135	0x3e7fca46	0.24979505
136	0x3f63cb06	0.88981664
137	0xbfa0bdc4	-1.2557912
138	0x3fa23937	1.267371
139	0xbe8fcb8c	-0.2808498
140	0xbe086861	-0.13321067
141	0xbed425d7	-0.4143512
142	0xbecee349	-0.4040778
143	0x3f5f0213	0.8711254
144	0xbf2cae20	-0.67453194
145	0xbfa8208f	-1.3134936
146	0xbf953ad1	-1.1658574
147	0xbd91f0c6	-0.07126002
148	0x3eb96469	0.3620942
149	0xbf968ded	-1.1762062
150	0xbd86fd40	-0.06591272
151	0x3d410317	0.047122087
152	0x3ecc9341	0.39956096
153	0xc000e3ad	-2.0138962
154	0xbf07c1a9	-0.53029877
155	0xbefe6fe3	-0.49694738
156	0xbf7923d5	-0.973203
157	0x3f30d8e5	0.69080955
158	0x3f1e9119	0.6194015
159	0x3e1862b0	0.14881396
160	0x3f8130e4	1.0093045
161	0xbf139065	-0.57642204
162	0xbea34684	-0.31889737
163	0x3e28390a	0.16428009
164	0x3ead2694	0.33818495
165	0x3f30243d	0.68805295
166	0x3dbac6a3	0.09119918
167	0xbe65835d	-0.22413392
168	0x3e3e7e38	0.18602836
169	0xbdb5d226	-0.08877973
170	0xbe45a387	-0.19300662
171	0xbf16332a	-0.5867182
172	0xbd97f3c3	-0.07419541
173	0x3e295063	0.16534571
174	0xbf561a46	-0.8363384
175	0xbf34652b	-0.7046687
176	0x3e6204ad	0.22072096
177	0xc043aaa4	-3.05729
178	0xbf8fa0bb	-1.1220926
179	0xbd9a2785	-0.07527069
180	0xbee6f72f	-0.4511046
181	0xbf63d7ad	-0.8900097
182	0x3f2aea90	0.66764164
183	0x3f2396e6	0.6390213
184	0xbf5d3b30	-0.8641844
185	0xbf1b9d2a	-0.6078669
186	0xbf877e1a	-1.0585358
187	0x3f00d56b	0.5032565
188	0x3f6225b1	0.8833876
189	0xbed0dd4c	-0.40793836
190	0x3f614321	0.87993056
191	0x3f423123	0.75856227
192	0x3db46943	0.088091396
193	0x3e2c6f97	0.16839443
194	0x3dd1d30e	0.102453336
195	0x3e785cbd	0.24254127
196	0xbedcc223	-0.43116865
197	0xbe9e8992	-0.30964333
198	0x3f1d30df	0.61402696
199	0x3f2662c6	0.64994466
200	0x3b8c4e9e	0.004281833
201	0xbd74af74	-0.059737638
202	0xbe81a107	-0.25318167
203	0x3c97facd	0.018552208
204	0xbf2ea9b3	-0.6822769
205	0xbd985c2c	-0.074394554
206	0x3f104acb	0.56364125
207	0x3ef610c1	0.48059657
208	0xbf6b947b	-0.9202344
209	0xbfb0784f	-1.3786715
210	0x3f1a9389	0.6038137
211	0x3f9dcc45	1.2327963
212	0x3f837985	1.027146
213	0x3e9e0d2b	0.3086942
214	0x3f0a9a60	0.5414181
215	0x3fc51210	1.5396137
216	0xbe2cd8a7	-0.16879521
217	0x3ed02a30	0.40657187
218	0xbf164e0e	-0.5871285
219	0x3f9ac737	1.2092046
220	0xbe02bdae	-0.1276767
221	0xbea334b2	-0.3187614
222	0x3ee360a5	0.4440967
223	0xbec1c566	-0.37845916
224	0xbd938f5f	-0.0720508
225	0xbd8b9747	-0.06815963
226	0x3f825af9	1.0184013
227	0xbf9aaba6	-1.2083633
228	0x3c8e304a	0.01735701
229	0xbe1886c4	-0.14895159
230	0x3e4fd7b8	0.20297134
231	0x3f09a1c2	0.5376245
232	0xbedace4e	-0.42735523
233	0xbed73edb	-0.42040142
234	0x3eb8f7ac	0.3612646
235	0xbe706973	-0.23477726
236	0x3f433f42	0.762684
237	0x3e05f29e	0.13080832
238	0x3f814233	1.0098327
239	0xbe1fa504	-0.15590292
240	0xbca9d1b8	-0.020729885
241	0xbda459d7	-0.08024948
242	0xbfef40d6	-1.8691661
243	0x3f3cf534	0.7381165
244	0xbedafd98	-0.42771602
245	0x3e6ba234	0.23011094
246	0xbe98051a	-0.29691392
247	0xbcb08745	-0.021548877
248	0xbc43003e	-0.011901913
249	0x3ea7221f	0.3264322
250	0xbeff4fc3	-0.4986554
251	0xbf8a6e68	-1.0814943
252	0xbeea38a2	-0.45746332
253	0x3f69023c	0.91019034
254	0xbf42f60c	-0.7615669
255	0xbf4c60db	-0.7983529

fc1.bias f4 [256]
0	0xbe992dd5	-0.2991778
1	0xbe3c14bd	-0.18367286
2	0x3db587bc	0.0886378
3	0xbbbef5db	-0.005827648
4	0x3a99dde3	0.0011739101
5	0x3e03f409	0.12886061
6	0x3d079bcf	0.033107575
7	0xbd2a3637	-0.04155561
8	0x3ecaacb6	0.39584893
9	0xbc600956	-0.013674101
10	0xbe0fe155	-0.14050801
11	0xbcf3f3a6	-0.029779267
12	0x3da4b11b	0.08041593
13	0x3cfb0126	0.030640196
14	0x3c5a1c9c	0.013312485
15	0xbbc81e34	-0.006107116
16	0x3c2b4b73	0.010455
17	0xbe7b6b45	-0.24552639
18	0xbd6511a3	-0.055925023
19	0xbe1003df	-0.14063977
20	0x3e0238a9	0.12716927
21	0x3e1955b6	0.14974102
22	0xbdff0c2d	-0.12453494
23	0xbe307b19	-0.17234458
24	0xbc7e0c36	-0.015505841
25	0xbb95e1ac	-0.0045740213
26	0x3e484d04	0.19560629
27	0x3e99a297	0.3000686
28	0x3d8b0147	0.06787353
29	0x3dcd696d	0.10029874
30	0x3c785bfe	0.015158651
31	0xbd9ce7e1	-0.07661415
32	0xbb2b869e	-0.0026172767
33	0x3eacef52	0.33776337
34	0x3d161f4b	0.036650937
35	0xbe49f1bc	-0.1972112
36	0xba2d3e0f	-0.0006608674
37	0x3e5dac7a	0.21647826
38	0x3e5528ab	0.20816295
39	0x3da02ae6	0.07820682
40	0xbe82ecfb	-0.25571427
41	0xbe4ed0e0	-0.20196867
42	0xbd6b4a04	-0.057443634
43	0xbd99b1ec	-0.07504639
44	0xbedcab83	-0.43099603
45	0xbe2f34c1	-0.17109968
46	0x3d0a6860	0.033790946
47	0x3e0b4277	0.13599573
48	0x3d16d73e	0.036826365
49	0x3dc23824	0.09483364
50	0xbb010453	-0.0019686415
51	0x3e272fc9	0.16326822
52	0xbdb86ef0	-0.09005535
53	0xbd4145fb	-0.04718588
54	0x3ab4875d	0.0013773252
55	0xbd8e1551	-0.069376595
56	0xbd8965e3	-0.067088865
57	0x3b89ed3d	0.004209189
58	0x3da67646	0.081280276
59	0x3d886926	0.066606805
60	0xbcde0b44	-0.027104981
61	0x3e5b091b	0.21390192
62	0x3d178105	0.036988277
63	0x3e854e4d	0.260363
64	0x3e4df6a7	0.20113622
65	0x3bb4a41e	0.0055127284
66	0xbe031184	-0.1279965
67	0x3d96b29a	0.07358284
68	0xbdd1c323	-0.102422975
69	0xbdf74657	-0.12073963
70	0x3e8bc46e	0.272983
71	0xbdb3b370	-0.08774459
72	0xbe383edb	-0.17992727
73	0x3d849309	0.06473357
74	0x3e155395	0.14582665
75	0xbede033c	-0.43361843
76	0x3e8afcf5	0.27146116
77	0xbe8b0dd4	-0.27158988
78	0x3d587424	0.052845135
79	0x3c9a75e2	0.018855039
80	0x3e5c5eec	0.21520585
81	0xbd767041	-0.060165647
82	0xbf00ad69	-0.502646
83	0xbd9d4b16	-0.07680337
84	0xba90d840	-0.0011050776
85	0xbb2d5e87	-0.0026454048
86	0x3e473c62	0.19456628
87	0xbccd4fc8	-0.025062457
88	0xbe4fb122	-0.20282415
89	0xbcd77fa4	-0.026305981
90	0x3bbfb4af	0.0058503966
91	0x3d699184	0.05702354
92	0xbe145fb2	-0.1448963
93	0xbc7475fe	-0.01492071
94	0x3c9b4ed5	0.018958488
95	0xbe1baabc	-0.15201849
96	0x3d7b046c	0.061283514
97	0x3e17a73e	0.14809892
98	0x3cc24f73	0.023719525
99	0xba48f31a	-0.00076656195
100	0xbde105d9	-0.109874435
101	0x3e01ffd5	0.12695248
102	0xbb15b3d6	-0.0022842786
103	0xbe074cb5	-0.13212855
104	0xba07cd03	-0.00051803904
105	0xbaef526d	-0.0018258818
106	0xbeb5aeff	-0.35485074
107	0xbe841760	-0.25799084
108	0xbbe0d7f6	-0.006861682
109	0xbaf91687	-0.0019003906
110	0x3d975b57	0.073904686
111	0xbe89c354	-0.26906836
112	0x3dfcbb58	0.123404205
113	0xbe8404bb	-0.2578486
114	0x3e93af41	0.28844646
115	0xbab8298f	-0.0014050471
116	0x3e4c7194	0.19965202
117	0x3d8959f3	0.067066096
118	0x3d93d930	0.072191596
119	0x3ebee3a6	0.37283057
120	0xbeb74f26	-0.35802573
121	0x3e2aa38a	0.16663948
122	0xbdf3c06e	-0.119019374
123	0x3dcb443e	0.099251255
124	0x3cccd0ed	0.025001967
125	0x3e3574de	0.17720363
126	0x3c28a122	0.010292323
127	0xbbf81e3b	-0.007571963
128	0x3e0e1747	0.13876067
129	0xbe8493e0	-0.2589407
130	0xbe0f9afb	-0.14023964
131	0x3d61b00f	0.055099543
132	0xbf06c8fc	-0.5265043
133	0xbe114550	-0.14186597
134	0xbc844027	-0.016143871
135	0xbba5e2dc	-0.005062444
136	0xbdc842fa	-0.097784
137	0x3b9a4b8c	0.004708713
138	0xb9b6f7c5	-0.00034898348
139	0xbea083bc	-0.31350505
140	0x3e38c49b	0.18043749
141	0x3d05ff99	0.03271446
142	0x3d126cb6	0.035748206
143	0x3de65cce	0.1124817
144	0x3e55d740	0.20882893
145	0xbea96a53	-0.3308893
146	0xbe47ceef	-0.19512533
147	0x3ea0fa8d	0.31441155
148	0x3db28346	0.08716445
149	0xbb1d266d	-0.0023979202
150	0xbab68a56	-0.0013926725
151	0xbe4c3806	-0.19943246
152	0x3e061cff	0.13096999
153	0x3cce8908	0.025211826
154	0x3dcd7868	0.10032731
155	0xbe8358e3	-0.25653753
156	0xbd28291e	-0.041054837
157	0xbe2e327d	-0.17011447
158	0xbc1dd2ae	-0.0096327495
159	0xbe8f68ba	-0.28009588
160	0xbe16e76a	-0.14736715
161	0x3e1420e0	0.14465666
162	0xbe70faf5	-0.23533233
163	0xbe308698	-0.17238843
164	0x3dcd2f6a	0.10018809
165	0x3e87c237	0.26515362
166	0xbd23c8a8	-0.039986283
167	0x3d7573b6	0.059924804
168	0xbe23c5bd	-0.159934
169	0xbe8656aa	-0.26237994
170	0xbe722a0f	-0.23648857
171	0xbe238a20	-0.1597066
172	0x3eb85768	0.36004186
173	0x3c3ea4d6	0.01163598
174	0xbe88a4c5	-0.2668821
175	0x3e87e61e	0.26542753
176	0xbcb85fb8	-0.02250658
177	0xbe2c1303	-0.16804127
178	0xbe9608b8	-0.29303527
179	0x3d97544a	0.07389124
180	0x3ae8c103	0.0017757717
181	0x3e8ac9e8	0.27107167
182	0x3e323830	0.17404246
183	0x3ea27769	0.31731728
184	0x3e2adf71	0.16686799
185	0x3cb60dcd	0.022223378
186	0xbe5dd17a	-0.2166194
187	0xbb7d6b9c	-0.0038668877
188	0x3de91f4c	0.113829225
189	0xbc4adc4e	-0.012381626
190	0xbdad114c	-0.08450565
191	0xbd89f014	-0.067352444
192	0x3dfab15b	0.12240859
193	0xbd9cecf6	-0.07662384
194	0x3e57ac4f	0.21061824
195	0x3db27b28	0.087148964
196	0x3de19cb2	0.110162154
197	0xbe3f8101	-0.18701555
198	0xbed0b1df	-0.40760705
199	0xbe554b5b	-0.20829527
200	0xbe981bdd	-0.29708758
201	0xbe8acd65	-0.2710983
202	0x3db1d6c3	0.08683541
203	0xbec84e25	-0.3912212
204	0x3e08a0be	0.13342568
205	0xbeb81da1	-0.35960105
206	0x3e1bdcf0	0.15221
207	0x3e88f9c8	0.26753068
208	0x3da3c7c0	0.07997084
209	0x3d4daadc	0.050211772
210	0xbe7f2dbf	-0.24919794
211	0xbac68fc8	-0.0015149051
212	0xbe2d28db	-0.16910116
213	0xbd897c8f	-0.06713211
214	0xbe97fe02	-0.2968598
215	0xbeb665a0	-0.3562441
216	0xbced1c73	-0.02894423
217	0x3ba77962	0.0051109055
218	0xbd20055e	-0.03906762
219	0xbe32d829	-0.17465271
220	0x3ca913cc	0.020639323
221	0xbe3d940c	-0.18513507
222	0x3bdf85f4	0.0068213884
223	0x3d9d7465	0.07688216
224	0x3e07d383	0.13264279
225	0x3e194b09	0.1497003
226	0x3e5b160f	0.21395133
227	0xbe6da39c	-0.23206943
228	0x3ef9a42c	0.48758066
229	0x3bb74f33	0.005594158
230	0xba1db5a4	-0.0006016141
231	0xbed58ac7	-0.4170744
232	0xba705661	-0.0009168145
233	0xbe0dc8ca	-0.13846126
234	0xbe539b60	-0.2066474
235	0xbe87a612	-0.2649389
236	0x3e8c2e55	0.273791
237	0xbe01a0ad	-0.12658949
238	0x3dbfa7d4	0.093581825
239	0xbd9dc3be	-0.077033505
240	0xbd488b6a	-0.04896108
241	0x3e0461c3	0.12927918
242	0x3e87a48b	0.26492724
243	0x3e83635b	0.2566174
244	0xbdfa8bb7	-0.1223368
245	0xbba1f3d4	-0.0049423967
246	0xbc8e5ba1	-0.017377676
247	0xbd579097	-0.052628126
248	0xbe4121ad	-0.18860503
249	0xbd557ff8	-0.052123994
250	0xbed7a3d3	-0.42117175
251	0x3ec2a278	0.3801458
252	0x3dd066cc	0.10175857
253	0xbcf415f7	-0.02979563
254	0xba3b11cd	-0.00071361364
255	0x3b7266e0	0.0036987588

fc2.weight f4 [128, 256]
0	0xbe1d15ef	-0.15340398
1	0x3e80fd48	0.25193238
2	0xbd74883e	-0.059700243
3	0x3d937893	0.07200732
4	0xbeaabddd	-0.3334798
5	0xbd5cdd39	-0.053921912
6	0x3d5f51c0	0.054521322
7	0xbf6a89fc	-0.916168
8	0x3e326f9d	0.1742539
9	0xbcce846e	-0.025209632
10	0xbdd11595	-0.102091946
11	0x3f0601b6	0.5234636
12	0x3e7dd10a	0.24786773
13	0x3e7ea369	0.24867024
14	0x3dd38ec6	0.10329966
15	0xbd4fabdc	-0.050701007
16	0xbe370147	-0.17871581
17	0xbe038264	-0.12842709
18	0xbda15151	-0.07876838
19	0x3ea4c82e	0.32183975
20	0x3de74d0a	0.11293991
21	0xbe0788cc	-0.13235778
22	0x3db511f2	0.088413134
23	0xbccb3707	-0.024806513
24	0x3c02b77e	0.007978318
25	0x3d343dc9	0.044004235
26	0x3bf542f0	0.007484786
27	0xbe893108	-0.2679522
28	0xbbeef0f8	-0.0072919093
29	0x3e32d34c	0.17463416
30	0x3fa6da1e	1.3035314
31	0xbed0e1a1	-0.4079714
32	0x3de06ec0	0.10958624
33	0x3e989055	0.29797617
34	0x3e938c27	0.28817865
35	0x3e890ac8	0.26766038
36	0xbdbb6af6	-0.091512606
37	0x3b90c6d4	0.0044182334
38	0x3d563a5a	0.052301742
39	0x3f1d35f5	0.61410457
40	0xbe25c158	-0.16187036
41	0x3edaa94c	0.42707288
42	0x3e984ec9	0.29747608
43	0xba8ca186	-0.001072929
44	0x3d60734c	0.054797456
45	0x3cc0757b	0.023493519
46	0x3e672e54	0.22576267
47	0xbd338048	-0.04382351
48	0xbbe4e77c	-0.006985603
49	0xbfd92431	-1.696417
50	0x3e45e29d	0.19324727
51	0xbed3f77f	-0.41399762
52	0x3c9aafc5	0.018882642
53	0xbf8048e0	-1.002224
54	0xbee85815	-0.453797
55	0xbfb140b7	-1.3847874
56	0x3dbfe3a1	0.09369589
57	0xbd4e2fe7	-0.050338652
58	0xbe20b31f	-0.1569333
59	0xbef90d69	-0.48643044
60	0x3e8dbd98	0.2768371
61	0x3f1bbac0	0.6083183
62	0xbd91f36f	-0.071265094
63	0xbe367098	-0.17816389
64	0x3e8b85c6	0.272505
65	0xbb6c1410	-0.00360227
66	0x3e84acbc	0.25913036
67	0x3d6aa801	0.057289127
68	0xbe1eb1f6	-0.15497574
69	0x3e29bf02	0.1657677
70	0xbe8402e5	-0.25783458
71	0xbbcfd85d	-0.006342931
72	0xbceb7e1e	-0.02874666
73	0x3d4ab2ad	0.049486805
74	0x3dddad70	0.10824096
75	0x3e561889	0.20907797
76	0x3efc517d	0.4928092
77	0x3e27c2f6	0.16382965
78	0x3eb9810d	0.3623127
79	0x3e668867	0.22512971
80	0x3f6890d5	0.90845996
81	0xbe4e7c62	-0.20164636
82	0xbeb61338	-0.35561538
83	0xbf015ca4	-0.50531983
84	0x3e3f3e1d	0.18676038
85	0x3dc509cc	0.09621009
86	0x3e202b2e	0.15641472
87	0x3cb73689	0.022364872
88	0x3ddab2e8	0.10678655
89	0xbefff649	-0.49992588
90	0x3cd7cd25	0.026342938
91	0x3eb9dad4	0.36299765
92	0x3e1582fc	0.14600748
93	0x3df13ff6	0.11779778
94	0xbe386941	-0.18008901
95	0xbe6673cf	-0.22505115
96	0x3e09bede	0.13451716
97	0xbf6703ca	-0.90240157
98	0x3c76e5ef	0.015069469
99	0xbc777f03	-0.015105966
100	0x3e4b699d	0.19864507
101	0x3e53f339	0.20698251
102	0xbdda0390	-0.10645211
103	0xbca87630	-0.020564169
104	0x3ec4bd8e	0.3842587
105	0x3ea49ace	0.32149357
106	0xbde71046	-0.11282401
107	0x3e590df1	0.21196724
108	0x3cc63b42	0.024198178
109	0x3d871d83	0.06597426
110	0xbe30ba01	-0.17258455
111	0x3d6b4cc5	0.05744626
112	0xbea12e3a	-0.3148058
113	0xbf37bb06	-0.7176975
114	0x3d21ffe6	0.039550684
115	0xbe99bc2e	-0.30026382
116	0xbe9fcf9c	-0.3121308
117	0xbe2165ac	-0.15761441
118	0xbe2989cc	-0.16556472
119	0xbe1a3506	-0.1505929
120	0xbf026a1a	-0.5094315
121	0x3a95bbe1	0.001142379
122	0x3eb71abb	0.3576258
123	0xbeba0372	-0.36330754
124	0x3cd7b326	0.026330542
125	0xbd9045e3	-0.0704458
126	0xbed80835	-0.4219376
127	0x3e52771d	0.2055325
128	0x3e81199c	0.2521485
129	0xbeef1346	-0.46694392
130	0x3e0e47b0	0.13894534
131	0x3e5643af	0.20924257
132	0xbea99f71	-0.33129457
133	0x3e5d7bc6	0.21629247
134	0xbd37e0cc	-0.044892117
135	0xbd41a496	-0.047276102
136	0x3f49b5f4	0.78793263
137	0x3d614506	0.054997467
138	0x3ebae633	0.36503753
139	0x3e97729c	0.29579628
140	0x3e1a98c5	0.1509734
141	0xbef5c066	-0.4799835
142	0xbe4accaa	-0.19804636
143	0x3e5dc21f	0.21656083
144	0xbe9d844b	-0.30764994
145	0xbdccbc8e	-0.099969015
146	0xbe9b38c2	-0.3031674
147	0x3df88f5c	0.12136719
148	0xbf847154	-1.0347085
149	0x3e4e1c3e	0.20127961
150	0x3e7841e3	0.24243884
151	0xbe4cc525	-0.1999708
152	0xbf1e57d3	-0.6185276
153	0xbdc3f0dc	-0.09567425
154	0x3e329c9f	0.17442559
155	0x3eaced78	0.33774924
156	0xbc4ecd26	-0.012622153
157	0x3db02b80	0.08602047
158	0xbe844e9b	-0.2584122
159	0xbdadf8eb	-0.08494743
160	0x3dd756e1	0.10514618
161	0xbd632f6c	-0.055465147
162	0x3d225450	0.039631188
163	0xbeb3838f	-0.3506131
164	0xbd0d6a4c	-0.0345252
165	0xbf2cc1be	-0.6748313
166	0x3d38540c	0.04500203
167	0xbf0024a5	-0.50055915
168	0xbfb271ad	-1.3940941
169	0x3e56b67c	0.2096805
170	0xbc8836e7	-0.016627742
171	0x3e894103	0.26807413
172	0x3f6a25a8	0.9146371
173	0xbe7240ee	-0.23657581
174	0x3cb82b99	0.022481726
175	0xbe348be4	-0.17631489
176	0x3d28871b	0.04114447
177	0x3d056ddc	0.032575473
178	0x3d4ec243	0.05047823
179	0x3e96efb4	0.29479754
180	0xbdb42529	-0.0879615
181	0x3e0a98f7	0.13534914
182	0x3e5eec9c	0.21769947
183	0x3e9b6d05	0.30356613
184	0xbeef2b31	-0.4671264
185	0xbcbd8856	-0.0231363
186	0xbbe001f7	-0.0068361717
187	0xbe32c1c1	-0.17456724
188	0xbe8e4cd3	-0.27792987
189	0xbe4ab600	-0.1979599
190	0xbd5824b8	-0.052769393
191	0x3d598929	0.05310932
192	0x3d1d4054	0.038391426
193	0x3e76a37a	0.24085799
194	0xbd44c4e9	-0.04803935
195	0xbdbc5c98	-0.09197348
196	0xbe3469ca	-0.1761848
197	0xbe30e27c	-0.17273897
198	0x3e57f8a9	0.2109095
199	0x3e00958a	0.12557045
200	0xbdcccac0	-0.09999609
201	0xbec94a34	-0.39314425
202	0x3eb767c8	0.35821366
203	0x3dccd5ac	0.10001692
204	0x3c9185cd	0.017763996
205	0x3e37eb08	0.17960751
206	0xbd49bf8b	-0.049254935
207	0x3e00cae4	0.12577397
208	0xbf69de9d	-0.91355306
209	0xbee49472	-0.44644505
210	0x3e1cf6e1	0.15328552
211	0x3e23e87a	0.16006652
212	0x3e09f281	0.13471414
213	0xbeb74cbb	-0.35800728
214	0x3e47f313	0.19526319
215	0x3efb9e30	0.49144125
216	0x3d7b84e6	0.06140604
217	0x3dc81b62	0.09770848
218	0xbea94e4a	-0.33067542
219	0x3e5cb08b	0.21551721
220	0xbe66f290	-0.22553468
221	0x3c3f9b8c	0.0116948
222	0x3e7cd0b0	0.24688983
223	0xbea4d633	-0.3219467
224	0xbe3fd5f8	-0.18733966
225	0x3e142f00	0.14471054
226	0xbdcfdf4b	-0.10150012
227	0xbd4aed3a	-0.049542643
228	0x3de1c82e	0.11024509
229	0x3ea6eb2c	0.32601297
230	0xbd58462f	-0.052801307
231	0x3d36e79d	0.044654477
232	0x3dfe80ff	0.12426948
233	0x3d7130bc	0.058884367
234	0x3e3185e8	0.17336237
235	0xbea5b627	-0.32365534
236	0x3cdc3f82	0.026885752
237	0x3daf2734	0.08552399
238	0xbf66939a	-0.9006897
239	0xbe2765ae	-0.16347381
240	0xbe15cf02	-0.14629748
241	0xbe292add	-0.16520257
242	0x3ec2ba3c	0.3803271
243	0xbee9bb1e	-0.45650572
244	0xbe37bdcc	-0.17943496
245	0xbeb1f72a	-0.34758884
246	0x3e23e006	0.16003427
247	0xbd70599b	-0.058679204
248	0xbe82ae5c	-0.2552365
249	0x3f08ef72	0.53490365
250	0x3d0e918a	0.034806766
251	0x3d4bec1d	0.049785722
252	0xbe084d9f	-0.1331086
253	0xbe385c95	-0.18004067
254	0x3e5aef64	0.21380383
255	0x3c426e2f	0.01186709

fc2.bias f4 [128]
0	0x3e3ce3c1	0.18446256
1	0xbe1574f8	-0.14595401
2	0xbcaff3c6	-0.021478545
3	0x3e7428a6	0.23843631
4	0xbd677f4b	-0.05651788
5	0x3d46c11d	0.04852401
6	0x3e05b142	0.130559
7	0x3d86af4c	0.06576404
8	0x3d637e30	0.055540264
9	0xbe63b173	-0.2223566
10	0x3cf4e05d	0.029892141
11	0x3e1f6310	0.15565133
12	0x3e7d4e79	0.24736966
13	0x3e84b016	0.25915593
14	0xbe223b7d	-0.15843005
15	0x3e4c5cd2	0.19957283
16	0xbafae6e3	-0.0019142296
17	0xbc821816	-0.015880626
18	0x3cbcccc5	0.02304686
19	0xbe4bd066	-0.19903716
20	0x3e357989	0.17722143
21	0xbebd38b4	-0.36957324
22	0xbdd3b03c	-0.103363484
23	0x3db223f0	0.08698261
24	0xbdaf3a67	-0.08556061
25	0xbe508906	-0.2036477
26	0xbe9cfd76	-0.30662125
27	0x3e06821f	0.13135575
28	0x3d5e7893	0.054314207
29	0x3e114ca6	0.14189395
30	0x3ee10bce	0.4395432
31	0xbeee4d5e	-0.465434
32	0x3de79f44	0.113096744
33	0x3e1e82af	0.1547954
34	0x3e254745	0.16140468
35	0x3be04e52	0.006845274
36	0x3e09270a	0.13393798
37	0xbe9eb94c	-0.31000745
38	0x3e2fd3eb	0.17170684
39	0x3da265ca	0.07929571
40	0x3df6dbce	0.12053643
41	0x3da7f570	0.0820111
42	0xbe1ee868	-0.15518343
43	0x3e698508	0.22804654
44	0x3d9188e1	0.07106186
45	0x3e6593bb	0.22419636
46	0xbe895657	-0.26823685
47	0xbdcf0ff4	-0.10110465
48	0x3e06e094	0.13171607
49	0xbeb73c15	-0.35788026
50	0x3e03b399	0.1286148
51	0x3dc85af5	0.09782974
52	0xbdf3f0f4	-0.119111925
53	0x3e1e960d	0.15486927
54	0xbcf7ee9a	-0.030265141
55	0x3e4d463c	0.20046324
56	0xbd3f78fe	-0.046746247
57	0x3dc6b784	0.097029716
58	0x3db0d560	0.08634448
59	0x3e96e2ff	0.2947006
60	0xbbedd8a3	-0.007258491
61	0xbe7ff28f	-0.24994873
62	0x3e3d7156	0.18500265
63	0xbdcd1570	-0.100138545
64	0x3d7f9016	0.06239327
65	0x3dfa5ba6	0.12224512
66	0xbd845fd4	-0.0646359
67	0x3d141e1c	0.036161527
68	0x3e3b618f	0.18298934
69	0x3d16b2ad	0.036791492
70	0x3dd9a4fc	0.106271714
71	0x3e3234e9	0.17402996
72	0x3e8082a2	0.25099665
73	0xbe820dcf	-0.2540116
74	0xbe11cd56	-0.14238486
75	0x3c666b78	0.0140637085
76	0xbda1b9f7	-0.07896798
77	0x3e567bad	0.20945616
78	0x3db4f3b0	0.08835542
79	0x3dad6946	0.08467345
80	0xbd68c626	-0.056829594
81	0x3e135dc4	0.14391237
82	0x3e59cc7a	0.21269408
83	0x3e04e433	0.12977676
84	0x3caaa3b2	0.02083001
85	0x3da07416	0.07834642
86	0x3d063b57	0.032771435
87	0x3e2f1c23	0.17100577
88	0xbe2e992c	-0.17050618
89	0xbc43231f	-0.011910229
90	0x3d5a3423	0.053272378
91	0x3d70bc31	0.058773223
92	0xbc81240f	-0.015764264
93	0x3ce82953	0.028340017
94	0x3d928eec	0.071561664
95	0xbd8d9181	-0.06912518
96	0xbca3a61e	-0.019976672
97	0x3dd61108	0.10452467
98	0x3d14b599	0.036305998
99	0x3d8c0ec5	0.068387546
100	0x3e0aea39	0.13565911
101	0xbeceb11e	-0.40369505
102	0x3e1326cf	0.14370273
103	0xbebd1867	-0.3693268
104	0xbca0be6c	-0.01962205
105	0x3e1ff67a	0.15621367
106	0xbe294bbd	-0.16532798
107	0x3eae230b	0.3401111
108	0x3e407d80	0.18797874
109	0x3e0803b4	0.13282663
110	0xbc914324	-0.01773221
111	0xbe3b7a8d	-0.18308468
112	0xbdd7eaee	-0.10542856
113	0x3e33f3d6	0.17573485
114	0x3e541fd5	0.20715268
115	0xbe0d20f9	-0.1378211
116	0x3da04c7b	0.078270875
117	0xbe6b2c8e	-0.22966215
118	0xbccd65c7	-0.025072945
119	0xbe2c241b	-0.16810648
120	0xbe8bc4f8	-0.27298713
121	0x3df2c1e0	0.11853385
122	0x3e2319de	0.15927836
123	0xbd5582aa	-0.052126564
124	0xbd3e64ef	-0.046482977
125	0xbdcd60c8	-0.10028225
126	0xbd45ed9f	-0.048322316
127	0xbed11820	-0.40838718

fc3.weight f4 [4, 128]
0	0x3ed7cca3	0.42148313
1	0xbebde435	-0.3708817
2	0xbdff1b5c	-0.1245639
3	0x3f08f130	0.5349302
4	0xbedb0bc4	-0.42782414
5	0xbe424f00	-0.18975449
6	0x3f144dae	0.5793103
7	0x3f3f76d4	0.7479069
8	0xbec26618	-0.37968516
9	0xbf26097c	-0.6485822
10	0x3f65df05	0.89793426
11	0xbed3823f	-0.41310307
12	0xbf318237	-0.6933932
13	0x3f9cb3f3	1.2242416
14	0xbe6f2796	-0.23354945
15	0x3f086a41	0.5328713
16	0x3e69728c	0.22797602
17	0xbe6e67da	-0.23281804
18	0x3f43d30c	0.76493907
19	0x3f5dde04	0.86666894
20	0x3eef8fcb	0.46789393
21	0xbfa22b55	-1.2669474
22	0xbec62b3c	-0.3870486
23	0x3eb13704	0.34612286
24	0xbf3246f3	-0.6963951
25	0xbecf0337	-0.4043214
26	0xbb2c0262	-0.0026246537
27	0xbf019edb	-0.5063302
28	0x3dd78761	0.10523868
29	0xbe9f5a72	-0.31123692
30	0xbf25a97c	-0.6471174
31	0xbf3b6542	-0.7320138
32	0x3f0d1cb7	0.5512194
33	0xbebc096c	-0.36725938
34	0x3e819ff4	0.25317347
35	0xbee52b4b	-0.44759592
36	0x3f309df4	0.6899102
37	0xbf64b9c9	-0.89345986
38	0x3e82e7ce	0.25567478
39	0xbe89f9a2	-0.26948267
40	0x3ee7855e	0.4521894
41	0x3f330759	0.69933087
42	0x3f3b4103	0.73146075
43	0x3f2d61da	0.67727435
44	0x3e00354a	0.12520328
45	0xbebea17d	-0.3723258
46	0xbe48d5a8	-0.19612753
47	0x3f09d976	0.53847444
48	0xbed41183	-0.4141961
49	0xbf51a6ec	-0.8189533
50	0xbeb42dd2	-0.35191208
51	0x3f2d30da	0.67652667
52	0xbe8f34be	-0.27969927
53	0xbe20f9f2	-0.15720347
54	0xbf215205	-0.63015777
55	0x3f123a84	0.5712054
56	0xbed94557	-0.42435715
57	0xbeb40f23	-0.35167798
58	0xbe83b654	-0.25725043
59	0xbef9363e	-0.48674196
60	0x3e73948e	0.23787138
61	0xbf14fa0b	-0.58194035
62	0x3f1ecd56	0.6203207
63	0x3eef3307	0.46718618
64	0xbe2caf3e	-0.16863725
65	0x3f573432	0.8406402
66	0x3f0e1a27	0.55508655
67	0xbec31b5f	-0.3810682
68	0x3f113818	0.5672622
69	0xbf8f0c82	-1.1175692
70	0x3f10afae	0.56518066
71	0xbf08b56c	-0.5340183
72	0xbead2743	-0.33819017
73	0xbf60d6bc	-0.8782766
74	0x3f4b2add	0.7936228
75	0x3f7763a2	0.966364
76	0xbeb3e7c8	-0.35137773
77	0xbf1a1362	-0.60185826
78	0x3e919e1d	0.28440943
79	0x3f36a03c	0.7133825
80	0xbea061d3	-0.31324634
81	0x3ebc023a	0.3672045
82	0x3dea3f18	0.114378154
83	0xbecbcfeb	-0.39807066
84	0xbeaecf1b	-0.34142384
85	0x3f025b14	0.50920224
86	0x3f1a516f	0.6028051
87	0x3ee49022	0.44641215
88	0xbf863b0c	-1.048677
89	0xbea42d58	-0.32065845
90	0xbf417ba0	-0.7557926
91	0x3f0308eb	0.5118548
92	0xbbb348e7	-0.005471337
93	0xbf214f6e	-0.63011825
94	0x3f6407d9	0.89074475
95	0xbe09b080	-0.13446236
96	0xbe05f809	-0.13082899
97	0x3faa85c4	1.3322072
98	0xbf82be63	-1.0214351
99	0x3ed13b0a	0.40865356
100	0x3f114e37	0.5675997
101	0xbf335276	-0.700477
102	0x3ebf7f03	0.3740159
103	0xbf2a2e11	-0.6647654
104	0xbd640e6e	-0.055677824
105	0xbf316b27	-0.69304127
106	0x3f829ebc	1.0204692
107	0xbf0f2f99	-0.55932003
108	0x3f18b16b	0.5964572
109	0x3efdd46d	0.4957613
110	0xbe8b8b35	-0.27254644
111	0x3e8303b6	0.2558877
112	0xbec568b0	-0.38556433
113	0x3ed65214	0.41859496
114	0x3f085d8a	0.5326773
115	0x3fa424df	1.2823752
116	0x3eff8d2f	0.49912402
117	0xbf07519a	-0.5285889
118	0x3f3edb5f	0.74553484
119	0xbf5ff464	-0.87482285
120	0xbd5a3c70	-0.053280294
121	0x3e94d30b	0.29067263
122	0x3e6c7cf9	0.23094548
123	0xbedb4405	-0.42825332
124	0x3ee27f81	0.44237903
125	0x3f47f457	0.7810721
126	0xbef5973b	-0.47966942
127	0xbed69164	-0.419078
128	0x3e78244f	0.242326
129	0xbe8f14d1	-0.2794557
130	0xbe507aa8	-0.2035929
131	0x3f1ee703	0.62071246
132	0xbe8adfb2	-0.2712379
133	0xbe9b3aed	-0.30318394
134	0x3f2d575d	0.6771143
135	0x3f4199d0	0.75625324
136	0xbe9e7d3e	-0.30954927
137	0xbf6fe543	-0.937092
138	0x3f847e76	1.0351093
139	0xbd7a8d1c	-0.06116973
140	0xbf282ed5	-0.6569646
141	0x3f6c8377	0.923881
142	0xbe9d510e	-0.30725902
143	0x3ee3867c	0.4443854
144	0x3f0f1a94	0.5589993
145	0x3ea022db	0.31276593
146	0x3f480c2c	0.7814357
147	0x3f557462	0.8338071
148	0x3ee1a271	0.44069245
149	0xbf3d77a0	-0.7401066
150	0xbf0e098f	-0.55483335
151	0x3ec87b43	0.3915654
152	0xbf0e2c2e	-0.5553616
153	0xbecabf99	-0.39599302
154	0xbef6676f	-0.4812579
155	0xbdd3d63f	-0.103435986
156	0xbddaaf60	-0.106779814
157	0xbefc8d31	-0.4932647
158	0xbf2d4422	-0.6768209
159	0x3dcfd0bc	0.10147235
160	0x3f2c8713	0.67393607
161	0xbeb3eb0a	-0.35140258
162	0x3e8c47d3	0.27398548
163	0xbed6c736	-0.4194886
164	0x3eb99a97	0.36250755
165	0xbf61b558	-0.88167334
166	0x3e55907e	0.208559
167	0xbe3e8ebd	-0.18609138
168	0x3f0ca1c3	0.5493433
169	0x3e9746e6	0.2954628
170	0x3f34786c	0.7049625
171	0x3eefd06b	0.46838698
172	0x3eadd7df	0.3395376
173	0xbf1bc87e	-0.608528
174	0x3d9eb577	0.077494554
175	0x3f4ff131	0.81227404
176	0xbf5b6f79	-0.8571697
177	0x3f66660f	0.8999948
178	0xbec3e27c	-0.3825873
179	0x3f3da831	0.74084765
180	0xbe906627	-0.28202936
181	0xbdfcf83a	-0.12352033
182	0xbf24df4b	-0.6440322
183	0x3e4df041	0.20111181
184	0xbf08a8ba	-0.53382456
185	0xbec1bb0a	-0.37838012
186	0x3e4640ae	0.19360611
187	0xbeff7611	-0.49894765
188	0x3eada463	0.3391448
189	0xbef3d6f0	-0.47624922
190	0x3ef2b07c	0.47400272
191	0x3bf0d6f7	0.0073498446
192	0x3f369734	0.7132447
193	0x3ee2980f	0.44256637
194	0x3f33f40e	0.7029427
195	0xbf027205	-0.5095523
196	0x3f176721	0.5914174
197	0xbf1c777f	-0.61119837
198	0x3f1508b7	0.5821642
199	0xbeb0b881	-0.34515765
200	0xbed17166	-0.4090683
201	0xbef1da45	-0.4723684
202	0xbf02037f	-0.50786585
203	0x3f85015e	1.0391042
204	0xbf1395ea	-0.57650626
205	0xbee3e96e	-0.4451403
206	0xbdeccdec	-0.11562714
207	0x3f02337b	0.508598
208	0xbe9673e5	-0.29385296
209	0x3efe3947	0.49653074
210	0x3e84bd44	0.25925648
211	0xbef193f3	-0.4718319
212	0xbdf35540	-0.118814945
213	0x3f38cdb2	0.72188866
214	0x3f58ac7a	0.8463818
215	0x3ea957cd	0.330748
216	0xbf3faa4d	-0.74869233
217	0xbedd7e41	-0.43260387
218	0xbf0f4c62	-0.55975926
219	0x3f010b2a	0.5040766
220	0xbd642b15	-0.05570515
221	0xbf4caad6	-0.79948175
222	0x3f6e4b47	0.93083614
223	0xbe8c0a2e	-0.27351516
224	0x3efd832b	0.49514136
225	0x3f983467	1.1890992
226	0xbf683945	-0.90712386
227	0x3eb825fa	0.35966474
228	0x3e837053	0.25671634
229	0xbf4003da	-0.75005877
230	0x3f1c81d0	0.6113558
231	0xbf64039a	-0.89067996
232	0x3b6ff78a	0.003661605
233	0xbf63c185	-0.8896716
234	0x3e1b5285	0.15168197
235	0xbf23d422	-0.63995564
236	0x3ee09407	0.43862936
237	0x3f99a4b0	1.2003384
238	0xbec45c11	-0.3835149
239	0x3e0215b0	0.12703586
240	0xbed41bdc	-0.41427505
241	0x3ef2dc91	0.47433904
242	0x3f46004b	0.773442
243	0x3fa62520	1.298008
244	0x3e98fdf2	0.29881245
245	0xbee6dd4f	-0.4509072
246	0x3f40052a	0.7500788
247	0xbf227abf	-0.63468546
248	0x3e8a32ab	0.26991782
249	0xbd14a3b5	-0.036288936
250	0x3ec1ea1c	0.37873924
251	0xbe5fbced	-0.21849413
252	0x3ee7196a	0.45136577
253	0x3f254cb9	0.64570194
254	0xbf2d5a8e	-0.677163
255	0xbf22b077	-0.63550514

fc3.bias f4 [4]
0	0x3e0e1021	0.1387334
1	0x3cc5e92c	0.024159037
2	0x3de16a09	0.11006553
3	0xbb6c9d12	-0.0036104363

exp_avg f4 [256, 8]
0	0xbb92aa57	-0.0044758725
1	0xbb4b6dd7	-0.0031040811
2	0x3b02b2b6	0.0019942946
3	0xbb3b350d	-0.0028565556
4	0x3b1aae54	0.0023602443
5	0x3bc5471b	0.0060204393
6	0x3c3bccfb	0.011462445
7	0x00000004	6e-45
8	0x3c92076a	0.0178258
9	0x39bf8f56	0.00036537152
10	0x3c835dca	0.016035933
11	0x3c17c87f	0.009264111
12	0x3c176c1c	0.009242084
13	0x37659c6f	1.3685886e-05
14	0x33acf26d	8.053471e-08
15	0xbaac70aa	-0.0013156135
16	0xbc9a910c	-0.018867992
17	0xbc3b2e42	-0.011424603
18	0xbb176779	-0.0023102446
19	0xbb81b7c2	-0.003958673
20	0x3b342973	0.0027490526
21	0x38576337	5.1352396e-05
22	0x3da23de8	0.07921964
23	0x3d3bcec8	0.0458515
24	0xbb252028	-0.0025196169
25	0xbbf59355	-0.00749437
26	0x3b006124	0.001958915
27	0xbb238335	-0.0024950032
28	0x39561a3e	0.00020418406
29	0x39713de0	0.00023006601
30	0x3c87a114	0.0165563
31	0x3c2d26e7	0.010568357
32	0x3cbc9efe	0.023025032
33	0x3d193ae2	0.03740967
34	0x3c450d18	0.012027048
35	0x3b6b0a71	0.0035864378
36	0xbc0cbd78	-0.008590095
37	0xbb856b3c	-0.004071621
38	0xbcfd6283	-0.030930763
39	0xbbc0b04b	-0.0058803908
40	0xba6c4807	-0.00090134185
41	0xba4613c9	-0.0007556049
42	0x3c458dec	0.012057763
43	0x3b85d931	0.004084729
44	0xb9da8516	-0.00041679357
45	0xbc4b6292	-0.012413638
46	0xbd75179f	-0.05983698
47	0x80000004	-6e-45
48	0x3bf07ee2	0.0073393444
49	0x3c147d45	0.00906307
50	0x3bf62437	0.0075116414
51	0xb9cfc350	-0.00039627636
52	0x3b2f4953	0.0026746585
53	0x3ab60728	0.0013887631
54	0x00000004	6e-45
55	0x3a4a89f3	0.00077262445
56	0xbb2067af	-0.0024475863
57	0x3bc7a971	0.006093197
58	0xbb3086dc	-0.0026935851
59	0xbbb0a7b2	-0.0053910846
60	0xba0879d0	-0.000520614
61	0xbb86ea8a	-0.0041173147
62	0x28b62158	2.022052e-14
63	0x3bff36d7	0.00778852
64	0x3ccf0130	0.025269121
65	0xbd4eec69	-0.050518427
66	0x3d0b3bfd	0.033992756
67	0x3d05fdc7	0.032712724
68	0x3c0e555c	0.008687343
69	0x3c8d3b12	0.017240081
70	0x80000004	-6e-45
71	0x3c52ca06	0.012865549
72	0xbcdaec0d	-0.026723886
73	0xbcb8b283	-0.022546059
74	0xbb25b21f	-0.002528317
75	0x3c448b04	0.0119960345
76	0xba07c4be	-0.0005179158
77	0xbc0a0600	-0.008424282
78	0x3cf8b33b	0.030358901
79	0x3ca781d8	0.020447657
80	0x3c224e22	0.009906324
81	0xbc0dbc40	-0.008650839
82	0x3c3476dc	0.011014666
83	0x3c38f1d5	0.011288126
84	0x3c020188	0.007934935
85	0xbb508c7f	-0.0031822023
86	0x3b858336	0.0040744795
87	0x3bde3bdc	0.006782038
88	0xba446bdd	-0.00074928795
89	0x3aaf4d26	0.0013374432
90	0x3b914398	0.0044331066
91	0x3b10bb12	0.002208416
92	0x3b824ac7	0.0039761993
93	0xbbb38981	-0.005479038
94	0xbd0dc525	-0.03461184
95	0xb6cc9b18	-6.097729e-06
96	0x3c0875b6	0.008328846
97	0x3b1cde8d	0.0023936362
98	0xbb23101a	-0.0024881423
99	0x3b88f791	0.004179903
100	0x3bcd6dbd	0.0062691853
101	0x3bfffba4	0.0078119803
102	0xbcba08bc	-0.022709243
103	0x3ab10e89	0.001350836
104	0x3c21ff28	0.009887494
105	0x3c8b370b	0.01699402
106	0x3c81bd9a	0.01583748
107	0x3c07dfd3	0.00829311
108	0x3913e9b6	0.00014106077
109	0xbb35fd48	-0.0027769376
110	0x3a95ac6c	0.0011419184
111	0x3c33f473	0.010983574
112	0xbb9dc4d1	-0.004814722
113	0xbc353a55	-0.011061271
114	0xbac26115	-0.0014829958
115	0xba4e0ead	-0.0007860463
116	0xbb44939d	-0.002999521
117	0x3b4e5ef3	0.00314897
118	0x3cc66409	0.024217622
119	0x3c473601	0.012158872
120	0xba7a8d69	-0.0009557815
121	0xbbb6202c	-0.0055580344
122	0xbbd205bd	-0.0064093755
123	0x3baf7a99	0.005355191
124	0xba877d9e	-0.001033712
125	0x3c2eaca9	0.010661283
126	0xa907d49f	-3.016044e-14
127	0xbc8c92dc	-0.017159872
128	0xbc81078e	-0.015750673
129	0xbc7a3072	-0.015270339
130	0xbc22ac6b	-0.009928803
131	0xbc6c593f	-0.014425575
132	0xbb47ec9e	-0.0030506025
133	0x3c1c48f0	0.009538874
134	0x3d5da93d	0.054116476
135	0x3c9439ba	0.018093932
136	0xbc2348dd	-0.009966102
137	0x39ead9ce	0.00044794235
138	0xbb328f5a	-0.0027246089
139	0x3aafcadd	0.0013411898
140	0x3b9b7dfe	0.004745244
141	0xba2f810f	-0.00066949514
142	0x3bc54e03	0.0060212626
143	0x3a9bcac5	0.0011885992
144	0xbb9b7c53	-0.004745045
145	0x3b514ae1	0.00319355
146	0xbb999266	-0.0046866415
147	0x3b8a7ee7	0.0042265537
148	0x3a0b5bb1	0.0005316092
149	0x3c1a6b91	0.00942506
150	0xbc767a55	-0.015043815
151	0xbcba73a5	-0.022760222
152	0xbc8f9399	-0.017526435
153	0x3b4423c5	0.0029928547
154	0xbc030ad4	-0.007998187
155	0xbb5786eb	-0.0032886814
156	0x3c78a0fc	0.0151751
157	0x3c2a1e87	0.010383255
158	0x3d03fe15	0.032224733
159	0xbbdcfaa2	-0.006743745
160	0x3c4b7429	0.012417831
161	0xbb569c8f	-0.0032747125
162	0x3c84c521	0.01620728
163	0x3c102596	0.008798024
164	0xbc57433b	-0.013138588
165	0xbbbc1707	-0.0057400498
166	0xbd2637a1	-0.040580396
167	0x3c0f77a4	0.008756552
168	0x3c66afb8	0.014079981
169	0x3a160bab	0.00057237846
170	0x3c409278	0.011753671
171	0x3c3a287c	0.011362191
172	0x3bfbd537	0.0076853293
173	0x3b0ab259	0.0021163432
174	0x00000004	6e-45
175	0x00000004	6e-45
176	0x3c58af22	0.013225349
177	0xbb43091e	-0.0029760073
178	0x3be6aa97	0.007039379
179	0x3bb402ed	0.005493513
180	0xbbe7f3b4	-0.007078612
181	0x3bd36548	0.0064512827
182	0xbd8a093e	-0.06740044
183	0xbd13d272	-0.03608937
184	0xbb9683b0	-0.004593335
185	0xb986d9c4	-0.0002572072
186	0xb925275a	-0.00015750286
187	0xbb2465fa	-0.0025085197
188	0x3a5fe315	0.0008540613
189	0x3b812b30	0.003941916
190	0x3d0600f5	0.032715756
191	0x3c84dfba	0.016219962
192	0xbc983f97	-0.01858501
193	0xbc925143	-0.017861014
194	0xbc01b7ac	-0.007917326
195	0xbc0d698d	-0.008631122
196	0xba32707f	-0.00068069244
197	0x39a8b9f7	0.00032182012
198	0x3cc82d22	0.024435584
199	0x3c59e89c	0.013300087
200	0xba4291ea	-0.00074222556
201	0x3aad6f1d	0.0013231967
202	0x39ba0ec9	0.000354877
203	0x39f6656d	0.00046996344
204	0x3b18b8c8	0.0023303498
205	0xbb3f2aaa	-0.0029169717
206	0xbc40bc2a	-0.011763612
207	0xbb69a1b7	-0.0035649368
208	0x3ba34641	0.00498274
209	0x3b30f51e	0.002700157
210	0xbb41f977	-0.0029598156
211	0x3af68423	0.001880769
212	0xbb110ae0	-0.0022131726
213	0x3b12ed54	0.002241929
214	0xbd50350e	-0.050831847
215	0xbcf8bb45	-0.030362735
216	0xbc6b14a0	-0.014348179
217	0x3b622d2d	0.003451179
218	0xbc6eabe6	-0.014567351
219	0xbc83e0c6	-0.016098391
220	0xba3e7b10	-0.00072662625
221	0x3b92e061	0.0044823145
222	0x3d463560	0.048390746
223	0x3cd7951c	0.026316218
224	0x3b50c058	0.0031852927
225	0x3b02f815	0.0019984294
226	0x3beabda3	0.0071637197
227	0xbb6e6b78	-0.0036379974
228	0x3beebafb	0.0072854734
229	0x3aa9dfe1	0.0012960398
230	0x3d0bddd2	0.03414709
231	0x3c90c7b4	0.01767335
232	0x3cb1bb58	0.021695778
233	0xbc9dfb23	-0.01928479
234	0x3bd48878	0.006485995
235	0x3c805534	0.015665628
236	0x3c839115	0.016060391
237	0x39efad06	0.00045714545
238	0xbd4a5fc6	-0.049407743
239	0xbcd75acf	-0.026288418
240	0xbc063e3f	-0.008193552
241	0xbc0109b7	-0.007875851
242	0x3c58be22	0.013228925
243	0x3cecf359	0.028924631
244	0x35bdb5ff	1.4134565e-06
245	0x39636891	0.00021687361
246	0x3b9714b8	0.004610624
247	0x3ce01544	0.02735389
248	0x3b8805b4	0.0041510705
249	0xbc4eb868	-0.012617208
250	0x3b1dc30a	0.0024072551
251	0x3c3cfc2e	0.011534734
252	0x3aa777b3	0.0012776762
253	0xbaeeb8b6	-0.0018213007
254	0x1e8e14dd	1.5043464e-20
255	0x80000004	-6e-45

exp_avg_sq f4 [256, 8]
0	0x3998c47b	0.0002913809
1	0x3b11e143	0.002225951
2	0x39fc3932	0.000481078
3	0x391528db	0.00014224967
4	0x394e7255	0.00019688283
5	0x3ad021ca	0.001587921
6	0x3bb35ceb	0.005473723
7	0x000001f4	7e-43
8	0x3ab1eac4	0.0013573994
9	0x3cc94f95	0.02457408
10	0x3b088ec2	0.0020837043
11	0x3bf62469	0.0075116646
12	0x3a11e13c	0.00055648736
13	0x39dd5837	0.0004221813
14	0x382c8857	4.1134972e-05
15	0x39e4d89e	0.0004364894
16	0x3bc2f897	0.0059500444
17	0x3cb32ad5	0.02187101
18	0x3b9112cc	0.0044272896
19	0x3ba1ca81	0.0049374704
20	0x3b61adf8	0.003443597
21	0x3bd032eb	0.006353726
22	0x3dc4a730	0.09602201
23	0x3db55c04	0.08855441
24	0x39745426	0.00023301001
25	0x3a8ab582	0.0010582658
26	0x38f682a6	0.00011754529
27	0x39001d79	0.0001221801
28	0x38e9f1dc	0.000111553556
29	0x39c0901d	0.00036728467
30	0x3bbdd772	0.0057935053
31	0x3bf1b146	0.007375869
32	0x3b55176f	0.0032515188
33	0x3c9f7fda	0.019470144
34	0x3b0871d3	0.0020819798
35	0x3a078e47	0.0005171042
36	0x3b105a2c	0.0022026403
37	0x3b487259	0.0030585735
38	0x3cc34f17	0.023841424
39	0x3c15b092	0.009136336
40	0x3bf4780a	0.007460599
41	0x3a89627a	0.0010481619
42	0x3b09a3fe	0.0021002288
43	0x3b677de9	0.003532285
44	0x3b14c129	0.002269814
45	0x3c2293d2	0.009922938
46	0x3da15333	0.07877197
47	0x000001f4	7e-43
48	0x3a3935d3	0.00070652104
49	0x3bf92ced	0.0076042325
50	0x3a52bbe3	0.00080388616
51	0x3af7b371	0.0018898082
52	0x39ad4293	0.00033046733
53	0x3a082192	0.00051929906
54	0x2bdee822	1.5838479e-12
55	0x3ac368e3	0.0014908578
56	0x395ad2bd	0.00020868606
57	0x3ac4973e	0.0014998687
58	0x3932b1f6	0.00017041698
59	0x3a258436	0.00063139515
60	0x38555e80	5.0871167e-05
61	0x38e57d67	0.00010942929
62	0x36237a97	2.436025e-06
63	0x3a3d297a	0.00072159583
64	0x3c4b9a0b	0.012426863
65	0x3d05ed4c	0.032697007
66	0x3ba5f717	0.005064856
67	0x3ca61613	0.020274198
68	0x3b63ce8d	0.0034760565
69	0x3bfe6897	0.007763933
70	0x331c1822	3.634353e-08
71	0x3d0226ed	0.031775404
72	0x3bad6402	0.005291463
73	0x3c93cab6	0.018040996
74	0x3b3b6079	0.0028591438
75	0x3c04c6c1	0.008104027
76	0x3b08bbb4	0.0020863833
77	0x3b9a1b71	0.0047029783
78	0x3d19ced4	0.037550762
79	0x3d45b692	0.048269816
80	0x3a164b3f	0.00057332584
81	0x3c0abe25	0.008468186
82	0x3a553c6d	0.00081343093
83	0x3b2db55a	0.00265058
84	0x397070c4	0.00022930192
85	0x39504dc6	0.00019865399
86	0x3a7a3a67	0.0009545446
87	0x3a8bd11d	0.0010667179
88	0x3afaedd6	0.0019144367
89	0x38915938	6.930757e-05
90	0x3a2542c5	0.00063042
91	0x3a2a4d50	0.0006496506
92	0x3a7458b6	0.000932108
93	0x3bb13c6b	0.0054088137
94	0x3cf2148f	0.029550819
95	0x388334a9	6.2563755e-05
96	0x3bc852f0	0.0061134025
97	0x3c68519c	0.014179613
98	0x3b83ff7f	0.0040282602
99	0x3be0db28	0.006862063
100	0x3b241676	0.0025037802
101	0x3c49d9e6	0.012320017
102	0x3d91aac6	0.071126506
103	0x3dd6e5e9	0.10493071
104	0x3abceb85	0.0014413452
105	0x3ca46306	0.02006675
106	0x3b0caec4	0.0021466473
107	0x3b6f860e	0.0036548409
108	0x3a1e4901	0.00060381
109	0x3a0c6a9e	0.00053564634
110	0x3b13f0dd	0.0022573986
111	0x3a9c62b2	0.0011931269
112	0x3a10f3af	0.0005529476
113	0x3b5a2407	0.0033285634
114	0x39b7c29c	0.00035049475
115	0x3a084e61	0.00051996676
116	0x3980f594	0.00024597032
117	0x3a094663	0.00052366237
118	0x3c19b8a5	0.009382402
119	0x3bea4c17	0.007150184
120	0x39dd5d16	0.0004222176
121	0x3a1f8e08	0.0006086533
122	0x3997aaac	0.00028928125
123	0x39c19eae	0.00036930054
124	0x39289602	0.00016077611
125	0x3b014541	0.0019725116
126	0x38907f50	6.890169e-05
127	0x3bb8161a	0.005617869
128	0x3b96ec07	0.0046057734
129	0x3d083034	0.033249095
130	0x3b6fa6aa	0.0036567845
131	0x3b2d3b92	0.0026433212
132	0x3b156562	0.0022796025
133	0x3bd04090	0.0063553527
134	0x3d7d314f	0.061814602
135	0x3d74fac2	0.059809454
136	0x3a1666e8	0.000573738
137	0x39376281	0.00017488936
138	0x395bdf50	0.00020968658
139	0x39e6a8ec	0.00043994875
140	0x39ecb39a	0.0004514724
141	0x3a2155a3	0.00061544235
142	0x3abfdcb4	0.0014637918
143	0x3b020cc1	0.0019844028
144	0x3b1afc68	0.002364898
145	0x39563539	0.00020428457
146	0x3a61e6a9	0.000861744
147	0x3a50a5fd	0.00079593045
148	0x3a8b8df2	0.0010647161
149	0x3ba7c2ef	0.0051196734
150	0x3c7475d7	0.014920673
151	0x3ceb2ab8	0.028706893
152	0x3b244106	0.002506317
153	0x38981766	7.252283e-05
154	0x3a184750	0.0005808966
155	0x39fa625c	0.00047757
156	0x3b287496	0.0025704256
157	0x3afded87	0.0019373157
158	0x3d27f5f9	0.041006062
159	0x3d4b89c8	0.049691945
160	0x3c172448	0.009224959
161	0x3b1d4c3a	0.0024001733
162	0x3ad93c60	0.0016573779
163	0x3b48f2c7	0.0030662285
164	0x3b840fd0	0.0040302053
165	0x3c067f4f	0.008209064
166	0x3dc70d3a	0.0971932
167	0x3d5b4aed	0.05353825
168	0x3b037aee	0.0020062285
169	0x3d01b269	0.031664286
170	0x3b3c7dad	0.0028761432
171	0x3bde690d	0.0067874254
172	0x3a25105a	0.0006296687
173	0x3a31b9a1	0.0006779675
174	0x019b61c8	5.7078317e-38
175	0x000001f4	7e-43
176	0x3b73f992	0.0037227613
177	0x38dcb88b	0.00010524791
178	0x3a9ba4ba	0.0011874654
179	0x3a811a49	0.0009849753
180	0x3b26b9fe	0.002544045
181	0x3c17237e	0.009224771
182	0x3da83e23	0.08214977
183	0x3db8dea9	0.09026844
184	0x3a3c7cca	0.0007190226
185	0x37b31a2a	2.1350646e-05
186	0x392bf25b	0.00016398115
187	0x391c5c12	0.00014911618
188	0x39d916b7	0.0004140639
189	0x3ad23a15	0.0016039038
190	0x3cd03d3e	0.025419828
191	0x3ca59f51	0.02021757
192	0x3ad6e132	0.0016394018
193	0x3cd619ac	0.026135288
194	0x3b2eee93	0.0026692494
195	0x3b7171fd	0.0036841624
196	0x3a588a3e	0.0008260346
197	0x3ada5c7d	0.0016659644
198	0x3c28f7eb	0.0103130145
199	0x3c211869	0.00983248
200	0x39066de7	0.00012820178
201	0x390b177b	0.0001326482
202	0x383da376	4.5213346e-05
203	0x381d95f3	3.7571368e-05
204	0x38f615bb	0.00011734242
205	0x392c6c69	0.00016443584
206	0x3b39910d	0.0028315217
207	0x3b2b775b	0.002616367
208	0x3b247dc1	0.002509937
209	0x395a404a	0.0002081405
210	0x3a1bd262	0.000594413
211	0x3a124b3f	0.00055806705
212	0x3aa98770	0.001293404
213	0x3b677df2	0.0035322872
214	0x3d5fd2f5	0.054644544
215	0x3d7a661c	0.061132535
216	0x3b5410ec	0.003235872
217	0x3c296ff2	0.010341631
218	0x3a8d1525	0.0010763748
219	0x3b0743f6	0.0020639873
220	0x3ad199b0	0.0015991237
221	0x3b7c1e5d	0.0038470246
222	0x3d59b1a3	0.053147923
223	0x3d2c9ffe	0.042144768
224	0x3a2ad865	0.00065172306
225	0x3b4922d0	0.0030690916
226	0x399b13af	0.0002957857
227	0x3aa77ee1	0.0012778902
228	0x399eaea7	0.00030266235
229	0x3a3acb03	0.0007125588
230	0x3c625964	0.013815258
231	0x3c476b4c	0.012171578
232	0x3bf6c871	0.0075312187
233	0x3c0beedd	0.008540836
234	0x3b1d1d4b	0.0023973759
235	0x3c016cfa	0.007899517
236	0x3b415ea1	0.0029505866
237	0x3bb25ef2	0.0054434473
238	0x3d52848d	0.05139594
239	0x3d1ea43b	0.03873084
240	0x3c351f90	0.011054888
241	0x3d58273c	0.05277179
242	0x3c24c5e9	0.010056951
243	0x3c250921	0.010072977
244	0x3b411939	0.0029464497
245	0x3bfda187	0.007740203
246	0x3ca3f279	0.02001308
247	0x3caccec3	0.021094685
248	0x39a5786b	0.0003156097
249	0x3b219fce	0.0024661901
250	0x39ca3a4c	0.00038571877
251	0x3a9f67ac	0.0012161634
252	0x393fd49d	0.00018294384
253	0x39945c37	0.00028297465
254	0x392873c4	0.00016064855
255	0x3121616d	2.3483964e-09
