results/windy/models/checkpoint_ep500.pth (torch, 436170 bytes, 18 tensors)

fc1.weight f4 [256, 8]
-0.21199962 -0.24672776 -1.1426015 0.3758266 1.2082117 -0.080097586 -0.06609082 -0.61198014
0.78806704 0.6210906 0.5630218 -1.4665846 0.24118935 -1.5008026 -1.0943168 0.08926803
0.12603675 -0.005996698 0.65530306 0.5815477 0.32866704 1.0091319 0.32779652 0.5436429
-0.15952353 0.4272754 0.21872017 0.062631205 0.8614988 -0.024224358 -0.32035246 0.8926374
-0.00063012657 0.032483235 0.45554563 2.404572 -0.05085268 0.17196347 0.7484525 0.6385582
0.4375633 -0.6470897 -0.4004339 -0.3197092 0.6490029 -0.72361004 0.3107619 -1.3593653
0.5141506 0.23829791 0.0033827298 -0.6869183 0.09141081 -1.1842362 -0.9876021 -0.03947757
-0.31685707 -0.013630446 -0.2672965 -0.4594657 -0.63789076 -0.6427628 -0.9887428 0.39101523
-0.16010746 -0.73307854 0.054447625 -0.54203993 -0.44732013 -0.3151896 -1.7853158 0.6735596
0.9143765 -0.6580311 0.66684794 -0.38828573 0.32057437 0.2279206 -0.44205347 0.79205984
0.19966085 0.26388738 0.064199135 -0.55536115 -0.5752068 0.4764166 -0.24382678 1.0673414
0.3937708 -1.3883153 -0.4491467 -0.55918914 0.34751692 0.98511356 0.21587986 -0.18940955
1.0209483 -1.1597792 0.43183812 -0.24989451 1.2892975 -0.10882426 -0.10131439 0.30803236
0.41669726 0.6379498 -0.8309072 0.30756417 -0.633852 -0.28658164 -0.015343818 -0.3475316
-0.38598478 0.48074886 0.0060426425 0.3776494 0.16139112 1.6582357 0.45617443 0.96734107
0.32855412 -0.37588236 1.1323066 0.20132436 0.48051327 -1.692449 -1.0752994 -0.71180713
-0.4232927 0.45033434 -0.07936788 0.930891 0.6695032 -0.09703195 0.5839815 0.19085003
0.38480982 -1.118898 0.7574943 -0.21101351 -0.41072628 -0.6082881 0.034836832 0.87077427
-0.7243636 -0.86536086 -0.89714926 0.16286492 0.27755824 -0.91940945 0.21472725 0.06731435
0.50930285 -2.3829088 -0.38347548 -0.2976554 -0.18533173 0.6782964 0.49235764 0.2240505
1.0110514 -0.7180316 -0.29288003 0.22277488 0.13174805 0.52139914 0.021526912 -0.13137707
0.12156427 -0.08756924 -0.2695698 -0.5246279 -0.09304972 0.046714526 -0.5843177 -0.7046687
0.13925356 -1.4021446 -0.9387187 0.2855484 -0.38433772 -0.49786237 0.7172167 0.7528752
-0.85268027 -0.7591396 -0.8254284 0.47834173 0.6626117 -0.46967655 1.1294066 0.80673224
-0.0068486114 0.07307255 0.11273869 0.19646443 -0.55587476 -0.50152075 0.6056371 0.5102305
-0.02537429 0.055558078 -0.31553617 0.08485949 -0.36859953 0.20446706 0.75146514 0.73733616
-1.0864667 -1.123021 0.63247395 1.5323925 0.77313095 -0.1094341 0.44718552 1.6152865
-0.28968418 0.5103118 -0.40751553 1.0101672 -0.26576325 -0.2321915 0.45575035 -0.42523918
0.034783468 0.040619425 0.81312305 -1.1301544 -0.010564832 -0.14505161 0.20353493 0.62079716
-0.28609228 -0.4024092 0.3755951 0.0557665 0.7280087 0.097156145 1.1373267 -0.069543846
-0.020494713 -0.10232945 -1.5711474 0.7854278 -0.68191576 0.33139184 -0.54677397 0.38369927
-0.5939154 0.39707673 -0.59630364 -1.0927165 0.013934045 0.8898728 -0.6598464 -0.67609686
00000000: 6e16 59be 34a6 7cbe c440 92bf 586c c03e
00000010: aea6 9a3f 340a a4bd a05a 87bd bbaa 1cbf
00000020: c3be 493f cbff 1e3f 3222 103f 0bb9 bbbf
00000030: 57fa 763e 4d1a c0bf 9312 8cbf 28d2 b63d
00000040: c70f 013e f37f c4bb f1c1 273f 4fe0 143f
00000050: 0c47 a83e 3c2b 813f f2d4 a73e 2e2c 0b3f
00000060: 235a 23be d7c3 da3e 2ef8 5f3e ca44 803d
00000070: 2f8b 5c3f 2972 c6bc 3d05 a4be e283 643f
00000080: 142f 25ba 240d 053d 473d e93e 82e4 1940
00000090: e64a 50bd 3117 303e 959a 3f3f 8d78 233f
000000a0: 4c08 e03e aca7 25bf ac05 cdbe edb0 a3be
000000b0: 0e25 263f 823e 39bf 2f1c 9f3e afff adbf
000000c0: 609f 033f 5e04 743e cab0 5d3b e1d9 2fbf
000000d0: 9735 bb3d 0d95 97bf 7ed3 7cbf 3cb3 21bd
000000e0: 173b a2be 3c52 5fbc 16db 88be 173f ebbe
000000f0: cf4c 23bf 1a8c 24bf 401e 7dbf 2633 c83e
00000100: 36f3 23be 09ab 3bbf 7904 5f3d 21c3 0abf
00000110: 2507 e5be 8860 a1be 3a85 e4bf 676e 2c3f
00000120: 9414 6a3f ba74 28bf 8cb6 2a3f 63cd c6be
00000130: 5322 a43e 0564 693e d554 e2be 6fc4 4a3f
00000140: e573 4c3e 3f1c 873e d67a 833d 262c 0ebf
00000150: c140 13bf e0ec f33e baad 79be a59e 883f
00000160: 549c c93e 51b4 b1bf 8ef6 e5be 0527 0fbf
00000170: bded b13e 6730 7c3f 9c0f 5d3e 94f4 41be
00000180: 6fae 823f a573 94bf e319 dd3e 59e4 7fbe
00000190: b307 a53f 41df debd eb7d cfbd 6bb6 9d3e
000001a0: 5859 d53e ae50 233f 56b6 54bf 0d79 9d3e
000001b0: 2044 22bf d4ba 92be a364 7bbc a9ef b1be
000001c0: cc9f c5be b724 f63e 5c01 c63b 435b c13e
000001d0: b743 253e 1141 d43f b28f e93e aaa3 773f
000001e0: 3f38 a83e a773 c0be 6cef 903f f927 4e3e
000001f0: d605 f63e 2ba2 d8bf 69a3 89bf fe38 36bf
00000200: d2b9 d8be 3992 e63e a18b a2bd df4e 6e3f
00000210: 9064 2b3f b0b8 c6bd d07f 153f 316e 433e
00000220: cb05 c53e 0d38 8fbf 25eb 413f ed13 58be
00000230: b74a d2be c5b8 1bbf 11b1 0e3d 10eb 5e3f
00000240: e56f 39bf 4a88 5dbf 93ab 65bf 10c6 263e
00000250: 1d1c 8e3e 6b5e 6bbf 76e1 5b3e 1bdc 893d
00000260: ac61 023f 9481 18c0 e656 c4be 4a66 98be
00000270: 9ac7 3dbe d5a4 2d3f 4d16 fc3e 7f6d 653e
00000280: 226a 813f ebd0 37bf 5ff4 95be 191f 643e
00000290: f6e8 063e 6a7a 053f 3559 b03c b687 06be
000002a0: b0f6 f83d 8057 b3bd 0e05 8abe 044e 06bf
000002b0: da90 bebd bb57 3f3d d895 15bf 2b65 34bf
000002c0: 7c98 0e3e 7979 b3bf de4f 70bf 6633 923e
000002d0: eac7 c4be d1e7 febe 839b 373f 6ebc 403f
000002e0: 4149 5abf f956 42bf 474f 53bf 35e9 f43e
000002f0: eca0 293f 7279 f0be 6590 903f 0186 4e3f
00000300: 516a e0bb 10a7 953d 8be3 e63d f92d 493e
00000310: cf4d 0ebf aa63 00bf 080b 1b3f 779e 023f
00000320: bedd cfbc de90 633d f58d a1be d0ca ad3d
00000330: 14b9 bcbe d05f 513e 0560 403f 10c2 3c3f
00000340: 5711 8bbf 27bf 8fbf d0e9 213f 7025 c43f
00000350: e9eb 453f fc1e e0bd 80f5 e43e b5c1 ce3f
00000360: 7c51 94be cba3 023f e0a5 d0be 294d 813f
00000370: 1f12 88be 9cc3 6dbe 1c58 e93e f3b8 d9be
00000380: 1c79 0e3d 8e60 263d d528 503f e6a8 90bf
00000390: 1e18 2dbc 6988 14be 766b 503e 90ec 1e3f
000003a0: b07a 92be 9408 cebe 004e c03e 6a6b 643d
000003b0: c75e 3a3f cdf9 c63d ec93 913f 016d 8ebd
000003c0: 87e4 a7bc 1a92 d1bd 5c1b c9bf cc11 493f
000003d0: 0892 2ebf 31ac a93e 61f9 0bbf 3b74 c43e
000003e0: d70a 18bf a44d cb3e 5ba7 18bf 22de 8bbf
000003f0: 9f4b 643c b4ce 633f b2eb 28bf af14 2dbf

fc1.bias f4 [256]
-0.3687233 -0.10230957 0.073772624 0.199441 -0.024653738 0.11406408 0.0053677564 0.030944765
0.32559744 -0.12890625 -0.022096172 -0.10163791 0.017690705 -0.008925881 -0.004129394 0.019538542
0.098978356 -0.18365586 -0.19365937 -0.001645859 0.07964351 0.10646467 -0.21391068 -0.09190709
0.029997148 0.13852069 0.22504753 0.31480396 0.0798901 0.089161724 0.13952874 0.075053476
0.011298728 0.18077312 0.26791233 -0.15814444 -0.0030265131 0.11217567 0.18417121 -0.16795257
-0.23979662 -0.11371211 -0.053259607 -0.015073648 -0.29974103 -0.08301505 -0.028949173 0.00410259
0.08082064 0.0037982783 0.021420343 0.21210691 -0.04471839 -0.1545724 0.10774999 -0.098912
-0.08830724 0.018424798 0.074786566 0.14372842 -0.033589125 -0.0112922825 0.081279 0.34513175
0.05936978 0.07687206 -0.037390735 0.13580671 -0.016819993 -0.05432385 0.24737848 -0.030412648
-0.0911404 0.06989751 -0.015349733 -0.10082121 0.3802146 -0.2807957 0.07769916 0.056272928
0.19833583 -0.011503955 -0.30507103 -0.15019073 0.040522095 -0.03234824 0.19002211 -0.02886755
0.04737368 0.10039667 0.025031054 0.06994878 -0.026639316 0.0015355254 0.0727497 -0.15627456
0.089360625 0.13412917 -0.012734722 -0.042402074 -0.057082836 0.042637303 0.1301229 -0.06750355
-0.09426598 0.006613061 -0.20868774 -0.14561848 -0.090396404 0.10196617 0.1521624 -0.039213352
0.17680505 -0.31834462 0.26685563 0.14676134 0.18602215 0.1149432 0.04333895 0.13319838
-0.39802828 0.30365148 0.04604123 0.08736215 0.13854644 0.22227028 -0.07126739 0.11258218
0.1808347 -0.13459143 -0.07702807 0.06225465 -0.50269806 -0.2575061 -0.008472457 0.0013724633
0.007127424 -0.006865526 0.009000802 -0.16488478 0.21726064 0.064360924 0.06936715 0.3215155
0.14240025 -0.10845129 -0.056040253 0.3492782 0.06085622 0.095669635 -0.02648473 -0.22034146
0.08716162 0.10455641 0.11594145 -0.23443013 0.042011224 -0.15569891 0.0044391933 -0.053768028
-0.08789825 0.1286842 -0.15375428 -0.09063975 0.09877241 0.1610254 -0.08061549 0.005675443
-0.2241571 0.0028810096 -0.21761948 -0.10906011 0.28763646 0.006130578 -0.17466655 0.27517095
0.020838713 -0.03486676 -0.23634046 0.09311639 0.05447884 0.027664347 0.16536652 0.32509497
-0.3481727 0.1716645 -0.2726416 -0.16146497 0.10151267 0.0017572901 -0.022774488 -0.025603749
0.035391208 0.04037216 0.12156187 0.00956087 0.10639719 -0.086166345 -0.15091151 -0.2417317
-0.19324125 -0.1632358 -0.09633878 -0.2778339 0.11024143 -0.15150863 0.08375469 0.33108622
0.0917865 0.12685412 -0.14453784 -0.013432846 -0.0828974 -0.060978245 -0.1836309 -0.39210287
0.1297528 -0.017977493 0.016089026 0.018321136 0.22381178 0.06144616 0.08634819 0.04477214
0.049658827 0.12246081 0.24531783 -0.15617885 0.45700827 -0.0030273218 0.11370892 -0.13287671
-0.010581202 -0.21381392 -0.27085587 -0.27138937 0.30724213 -0.04598627 0.016393606 0.035821255
-0.013684331 0.09014928 0.22901765 0.21504325 -0.048765823 0.09035789 0.22569087 -0.03954748
-0.17030843 0.029247377 -0.32068577 0.40672967 0.10449862 -0.05692276 0.018700091 -0.08291543
00000000: 4dc9 bcbe ae87 d1bd 1a16 973d 433a 4c3e
00000010: a3f6 c9bc 6e9a e93d 01e4 af3b e07f fd3c
00000020: b5b4 a63e 0000 04be 0803 b5bc 8927 d0bd
00000030: 19ec 903c dc3d 12bc de4f 87bb 4b0f a03c
00000040: 2ab5 ca3d 4810 3cbe a44e 46be ddb9 d7ba
00000050: 231c a33d 260a da3d 670b 5bbe c939 bcbd
00000060: 94bc f53c 5ed8 0d3e dc72 663e fc2d a13e
00000070: 6c9d a33d 6c9a b63d 9fe0 0e3e a3b5 993d
00000080: 4d1e 393c 971c 393e ce2b 893e 9ef0 21be
00000090: 7758 46bb 5cbc e53d 6197 3c3e c2fb 2bbe
000000a0: 3f8d 75be e5e1 e8bd bf26 5abd 76f7 76bc
000000b0: a877 99be cb03 aabd d126 edbc 056f 863b
000000c0: 4b85 a53d 89ec 783b b779 af3c 8e32 593e
000000d0: a12a 37bd 3a48 1ebe 07ac dc3d 6092 cabd
000000e0: 6dda b4bd 9aef 963c b329 993d 8b2d 133e
000000f0: c094 09bd 4403 39bc 9b75 a63d 1cb5 b03e
00000100: ba2d 733d 196f 9d3d 0727 19bd ea10 0b3e
00000110: 15ca 89bc af82 5ebd c950 7d3e f223 f9bc
00000120: d1a7 babd 6d26 8f3d 727d 7bbc 5a7b cebd
00000130: 7dab c23e 74c4 8fbe bd20 9f3d 717e 663d
00000140: 8c18 4b3e 167b 3cbc 4532 9cbe 99cb 19be
00000150: 7ffa 253d 977f 04bd 2895 423e a47b ecbc
00000160: e70a 423d c59c cd3d ed0d cd3c 4e41 8f3d
00000170: b23a dabc af43 c93a cbfd 943d 7006 20be
00000180: b402 b73d 2859 093e 4ca5 50bc ccad 2dbd
00000190: b1cf 69bd 74a4 2e3d f03e 053e 4d3f 8abd
000001a0: 860e c1bd 60b2 d83b 3db2 55be 031d 15be
000001b0: c021 b9bd a4d3 d03d 76d0 1b3e 2e9e 20bd
000001c0: 620c 353e 11fe a2be 4da1 883e 9b48 163e
000001d0: 977c 3e3e 5767 eb3d 2f84 313d 2865 083e
000001e0: 5dca cbbe 3578 9b3e bb95 3c3d edea b23d
000001f0: 1edf 0d3e d29a 633e a3f4 91bd 7c91 e63d
00000200: bb2c 393e 56d2 09be e5c0 9dbd bbfe 7e3d
00000210: d2b0 00bf d7d7 83be 0fd0 0abc 3ae4 b33a
00000220: 2a8d e93b 35f8 e0bb 1a78 133c 8ed7 28be
00000230: 9379 5e3e a9cf 833d 5d10 8e3d ae9d a43e
00000240: 5fd1 113e b61b debd 778a 65bd 98d4 b23e
00000250: 5f44 793d 71ee c33d 81f6 d8bc 31a1 61be
00000260: cb81 b23d ac21 d63d b672 ed3d 740e 70be
00000270: f613 2c3d 896f 1fbe a776 913b dd3b 5cbd
00000280: ff03 b4bd cac5 033e c371 1dbe 55a1 b9bd
00000290: 3049 ca3d d8e3 243e bc19 a5bd 11f9 b93b
000002a0: 7089 65be 52cf 3c3b a4d7 5ebe e85a dfbd
000002b0: 1645 933e 04e3 c83b cadb 32be 35e3 8c3e
000002c0: f3b5 aa3c 73d0 0ebd 3c03 72be ceb3 be3d
000002d0: 3425 5f3d 57a0 e23c d755 293e d972 a63e
000002e0: b143 b2be d2c8 2f3e ae97 8bbe 1357 25be
000002f0: e0e5 cf3d df54 e63a 9091 babc f4be d1bc
00000300: 5ff6 103d 475d 253d 6ef5 f83d 32a5 1c3c
00000310: c5e6 d93d fb77 b0bd 8c88 1abe 8488 77be
00000320: 09e1 45be 4927 27be 444d c5bd 3f40 8ebe
00000330: 42c6 e13d 1425 1bbe 9487 ab3d 2284 a93e
00000340: 8ffa bb3d 0ce6 013e ba01 14be 7115 5cbc
00000350: 1dc6 a9bd 53c4 79bd bd09 3cbe b5c1 c8be
00000360: ebdd 043e 8945 93bc 22cd 833c 3516 963c
00000370: ea2e 653e f8ae 7b3d 52d7 b03d fe62 373d
00000380: 0e67 4b3d bccc fa3d 9934 7b3e 59ed 1fbe
00000390: fdfc e93e 0866 46bb 39e0 e83d d510 08be
000003a0: c75c 2dbc 09f2 5abe 9fad 8abe 8cf3 8abe
000003b0: d74e 9d3e 195c 3cbd e24b 863c 4fb9 123d
000003c0: 3f34 60bc 30a0 b83d 9a83 6a3e 4c34 5c3e
000003d0: acbe 47bd 8f0d b93d 821b 673e 8afc 21bd
000003e0: 5565 2ebe 3298 ef3c ed30 a4be df3e d03e
000003f0: 5f03 d63d d727 69bd ef30 993c 91cf a9bd

fc2.weight f4 [128, 256]
-0.1471486 -0.01494776 0.060411755 0.05489793 -0.22806655 0.12626646 -0.019120036 -0.88011503
0.02449591 -0.0673199 0.0029770657 0.29618633 0.23567308 0.4222676 0.19682418 0.19423792
-0.1279393 -0.22047192 0.15814094 0.29339588 0.3140788 -0.09711382 0.098829985 -0.040771943
0.097231165 0.14643382 -0.014303263 -0.26062018 0.0162555 0.2680333 0.97184813 -0.37574622
0.1455254 0.14857091 0.4040879 -0.18379128 -0.07047803 0.1297597 0.104302354 0.0015633192
-0.13335119 0.22945248 0.062802 0.18355376 0.109395795 -0.0269689 0.007680166 0.10588025
0.15889274 -1.1044283 0.21943207 -0.5093865 0.12746313 -0.50108016 -0.11569604 -1.0593947
0.063087106 0.048064683 -0.15606399 -0.45133346 0.22051181 0.29099008 0.016112471 -0.028303515
0.14474529 0.19193023 0.2411449 0.06577976 -0.12100406 -0.1022012 -0.15529521 0.027073555
0.015256333 -0.19686806 0.16103433 0.2954145 0.4056639 0.17020652 0.4077277 0.2790905
0.5223214 -0.30020145 0.005303314 -0.17396441 0.23638965 -0.07227858 0.14001594 0.008877901
0.18351443 -0.38982564 0.07473691 -0.08180762 0.13622363 0.11289399 -0.11871981 -0.094161086
0.09896415 -0.7404201 0.122230954 0.03560938 0.12362139 0.18370244 0.07458457 -0.11703471
0.29236034 0.3286699 -0.10912024 0.23619415 -0.027565658 0.28348935 -0.18597253 0.046825353
-0.12151259 -0.696558 -0.01908853 -0.00049060205 -0.30831563 -0.005700765 -0.06939894 -0.2599421
-0.30483213 0.09906475 0.2665966 -0.06835282 0.23142959 -0.109034985 -0.20893669 0.24254872
-0.26896694 -0.09939061 0.057377275 0.25986776 -0.33923337 0.28132525 -0.1623305 -0.062551826
0.46563616 0.19926651 0.02359551 0.086163096 0.17637369 -0.71144027 -0.16721843 0.18262242
-0.37021738 0.051847093 -0.17474991 0.23089105 -1.072278 0.257376 0.22388655 -0.1448393
-0.44109586 -0.07383661 -0.2126332 0.12729608 0.011047689 0.103976615 -0.092540465 -0.027134305
0.14850226 0.17777337 0.10798254 -0.073491186 -0.11441654 -0.5616204 0.084824905 -0.21067236
-1.1514862 -0.016781485 -0.061466597 0.22302106 0.44607598 -0.09975388 -0.0072584325 -0.091825604
0.22976682 0.06497873 -0.0063177696 0.34482634 -0.11251195 -0.06391308 0.21214412 0.40122232
-0.56504565 0.055364586 -0.14157799 -0.055321548 -0.23166186 0.03622273 0.07678073 0.12685777
0.060775813 0.07792624 -0.17534873 -0.04548727 -0.19870134 0.03710578 0.24197716 0.14467715
-0.26766327 -0.15517522 -0.0032144936 0.13033444 -0.14760613 0.06854694 -0.097418435 0.05338276
-0.7679961 -0.4042608 0.15594491 0.17538212 0.03707259 -0.27712706 0.31339476 -0.05980002
0.19333003 0.1720635 -0.32278153 0.117815234 0.09612082 0.17664512 0.2915633 -0.2856774
-0.11347047 0.022722417 -0.038553335 -0.0034385482 0.1726675 0.5618002 -0.26363385 -0.042811684
0.11731421 -0.042193968 -0.110057786 -0.47744712 0.31729463 0.27783862 -0.3905703 -0.17495751
-0.14091341 -0.36725864 0.4458403 -0.42345646 -0.2505611 -0.30917916 0.02718214 0.041461363
0.02651969 0.38444394 0.071957015 0.17919986 -0.42540297 -0.13846776 0.15169315 0.0023989358
00000000: 1fae 16be 73e7 74bc 5172 773d a7dc 603d
00000010: 478a 69be ff4b 013e 9fa1 9cbc 384f 61bf
00000020: a6ab c83c 04df 89bd e01a 433b bca5 973e
00000030: 4954 713e 7533 d83e 478c 493e 4ee6 463e
00000040: 8502 03be 64c3 61be b3ef 213e fc37 963e
00000050: f0ce a03e 9ce3 c6bd 6067 ca3d 7b00 27bd
00000060: 2221 c73d bff2 153e 3c58 6abc 0270 85be
00000070: 412a 853c a93b 893e 0acb 783f cf61 c0be
00000080: 9c04 153e f922 183e 9ce4 ce3e c833 3cbe
00000090: c956 90bd badf 043e 799c d53d 4ae8 cc3a
000000a0: 378d 08be 97f5 6a3e 569e 803d 84f5 3b3e
000000b0: e70a e03d e2ed dcbc e7a9 fb3b bfd7 d83d
000000c0: c7b4 223e e85d 8dbf cdb2 603e 2767 02bf
000000d0: b285 023e ca46 00bf 0cf2 ecbd 3f9a 87bf
000000e0: d033 813d 79df 443d 3dcf 1fbe 2e15 e7be
000000f0: d9cd 613e a7fc 943e 4dfe 833c c6dc e7bc
00000100: 1c38 143e 5c89 443e b0ee 763e 8ab7 863d
00000110: fad0 f7bd dd4e d1bd b505 1fbe 5cc9 dd3c
00000120: b3f5 793c c897 49be 2fe6 243e 9240 973e
00000130: 2eb3 cf3e 9e4a 2e3e afc1 d03e f3e4 8e3e
00000140: dbb6 053f 01b4 99be 6cc7 ad3b ba23 32be
00000150: 2110 723e cb06 94bd 5760 0f3e 9e74 113c
00000160: 35eb 3b3e 3a97 c7be aa0f 993d c18a a7bd
00000170: 357e 0b3e f734 e73d 5f23 f3bd 87d7 c0bd
00000180: b7ad ca3d 2c8c 3dbf 3954 fa3d 24db 113d
00000190: 362d fd3d 7e1c 3c3e ccbf 983d e5af efbd
000001a0: 41b0 953e 6c47 a83e 6f7a dfbd e1dc 713e
000001b0: 60d1 e1bc 8425 913e 956f 3ebe f1cb 3f3d
000001c0: 98db f8bd a051 32bf 8d5f 9cbc bf9b 00ba
000001d0: 8cdb 9dbe 7ccd babb 0821 8ebd 2217 85be
000001e0: f512 9cbe 76e2 ca3d 597f 883e 90fc 8bbd
000001f0: e1fb 6c3e bc4d dfbd 80f3 55be b15e 783e
00000200: 09b6 89be 4e8d cbbd 6f04 6b3d 630d 853e
00000210: ffaf adbe dd09 903e f739 26be 2c1b 80bd
00000220: dd67 ee3e 850c 4c3e 5f4b c13c 4776 b03d
00000230: 4e9b 343e f320 36bf 4f3b 2bbe 5f01 3b3e
00000240: 228d bdbe 9e5d 543d a4f1 32be b46e 6c3e
00000250: 6840 89bf c9c6 833e 8442 653e c150 14be
00000260: 51d7 e1be a637 97bd 85bc 59be e759 023e
00000270: 5e01 353c b1f1 d43d db85 bdbd c348 debc
00000280: fa10 183e 390a 363e f325 dd3d 8c82 96bd
00000290: 3853 eabd 5bc6 0fbf aeb8 ad3d 7fba 57be
000002a0: e663 93bf 5379 89bc 66c4 7bbd a25f 643e
000002b0: 1264 e43e c34b ccbd 25d8 edbb 100f bcbd
000002c0: fe47 6b3e 9213 853d 4b05 cfbb 148d b03e
000002d0: aa6c e6bd dce4 82bd 4f3c 593e 036d cd3e
000002e0: d5a6 10bf fac5 623d d2f9 10be d998 62bd
000002f0: c438 6dbe 495e 143d 373f 9d3d 01e7 013e
00000300: 0ff0 783d cb97 9f3d 9e8e 33be dc50 3abd
00000310: 5d78 4bbe 3bfc 173d dcc8 773e 3f26 143e
00000320: 290b 89be 41e6 1ebe 41aa 52bb 6476 053e
00000330: 1026 17be 5762 8c3d 5183 c7bd e2a7 5a3d
00000340: 649b 44bf 46fb cebe 06b0 1f3e 5f97 333e
00000350: 6ed9 173d 99e3 8dbe 4775 a03e def0 74bd
00000360: 4ff8 453e 6a31 303e 9f43 a5be 1d49 f13d
00000370: feda c43d 75e2 343e c947 953e 4f44 92be
00000380: 3563 e8bd 5d24 ba3c 1aea 1dbd 4459 61bb
00000390: c0cf 303e 23d2 0f3f 04fb 86be 4e5b 2fbd
000003a0: 6f42 f03d 95d3 2cbd fa65 e1bd f373 f4be
000003b0: 7174 a23e dd40 8e3e d5f8 c7be 1028 33be
000003c0: 9b4b 10be 5309 bcbe 2e45 e43e 49cf d8be
000003d0: 8b49 80be bb4c 9ebe 14ad de3c 64d3 293d
000003e0: d23f d93c d6d5 c43e 335e 933d 2b80 373e
000003f0: 6bce d9be 7eca 0dbe 7355 1b3e 7737 1d3b

fc2.bias f4 [128]
0.26747563 -0.021282367 -0.013543052 0.20586246 -0.058055695 -0.0011973577 0.072136335 -0.03711387
0.01961285 -0.19689754 0.14603688 0.10217089 0.15073752 0.19671035 -0.10387702 0.22478278
-0.056744356 -0.0079413 0.07149575 -0.08783413 0.35044622 -0.18995109 -0.052093305 0.033965554
-0.089256614 -0.110970825 -0.3047089 0.16246033 -0.025725903 0.026521642 0.37771916 -0.4489149
0.058802318 0.096368834 0.15638341 -0.01833939 0.1377504 -0.21462868 0.17651996 0.062960304
0.1428557 0.08158517 -0.026994456 0.09923175 -0.0236262 0.11955037 -0.18417497 -0.035486717
0.14128841 -0.22686087 0.081147276 0.14349926 -0.06159813 0.18465556 -0.020194907 0.18493019
-0.10666599 0.1521222 0.0720825 0.16487254 -0.057549216 -0.15253885 0.15746206 -0.12892336
0.14450835 0.013656192 0.07439732 -0.015087673 0.17437209 0.09185031 0.11015115 0.104416355
0.15737595 -0.28653207 -0.19706453 0.03675886 -0.027623463 0.17637011 0.16233042 0.040964175
-0.04127189 0.09798852 0.21773514 0.10374824 -0.07732659 0.10365932 -0.024994968 0.12137417
-0.15078628 0.0030738548 0.017558584 0.11353547 -0.015764264 -0.025771819 0.030939234 -0.025500959
-0.012333753 -0.007941203 -0.015860591 0.110785596 0.13529935 -0.42908585 0.13604829 -0.27550694
-0.01962205 0.15792261 -0.12187601 0.2748243 0.15268005 0.14800794 0.018761963 -0.009680776
-0.04105879 0.17051484 0.19584267 -0.05865778 0.06725594 -0.17570746 0.015397516 -0.16663416
-0.24492125 0.13607672 0.28837362 0.029263599 -0.10819775 0.08102012 -0.033342257 -0.27063188
00000000: 91f2 883e 5c58 aebc ade3 5dbc 9ccd 523e
00000010: cfcb 6dbd a8f0 9cba 37bc 933d b704 18bd
00000020: 21ab a03c 829f 49be b18a 153e f93e d13d
00000030: f05a 1a3e 706e 493e 7abd d4bd 752d 663e
00000040: c56c 68bd 3a1c 02bc 5d6c 923d 61e2 b3bd
00000050: b06d b33e 8a82 42be ca5f 55bd 771f 0b3d
00000060: 2ccc b6bd ac44 e3bd ce02 9cbe 005c 263e
00000070: 21bf d2bc ea43 d93c 6864 c13e 2cd8 e5be
00000080: b3da 703d 065d c53d f922 203e 7d3c 96bc
00000090: 710e 0d3e 9fc7 5bbe a6c1 343e 55f1 803d
000000a0: c448 123e 2016 a73d 7a23 ddbc 043a cb3d
000000b0: bc8b c1bc d3d6 f43d 5d98 3cbe 855a 11bd
000000c0: e9ad 103e 374e 68be 8b30 a63d 78f1 123e
000000d0: 524e 7cbd 5916 3d3e ca6f a5bc 575e 3d3e
000000e0: b373 dabd ecc5 1b3e fd9f 933d 59d4 283e
000000f0: bab8 6bbd 2533 1cbe bc3d 213e 7c04 04be
00000100: fff9 133e 39be 5f3c 9f5d 983d 4a32 77bc
00000110: 998e 323e 041c bc3d ed96 e13d 3ed8 d53d
00000120: 2927 213e 55b4 92be 49cb 49be 7590 163d
00000130: 9a4a e2bc 5e9a 343e f239 263e 0dca 273d
00000140: b70c 29bd 35ae c83d f6f5 5e3e f579 d43d
00000150: 675d 9ebd 564b d43d 3fc2 ccbc 0593 f83d
00000160: b867 1abe ba72 493b 05d7 8f3c 4985 e83d
00000170: 0f24 81bc 6c1f d3bc 4774 fd3c 63e7 d0bc
00000180: 8213 4abc d21b 02bc 12ee 81bc 8fe3 e23d
00000190: ea8b 0a3e 24b1 dbbe 3e50 0b3e 3f0f 8dbe
000001a0: 6cbe a0bc 77b6 213e 219a f9bd c5b5 8c3e
000001b0: 2958 1c3e 658f 173e b0b2 993c 1e9c 1ebc
000001c0: 432d 28bd 719b 2e3e fb8a 483e 2443 70bd
000001d0: 7bbd 893d a8ec 33be dd45 7c3c 25a2 2abe
000001e0: a3cc 7abe b257 0b3e b5a5 933e 37ba ef3c
000001f0: c896 ddbd e0ed a53d e491 08bd 4390 8abe

fc3.weight f4 [4, 128]
0.16719864 -0.39416373 -0.1245639 0.5136096 -0.6782156 -0.2609352 0.71376157 0.49211824
-0.34936282 -0.6670947 1.1099082 -0.4329443 -0.63914233 1.3214191 -0.06437895 0.4911802
0.3728074 -0.23281804 -0.27637118 0.7586438 0.6144868 -0.6666379 -0.16732417 0.23549739
-0.4295032 -0.11797426 0.001970646 -0.49201438 0.10924405 -0.3277535 -0.6995754 -0.7320138
0.5776651 -0.52162737 0.11679462 -0.3571534 0.44830975 -0.52314895 -0.18075928 -0.19972616
0.48672077 0.69762164 0.81097203 0.48338822 0.16276528 -0.29630384 -0.25429556 0.4918828
-0.40574574 -0.51756376 -0.3564832 0.62192535 -0.2860187 -0.09549089 -0.18048055 0.62932676
-0.42308277 -0.47529176 -0.14823303 -0.57811403 -0.007295362 -0.4615977 0.54357076 0.25445047
-0.15362161 0.95376617 0.50306994 -0.3047914 0.3758265 -0.77995074 0.31771424 -0.6035608
-0.38672298 -0.93845195 0.29055128 0.6489106 -0.2096305 -0.59910583 0.30903727 0.7079773
-0.26938763 0.3431583 0.13535367 -0.40025714 -0.4567745 0.32984743 0.58688664 0.4507759
-0.91652185 -0.28631207 -0.4489678 1.0011638 -0.005471337 -0.5027832 0.85185266 -0.12597121
-0.12237371 0.049033217 -0.10775763 0.4941677 0.79043746 -0.7500415 0.3536977 -0.4603885
-0.055677824 -0.4969234 0.56908196 -0.3001402 0.63513774 0.4286127 -0.23786402 0.2562618
-0.47117984 0.4326392 0.5745456 1.028057 0.53067154 -0.30606696 0.69273394 -0.5325009
-0.16104391 0.2201874 0.13020547 -0.49599683 0.57007754 1.0104042 -0.38545325 -0.24935687
0.17690338 -0.29860324 -0.21140152 0.70080554 -0.20360896 -0.38346955 0.64716864 0.5249027
-0.4819925 -0.88187164 0.42583033 0.20715006 -0.60830885 0.6572316 -0.22728443 0.3735602
0.6672323 0.32067385 0.3951299 0.7530814 0.2369 -0.72800887 -0.43835095 0.43047252
-0.25835463 -0.36773401 -0.008674927 0.11475943 -0.08583229 -0.42135945 -0.56930465 0.058486708
0.7233574 -0.34356526 0.310544 -0.41882047 -0.07037271 -0.4395422 -0.24630387 -0.24027447
0.46248803 -0.0505032 0.56409407 0.3178703 0.09804081 -0.68734807 0.28299695 0.7399842
-0.5886075 0.53528684 -0.5221203 0.51419246 -0.2805895 -0.20421286 -0.2520276 0.01967293
-0.49839425 -0.5518158 0.12481573 -0.5090647 0.19870783 -0.32517803 0.39257884 -0.2189902
0.6321983 0.38592425 0.68144435 -0.35314915 0.6249441 -0.76670957 0.573061 -0.31210953
-0.5033806 -0.23946805 -1.0538012 0.82060117 -0.49939936 -0.2508629 0.013278537 0.5624977
-0.41155925 0.6225321 0.20530482 -0.58777887 -0.0915869 0.9510583 0.9003889 0.36292538
-0.6695396 -0.5179409 -0.48186022 -0.08195617 -0.05570515 -0.5123762 0.99550354 -0.36609495
0.11542136 0.07817437 -0.08156485 0.44704837 0.04144537 -0.24672288 0.685404 -0.66942835
0.003661605 -0.8443347 -0.0999805 -0.61766905 0.52072614 1.2324203 -0.45689416 0.060684383
-0.39283904 0.4696819 0.8417438 0.7232478 0.1408972 -0.5686483 0.7396381 -0.16540964
0.35182735 -0.14890166 0.31608158 -0.34993577 0.24972989 0.9102023 -0.45218214 -0.45582503
00000000: 1f36 2b3e d4cf c9be 5c1b ffbd eb7b 033f
00000010: 8a9f 2dbf 4c99 85be 14b9 363f ecf6 fb3e
00000020: afdf b2be b8c6 2abf 7911 8e3f e0aa ddbe
00000030: d59e 23bf 4324 a93f 1cd9 83bd f97b fb3e
00000040: 9de0 be3e da67 6ebe 8680 8dbe 7b36 423f
00000050: 024f 1d3f c8a8 2abf 0757 2bbe 3a26 713e
00000060: d8e7 dbbe 7d9c f1bd f425 013b 4fe9 fbbe
00000070: 58bb df3d 4fcf a7be 6017 33bf 4265 3bbf
00000080: dce1 133f 5f89 05bf 0532 ef3d cfdc b6be
00000090: db88 e53e 17ed 05bf f618 39be 0485 4cbe
000000a0: 7733 f93e 5597 323f dd9b 4f3f a97e f73e
000000b0: f1ab 263e 23b5 97be 0733 82be 10d8 fb3e
000000c0: e8bd cfbe 0f7f 04bf f784 b6be 8036 1f3f
000000d0: 0b71 92be ba90 c3bd e5cf 38be 8f1b 213f
000000e0: 4e9e d8be 7159 f3be 66ca 17be 48ff 13bf
000000f0: ef0d efbb 8956 ecbe 7427 0b3f 5547 823e
00000100: fc4e 1dbe 052a 743f 31c9 003f 9e0d 9cbe
00000110: 556c c03e daaa 47bf 71ab a23e f682 1abf
00000120: 8e00 c6be 633e 70bf 23c3 943e 011f 263f
00000130: 61a9 56be 005f 19bf 223a 9e3e 003e 353f
00000140: 2ded 89be 72b2 af3e 279a 0a3e 81ee ccbe
00000150: 59de e9be c3e1 a83e 343e 163f 19cc e63e
00000160: 2da1 6abf 7f97 92be 1cdf e5be 2326 803f
00000170: e748 b3bb 66b6 00bf 0413 5a3f 99fe 00be
00000180: 119f fabd 0ed7 483d 08b0 dcbd 8c03 fd3e
00000190: 1c5a 4a3f b802 40bf dd17 b53e 0bb8 ebbe
000001a0: 6e0e 64bd be6c febe 5baf 113f faab 99be
000001b0: 6398 223f 2073 db3e a092 73be bf34 833e
000001c0: 7c3e f1be e382 dd3e 6c15 133f 5f97 833f
000001d0: 17da 073f cfb4 9cbe 0357 313f fb51 08bf
000001e0: b2e8 24be ce78 613e 9554 053e 4cf3 fdbe
000001f0: 9af0 113f ed54 813f 215a c5be 6857 7fbe
00000200: 2926 353e 86e2 98be a479 58be fe67 333f
00000210: de7e 50be 1f56 c4be d8ac 253f 0660 063f
00000220: b9c7 f6be 57c2 61bf 6f06 da3e 251f 543e
00000230: 21ba 1bbf 5540 283f 40bd 68be 4843 bf3e
00000240: bccf 2a3f 5d2f a43e 774e ca3e f1c9 403f
00000250: ea95 723e ca5e 3abf 896f e0be e566 dc3e
00000260: 0f47 84be a247 bcbe 4821 0ebc fe06 eb3d
00000270: d7c8 afbd 6dbc d7be f3bd 11bf c28f 6f3d
00000280: f32d 393f c9e7 afbe a0ff 9e3e a36f d6be
00000290: 911f 90bd ad0b e1be 1537 7cbe 830a 76be
000002a0: 3bcb ec3e 72dc 4ebd 7868 103f e5bf a23e
000002b0: 9fc9 c83d 0bf6 2fbf fae4 903e 9b6f 3d3f
000002c0: fbae 16bf 8f08 093f ada9 05bf 1ea2 033f
000002d0: 6da9 8fbe 2d1d 51be c309 81be 2029 a13c
000002e0: 882d ffbe cd43 0dbf 649f ff3d 1052 02bf
000002f0: 117a 4b3e bc7d a6be 1800 c93e f83e 60be
00000300: bfd7 213f dd97 c53e 2373 2e3f f7cf b4be
00000310: 56fc 1f3f 1447 44bf 20b4 123f d2cc 9fbe
00000320: 8ddd 00bf 1d37 75be f5e2 86bf eb12 523f
00000330: 46b1 ffbe 1a71 80be 398e 593c d9ff 0f3f
00000340: e5b7 d2be 445e 1f3f 6d3b 523e ad78 16bf
00000350: ea91 bbbd 8f78 733f e37f 663f 5bd1 b93e
00000360: f266 2bbf c697 04bf 62b6 f6be a3d8 a7bd
00000370: 152b 64bd 162b 03bf 52d9 7e3f cc70 bbbe
00000380: 0962 ec3d e219 a03d 790b a7bd 86e3 e43e
00000390: 9fc2 293d eca4 7cbe a376 2f3f a85f 2bbf
000003a0: 8af7 6f3b 5226 58bf 94c2 ccbd 8f1f 1ebf
000003b0: 4f4e 053f f3bf 9d3f 08ee e9be 3090 783d
000003c0: 3322 c9be 257a f03e 867c 573f c526 393f
000003d0: 5b47 103e ef92 11bf ec58 3d3f 2561 29be
000003e0: b722 b43e ad79 18be 72d5 a13e c82a b3be
000003f0: 31b9 7f3e 0503 693f 6b84 e7be e661 e9be

fc3.bias f4 [4]
0.036666702 0.044267606 0.128639 -0.07366332
00000000: d32f 163d f351 353d f1b9 033e cbdc 96bd

exp_avg f4 [256, 8]
-0.001930954 0.0015629643 -0.0012305438 -0.00023364766 -9.4067174e-05 0.00022369804 6e-45 6e-45
-0.003577303 0.007606224 0.014316932 -0.010137154 0.004798027 0.0015370984 6e-45 -7.315e-42
-0.011201823 -0.11853731 -0.015031143 0.033882406 -0.010940741 0.0030087882 -5.1562186e-15 -5.1562186e-15
0.003823466 0.027930954 0.012106554 -0.0038176388 0.0018749809 0.0011179213 1.00616615e-16 1.00616615e-16
-0.034707896 -0.12967952 -0.039615292 -0.01278742 -0.0005570188 -0.00522665 3.0040727e-15 3.0040727e-15
-0.023046989 -0.014686147 -0.002756109 -0.0013176476 -0.0009928845 0.00050081435 -6e-45 6e-45
-0.003918984 -0.0065835128 0.006614557 -0.01040306 0.0037013732 0.0006904578 6e-45 -7.182e-42
0.0037473312 0.022071047 -0.009192456 0.0008011728 -0.0008838726 -0.00057958876 6e-45 3.6697304e-26
0.08375603 -0.06523359 0.02146483 0.0074938303 0.0032720142 -0.0027192326 6e-45 -3.0283722e-25
0.064221725 0.043801658 -0.00047753475 0.0011231854 -0.006184246 0.0008368839 5.1592314e-36 3.2843595e-25
-0.005429514 -0.0063065146 -0.0041808253 -0.0019278133 0.0014164428 0.0004285473 -8.142325e-16 -8.142341e-16
-3.7444302e-06 -3.437124e-08 2.501022e-06 -3.987258e-06 -1.4727169e-06 1.1418003e-05 2.8072687e-22 -1.483113e-37
-0.011978948 -0.0086320145 -0.002070033 -0.00017515618 -0.0006532856 -0.0006192643 3.4083653e-37 3.4083173e-37
-0.00048518358 -0.025256531 0.0054799407 -0.009953759 0.0060394905 -0.00019246244 6e-45 6e-45
-0.02132982 -0.0055335234 -0.017775103 0.011603492 -0.006751805 0.0002830775 -1.5601586e-15 -1.5601586e-15
0.013165884 0.023828648 0.0052528027 0.0028070027 -0.0002939187 -0.001494725 -6e-45 -4.927e-42
-0.016928384 0.0051949513 -0.016116733 0.010254208 -0.0056345 -0.001772438 -1.5243214e-15 -1.5243214e-15
-5.270711e-05 -2.3332344e-05 -3.465849e-05 1.0786209e-05 1.8634743e-06 3.0659235e-06 -2.647636e-15 -2.647636e-15
0.012934738 -0.0065912856 0.0010775585 -3.8057882e-05 0.0009959601 8.2883584e-05 2.1361908e-15 2.1361908e-15
-6.4976875e-06 -5.9644215e-08 4.3400087e-06 -6.9190646e-06 -2.5555964e-06 1.9813599e-05 -1.3311537e-15 -1.3311546e-15
-0.026661439 0.006615333 -0.026686812 0.0048980564 -0.006653563 -0.002741087 -1.871203e-21 -6.8626e-36
-0.010231611 0.0017267129 0.012159266 -0.0054080305 0.004142147 0.0037312561 -6e-45 6e-45
-1.2585657e-15 1.6368402e-16 -2.3145009e-16 1.0653369e-16 -1.0640559e-16 3.0239778e-16 2.2219002e-15 2.2219002e-15
-0.035050854 0.024970932 -0.0054277624 -0.0004253744 -0.0026616666 0.00077395095 -2.4454517e-15 -2.4454517e-15
-0.0021646544 0.01069261 -0.0057551493 0.0046860273 -0.00588836 0.0001620485 -1.5432832e-15 -1.5432834e-15
0.008437729 -0.037620362 -0.0012852028 -0.0015021594 0.0005268367 0.00087979337 1.9947628e-15 1.9947628e-15
0.021492254 -0.013669641 0.004464797 0.00071099814 0.0011684583 -0.002584597 4.3460634e-15 4.3460663e-15
-0.0026279613 -0.021897033 -0.017941684 0.0031745513 -0.008255865 0.0004873309 -3.5298184e-15 -3.5298216e-15
-0.004978807 0.019882962 0.0028618574 0.001611629 -0.00097537035 0.0014508816 -2.1927563e-15 -2.1927563e-15
0.042253908 -0.024448892 0.0071184034 0.0008432196 0.0033249808 -0.0021824974 3.7009826e-15 3.700986e-15
0.089311264 -0.102609865 0.022326028 0.0046075108 0.0105618145 -0.0057196994 1.2078279e-14 1.2078279e-14
-0.012380987 0.0039584246 0.0032422096 -0.00037953255 0.00068692607 0.000515762 3.9798598e-22 1.870407e-36
00000000: 1118 fdba 61dc cc3a 334a a1ba 51ff 74b9
00000010: ee45 c5b8 7c90 6a39 0400 0000 0400 0000
00000020: 2f71 6abb a23d f93b 9191 6a3c 4e16 26bc
00000030: c538 9d3b 7778 c93a 0400 0000 6414 0080
00000040: da87 37bc b0c3 f2bd 2f45 76bc 47c8 0a3d
00000050: cb40 33bc 172f 453b b9c5 b9a7 b9c5 b9a7
00000060: 1d93 7a3b 75cf e43c 915a 463c 5a31 7abb
00000070: ebc1 f53a 3787 923a 9101 e824 9101 e824
00000080: de29 0ebd b5ca 04be a543 22bd 5482 51bc
00000090: e604 12ba 5144 abbb 5c77 5827 5c77 5827
000000a0: 0acd bcbc 2a9e 70bc d69f 34bb ebb4 acba
000000b0: ad23 82ba 1549 033a 0400 0080 0400 0000
000000c0: d26a 80bb 82ba d7bb edbe d83b 9971 2abc
000000d0: bd92 723b d7ff 343a 0400 0000 0514 0080
000000e0: c995 753b 57ce b43c f49b 16bc cc05 523a
000000f0: b0b3 67ba 8bef 17ba 0400 0000 5cb7 3515
00000100: 4888 ab3d 3099 85bd 03d7 af3c ce8e f53b
00000110: 4a6f 563b 2735 32bb 0400 0000 7972 bb96
00000120: ae86 833d 5e69 333d a15d fab9 d937 933a
00000130: 37a5 cabb 5462 5b3a 0e73 db04 c14a cb16
00000140: 11ea b1bb e1a6 cebb 4eff 88bb aeae fcba
00000150: efa7 b93a a5ae e039 c1af 6aa6 dfaf 6aa6
00000160: d248 7bb6 949f 13b3 3bd7 2736 49ca 85b6
00000170: 2baa c5b5 f38f 3f37 61b0 a91b f2de 4982
00000180: 5943 44bc 4b6d 0dbc 64a9 07bb 21aa 37b9
00000190: 4141 2bba 2056 22ba 19f6 e702 43f5 e702
000001a0: 3d60 feb9 c9e6 cebc 1391 b33b 1715 23bc
000001b0: ebe6 c53b becf 49b9 0400 0000 0400 0000
000001c0: e0bb aebc 8f52 b5bb 189d 91bc 931c 3e3c
000001d0: 3f3e ddbb 056a 9439 b1d7 e0a6 b1d7 e0a6
000001e0: b8b5 573c 4c34 c33c b41f ac3b b1f5 373b
000001f0: 1a19 9ab9 a6ea c3ba 0400 0080 bc0d 0080
00000200: 65ad 8abc 693a aa3b 3d07 84bc 4401 283c
00000210: 9da1 b8bb 2651 e8ba 89ad dba6 89ad dba6
00000220: d411 5db8 d4b9 c3b7 455e 11b8 6af6 3437
00000230: 7d1c fa35 2ac0 4d36 44c8 3ea7 44c8 3ea7
00000240: 39ec 533c b6fb d7bb dd3c 8d3a 57a0 1fb8
00000250: e08a 823a c9d1 ad38 c4ed 1927 c4ed 1927
00000260: b606 dab6 c115 80b3 64a0 9136 502a e8b6
00000270: d080 2bb6 6135 a637 e7d6 bfa6 f0d6 bfa6
00000280: 1769 dabc 6fc5 d83b 4d9e dabc e07f a03b
00000290: 2206 dabb cfa3 33bb 5462 0d9d 8cf3 1185
000002a0: 7da2 27bc df52 e23a a837 473c d935 b1bb
000002b0: d9ba 873b 1788 743b 0400 0080 0400 0000
000002c0: e160 b5a6 ffb6 3c25 016c 85a5 64a6 f524
000002d0: c65a f5a4 0952 ae25 d31a 2027 d31a 2027
000002e0: 7c91 0fbd d78f cc3c 5fdb b1bb c904 dfb9
000002f0: 5b6f 2ebb f8e2 4a3a 9f36 30a7 9f36 30a7
00000300: e0dc 0dbb 0f30 2f3c b195 bcbb 3f8d 993b
00000310: 25f3 c0bb 90eb 2939 1a69 dea6 1c69 dea6
00000320: 673e 0a3c cf17 1abd 4074 a8ba 1be4 c4ba
00000330: 6a1b 0a3a efa1 663a e1bc 0f27 e1bc 0f27
00000340: 8610 b03c a1f6 5fbc 6f4d 923b 4762 3a3a
00000350: f426 993a 5862 29bb 5c95 9c27 6395 9c27
00000360: e039 2cbb 6861 b3bc 70fa 92bc 220c 503b
00000370: 9c43 07bc 7280 ff39 a859 7ea7 b759 7ea7
00000380: 4325 a3bb 98e1 a23c 008e 3b3b 4c3d d33a
00000390: ffaf 7fba 822b be3a 3701 1ea7 3701 1ea7
000003a0: 6f12 2d3d 0b49 c8bc 7f41 e93b 820b 5d3a
000003b0: ece7 593b 3b08 0fbb 8a57 8527 9257 8527
000003c0: d3e8 b63d 1f25 d2bd 13e5 b63c 9afa 963b
000003d0: 760b 2d3c 516c bbbb 3b95 5928 3b95 5928
000003e0: a0d9 4abc acb5 813b 407b 543b fffb c6b9
000003f0: d412 343a 3434 073a 5991 f01b db1d 1f04

exp_avg_sq f4 [256, 8]
0.0025524846 0.0014237438 0.0009105169 0.00012643776 1.6978125e-05 2.279846e-05 2.4165212e-12 1.6469992e-08
0.007645815 0.05869795 0.0042305854 0.0015365256 0.00022048193 0.00018325417 1.3816741e-08 2.2746929e-06
0.079012915 0.39414874 0.024759017 0.008874913 0.0019339288 0.0016961093 0.0009129951 0.00063843536
0.0020212217 0.006838094 0.0006537718 0.00020104367 4.555082e-05 4.552894e-05 3.7135326e-06 1.2613066e-05
0.03860683 0.14063385 0.003811424 0.00042305054 0.0006540775 0.0011433489 0.0008264131 0.00024370258
0.0087250015 0.006691613 0.0007198883 0.00030569703 0.00027850748 0.0008742809 3.459958e-05 9.585776e-14
0.0051250607 0.03557141 0.0026356278 0.00076215697 0.00015390654 0.000101151934 1.1561194e-08 2.8414975e-06
0.009852217 0.036475427 0.004092251 0.0013079928 0.00013504774 0.0003234931 8.8972513e-07 4.507413e-05
0.043488722 0.02356792 0.0057913344 0.0014703434 0.00056075485 0.0011750427 6.070372e-14 0.00013925403
0.020246493 0.027324772 0.0034553942 0.0007400457 0.00036841937 0.00041017059 0.00024588683 0.00027927378
0.0043470575 0.018527348 0.0015457072 0.0005784043 7.397043e-05 8.231741e-05 3.638266e-05 2.3759054e-05
1.9455742e-06 3.5477644e-08 9.591846e-07 3.105811e-06 4.9182916e-07 2.8579761e-05 2.3925022e-05 1.8713193e-06
0.0013469697 0.0010237717 0.00019760955 2.1278616e-05 2.0768543e-05 1.6764761e-05 2.2750792e-06 4.118548e-06
0.02298656 0.0821439 0.0068215835 0.0015507812 0.00043360854 0.00035989366 9.358573e-08 2.9635913e-15
0.02393435 0.09217159 0.0074335276 0.0021111195 0.00040133897 0.00032186962 8.7140295e-05 4.824542e-05
0.0012500132 0.00388195 0.00044135266 0.00010385073 3.968147e-05 0.0001001924 3.2057498e-10 9.822232e-06
0.030174887 0.12431369 0.00980525 0.0030104688 0.00052403606 0.00042232516 6.0256334e-05 5.049816e-05
7.541285e-05 7.0258975e-06 2.1813303e-05 4.9309683e-06 3.5112628e-06 3.527699e-05 0.00011753121 0.00012362176
0.002233422 0.001288385 0.0006048717 6.430113e-05 3.4005876e-05 0.00028117182 0.00011536467 0.0001556564
1.667976e-05 2.4001628e-07 3.3456395e-06 7.942422e-06 1.3791613e-06 8.393163e-05 0.00010876443 4.5244702e-05
0.052627727 0.073718965 0.002794737 0.00042716792 0.0005546487 0.001457889 0.0008025167 0.00013796554
0.02059907 0.099133044 0.008189048 0.0027139613 0.00041968035 0.0003840254 9.861887e-09 1.0503334e-21
5.9309183e-05 1.4248809e-06 1.7037653e-05 3.053135e-06 1.0328377e-05 0.00015847238 9.3053946e-05 0.00012867135
0.017588217 0.01348009 0.0026300799 0.00029733183 0.00019516249 0.00048286305 0.00032180836 0.00018947363
0.027879676 0.117367946 0.007958199 0.002562949 0.00046877476 0.00040684736 4.830999e-05 4.672062e-05
0.023356041 0.06662499 0.006249273 0.0014474158 0.00030989613 0.00028986472 7.144259e-05 6.959789e-05
0.008700712 0.0046027107 0.00042624466 0.00016581596 0.0001077022 0.002150853 0.00164227 0.0009077231
0.054278374 0.2117383 0.016141044 0.0047393823 0.0009766022 0.0017589557 0.00063116616 0.00042570967
0.006048438 0.018960534 0.00067781983 0.00022324966 6.7618246e-05 0.0002185803 0.00020561928 0.0001337499
0.020203108 0.0092269145 0.00055929134 0.00013329474 0.00016159742 0.00062536297 0.00038705303 0.00034271888
0.13301867 0.37365392 0.020815082 0.0055640615 0.0017821032 0.0023238987 0.0004265081 0.0005436017
0.0010264252 0.0031321445 0.00021172214 8.466352e-05 1.7606188e-05 5.847014e-05 3.7428134e-05 5.9074573e-06
00000000: 9647 273b ea9c ba3a c1af 6e3a 6194 0439
00000010: 3f6c 8e37 523f bf37 2d0c 2a2c e579 8d32
00000020: bf89 fa3b 436d 703d b9a0 8a3b 3e65 c93a
00000030: 2b31 6739 eb27 4039 ab5e 6d32 eda6 1836
00000040: 86d1 a13d ddcd c93e 6cd3 ca3c 1568 113c
00000050: e27b fd3a fc4f de3a 1056 6f3a ac5c 273a
00000060: 7976 043b 1712 e03b e261 2b3a 40cf 5239
00000070: d20d 3f38 54f6 3e38 0136 7936 b59c 5337
00000080: 3222 1e3d 5202 103e 15c9 793b e2cc dd39
00000090: 6676 2b3a 6cdc 953a a5a3 583a 6a8a 7f39
000000a0: 4ff3 0e3c 5145 db3b e3b6 3c3a f645 a039
000000b0: a404 9239 ff2f 653a 041f 1138 3dda d729
000000c0: 20f0 a73b 54b3 113d 7fba 2c3b 7dcb 473a
000000d0: f961 2139 8821 d438 ab9e 4632 8eb0 3e36
000000e0: 316b 213c 4267 153d 4a18 863b f570 ab3a
000000f0: 9a9b 0d39 829a a939 72d5 6e35 fb0d 3d38
00000100: 3b21 323d 8311 c13c 3cc5 bd3b 8ab8 c03a
00000110: 9fff 123a e403 9a3a 50b1 8829 b804 1239
00000120: f9db a53c 33d8 df3c e573 623b a0ff 413a
00000130: 6928 c139 2a0c d739 5fea 8039 7e6b 9239
00000140: c371 8e3b aac6 973c 5499 ca3a 0ea0 173a
00000150: 9220 9b38 d3a1 ac38 9599 1838 2e4e c737
00000160: b690 0236 1560 1833 55bd 8035 6d6d 5036
00000170: 3e06 0435 92be ef37 98b2 c837 0b2a fb35
00000180: ce8c b03a 1430 863a 6935 4f39 7b7f b237
00000190: 1b38 ae37 0da2 8c37 90ad 1836 0f32 8a36
000001a0: 4f4e bc3c 103b a83d 9787 df3b 9543 cb3a
000001b0: f455 e339 1cb0 bc39 4df9 c833 9c8c 5527
000001c0: f811 c43c 75c4 bc3d f394 f33b b55a 0a3b
000001d0: ce6a d239 9cc0 a839 17bf b638 205b 4a38
000001e0: 7cd7 a33a 5068 7e3b 5a65 e739 70ca d938
000001f0: a76f 2638 631e d238 eb3c b02f 2aca 2437
00000200: 5331 f73c 2d98 fe3d 33a6 203c 494b 453b
00000210: 775f 093a 866b dd39 bfbb 7c38 fdcd 5338
00000220: f726 9e38 00c0 eb36 b6fb b637 b274 a536
00000230: 09a3 6b36 61f6 1338 177b f638 77a0 0139
00000240: 9a5e 123b 07df a83a 4190 1e3a 68d9 8638
00000250: 88a1 0e38 3e6a 9339 f0ef f138 b237 2339
00000260: 83eb 8b37 96db 8034 a685 6036 7140 0537
00000270: 9f1b b935 7304 b038 7518 e438 21c5 3d38
00000280: 2c90 573d f8f9 963d e827 373b 82f5 df39
00000290: d865 113a a316 bf3a fc5f 523a d8aa 1039
000002a0: 61bf a83c 4406 cb3d 5b2b 063c b7dc 313b
000002b0: 8b08 dc39 0457 c939 0a6d 2932 ceb8 9e1c
000002c0: c0c2 7838 893e bf35 15ec 8e37 76e4 4c36
000002d0: 0b48 2d37 9b2b 2639 f525 c338 f4eb 0639
000002e0: 2a15 903c 98db 5c3c 6b5d 2c3b 34e3 9b39
000002f0: 88a4 4c39 c828 fd39 63b8 a839 71ad 4639
00000300: eb63 e43c 9b5e f03d 1b63 023c 26f7 273b
00000310: e2c5 f539 214e d539 75a0 4a38 e2f5 4338
00000320: 2b55 bf3c af72 883d b4c6 cc3b 37b7 bd3a
00000330: 8e79 a239 fcf8 9739 73d3 9538 15f5 9138
00000340: 6e8d 0e3c 56d2 963b 9779 df39 e2de 2d39
00000350: 2ede e138 53f5 0c3b 7041 d73a 44f4 6d3a
00000360: 0053 5e3d edd1 583e 393a 843c d24c 9b3b
00000370: 5501 803a c28c e63a d874 253a c931 df39
00000380: fa31 c63b 1f53 9b3c b8af 313a 2018 6a39
00000390: 45ce 8d38 b432 6539 819b 5739 373f 0c39
000003a0: fd80 a53c 7c2c 173c 689d 123a 09c5 0b39
000003b0: 7a72 2939 66ef 233a 61ed ca39 f3ae b339
000003c0: 0c36 083e 914f bf3e 6484 aa3c bb52 b63b
000003d0: 7695 e93a 8d4c 183b f39c df39 7e80 0e3a
000003e0: 1d89 863a aa44 4d3b bb01 5e39 628d b138
000003f0: 00b1 9337 d63d 7538 27fc 1c38 ac38 c636

exp_avg f4 [256]
0.003037361 0.009988915 -0.08613678 0.010912668 -0.13846846 -0.029107576 -0.0027101804 0.025548222
-0.13462135 0.07787078 0.0043372265 1.3436972e-05 -0.016658679 -0.030020269 -0.0027817942 0.022840427
0.010012807 -6.629164e-05 -0.016158015 2.331711e-05 -0.014417152 0.009143999 2.2219002e-15 0.054317094
0.0222989 -0.048269775 -0.031296194 0.002385213 0.013135382 -0.05454776 -0.100794174 0.004285999
0.13492288 -0.0006549509 -0.011191674 -0.02557998 -0.040519275 -0.04456094 -0.045688882 -0.014591113
-2.3861642e-07 -0.0026496693 0.0744905 -0.024318447 0.059475306 -0.010756838 -0.060196437 0.059810344
0.052442785 -0.07647654 -0.008610738 -0.010633675 0.00070297346 0.03633472 -0.018109854 0.15295988
-0.0010125482 -0.16855949 0.030436564 -0.010212539 0.002397114 -4.9843243e-06 0.06898249 -0.010761328
0.0013623768 -0.02444805 -0.026683144 0.018243883 -4.850566e-15 0.0023214421 -0.05562491 0.07273879
-0.00083962467 0.07056088 -0.0015839454 0.005246505 -0.16107936 -0.00067200366 -0.042782653 0.042208932
-0.031253774 -0.011164302 0.004106694 0.05237196 -0.056382332 0.36967617 -0.000107721506 0.0008280861
-0.00073661236 -0.027850764 -0.014822313 -0.026095662 -2.9466915e-05 0.031583324 -0.10916811 0.04340168
0.026014347 -0.19452539 -0.015208213 -0.023856753 0.02248424 -0.033091217 -0.0049428428 -0.010970033
-0.0005528281 -0.003603045 0.025027795 -0.0017791851 0.0008325309 0.0042150705 0.029137835 -0.0006921341
0.03440265 9.28977e-05 0.15474068 0.03174173 -0.00040921048 0.01847737 0.034350455 -0.018541304
-6e-45 0.026352582 -0.0042907707 0.014387703 0.0058775684 0.010604525 0.021804316 0.001903551
-0.021928148 0.025608806 -0.0023709144 0.0101676565 6e-45 -7.1165e-05 -0.012571456 0.008900863
0.022576991 0.0007579279 -0.059356887 0.0018556672 -0.002292479 0.044812344 0.04718178 0.01839897
0.009204752 0.030324746 0.0058667855 -0.03420256 -0.0121986065 -0.04984541 -0.0010131982 0.0009887338
-0.0009175935 0.028426731 -0.005580276 0.0104165785 -0.009987224 -0.00021165739 0.0015024737 0.022112373
-0.018047048 -0.057621602 -7.437418e-05 0.000106955085 0.011107056 0.0051472504 -0.0009827408 -0.004471754
-0.017965233 0.016850747 -0.022602774 -0.01946475 -0.020946344 -0.037578806 0.0043489304 -0.026842792
-0.03438085 -0.01019341 0.0003592513 0.026702918 -0.057527166 -0.0003142309 -0.004503328 -0.019920819
4.499531e-06 0.010527563 0.06019658 -0.005331972 0.014489382 -0.0080945585 -0.00014737382 0.00902587
0.0269158 0.012727438 0.019415302 0.035636447 -0.02275221 0.07060477 0.00084942003 -0.00043637876
-0.0011131816 0.004078539 0.008353329 0.0003350815 -0.0051709595 0.009930923 -0.0042275586 0.003522569
-0.053300384 -0.0068006176 0.021717584 0.5913986 0.0020147967 -0.021104075 -0.0050539114 6e-45
-0.002993713 0.0043177693 -0.01672837 -0.008476637 -0.02996538 0.010290639 0.042333256 -0.026024716
0.007820651 -0.014080224 0.01628143 0.08737242 -0.017855225 0.061584346 0.009779731 0.011936604
-0.15779395 -0.03045944 0.0024238643 -0.0013550307 -0.016562644 -0.017041354 0.010340204 0.06878749
0.0403711 -0.014303849 0.0026413228 0.0259036 0.032505777 0.0023695505 0.012585152 -0.01742602
0.006472226 -0.07122903 1.0077428e-05 -0.015069066 0.04982691 -0.0037856444 0.050820295 -0.04637722
00000000: 760e 473b 8ca8 233c 7b68 b0bd 0ccb 323c
00000010: adca 0dbe 0373 eebc 489d 31bb 814a d13c
00000020: 2eda 09be b77a 9f3d 4b1f 8e3b 5b6f 6137
00000030: c877 88bc 11ed f5bc c34e 36bb d91b bb3c
00000040: c20c 243c 0e06 8bb8 d05d 84bc 1d99 c337
00000050: eb35 6cbc b6d0 153c d31a 2027 9a7b 5e3d
00000060: 2fac b63c 87b6 45bd 7030 00bd 3c51 1c3b
00000070: c935 573c 796d 5fbd 2d6d cebd 9171 8c3b
00000080: 3929 0a3e 03b1 2bba 485d 37bc 1b8d d1bc
00000090: 8af7 25bd 8885 36bd 4424 3bbd 900f 6fbc
000000a0: 311b 80b4 13a6 2dbb 7a8e 983d 7b37 c7bc
000000b0: 619c 733d 733d 30bc 8a90 76bd b1fb 743d
000000c0: 3fce 563d bb9f 9cbd 0e14 0dbc de38 2ebc
000000d0: c047 383a b7d3 143d 1e5b 94bc 84a1 1c3e
000000e0: 7bb7 84ba dc9a 2cbe 1a56 f93c 7e52 27bc
000000f0: e618 1d3b 053f a7b6 b146 8d3d 4850 30bc
00000100: c891 b23a 4747 c8bc 9c96 dabc 3274 953c
00000110: 93c2 aea7 5623 183b f2d6 63bd 13f8 943d
00000120: 421a 5cba 3982 903d 639c cfba e0ea ab3b
00000130: fdf1 24be 6729 30ba dd3c 2fbd 46e3 2c3d
00000140: f503 00bd 7aea 36bc 7291 863b fb83 563d
00000150: 29f1 66bd 3246 bd3e 8be8 e1b8 eb13 593a
00000160: 3819 41ba 4927 e4bc 49d9 72bc 92c6 d5bc
00000170: b82f f7b7 845d 013d 8893 dfbd f6c5 313d
00000180: 0a1c d53c aa31 47be de2b 79bc 3d6f c3bc
00000190: de30 b83c a88a 07bd 92f7 a1bb a7bb 33bc
000001a0: aaeb 10ba 1021 6cbb 1707 cd3c 8c33 e9ba
000001b0: 343e 5a3a 931e 8a3b 78b2 ee3c 5570 35ba
000001c0: cbe9 0c3d 13d2 c238 5774 1e3e 9e03 023d
000001d0: 4d8b d6b9 da5d 973c 10b3 0c3d efe3 97bc
000001e0: 0400 0080 5fe1 d73c 9899 8cbb 66ba 6b3c
000001f0: 9e98 c03b 9abe 2d3c f79e b23c 9380 f93a
00000200: a9a2 b3bc 8fc9 d13c 5861 1bbb 3e96 263c
00000210: 0400 0000 6b3e 95b8 82f8 4dbc edd4 113c
00000220: 62f3 b83c aeaf 463a 3520 73bd dc39 f33a
00000230: 6a3d 16bb 268d 373d af41 413d 70b9 963c
00000240: 87cf 163c 9a6b f83c 2a3e c03b fc17 0cbd
00000250: aadc 47bc b32a 4cbd 4acd 84ba 6798 813a
00000260: a88a 70ba 2ddf e83c bfda b6bb 4caa 2a3c
00000270: 74a1 23bc 59f0 5db9 a7ee c43a 0225 b53c
00000280: 67d7 93bc a104 6cbd 55f9 9bb8 134d e038
00000290: 5ffa 353c 44aa a83b 4fcf 80ba cb87 92bb
000002a0: d32b 93bc 940a 8a3c 7429 b9bc 8a74 9fbc
000002b0: ab97 abbc 3cec 19bd 7981 8e3b 6ae5 dbbc
000002c0: efd2 0cbd 4302 27bc e559 bc39 14c0 da3c
000002d0: 9ba1 6bbd 5cbf a4b9 a790 93bb fc30 a3bc
000002e0: adfa 9636 cd7b 2c3c b090 763d d3b7 aebb
000002f0: df64 6d3c 0a9f 04bc 5c88 1ab9 3ee1 133c
00000300: 867e dc3c be86 503c d70c 9f3c 86f7 113d
00000310: d862 babc 3c99 903d 9dab 5e3a c4c9 e4b9
00000320: 2de8 91ba 44a5 853b 67dc 083c e1ad af39
00000330: 2771 a9bb 4fb5 223c 5587 8abb e7da 663b
00000340: 8151 5abd b7d7 debb 13e9 b13c e665 173f
00000350: ae0a 043b 74e2 acbc 489b a5bb 0400 0000
00000360: 2b32 44bb 137c 8d3b ef09 89bc 98e1 0abc
00000370: f579 f5bc 119a 283c a365 2d3d c931 d5bc
00000380: 3022 003c bdb0 66bc a260 853c 50f0 b23d
00000390: 1f45 92bc de3f 7c3d 2a3b 203c bf91 433c
000003a0: bd94 21be 1386 f9bc b2d9 1e3b 499b b1ba
000003b0: 62ae 87bc 4f9a 8bbc f669 293c 75e0 8c3d
000003c0: 2b5c 253d b15a 6abc 0b1a 2d3b c933 d43c
000003d0: c724 053d 764a 1b3b f431 4e3c 03c1 8ebc
000003e0: f814 d43b 87e0 91bd 3912 2937 3ee4 76bc
000003f0: 4d17 4c3d 9318 78bb f128 503d 0af6 3dbd
