results/windy/models/checkpoint_ep400.pth (torch, 436170 bytes, 18 tensors)

fc1.weight f4 [256, 8]
00000000: 971b 0ebe dbfc 63be fc4f 8fbf db45 b43e
00000010: 93a3 9d3f 5722 4abd 5c6d e2bd 1e60 0ebf
00000020: c86d 4b3f 1808 253f c6e2 0c3f eb32 b6bf
00000030: 333a 393e 2a53 c3bf 25c1 78bf c8fb f23d
00000040: 229b 5e3e 4f52 77bc 1bd9 173f 7174 153f
00000050: 79fc bd3e 387f 743f 1fcf bb3e 5708 0e3f
00000060: ecf6 18be 197e f13e c30f 673e 4b1c ba3d
00000070: b121 483f da33 b3bd 8904 a1be 9a78 5e3f
00000080: 80b7 d6bd 5ef3 403d c9fd dd3e 3c0d 1240
00000090: 999f 4dbe 56e0 be3e 21dd 3e3f 0ed5 143f
000000a0: 0f15 eb3e 89d4 18bf ba26 cfbe 3464 95be
000000b0: 44ff 163f 8860 4ebf 5651 9a3e 5548 a8bf
000000c0: 0471 0f3f 066f 7c3e 04ee b43b 92e2 2cbf
000000d0: 7fd9 a73d 8224 97bf f8b6 62bf ff41 0e3d
000000e0: ac0d b0be 0ccd aabc 133f 87be 1e50 dfbe
000000f0: 5d30 28bf 92e2 26bf 6835 78bf 7d02 d23e
00000100: bece 5ebe f00f 3ebf 7bf9 383c c04e 14bf
00000110: e488 e1be 59ee 93be c5e7 ddbf a149 2b3f
00000120: d383 693f 4710 2bbf fc2a 1a3f a2f5 ccbe
00000130: 8d1b 9a3e c298 cf3d dc93 f8be 2d8f 3e3f
00000140: a6b4 503e 491d 933e bc37 b73d 646b 07bf
00000150: 840e 08bf c317 f13e 68b5 6dbe d342 853f
00000160: 523e ac3e dca2 abbf f711 10bf 78f0 0ebf
00000170: e535 8d3e 0a1e 753f 077e 923e d5b8 ebbd
00000180: a4c6 793f 82dd 9bbf f762 e23e 49a9 06be
00000190: d18d 953f 4b36 05be 1a93 02be d303 843e
000001a0: 679d c73e 9638 283f ea18 48bf 851b 9c3e
000001b0: 5a46 1ebf 1a62 8dbe d17d cdbc ca8e 95be
000001c0: 45ac d4be 622a f53e 41c8 82bc 20bf a83e
000001d0: 57ab 143e e6d4 d43f ef51 013f 5bbc 803f
000001e0: 72f3 9c3e f350 bbbe b350 963f aabf 333d
000001f0: bd28 033f 52d6 d4bf adfa 88bf 643b 20bf
00000200: 45ba d7be 03e8 e53e a50e d1bd 5470 693f
00000210: 3b72 293f fb28 b2bd 6148 1c3f 2b6a 603e
00000220: 3b5e 9d3e f651 99bf 3c7e 2e3f 63c1 84be
00000230: 4737 e5be 8d6f 25bf ab6d 643d 544f 5b3f
00000240: 12dc 3abf 9c85 58bf b9a6 54bf 535f 8e3e
00000250: 011f 8c3e 6755 6cbf 5ac1 313e 8091 183c
00000260: 840d fd3e bf69 10c0 b804 e3be 8e5f a1be
00000270: 49e1 1bbe 7610 333f fe15 043f f78a 593e
00000280: 26ef 803f 0c86 33bf 8389 bbbe e370 693e
00000290: d926 453d 2aaf 0e3f 3bdb 163d ae11 55be
000002a0: aedd d93d 089d afbd a406 7dbe 3ea3 01bf
000002b0: 6b5b 4bbd a403 293e b78f 0dbf 485f 33bf
000002c0: b124 833e d069 c7bf 4ec5 5dbf 8825 b43e
000002d0: 5b22 3cbe bc51 d8be 477d 3d3f 679d 413f
000002e0: 2b5c 5cbf db4b 44bf 9da6 3fbf 959f f03e
000002f0: 6841 223f e0a8 dabe f3e1 923f b687 543f
00000300: 6bc0 0cbc 5c41 9a3d a59e 093e 74e7 403e
00000310: bbc0 0dbf e8df dbbe 6b1f 1c3f 7993 f73e
00000320: 195a 22bd 4a6a 7c3d 38ff a0be c5a9 7c3d
00000330: 67bc b7be 84e5 263e 4b8e 403f d63f 383f
00000340: 5cd7 88bf 3e4d 89bf 84a4 223f 38bf cc3f
00000350: e565 553f 79f5 bfbd ed8e e33e 628c ce3f
00000360: 0690 95be 9ea4 023f 8db1 cebe ad04 7a3f
00000370: 9e75 9abe 56c2 66be f595 f23e 9f4f d4be
00000380: 4ccf d73c 819d 4f3d 4b76 403f 1978 8dbf
00000390: ddfb 1abb c1a1 c7bd 3da6 573e 23da 213f
000003a0: 2760 6ebe 1bcc b9be d2b5 e83e c78f 043e
000003b0: b678 3a3f ab68 053e ec79 913f 582e bdbd
000003c0: 4560 efbc 568f fabd 5ae6 bcbf 8d5b 4b3f
000003d0: 44ae 36bf b99f b13e a40c 1ebf 1f42 9b3e
000003e0: e16c 36bf ba8b dc3e bc56 19bf e14f 83bf
000003f0: 3106 1c3d 0c86 5f3f 51b0 20bf 6758 0dbf
-0.13877712 -0.22264425 -1.1196284 0.35209545 1.2315544 -0.049349155 -0.11056015 -0.55615413
0.7946439 0.64465475 0.5503353 -1.4234289 0.18088607 -1.5259755 -0.97169715 0.1186443
0.21738866 -0.0150953075 0.5931565 0.583808 0.37106684 0.9550662 0.36681458 0.55481476
-0.14937943 0.47166517 0.22564606 0.09087428 0.7817641 -0.08750124 -0.31448773 0.86902773
-0.104842186 0.047107093 0.43357685 2.2820578 -0.20080413 0.3728053 0.74556166 0.58137596
0.45914504 -0.596993 -0.40459234 -0.2917801 0.58983254 -0.80616045 0.3014018 -1.3147074
0.56031823 0.24651727 0.0055215377 -0.6753322 0.08195781 -1.1808016 -0.8856044 0.034730908
-0.3438543 -0.020849727 -0.2641531 -0.43615812 -0.65698797 -0.6518947 -0.9695649 0.41017523
-0.21758553 -0.7424307 0.0112899495 -0.5793266 -0.44049752 -0.28892782 -1.7336355 0.66909224
0.9121677 -0.6682171 0.6022184 -0.40031153 0.30099145 0.10136558 -0.48550308 0.7443722
0.20381412 0.2873328 0.08946177 -0.5289824 -0.5314715 0.4708844 -0.23213732 1.0411018
0.33641297 -1.3409076 -0.5627741 -0.55835676 0.2758018 0.9574896 0.28611776 -0.11509863
0.97568727 -1.2176974 0.4421613 -0.13150515 1.1683904 -0.13008992 -0.12751427 0.25784168
0.38987276 0.65711343 -0.78163016 0.30489746 -0.618261 -0.27613908 -0.025084408 -0.29210502
-0.4153768 0.47883898 -0.01596463 0.32958317 0.14518486 1.6627471 0.50515646 1.0057482
0.30654484 -0.36585197 1.1743377 0.043883957 0.51234037 -1.6627905 -1.07015 -0.6259062
-0.421343 0.44903573 -0.10207871 0.91187024 0.66189927 -0.08699223 0.6104794 0.219155
0.30735955 -1.1978137 0.6816137 -0.25928792 -0.44768736 -0.6462334 0.05576865 0.8566792
-0.7299205 -0.8457887 -0.830669 0.27807102 0.27367404 -0.92317814 0.17358914 0.009312034
0.49424374 -2.2564542 -0.44339538 -0.31518215 -0.15222658 0.6994699 0.5159606 0.21244417
1.0072982 -0.70126414 -0.3662835 0.22796969 0.04813275 0.5573603 0.03683017 -0.20807526
0.10637985 -0.08574873 -0.24709564 -0.5063971 -0.04964773 0.16505295 -0.55297416 -0.7006726
0.2561393 -1.5579166 -0.8662919 0.35184884 -0.1837248 -0.42249858 0.74019283 0.756308
-0.8607814 -0.76678246 -0.74863607 0.4699675 0.6338105 -0.42706966 1.1475204 0.8301958
-0.008590798 0.075319976 0.13439424 0.18838292 -0.5537221 -0.42944264 0.6098544 0.483547
-0.039636705 0.061624803 -0.31444716 0.061685342 -0.35885927 0.16298491 0.7521712 0.71972406
-1.0690722 -1.0726697 0.6353228 1.5995855 0.83358604 -0.09372992 0.4444498 1.6136591
-0.29211444 0.51032436 -0.40369835 0.97663385 -0.3016786 -0.22535071 0.47380033 -0.41466996
0.026343964 0.050687317 0.751805 -1.1052276 -0.0023648657 -0.09747649 0.21059509 0.63223475
-0.23278867 -0.36288533 0.45451218 0.12945472 0.7284044 0.13028209 1.1365333 -0.09237355
-0.02922071 -0.122343704 -1.4757798 0.7943657 -0.7135966 0.3469217 -0.6173804 0.30323884
-0.71259886 0.43075353 -0.5989797 -1.0258752 0.038091842 0.87313914 -0.6276904 -0.55213016

fc1.bias f4 [256]
00000000: 2467 a4be 81ae cdbd b4a3 8d3d f5e1 7b3e
00000010: 97b7 48bc d6b2 9b3d e02c f93b 6a49 143c
00000020: d4b9 8e3e 8f50 1cbe 84ca 28bc 9819 5abd
00000030: 9072 6cbd 5d85 9c3c dbaa b4bc 9439 1b3d
00000040: 61ca d63d 174f 54be ad87 86be 584f 8c3d
00000050: a801 883d 03eb c43d a855 86be 4a6d 8fbd
00000060: 853e 303d c6c7 173e 6bf2 4e3e 5a8e a73e
00000070: d34d b13d 1cb8 663d 4cd5 183e 2748 413d
00000080: ba7a fe3c 6b28 513e 4c50 963e 0d9b 2cbe
00000090: 6fe3 2ebc edd8 c53d 8855 2e3e 6ce0 51be
000000a0: 5e6e 82be 318d 34be 9c19 93bd 880f 99bc
000000b0: a481 8dbe f130 7fbd b384 5bbc 918d 9dbb
000000c0: e0ef 923d 49d6 923c 2435 403d eebf 593e
000000d0: f27f 5ebd dad5 25be 54bc da3d 2516 b9bd
000000e0: cfbf c8bd 97ae 1c3d 741f d13d b6e5 283e
000000f0: 22dd 8ebc 5a20 7c3d 0415 a33d 5484 bb3e
00000100: cf49 4c3d b064 db3d 5fbf b4bc ed9f 203e
00000110: 330d 7fba dfda 58bd 61f2 763e 4545 30bd
00000120: 9d8b e8bd c19d a93d aeb1 c03c b219 a9bc
00000130: c153 c73e 88ce 91be 22fb 573d ab0b 7a3d
00000140: 822e 603e 7ef1 efbb e662 7cbe d662 f6bd
00000150: f844 b43c 1326 30bd 2f71 2a3e bc66 12bd
00000160: 6bbe 823d f72d 083e 5c15 153d d44a 8b3d
00000170: 20a7 26bd 24b9 1fbc d286 903d 1645 10be
00000180: 2511 963d eddc 163e a669 61bd 9803 00bd
00000190: 8f35 d7bc 89f2 063d c1fc 023e 1159 bdbd
000001a0: 906e e1bd 4b18 5b3c d7fa 2abe dbc1 0dbe
000001b0: cb8e 5dbd b5a9 f23d 391c 1f3e a41a 96bd
000001c0: 0231 263e 65f4 a6be 3dc6 843e 2568 1f3e
000001d0: b5d0 3b3e cbaf f83d e3d1 223d 092e f53d
000001e0: b353 8bbe f6e3 973e 6950 ac3c db88 b43d
000001f0: 96fc 053e db81 5d3e 6560 a0bd 3b23 ff3d
00000200: 7a0e 363e bbad dabd 6f75 d6bd 7be8 b63c
00000210: a126 e6be a31d a7be fbe8 a5bc 1df9 81bb
00000220: dba7 d8ba 0b9e 87bb dac3 193d c611 19be
00000230: 663a 533e 7db8 713d e429 9a3d 8e39 a93e
00000240: a071 093e f8ac fdbd d392 bfbc 6b4c 9f3e
00000250: 1f37 983d 7e59 013e 6b9f 4ebd d978 2fbe
00000260: 0d64 6f3d 6686 e73d 5b81 093e a873 53be
00000270: ae63 773d 0283 ecbd a4cc 583d 882c 89bd
00000280: 027e a1bd 8b01 fc3d 2391 16be 40c9 a8bc
00000290: 28a8 ea3d 7c61 153e 9b66 0bbe 00fb 7c3d
000002a0: 4191 58be 3098 423b d01d 51be 7921 d7bd
000002b0: feb2 793e 9bb4 a23c e65e 33be 373f 8b3e
000002c0: 4c04 a43c 546b d6bc 86d0 6abe 1ca0 f33d
000002d0: a5ca 743d 8f9b 213d 18fb 3b3e 7ebb 973e
000002e0: 09fc 8cbe e59e 543e 3712 84be 3d55 38be
000002f0: b642 e43d 3759 953b ac87 433c 62c6 07bd
00000300: 0583 8e3c 4bce 543d 9a6e 113e 9e10 b93b
00000310: 7239 e23d 0129 2abd f1d5 25be 3e6d 34be
00000320: 3937 68be 31bd 11be 8063 babd 322b 60be
00000330: 21c7 0d3e bd26 fabd 0d1d d63d 13ce a53e
00000340: 1d30 d33d b9d1 153e 8029 23be bfe4 63bb
00000350: dcf6 83bd 0948 bbbd 2f47 15be c71e 90be
00000360: bd46 103e 79af d3bc 829b c43b d1c9 4b3d
00000370: cec0 6d3e f906 f43d 164e 923d 067f 863d
00000380: 7398 4c3d 29ab 073e 7d35 693e 7e47 26be
00000390: e33c c43e a826 943c 412a e73d a12c 2dbd
000003a0: 696e 8cbb cc73 68be 12a2 93be acf6 7fbe
000003b0: 3d47 923e 1cc7 353c 5713 e03c 21aa 073d
000003c0: ce02 4dbc 8995 973d d620 653e f106 693e
000003d0: b0d1 5abd a417 9d3d 1f62 823e 92f5 01bd
000003e0: e86b 25be db3a 013d a1e9 9bbe e27b c83e
000003f0: cbd8 ea3d 06c5 17bd c9d9 c93c 5ddc 8bbd
-0.3210994 -0.100430496 0.069159895 0.24597915 -0.0122508025 0.076024696 0.0076042265 0.009050706
0.2787615 -0.15265106 -0.01030219 -0.053247064 -0.057726443 0.019106561 -0.022054126 0.037896708
0.104878195 -0.20733295 -0.26275387 0.06851071 0.06640941 0.096151374 -0.26237226 -0.07003267
0.043028373 0.14822301 0.20209663 0.32725793 0.08657422 0.056327924 0.14925116 0.04718795
0.03106438 0.20425574 0.29358137 -0.16856022 -0.010674342 0.09660516 0.17024815 -0.20495766
-0.25474828 -0.17631985 -0.07182619 -0.018684164 -0.2763797 -0.062302534 -0.013398337 -0.004808136
0.07174659 0.017924445 0.04692568 0.21264622 -0.054321237 -0.16194859 0.10680452 -0.09037427
-0.098022096 0.03825244 0.10211077 0.16493878 -0.017439429 0.06155429 0.07962993 0.36624396
0.049875077 0.10712564 -0.02206391 0.15686007 -0.0009729445 -0.052943107 0.24115898 -0.04303481
-0.11354754 0.08282042 0.023522224 -0.020642135 0.38931087 -0.28477883 0.052729733 0.061046284
0.21892741 -0.0073224893 -0.24647102 -0.1203057 0.022005543 -0.04300506 0.16644739 -0.035742506
0.063839756 0.13298784 0.036397323 0.06801382 -0.040686727 -0.009748731 0.07056965 -0.14088854
0.07327489 0.14732714 -0.055032395 -0.031253427 -0.026270656 0.032946143 0.1279173 -0.09245504
-0.11007416 0.013372491 -0.1669725 -0.13843481 -0.054091256 0.11848775 0.1553811 -0.073293
0.16229632 -0.32608333 0.25932494 0.15567072 0.18341334 0.12142905 0.039750945 0.11971671
-0.27212295 0.29666108 0.021034436 0.088151656 0.13084635 0.21631567 -0.07830886 0.124578916
0.1777896 -0.10677668 -0.104716174 0.022327652 -0.44951347 -0.326398 -0.020252695 -0.003966464
-0.0016529517 -0.0041387132 0.037540294 -0.14948186 0.20627746 0.059013832 0.07527521 0.33051723
0.13422251 -0.12386507 -0.02338544 0.3111299 0.074323885 0.12631795 -0.050445 -0.17135943
0.058445025 0.11304931 0.13428251 -0.20649588 0.060397796 -0.11548425 0.052929536 -0.06697947
-0.07885362 0.12304982 -0.14703803 -0.020603776 0.114578545 0.14587969 -0.1361336 0.06176281
-0.2114916 0.0029692762 -0.20421529 -0.10504431 0.24384686 0.01986151 -0.1751667 0.27196667
0.02002158 -0.026174225 -0.22931108 0.11895773 0.05976357 0.039454993 0.18357503 0.29635233
-0.27536038 0.20763738 -0.25795147 -0.18001266 0.111455366 0.0045577544 0.011934202 -0.033148177
0.01739646 0.05195455 0.14202347 0.005647733 0.11046113 -0.04154301 -0.16194893 -0.17619798
-0.22677316 -0.14232327 -0.09101009 -0.21891478 0.13845493 -0.1221442 0.1045476 0.32383785
0.10311911 0.14630784 -0.159338 -0.0034773794 -0.06443569 -0.09144599 -0.14577936 -0.2814848
0.14089485 -0.025840508 0.0059999833 0.049753014 0.2321808 0.119153924 0.071438 0.065671965
0.049950074 0.13248886 0.2277431 -0.1623821 0.38327703 0.018084839 0.11287356 -0.04227889
-0.004285623 -0.22700423 -0.28834587 -0.24996442 0.28569975 0.011094835 0.027352972 0.033121232
-0.012512876 0.074015684 0.22375807 0.22756554 -0.05342263 0.07670525 0.25465485 -0.031728335
-0.16154444 0.03155027 -0.30451682 0.39157015 0.11467131 -0.03705313 0.02463998 -0.0682914

fc2.weight f4 [128, 256]
00000000: 4667 9ebd 0c85 233d 2119 d63c 0765 463d
00000010: 09fc 6cbe 596c 613e c9b4 253d 0de8 45bf
00000020: 7fe9 6ab9 4108 e0bd 19c6 c5ba 5102 8a3e
00000030: 4f1b 5c3e d27d e53e 454e 303e baa3 563e
00000040: 49f6 0bbe 13a2 2abe 5f24 533e 438a 893e
00000050: f736 8c3e 35e9 0fbd fbde 003e e276 29bd
00000060: 13a6 e63d 2858 003e 801c d0bc 81b4 87be
00000070: ebc7 cb3b a6e7 733e 200c 423f c190 a7be
00000080: 4bdf 193e 9c51 0b3e 4dee b23e 6fb4 05be
00000090: 15d2 53bd fb58 073e 4052 b83d d1d6 9c39
000000a0: 5ae0 eebd d65d 403e 6bc7 cd3d a106 2a3e
000000b0: f274 793d e8e5 42bd 53aa 33bc 3b0b 003e
000000c0: 1369 0e3e 6e0b 8bbf 18fa 693e a3e4 e7be
000000d0: cdee ca3d ed2e 1bbf 5a9e aebd d794 82bf
000000e0: 721a 1a3d d813 66bd adb5 1bbe 6fc2 e4be
000000f0: 13a1 5a3e bb3c 933e 6f4e 053c 3cee 8bbd
00000100: f6aa 9e3d 7acf 523e ce7f 983e 3749 a23d
00000110: 0e56 b6bd d0c7 41bd c5f8 0fbe 00fe 243d
00000120: 2ab4 0fbc 7663 0fbe 7976 ed3d bd2c 993e
00000130: 42b7 c43e 81fb 0b3e a3c5 d03e 81aa 953e
00000140: 7061 e53e 18cc 8dbe b124 9c3d 26e0 a1bd
00000150: 2952 3c3e c5f6 54bd 6b87 ec3d d6cb 3f3d
00000160: 31f4 2d3e b232 b9be 9dd6 203d 0503 c1bd
00000170: 99b8 f23d a2db f03d 63fa 1abe 8015 dabd
00000180: ccd1 ad3d 956c 3dbf d532 853d cb04 193d
00000190: 2b49 143e 8c71 173e 4513 2a3d b0ed 21be
000001a0: 28ce 843e 157d b63e e247 16bd 8291 573e
000001b0: 09a3 14bd eae0 893e 45b6 23be e4b8 b13d
000001c0: f569 45be 4c16 24bf f63e 84bd c713 27bc
000001d0: e9af b3be e59c ad3c 1607 82bc e989 a6be
000001e0: 2b84 87be f245 a53d 8fa3 643e d4c5 91bd
000001f0: d0e0 533e 7ddc cbbd eb4e 57be 0ea3 a43e
00000200: fae4 9cbe 4444 4cb9 6f51 2f3d 0633 633e
00000210: 9365 d1be bda4 623e 9eda 54be 4be4 47bd
00000220: f269 b33e f55e 3d3e 2029 febc 4542 94bb
00000230: 4b99 fb3d 01b3 33bf 6d40 28be 6df9 503e
00000240: f4a2 bfbe 438a ef3c 5450 dfbd 914f 443e
00000250: 9ff4 73bf fc09 843e f7c8 413e eadf 29be
00000260: ad20 b8be dba6 05bd c0f7 7cbe 115a cc3d
00000270: 1a60 a13c 39a5 0e3e 9be6 97bd accf f8bc
00000280: 5d9c 023e 0553 623e 1135 843e c6af a1bd
00000290: baee aabd 3b06 15bf 7502 3e3d e1ad 94bd
000002a0: c709 9cbf 7845 463d 8b4f 113a 11ce 753e
000002b0: 10a2 c23e bc22 91bd 031c 043d 2c67 9abd
000002c0: 63a8 6f3e 6d60 923d 4c52 c6bc 6be3 ab3e
000002d0: 65c3 a5bd 7afe 94bd 84d3 2d3e d98b d53e
000002e0: bad7 23bf bc36 893d 821d 28be 74d4 1bbc
000002f0: 0292 2dbe c5b2 0a3d 353a 683d 8bc6 e53d
00000300: 8f0f ab3d f0cb 833d dc0f 42be c19d 533d
00000310: a1b7 5bbe beb9 053e 2663 703e ede4 413e
00000320: 4e02 afbe af4c d6bd 2caf eabc a084 3f3e
00000330: 4636 86be f096 be3c c2eb ffbd f45a 933d
00000340: e70d 3dbf d832 afbe d2c4 343e 78f7 303e
00000350: c083 443d 6283 94be bfe7 973e 48b0 13be
00000360: 5e71 283e fe72 183e e91f 95be f7a4 c93d
00000370: 06d0 b93d 6ba2 613e faa0 a63e 225d 9fbe
00000380: 67f1 e9bd a1c2 e23c 1641 85bc 139e 39bd
00000390: 7850 cc3d f577 f73e 166a 46be 80ce 1abb
000003a0: 560e 043e e3a9 05bc 6efc cabd cd03 d1be
000003b0: 4bed 683e 4d6d 8d3e a204 c8be 7ea4 4bbe
000003c0: cbc9 c8bd fc75 a0be 568a d23e 5195 cabe
000003d0: b391 66be 7ac8 93be 0887 493d 71b7 1e3d
000003e0: e0fa 90bc 6edd a93e c92d 4b3c e931 1b3e
000003f0: e043 bfbe 45a9 d5bd 0a47 5d3e d84f 4b3d
-0.077345416 0.039921805 0.02613503 0.04843619 -0.23143019 0.22013988 0.040455613 -0.77307206
-0.00022402963 -0.10939074 -0.0015088945 0.26954892 0.21494792 0.44822556 0.17217357 0.20960894
-0.13668169 -0.16663389 0.20619343 0.26863298 0.27385685 -0.035134513 0.1258506 -0.04137314
0.11262145 0.12533629 -0.025404215 -0.265049 0.0062189004 0.23818836 0.7579975 -0.32727626
0.15026586 0.1360535 0.34947434 -0.13057111 -0.05171402 0.13217537 0.09000063 0.0002991469
-0.116638854 0.18785796 0.100478016 0.16604091 0.060902543 -0.047582537 -0.010965901 0.12504284
0.1390727 -1.0862863 0.2284931 -0.45291623 0.09908829 -0.6061848 -0.08526297 -1.0201672
0.037622876 -0.05617127 -0.15206023 -0.4467959 0.21350507 0.2875727 0.008136376 -0.06832549
0.07747452 0.20586959 0.29785007 0.07924121 -0.089031324 -0.047309697 -0.14059742 0.040281296
-0.008770982 -0.14002785 0.115948625 0.29916945 0.38421065 0.1367016 0.40775785 0.29231647
0.448009 -0.27694774 0.07624186 -0.07904081 0.18390717 -0.05199315 0.115492664 0.046825252
0.16987683 -0.3617149 0.03926717 -0.09424404 0.118516155 0.11760642 -0.15134577 -0.10648632
0.08487281 -0.7399381 0.06503836 0.037358087 0.14481036 0.14789408 0.041522283 -0.15813327
0.25938535 0.35642305 -0.036689647 0.210516 -0.036288295 0.26929408 -0.15987499 0.08677843
-0.192787 -0.6409652 -0.06457321 -0.010197586 -0.35095146 0.021192977 -0.01587252 -0.32527092
-0.26468024 0.08069982 0.22328018 -0.07117811 0.20691228 -0.09954164 -0.21026199 0.3215565
-0.30643445 -0.00019480387 0.04280227 0.22187433 -0.40897807 0.22133155 -0.20786521 -0.0488017
0.35041767 0.18493254 -0.03102547 -0.0045245015 0.12285098 -0.70195013 -0.16430826 0.20407648
-0.3742901 0.029240733 -0.10903993 0.19170977 -0.9529514 0.25788867 0.18924318 -0.16589323
-0.3596243 -0.03262983 -0.24703884 0.09978116 0.019699145 0.13930215 -0.074170314 -0.030372463
0.1275496 0.22101982 0.25821736 -0.07894854 -0.08346315 -0.5821263 0.046389062 -0.07259727
-1.2190484 0.048406094 0.0005543164 0.2400439 0.3801427 -0.07086703 0.032253277 -0.0753921
0.23404078 0.07147298 -0.024209164 0.33571944 -0.08093909 -0.072751 0.16975218 0.41708258
-0.6400105 0.06699893 -0.16417506 -0.009511102 -0.16950229 0.033861894 0.056696136 0.1121951
0.08352577 0.06435382 -0.18951362 0.051664118 -0.21456768 0.13059136 0.23475322 0.18934985
-0.34181446 -0.10463845 -0.028647982 0.18702936 -0.26213282 0.023265332 -0.12496139 0.07195082
-0.7384934 -0.34218478 0.17653206 0.17281902 0.04797721 -0.29006487 0.29668996 -0.14422715
0.16449496 0.14887616 -0.29125908 0.09845918 0.090728804 0.22034614 0.3254469 -0.31125742
-0.11422997 0.027680697 -0.016266387 -0.045316767 0.09976286 0.48333707 -0.19376406 -0.0023621619
0.12896094 -0.00815818 -0.099114284 -0.40823212 0.2274677 0.27622452 -0.39066035 -0.19886968
-0.09804114 -0.31340015 0.41121167 -0.39567044 -0.22516517 -0.2886389 0.04920104 0.038749162
-0.017697752 0.3317675 0.012401053 0.15155758 -0.37356472 -0.10432676 0.2160913 0.04963669

fc2.bias f4 [128]
00000000: 3f80 7a3e 4a81 84bb ade3 5dbc e333 503e
00000010: 7915 8abd a894 e4ba 6b65 5f3d de72 a9bd
00000020: f5b1 1c3d 26d2 18be b7c7 183e 6858 c03d
00000030: 5e40 0e3e 7ad5 3a3e 0921 e7bd 672b 4e3e
00000040: 86d0 5abd 3a1c 02bc ccb4 813d a979 99bd
00000050: bbd4 b63e 6277 5cbe 4d6b 39bd 4167 d23c
00000060: ddc0 d8bd 9af7 9fbd 79c8 87be 121e 383e
00000070: 8f4d 23bd 6aae d33c e44f bb3e c7b3 d5be
00000080: 21a6 623d 076a d83d caaf 183e cf0e 4abc
00000090: bf1a 143e f273 7bbe e0c4 2a3e d8aa 763d
000000a0: b27b 123e 05a1 c43d 7dde bcbb cf64 543c
000000b0: bc8b c1bc 2e97 f63d e80d 34be ea59 f5bc
000000c0: 4fb7 263e ab9d 68be 1fab 9d3d 6075 153e
000000d0: 2faa 61bd 3895 543e ff8c 92bc 4b95 3b3e
000000e0: 2a1a c4bd b627 1b3e 2d7a 873d 7c0c 013e
000000f0: 0b4b 28bd 6ed3 19be e59c 1c3e 5b77 10be
00000100: ebd7 303e 2194 2bbb 4635 d43d d2b9 63bc
00000110: e806 2a3e a16b 053e db73 df3d 9162 ed3d
00000120: 3b21 033e d651 96be b5a0 56be 0f7b df3c
00000130: 87d1 07bd c0b5 593e c1b7 203e 4493 c53c
00000140: 0a8f 1bbd 1027 773d 164d 6c3e 06d6 fa3d
00000150: fc20 bfbc 6059 143e e572 00bd 1558 e23d
00000160: c950 3abe 1a09 a13b 6370 8c3c 027b e03d
00000170: 0f24 81bc 94dd 56bc 2ff1 923c 713c cabc
00000180: 8213 4abc d21b 02bc 12ee 81bc 2f9c c83d
00000190: 6637 013e 1ba4 d7be e319 033e 4ac3 91be
000001a0: 6cbe a0bc 1de8 083e fd64 1dbe 17e5 8b3e
000001b0: 2735 213e c665 1b3e 1335 ed3c 7e57 d5bc
000001c0: 6b8f 97bc faa3 2a3e 00fc 2d3e 3c04 95bd
000001d0: 6b8b 783d 0070 07be cf95 863c be8a 1dbe
000001e0: 7b13 6cbe fc48 0b3e 222a 9f3e b91a 6c3d
000001f0: 666d 0cbe ea96 b23d 0c13 11bd 621d 66be
0.24462985 -0.004043733 -0.013543052 0.20332293 -0.06742377 -0.0017439323 0.05454008 -0.08273862
0.03825565 -0.14923915 0.14919935 0.09391862 0.13891742 0.18245497 -0.11285598 0.20133744
-0.05342152 -0.0079413 0.063333124 -0.07493908 0.35709175 -0.21529916 -0.045268346 0.025684
-0.10583661 -0.07810898 -0.26520136 0.17980221 -0.039868888 0.025840003 0.3658439 -0.41738722
0.055334214 0.10567098 0.14910808 -0.012332632 0.14463328 -0.24555948 0.16676664 0.060221523
0.14304999 0.096010245 -0.0057638274 0.012963488 -0.0236262 0.12040554 -0.1758343 -0.0299501
0.16280864 -0.22716396 0.076986544 0.14595556 -0.05509394 0.20760047 -0.017889498 0.1831867
-0.09575303 0.15151867 0.066151 0.12602419 -0.04108719 -0.1502206 0.15294226 -0.1410803
0.17269866 -0.002618082 0.103617236 -0.0138992835 0.16604197 0.13029338 0.109107696 0.11591066
0.12805645 -0.2935931 -0.20959742 0.027280359 -0.033158805 0.21260738 0.15695097 0.024118073
-0.03797821 0.060339987 0.23076281 0.12247853 -0.023331158 0.14487219 -0.031359572 0.110519566
-0.1819488 0.004914415 0.017143434 0.10960962 -0.015764264 -0.013114352 0.01793727 -0.024687024
-0.012333753 -0.007941203 -0.015860591 0.09795415 0.12618789 -0.4211739 0.12802844 -0.28469306
-0.01962205 0.13369794 -0.15370555 0.2732322 0.15742932 0.15175542 0.028955972 -0.026042696
-0.018501004 0.16664115 0.16990662 -0.07276198 0.060679834 -0.13226318 0.016428856 -0.15384957
-0.23054306 0.1360206 0.31086832 0.057642672 -0.13713607 0.08720191 -0.035418555 -0.22472146

fc3.weight f4 [4, 128]
00000000: ae72 473e 39ab d1be 5c1b ffbd 84f4 023f
00000010: fcc0 2bbf cc66 8ebe fb29 363f 1b00 f33e
00000020: 6233 b7be 250b 2cbf a193 943f 20ff ccbe
00000030: f3b2 21bf 6d68 a73f 304d 43bd d614 e93e
00000040: 689d b63e da67 6ebe b865 71be 7029 373f
00000050: e265 3c3f b2bf 27bf aaed 26be 490d 573e
00000060: ba95 d5be 4fa5 a3bd 074a e4b8 e128 00bf
00000070: 1478 f53d ca78 a4be d10e 29bf 71dc 3cbf
00000080: 646f 0c3f 7dff 05bf 4747 d53d ba13 c2be
00000090: cbd5 e53e d12d 04bf c994 01be e896 49be
000000a0: 2bbf ee3e fe1b 1c3f bb89 523f bb1c e13e
000000b0: f1ab 263e ac4e 82be 5b90 5ebe 307c 053f
000000c0: 5b37 efbe e350 c3be 6783 abbe 3562 143f
000000d0: 5ebc 98be 5b93 d7bd 0653 5abe 6399 273f
000000e0: 3482 e4be cfea e7be b5ee 30be f87f 10bf
000000f0: 0767 d6bb 022d ffbe 2122 0a3f d541 673e
00000100: 5d9d 3ebe cc2e 6d3f 5ca3 f73e c9e0 a2be
00000110: abe3 bb3e eb28 39bf 7467 7d3e 2397 1ebf
00000120: 023e c2be f90a 5fbf 8c21 6b3e 7a85 273f
00000130: a968 51be eb10 0fbf 86ec 8f3e e6ac 323f
00000140: 7ebc 8ebe 7260 b23e c9c3 123e d4e0 c7be
00000150: 8934 f3be 5ef8 ad3e 0918 133f 8e84 e43e
00000160: be76 65bf 5ebb 9cbe e3f4 d3be 2b1a 7e3f
00000170: e748 b3bb 3e77 03bf 1e59 543f adb3 0bbe
00000180: 119f fabd 0ed7 483d 08b0 dcbd 297f ff3e
00000190: 8f9d 553f f8d9 2dbf d9f5 b23e bcfa e8be
000001a0: 6e0e 64bd dc79 fbbe 366f 013f e4c8 91be
000001b0: 2a1c 093f 86da ef3e bc9b 70be 5d4d 713e
000001c0: 2495 00bf 4360 d93e 31c4 0a3f 46d1 6d3f
000001d0: 141a 113f 5b60 aebe ac8a 303f 0fa6 0fbf
000001e0: 319a cbbd 1848 513e a0bc d73d 0fcc 04bf
000001f0: bac7 133f 173e 813f f3ed 90be 70b8 89be
00000200: 2ba2 573e 7053 93be a479 58be eaf1 323f
00000210: 10f6 53be 6a9f c6be dce5 253f 2650 013f
00000220: c755 febe cda4 5ebf 5950 9b3e a64e 4b3e
00000230: b6f2 15bf e887 293f f142 7abe 036e cb3e
00000240: c8cf 1b3f 5d2f a43e 5e52 a43e f6fb 393f
00000250: c868 ea3d 9041 33bf af93 d6be 84b8 e23e
00000260: 6e24 76be 8a5e a4be 4320 583d f598 f33d
00000270: 55be bdbd d018 d6be 1b7c 0fbf a2f9 8a3d
00000280: b5ca 363f eaf0 b3be d404 9f3e 1baa dabe
00000290: cfcd 4cbd 899a d0be 38d2 a4be 01d1 5dbe
000002a0: a429 db3e 4f74 7a3d 87cc 0c3f 0952 863e
000002b0: 9fc9 c83d 817e 2ebf 1c44 ab3e 8ce3 3f3f
000002c0: e11a 18bf c277 0f3f 9213 04bf 3af2 ce3e
000002d0: 82dc 86be fec8 5dbe 8adb 45be e70f 11bd
000002e0: 847c dfbe 43d0 0cbf 6d1b 043e 0f62 00bf
000002f0: 2201 603e d9db aebe d357 c53e f9b8 7abe
00000300: 8b72 223f 3d6f c03e 1a06 2b3f dbfb cdbe
00000310: 0a57 203f 62bd 40bf 4b57 0d3f 9994 abbe
00000320: c6dd f2be ebeb 9ebe 78ec 89bf 5323 3a3f
00000330: 95ef efbe d146 8cbe 4b66 d4bc cb07 0d3f
00000340: 375f d3be 97a1 1c3f 97ea 463e f7b9 10bf
00000350: 07dc 10be cbe8 663f 98df 5f3f a6c7 b93e
00000360: ad98 1fbf b210 06bf b496 ebbe 978e f6bd
00000370: 152b 64bd af7a 01bf 024b 793f 2fdc bcbe
00000380: 0962 ec3d e219 a03d 790b a7bd 0992 e43e
00000390: 49e3 1bbd 24be aa3b 4adb 2b3f 3f2d 1ebf
000003a0: 8af7 6f3b 3fd6 56bf 6bac 8ebd 5047 17bf
000003b0: 1ba9 f13e 834e a13f a1a2 f5be 784f 103d
000003c0: 5b13 c6be a076 f33e 75c9 5a3f 4698 2e3f
000003d0: 3957 223e 3b73 17bf 3c04 443f 51e9 38be
000003e0: 353a ac3e 2504 25be 6355 893e ebc2 b9be
000003f0: 2f39 6e3e 9bb0 6b3f 67ba b7be 3fa7 d0be
0.1947734 -0.40950945 -0.1245639 0.5115435 -0.67091346 -0.27812803 0.7115781 0.47461018
-0.3578139 -0.67204505 1.1607553 -0.40038395 -0.6316368 1.3078743 -0.047681034 0.4552371
0.35666966 -0.23281804 -0.23573959 0.71547604 0.7359296 -0.6552688 -0.16301599 0.21001162
-0.41715795 -0.079905145 -0.00010885676 -0.50062376 0.11985794 -0.32123405 -0.66038233 -0.73773867
0.5485747 -0.5234297 0.10413986 -0.37905675 0.44889674 -0.5163241 -0.12654413 -0.19686472
0.46630225 0.6098021 0.8224141 0.43967232 0.16276528 -0.25450647 -0.21734755 0.5214262
-0.4672192 -0.3814765 -0.3349869 0.5796235 -0.29831213 -0.10526153 -0.21320733 0.65468425
-0.44630587 -0.45296332 -0.1727856 -0.56445265 -0.0065430435 -0.49839026 0.53958327 0.22583707
-0.18614717 0.9264953 0.4836682 -0.31812122 0.36697134 -0.7232806 0.24746495 -0.61949366
-0.37937933 -0.8712612 0.22962016 0.65438044 -0.20450081 -0.5588519 0.2811014 0.6979507
-0.27878183 0.34839207 0.14332499 -0.39038718 -0.4750102 0.33978552 0.5745855 0.4463238
-0.8963431 -0.306117 -0.4139777 0.9925868 -0.005471337 -0.51353824 0.8294848 -0.1364276
-0.12237371 0.049033217 -0.10775763 0.49901703 0.8344354 -0.6791072 0.34953192 -0.45503795
-0.055677824 -0.4911641 0.5056032 -0.2847358 0.535586 0.46846408 -0.23496908 0.23564668
-0.5022757 0.42456254 0.54205614 0.9289745 0.5668042 -0.34057888 0.68961596 -0.5611276
-0.09941519 0.20437658 0.10534024 -0.5187387 0.57726634 1.0097073 -0.2830654 -0.26898527
0.21057956 -0.28774595 -0.21140152 0.6990038 -0.20699334 -0.38793498 0.6480386 0.5051292
-0.49674818 -0.86970216 0.30334738 0.19854221 -0.5857347 0.66223 -0.24439599 0.3973237
0.60863924 0.32067385 0.3209409 0.72650087 0.11445767 -0.70021915 -0.4190955 0.442814
-0.24037334 -0.32103378 0.052765142 0.118944086 -0.092648186 -0.41815805 -0.56048745 0.06785895
0.71403056 -0.3514474 0.3105837 -0.42707905 -0.050000962 -0.407429 -0.32191634 -0.2166176
0.42805207 0.061146077 0.54999584 0.26234463 0.09804081 -0.6816178 0.334504 0.74956584
-0.59416014 0.5604211 -0.5159236 0.4041918 -0.2634011 -0.21658704 -0.19322029 -0.035415556
-0.43649685 -0.5500528 0.12901087 -0.50149626 0.21875432 -0.34152105 0.38543567 -0.24484624
0.6345603 0.37584868 0.66806185 -0.40231213 0.6263281 -0.75288975 0.55211323 -0.3351181
-0.47434825 -0.31039366 -1.077529 0.7271015 -0.46862474 -0.2739778 -0.025927683 0.55090016
-0.4128358 0.61184067 0.19425426 -0.5653376 -0.14146434 0.90198964 0.8745055 0.36285132
-0.6234234 -0.52369225 -0.46013415 -0.120389156 -0.05570515 -0.50577825 0.9738008 -0.36886737
0.11542136 0.07817437 -0.08156485 0.44642666 -0.038058553 0.005210655 0.67131484 -0.6178779
0.003661605 -0.83920664 -0.0696648 -0.5909319 0.4719933 1.2602085 -0.47975639 0.035232037
-0.38686642 0.4755144 0.8546365 0.682011 0.15853585 -0.591602 0.7656896 -0.18057753
0.33638158 -0.16114862 0.26822957 -0.36281523 0.23264001 0.92066354 -0.358844 -0.407526

fc3.bias f4 [4]
00000000: 5750 803c b5c8 3d3d dcd7 0b3e 3b32 e9bd
0.015663309 0.046333987 0.13656563 -0.11386534

exp_avg f4 [256, 8]
00000000: bfd6 adbb 30c1 c03b e5f9 bdbb 6f89 c539
00000010: 44f4 4ebb afe6 b2ba 0400 0080 29dd bf38
00000020: 3f0b 493b 0f59 8b3c ee3f 9c3c 0e84 11bb
00000030: 6799 b83a 6444 1ebb c1ef dd37 4635 f23a
00000040: bc47 3bbc 286b fabd cb77 62bd de3f c53c
00000050: ecae 1c3a fcd5 51bb 4a86 28bc eaa5 13bc
00000060: 907a 943b 54df 633c db37 f13b 8d13 41bb
00000070: bd8f fc3a 878a 7c3b 4f6a 0bbb 3eb3 deba
00000080: abbc cb3b 8ba4 cbbb 9285 bf3c b7e4 873b
00000090: b26e 113c e564 89bb c944 883c ab4c 643a
000000a0: 49cc 08bc cd7e ceba c5f6 ec3a 7f2d 28ba
000000b0: 900a 4fbb c357 d2bb 9184 033c 9419 c3bb
000000c0: 9a61 f53b 2dc2 cf3c 7f00 9d3c 3336 79bb
000000d0: 3615 f23a b4ed cf39 a593 1238 2d98 2f3b
000000e0: c4f9 14bd 4951 733c 84c7 a0bc e848 43bc
000000f0: a7cd 6cbc 982a e83b a768 ebb8 d919 23bb
00000100: 190a 813d da1a 8e3c 9f02 253d 6870 0e3c
00000110: ea3d 123d eb7e 37bc 379a 62b5 6997 1c3c
00000120: ff40 213c 2e83 373b 206c 0abc b75d 6e3c
00000130: 061a 61bb 1785 40bc e060 b93b a52b c0bb
00000140: 729c d93b 787c 75bc 1e9a 1b3c 0e39 463b
00000150: 1fca f43a 2734 74bb 60f3 ffb9 6a7d 9b38
00000160: 62cd a0bc bdec 653a f308 34ba 6421 5cbc
00000170: a5cd 97bc b633 4e3c 2306 9bbb 1246 37ba
00000180: 0ffe 2f3a 5359 3b3a 5191 e139 fb95 ee39
00000190: deb0 93b9 11d2 133a f369 373b d9a8 de3a
000001a0: 0cb3 1f3d 980c 0c3d 3c4e 0c3d 495a b13b
000001b0: e093 3d3c 33f6 dcbb 43b5 923b c862 c6b3
000001c0: 0f39 63bc d56e 19bd e91b d5bc 2ab4 5aba
000001d0: d6c8 aabb b35e 763b 38c6 cdbb 8294 60bb
000001e0: 82a7 14bc 1b42 1ebd ea49 3cbc ede3 863b
000001f0: b142 d43b c159 013c 53f6 02b3 9d02 8db9
00000200: e127 86bc edb9 c93b 9935 cebc e5d2 f8bb
00000210: 62bd 3ebb aaff e93b 1b85 d7bb 4528 4f3b
00000220: e445 003b 5774 d0b9 8987 ddba 8538 b53a
00000230: 91da 103b 8839 003a 36b8 793a d289 2cbb
00000240: bf18 403c 92f5 923a 73ee c83b d29c 803b
00000250: de0a 323c 4191 b9bb 33fb 2138 f9f1 91ba
00000260: 808b 16bd f7cb c83a d03f 18bc 7dbe aabc
00000270: 0e40 13bd ae5e 4b3c 8bbf efba dd2e aab9
00000280: 0d19 7e3c 540c bd3c d14e 183a b7d3 d8bb
00000290: 81d0 b03b 98a9 1e3c 95fe a03c 4433 a138
000002a0: 0169 163d c621 94bc 4bd3 f03c fe66 723b
000002b0: cda4 c43c a86a 04bc 9054 922b 6b2c ff1c
000002c0: b964 7cbb 5183 053a c1be 3aba 7ff3 b73a
000002d0: 577d f8bb 2ec7 6fba 514d ae3b aa69 c1ba
000002e0: 8c3a b2bc 44e0 e63b d1f5 96bc 4445 d4ba
000002f0: 1b8a 40bc 9c78 47bb 9b07 40bc fd72 56bb
00000300: 13b6 f2bc c538 ccbb d6c7 14bd 0963 67bc
00000310: 773a 8abc b35b ee3b 4373 79bb 52d3 8cbb
00000320: 6d6f e03c 558e 8a3c 7667 c93c 2481 083c
00000330: 3384 633b 97da aabb 6e15 703b cab1 9fb9
00000340: 9296 51bc 96cc c83a 4992 133c e5ee 03bc
00000350: c43e 78bc 14bf a039 dcdd 563c fd1a 8c3c
00000360: 5f6a 19bd 071a 81bd b09b 39bd f1e4 98ba
00000370: 4cb5 4dbc 4d91 3b3c 47e9 22bc 1e28 a23b
00000380: 20ee f9ba 1ab8 dcbc 999b 23bc 5f15 e1ba
00000390: 2767 f03a 2fef a63b d4f2 5fbb 3dde 81bb
000003a0: 0376 c3bc e37d 0a3c d2d5 373c 5879 1ebc
000003b0: 6af4 00bc b9b1 1d3c 20e9 d23b 4010 1d3b
000003c0: 1012 c43d 1e95 3a3d 2503 133d 56d1 4e3d
000003d0: 5a18 393d 6c23 0dbd 2c5f fa3b 1248 123b
000003e0: 1002 13bb aebf b4bc 860f 1e3b 26dd f7b9
000003f0: 94bc be3a e0f8 30b9 9c13 9aba 2cae 363a
-0.0053051407 0.0058824047 -0.005797612 0.00037677164 -0.00315787 -0.0013649071 -6e-45 9.148784e-05
0.003067687 0.01701024 0.019073453 -0.0022203955 0.0014083803 -0.002414965 2.6456897e-05 0.0018479011
-0.011430677 -0.1222747 -0.055290025 0.024078306 0.0005976993 -0.0032018414 -0.010285923 -0.009011725
0.004531212 0.013908226 0.007361395 -0.0029461116 0.0019268912 0.0038534717 -0.0021273082 -0.0016990674
0.0062175593 -0.0062146834 0.023379121 0.004147138 0.0088764895 -0.004192936 0.016634362 0.0008708934
-0.008349487 -0.0015754342 0.0018078914 -0.0006415471 -0.003159199 -0.0064191534 0.008027212 -0.005953977
0.0074884417 0.025361145 0.019165276 -0.003802669 0.0018469456 0.0003965922 3.4946617e-05 0.0026793585
-0.036371008 0.014850923 -0.019626386 -0.011919238 -0.014453328 0.0070851557 -0.00011225166 -0.0024887233
0.06300754 0.017346788 0.040285703 0.008693792 0.035703577 -0.011199693 -8.4415973e-07 0.009557583
0.009842156 0.0028001773 -0.008448631 0.014548711 -0.0034347787 -0.011750481 0.0056573004 -0.005864578
0.006640964 -0.014983289 0.009497194 0.003024641 0.001867596 -0.003726253 -0.0004881872 7.414336e-05
-0.019629184 0.00087709335 -0.00068677886 -0.013435695 -0.018530676 0.012585571 -0.004730956 -0.0006991337
0.0006713578 0.0007146794 0.00043023613 0.00045506642 -0.000281698 0.00056389073 0.0027986735 0.0016987576
0.03898911 0.034191698 0.034254298 0.005412374 0.011570901 -0.0067432164 0.0044771745 -9.238062e-08
-0.013868584 -0.037459213 -0.026014285 -0.00083428866 -0.00521193 0.0037593066 -0.006279733 -0.0034268205
-0.00907314 -0.03863726 -0.011492232 0.0041165263 0.006477677 0.007894934 -3.0492014e-08 -0.00026895563
-0.016376438 0.0061561973 -0.025172042 -0.0075935 -0.002910458 0.0071410732 -0.0065771467 0.0031609696
0.0019572908 -0.00039759532 -0.0016901355 0.0013826048 0.0022102932 0.00048913853 0.0009526046 -0.0026327264
0.01172465 0.0011212102 0.006131941 0.0039249444 0.010866849 -0.0056630676 3.861934e-05 -0.0011134736
-0.03675413 0.0015319575 -0.009292558 -0.020842785 -0.03594976 0.01241271 -0.0018291337 -0.00032459843
0.015508902 0.023077168 0.00058100844 -0.0066170353 0.0053959494 0.009683989 0.019652644 7.686627e-05
0.036721233 -0.01808251 0.029397627 0.0036987658 0.024004364 -0.008082069 1.0397395e-12 1.6885966e-21
-0.0038512184 0.0005093115 -0.00071237615 0.001403436 -0.007583301 -0.00091468066 0.0053192754 -0.0014756222
-0.021756433 0.0070457775 -0.018427761 -0.0016194959 -0.011751677 -0.003043688 -0.011720563 -0.0032722347
-0.029627835 -0.0062323534 -0.03632339 -0.014122733 -0.016873581 0.007274115 -0.0038063086 -0.0042976523
0.027396882 0.016913572 0.024585467 0.008331571 0.0034716248 -0.005214046 0.0036633867 -0.00030459306
-0.012792246 0.001531976 0.009007045 -0.008052562 -0.015151683 0.00030659942 0.013114419 0.017102713
-0.03745496 -0.063037924 -0.04531449 -0.001166491 -0.012555432 0.011448217 -0.009943313 0.00494863
-0.0019068159 -0.026943255 -0.009985828 -0.0017172507 0.0018341289 0.005094431 -0.0034171836 -0.0039632604
-0.023859983 0.008452865 0.011220412 -0.009672485 -0.007870773 0.009624892 0.006436482 0.0023965985
0.09573758 0.045552365 0.03589167 0.050492607 0.04518924 -0.03445761 0.00764074 0.002232079
-0.002243165 -0.022064056 0.002411814 -0.0004727628 0.001455205 -0.00016877381 -0.0011755112 0.00069687027

exp_avg_sq f4 [256, 8]
00000000: 8bf5 3a3a acb4 973a fd35 4b3a ee3f 0e3b
00000010: c996 eb3b 06ee 283b 1798 cb35 8e71 f43b
00000020: 39a0 733b 7549 413d 114c 2a3b 534e bc3a
00000030: cd14 9d3a 430b 9e3a 0669 9138 9d4d ff39
00000040: 7036 083d 15ef a53e 40a4 913c 2581 283c
00000050: f7e9 1c3c 06fa 3b3c f78e 4f3c 22e0 453c
00000060: 0660 b33a 7f0c f43b c5be 2d3a ab0b f839
00000070: 9f6d f439 687a fb39 82ee 3039 a086 5d3a
00000080: a19d 0f3d d7e8 583e b11c ba3b 0a0b 6f3a
00000090: bbfc d03b 2a6b be3b bb5b 2c3c efc6 9c3b
000000a0: 200b 9d3b 225c 353c 239f 9a3b a1bf 083c
000000b0: bb41 5d3c 6a84 993c d9d6 0a3c 8afc d93a
000000c0: c496 0b3b 460f f43c e7ba d13a 680e 473a
000000d0: 1633 553a 95a7 343a bb14 c738 0c61 d339
000000e0: af89 203c d89c 643d 9b3d ad3b d8d6 803b
000000f0: 0f84 7b3b 2d97 9f3b 6a0f 923a 15a1 da3a
00000100: 0c43 3b3c d126 113c c38f a73b 8636 213c
00000110: c8a3 5f3c 9216 853c 2e50 c439 39d0 f63b
00000120: 8ab2 833b 7ed9 7d3b 4f10 493b eebc f23b
00000130: e3b6 063c 7e94 323c d93e ec3b c0c9 693c
00000140: c5c7 f93a f381 513c c305 5c3a d693 df39
00000150: f119 dc39 ffe5 0f3a b76a b439 5c52 f439
00000160: 15be e439 ccb0 ea38 1461 0f3a f3f4 443b
00000170: 2b71 4d3b 5b81 953a 41fd b23a 3372 503a
00000180: 6b81 2d38 6186 2437 5fb3 4f38 aec2 9a38
00000190: ef5e 0c39 23a5 ae39 2d32 d039 ae40 153a
000001a0: d15b 413c 337f a33d 4b04 9e3b b22d 1d3b
000001b0: 4f32 883b 5c00 733b bf63 2e3b 8bad a339
000001c0: 7800 423c 3093 a83d 04e0 953b 0c30 e83a
000001d0: 82d6 173b 59b4 083b 1bbf a13a 8fa1 603a
000001e0: ddb3 b73a 87dc 1b3c a23b 9f3a 6f0c 4b3a
000001f0: f6f6 6b3a f875 913a af2d 7637 b0c9 9b39
00000200: c393 8c3c 815d fa3d 1df7 e03b e397 213b
00000210: 8f35 683b 72a4 483b 7c68 fa3a 6077 033b
00000220: fe98 4b39 2735 c237 de7f 3b39 6c8e 523a
00000230: 7755 a43a ecdb 403a de13 983a 67d0 e83a
00000240: a71b 6e3a d786 fe39 36f2 333a ddde 1b3a
00000250: 781a ab3a 8fd6 533b 7e30 a73a 24a0 8c3a
00000260: 71f3 4d3a 62ce 1d38 cf6a 493a 4861 333b
00000270: 87cb 6b3b 277e 143b bd8b 343b 7f49 393b
00000280: 207a 863c e1c1 d23c d3c8 f83a 2fd2 853b
00000290: 994e 063c dfcd 603c f261 823c 7d0a d53b
000002a0: 73f0 ec3b 3a28 803d 7f57 953b 6936 843b
000002b0: 4c63 923b 7d76 4a3b 79b5 b539 f878 a337
000002c0: cb6f 013a 563d 5337 8a87 fd39 b9a2 563a
000002d0: f12f fd3a e157 843b fd4f 0f3b 383e 223b
000002e0: ef71 cb3b 6f6c b03b c703 fa3a 715b eb3a
000002f0: ca18 963b 0117 9e3b d288 d73b 836c 923b
00000300: 5304 323c 44a9 a53d a13a 863b 0bd4 123b
00000310: 0848 2a3b 5576 023b e66b 653a e7e8 f83a
00000320: 9655 483c 7437 823d b06c 913b 43b2 ce3a
00000330: 036e f93a b3d1 1b3b dbdf a53a 6bbe e83a
00000340: f9c5 bd3b ae67 123b b7d2 0b3b aaa9 433b
00000350: 3c00 cd3b e5f5 593c 1dbe 533c a554 8d3c
00000360: dbc4 013d c6af 653e 376f 553c 41a1 bc3b
00000370: 5c93 093c 7692 513c 2c82 663c 965d ef3b
00000380: 913f 763b d851 b43c 439b 563a 69a4 833a
00000390: 6e97 063b 6a3d 223b f8e8 da3a cea3 943a
000003a0: a3be 663b 96ec 953b e667 123b bb5b 933b
000003b0: 3506 c93b acc6 043c 7bb0 fe3b e84d d93b
000003c0: 217c 7d3d 55bd a53e b0f6 633c 2c4c be3b
000003d0: 01e0 783c df28 683c f773 033c 70f6 d53b
000003e0: b484 103a cf2e 523b e6b3 5d39 ca44 7039
000003f0: 3295 e639 8a8e 103a d524 9239 9082 4839
0.00071319257 0.001157423 0.00077518803 0.0021705586 0.007189606 0.0025776639 1.5168943e-06 0.007459826
0.0037174358 0.047189195 0.002598528 0.0014366604 0.0011984349 0.00120578 6.933701e-05 0.00048695217
0.03325504 0.32408968 0.017778516 0.010284697 0.009577266 0.011473184 0.012668363 0.012077363
0.0013685233 0.0074477787 0.0006627853 0.0004731094 0.0004662098 0.0004796565 0.00016873519 0.00084505416
0.035062436 0.21182571 0.00567969 0.00091187714 0.006377784 0.005811115 0.010519917 0.004784457
0.004792586 0.011069329 0.0047186776 0.008346469 0.013504441 0.018739898 0.008474075 0.0016631049
0.002129958 0.02979244 0.0016001136 0.0007593394 0.00081329176 0.0006891427 9.492921e-05 0.00040317362
0.009798451 0.05581364 0.005286885 0.0039318614 0.0038378274 0.0048703165 0.001114351 0.0016680086
0.011429559 0.008859352 0.0051135733 0.00983966 0.013649888 0.016246114 0.00037443772 0.0075321463
0.0040190862 0.0038734372 0.0030679887 0.007407776 0.0082223145 0.010899661 0.0072096405 0.014269292
0.0019056728 0.01278733 0.00083931925 0.0004264402 0.00041980998 0.0005489289 0.00034411784 0.0004660067
0.0004362917 0.000111909205 0.0005469483 0.0030053228 0.003134797 0.0011406349 0.0013655798 0.00079515873
4.1366944e-05 9.806449e-06 4.95197e-05 7.379554e-05 0.00013386806 0.00033310903 0.00039710235 0.0005693537
0.011801676 0.07983246 0.004822289 0.0023983535 0.004156388 0.0037079072 0.0026609746 0.00031219082
0.011840932 0.08231199 0.004573824 0.0017714514 0.0023168628 0.0020859449 0.0012340279 0.0008568996
0.0014015395 0.009513027 0.0012148509 0.0007745688 0.00090013386 0.001109778 1.4673379e-05 0.00029714173
0.017160302 0.12224866 0.0068653957 0.0024657182 0.0035432314 0.0030615595 0.0019104625 0.0020060167
0.00019416583 2.3151353e-05 0.00017881344 0.0008032087 0.0012537678 0.00073569897 0.00116026 0.0017762304
0.00090831 0.0004854712 0.00068644003 0.000594599 0.0013054153 0.0032323932 0.0012755541 0.0010728878
0.0007856405 3.7623926e-05 0.0007683457 0.0027371217 0.0035979466 0.00226582 0.002754911 0.0028272567
0.016415656 0.025727214 0.0018980749 0.0040838937 0.00819745 0.0137209585 0.015915845 0.0065014944
0.007230812 0.062576726 0.0045575495 0.0040348065 0.0044674035 0.0030893378 0.00034658218 1.9487445e-05
0.0004937618 1.2590861e-05 0.00048356905 0.00081877 0.0019316656 0.0040387963 0.0021867745 0.0024756324
0.0062086503 0.00538402 0.0019074612 0.0017956329 0.004580592 0.0048245196 0.0065775895 0.004468502
0.010865289 0.080889255 0.0040963446 0.002240422 0.0025982875 0.0019906957 0.0008751735 0.0018990309
0.0122274365 0.06358233 0.0044380054 0.0015769679 0.0019029978 0.0023776114 0.0012655215 0.0017756944
0.0057914224 0.002233963 0.0021335313 0.0029855766 0.0062561315 0.013303255 0.0129237445 0.017252276
0.031681877 0.22430333 0.013027004 0.0057565277 0.00839695 0.012791267 0.014069121 0.0073048575
0.003757451 0.022011682 0.0008186588 0.0010043505 0.0020537036 0.0024755844 0.001670151 0.0011340322
0.0035208843 0.0045753224 0.002233976 0.004497019 0.006134773 0.008104008 0.007772503 0.0066316016
0.061885957 0.3237101 0.013913795 0.0058074202 0.015190125 0.014169901 0.008023254 0.006529622
0.00055129384 0.0032071357 0.0002114322 0.0002291381 0.00043980178 0.0005514404 0.00027874732 0.00019122125

exp_avg f4 [256]
00000000: 1ee5 a73b 2a05 e73c 126b 06be 0f70 843c
00000010: 3390 8ab9 13b1 e93c f7bf 003d 679a b53c
00000020: 9e3d 57bc d563 7dbc 71f7 a638 7287 5d3c
00000030: 2c5c 183b 6761 383c a154 24bd fe82 4ebd
00000040: 9d10 8bbc 6a86 91bb ecd5 6bbc 5ab1 3e3d
00000050: 73b1 553d 27de 1cbd 0ce7 483c 201d 6a3c
00000060: 8b2f e5ba 196f af3c f58f 473d ae4c 77bd
00000070: 0a05 11bd b0c9 163d 6f12 cd3c 1688 a7bc
00000080: 636d 0e3e bbfa f03c 366b 013d 1af4 e73d
00000090: 512c a9bc abc2 153d 6fbb ab3c f4f8 1abe
000000a0: f108 71bc f381 80bc 2be4 823d ef0e 153b
000000b0: 7f76 173c 3ec5 a53b b182 4abd 0186 cb3d
000000c0: 7e7d 8d3c 1321 a5ba ae25 56bc d844 2d3c
000000d0: ea9a debc b88b 4d3d 36ee 0cbd 495b 573e
000000e0: 6417 133d a83c a03b 3222 403c ac4b 8e3c
000000f0: 0d5c 7d3b 21a4 083d 8c22 c83d 4555 313c
00000100: 9636 143d 3313 523b 4545 c9bb 4872 0ebd
00000110: 519e ae3c 73f6 d73a 11d3 d7bd 7d89 74bc
00000120: 2e2d 173d 5ee9 a63c 779e 923b 99dc bcbb
00000130: 24ae 33bd 0662 07bc fed9 67bc 6893 cb3b
00000140: 01c3 93ba 1afa 2dbd 0bcb 4e3c 6563 123d
00000150: 6548 273d c131 3f3e 7d9b 0f3c 7361 4b3c
00000160: 6d60 073d f9e8 9b3c c552 0ebd 7b60 e8bd
00000170: e2a7 87bc b53f 1c3d 5250 8abe 7187 bf3a
00000180: 0c31 3c3c 4714 8abe cf5a ca3b aeeb c6bc
00000190: 7917 2bbd 12cb 6b3d ff91 0dbc cab2 3c3c
000001a0: 2f43 593b bc1a cd3e 4134 063d 9867 813c
000001b0: b08e 1c3c f4a0 75bc 107d 05bd 78fd ef3c
000001c0: ecf1 3f3d 8f65 eb3d 6738 8bbd d41d 85bc
000001d0: 6fc2 a8bd 25bc 61bd bcdf 023d 1758 703c
000001e0: 5336 2a3d 1c66 13bc b265 b7bc 4574 dbbd
000001f0: a326 1f3d 88b0 b0bb ef12 513d c34d 963c
00000200: 2c89 a53c 82bf 9cbc c280 c93a fcfb 57bd
00000210: 2d18 e5bb d323 603c 0feb ed3c 8891 cabc
00000220: f9f9 5dbd e31e c4bc f05e 853c b678 ea3c
00000230: 8f93 e4bc 13bd b43b be00 28bd 7cb0 ea3c
00000240: 3202 043d 955b 413d 76eb 8fbd cb69 483d
00000250: bad5 87bc f719 253d a22b ad3c 1bb8 873d
00000260: f15c 3dbe ec5d df3b 5093 43bc 3bd7 54bb
00000270: d158 253c fad0 fe3a e39e 373c c263 cbbc
00000280: de1e d93b f72b c93c 9be4 b4bb b71c 0c3e
00000290: bde4 2c3c ce8c 2d3a df2c c13c ae22 ae3c
000002a0: 737a 96bb e3ae 0f3d b385 ad3b 36cd aebd
000002b0: 74e2 05bd 8e94 a13c f134 35bc 62cc f5bd
000002c0: 8506 7cbc 9c7a b03c dc79 eb3c 6e3b d23c
000002d0: 9bda 2abd 2d2d d33c c4d9 433c 9791 a5bd
000002e0: 167f 8a3b 92d7 2d3d bbd2 34bd 4e4f 84bd
000002f0: 11eb 6ebd a95a 4d3c 44c5 1ebc c4a4 393a
00000300: c971 22be c5fa 82bc d640 5d3b abf5 bdbc
00000310: 3f54 823c 4226 303c 5b77 80bb 6774 08bb
00000320: e053 aabb 82e9 6dbd 8782 233d e4be 093b
00000330: 9aac 9439 e1d3 3e3d bd50 923b 1541 e43b
00000340: c9c9 6abd 6754 c6bc a5b1 b33c b596 ec3e
00000350: 1f2e 0fbc f8b6 1cbc ae18 16bc fe93 f3ba
00000360: 2e55 113e 94fa 453b be35 6abb 1bc2 37ba
00000370: b4be fabd 5af5 caba 5d06 5a3d 1afe 31bd
00000380: 90da 15bc 6e5a 043d 7a85 4ebb e788 d4bc
00000390: 87e2 aebc 5e7c b13d d49b 2bba dda5 f13b
000003a0: fe1b 813d 63d5 25bc c4f9 62bc 5603 af3c
000003b0: 39d1 813e 30f9 4abb da55 523c a690 9e3d
000003c0: 0ac6 873d 2e44 0a3d 9de1 2c3b e437 90bd
000003d0: 266b a4bb 4c9c f33c 7002 323c 3e95 533b
000003e0: 42db 9c3c 6b63 97bd cb61 0a3c 9b64 953c
000003f0: 3106 cc3c 922b ccbb 78f4 0abd e8b5 e63c
0.0051237484 0.028200705 -0.13126782 0.016166715 -0.00026428848 0.028526818 0.031433072 0.022168351
-0.013137249 -0.015465696 7.9615864e-05 0.013521062 0.0023248298 0.011253691 -0.04011977 -0.050417893
-0.016975695 -0.0044410722 -0.014394265 0.046555854 0.052171182 -0.0382978 0.012262117 0.0142891705
-0.0017485482 0.02141528 0.048721272 -0.06037586 -0.035405196 0.036813438 0.025033204 -0.020450633
0.13908915 0.029416433 0.031596385 0.113258556 -0.020651015 0.036562603 0.020963399 -0.1513403
-0.014711604 -0.015686965 0.06391176 0.0022744497 0.00924456 0.0050589135 -0.049441043 0.099376686
0.017271753 -0.0012598358 -0.013070507 0.010575496 -0.027173478 0.050182074 -0.034406863 0.21030916
0.03591098 0.0048900433 0.011726903 0.017370068 0.0038659603 0.03335965 0.09772214 0.0108235525
0.03618487 0.00320549 -0.006142291 -0.034776956 0.021315726 0.0016476646 -0.105383046 -0.014925358
0.03690832 0.02037495 0.004474457 -0.005763602 -0.043867245 -0.008263117 -0.0141510945 0.0062126406
-0.0011273326 -0.042474844 0.012621651 0.03573932 0.040840525 0.18671323 0.008765099 0.01241337
0.033050943 0.019031988 -0.034746904 -0.11346527 -0.016559545 0.038146693 -0.27014405 0.0014612508
0.011486303 -0.26968595 0.006175376 -0.024282303 -0.041770432 0.05756671 -0.008640765 0.011517236
0.0033151617 0.4005946 0.032764677 0.015796468 0.009555504 -0.0149919875 -0.032589972 0.029295668
0.046861574 0.1149398 -0.06797867 -0.016249575 -0.0824021 -0.05511107 0.03195165 0.01466944
0.041555714 -0.008996513 -0.02238736 -0.10715536 0.038855206 -0.005392138 0.051043447 0.018347627
0.02020701 -0.019134287 0.0015373456 -0.052730545 -0.0069914074 0.013680416 0.029042749 -0.024727598
-0.05419347 -0.02394051 0.016280621 0.028622013 -0.027902393 0.0055157035 -0.041016333 0.028648607
0.032228656 0.04720648 -0.070273325 0.048929017 -0.016581405 0.040307965 0.02113897 0.06626912
-0.18492486 0.0068166163 -0.0119369775 -0.003247692 0.010091976 0.0019440942 0.011207315 -0.024827842
0.006625994 0.024557097 -0.005520416 0.13682829 0.010552582 0.0006620408 0.023580967 0.021256771
-0.004592234 0.035078894 0.005295479 -0.08535235 -0.032686666 0.019724157 -0.0110599855 -0.120018736
-0.015382414 0.02154284 0.02874463 0.025663104 -0.041712385 0.025778377 0.011953775 -0.0808441
0.0042265756 0.042441912 -0.04414628 -0.06460439 -0.058329646 0.012533822 -0.0096905865 0.0007081742
-0.15863718 -0.015988717 0.003376057 -0.023188433 0.015909312 0.010751309 -0.0039204783 -0.0020821334
-0.005197987 -0.05808402 0.039919402 0.002101832 0.00028357358 0.046588782 0.004465191 0.006965766
-0.057321344 -0.024210168 0.021935293 0.4620873 -0.0087390235 -0.0095651075 -0.0091611575 -0.0018583534
0.1419265 0.003020917 -0.00357376 -0.000700982 -0.12243405 -0.0015484497 0.053228725 -0.04345522
-0.009146348 0.032312803 -0.0031512664 -0.025944186 -0.021348251 0.08666299 -0.00065463525 0.007374509
0.06304167 -0.010121676 -0.013853494 0.021363895 0.25354937 -0.0030971281 0.012837851 0.07742433
0.0662957 0.033756427 0.0026379593 -0.0704191 -0.005017656 0.029737614 0.010864839 0.0032285
0.019147519 -0.07392009 0.008446167 0.018236449 0.024905296 -0.00623078 -0.03392455 0.028162912
