results/windy/models/checkpoint_ep1000.pth (torch, 436198 bytes, 18 tensors)

fc1.weight f4 [256, 8]
0	0xbed4f257	-0.4159114
1	0xbe87701c	-0.2645272
2	0xbf902262	-1.1260493
3	0x3ef5c60d	0.48002663
4	0x3f9d48f2	1.2287886
5	0x3e14ccf8	0.14531314
6	0x3e178826	0.1479803
7	0xbf7df577	-0.99202675
8	0x3f3e20ea	0.7426897
9	0x3f1d6512	0.61482346
10	0x3eef8f74	0.46789134
11	0xbfc29411	-1.5201436
12	0x3dea4311	0.11438573
13	0xbfad4e91	-1.3539602
14	0xbf54e8f5	-0.83167964
15	0x3e7340f8	0.23755252
16	0x3d83f049	0.06442315
17	0x3d05a153	0.032624554
18	0x3f3b630b	0.73198
19	0x3f29ce5b	0.663305
20	0x3c4ceb6b	0.0125073
21	0x3f536187	0.8257069
22	0x3ebabadc	0.36470687
23	0x3f05b899	0.522348
24	0xbe178719	-0.1479763
25	0x3e8f6f1d	0.2801446
26	0x3e83e7d6	0.25762814
27	0x3e7faab4	0.24967462
28	0x3f80f2e6	1.0074127
29	0xbd06feea	-0.03295795
30	0xbe8b3992	-0.2719236
31	0x3f343437	0.70392174
32	0x3a854783	0.0010168407
33	0x3c821465	0.015878865
34	0x3f3c157c	0.7347028
35	0x40293455	2.643819
36	0xbd2fa53a	-0.04288218
37	0xbcd4e995	-0.025990287
38	0x3f3e0db2	0.7423965
39	0x3ee81e9a	0.45335847
40	0x3f0119db	0.5043008
41	0xbf2f2d3d	-0.68428403
42	0xbecf8f07	-0.4053881
43	0xbe83cf28	-0.25743985
44	0x3f726933	0.9469177
45	0xbf16859f	-0.5879764
46	0x3e2fb5cc	0.17159194
47	0xbfa3964a	-1.278024
48	0x3ec57bac	0.38570917
49	0x3e5be4d6	0.21474013
50	0xbc9d2367	-0.01918192
51	0xbf343f9b	-0.70409554
52	0x3b8f7a96	0.004378627
53	0xbf8150d5	-1.0102793
54	0xbf931a69	-1.1492435
55	0x3cecc153	0.028900778
56	0xbeb90d4a	-0.3614295
57	0xbdaf1285	-0.08548454
58	0xbebc601f	-0.36792085
59	0xbed761cb	-0.42066798
60	0xbf01937d	-0.50615674
61	0xbf3c8437	-0.73639244
62	0xbf4d9c8c	-0.80316997
63	0x3ec5a371	0.38601258
64	0xbe274a0e	-0.16336843
65	0xbf3c537a	-0.73564875
66	0x3da29514	0.07938591
67	0xbed28ed9	-0.4112461
68	0xbf498067	-0.7871155
69	0xbe8c47ca	-0.2739852
70	0xbfe4853a	-1.7853158
71	0x3f129cf3	0.57270736
72	0x3f5c7a40	0.8612404
73	0xbf0a1560	-0.53938866
74	0x3f47fa3c	0.781162
75	0xbf117323	-0.5681631
76	0xbd6adeaa	-0.057341255
77	0x3ed29c0d	0.41134682
78	0xbe93c43b	-0.2886065
79	0x3f694b43	0.91130465
80	0x3e73fa8a	0.23826042
81	0x3e53faa8	0.20701087
82	0x3e09bb1e	0.13450286
83	0xbf0facf7	-0.561233
84	0xbf6758c7	-0.9036984
85	0x3f1bdd0b	0.6088416
86	0xbd96af2e	-0.073576316
87	0x3f5d26e5	0.86387473
88	0x3ed300f2	0.4121166
89	0xbfcd088c	-1.6018233
90	0xbe912d72	-0.28354985
91	0xbf693331	-0.91093737
92	0x3e4c1f92	0.19933918
93	0x3f5d0f79	0.86351734
94	0x3e5a1091	0.21295382
95	0xbf2b217f	-0.66847986
96	0x3f7b06d1	0.98057276
97	0xbf881e28	-1.0634203
98	0x3f1a1f67	0.60204166
99	0xbf24e439	-0.6441074
100	0x3fda95f0	1.7077007
101	0x3e129f92	0.14318684
102	0xbebac68a	-0.36479598
103	0x3ec997d0	0.39373636
104	0x3edf04a6	0.43558234
105	0x3f187bd9	0.59563977
106	0xbf601341	-0.8752938
107	0x3e95537d	0.2916526
108	0xbf2dbe0e	-0.67868125
109	0xbe7a90b6	-0.24469265
110	0xbdfc1121	-0.123079546
111	0xbe10babc	-0.14133734
112	0xbe9019b0	-0.28144598
113	0x3ef2207a	0.47290403
114	0x3d47f757	0.048819866
115	0x3ed42dd3	0.4144121
116	0xbd513938	-0.05107996
117	0x3fbac7e6	1.4592254
118	0x3f02954c	0.5100906
119	0x3f642fbe	0.8913535
120	0x3eac4d0e	0.33652538
121	0xbebcac35	-0.36850134
122	0x3f9a8e7c	1.2074733
123	0xbd8cbeb2	-0.0687231
124	0x3f4abc63	0.79193705
125	0xbfcc36cb	-1.5954221
126	0xbfa717ac	-1.3054099
127	0xbf201ffd	-0.6254881
128	0xbf0869fd	-0.53286725
129	0x3ecd593e	0.4010715
130	0xbe77c24c	-0.24195212
131	0x3f87a590	1.0597401
132	0x3f3854e3	0.72004527
133	0xbe675c0f	-0.22593711
134	0x3f0befaf	0.54662603
135	0x3e81a478	0.25320792
136	0x3f04add6	0.5182775
137	0xbf61e889	-0.88245445
138	0x3f62b2a6	0.88553846
139	0xbe7ad4af	-0.24495195
140	0xbe4c207d	-0.19934268
141	0xbf285942	-0.65761197
142	0xbe8a7e63	-0.2704955
143	0x3f71caab	0.9444987
144	0xbf3e1419	-0.74249417
145	0xbf6f05ea	-0.933684
146	0xbf9bba10	-1.2166157
147	0xbce9bb57	-0.028531713
148	0x3e1a7cb5	0.15086634
149	0xbf88259e	-1.063648
150	0x3dba4b45	0.09096388
151	0x3da05a05	0.0782967
152	0x3edb6ba0	0.4285555
153	0xbffc0370	-1.9688549
154	0xbf1001fa	-0.56253016
155	0xbeb4a853	-0.3528467
156	0xbf46724e	-0.77518165
157	0x3f55b1df	0.83474535
158	0x3f1fa6dd	0.6236399
159	0x3d7a1f76	0.06106516
160	0x3f72d9ba	0.94863474
161	0xbf407104	-0.7517245
162	0xbe817e9d	-0.2529191
163	0x3e30a61d	0.17250867
164	0x3ec554e2	0.38541323
165	0x3f2c38d7	0.6727423
166	0xbcfb1bae	-0.030652847
167	0xbe5ac5e3	-0.2136455
168	0x3e140df2	0.14458445
169	0xbde5d445	-0.11222128
170	0xbe8f08cd	-0.27936402
171	0xbf0d2051	-0.55127436
172	0xbe45764a	-0.19283405
173	0x3decae8b	0.11556729
174	0xbf410eb2	-0.7541305
175	0xbf34652b	-0.7046687
176	0x3ec54db7	0.38535854
177	0xc015c3c7	-2.3400743
178	0xbf88c88e	-1.0686204
179	0x3cbdf17f	0.023186443
180	0xbefd92a4	-0.4952594
181	0xbf413461	-0.7547055
182	0x3f35e2fd	0.7104948
183	0x3f2458bc	0.641979
184	0xbf51b22d	-0.819125
185	0xbf43dd09	-0.7650915
186	0xbf7bd25f	-0.98367876
187	0x3f42aeb0	0.760478
188	0x3f566f7b	0.83763856
189	0xbef9a996	-0.48762196
190	0x3f648c5c	0.8927667
191	0x3f45bd90	0.77242374
192	0x3ddd3834	0.108017355
193	0x3e051f31	0.1300018
194	0x3e1477c2	0.14498809
195	0x3e7d8dd4	0.24761134
196	0xbf0f9977	-0.56093544
197	0xbea44170	-0.32081175
198	0x3f260cae	0.648631
199	0x3f264422	0.6494771
200	0x3dae8188	0.085208
201	0xbc506e47	-0.012721605
202	0xbe7b10e6	-0.24518165
203	0x3c87176c	0.01649066
204	0xbf27d5b0	-0.65560436
205	0x3d2c9c67	0.042141344
206	0x3f2a8d36	0.6662172
207	0x3f08f2d1	0.5349551
208	0xbf79e418	-0.9761367
209	0xbfabbaed	-1.341642
210	0x3f43d8ed	0.7650288
211	0x3f96972d	1.1764885
212	0x3f64cb27	0.89372486
213	0x3c168c2d	0.009188694
214	0x3f0cb9ea	0.5497118
215	0x3fc9cc5d	1.5765492
216	0xbe423f50	-0.18969464
217	0x3ee24a73	0.44197425
218	0xbef80f18	-0.48449016
219	0x3f97e0e1	1.1865503
220	0xbe9b7d82	-0.30369192
221	0xbe9a679b	-0.3015717
222	0x3eebe0f0	0.4607005
223	0xbecf695c	-0.4051007
224	0x3b951566	0.00454967
225	0xbd631745	-0.055442113
226	0x3f504aef	0.8136434
227	0xbf978096	-1.1836116
228	0xbdb29340	-0.08719492
229	0xbe5833a7	-0.21113454
230	0x3e62dcd6	0.22154555
231	0x3f1dc7ee	0.61633193
232	0xbec6f2a5	-0.38856998
233	0xbecc491b	-0.39899525
234	0x3ecf93b4	0.40542376
235	0xbe41a2c2	-0.18909743
236	0x3f57cca8	0.84296656
237	0x3e17af41	0.14812948
238	0x3f8859e2	1.065243
239	0xbe09b371	-0.13447358
240	0x3c77a524	0.015115056
241	0xbd63be32	-0.055601306
242	0xbfec865b	-1.8478502
243	0x3f384116	0.71974313
244	0xbf2abbd8	-0.66692877
245	0x3e84773a	0.25872213
246	0xbece0056	-0.4023463
247	0x3e456b66	0.1927925
248	0xbeabbf9b	-0.3354462
249	0x3ead78fa	0.3388136
250	0xbeee41a0	-0.46534443
251	0xbf8e282b	-1.1106008
252	0xbef107a6	-0.47076148
253	0x3f6576c6	0.8963436
254	0xbf38035e	-0.7188014
255	0xbf77426a	-0.96585715

fc1.bias f4 [256]
0	0xbead9aad	-0.3390707
1	0xbe251b27	-0.16123639
2	0x3dbc3d09	0.09191329
3	0x3d60e2aa	0.054903664
4	0xbae5a69e	-0.0017520969
5	0x3dc2536c	0.09488568
6	0x3ce143cd	0.02749815
7	0xbd55e6c3	-0.052222025
8	0x3eb9c68d	0.36284295
9	0xbcbbfc6c	-0.022947513
10	0xbda50441	-0.08057452
11	0xbde3108f	-0.11087143
12	0x3d417521	0.047230843
13	0x3d8239f4	0.0635871
14	0x3bb83a35	0.005622173
15	0xbdd3d21b	-0.10342809
16	0xba296e98	-0.0006463318
17	0xbe7ac980	-0.24490929
18	0xbe7e4fbf	-0.24835108
19	0xbe21a83a	-0.1578683
20	0x3e176f31	0.1478851
21	0x3e0bd408	0.13655102
22	0xbe47bc8e	-0.19505522
23	0xbe005c54	-0.1253522
24	0x3ca9920d	0.020699525
25	0x3d4653ca	0.04841975
26	0x3e39d5f3	0.18148021
27	0x3e97f3bf	0.2967815
28	0x3dbe7795	0.09300152
29	0x3dc2216d	0.09479032
30	0x3c5101fa	0.012756819
31	0xbdb8aedc	-0.09017727
32	0x3bb2cf6d	0.005456856
33	0x3e6cdcee	0.23131153
34	0x3dfcdb05	0.12346462
35	0xbe2bf1f1	-0.16791512
36	0x3c1aee0c	0.009456169
37	0x3e46f2e9	0.194286
38	0x3e605a82	0.21909526
39	0x3cd21624	0.025645323
40	0xbe897cf7	-0.26853153
41	0xbe5af310	-0.21381783
42	0xbda7ccbe	-0.08193348
43	0x3b9349fa	0.0044949027
44	0xbebd1290	-0.36928225
45	0xbe1ea37d	-0.15492053
46	0x3d34ed98	0.0441719
47	0x3dbb8315	0.09155861
48	0x3d536365	0.051608462
49	0x3dd68d5f	0.10476183
50	0x3aa85726	0.0012843355
51	0x3e1dd2f9	0.15412511
52	0xbd91f29f	-0.071263544
53	0xbe09a2d7	-0.13441025
54	0xbc403782	-0.011731984
55	0xbd84409b	-0.06457635
56	0xbda3d6ae	-0.07999931
57	0x3ae9dee7	0.0017842919
58	0x3c429a8f	0.01187767
59	0x3d962dec	0.07332978
60	0xbd8fd598	-0.07023162
61	0x3e08c145	0.13354976
62	0x3c98d315	0.01865534
63	0x3e9b2ced	0.30307713
64	0x3e159c77	0.14610468
65	0x3b8ef001	0.004362107
66	0xbe09c9ab	-0.13455836
67	0x3da041f4	0.078250796
68	0xbdcdc7f4	-0.10047904
69	0xbdca3c89	-0.098748274
70	0x3e858ec4	0.26085484
71	0xbd93feea	-0.072263554
72	0xbe330fbc	-0.17486471
73	0x3d4f4ab5	0.050608356
74	0x3dbb721d	0.09152625
75	0xbeb180af	-0.3466849
76	0x3e929aa0	0.28633595
77	0xbea67d85	-0.3251764
78	0x3d8ae79f	0.067824595
79	0x3d25f4b3	0.040516566
80	0x3e3ec92b	0.18631427
81	0xbcb8a572	-0.022539828
82	0xbebb7b99	-0.36617735
83	0xbdc1c8c5	-0.09462122
84	0x3d9a7d1d	0.07543395
85	0xbcbe6c05	-0.023244867
86	0x3e2de547	0.16981994
87	0xbcc7d26e	-0.024392333
88	0xbe354300	-0.1770134
89	0x3cc99b0f	0.02461007
90	0x3c9efbe2	0.019407216
91	0x3d3e6464	0.04648246
92	0xbe0b93cb	-0.13630597
93	0xbd0cced5	-0.034376938
94	0xbba30777	-0.004975255
95	0xbe1b4978	-0.15164745
96	0x3db45306	0.08804898
97	0x3e178409	0.14796461
98	0x3cf2f655	0.029658476
99	0xbc749b7a	-0.014929647
100	0xbd216050	-0.03939849
101	0x3dcd93de	0.10037969
102	0x3d822ced	0.06356225
103	0xbd7d2424	-0.061802045
104	0x3c4e7a73	0.012602436
105	0xbb9a5384	-0.004709663
106	0xbebe8cac	-0.372167
107	0xbe9ba395	-0.3039824
108	0xbdbdf618	-0.09275454
109	0x3c3e1342	0.011601271
110	0x3dcb2de8	0.09920865
111	0xbe387bbd	-0.18015952
112	0x3e22c671	0.15896012
113	0xbe912687	-0.28349707
114	0x3e82dadd	0.25557604
115	0x3d324a5f	0.043527957
116	0x3e6907df	0.22756909
117	0x3e02bfc2	0.12768462
118	0x3d1f0231	0.03882045
119	0x3eb00c2e	0.34384292
120	0xbeb28e95	-0.34874406
121	0x3e1e43fc	0.15455621
122	0xbdc42596	-0.095774814
123	0x3df22b36	0.11824648
124	0x3dbd4b36	0.09242861
125	0x3e5b24be	0.21400735
126	0xbd2a3238	-0.0415518
127	0x3db1d0c6	0.086823985
128	0x3e02500b	0.12725846
129	0xbe32a807	-0.1744691
130	0xbe611f12	-0.21984509
131	0x3d7e2219	0.062044237
132	0xbf06c8fc	-0.5265043
133	0xbe66b89c	-0.2253136
134	0xbb732411	-0.0037100355
135	0xbbe422c6	-0.006962153
136	0xbe080df8	-0.13286579
137	0xbccad688	-0.0247605
138	0x3c4a910b	0.0123636825
139	0xbe448516	-0.19191393
140	0x3e53632f	0.20643304
141	0xba9bf430	-0.0011898335
142	0x3d2711e7	0.040788557
143	0x3e2dc743	0.16970544
144	0x3e24e1e0	0.1610179
145	0xbe5be6fe	-0.21474835
146	0xbd459eea	-0.048247255
147	0x3eb41985	0.3517572
148	0x3db9bc9e	0.09069179
149	0xbb364564	-0.0027812356
150	0xbd8f9b94	-0.07012096
151	0xbe59a361	-0.2125373
152	0x3e464a11	0.19364192
153	0xbbfda578	-0.0077406727
154	0x3de92b2e	0.11385189
155	0xbe91b9c5	-0.28462043
156	0xbd2379a2	-0.03991092
157	0xbe3e3505	-0.18574913
158	0xbda3ee42	-0.080044284
159	0xbe78b535	-0.24287875
160	0xbdc37e58	-0.095455825
161	0x3e00c28e	0.12574217
162	0xbe7a986e	-0.2447221
163	0xbe82bb60	-0.2553358
164	0x3d9b45e5	0.07581691
165	0x3e46c12c	0.19409627
166	0xbd3706d0	-0.04468423
167	0xbb928d81	-0.004472435
168	0xbe7774e6	-0.24165687
169	0xbdd43076	-0.10360806
170	0xbe747ed9	-0.23876514
171	0xbe189953	-0.14902239
172	0x3ea56bc1	0.32308772
173	0xbc12aebf	-0.0089527955
174	0xbe9d4094	-0.30713332
175	0x3e90825d	0.2822446
176	0x3c8d50ae	0.017250385
177	0xbdc4c78f	-0.09608375
178	0xbe99316a	-0.29920512
179	0x3d9ec8f5	0.07753173
180	0x3c9b2bfc	0.018941872
181	0x3dfbfa3b	0.12303587
182	0x3e15316a	0.14569631
183	0x3ea8c69c	0.32964027
184	0xbce5b12c	-0.028038584
185	0x3c0f1972	0.008734094
186	0xbe3a78a7	-0.18210088
187	0xbda04d37	-0.078272276
188	0x3de58403	0.1120682
189	0x3d7e8a94	0.062143877
190	0xbd006732	-0.031348415
191	0xbc5a8d31	-0.013339327
192	0x3dbe4eb8	0.09292358
193	0xbb1d65f1	-0.002401706
194	0x3e37dc39	0.17955102
195	0x3cfa03f9	0.030519472
196	0x3dc3493d	0.095354535
197	0xbe3d93fe	-0.18513486
198	0xbeb61826	-0.355653
199	0xbe1eff2f	-0.15527032
200	0xbe8aadd4	-0.27085745
201	0xbe7d9611	-0.24764277
202	0x3d307025	0.0430757
203	0xbec153dc	-0.37759292
204	0x3d800379	0.06250662
205	0xbeaeef90	-0.34167147
206	0x3d429719	0.04750738
207	0x3ea5492c	0.32282388
208	0x3d6fb0d1	0.058518235
209	0x3d846a33	0.064655684
210	0xbe79ea2f	-0.2440574
211	0x3be917b5	0.007113422
212	0xbe19acef	-0.15007375
213	0xbd05098e	-0.032479815
214	0xbe621120	-0.22076845
215	0xbec9880a	-0.39361602
216	0xbcb63543	-0.022242194
217	0x3d2a8f60	0.04164064
218	0x3c260f89	0.01013554
219	0xbe155407	-0.14582835
220	0x3dad5658	0.084637344
221	0xbdd1727d	-0.10226915
222	0x3a135b56	0.0005621215
223	0x3daa0d11	0.083032735
224	0x3cf96b94	0.030446805
225	0x3e21134c	0.15730017
226	0x3e55ca49	0.20877947
227	0xbe3b1027	-0.1826788
228	0x3eec4448	0.46145844
229	0x3b120616	0.002228146
230	0xbbb4f3d6	-0.0055222316
231	0xbe9c229f	-0.30495164
232	0xb9a084be	-0.0003061648
233	0xbdcc1b4f	-0.09966146
234	0xbe585297	-0.21125256
235	0xbe4b1315	-0.19831498
236	0x3e927110	0.28601885
237	0xbd8de9de	-0.06929372
238	0x3dc4c95b	0.09608718
239	0x3c8c7dcc	0.017149828
240	0xbcc900fd	-0.024536604
241	0x3de3ba12	0.111194745
242	0x3e8448e6	0.25836867
243	0x3e5182f0	0.20460105
244	0xbdfab268	-0.122410595
245	0x3ac33ebc	0.0014896016
246	0x3d3cea14	0.04612167
247	0xbd03ef06	-0.032210372
248	0xbe88ed98	-0.2674377
249	0xbc4baead	-0.012431783
250	0xbec37f72	-0.3818317
251	0x3eb7bad7	0.35884735
252	0x3dad874e	0.08473073
253	0xbd229aba	-0.03969834
254	0x3b35c625	0.0027736512
255	0xbd60839e	-0.05481302

fc2.weight f4 [128, 256]
0	0xbe7e1a54	-0.24814731
1	0x3e6931b8	0.22772872
2	0xbd0f66fd	-0.035010327
3	0x3d5ae3af	0.053439792
4	0xbea2d8a4	-0.3180591
5	0x3db4a768	0.08820993
6	0x3cb0ffe4	0.021606393
7	0xbf831804	-1.0241704
8	0x3d7b041a	0.06128321
9	0x3cbe912b	0.02326258
10	0xbde67ad5	-0.11253897
11	0x3eee2e79	0.4651983
12	0x3e926dc9	0.28599384
13	0x3ebbfdab	0.3671697
14	0x3df9e48c	0.12201795
15	0x3d515455	0.051105816
16	0xbe09355a	-0.13399258
17	0xbd5f5d1b	-0.05453215
18	0x3e7e039a	0.24806061
19	0x3e8acb94	0.27108443
20	0x3e72208c	0.23645228
21	0xbe0f48c5	-0.13992603
22	0x3de57596	0.11204068
23	0x3b43ce95	0.002987777
24	0x3d092981	0.033486847
25	0x3d9a0360	0.07520175
26	0x3d3720e6	0.04470911
27	0xbe95e656	-0.29277295
28	0x3cc1bb41	0.02364886
29	0x3e5edb96	0.21763453
30	0x3fa0291d	1.2512547
31	0xbef6efc4	-0.48229802
32	0x3e10f6b8	0.14156616
33	0x3e8544a5	0.26028934
34	0x3ebc6b66	0.36800689
35	0x3d9f0b41	0.077658184
36	0xbd9c82a5	-0.07642106
37	0x3d713f0b	0.058898013
38	0x3d75aca2	0.05997909
39	0xbdcf1389	-0.10111148
40	0xbe1f73ea	-0.15571561
41	0x3ec75856	0.38934582
42	0x3e9c1823	0.30487165
43	0xbcae2f90	-0.021262914
44	0x3d98a97c	0.074542016
45	0x3dfbc7d8	0.122939765
46	0x3e034993	0.12821035
47	0x3da5ec70	0.081017375
48	0x3d901a44	0.0703626
49	0xbfcb17df	-1.586666
50	0x3e265d24	0.16246468
51	0xbeeff644	-0.46867573
52	0x3d0202e1	0.031741027
53	0xbf7bead9	-0.98405224
54	0xbed88f1e	-0.4229669
55	0xbf933f97	-1.1503781
56	0x3da39618	0.079876125
57	0x3dbd5a46	0.09245734
58	0xbe2693d7	-0.16267334
59	0xbf06274e	-0.52403724
60	0x3e6e6195	0.23279412
61	0x3f020581	0.5078965
62	0x3c806ddf	0.01567739
63	0xbe314151	-0.17310072
64	0x3ead8bd0	0.3389573
65	0x3cfa0eae	0.030524578
66	0x3e1cc39d	0.15308996
67	0x3d2b3dda	0.041807033
68	0xbde336a1	-0.11094404
69	0x3e0e0ada	0.13871327
70	0xbe7baadd	-0.24576898
71	0x3d424f73	0.04743905
72	0x3ce3478a	0.027744073
73	0x3d1e68c9	0.03867415
74	0x3dd54478	0.1041345
75	0x3e86d807	0.2633669
76	0x3eed869d	0.46391764
77	0x3e63bea2	0.2224069
78	0x3ec8d4f8	0.39224982
79	0x3e8df35e	0.27724737
80	0x3f514579	0.8174663
81	0xbe74735a	-0.23872128
82	0xbd2b721f	-0.04185688
83	0xbea160fa	-0.315193
84	0x3e36b052	0.17840698
85	0x3ddd86c2	0.10816719
86	0x3e29445e	0.16529986
87	0x3d2af428	0.04173675
88	0x3e29155b	0.16512053
89	0xbeecbf31	-0.46239617
90	0x3d3f91cb	0.0467699
91	0x3e357811	0.17721583
92	0x3e5086a0	0.20363855
93	0x3e246fa1	0.16058208
94	0xbe1805ee	-0.14846012
95	0xbdacf428	-0.084450066
96	0x3e455d39	0.19273843
97	0xbfa7a861	-1.309826
98	0x3d99794b	0.07493838
99	0x3cff2d22	0.03114945
100	0x3e6c8bc5	0.23100193
101	0x3e550f0e	0.20806524
102	0xbcef2a9c	-0.029195122
103	0xbb5d1c4a	-0.0033738785
104	0x3ea3be5a	0.31981164
105	0x3eaecbea	0.3413995
106	0xbe1634db	-0.146686
107	0x3e3fe25f	0.18738697
108	0x3d64de0e	0.05587583
109	0x3e46e05b	0.19421522
110	0xbe57ecad	-0.21086378
111	0x3e06c697	0.13161694
112	0xbe97896e	-0.29597038
113	0xbf3fceaa	-0.7492472
114	0x3cf8b3cd	0.030359173
115	0xbd18afb8	-0.037276953
116	0xbec16bd4	-0.3777758
117	0xbde15490	-0.11002457
118	0xbe072797	-0.13198696
119	0xbe714e40	-0.23565006
120	0xbef6286c	-0.48077714
121	0xbc30d528	-0.010793008
122	0x3ebb9756	0.36638898
123	0xbe55566c	-0.20833749
124	0x3dd0c14a	0.10193117
125	0xbe33bd18	-0.17552602
126	0xbe8e4907	-0.2779009
127	0x3e6f0ef6	0.23345551
128	0x3e35841c	0.17726177
129	0xbe193701	-0.14962389
130	0x3dec799a	0.11546631
131	0x3e6b3ecf	0.22973178
132	0xbea99f71	-0.33129457
133	0x3dd9aff1	0.10629261
134	0xbd60219b	-0.05471955
135	0x3ca74626	0.020419192
136	0x3f410cb3	0.7541
137	0x3e09a845	0.13443096
138	0x3e59ea8d	0.2128088
139	0x3e8f8b4d	0.28035966
140	0x3e208df2	0.15679148
141	0xbf031185	-0.5119861
142	0xbe42071f	-0.18948029
143	0x3e675c28	0.22593749
144	0xbeb4196f	-0.35175654
145	0x3cabf199	0.020989226
146	0xbe580284	-0.2109471
147	0x3df60b66	0.12013893
148	0xbf9b538b	-1.213487
149	0x3e63b7b2	0.22238043
150	0x3e3e5994	0.18588859
151	0xbe30b616	-0.1725696
152	0xbf5a20bd	-0.85206205
153	0xbe095308	-0.1341058
154	0xbd096040	-0.033539057
155	0x3e739275	0.23786338
156	0xbd24e134	-0.040253833
157	0x3ddf5c2a	0.10906251
158	0xbd62bed3	-0.055357765
159	0x3e266202	0.16248325
160	0x3de0f3ed	0.10984025
161	0x3d439781	0.047751907
162	0x3d086d31	0.033307258
163	0xbdece0bb	-0.115663014
164	0xbdcd0b6c	-0.10011944
165	0xbf31d820	-0.69470406
166	0x3dba0cea	0.090844944
167	0xbedeb4a8	-0.43497205
168	0xbfa0d12d	-1.2563835
169	0x3de30b46	0.110861346
170	0x3c1dccb1	0.009631322
171	0x3e8db4ba	0.27676946
172	0x3f365b2c	0.7123287
173	0xbe65e357	-0.22450005
174	0x3e8025cf	0.25028846
175	0xbea8f9c5	-0.3300306
176	0x3dc37c2c	0.09545168
177	0x3d91c1d3	0.07117047
178	0x3e1b78ed	0.15182848
179	0x3eb696f2	0.35662037
180	0xbe1eee8b	-0.15520684
181	0x3d58631f	0.052828904
182	0x3e5ed70f	0.21761726
183	0x3e642dbc	0.22283071
184	0xbf10f0fe	-0.56617725
185	0x3d403e2c	0.04693429
186	0x3da69161	0.081331976
187	0xbe8c34db	-0.27384076
188	0xbe7b959d	-0.24568792
189	0xbddc78c4	-0.10765222
190	0x3af9d997	0.0019062039
191	0x3de125a5	0.10993508
192	0x3d8d22bb	0.0689139
193	0x3e7af59b	0.24507754
194	0xbe5d94b0	-0.21638751
195	0xbe3e9192	-0.18610218
196	0xbe27f992	-0.16403797
197	0xbd144376	-0.03619715
198	0x3e5d326d	0.21601267
199	0x3e473e67	0.19457398
200	0x3d5fa1ae	0.05459755
201	0xbf13ac74	-0.5768502
202	0x3e8284e9	0.25492027
203	0x3e3bed79	0.18352307
204	0xbcd2327b	-0.025658837
205	0x3e345d4d	0.17613716
206	0xbd3e6d84	-0.04649116
207	0x3de6c208	0.11267477
208	0xbf615fda	-0.8803688
209	0xbece2e35	-0.40269628
210	0x3e2db758	0.16964471
211	0x3e17cc6f	0.14824079
212	0x3e1ebd45	0.15501888
213	0xbeb1e55d	-0.34745303
214	0x3e81061b	0.2519997
215	0x3e74825f	0.23877858
216	0x3da77580	0.08176708
217	0x3e04f2b2	0.12983206
218	0xbebc9351	-0.36831143
219	0x3e923d8f	0.2856259
220	0x3ca7dcfe	0.02049112
221	0x3e14e61f	0.14540909
222	0x3e935559	0.28776053
223	0xbe88d2d7	-0.26723358
224	0xbe09057e	-0.13381001
225	0x3d959272	0.07303323
226	0xbe181ed7	-0.14855514
227	0xbd422ab4	-0.047404006
228	0x3dcbdd62	0.09954335
229	0x3f046b07	0.5172581
230	0xbe3834e5	-0.17988928
231	0x3e1726a5	0.14760835
232	0x3e0a585d	0.1351027
233	0x3db7b35b	0.08969756
234	0x3d6564dd	0.056004394
235	0xbe97e614	-0.29667723
236	0x3dd6158e	0.1045333
237	0x3ddba1c5	0.107242145
238	0xbf2054fb	-0.6262967
239	0xbe2a3669	-0.16622318
240	0xbe01be64	-0.12670285
241	0xbe4f1204	-0.20221716
242	0x3eb8db07	0.36104605
243	0xbf05ca3a	-0.522617
244	0xbe32a842	-0.17446998
245	0xbe904623	-0.2817851
246	0xbc06766c	-0.008206945
247	0xbce41179	-0.027840363
248	0xbe83375e	-0.2562818
249	0x3f17e545	0.5933421
250	0x3d39e083	0.045380127
251	0xbc848e44	-0.016181119
252	0xbe7bd5ad	-0.2459323
253	0xbe22ff80	-0.15917778
254	0x3e2078bb	0.15671055
255	0x3d97ea9e	0.074177966

fc2.bias f4 [128]
0	0x3e32f771	0.17477204
1	0xbdc8d7eb	-0.09806808
2	0xbcaff3c6	-0.021478545
3	0x3e67e6c1	0.2264662
4	0xbd301024	-0.042984143
5	0x3cab888b	0.020939132
6	0x3ddbe6c5	0.10737375
7	0x3ca55735	0.020183185
8	0x3cde3ca1	0.02712852
9	0xbe45a8e8	-0.19302714
10	0x3d42fa70	0.047602117
11	0x3e1d755d	0.15376802
12	0x3e78a6e3	0.24282412
13	0x3e81c552	0.25345856
14	0xbe24405b	-0.16040175
15	0x3e59199a	0.21201172
16	0xbdb10733	-0.08643951
17	0xbc821816	-0.015880626
18	0x3d844074	0.06457606
19	0xbe1a7f0f	-0.15087532
20	0x3e56e0a4	0.20984131
21	0xbe80c314	-0.25148833
22	0xbe02bdf2	-0.12767771
23	0x3da8c72a	0.082411125
24	0xbe04376a	-0.12911764
25	0xbe32a422	-0.17445424
26	0xbea3121c	-0.31849754
27	0x3e02a47e	0.12758061
28	0xbad70507	-0.0016404697
29	0x3dc0be83	0.09411337
30	0x3ee61916	0.44941014
31	0xbeee4d5e	-0.465434
32	0x3dd9b511	0.10630239
33	0x3deef33f	0.11667489
34	0x3e15f4a1	0.146441
35	0xbc8424cc	-0.016130827
36	0x3dff9463	0.124794744
37	0xbe6cc127	-0.23120557
38	0x3e39c92f	0.18143152
39	0x3d8a62d2	0.0675713
40	0x3e0c7d36	0.13719639
41	0x3da5817e	0.08081339
42	0xbd6cd4bb	-0.057820063
43	0x3e3e7def	0.18602727
44	0x3c627eec	0.013824206
45	0x3e3b2cd0	0.18278813
46	0xbe779bdd	-0.24180551
47	0xbdeebad4	-0.116567284
48	0x3d827cb9	0.06371445
49	0xbe8cbb91	-0.27486852
50	0x3df42180	0.11920452
51	0x3dd9f21c	0.10641882
52	0xbd84d639	-0.06486172
53	0x3e33b6ee	0.17550251
54	0xbd32863f	-0.04358506
55	0x3e578b74	0.21049291
56	0xbd6d6132	-0.05795402
57	0x3df251bc	0.11831996
58	0x3dece049	0.115662165
59	0x3e8a9996	0.27070302
60	0xbda6f6b4	-0.08152524
61	0xbe831673	-0.25603065
62	0x3e239a28	0.15976775
63	0xbd98ff07	-0.074705176
64	0x3c82c616	0.015963595
65	0x3dbba50d	0.0916234
66	0xbc7aa87f	-0.015298962
67	0x3c360540	0.01110965
68	0x3e3d1571	0.1846521
69	0x3cbe900d	0.023262048
70	0x3dcd6da9	0.10030682
71	0x3dd0b8ff	0.10191535
72	0x3e5fde42	0.21862128
73	0xbe84e8bd	-0.25958815
74	0xbe187ea8	-0.14892066
75	0x3ca9263f	0.02064812
76	0xbd68d91e	-0.056847684
77	0x3e374748	0.17898285
78	0x3e164159	0.14673366
79	0x3da529d3	0.08064618
80	0xbd9fca51	-0.07802261
81	0x3e0b4987	0.13602267
82	0x3e7049cb	0.2346565
83	0x3d9c58b0	0.07634103
84	0xbb9f418c	-0.0048601087
85	0x3d350844	0.044197336
86	0x3c94f63a	0.018183816
87	0x3e208eea	0.15679517
88	0xbe47058e	-0.19435713
89	0xbc019de6	-0.007911181
90	0x3cb264d8	0.021776602
91	0x3caf5381	0.021402122
92	0xbc81240f	-0.015764264
93	0xbcb33552	-0.021876011
94	0x3d876a35	0.06612054
95	0xbd424c25	-0.0474359
96	0xbc1e1e21	-0.009650738
97	0x3d80dbf8	0.06291956
98	0x3d0fa94d	0.035073567
99	0x3e0335bb	0.12813465
100	0x3e0debb4	0.13859445
101	0xbec0697f	-0.37580487
102	0x3e2586d4	0.16164714
103	0xbea6c90a	-0.32575256
104	0xbca0be6c	-0.01962205
105	0x3e2e0718	0.16994894
106	0xbdde4e4d	-0.108547784
107	0x3ea76157	0.32691452
108	0x3e5ed563	0.21761088
109	0x3e1b14b5	0.15144618
110	0xbc08fb0f	-0.008360638
111	0xbddc2967	-0.10750084
112	0xbda444b1	-0.08020914
113	0x3e2cfccf	0.16893314
114	0x3e49b24a	0.19696918
115	0xbe0a364d	-0.13497277
116	0x3dc67927	0.09691077
117	0xbe6b8738	-0.230008
118	0xbc29a537	-0.010354332
119	0xbe3cdb7a	-0.18443099
120	0xbe67fe4d	-0.22655602
121	0x3e000c10	0.12504601
122	0x3e3964c3	0.18104844
123	0xbcbf393e	-0.023342725
124	0xbc6fef63	-0.014644477
125	0xbd45d4e0	-0.048298717
126	0xbd06f796	-0.03295096
127	0xbebcbcc6	-0.36862773

fc3.weight f4 [4, 128]
0	0x3ea8e2ed	0.3298563
1	0xbeb0990a	-0.3449176
2	0xbdff1b5c	-0.1245639
3	0x3f0c034c	0.5469253
4	0xbf0627af	-0.524043
5	0xbe40acdd	-0.18815942
6	0x3f236256	0.63821924
7	0x3f1271e1	0.57205015
8	0xbe6cfd11	-0.23143412
9	0xbf220f41	-0.63304526
10	0x3f927b72	1.1443923
11	0xbebeb9a0	-0.37250996
12	0xbf30cf44	-0.6906626
13	0x3f9911b4	1.1958528
14	0xbd9eb857	-0.07750004
15	0x3efdb247	0.49550077
16	0x3e9beda2	0.30454737
17	0xbe6e67da	-0.23281804
18	0x3e9161b4	0.28394854
19	0x3f571130	0.840106
20	0x3f10b76f	0.565299
21	0xbf725765	-0.94664603
22	0xbea6af77	-0.32555744
23	0x3e95903d	0.29211608
24	0xbef0086a	-0.4688142
25	0xbe82a5e4	-0.2551719
26	0x3d731eaa	0.059355415
27	0xbeb43849	-0.35199192
28	0x3dff62ad	0.12469993
29	0xbe893f80	-0.2680626
30	0xbf2df3fb	-0.6795041
31	0xbf3b6542	-0.7320138
32	0x3f049bcd	0.51800233
33	0xbed5658f	-0.41679046
34	0x3e4d5b2c	0.2005431
35	0xbeb6f0cb	-0.35730585
36	0x3ef5997e	0.47968668
37	0xbf43a5e0	-0.7642498
38	0x3e3bc1e6	0.18335685
39	0xbe8a7533	-0.2704254
40	0x3ee70701	0.4512253
41	0x3f3fc1af	0.7490491
42	0x3f4371f9	0.76345783
43	0x3f1f30d7	0.621839
44	0x3e08872a	0.13332811
45	0xbed4ddbc	-0.4157542
46	0xbe03b4ee	-0.12861988
47	0x3f05a65c	0.5220697
48	0xbeee22f4	-0.46511042
49	0xbf1c2116	-0.60987985
50	0xbea48322	-0.32131296
51	0x3f33fde9	0.7030931
52	0xbe733b5b	-0.23753111
53	0xbc68a451	-0.014199332
54	0xbee16996	-0.44025868
55	0x3f0ecf97	0.55785507
56	0xbec5bd29	-0.3862088
57	0xbeca4d6a	-0.39512187
58	0xbe3a752f	-0.18208764
59	0xbf061da1	-0.5238896
60	0x3e4ec88b	0.20193689
61	0xbf05beee	-0.5224446
62	0x3f14def5	0.58152705
63	0x3eb72698	0.35771632
64	0xbe0c3856	-0.13693365
65	0x3f5ea606	0.8697208
66	0x3f083200	0.53201294
67	0xbe9cab64	-0.3059951
68	0x3ee5d208	0.44886804
69	0xbf820b95	-1.0159785
70	0x3ed4ab32	0.41536862
71	0xbf0b596d	-0.5443333
72	0xbebe6f1e	-0.3719415
73	0xbf490636	-0.785251
74	0x3f42a6f8	0.76036024
75	0x3f5ed511	0.87043864
76	0xbea4d790	-0.3219571
77	0xbf080147	-0.5312695
78	0x3e8a43c3	0.27004823
79	0x3f370490	0.71491337
80	0xbe80d874	-0.2516514
81	0x3eb3bf2d	0.35106793
82	0x3dfe00af	0.12402474
83	0xbeac41d5	-0.33643976
84	0xbe99144b	-0.29898295
85	0x3ede2e76	0.43394822
86	0x3f10768a	0.56430876
87	0x3efa3b48	0.48873353
88	0xbf74dc12	-0.956483
89	0xbe3cb558	-0.18428552
90	0xbf2afbbf	-0.66790384
91	0x3f0d5ac2	0.5521661
92	0xbbb348e7	-0.005471337
93	0xbeeede26	-0.4665386
94	0x3f5a38da	0.85243
95	0xbda1b10c	-0.07895097
96	0xbe490337	-0.19630133
97	0x3f0fe13b	0.5620305
98	0xbf3ab0bc	-0.72925925
99	0x3ed09626	0.40739554
100	0x3f144aec	0.5792682
101	0xbf3dc5ed	-0.74130136
102	0x3eaa5bae	0.3327307
103	0xbf32a9bc	-0.69790244
104	0xbd640e6e	-0.055677824
105	0xbf1392a4	-0.5764563
106	0x3f653895	0.8953946
107	0xbee25965	-0.44208828
108	0x3f2dee94	0.67942166
109	0x3eb1f7eb	0.3475946
110	0xbe66a822	-0.22525075
111	0x3e514e49	0.2044002
112	0xbec09bc8	-0.37618852
113	0x3ed9ae5a	0.42515832
114	0x3f04d4bf	0.51887125
115	0x3f74f6e5	0.9568923
116	0x3ec55a8f	0.38545653
117	0xbee5acf1	-0.44858506
118	0x3f479e7b	0.77976197
119	0xbf21ef2b	-0.63255566
120	0xbc9c4ff9	-0.019081103
121	0x3e670b08	0.22562802
122	0x3e34b194	0.17645866
123	0xbed2dcfe	-0.4118423
124	0x3ec9f025	0.39441028
125	0x3f40593c	0.7513616
126	0xbf014864	-0.50501084
127	0xbeb7c8d6	-0.35895413
128	0x3e7a59ea	0.24448362
129	0xbe989bf4	-0.29806483
130	0xbe507aa8	-0.2035929
131	0x3f1fe707	0.62461895
132	0xbe771546	-0.24129209
133	0xbe9d9c38	-0.30783248
134	0x3f26b99a	0.65126956
135	0x3f2257a9	0.6341501
136	0xbebb84da	-0.36624795
137	0xbf71612d	-0.94288903
138	0x3f76d78e	0.9642266
139	0x3d1d33e5	0.03837957
140	0xbf1fa12e	-0.62355316
141	0x3f58f574	0.8474953
142	0xbe8e6c0b	-0.27816805
143	0x3ece266e	0.40263695
144	0x3f1597be	0.58434665
145	0x3ea022db	0.31276593
146	0x3eeda24a	0.4641288
147	0x3f53d218	0.8274245
148	0x3ed3b134	0.41346133
149	0xbf559182	-0.8342515
150	0xbebc98e3	-0.36835393
151	0x3ed8f9a8	0.42377973
152	0xbea9dfcd	-0.3317856
153	0xbec8ba2a	-0.39204532
154	0xbedb0cae	-0.4278311
155	0x3d04657b	0.03232334
156	0xbda00ad1	-0.07814563
157	0xbef23add	-0.47310534
158	0xbf259ea9	-0.6469522
159	0x3dcfd0bc	0.10147235
160	0x3f318963	0.6935026
161	0xbea418ed	-0.32050267
162	0x3ea002e9	0.3125222
163	0xbec983a6	-0.39358252
164	0x3dfbb9f6	0.122913286
165	0xbf4cea40	-0.8004494
166	0x3daeede4	0.08541468
167	0xbe4c9221	-0.19977619
168	0x3ee2dd67	0.44309542
169	0x3d87db65	0.06633643
170	0x3f275076	0.6535715
171	0x3ed425d8	0.41435122
172	0x3e537327	0.20649396
173	0xbf0db281	-0.553505
174	0x3e53d2b7	0.2068585
175	0x3f52adb8	0.82296324
176	0xbf3ac4a0	-0.72956276
177	0x3f4197b9	0.75622135
178	0xbedc6bfc	-0.43051136
179	0x3f4321b7	0.7622332
180	0xbe876555	-0.26444498
181	0xbe260a7e	-0.1621494
182	0xbf260f91	-0.648675
183	0x3e073da4	0.13207108
184	0xbef579ce	-0.47944492
185	0xbedd51d1	-0.43226483
186	0x3e2ec545	0.1706744
187	0xbf035e4b	-0.51315755
188	0x3e39be44	0.18138987
189	0xbed9b939	-0.42524126
190	0x3edfdaac	0.4372152
191	0xbdb02b77	-0.0860204
192	0x3f1e7dd6	0.6191076
193	0x3ed81fbd	0.42211714
194	0x3f270e60	0.6525631
195	0xbefd4954	-0.49470007
196	0x3f18b202	0.5964662
197	0xbf41ef2a	-0.7575556
198	0x3f0b8266	0.5449585
199	0xbeaaf144	-0.33387196
200	0xbef430e3	-0.47693548
201	0xbeaf4fa0	-0.34240437
202	0xbf3d2f6b	-0.7390048
203	0x3f6b9edf	0.92039293
204	0xbf08db6f	-0.5345983
205	0xbedc67f8	-0.43048072
206	0xbd5259fb	-0.051355343
207	0x3f0290fc	0.5100248
208	0xbe9bc6b1	-0.30425027
209	0x3f0e3a2c	0.55557513
210	0x3e701358	0.23444879
211	0xbf1f3070	-0.62183285
212	0xbddfc8ff	-0.10927009
213	0x3f315f4d	0.6928604
214	0x3f54a0a5	0.83057624
215	0x3ea6d59e	0.32584852
216	0xbf46e4da	-0.7769295
217	0xbed5a614	-0.4172827
218	0xbf065aa9	-0.52482086
219	0x3f17fe5c	0.59372497
220	0xbd642b15	-0.05570515
221	0xbee6dfa5	-0.45092502
222	0x3f7300e4	0.94923234
223	0xbe8afd99	-0.27146605
224	0x3e2a0b7c	0.16605943
225	0x3e9970cc	0.2996887
226	0xbf18f8b8	-0.59754515
227	0x3ed189fc	0.40925586
228	0x3dd481f4	0.10376349
229	0xbf2ffea9	-0.68747956
230	0x3f1f6786	0.6226734
231	0xbf743039	-0.9538608
232	0x3b6ff78a	0.003661605
233	0xbf555391	-0.8333064
234	0x3c94ea80	0.018178225
235	0xbf0f71a4	-0.56032777
236	0x3f1a2d20	0.60225105
237	0x3f999bb6	1.2000644
238	0xbece81b6	-0.40333337
239	0x3dadc0cb	0.08484038
240	0xbec42da9	-0.38316086
241	0x3ef81f67	0.48461458
242	0x3f47d4a7	0.78058857
243	0x3f7db26c	0.99100375
244	0x3d064cf9	0.03278825
245	0xbebc943d	-0.36831847
246	0x3f3e92d5	0.744428
247	0xbe9d9b04	-0.3078233
248	0x3e920ba4	0.28524506
249	0xbd910333	-0.07080688
250	0x3e9796b6	0.2960717
251	0xbe26ff26	-0.16308269
252	0x3ebffa55	0.37495676
253	0x3f461e16	0.7738966
254	0xbf04d6df	-0.5189037
255	0xbf13a84d	-0.5767868

fc3.bias f4 [4]
0	0x3de57c10	0.11205304
1	0x3d3de5ef	0.04636186
2	0x3deb85e2	0.115001455
3	0xbd262d7d	-0.040570725

exp_avg f4 [256, 8]
0	0x3a986343	0.0011626262
1	0xbca11251	-0.019662054
2	0x3b61a7ae	0.003443222
3	0xbbbb0a6d	-0.00570803
4	0x3b8ef7da	0.0043630423
5	0xbacd7bcb	-0.0015677152
6	0xbb30bdc4	-0.0026968578
7	0x00000004	6e-45
8	0xbc8d1af4	-0.017224766
9	0xbc3f7dfb	-0.011687751
10	0xbc31adbf	-0.010844647
11	0x3ba74a1c	0.00510527
12	0xbc2e776d	-0.0106485905
13	0xbbc6f283	-0.00607139
14	0xbab2154f	-0.0013586673
15	0x3c376674	0.01119386
16	0xbc810d6b	-0.015753468
17	0x3d75b4fe	0.05998706
18	0x3d282c13	0.041057657
19	0xbc3c419f	-0.011490255
20	0xbb741378	-0.003724305
21	0x3ba187eb	0.0049295328
22	0x3cc52124	0.024063654
23	0xbc706ccc	-0.014674377
24	0xbb1b792d	-0.002372335
25	0xbc84d852	-0.01621643
26	0x3be1da71	0.0068924953
27	0xb70691d1	-8.020973e-06
28	0xbb08d3da	-0.0020878226
29	0x3ae7e52b	0.0017692199
30	0xba3df146	-0.00072457304
31	0xbb9be948	-0.004758034
32	0x3c8f3c1b	0.017484715
33	0x3cdd96d9	0.027049469
34	0xbc175325	-0.009236132
35	0x3bab1392	0.005220839
36	0x3c63eb8f	0.013911142
37	0xbaa82d1c	-0.0012830826
38	0xbc2755bf	-0.010213315
39	0x3a8c684c	0.0010712235
40	0xbc528e41	-0.012851299
41	0xbc9660f3	-0.018356776
42	0x3b7d1fdd	0.0038623728
43	0x3c66c4d8	0.014085017
44	0xbc1700a4	-0.009216461
45	0x3bf278d0	0.007399656
46	0xbc669194	-0.0140727945
47	0x80000004	-6e-45
48	0xbc1ed3a0	-0.00969401
49	0xbc077be8	-0.008269288
50	0xbc29e613	-0.010369795
51	0x3b5c754a	0.0033639246
52	0xbc2c755a	-0.010526026
53	0xbbc9053f	-0.0061346586
54	0x8de231b4	-1.3940291e-30
55	0x3c49e78f	0.012323274
56	0x3b6bb029	0.0035963154
57	0xbc097bf4	-0.008391369
58	0xb98d5647	-0.00026957897
59	0xbb1abc6a	-0.0023610839
60	0x3bf1c0f4	0.007377738
61	0x39ed6821	0.00045281745
62	0x3b09f87b	0.0021052647
63	0x3b1353e0	0.0022480413
64	0xbb5322bc	-0.0032216748
65	0x3d89380e	0.06700145
66	0xbacd7224	-0.0015674275
67	0xbd25fd7b	-0.04052494
68	0xbcb03701	-0.021510603
69	0xbb730542	-0.0037081991
70	0x00000004	6e-45
71	0x3ce380d4	0.027771391
72	0xbc0a6503	-0.008446935
73	0xba3ae7ae	-0.000712986
74	0x3c968d1b	0.018377831
75	0xbb80f59e	-0.00393553
76	0xbbdb8770	-0.006699495
77	0x3a8c37af	0.0010697747
78	0x3b29695f	0.002585016
79	0xbc693c6a	-0.014235595
80	0xbc352f28	-0.011058606
81	0xbae225c2	-0.0017253684
82	0x3b093135	0.002093387
83	0xbb29d0eb	-0.0025911878
84	0xbbae45fd	-0.005318402
85	0x39d6db90	0.00040980848
86	0x3a43dd5e	0.0007471646
87	0xbadfa4f9	-0.0017062715
88	0x3afe9b19	0.0019424885
89	0x3a795151	0.0009510713
90	0x3a1cf5d8	0.00059875613
91	0xba711909	-0.0009197151
92	0x3b0344f3	0.002003011
93	0xb8e42fc8	-0.00010880787
94	0xbc0861bf	-0.008324086
95	0x391a26d9	0.00014701056
96	0x3bbcf3ed	0.005766383
97	0xbc967775	-0.018367508
98	0xbc1bf70f	-0.009519353
99	0x3c109394	0.008824248
100	0xbb53faed	-0.0032345608
101	0x3be24f92	0.006906458
102	0x3cc921f6	0.024552327
103	0x3cdcd822	0.026958529
104	0xbc5d890c	-0.013521444
105	0xbbba23c4	-0.005680533
106	0xbd0ae079	-0.03390548
107	0x3c37e491	0.011223928
108	0xbc161c79	-0.009162062
109	0xbc05302d	-0.008129162
110	0x3c03aead	0.008037251
111	0x3c57c928	0.013170518
112	0xbbcc6db8	-0.0062386654
113	0xbab27541	-0.0013615267
114	0x3c5b40fb	0.013382192
115	0xbb33230e	-0.0027334127
116	0xb8db8135	-0.000104668004
117	0x3a542c2f	0.0008093742
118	0x3b55f876	0.0032649315
119	0xbb29893b	-0.002586915
120	0x3be5d449	0.0070138318
121	0x387ace09	5.979653e-05
122	0xbb4c28ae	-0.0031152177
123	0xbab27fb8	-0.0013618385
124	0x3b93a2ff	0.0045055146
125	0xbbc8f529	-0.006132741
126	0x00000004	6e-45
127	0x3b82fb02	0.0039972076
128	0x3a2c5fa9	0.0006575534
129	0xbbc39559	-0.0059687314
130	0x3d225bc9	0.039638314
131	0xbc0fde20	-0.008780986
132	0xbb61d55e	-0.0034459452
133	0x3c28ad2a	0.010295192
134	0x3c3e461a	0.011613393
135	0xbcdb107a	-0.026741255
136	0xbb66ac55	-0.0035197933
137	0xbb3adcc1	-0.0028512927
138	0xba12ffef	-0.0005607595
139	0x3891f1da	6.959187e-05
140	0xbb18fc1c	-0.0023343628
141	0xb99d89b5	-0.00030047973
142	0x3b3afaaa	0.0028530755
143	0x3bc5eb61	0.0060400222
144	0x3bf186fd	0.007370828
145	0x3c4534a3	0.012036475
146	0xbc96334c	-0.018335007
147	0xbbb4e5e0	-0.0055205673
148	0xbc3e99e4	-0.01163337
149	0xbbdfd6df	-0.0068310346
150	0x3cca7c69	0.024717527
151	0x3d5bf8cf	0.05370408
152	0xbc8b0571	-0.016970368
153	0xb8225bc5	-3.8709277e-05
154	0x3cc4094f	0.02393022
155	0xbb580db7	-0.003296716
156	0xbc92834e	-0.017884877
157	0x3abdbcaa	0.0014475782
158	0x3c1b1852	0.009466248
159	0xbbe71426	-0.0070519624
160	0x3ab344c8	0.0013677115
161	0xbbaffaa2	-0.005370454
162	0xbc8e48f0	-0.017368764
163	0x3bcda522	0.006275789
164	0xb9cf1721	-0.0003949935
165	0x3baf2d1c	0.0053459536
166	0x3c90d059	0.017677473
167	0x3d512588	0.051061183
168	0xbbd2373b	-0.0064152754
169	0xbb2e9835	-0.0026641015
170	0xbc194623	-0.009355101
171	0x3b4d2bef	0.0031306704
172	0xbc6ca3cd	-0.01444335
173	0xbacc3aa0	-0.0015581436
174	0x8d530c37	-6.50341e-31
175	0x00000004	6e-45
176	0x3bfeec8b	0.007779663
177	0x3b3f697a	0.0029207156
178	0xbca4c5d8	-0.02011387
179	0xba5cf303	-0.00084285456
180	0x3c2035d1	0.009778456
181	0xbc0db22c	-0.0086484365
182	0x3b893fd1	0.0041885157
183	0x3d2aa859	0.041664455
184	0xbc5d9e7e	-0.013526557
185	0x3b48db2c	0.0030648215
186	0x3c3fdd04	0.011710409
187	0xbb208516	-0.0024493388
188	0xbc116ee6	-0.008876538
189	0x3ae600db	0.0017547862
190	0x3c557938	0.013029389
191	0x3abea601	0.0014545323
192	0x3b962a4a	0.004582678
193	0xbce3c694	-0.02780465
194	0x3d00597f	0.03133535
195	0x3c5fff9d	0.013671783
196	0x3be6910e	0.007036335
197	0x3b52a6d3	0.0032142892
198	0x3b996fd9	0.0046825227
199	0xbc00d383	-0.007862928
200	0xba93a7a8	-0.0011265175
201	0x3c21fb17	0.009886525
202	0xbc0f4197	-0.008743665
203	0x39e25a90	0.00043173553
204	0x3ab38ab4	0.0013697953
205	0x3a833598	0.0010010479
206	0x3b57fcd9	0.0032957105
207	0x3bb9846f	0.0056615393
208	0x3bec97e8	0.007220257
209	0xbb0cf30e	-0.0021507177
210	0xbc743a2c	-0.014906447
211	0x3ac93192	0.0015349856
212	0x3c18bf76	0.009322992
213	0xbb788900	-0.0037923455
214	0xb9988558	-0.00029091048
215	0x3c6e135a	0.014530981
216	0xbbe1b650	-0.0068881884
217	0x3abf8fcf	0.0014615002
218	0x3d0ac055	0.03387483
219	0xbc661b5b	-0.014044608
220	0xbb38cc2a	-0.0028197863
221	0xbb822522	-0.0039717117
222	0x3ca4628e	0.020066526
223	0x3c065425	0.008198773
224	0xbb1c0b29	-0.0023810363
225	0xbc2e95ae	-0.010655804
226	0x3acb6a17	0.0015519288
227	0x3ba11587	0.0049158963
228	0xbb39768d	-0.0028299422
229	0x3aab4798	0.0013067601
230	0xbb9ec20d	-0.00484491
231	0xbc4591ee	-0.012058718
232	0x3c82d7f9	0.015972124
233	0xbd26d6a9	-0.04073206
234	0xbc83e5d4	-0.016100802
235	0x3ca02337	0.019548042
236	0x3b0b4bb0	0.002125483
237	0x3c58d795	0.0132349925
238	0xbc1ed2e0	-0.009693831
239	0x3aaf06a8	0.0013353424
240	0xbce5ff97	-0.028075976
241	0x3d2d3c65	0.042293925
242	0xbd6b3017	-0.05741891
243	0xbc3395b7	-0.010960988
244	0xbc23e069	-0.010002234
245	0xbc1ea8eb	-0.009683828
246	0x3d29478b	0.041327994
247	0x3d3856ab	0.045004528
248	0xbade7ba1	-0.00169741
249	0xbc012579	-0.007882469
250	0xbaa3db83	-0.0012501333
251	0x39205f43	0.00015294277
252	0xbabeabaf	-0.0014547015
253	0xbaa57c33	-0.0012625515
254	0x0d8dabc4	8.731147e-31
255	0x80000004	-6e-45

exp_avg_sq f4 [256, 8]
0	0x3ae12490	0.0017177034
1	0x3be6d2c4	0.007044168
2	0x3b1d4af7	0.0024000981
3	0x3a585be5	0.00082534394
4	0x3a035049	0.0005009217
5	0x3b01f863	0.0019831888
6	0x3b839fbf	0.004016846
7	0x302bede8	6.254752e-10
8	0x3bcb59bb	0.006205765
9	0x3d469701	0.048483852
10	0x3bd44285	0.0064776563
11	0x3c14ac4b	0.009074281
12	0x3a724a52	0.0009242642
13	0x3a9c6fa0	0.0011935122
14	0x39a3de0e	0.00031255226
15	0x3af0e707	0.0018379398
16	0x3cd8b932	0.026455496
17	0x3dad3755	0.08457819
18	0x3cab7a48	0.020932332
19	0x3c8c4084	0.017120607
20	0x3b956c9b	0.004560066
21	0x3ba2a67b	0.0049636937
22	0x3d8261bc	0.063662976
23	0x3d84e566	0.06489067
24	0x3a896c19	0.0010484486
25	0x3ba18bbb	0.0049299872
26	0x3a321dd5	0.00067946065
27	0x3a1065df	0.0005508344
28	0x392a5043	0.00016242363
29	0x394cbf30	0.00019526179
30	0x3b1d5b45	0.00240107
31	0x3b44d392	0.0030033332
32	0x3c7fbb04	0.015608553
33	0x3cd6a2c0	0.026200652
34	0x3b93815c	0.004501505
35	0x3a3e655b	0.0007263028
36	0x3b1be284	0.0023786137
37	0x3af8f65f	0.0018994323
38	0x3c935e64	0.017989345
39	0x3bfa3550	0.00763575
40	0x3caac08a	0.020843763
41	0x3be0e16a	0.006862809
42	0x3bceda91	0.0063126762
43	0x3b883bc2	0.0041575143
44	0x3ae45c32	0.0017422496
45	0x3bac86c5	0.005265089
46	0x3d347cb9	0.044064257
47	0x10ca7dee	7.9868977e-29
48	0x3b2420ad	0.002504389
49	0x3c49d4c8	0.012318797
50	0x3b053afb	0.0020329345
51	0x3b0c6389	0.0021421632
52	0x39c03147	0.00036657808
53	0x3a32c6a1	0.0006819759
54	0x391cf559	0.00014968718
55	0x3b09c8ad	0.0021024153
56	0x3acc3bed	0.0015581824
57	0x3c10f51c	0.008847501
58	0x3ab17e01	0.001354158
59	0x3ac96eb2	0.0015368073
60	0x39c0e589	0.0003679211
61	0x3a3ac308	0.0007124399
62	0x397c7c11	0.00024078811
63	0x3aa3e0c1	0.0012502895
64	0x3d3f9875	0.046776254
65	0x3d330ab8	0.043711394
66	0x3c5363a0	0.01290217
67	0x3c53b977	0.012922636
68	0x3b745955	0.0037284691
69	0x3c0a29ba	0.0084328
70	0x000001f4	7e-43
71	0x3cf3b97d	0.029751534
72	0x3cbb634d	0.022874499
73	0x3d3b4bac	0.045726463
74	0x3c501d20	0.012702256
75	0x3c5bb0d8	0.013408862
76	0x3b353de2	0.0027655293
77	0x3b886791	0.0041627367
78	0x3d006077	0.031341996
79	0x3d264221	0.04059041
80	0x3a951d29	0.0011376488
81	0x3c201b66	0.009772157
82	0x3aa86a1f	0.0012849009
83	0x3af5fcc2	0.0018767344
84	0x3978ae2a	0.00023716004
85	0x3943f006	0.00018686065
86	0x3b1034e4	0.0022004182
87	0x3b07e0da	0.0020733387
88	0x3a455c73	0.00075287296
89	0x388a817c	6.604471e-05
90	0x39c2b290	0.00037135603
91	0x399ecd19	0.00030288918
92	0x3996aa6b	0.000287372
93	0x3a4b51f3	0.0007756047
94	0x3c5a0606	0.0133071
95	0x38e82ab3	0.000110705754
96	0x3c16ab38	0.009196095
97	0x3c713fa6	0.014724648
98	0x3be7122d	0.0070517273
99	0x3babec20	0.005246654
100	0x3a83ef33	0.0010065794
101	0x3abd3757	0.0014436048
102	0x3ca2c743	0.019870406
103	0x3d00fd06	0.031491302
104	0x3bf3f9a3	0.0074455305
105	0x3d0b0cfb	0.033947926
106	0x3bbe0583	0.005798997
107	0x3ba18918	0.004929673
108	0x3a9cd317	0.0011964765
109	0x3ab54cd1	0.0013832097
110	0x3bd2143c	0.0064111035
111	0x3b20b1e6	0.0024520098
112	0x3aef0217	0.0018234876
113	0x3c206495	0.009789606
114	0x3ab6259e	0.0013896709
115	0x3abc23b8	0.0014353907
116	0x39833767	0.00025027545
117	0x3965f4cf	0.0002193034
118	0x3b92a7ba	0.004475561
119	0x3b37f357	0.0028068626
120	0x3a58cc48	0.00082701864
121	0x3b036fda	0.0020055682
122	0x3a09a3b4	0.0005250529
123	0x3a1488cd	0.0005666137
124	0x38e7f27c	0.000110601046
125	0x397e5680	0.00024255551
126	0x00000419	1.47e-42
127	0x38fe14dc	0.00012115549
128	0x3c5b70f8	0.013393633
129	0x3d921c6a	0.07134326
130	0x3c2cbfbb	0.010543759
131	0x3bbea28f	0.0058177183
132	0x3b26952f	0.002541851
133	0x3b923481	0.0044618254
134	0x3cddb897	0.027065558
135	0x3d0e6ffd	0.03477477
136	0x3b80e54f	0.0039335857
137	0x3ac646f3	0.0015127346
138	0x3b194d5b	0.0023392055
139	0x3a3250b5	0.00068021874
140	0x39d5297a	0.00040657428
141	0x3a603961	0.0008553472
142	0x3a105a23	0.00055065955
143	0x3a8ff661	0.0010983461
144	0x3beb8964	0.007188009
145	0x3ab2f5b5	0.0013653549
146	0x3bddc1e7	0.0067674997
147	0x3ac27b5e	0.0014837792
148	0x3b296090	0.002584491
149	0x3bbf5854	0.005839387
150	0x3cdcf28e	0.026971128
151	0x3d097cf5	0.033566434
152	0x3aab9b47	0.0013092541
153	0x3896217d	7.158795e-05
154	0x3adf5bf1	0.001704095
155	0x3ab8db16	0.0014103379
156	0x3aa9e5e3	0.0012962188
157	0x3a959cf9	0.0011414579
158	0x3cbe54f3	0.023233866
159	0x3cb3f82a	0.02196892
160	0x3d1d690c	0.03843026
161	0x3c950ab2	0.018193576
162	0x3c602d59	0.013682687
163	0x3b62e773	0.0034622818
164	0x3b43d628	0.0029882286
165	0x3b989f7d	0.0046576844
166	0x3d782b3a	0.0605881
167	0x3c863623	0.016383236
168	0x3c1c131b	0.0095260395
169	0x3d7092d9	0.058733795
170	0x3bf6b5a3	0.007528977
171	0x3c12f2df	0.008969038
172	0x3a51b68a	0.0007999918
173	0x3a8bf63b	0.0010678241
174	0x3800f8fb	3.074946e-05
175	0x000001f4	7e-43
176	0x3b25456c	0.002521838
177	0x3906a9f6	0.00012842551
178	0x3b90ff8b	0.0044249943
179	0x3aa29591	0.0012404193
180	0x3ae34666	0.0017339706
181	0x3b7a3d70	0.0038183592
182	0x3cfa0598	0.030520245
183	0x3d0f3f0b	0.03497223
184	0x3b06c550	0.0020564385
185	0x39f32866	0.0004637867
186	0x3a2b2505	0.00065286487
187	0x3902c8e5	0.00012472605
188	0x3a3548c3	0.00069154444
189	0x3a7ca3c0	0.0009637438
190	0x3c7f5689	0.015584596
191	0x3c450bb5	0.012026717
192	0x3c3a2dd0	0.011363462
193	0x3d8623d8	0.065498054
194	0x3c215012	0.00984575
195	0x3c32a230	0.010902926
196	0x3aa54fdd	0.0012612302
197	0x3ab46b35	0.001376486
198	0x3bc70e04	0.006074669
199	0x3bf8b4a7	0.007589895
200	0x3a57c163	0.0008230416
201	0x3ad6cb6e	0.0016387531
202	0x3a0869b3	0.00052037387
203	0x395f86ec	0.000213172
204	0x38e6c9ee	0.00011004867
205	0x390d3128	0.0001346512
206	0x3b0ea9f8	0.002176879
207	0x3b161a59	0.0022903888
208	0x3b989925	0.004656928
209	0x3a34d293	0.0006897833
210	0x3ac63858	0.0015122993
211	0x3a37ba6f	0.0007008677
212	0x3b09f5e6	0.0021051108
213	0x3b440652	0.0029910994
214	0x3d092028	0.033477932
215	0x3d194a99	0.037424657
216	0x3c6058fd	0.013693091
217	0x3d60b7c9	0.05486277
218	0x3bea59d1	0.00715182
219	0x3beb5daa	0.0071827965
220	0x3b21aba4	0.0024668956
221	0x3b6dd400	0.0036289692
222	0x3d19c26b	0.037538927
223	0x3cc9f185	0.024651298
224	0x3a687d25	0.00088687456
225	0x3b328fd1	0.0027246366
226	0x3a0069f2	0.00048985996
227	0x3a1adc9e	0.00059075083
228	0x3983891d	0.00025088424
229	0x399c576c	0.00029819773
230	0x3b90893a	0.00441089
231	0x3b91bc65	0.004447507
232	0x3cc0cf4b	0.023536345
233	0x3ca7b058	0.02046983
234	0x3c16db03	0.00920749
235	0x3c025630	0.007955119
236	0x3b61f9d0	0.0034481175
237	0x3bb01e9d	0.005374743
238	0x3d38350a	0.044972457
239	0x3d034787	0.032050636
240	0x3d76ca8b	0.060251754
241	0x3e2a1e75	0.16613181
242	0x3d0d6385	0.034518737
243	0x3cb36b64	0.021901794
244	0x3bfdda2b	0.007746955
245	0x3c49f0e2	0.012325497
246	0x3d02118d	0.03175502
247	0x3d876e13	0.06612792
248	0x39e15d46	0.00042984838
249	0x3b91b3f0	0.004446499
250	0x3a5ad3fa	0.0008347627
251	0x3a7e561e	0.00097021635
252	0x39024311	0.0001242275
253	0x3904758e	0.00012632294
254	0x3909300b	0.00013083236
255	0x09482a5d	2.4094043e-33
