results/windy/models/checkpoint_ep100.pth (torch, 436170 bytes, 18 tensors)

fc1.weight f4 [256, 8]
00000000: d45c cbbd 909d 10bf 39ff 0cbf 1c49 fe3e
00000010: 6918 7f3f 2fe5 a4bd ed4f 203e bcc7 8cbe
00000020: b0f5 603f a5e7 183f 13c8 213f 145f b1bf
00000030: 3d93 0e3e a58c bcbf 3a58 2bbf 07ff 333e
00000040: cf33 103e 9870 35be 073b 963e ae16 923e
00000050: 4d78 963e 17b9 713f 5078 a73e 349c 103f
00000060: e162 65be 5b3f 143f 9878 253e 639b 3a3d
00000070: 26de 1c3f 5144 63be 7966 c8be 620c 6e3f
00000080: 507a 25bf ae21 e63d 74b7 d13e 689c e83f
00000090: 9175 2ebd e23a c93e e25a 163f 9739 173f
000000a0: d32e 933e 7306 17bf e775 d9be e6a8 54be
000000b0: faad 633e c4e6 5abf d218 893e 287b afbf
000000c0: 8166 003f 19e8 6a3e 4070 d9bc 4bdb 31bf
000000d0: c588 ef3d e2ef 85bf 68a2 1abf 6cea 103e
000000e0: 11a7 2abf 563f 67bd 88a3 f0bd 4629 33be
000000f0: 6abe b3be b648 10bf 721e 58bf a16b d53e
00000100: 8c70 7cbe 2dea 58bf c8b7 8ebd f8df 09bf
00000110: 53a5 bfbe 38df 3fbd 2b9f acbf 39f7 153f
00000120: 81da e83e 84c9 37bf 8e60 233f 4b83 99be
00000130: fae1 553e d668 573d 7b47 67bd 903f 483f
00000140: eec2 173e d2b1 bb3e 5616 2d3e 8ac8 bebe
00000150: 4d74 a9be a1c6 b43e e27d 8f3c f34f 7d3f
00000160: abda 8e3e ca38 e9be 50d3 d0be 3cf9 9cbe
00000170: a763 0f3e c418 6a3f 1f22 3f3e 9dbe 2a3b
00000180: 6059 583f 8904 86bf 0308 e23e 8114 e13c
00000190: a8ea 8c3f 9357 6bbd dc69 e6bd 5b4e 693e
000001a0: 6381 0c3e 6675 2a3f d7da 18bf 8f32 803e
000001b0: c79b 15bf 2ad7 23be 32b7 6b3e c8a3 a0be
000001c0: 18e7 26bf 711b 063f bfd7 3abd 3b48 183e
000001d0: ee31 113c 6c51 cc3f 03b5 e93e 8e05 743f
000001e0: e35e a63e d90b 9cbe 2941 8c3f 574b 4a3e
000001f0: 1fed 3d3f b996 aebf f2df 1bbf 0620 aabe
00000200: 7ff8 cabe e471 d33e 645e 57be 5bb8 113f
00000210: 7aa5 f43e 5e11 a1bd 1572 023f aeaa c7bb
00000220: d12c 863e ab61 20bf 9abf 943e 0dac 69be
00000230: 3d10 84be 279d 26bf 46d6 b03e 0076 4f3f
00000240: bbe4 1cbf 8b8e d4be 5d5e dcbe 4335 cb3e
00000250: 77ad 8b3e 5121 6bbf 3a73 a53b 9fb8 afbe
00000260: eeea 233f 0efc 9ebf 1b89 bdbe 7aa5 ec3d
00000270: 330c 36be 6c05 0b3f 6084 f13e 2c7d d33e
00000280: 8024 483f d86b e7be dfce 8bbe d7fe a53e
00000290: ebf7 9fbc 59fd dc3e 36a3 5e3b 6d67 afbd
000002a0: 2e69 c13e e995 cabd 1368 1ebe e14b bfbe
000002b0: 7949 a93d 47e0 443d ccce 14bf 16eb c7be
000002c0: ec53 e93e ed41 90bf c013 82bf 1cd3 da3e
000002d0: 8d38 bd3d 157b aabe a3df be3e fd13 233f
000002e0: dbf1 1abf a1a2 12bf 3baf 4abf 8f45 a53e
000002f0: 6379 f13e 69d6 bebe ff78 9c3f 7a63 313f
00000300: 989e 443e 2952 e83d 2825 7e3d 8188 383e
00000310: 0fd2 7fbe 2f42 eebe 35bb 083f 6b08 8d3e
00000320: 98a2 51be 42f2 813d a189 84be 8096 b33b
00000330: 09be 98be a284 be3d 2b9a 273f 6e9d 443f
00000340: 63a0 4bbf c951 2dbf eabf c63e 65e3 c83f
00000350: 0181 7c3f f853 b8bd 3535 f83e d963 b53f
00000360: 3015 2cbd 8db1 f53e 73c1 92be c3c8 2b3f
00000370: 3232 afbe 218f e0be 6997 343e 7190 d8be
00000380: df97 0cbe 5a6d 553e 361a 123f 36b8 79bf
00000390: a630 29bd e251 e4bd a785 553e 53f4 313f
000003a0: 2820 2dbe 116e 39be 09ac d33e c957 463e
000003b0: 9076 1a3f 478d 0dbc 1654 4a3f 01c4 4cbe
000003c0: ce35 e3bd 9a61 bcbe 2899 43bf 485d 303f
000003d0: 8507 39bf 8e42 a23e 81fb 21bf 6f08 e53e
000003e0: 56f9 11bf 7f7f 163f fe24 41bf b092 69bf
000003f0: 5e80 263e 88d5 0e3f 5927 09bf 6a03 a9be
-0.09929815 -0.5649042 -0.5507694 0.49665153 0.9964662 -0.08051526 0.1565549 -0.27496135
0.8787489 0.5972846 0.63195914 -1.385714 0.13923354 -1.4730421 -0.669315 0.17577754
0.14082263 -0.17718732 0.2934191 0.28532928 0.29388657 0.9442305 0.3270898 0.5648835
-0.22401 0.5790917 0.16159284 0.045558345 0.6127647 -0.2219403 -0.3914068 0.92987645
-0.6463976 0.11236893 0.40960276 1.8172731 -0.04259259 0.39302737 0.58732426 0.5907225
0.28746662 -0.58994216 -0.42472765 -0.20767555 0.22234336 -0.8550837 0.2677675 -1.3709459
0.5015641 0.229401 -0.026542783 -0.6947524 0.116960086 -1.0463831 -0.6040406 0.14151925
-0.66661173 -0.056456886 -0.11749941 -0.17496213 -0.35106212 -0.5636095 -0.84421456 0.41683677
-0.24652308 -0.84732324 -0.06968647 -0.53857374 -0.3743082 -0.046843737 -1.3486074 0.58580357
0.45479205 -0.71791863 0.63819206 -0.2998298 0.20886984 0.052590214 -0.056464653 0.7822199
0.14820454 0.36659104 0.16903052 -0.37262374 -0.33096543 0.35307792 0.01751608 0.9895012
0.27901205 -0.4555114 -0.4078622 -0.306589 0.14002858 0.9144404 0.1866536 0.0026053556
0.84511375 -1.0470134 0.44146737 0.027475597 1.1009111 -0.057456564 -0.1125066 0.22783796
0.13721232 0.66585386 -0.59708923 0.25038573 -0.5844082 -0.16000047 0.23019102 -0.31374955
-0.6519637 0.5238562 -0.045615908 0.14871304 0.008862002 1.5962348 0.45645913 0.95320976
0.32494268 -0.3047779 1.0957385 0.19755302 0.74189943 -1.3639747 -0.6088859 -0.33227557
-0.39642712 0.4129783 -0.21032101 0.5692193 0.477825 -0.07864641 0.50955325 -0.0060933447
0.26206067 -0.6264903 0.2905243 -0.22819538 -0.2579364 -0.65083545 0.34538478 0.8103943
-0.61286515 -0.41515002 -0.43040743 0.39689073 0.2728078 -0.9184771 0.0050491365 -0.34320542
0.6403035 -1.2420671 -0.37018666 0.11555 -0.17778091 0.5430515 0.47171307 0.41306436
0.78180695 -0.45199466 -0.27306268 0.3242099 -0.019527396 0.4316204 0.0033971793 -0.08564649
0.37775558 -0.09891874 -0.15469389 -0.3736258 0.08265967 0.04806545 -0.58128047 -0.39046544
0.4557184 -1.1270119 -1.0162277 0.4273919 0.09239302 -0.3329703 0.37279996 0.63702375
-0.6052529 -0.572794 -0.7917363 0.32279631 0.47162923 -0.37272957 1.2224425 0.69292414
0.19201124 0.11343796 0.062047154 0.18020822 -0.24982475 -0.4653487 0.53410655 0.27545485
-0.20472181 0.06345035 -0.25886253 0.0054805875 -0.29832485 0.093026415 0.65469617 0.7680272
-0.79541606 -0.6770292 0.38818294 1.5694395 0.98634344 -0.09000391 0.48478094 1.4171096
-0.042012393 0.47987023 -0.28663215 0.67103213 -0.34217983 -0.438592 0.17635883 -0.422977
-0.13729809 0.20842496 0.57071245 -0.9754671 -0.04130616 -0.111484304 0.20851766 0.69513434
-0.16906798 -0.18108393 0.4134219 0.19369425 0.6033716 -0.00863964 0.79034555 -0.19996645
-0.11094247 -0.36793214 -0.7640557 0.68892336 -0.722771 0.31691402 -0.6327439 0.44732997
-0.5702108 0.58788294 -0.7544707 -0.9123945 0.16259906 0.5579457 -0.53575665 -0.33010417

fc1.bias f4 [256]
00000000: 6cfe 2f3d a7b5 8dbd 7ca6 6d3d 90dd 273e
00000010: 450f e9bc 25e5 173e 3570 fa3c 2e9f cf3c
00000020: ec86 0e3d 091c 503c 5dca 9ebc cbd9 acbd
00000030: 797e 8fbd 3e98 bc3d 382d 63bc 8e54 b53d
00000040: 2ba7 b33d fc87 173d c032 a1bd e264 953c
00000050: b4e2 e43d b4a0 c03d a6e6 0abe 1922 b0bd
00000060: ef5f f23d cb55 e03d 496b 233e bfd0 1f3e
00000070: 2a20 0e3d 20c5 303d 4cb2 413c 753c 8c3c
00000080: 4a7b 8a3d a1ba 1c3c a8f8 d73d e359 afbd
00000090: b9f6 ce3c fb7e 243d 8f14 c13c 53fc 94bd
000000a0: 8ad5 40bd 9681 e7bd ab5b b4bd 9cae 14bd
000000b0: d46b 82bd e89b 1cbd c129 fd3c 73e0 cc3d
000000c0: 98a1 103c 4396 0b3e 0af6 83bc a15e 283e
000000d0: fad4 81bd e3ee 66bd 42e8 823c 06bb 9cbd
000000e0: 181c 50bd f315 d93d 5dcf d13d 3a16 cb3c
000000f0: b536 b3bc 2a5f d93d d19c 113d 4b53 2d3e
00000100: 64b8 84bc 98e8 593d 80d5 e53d 9baa 823d
00000110: aeba 56bd b8f8 0d3d dbae 4f3e 3646 9cbd
00000120: 3317 49bd 9adc 5dbc f192 413d de7e b03b
00000130: 83d1 873e 936d 91bd 9f69 1a3d f0de d93b
00000140: 6440 a13d 0289 2e3a 456b 99bc 6f89 163e
00000150: b8df cf3c 3999 7ebd 329a c33d 1657 7dbb
00000160: 4475 ab3d 68ea d2bb f574 8d3c 7b89 8cbc
00000170: 0265 5abd e739 f0bc 6918 213e 3312 4ebd
00000180: b15d f03c 0d89 a33d 766e 1fbd e7fd 94bc
00000190: 29c5 783d 5613 4c3c 8edf 9d3d 58bc 90bd
000001a0: 568d 27bd dd69 333d 3f7f 5fba b877 fa3c
000001b0: 86cb b43b acc7 5c3d f65b ed3a 77d2 453d
000001c0: 0dd6 b43d a63e 54bc 7b57 cb3d b580 ea3d
000001d0: 649f e13c 2173 d53d 33ab 9b3d ef4e 4fbd
000001e0: 016b 69bd 9c3a c53d cec6 de3d 5785 643d
000001f0: ff0c 913d 01b9 053e 013b 6cbd bf9c 483d
00000200: 2998 1bbc 50ce 2cbd 29b5 093d 6f27 f23b
00000210: 5d7b 94bd 6ecb 14bc 5b2b 81bd d436 093d
00000220: 15be 03bd 88e9 57bd d551 84bd 7193 f7b9
00000230: bd37 553e e0aa 993b 4037 453c c4d7 783e
00000240: 3b50 773c c308 aabd 025c 2a3b 93b2 2b3e
00000250: 1696 163e 10f1 173e 0d89 0fbe 16a2 41bd
00000260: 3385 243c 0fbd 913d 25ef 7e3d 0c2b a1bd
00000270: ac76 093d e963 39bc b3aa 243d 3115 82bc
00000280: 3a79 fbbc 9cb3 b83d a574 38be 9a48 ddbd
00000290: 6633 c5bb 4491 cd3d 1ae6 bdbc 4c87 203d
000002a0: 901f 473c 3501 5e3d 21a7 d1bd d139 fdbb
000002b0: 2adf 8c3d f0c6 fd3a 303d cd3c ba7f 973d
000002c0: 10e8 5b3c 494f 79bc fcad bbbd fe51 c73d
000002d0: 50c0 bf3c 5eef 813d d1c1 d13d 3c13 1b3e
000002e0: 83fa 9dbd 7521 f53d 37b8 70bd 9931 87bd
000002f0: 5655 023e f629 063d 07c2 88bd 65be cd3c
00000300: 35fe e0bb 5647 c23d f992 783d 05ad 1f3d
00000310: 79b3 e13c a704 0f3e ccfc 86bd 667f 0fbd
00000320: 78e9 abbd c097 dbbc e39f ee3c 767a e2bb
00000330: 0cef 3e3d 6daa 06be 64ce cd3c 28a8 ef3c
00000340: 149a ce3d 4fa9 253e f428 70bc 3a35 86bc
00000350: 0d35 733c bbb7 06be a5d5 32bc f37b afbd
00000360: 57d7 2f3e 1ec9 6fbd c4da e13c b716 1b3d
00000370: 1a76 d43d 2860 653d d649 67bd 24ef 783d
00000380: b21c 10bd 4107 9c3d e714 193e 8f25 95bd
00000390: 6d06 113e 14db d63d 1b89 de3d 84a4 b43a
000003a0: 2c1d 27bc 2b2f 92bd 2791 47bd 9df3 30bd
000003b0: 1acc 1a3e 53ba 1cbd 703f e83d 8042 24bc
000003c0: 01a1 d6bc ea94 11bc bc95 e53d 10de d23d
000003d0: 668b c1bd f11d 373d 3ad3 f93d 662f c23d
000003e0: c635 f1bd 8dd1 c23d 83b3 b8bd 6c0e 0d3e
000003f0: f1b3 913b 3709 583c 37e7 313d e674 6a3d
0.042967245 -0.06919413 0.0580201 0.16393113 -0.028449664 0.14833505 0.030571083 0.025344457
0.03479664 0.012701997 -0.019383604 -0.08439978 -0.070065446 0.092087254 -0.013865761 0.08854018
0.08772119 0.03699492 -0.07871008 0.018236581 0.11176053 0.09405652 -0.13564548 -0.086002536
0.11834704 0.10953864 0.15958895 0.15606974 0.034698643 0.043156743 0.011822294 0.017118672
0.06761797 0.00956598 0.10545474 -0.085620664 0.02526413 0.04016016 0.023569373 -0.072746895
-0.047078647 -0.113040134 -0.08806547 -0.036299333 -0.06368223 -0.03823462 0.030903699 0.10003748
0.008827589 0.13631539 -0.016108532 0.16442348 -0.0633945 -0.056380164 0.01597989 -0.076528594
-0.050808042 0.105998896 0.102446295 0.024790872 -0.021876672 0.10613854 0.035549942 0.16926305
-0.016201206 0.053200334 0.112223625 0.06380197 -0.052424125 0.034661025 0.20281546 -0.07630579
-0.04909439 -0.013541365 0.047259275 0.0053862175 0.26527032 -0.07100978 0.037698384 0.0066488907
0.0787361 0.0006657989 -0.018727908 0.14700864 0.025375232 -0.062157843 0.09550895 -0.0038656644
0.08371976 -0.006436635 0.017267684 -0.0171554 -0.053318985 -0.029324485 0.15731968 -0.050310325
0.02934155 0.07985125 -0.038923703 -0.018187476 0.0607349 0.012455782 0.07708655 -0.07067174
-0.040906273 0.04380213 -0.0008525736 0.030574664 0.005517426 0.05390136 0.0018109072 0.048296418
0.088298894 -0.01295439 0.09928795 0.1145033 0.027541824 0.1042235 0.07601013 -0.050612386
-0.056986813 0.096303195 0.10877763 0.055791225 0.07082557 0.13058855 -0.057673458 0.04897761
-0.009496727 -0.042188942 0.033620033 0.0073899548 -0.07250092 -0.009081705 -0.063070975 0.033499554
-0.0321637 -0.052712947 -0.06460921 -0.00047221364 0.20822044 0.0046895593 0.012037098 0.24301058
0.015094812 -0.083024524 0.0025994782 0.1676734 0.1470569 0.14838052 -0.14017124 -0.047273718
0.010041523 0.07116138 0.062239785 -0.07869539 0.03356044 -0.011315324 0.040201854 -0.015879245
-0.030697454 0.09018633 -0.18013246 -0.10804863 -0.00601809 0.10037473 -0.02318101 0.03919153
0.012153521 0.05420037 -0.102369554 -0.0077278395 0.06878503 0.0019361656 0.02505359 0.07397409
0.013422027 -0.015216657 -0.09164044 0.09732436 0.023407131 0.06344484 0.10242046 0.15144056
-0.07713797 0.11969272 -0.05876943 -0.06601257 0.12727866 0.03275486 -0.06677633 0.025115201
-0.0068662413 0.094862625 0.06068704 0.038983364 0.0275514 0.13966618 -0.06591186 -0.035033606
-0.0839414 -0.026805758 0.029128974 -0.006911571 0.04661469 -0.1315095 0.025122829 0.029254988
0.10087982 0.16177867 -0.0146582015 -0.016382802 0.014844191 -0.13156025 -0.010915195 -0.08568563
0.1717199 -0.05854141 0.027570136 0.03786346 0.103740886 0.055999905 -0.0564669 0.060774937
-0.035183616 0.07618571 0.1494938 -0.07282554 0.14162607 0.104910046 0.108659945 0.001378194
-0.010199826 -0.07137903 -0.048722412 -0.043201078 0.15116921 -0.03826363 0.11340225 -0.01002562
-0.02619982 -0.008885602 0.112102 0.10296261 -0.09450416 0.04470629 0.121984914 0.09481697
-0.117778346 0.09512625 -0.09018614 0.13775033 0.0044464995 0.013185791 0.043433394 0.05724039

fc2.weight f4 [128, 256]
00000000: e208 72bd 6b98 6c3d 62a3 0a3d 4d43 d4ba
00000010: 113d 7fbd 4a13 f13c f752 4fba b693 6dbd
00000020: 7fd9 6d3d 02c4 35bd 1667 ebbd 3be3 8f3d
00000030: 1758 513e e6c1 763e 951d 703b 120e 9e3d
00000040: 6d64 f6bd 96b1 82bd 4e7a 19bc f79f fb3d
00000050: c0be 563e 51d6 54bd ed6e a1bd 981f 6cbd
00000060: 17ca 8a3d 9f98 f1bc 4ad1 3c3d a930 83be
00000070: 4069 b8bd 6c53 c13b 80a2 113e cc6a 1fbe
00000080: 3688 823d 46e1 d53d 55b8 dd3d 6233 91be
00000090: 50ad 59bd 172a 6e3e f861 03bd 3e2d 303c
000000a0: a08b 46be ce6c 083e a318 bf3c f048 ba3d
000000b0: 53e7 063e 7a6a 08be af98 773b f823 a83d
000000c0: 5ae3 173d fe03 e4bc fb68 633d 9366 14be
000000d0: ef38 4d3c c183 47be a7dd 91bc e1bd 85be
000000e0: 45dd b8bd ec7c 993d dd56 0dbe e25e 2abe
000000f0: 97a1 883b 1046 413e 2432 6cbd bb1b f53d
00000100: 5909 123e a1ab 543c fbd6 023e 8935 563b
00000110: dc6f 8fbd b7a5 223d 26da b23d 9edc db3d
00000120: 3629 a5bd 1f66 2fbb 06ca 5abc 1410 2b3e
00000130: 1505 853e 87ea b13d 6a44 6e3e 5e98 a53e
00000140: f33f e9bb a255 c4bd 97ac a13c d563 62bd
00000150: cb52 f23c ccfe 73bd cb83 193d d154 9bbd
00000160: d82a c93d 04a9 82be fc0c 9a3c 7b6f e93d
00000170: 732e 5c3d 83ff a33d 369e 623d 16c1 123b
00000180: a114 4c3d 9a85 82be 12ba c1bd d967 c2bc
00000190: 8e60 b23d 8a8a af3d b3a3 43bd c826 babd
000001a0: b9a6 123e 3510 093e c0f1 b3bd e4d5 6e3d
000001b0: 6f96 b4bd b4e7 003e ab37 01be 3687 653d
000001c0: 5b8d 5f3d 5d5a 18be 918d 2b3b b0d8 0d3e
000001d0: a5fd 58be 1b7a d13d 1576 813c c82c 9639
000001e0: 2ecd 38be 40ed 143d 9beb 2e3e 9b08 d13c
000001f0: cceb 6b3c 0bb5 21be 58f9 d73c 54c0 0c3e
00000200: 5e18 51bd 9b2d 44bd e2da 933d b77f e63d
00000210: 4cd6 e13d 28fc 153e 3dba 2fbe ab5a 2abd
00000220: ac02 583e c2d9 493d 4196 853d 8bfd 803d
00000230: 1407 55bd 5709 c4be 7dfb 26bc f04b 7b3c
00000240: 0bb7 93be abc9 983d d3ab 3abb c7b6 c93d
00000250: a206 2cbe b90f 19bd c3f8 13bd 0c02 5abd
00000260: 0d3e 82bd fa6e 0a3d f9f2 76be 607e 43b5
00000270: be3d b7bd 3ca9 3a3d 355f f3bd 391a 70bd
00000280: 9fb6 0abd bd18 083e 7db8 4b3d f484 e73a
00000290: 2b6c c1bd 5e8f 7fbe a525 85bd 122b 2fbe
000002a0: 069a abbe 7c89 0c3d 2b22 9bbc ab86 b43d
000002b0: 44d6 9d3c f490 debd f321 ce3d 950e d9bd
000002c0: 555d 9c3d 0e48 f53c 9555 793c 8ce5 f73d
000002d0: 7c61 ebbc 1f6b 06bd b8d3 803d e171 853d
000002e0: 10cf dfbd d49a b73d 5f46 35bd 1a9a 053d
000002f0: f99b 89bc d0f5 c8bb 3644 33bd abc7 013e
00000300: 5ed3 133c 3098 013d 6690 18bd 1cc8 f73c
00000310: 535d 9abe e43f 4fbc 9c21 de3d c066 413e
00000320: 499f 1bbe 402a c23d 7521 253c a6b2 d33c
00000330: e19d 01be 9a33 4bbd acf6 edbd 693e 9b3d
00000340: de73 6cbe 2249 26be 13b0 88bb 619d d53d
00000350: f4fd 09bd 81c6 42be 2f95 303e 3857 38bd
00000360: 7a46 b03d 7554 16bd 3145 88be a33d 7dbd
00000370: de76 4e3e a3a7 3d3e 1636 2d3e a831 45be
00000380: f179 f0bd 022e 173d 8734 9dbd f261 95bd
00000390: 071b c9bb 9172 d13d f1ab 1ebd 0823 943b
000003a0: 4fef 8d3d 7069 d23c 23ff e93c 8ebf bebd
000003b0: 622a 373e 210d 213e 42a0 8ebd 5373 eebd
000003c0: 92db 22be 3803 2ebe ca8f 963e 0e85 4b3c
000003d0: 494f ae3b 362c d0bd 8a48 a13d adae 0fbd
000003e0: 76ee 183e 55b0 093e 88b2 cabd b8c3 a93c
000003f0: 871b b4bb a960 b5bd bb1a 2a3e d590 3fbc
-0.059090503 0.057762545 0.03384722 -0.0016194374 -0.062314097 0.029428143 -0.0007908786 -0.058002196
0.05806875 -0.04437638 -0.114942715 0.07025763 0.2044376 0.24097404 0.0036638726 0.077175274
-0.120308734 -0.06381528 -0.009367539 0.1228637 0.20971203 -0.0519622 -0.078824855 -0.057647318
0.06776827 -0.02949172 0.04609803 -0.25623062 -0.0900445 0.0058998372 0.14222145 -0.15568084
0.063736364 0.10443358 0.10826174 -0.28359514 -0.0531438 0.23258244 -0.032075852 0.010752974
-0.193892 0.13322756 0.023327177 0.09095943 0.1317418 -0.13321868 0.0037780215 0.082099855
0.037082054 -0.027833935 0.05552004 -0.14492254 0.012525781 -0.19483854 -0.017805887 -0.2612143
-0.09026579 0.0749453 -0.13802667 -0.16637757 0.0041696536 0.18874383 -0.057665005 0.1196818
0.14261378 0.012980373 0.12777321 0.0032685718 -0.07003757 0.03970882 0.08733015 0.10735439
-0.08064501 -0.002676375 -0.01335383 0.16705352 0.2598044 0.08687311 0.23268285 0.3234281
-0.007118219 -0.09586646 0.019735618 -0.05527099 0.029580494 -0.059569165 0.037479203 -0.07584537
0.09822625 -0.25519574 0.01880502 0.11398216 0.053755235 0.08007719 0.055326663 0.002239292
0.04982436 -0.25492555 -0.09459318 -0.023731159 0.087098226 0.08571346 -0.047763538 -0.09089428
0.14321412 0.13385089 -0.087863445 0.05830945 -0.088177554 0.12588388 -0.12618892 0.05603715
0.054578166 -0.14878221 0.002617691 0.13852191 -0.21190508 0.10228368 0.015803376 0.00028643594
-0.1804702 0.03635907 0.17082064 0.025516799 0.01439948 -0.15791719 0.026364014 0.13745242
-0.05104863 -0.047895055 0.07219483 0.112548284 0.11027202 0.14646971 -0.17160888 -0.041590374
0.21094769 0.049279936 0.06522799 0.062983595 -0.052008703 -0.38288376 -0.010191795 0.015337929
-0.28850588 0.0746034 -0.0028483763 0.09849315 -0.16799405 -0.03736851 -0.03612591 -0.05322461
-0.063594915 0.03379724 -0.24116124 -7.282706e-07 -0.08947323 0.04557155 -0.11883394 -0.058618758
-0.033865567 0.13290687 0.04973649 0.0017663524 -0.094444595 -0.24957034 -0.06501321 -0.17106274
-0.33515948 0.034310803 -0.018937191 0.088147484 0.019267209 -0.10867491 0.10065069 -0.105984844
0.07634989 0.029941585 0.015218158 0.121043295 -0.028733008 -0.032817002 0.06290382 0.06515861
-0.10928166 0.08965078 -0.044256564 0.032617666 -0.016798006 -0.0061328188 -0.043766223 0.12673824
0.009022562 0.031639278 -0.037247084 0.030246787 -0.30149326 -0.01264951 0.10846254 0.18886852
-0.15197481 0.09480715 0.010078778 0.025842022 -0.12657882 -0.049609758 -0.116193146 0.07580263
-0.23091075 -0.16238835 -0.0041713803 0.10430408 -0.033689454 -0.19021036 0.17244409 -0.045005053
0.08607192 -0.03670164 -0.2661529 -0.06182636 0.20162532 0.1852098 0.16915163 -0.19257224
-0.117420085 0.03690911 -0.076760344 -0.07294072 -0.006137255 0.1022693 -0.038738195 0.0045207776
0.0693041 0.025685042 0.028564041 -0.0931388 0.17887262 0.15727665 -0.069641605 -0.1164309
-0.15904072 -0.16993415 0.29406577 0.012421859 0.00531951 -0.101646826 0.07875164 -0.035078693
0.14934716 0.13446172 -0.098973334 0.020723209 -0.0054964456 -0.08856327 0.1661176 -0.0116922455

fc2.bias f4 [128]
00000000: 729c 713d 5cbf 01bd ade3 5dbc 4ba6 0b3d
00000010: 148d c3bc 0100 7bbb 8a8c acba 11d5 4cbd
00000020: 7cd5 953d 83b0 773c 7e83 003d efee 4e3c
00000030: c6f6 083d 2d48 f83c 6940 81bd 1919 f43d
00000040: 390c 11bc 0000 0000 a8b2 2cbc 7e32 363d
00000050: 4531 893d bc4b e8bd e991 b3bc a945 3b3c
00000060: a1f7 3ebd e849 8abc 5d40 9dbd 0fec 3ebd
00000070: 45fd ffbb a21c 393b 397f 743d 86a7 3fbd
00000080: a237 773d 1afa b23c d7ff 9a3d ee9c 9d3b
00000090: 709e 953d cd53 c4bd dc8c 273d 9136 17bd
000000a0: a05d 2b3d 40d5 903a a8be 3e3d 9eb4 803d
000000b0: fb80 80bc 07d8 af3b 55b7 5bbd de11 bc3c
000000c0: 03e8 113d 8040 be3b fa47 d7bc 66b3 7d3d
000000d0: f5e1 42bd c785 0f3e d681 6fbd fd7a 093e
000000e0: fb91 9cbd 6284 d83c 23d7 b13c 39de 9abb
000000f0: fef9 c5bd 460e 0fbd 5785 4a3d 8139 7e3c
00000100: e85e 85bd a077 4f3d 270f 973d 8287 79bd
00000110: fc42 573d c992 6b3d 8fd5 0a3d 047e c23c
00000120: 8334 dfbc 0a0c a4bd 7f40 69bb 4d5b 8d3c
00000130: fa29 31bd 799d 233d c7a1 1b3d adf9 8d3c
00000140: d0fe b2bc 370e fdbc 9b7e ca3d f440 843c
00000150: 9072 97bc d050 9d3d 9d8f 62bd 53eb 973d
00000160: 0d30 8ebd b6b1 b63c 308a 9dbc 8e2e 9f3b
00000170: 8430 00bc a442 fabb 380d af3c 2c6f d13c
00000180: 8213 4abc 0000 0000 6f0b 02bc 6433 433d
00000190: 8639 4f3d 3f62 8dbd d70c 8f3d 3e80 a9bd
000001a0: a761 3fbc a79f a13c f7f8 bebc cf39 763d
000001b0: f96f b73d fa1f 33bc d3a2 24bd a733 1dbc
000001c0: c10d 3eba 2823 a83d 1100 6d3b b875 36bc
000001d0: 77fa dabc 6d37 fabb 785a 293d 5874 1ebd
000001e0: 0e15 d7bd b2a2 d93d bbdb c53d c00c 423d
000001f0: 1806 72bd d519 e63c 9992 10bd 8178 98bd
0.05898709 -0.031676635 -0.013543052 0.034094136 -0.023870982 -0.0038299563 -0.0013164442 -0.050007883
0.073161095 0.015117767 0.0313754 0.012630208 0.033438466 0.030307854 -0.063111134 0.119188495
-0.008853012 0.0 -0.010540642 0.044481747 0.066988505 -0.1134257 -0.021920161 0.0114301825
-0.046622876 -0.016880944 -0.07678292 -0.04661184 -0.0078121745 0.0028245826 0.05969164 -0.046790622
0.06035579 0.021847773 0.07568329 0.0048099672 0.0730561 -0.09586296 0.04090582 -0.036917273
0.041837335 0.0011049882 0.046568543 0.0628445 -0.015686503 0.0053663286 -0.053641636 0.022957738
0.035621654 0.005806029 -0.026279438 0.061938666 -0.04757877 0.14015876 -0.05847343 0.13425823
-0.07645031 0.026430313 0.02170903 -0.004726198 -0.09666823 -0.03492572 0.04944357 0.01551664
-0.065122426 0.050651193 0.07375937 -0.060920246 0.052554116 0.057513032 0.03389507 0.02374173
-0.02724672 -0.08010109 -0.0035591421 0.01725545 -0.043252923 0.0399451 0.03799608 0.017330969
-0.02185002 -0.030890567 0.09887429 0.016144253 -0.018487245 0.076814294 -0.05531274 0.074179314
-0.06942759 0.022301536 -0.019230932 0.0048578447 -0.007824067 -0.0076373387 0.021368608 0.025565706
-0.012333753 0.0 -0.007937296 0.04765643 0.050591968 -0.069035046 0.06984871 -0.082764134
-0.011680997 0.019729448 -0.023312075 0.060113724 0.08956904 -0.010932917 -0.040194344 -0.009594834
-0.00072499743 0.082098305 0.003616337 -0.011136465 -0.02673076 -0.007636002 0.041346043 -0.038685173
-0.10502063 0.10626735 0.09661051 0.04737544 -0.059087843 0.02808849 -0.035296056 -0.07444859

fc3.weight f4 [4, 128]
00000000: 611b a9bd a10c 7cbe 5c1b ffbd c262 4d3e
00000010: 9c46 a2be 4e8d 2ebe 3818 f43e 81ee c53d
00000020: ac01 0abe 95ef d3be aea2 e13e 8d87 41be
00000030: 893d aebe f7d7 dd3e 0b58 ce3d e254 023d
00000040: 367b 1b3e da67 6ebe 86c9 c9bd e5b4 ef3e
00000050: 55a2 9f3e 87fe d3bd 0c2c e7bc f176 a2bd
00000060: 0f36 0cbe ebe6 b83d 8be5 263d 3d90 58be
00000070: bc1c 0d3e 9322 f0bd 9196 3ebe 0156 36be
00000080: dba2 873e 9e21 debe 563a b8bd 789a 8ebe
00000090: affd 683e f46e 79bc 1448 f5bd 3749 c7bd
000000a0: 5550 4a3e dcbe 313e ae5e 1a3f 56fc 313e
000000b0: 6ccb 2e3e 0bcb 75bb 4f3a 6bba 8630 dc3d
000000c0: 1e73 2bbe 699f 78be 6e2a d7bd 546d ac3c
000000d0: 5eaf 21be 13e8 51bd b6c6 96bd 42e5 383e
000000e0: 4385 ecbd a107 b0be e4a2 78be a22e 8bbe
000000f0: dfed 583d 2324 96be 012d 863e fcde 93bc
00000100: 2ef9 39be 2ea6 173f 1301 883e c38d 40be
00000110: c9d1 f83d e58d 3ebe 8dec dfbd 2d34 59be
00000120: 8b54 12be fd57 9bbe f4f7 1b3e 94a4 973e
00000130: 24cf 233e f3fd 96be 8e3d f93d ce19 4f3e
00000140: c025 14be 6ffb 423e bc05 803b 7c96 fdbd
00000150: 471a 35be 9c08 95bd 4b9d f13d 592a 2f3e
00000160: b9a0 94be 3c51 4dbe 9459 84be a3e1 653e
00000170: e748 b3bb a352 96be 1d4c cf3e 2558 683c
00000180: 119f fabd 0ed7 483d 08b0 dcbd dfbe a7bd
00000190: 99a3 f53d 7416 53be 8a4b b13b d613 e0bd
000001a0: 6e0e 64bd 176c 7ebd a958 ad3d 5f26 f43c
000001b0: d8f9 653e b6e4 283e 10b1 84bc 5bd9 183e
000001c0: 9ce4 babe 5456 a43d 47a7 1f3e c03d a83e
000001d0: 2d6e e03e 0864 2dbe cd9d 673e 7d1f cabd
000001e0: 8e57 043d f039 173d 4982 9bbd b361 a4be
000001f0: 6af8 6d3e 6789 4d3e 3a1b 193d ff01 42bd
00000200: 9d2d 803b 8db6 3bbe a479 58be 6e5c cd3e
00000210: 2ec9 dc3c dca9 96be 0160 b63e f777 233e
00000220: 3cbb 8cbe ca4f adbe 1e4a 1ebe 449b 413e
00000230: 5b03 8fbe 1182 02be 6c9e f9bd b571 0dbe
00000240: 591b 183e 5d2f a43e 3449 503e bdb8 003f
00000250: 94dd 05be 6ab6 a6be cfeb 85be 7dbe 293e
00000260: 5705 5fbe 3335 75be 4d1a 233e d3dd 853e
00000270: 9903 c6bd 6dc8 8ebe 56b9 20be e711 a43c
00000280: 053d d53e 8a34 63be f11f 573d e405 9abe
00000290: d116 4cbe fe8b c5bd bfe0 93be be8f 32bd
000002a0: e530 043e 3dfb 08be 2998 ea3e 68b6 8abd
000002b0: 9fc9 c83d 5358 dbbe 86d2 c43e 1b00 043f
000002c0: 1530 55be 9f4a 963e c947 bcbe 667d 8abd
000002d0: 8ee8 d8bd 5a28 41be e3ed 5bbd 8f9a b6be
000002e0: a67b 143a a138 cebe 1c9a 13be 8091 c1bd
000002f0: 378e 553e 69b5 23be 80bd 393e 55aa bebe
00000300: 0416 f53e cfbc 093e bfbf cf3e fff6 59be
00000310: 5ad3 9f3e 317e 90be 569b 6a3e 09d9 f93c
00000320: 375a 1dbe a8fb dfbd a1fb f2be 01a7 1a3f
00000330: 0393 c2bd 7e39 2bbe b117 4e3b 3e00 603e
00000340: 0bdc 77be 14e8 a13e 502d e53c 9e93 90be
00000350: 206f 4e3d d575 bf3e 0ef7 eb3e 5c66 2c3e
00000360: 6f6c b5be a285 dcbe f5e3 68be bf67 42be
00000370: 152b 64bd 5452 22be 1cbb 0a3f 33b3 88be
00000380: 0962 ec3d c95c b03d 790b a7bd b25e cd3d
00000390: 0c92 10be 6b65 fa3d 45e8 b33e b950 b4be
000003a0: 8af7 6f3b c370 bfbe 32ef 7bbe 3bbe 88be
000003b0: 8607 753d 8d16 e63e c150 c8be 9e25 82bd
000003c0: 37e6 9abe 57ea 3f3e 853a 043f 12fc d63d
000003d0: 6404 2ebc 73d6 a0be 9678 d03e ca00 e2bd
000003e0: 2f7a 603e 5bff 16be 7914 6bbd f9ac 98bd
000003f0: 9ab4 313d 3ca6 153e d1a8 5fbb 2d83 24be
-0.08257175 -0.24614193 -0.1245639 0.20057204 -0.31694496 -0.17046091 0.47674727 0.09664632
-0.134772 -0.41393724 0.44069427 -0.18899365 -0.34031323 0.4332883 0.100753866 0.03181923
0.1518372 -0.23281804 -0.09852891 0.468177 0.31178537 -0.103512816 -0.028219245 -0.079328425
-0.13692497 0.09028419 0.040746253 -0.21148773 0.13780493 -0.117253445 -0.18612124 -0.17806245
0.26491436 -0.43385023 -0.08995502 -0.27852225 0.22753023 -0.015224207 -0.119766384 -0.097307615
0.19757207 0.17357963 0.6030072 0.17381415 0.17069787 -0.0037505056 -0.0008973227 0.107514426
-0.16743132 -0.2427956 -0.1050614 0.021048225 -0.15789554 -0.051246714 -0.0736212 0.18056205
-0.11548855 -0.3438082 -0.24280888 -0.27184016 0.052961227 -0.29324445 0.2620621 -0.018050663
-0.18161461 0.59237945 0.2656332 -0.18804078 0.12149388 -0.18608816 -0.1093379 -0.2121131
-0.14290063 -0.30340567 0.15231305 0.2961775 0.15996987 -0.29490623 0.12169944 0.20224687
-0.14467525 0.19041227 0.0039069336 -0.12382218 -0.17685805 -0.07277033 0.117975794 0.17105998
-0.29028872 -0.2005052 -0.25849593 0.22449355 -0.005471337 -0.29359922 0.40487757 0.014181172
-0.12237371 0.049033217 -0.10775763 -0.08190703 0.119940944 -0.20614034 0.0054106163 -0.109412834
-0.055677824 -0.0621148 0.08464176 0.029803453 0.22458589 0.16493496 -0.016197711 0.14926665
-0.3650254 0.08024278 0.15591155 0.32859612 0.43834057 -0.1693269 0.2261879 -0.09869287
0.03231006 0.036920488 -0.07593209 -0.3210579 0.23239294 0.20071946 0.03737948 -0.047365185
0.0039116875 -0.18331356 -0.21140152 0.4010958 0.026951399 -0.29426467 0.3562012 0.15963732
-0.27486598 -0.33849937 -0.15457961 0.18906885 -0.27932248 -0.12744929 -0.1218842 -0.13812907
0.14854182 0.32067385 0.20340425 0.5028189 -0.13072807 -0.32561046 -0.2615647 0.16576572
-0.2177938 -0.23946075 0.15928002 0.261458 -0.09668655 -0.27887288 -0.156957 0.020028068
0.41648117 -0.22188011 0.052520696 -0.3008262 -0.19930579 -0.09645842 -0.28882405 -0.043594114
0.12909277 -0.1337709 0.45819214 -0.067730725 0.09804081 -0.42840824 0.38441867 0.5156266
-0.20819123 0.29353806 -0.36773518 -0.06762199 -0.10591231 -0.18863049 -0.053693663 -0.35664794
0.0005664177 -0.4027758 -0.14414257 -0.0945158 0.20855032 -0.15987171 0.18138695 -0.37239328
0.4786836 0.13450931 0.40575978 -0.21285628 0.31215936 -0.28221276 0.22910818 0.030498998
-0.15366445 -0.109366715 -0.47457603 0.6041108 -0.095006965 -0.1672115 0.0031447227 0.21875092
-0.24205033 0.31622374 0.027975708 -0.28237623 0.050398946 0.37394586 0.46086925 0.16835922
-0.3543429 -0.43070704 -0.22743209 -0.18984888 -0.05570515 -0.15851718 0.54191756 -0.26699218
0.11542136 0.08611447 -0.08156485 0.10027827 -0.14118212 0.12226375 0.35138145 -0.35217836
0.003661605 -0.37390718 -0.24602965 -0.26707634 0.059821628 0.4493908 -0.3912411 -0.06354831
-0.30253765 0.18741737 0.51651794 0.10497297 -0.010621164 -0.31413612 0.40717 -0.11035307
0.2192161 -0.14745848 -0.05739257 -0.07454867 0.043385126 0.14614195 -0.0034127722 -0.16065665

fc3.bias f4 [4]
00000000: 21a4 e3bb 1721 86bd 6930 9b3d c445 723c
-0.006947056 -0.0654928 0.07577593 0.014787141

exp_avg f4 [256, 8]
00000000: e11f c1bc 366e 803c 9964 2cbd 005e 3fbd
00000010: e537 943c 9269 19bc 0c1b 14bb 830c d13c
00000020: 2309 433b 32b9 cbbc d049 b53b 333e 26bc
00000030: aabc babc 8a83 faba 9cf1 963c cef9 88bc
00000040: 7554 2cbc 5f30 9b3b d95f eebc 2cba a6bc
00000050: d89a ed3c fddc 193a c30d 87bc 078a 8b3c
00000060: 6362 823c 1106 9bbc 1e5d e33c 9ded 0e3d
00000070: 7e9c b3bc 9383 e9ba c61b 74b9 6fc4 07bc
00000080: 925f c23b fa28 98bb 78f1 423c 9bf6 6d3a
00000090: 3a9b 52bb 995e 39bc 186a 6aba ae6f 513c
000000a0: 8d8e 5f3c db66 003d 71b7 7abc 08c7 10be
000000b0: 7633 65bd ae2c 2cbd 1566 a23d 0dad d9ba
000000c0: 4b46 543b 37e8 00bc 42f5 173b 9478 863b
000000d0: 0c1f eabb 6a79 fcba 8fc7 103c 4b9f 07bc
000000e0: ab40 de3b ece3 d43b 931f fc3b 7dd7 fd3b
000000f0: 13c4 77bc a0a0 ccbb 6b96 b23b 30b5 9fba
00000100: 1065 833c 3d81 96bb 7073 1c3d 8369 863c
00000110: 58e4 d0bc 8052 1a3c 1da7 ec3a cb7a 4fbd
00000120: 3ff8 b3bc 086d af39 b8a8 4ebd 357f 193c
00000130: 31bd 163d c492 ba3b d3df e3bc a10b b23c
00000140: 084c ddbb 0f56 8cbb f555 473b 2597 923c
00000150: af44 cebb 6a1e a3bb 048b 69bc 5955 0c3c
00000160: 24f1 90bb 8a61 0bbb 54b6 0fbc b114 083c
00000170: b92e 1e3c 1f1e 283b 2a09 23bc 002e 423c
00000180: e900 533a 5e7a 403b 0a83 88ba 7dc5 21bc
00000190: b9ff 9a3a 3ccc 593b 4515 b73b 4f44 6c3b
000001a0: 58e6 2b3c 1ada 87bc b7d4 3fbc c8e1 8dbc
000001b0: 1a6c 06bb 1758 bebb 9512 653c 9d91 6dbc
000001c0: ffb9 18bc 4e03 4e3c 0196 30bb d153 66bc
000001d0: 4a33 f4bb 7467 8abc 2d6d a7bb 1783 9d3c
000001e0: 74fb a33b 74b9 cb3c 488c fd3b 34d5 123b
000001f0: 7b87 30ba fa87 e7b9 8684 f9ba 11ec e8b9
00000200: b4b4 9fba 6d81 083c 721a fdbb 3abb bfbc
00000210: ebfe 323c acc0 0ebb 09f8 373b 7ebe 523c
00000220: b145 a4bc fb01 993b ee3a f2bc a770 863c
00000230: 59be f63b ef8d 62bc 276b d9bc 9be8 d53c
00000240: d444 70bb bbe3 d93b 256d bebc a8af edbc
00000250: 475b fe3b e952 1cbc b914 cf39 3de2 cb3c
00000260: 307a 1c3a 560a 073b 77e4 69bc 99c1 0dbc
00000270: 1200 413c dc4f b3bb 1f3e 73bb 8384 ed3b
00000280: 20e4 2d3a fbec 0ebb 9f2a 623c 2439 4b3b
00000290: 57d8 e2bc b55e 88bc 8daa ce3b 18ef c9b9
000002a0: ffe7 abbc f6da 1fbd b643 fabc 5fa5 41bc
000002b0: 2fcf 683c 02b4 81ba b77a 133a 3842 963c
000002c0: a5bb c1bb 9dc2 7e3b 3e33 37bc 7dd1 22bc
000002d0: 9472 483c 314e 6dbb 6474 58bc 3576 e53c
000002e0: abdf 83ba 3af8 efbb 438e 9abb dc1a 2d3b
000002f0: 7ada 993c 5236 383c 3d3f 40bc 180e d93c
00000300: 1bef 8fbb f5ca 103d c974 1cbb 1100 70bc
00000310: f968 9cbb 30d1 ddbb 8786 97bb 8afe 843c
00000320: eb6e 043a eff6 25bb 5754 923c 470e 853b
00000330: fe8d 85bc c9f6 d13a a540 06bc fa97 273c
00000340: d0c0 413c bc4c 03bb 7578 e93c 7bd2 ca3c
00000350: 9157 1fbc 5b3d a23c 7acc d33a 454f 18bd
00000360: 6aab 373c 73e9 1b3d 3ee4 493c e6ce 6fb9
00000370: 8328 84b8 3b3b 77bb 930a 42bc e160 2c3a
00000380: cbf9 4bbb a96b 973b 13fc fd3b 2ba6 083c
00000390: 9386 43bc 7bef a23a ef48 f5bb 679c c43b
000003a0: 2cd9 cbbb 8354 88bb da34 c9bb 13d5 243c
000003b0: f75a 65ba d9a1 e7ba 0e59 b0bb 2293 eeb7
000003c0: d6a1 833b 0505 9dba 81f1 003c 62e4 2f3c
000003d0: 9c17 b0bb 843f 353b 2778 0b3a 0d4c 69bc
000003e0: 92b9 3d3b a4cd 9cbc 83d1 72bc f46b f138
000003f0: 8ff2 8c3c 29da 4a3b 308a f9ba 7ef0 a7bb
-0.023574771 0.015677553 -0.042088125 -0.046720505 0.018093059 -0.009363549 -0.002259913 0.025518661
0.0029760085 -0.024868581 0.005532481 -0.010146665 -0.02279504 -0.0019112688 0.018425755 -0.016720679
-0.010518183 0.004735991 -0.029098438 -0.020352446 0.0290045 0.00058694166 -0.016486054 0.01703359
0.015916055 -0.018923791 0.027754363 0.034894574 -0.021925207 -0.0017815701 -0.0002328 -0.0082865795
0.005931803 -0.0046435567 0.011898391 0.00090775796 -0.003213598 -0.011314058 -0.0008942201 0.012782974
0.013644827 0.03134809 -0.015302525 -0.14138424 -0.05595728 -0.042034797 0.07929627 -0.0016607359
0.003239053 -0.007867864 0.0023186957 0.0041037295 -0.0071448144 -0.0019262258 0.008836641 -0.0082777245
0.0067826114 0.006496897 0.0076941936 0.0077466355 -0.015122431 -0.006244734 0.00545006 -0.0012184735
0.016039401 -0.004593043 0.038196027 0.016407734 -0.025499508 0.009419084 0.0018055175 -0.050654214
-0.021968959 0.00033459836 -0.05045387 0.009368707 0.03680152 0.0056937654 -0.027816689 0.02173406
-0.0067534484 -0.00428272 0.0030416225 0.017894337 -0.006294809 -0.004977991 -0.014254335 0.00856527
-0.0044232775 -0.0021267855 -0.008771498 0.0083057145 0.009654694 0.002565272 -0.009950915 0.011851788
0.0008049147 0.0029369812 -0.0010415029 -0.009873745 0.0011825479 0.0033233305 0.0055872523 0.0036051457
0.01049193 -0.016583491 -0.01170843 -0.017319575 -0.002051121 -0.005808841 0.013981481 -0.014500049
-0.009321689 0.01257403 -0.0026944878 -0.014058069 -0.007452403 -0.016895033 -0.0051094503 0.019227548
0.005004341 0.024868704 0.00773767 0.002240491 -0.00067340554 -0.00044161064 -0.0019036687 -0.00044426371
-0.0012184591 0.008331639 -0.0077241 -0.023404706 0.010925035 -0.0021782322 0.0028071424 0.0128628
-0.020052763 0.0046694255 -0.029569115 0.016411139 0.0075300154 -0.013827785 -0.026540352 0.026111891
-0.0036662119 0.006649462 -0.023245404 -0.029014423 0.007762346 -0.009541252 0.00039497556 0.024888152
0.0005969135 0.0020605526 -0.014275662 -0.008652114 0.011779802 -0.0054721665 -0.0037115884 0.0072484626
0.00066334195 -0.0021808732 0.013804107 0.00310094 -0.02769105 -0.016646722 0.0063069523 -0.00038515846
-0.020984648 -0.039027177 -0.030549865 -0.011819213 0.014209553 -0.0009895565 0.0005625891 0.018342122
-0.0059122615 0.0038873323 -0.011181651 -0.009937641 0.012234349 -0.0036209936 -0.013211343 0.028010467
-0.0010061165 -0.007323292 -0.004716666 0.0026413715 0.018780936 0.01124342 -0.011733827 0.026495978
-0.0043925173 0.035349805 -0.002387332 -0.014648453 -0.004773256 -0.006769322 -0.004624191 0.016234655
0.00050519285 -0.0025324186 0.017862482 0.00406054 -0.016303059 0.0016018982 -0.008194123 0.010229105
0.011825755 -0.002003475 0.028499821 0.024758568 -0.009725467 0.019804647 0.0016158961 -0.037184972
0.011210302 0.03806443 0.012322484 -0.00022869892 -6.3017964e-05 -0.0037724513 -0.011843341 0.00065757154
-0.003112423 0.0046209884 0.007750997 0.008340399 -0.01193394 0.001243099 -0.007485501 0.00600009
-0.0062209573 -0.004160465 -0.0061403336 0.0100605665 -0.00087492116 -0.0017672136 -0.00538171 -2.8440325e-05
0.004017095 -0.0011979645 0.007870079 0.010735603 -0.005373908 0.0027656266 0.00053203333 -0.014239323
0.002894972 -0.019141026 -0.014820459 0.00011511883 0.017205505 0.0030952787 -0.0019038375 -0.0051251044

exp_avg_sq f4 [256, 8]
00000000: 4f07 513b e554 f13a 8cc0 153c 15b3 4c3c
00000010: a6b8 133c 20f4 c43b d942 c93a edfb d53b
00000020: 1fbf 353b 4ba2 6c3c 9721 d73b 4c85 563c
00000030: 0fd2 8d3b 042d fd3a 6571 6a3b 4927 4a3b
00000040: 6635 b93b e6f7 2a3c 8ee0 253c 49a9 943c
00000050: c935 c53b d3e0 0e3c 2cb4 443c ba80 9d3b
00000060: abf9 093b 3017 e33b 1a2d a23b c336 f13b
00000070: 6f1f 4b3b 5306 383b 58fe 5c3a 105b 9d3b
00000080: 38c5 9e3b db29 203d 1042 023c e11e 413b
00000090: 8d29 103c 35c1 013d 43c5 7a3c d306 333c
000000a0: b5d7 213d b916 913c fffd a63d 5ccc 223e
000000b0: 35fb 8e3d cf9a ff3c f120 903d 036c 713b
000000c0: 5fd6 453a 6256 2a3b 0c5d e63a 171d 3e3b
000000d0: d344 8d3a 38b1 b339 f56d 233a 4fac 863a
000000e0: be4e 0c3b 1300 313b 45e4 a53b b5de 103c
000000f0: d812 893b f161 293b d173 323a ec17 aa3b
00000100: 36d3 863b a8ff 333a c160 0d3c 7797 9a3c
00000110: f1f1 ea3b edcf ef3b d4c0 8339 9571 313c
00000120: 0ac7 be3b c88c 9a3a 3210 393c 3224 be3c
00000130: 11dc 163c 8279 503c 2041 4f3c 47f9 0d3c
00000140: 9cc0 203b 57ff 1f3b 660e 983b 9413 123c
00000150: 4e2d 5c3b fba1 993b de95 aa3b 6438 7c3b
00000160: ac7d aa3a 0eef df39 05f0 493b dcd2 d33b
00000170: c3db 083b 77ee 4f3b 8c83 573b 7f2b 073b
00000180: c2d6 3f3b 8230 9e39 922f a63b 85ca 143c
00000190: 3048 853b 6b52 6b3b 9756 3d3b 47da b63b
000001a0: bd67 653b e511 1d3c 46a5 da3b efd3 4e3c
000001b0: ea7c be3b d9d3 ca3b 3441 183c f7ea fd3a
000001c0: e960 b03b 5c3e e63c 952e 493c a7d4 a33c
000001d0: c9e7 2c3c c282 1f3c 8bbe 0f3c 3853 b13b
000001e0: 9e1c b03a 8bac 393b 3a41 4a3b 3f4a a63b
000001f0: a05b b63a b449 a53a 0c06 843a c015 083a
00000200: 3f44 943a 82c6 213c 7de8 143b 2191 313b
00000210: efde f13a 7a16 f13a 6f31 a03a f7bc b93a
00000220: 5d46 b13b b680 513a 0ea9 343c d831 c43c
00000230: 07c0 0d3c f778 dc3b e9d8 223c 8fcf 473c
00000240: 3b49 a33a 9f82 2c3a d794 803b f27e 7d3b
00000250: b0d2 b43a 6455 1e3b 24ed df39 2c80 0a3b
00000260: a21e 8f3a e72a 8c38 ea5a 0d3b 8bfe a23b
00000270: 7ee8 ce3a 6226 0e3b d5fc 363b de5b 473b
00000280: 42ed 9e3b 3522 573a a32d 9c3b 7e11 b73b
00000290: 8052 923b c2e6 6a3c 2246 cd3b de77 2b3b
000002a0: 527a 873b 8a74 2d3c b4d8 273c a4ef 8f3c
000002b0: a468 003c 5daf 883b 00f4 bd3a 5598 883b
000002c0: a3cf 0a3b b738 4139 4c1f 903b d8b2 f23b
000002d0: af0c 463b 7e26 7a3b ac15 433b 4421 db3b
000002e0: 596d 803b 4340 c13a 8b55 043c 4f74 783c
000002f0: b9ea d93b 6ce3 0f3c 23ed 053c 59ee 163c
00000300: 7e24 e73a 2a98 6e3b bd8c 5c3b 8b5d d93b
00000310: 33de 0c3b 4915 033b 28bf 133b d9d1 6f3b
00000320: 5f30 453b e336 883b 9d16 ca3b ace2 583c
00000330: 6f04 903b 80a4 993b be25 a63b e299 d33b
00000340: 4ba1 893b 803a 4c39 5ea0 053c d91c 573c
00000350: 762c e23b 0d4a 0a3c d55d 4a3b 7c90 943c
00000360: 1a4e 243a b837 223c 8587 e13a aecb 063b
00000370: 1cfc b73a 1ae5 813a 15f3 273a c639 8038
00000380: c761 013b ae5e 443b b4ac 813b 575d e83b
00000390: eaaa 323b c78a 4c3b c968 593b 3391 5e3b
000003a0: 8919 1d3a bac1 6939 4bdd 9a3a 25fc 163b
000003b0: cee2 de3a 939f 053b d331 cf3a 5ab9 9c3a
000003c0: f40f f638 2cd4 f138 91c8 6d39 51a6 4c39
000003d0: ee6f 3939 d295 923a a2f6 0439 1e20 c739
000003e0: 377a 3e3a 0e40 6b3b 692c ed3a 71c9 8c3b
000003f0: cfbe cd3a c746 a63a 5453 7f3a e436 773a
0.0031895225 0.0018412141 0.009140145 0.012493868 0.009016192 0.0060105473 0.0015355005 0.006530276
0.0027732325 0.0144429905 0.0065652835 0.013093304 0.0043280195 0.0019315784 0.0035773155 0.003084617
0.0056521175 0.01043508 0.010124339 0.018147128 0.0060183746 0.008720594 0.012005847 0.004806605
0.0021053355 0.0069302544 0.004949224 0.0073612644 0.0030994078 0.0028079941 0.0008430234 0.0048021153
0.0048452877 0.039102416 0.007950321 0.0029467868 0.008798969 0.031678397 0.01530582 0.01092692
0.039512355 0.01771103 0.08153915 0.1589827 0.06981508 0.031201748 0.07037533 0.0036838062
0.00075468974 0.002599143 0.0017575338 0.0029009038 0.0010777958 0.0003427358 0.00062343414 0.0010274741
0.0021409239 0.00270081 0.0050626122 0.00884216 0.0041831546 0.002584573 0.0006807419 0.00519084
0.004114534 0.0006866404 0.008629025 0.018871052 0.007169955 0.007318488 0.00025129935 0.010830303
0.005822067 0.0011791224 0.011295365 0.023210619 0.009207741 0.012724282 0.012649804 0.008665389
0.0024528867 0.002441367 0.0046403883 0.008915801 0.003359634 0.004688499 0.005205854 0.003848576
0.0013007424 0.00042711984 0.0030813229 0.0064643454 0.0020882941 0.003172783 0.0032884805 0.002062529
0.0029272293 0.0003017225 0.005071589 0.009081488 0.0040674433 0.003590728 0.0028890723 0.00558022
0.003500446 0.009586786 0.006672534 0.012623771 0.0058132308 0.006189805 0.009292889 0.0019372393
0.0053826463 0.028105907 0.012279172 0.019998861 0.010553309 0.009735765 0.008773456 0.005411532
0.0013436263 0.0028331603 0.0030861632 0.005074769 0.0013912804 0.0012610466 0.0010072603 0.0005191229
0.0011311843 0.009873988 0.0022721582 0.002709456 0.001845328 0.0018393539 0.0012221764 0.0014170696
0.0054099993 0.0007991897 0.011026634 0.023949549 0.00865174 0.0067282873 0.009939411 0.012195482
0.0012457737 0.00065807434 0.003923993 0.0038680402 0.00137957 0.0024159783 0.00042710558 0.0021133525
0.0010919163 6.6837114e-05 0.0021569082 0.0049741915 0.0015785841 0.0021690358 0.0027921696 0.0030419747
0.0048500607 0.00082066964 0.0047661825 0.005586802 0.004465401 0.0143372435 0.006264464 0.0026163976
0.0041344548 0.010586867 0.010244537 0.017570324 0.007837448 0.0041712956 0.0014492273 0.00416855
0.002118089 0.00018427042 0.004398262 0.0074065737 0.0030219962 0.0038169916 0.0029767556 0.006687315
0.0039192853 0.0014743883 0.008077036 0.015164449 0.0066502956 0.008782249 0.008174214 0.0092121
0.0017634777 0.0036406615 0.0033653222 0.0066334656 0.0021494746 0.00200017 0.0022544358 0.0036593585
0.0030088646 0.0041569336 0.0061672465 0.013237637 0.00439506 0.0046887994 0.005070417 0.0064575532
0.004200136 0.00019476749 0.00815591 0.013129436 0.006902273 0.008440507 0.0030878682 0.018135302
0.00062677416 0.00990098 0.0017206526 0.002056818 0.0014036926 0.0009910197 0.00064067665 6.114277e-05
0.0019742118 0.002996366 0.0039573554 0.007091205 0.0027262517 0.0031210647 0.003317403 0.0033961057
0.000599288 0.0002229278 0.0011815218 0.0023038473 0.0017004849 0.0020389303 0.0015807695 0.0011957095
0.000117331656 0.000115312956 0.00022676798 0.00019516914 0.00017684672 0.0011183566 0.00012680379 0.00037980167
0.0007266136 0.0035896334 0.00180949 0.0042964746 0.0015697124 0.0012685888 0.0009739895 0.00094304816

exp_avg f4 [256]
00000000: 4385 3f3d bb98 72bc fe2d a93c 141a 3cbd
00000010: 6bff 32bb 901a 033e 5979 94bb e479 fd3b
00000020: b0da cdbc 4a2c 183b 4762 5fbc 84d5 ccbb
00000030: 40fe 4e3c c5b6 efb9 d5f1 ff3c b918 4a3c
00000040: 6138 053d 2d35 2ebb daa5 153d 9e14 583c
00000050: 4336 7fbc b25a 3ebc 4fb4 7d3c fabd 4d3b
00000060: bfc6 333d 622c 6bba edf8 1ebd 6be3 d73c
00000070: 5679 f23a 0e6c 63bc 5a24 20bc 7853 97bc
00000080: 40f1 dfbb df32 ee3c 3313 ee39 995e 213b
00000090: 646a a73b 25e1 343b 942e 72bc f60c 19bb
000000a0: a60e b93d a324 d53c cfdb a0bb 6498 afbb
000000b0: bcb4 ae3b 2078 2aba aa76 013d 9c4b 95bc
000000c0: d0c7 1abc 3743 073c 02b1 05bd 5606 b33d
000000d0: d8b9 b63c bc34 5eba e25d e13b d244 6c3d
000000e0: de43 93bc 9a8e bebb 06c9 913c b372 c93a
000000f0: d2bc dd3b 4314 943c 289b 63bb f59c 03ba
00000100: cbf8 08bd f700 64bc 9f1c 6abb e028 81bb
00000110: 7408 9bbb 7a14 dcba 437e c23a 1b88 a6bb
00000120: 1a70 383c 1d45 933b b482 4ebc 869d 453c
00000130: 56a3 293c a114 593c 8d79 623c a84a 60bc
00000140: 7a07 cebc 5995 cc3c 6a2b 503c 2176 093e
00000150: bcb6 c83a 90e5 a4bc 5ef5 87bc 1db8 173d
00000160: e025 1bbc 2068 9fbc c9c7 0d3c 3238 203d
00000170: ccc2 2abb bf37 8e3c 9899 bfbc 382f 42bc
00000180: 4258 cdbc e890 7b3c a732 da3a 1d5f 30bb
00000190: b32d 8ebc 3dd0 823b 2b35 bd3c 3833 22bc
000001a0: f061 a9bb ef05 153d 07d6 9ebc 4fca 3ebc
000001b0: 3524 43bc 2a05 9339 de12 54bc 51f6 403c
000001c0: f3fe 34bd 39df 4abc 2fd8 1f3d 5a6b 5b3b
000001d0: 83eb ebbb f978 093d 710a 7a3b 614d cfbb
000001e0: 09e4 adbc eee9 92b9 ea2e 4fb9 f8da 793b
000001f0: 167a ee3b 5719 4ebc 244a c7bb 201f e43b
00000200: 2859 96bc 2e78 b43d 2cb1 c63c 659d 8dbb
00000210: 2306 913c 2fda 8cbc 342c a9bc 383e 5e3c
00000220: 7385 b9bb 5b36 65bc 7b82 b93c 6502 32bc
00000230: b7dd 993c 1fea 97bc 648a 193d 0461 a3bb
00000240: d938 f1bc c421 e33c b215 ab3c f6de 433d
00000250: a3f8 d43c 2b78 0b3d 6918 8bbc f66a 6abc
00000260: fc4f 103d e153 5bbd bea4 e9bc c17a 693b
00000270: d425 67bb 6b89 af3c 3f6c 2ebd e384 cb3c
00000280: 60cb 533c 6b7f 953c 210d cd3b 9a87 3abd
00000290: 70de 27bd d740 bcbc a599 323b 4a85 863c
000002a0: 1d76 9f3b 31d4 eab9 95fc 913b fed2 363d
000002b0: c001 10bc 2b94 c0bb 04eb 223d 6a5f 823b
000002c0: 3ea9 96bc 8d77 df3c 6976 a73a 3a26 59bd
000002d0: 9cd2 71bd 9cde ab3c 6b1e 02bd d3de 02bc
000002e0: d42a 43bb 69e9 f2bc c32b 4b3c b8ca d33c
000002f0: 965c ac3d a188 913b 6574 e43b 17ee 1b3c
00000300: cd67 ed3c b963 38bc 2ccb 24bd 09ca a33d
00000310: b075 23bc ba16 993d 9968 5eba 9985 38bc
00000320: 16c9 1ebd 50ef 45bd ac1e fa3b deec 113c
00000330: 953e da3b 9ac4 4fbc 39f8 1ebd 8965 37bc
00000340: 3828 313d 9eae 113d 5442 6c3c 5a08 92bc
00000350: cd1f 4cbc 9804 733b 7f74 e83c 0990 833b
00000360: cd8b b43c cde9 e33c 62fe f0bc 60b4 19bc
00000370: a010 80bb 2f78 f33b 03ae 653c 5aa6 2b3c
00000380: c2a7 103c ab7c 6cbd 5a6b 683a f79c a2bb
00000390: 5fc7 b9bc 0d9a 41bd e62b e2bc 5e42 593c
000003a0: e423 02bd fd6b a23b bff8 383c a42a ba3c
000003b0: 4879 a0bc 0e06 4f3c 7a85 a1bb 8eb0 b23b
000003c0: d216 76ba 822f 9d3c 5c7f 583c 8085 d53c
000003d0: 1db1 ec3c 2aa3 7b3c 73f0 98bd a05c 903c
000003e0: 47e2 c73c ac0f 73bc 668b b93b e5df f63a
000003f0: 3b3f 933c 4d7b aabb d82a c93c f71b 183c
0.046757948 -0.014806922 0.020651814 -0.045923308 -0.0027312886 0.12803102 -0.0045310673 0.0077354778
-0.025128692 0.0023219758 -0.013634271 -0.006251039 0.01263386 -0.00045721806 0.031243244 0.012334996
0.03252447 -0.0026581988 0.03653512 0.013188509 -0.015576902 -0.011618303 0.015484883 0.0031393752
0.04389071 -0.0008971152 -0.038811613 0.026353559 0.0018499296 -0.013880743 -0.009774292 -0.018472418
-0.006834179 0.029076992 0.00045409202 0.0024623035 0.0051091183 0.0027600017 -0.014781613 -0.0023353673
0.09035997 0.026018446 -0.0049090157 -0.0053587426 0.005331604 -0.00065028854 0.031607307 -0.01822453
-0.009447053 0.008255771 -0.03263951 0.08741443 0.022305414 -0.0008476486 0.006877647 0.05768282
-0.017976698 -0.0058153393 0.01779605 0.0015369266 0.006766894 0.018076068 -0.0034729932 -0.0005020642
-0.033440392 -0.013916246 -0.0035722626 -0.0039416403 -0.0047312323 -0.001679077 0.0014838654 -0.005082143
0.011257196 0.004494323 -0.012604404 0.012061482 0.010353884 0.013249547 0.013822925 -0.013689674
-0.02515005 0.024973558 0.012705663 0.13423969 0.0015313248 -0.020128995 -0.016596492 0.03704082
-0.009469479 -0.01945883 0.0086535895 0.039116092 -0.002605605 0.017360566 -0.023388669 -0.011852078
-0.025066499 0.015354373 0.0016647176 -0.002691216 -0.017355775 0.003992109 0.023096642 -0.009899907
-0.0051691458 0.03638261 -0.019389166 -0.011644914 -0.011910488 0.00028041872 -0.012943951 0.011777476
-0.04418845 -0.012382322 0.039024528 0.0033480735 -0.007199706 0.033562634 0.0038153196 -0.006326363
-0.0212269 -0.0002802158 -0.00019758535 0.00381249 0.0072777374 -0.012579284 -0.0060818363 0.006961718
-0.01835306 0.08811985 0.024254404 -0.0043217414 0.017703122 -0.017193882 -0.02065096 0.013564639
-0.0056616603 -0.01399001 0.022645226 -0.010864829 0.01878248 -0.018544255 0.037485495 -0.0049859304
-0.029446052 0.027726062 0.020884369 0.047820054 0.025997465 0.034050148 -0.016979413 -0.014307728
0.03523253 -0.05354679 -0.028520938 0.0035626146 -0.003527035 0.02142783 -0.0425837 0.024843639
0.012926906 0.018249234 0.0062576686 -0.045539476 -0.040983617 -0.022980137 0.0027252224 0.016420979
0.004866375 -0.00044790053 0.004455159 0.04463481 -0.00878948 -0.005877038 0.03977491 0.0039786594
-0.018391248 0.027278686 0.0012776378 -0.05301497 -0.059038743 0.020980172 -0.03176729 -0.007987696
-0.0029780166 -0.029652314 0.01240057 0.0258535 0.08416097 0.0044413363 0.006971883 0.009517214
0.02898016 -0.0112542445 -0.040232822 0.079975195 -0.009976789 0.07475038 -0.0008484214 -0.011262321
-0.03876599 -0.04832393 0.007633051 0.008906571 0.0066602924 -0.012681151 -0.038810942 -0.011193641
0.043251246 0.03556692 0.014420111 -0.017826248 -0.012458754 0.0037081596 0.028375862 0.004014973
0.022039318 0.027821446 -0.029418174 -0.009381384 -0.003908232 0.0074300985 0.014018538 0.010476673
0.008829059 -0.05773608 0.0008866094 -0.0049625593 -0.022678075 -0.047266055 -0.027608823 0.013260452
-0.03177251 0.004956721 0.011289774 0.02272541 -0.019589081 0.012635721 -0.0049292417 0.005453176
-0.0009387556 0.019187693 0.013213959 0.026064634 0.028893048 0.015358726 -0.07467737 0.017622292
0.02439989 -0.014835279 0.0056623695 0.0018835036 0.017974487 -0.005202687 0.024556562 0.009284011
