results/pcgrad_blind/models/checkpoint_ep100.pth (torch, 670510 bytes, 24 tensors)

fc1.weight f4 [256, 8]
-0.54553616 0.9780157 1.1864028 -0.79127574 -0.037643045 0.06658932 0.66003966 1.4474195
-0.40690765 0.18857296 0.31891677 0.33617234 1.7907947 -0.6493321 -0.5980421 0.16811842
0.8638153 -0.77498466 -0.36921194 0.4094533 -1.0221691 1.0292728 0.49302322 -0.82720804
0.5736429 -0.4501205 -0.8118589 -0.34988326 1.1362824 0.98206073 0.028003443 1.075604
1.0341475 0.8471968 0.92864937 0.16626401 0.27115303 -0.6750256 -0.1657848 -0.8766259
-0.29260322 -1.336187 -0.3669707 -0.65233076 -0.034246497 -0.7437168 -0.23075102 0.09518314
1.1047407 -1.432567 -0.14764969 -0.03467272 -0.14036714 -0.009765796 -0.43363267 0.7171153
0.7372673 -0.50345397 0.33619693 0.9231603 -1.4306507 0.80924976 -0.30974343 -0.18734051
-0.3669375 0.3117232 -0.11204605 -0.6881837 -0.31138706 -0.8175529 -1.3708698 -0.60032195
-1.2801285 0.5731035 -0.6403802 0.4216747 0.68690604 1.3096185 1.0336703 -0.7844281
0.0310398 0.4930207 -0.6881435 -0.25270304 1.2540594 -0.5299048 0.18882889 0.13918643
0.08591709 -2.841383 -0.026011162 -0.5394002 0.44782358 0.25544825 0.7013197 0.07018213
1.0751241 -0.12949526 -0.82229686 0.24279076 -1.2119656 1.2038766 1.0103482 -0.13061972
-0.37191138 0.64971083 0.8576568 -0.77440065 -0.8355514 -0.8689398 0.7400228 0.24222475
0.4001749 -0.0062472275 -0.35476235 -0.39193207 -0.42292902 -0.83222896 -0.7400245 0.3253541
-0.7065264 0.86069137 -0.42847648 -0.11618962 0.12975316 0.46278915 -0.100044586 -0.5049711
0.19765171 0.055548973 1.0611552 0.50842917 0.8393623 -0.09824412 -0.3774031 0.5141104
-0.8702855 -1.3496085 0.63447756 -0.008197277 -0.4764949 -1.16434 0.39840597 -0.114466935
0.1044289 -1.345948 0.7710718 0.533422 0.15423962 -0.22894134 0.6122772 1.2175452
0.76073545 -1.7999285 0.6600087 -0.40057155 0.42469856 0.1728209 1.0767794 0.59563416
0.37496823 -0.7052619 0.15770112 -0.66546845 -0.6869854 -0.28729114 0.022518946 0.25789797
0.37567002 -0.5486152 -0.86125726 -0.4054454 0.44868022 0.589449 0.5015705 0.8936908
0.8910422 -0.59253395 0.58028907 0.59121495 0.26547775 -0.5270022 -0.050158292 0.5979821
-0.85334086 0.13066332 0.39232844 -0.1934032 -0.0021243594 -0.26258433 0.43473062 1.2492177
0.25745744 -0.8804155 0.20031382 -0.64883137 0.5872664 -0.13162313 -0.5163928 -0.94711703
0.12809198 -1.3505394 0.46610233 -0.46240205 0.41760135 -0.65950465 0.7440962 0.06347388
0.45149353 -1.6838108 -0.6587033 -0.9519973 1.1243517 1.6640252 0.23561029 -0.3338969
0.06077276 -1.8948901 0.302557 -0.06340761 -1.1461118 0.90963805 -1.2302704 0.40368348
-0.53765035 1.2018422 -0.24660334 0.0093479045 0.18651627 0.18359797 0.31716433 0.2497247
-0.26763335 -0.23980507 -0.19206692 -0.30789557 1.19477 0.2658543 0.08679724 0.9450012
-0.4502542 -0.15165953 -0.17095035 1.0423105 -0.14625908 -1.0465856 -0.47988382 -0.86845905
0.3583844 1.2548975 0.39296126 0.41072738 -0.051344547 -0.9368862 -0.14022489 -0.8804951
00000000: 42a8 0bbf 3d5f 7a3f 0cdc 973f 0c91 4abf
00000010: 982f 1abd fb5f 883d 5cf8 283f 0b45 b93f
00000020: 3356 d0be 4519 413e 0f49 a33e c81e ac3e
00000030: c338 e53f a13a 26bf 4919 19bf 3c27 2c3e
00000040: 0023 5d3f 6565 46bf 5909 bdbe dda3 d13e
00000050: 70d6 82bf 36bf 833f 8a6d fc3e e8c3 53bf
00000060: 43da 123f 3276 e6be fcd5 4fbf e623 b3be
00000070: b471 913f 5568 7b3f 7a67 e53c 64ad 893f
00000080: f25e 843f e4e1 583f f7bb 6d3f 1d41 2a3e
00000090: 92d4 8a3e 7ace 2cbf 7ec3 29be 8e6a 60bf
000000a0: 17d0 95be 2d08 abbf 95e3 bbbe 26ff 26bf
000000b0: 0e46 0cbd 3964 3ebf ff49 6cbe 61ef c23d
000000c0: 2568 8d3f 5b5e b7bf 7b31 17be fb04 0ebd
000000d0: 67bc 0fbe b800 20bc 1a05 debe de94 373f
000000e0: 8dbd 3c3f 5ce2 00bf 0122 ac3e 3c54 6c3f
000000f0: 901f b7bf fe2a 4f3f b196 9ebe 31d6 3fbe
00000100: 3bdf bbbe 2f9a 9f3e 6678 e5bd cf2c 30bf
00000110: 206e 9fbe 264b 51bf a978 afbf b3ae 19bf
00000120: 40db a3bf e9b6 123f f5ef 23bf bfe5 d73e
00000130: 13d9 2f3f 94a1 a73f 4f4f 843f 48d0 48bf
00000140: 2e47 fe3c 366d fc3e 2c2a 30bf 4b62 81be
00000150: 0585 a03f d7a7 07bf 5c5c 413e e386 0e3e
00000160: 4df5 af3d 38d9 35c0 5c15 d5bc 2216 0abf
00000170: 2249 e53e 1dca 823e b089 333f a6bb 8f3d
00000180: ab9d 893f 689a 04be 0c82 52bf 249e 783e
00000190: b021 9bbf a118 9a3f 1753 813f 2dc1 05be
000001a0: 2b6b bebe 7353 263f 658f 5b3f 1f3f 46bf
000001b0: b2e6 55bf d772 5ebf 2272 3d3f c409 783e
000001c0: b9e3 cc3e 8bb5 ccbb 69a3 b5be 52ab c8be
000001d0: 278a d8be f50c 55bf 3f72 3dbf d094 a63e
000001e0: eade 34bf 4556 5c3f 4561 dbbe d3f4 edbd
000001f0: 03de 043e b3f2 ec3e 2de4 ccbd c945 01bf
00000200: 3665 4a3e 5287 633d efd3 873f 6a28 023f
00000210: 73e0 563f 3734 c9bd fb3a c1be bd9c 033f
00000220: 08cb 5ebf f9bf acbf 1f6d 223f df4d 06bc
00000230: 24f7 f3be 1809 95bf defb cb3e a46d eabd
00000240: d2de d53d 0648 acbf f664 453f 588e 083f
00000250: fef0 1d3e 996f 6abe 33be 1c3f 85d8 9b3f
00000260: 8fbf 423f 0f64 e6bf 55f6 283f b717 cdbe
00000270: 1772 d93e f6f7 303e e8d3 893f 7b7b 183f
00000280: d6fb bf3e 0b8c 34bf 677c 213e 245c 2abf
00000290: 46de 2fbf d317 93be a779 b83c 340b 843e
000002a0: d257 c03e 0c72 0cbf 5b7b 5cbf 8a96 cfbe
000002b0: 6ab9 e53e 21e6 163f ed66 003f ecc8 643f
000002c0: 571b 643f 4eb0 17bf d38d 143f dd59 173f
000002d0: b3ec 873e 9ee9 06bf c872 4dbd 5b15 193f
000002e0: 8c74 5abf 9bcc 053e 46df c83e 7d0b 46be
000002f0: d638 0bbb 7471 86be 0395 de3e 5ee6 9f3f
00000300: 76d1 833e e962 61bf 111f 4d3e d019 26bf
00000310: 1757 163f 37c8 06be 5232 04bf 4376 72bf
00000320: 8b2a 033e 7ade acbf f7a4 ee3e f6bf ecbe
00000330: d8cf d53e 4cd5 28bf 177d 3e3f 98fe 813d
00000340: 292a e73e 1d87 d7bf c8a0 28bf 18b6 73bf
00000350: c2ea 8f3f c7fe d43f d343 713e 89f4 aabe
00000360: dcec 783d c28b f2bf c0e8 9a3e d9db 81bd
00000370: cbb3 92bf 0ade 683f 8079 9dbf 9aaf ce3e
00000380: 74a3 09bf f7d5 993f 9685 7cbe f427 193c
00000390: 1ffe 3e3e 1b01 3c3e 5d63 a23e d5b7 7f3e
000003a0: 3d07 89be 768f 75be 31ad 44be 7da4 9dbe
000003b0: 39ee 983f 0e1e 883e c0c2 b13d 99eb 713f
000003c0: b887 e6be a34c 1bbe 9c0d 2fbe 6e6a 853f
000003d0: f1c4 15be 84f6 85bf 55b3 f5be 5553 5ebf
000003e0: 297e b73e 7ba0 a03f 3832 c93e dc4a d23e
000003f0: a94e 52bd c6d7 6fbf 1d97 0fbe 2068 61bf

fc1.bias f4 [256]
0.020028735 0.25985748 0.0017847001 0.27210695 0.067494206 -0.04738217 -0.12852648 0.24909644
0.10116457 -0.20874685 0.070334144 0.008870747 -0.2112234 0.212124 -0.110014394 0.13858443
0.017051877 -0.002838983 0.13788307 0.062304508 -0.05103603 0.3474703 0.13843162 0.1476669
0.11666186 -0.0073087155 0.17520039 0.037034567 0.36475194 0.2026236 -0.24980816 -0.075688854
0.012190595 0.10621085 -0.3511437 -0.051716965 -0.055781353 0.33428845 -0.032877937 -0.07409082
-0.042751946 0.18998349 0.22615397 -0.022388835 0.07404392 0.14933112 0.014748197 0.3883097
0.19721948 0.06835946 0.16863829 -0.12976845 0.1058441 0.20320939 0.054771025 0.18966317
0.11460409 0.5063247 0.1925979 0.0007213448 -0.29856056 0.0463157 0.20404156 0.09374348
0.08376421 -0.016633555 0.2429131 -0.036822923 0.18563423 0.022502217 0.1307254 0.014583117
0.15818545 0.04703852 0.32420978 0.16281617 -0.07081495 -0.3618927 0.29130918 0.082853526
0.34676516 0.4223695 0.0626243 0.25870427 -0.1621001 -0.09022566 0.12018492 -0.10264379
0.2800311 0.10646021 0.11523666 0.18873712 0.002718405 0.17869596 -0.005072495 0.24595594
0.27381167 0.075224064 0.15015395 -0.019994956 0.108077854 -0.031033639 -0.13732092 0.21046346
0.19247137 0.23110577 0.1172049 0.06174598 0.04511323 0.38672057 0.1058967 0.03297683
0.2242708 -0.00426684 -0.04604535 -0.028669668 0.14626011 0.022229688 -0.37125802 0.29209894
0.061176986 0.33610913 0.13873667 0.06747139 0.19267209 0.015437546 0.14817297 0.16153713
0.1524504 0.18988287 0.4206945 -0.11520788 0.450959 0.22100501 -0.019255964 0.25292572
-0.041192282 0.0018569018 0.017061515 -0.0920551 0.031201264 0.30845392 0.14588235 -0.0059858644
0.1502082 0.14815699 0.11026035 0.09758292 0.06371966 0.2426768 0.32967073 0.1039466
0.2966422 0.11042757 0.16837467 0.079841435 0.3228693 -0.14012584 -0.03278982 -0.27930617
0.13270855 0.40986094 -0.2458061 -0.031265505 0.035455618 -0.15508181 0.17058146 0.14472091
0.18704596 -0.08976276 0.19160417 0.14006934 0.16133763 -0.017386805 0.2639929 0.08403963
0.008132229 -0.10812361 0.1229758 0.16383368 0.04493592 0.39799297 -0.043275166 0.15233229
0.008119115 0.24096689 0.21924357 0.21319255 0.33894154 0.18382734 -0.13871075 -0.009717471
0.21148759 0.07794357 0.16115019 0.035137493 0.33995837 0.052811112 0.12995306 0.1635056
0.019906305 -0.019811388 0.107258365 -0.09412974 0.007848304 -0.06774285 0.37780142 -0.013051588
-0.00088731636 0.22887196 -0.5227893 0.11340889 -0.09390119 0.03825867 -0.14068405 -0.03543699
0.21316835 -0.12979057 0.23876113 0.09337464 -0.21183032 -0.21200587 0.1577975 0.17585343
0.2804597 0.25147456 -0.0040602884 0.19422756 -0.11056032 -0.19349355 0.1504002 0.3307152
0.08043037 -0.034111597 0.21310464 0.35997376 0.26752293 0.09365522 -0.013687266 -0.08467104
0.13672838 0.38214692 -0.14499846 -0.057266902 0.21077366 -0.009514877 0.2727114 -0.34496996
0.13773951 0.09583977 0.05241685 0.19539467 0.12703851 -0.07206629 0.015640393 0.40503162
00000000: 4d13 a43c 0a0c 853e 99ec e93a 9a51 8b3e
00000010: 673a 8a3d ce13 42bd 729c 03be 2313 7f3e
00000020: 5f2f cf3d bcc1 55be 590b 903d 9c56 113c
00000030: f24a 58be 0937 593e 3a4f e1bd 14e9 0d3e
00000040: 61b0 8b3c 3b0e 3abb 3831 0d3e 0333 7f3d
00000050: 280b 51bd a1e7 b13e 05c1 0d3e fe35 173e
00000060: 6aec ee3d f37d efbb bb67 333e 8fb1 173d
00000070: c4c0 ba3e 907c 4f3e b6cd 7fbe c202 9bbd
00000080: 10bb 473c 1385 d93d 1bc9 b3be 2bd5 53bd
00000090: fd7a 64bd db27 ab3e 04ab 06bd eebc 97bd
000000a0: aa1c 2fbd 088b 423e e894 673e ca68 b7bc
000000b0: 57a4 973d 42ea 183e 6ca2 713c 87d0 c63e
000000c0: e7f3 493e 0b00 8c3d 84af 2c3e 05e2 04be
000000d0: cbc4 d83d 1f16 503e 9557 603d 1037 423e
000000e0: 8db5 ea3d 7f9e 013f 6238 453e a118 3d3a
000000f0: eedc 98be 88b5 3d3d 45f0 503e 95fc bf3d
00000100: 928c ab3d 1843 88bc 36be 783e a2d3 16bd
00000110: e616 3e3e 9256 b83c e1dc 053e 07ee 6e3c
00000120: 5efb 213e 77ab 403d d3fe a53e 48b9 263e
00000130: 6e07 91bd 004a b9be 7a26 953e 1caf a93d
00000140: 348b b13e d140 d83e 2b41 803d e374 843e
00000150: 92fd 25be 3bc8 b8bd 8323 f63d e836 d2bd
00000160: 3d60 8f3e d007 da3d 3301 ec3d 4e44 413e
00000170: 4527 323b 13fc 363e 2c37 a6bb e0db 7b3e
00000180: 0b31 8c3e 130f 9a3d f5c1 193e 76cc a3bc
00000190: ec57 dd3d 423a febc db9d 0cbe bc83 573e
000001a0: 3717 453e fea6 6c3e 1f09 f03d 5ae9 7c3d
000001b0: a6c8 383d 3d00 c63e 5ee0 d83d b612 073d
000001c0: 3fa7 653e d9d0 8bbb 0d9a 3cbd a7dc eabc
000001d0: 36c5 153e 091b b63c 8815 bebe fe8d 953e
000001e0: b894 7a3d 7f16 ac3e fc10 0e3e 712e 8a3d
000001f0: d54b 453e c3ed 7c3c a8ba 173e fd69 253e
00000200: f51b 1c3e a870 423e 4565 d73e 1cf2 ebbd
00000210: 19e4 e63e 234f 623e afbe 9dbc 7b7f 813e
00000220: 3db9 28bd 4963 f33a 97c4 8b3c 6287 bcbd
00000230: cb99 ff3c aced 9d3e 2f62 153e 1225 c4bb
00000240: 2ed0 193e 77b6 173e 2ed0 e13d 8ed9 c73d
00000250: 747f 823d 4480 783e 9aca a83e f4e1 d43d
00000260: 7de1 973e da27 e23d 696a 2c3e e883 a33d
00000270: 204f a53e 267d 0fbe 9e4e 06bd 3801 8fbe
00000280: c0e4 073e 4bd9 d13e 98b4 7bbe 4210 00bd
00000290: e939 113d c4cd 1ebe e8ac 2e3e b831 143e
000002a0: fa88 3f3e 8ad5 b7bd e233 443e 566e 0f3e
000002b0: b135 253e c66e 8ebc 142a 873e f81c ac3d
000002c0: 0a3d 053c e96f ddbd bcda fb3d 04c4 273e
000002d0: ba0e 383d bcc5 cb3e 4d41 31bd fffc 1b3e
000002e0: 0906 053c 06c0 763e 6381 603e 264f 5a3e
000002f0: bf89 ad3e 3c3d 3c3e 310a 0ebe 0736 1fbc
00000300: 3490 583e e1a0 9f3d 8e04 253e 55ec 0f3d
00000310: 060f ae3e 7750 583d 6a12 053e 036e 273e
00000320: 8c12 a33c 7e4b a2bc 46aa db3d 18c7 c0bd
00000330: 2c96 003c c3bc 8abd 306f c13e 54d6 55bc
00000340: cb9a 68ba 695d 6a3e 85d5 05bf ec42 e83d
00000350: 444f c0bd 20b5 1c3d 7b0f 10be 6126 11bd
00000360: ce48 5a3e d2e7 04be cc7d 743e 343b bf3d
00000370: 0cea 58be 1118 59be ab95 213e ec12 343e
00000380: 6a98 8f3e 46c1 803e 2b0c 85bb 97e3 463e
00000390: 736d e2bd 2c23 46be 8302 1a3e 8153 a93e
000003a0: aeb8 a43d 9ab8 0bbd 1a38 5a3e 7b4e b83e
000003b0: c4f8 883e 4fce bf3d 8e40 60bc 0368 adbd
000003c0: 8602 0c3e c3a8 c33e 7a7a 14be b390 6abd
000003d0: 0dd5 573e 49e4 1bbc d4a0 8b3e e79f b0be
000003e0: 960b 0d3e a447 c43d 0db3 563d 8a15 483e
000003f0: 6216 023e 7e97 93bd 4820 803c 4e60 cf3e

fc2.weight f4 [128, 256]
-0.07137101 -0.121517695 0.05123857 0.17611031 0.1845408 0.004846312 -0.14394861 -0.27696294
0.014589991 0.2018569 -0.10526638 0.18210277 0.04812898 -0.097681634 0.24378788 0.10770089
-0.7620313 -0.04126068 -0.40615276 0.04020323 0.20583045 0.06559643 -0.47383103 0.019505825
-0.009753963 -0.029289378 0.10386195 -0.14763533 0.1338434 0.113391 0.1281867 0.14387564
0.19523244 0.10448429 0.11360139 -0.025238018 0.09499103 -0.12166518 0.23866592 0.17348595
0.13896129 -0.23007287 -0.2199605 0.20268205 -0.1732667 0.079736434 0.14590715 0.0027421007
0.12706071 0.105194345 -0.10538737 -0.03428212 0.11435939 -0.17796566 0.20749588 -0.14216253
-0.14374004 -0.22344136 -0.3702989 0.046244252 0.42411363 -0.15561482 0.36916113 0.03826454
0.09683152 0.054769978 -0.13595332 -0.292188 -0.22228442 -0.018574756 -0.08513924 0.13281488
-0.018527344 0.01662526 -0.07774024 0.17714685 0.12604345 0.33809355 -0.10100765 0.2278793
0.02064496 -0.04120926 0.32274598 0.111945644 0.78106683 0.045095924 -0.13339096 -0.016343547
0.039251998 -0.011832342 -0.21317725 -0.116812244 0.080429114 -0.3274133 0.044475157 -0.16638385
0.23732196 0.3574316 -0.049861275 -0.15614106 -0.049440093 0.10251267 -0.015969368 0.14856271
-0.020666813 0.14716156 0.07664546 0.17537771 -0.09443412 -0.07750586 0.18238334 0.24686132
-0.059011962 0.11965806 -0.00209802 0.35010615 0.023875123 -0.1919779 0.08285409 -0.098644845
0.12304628 0.22151674 0.39734408 0.44678128 0.02115959 -0.07672833 -0.15664613 0.120724134
-0.02445917 -0.030003605 -0.052546546 0.23812696 -0.3595996 -0.44062814 0.09682491 0.07509936
0.104564294 0.033428356 0.17585145 0.19317871 0.33625257 -0.1027308 0.20068634 -0.07002868
-0.0007725908 0.051761623 -0.27278817 -0.1702929 0.033127777 -0.035579927 -0.35209724 0.13239406
-0.78625345 -0.101048246 -0.14800256 0.030180415 0.08760494 0.04932616 0.58179337 0.0039976607
0.05154466 0.06769092 0.13766856 0.12833376 0.034682 0.030502722 0.0057150493 0.040449496
0.05873018 -0.18737563 -0.12968357 0.3328688 0.13810956 -0.58515173 0.20986982 -0.15533169
0.08650419 0.32058755 -0.11948664 -0.0165986 -0.08425413 -0.058418818 0.057198405 -0.023735557
-0.2128891 0.109554656 0.04862695 0.033741213 0.055115633 -0.06038384 0.080109544 0.15086095
-0.09713733 -0.018872567 -0.093121156 0.08845059 0.07601818 0.1990133 -0.282432 0.19123167
-0.18672734 0.121341266 0.002663823 0.013418739 0.19906995 0.25499758 0.07909481 0.09888402
-0.10824937 -0.044803113 0.1997915 0.17152114 0.024989486 -0.12574278 -0.019240614 0.02580547
0.18327864 -0.02245039 -0.18838239 -0.057905644 -0.20788278 0.11891986 0.11924765 0.10174595
-0.0692171 0.04067827 0.17757669 -0.04791671 0.24365349 0.21523735 0.10112603 0.10017648
0.109655805 -0.052379906 0.042933594 -0.019909054 0.24851863 0.1314306 -0.010826744 0.22311169
0.24532774 0.10396275 0.79965734 0.0960012 0.019733354 0.06819681 0.13661875 0.12580207
0.028082704 0.24178523 -0.06959963 -0.037991364 0.109030426 0.08466393 0.012584925 0.09311778
00000000: f72a 92bd 45de f8bd 89df 513d 4356 343e
00000010: 43f8 3c3e d0cd 9e3b 4467 13be 16ce 8dbe
00000020: dc0a 6f3c 93b3 4e3e e695 d7bd 2679 3a3e
00000030: e522 453d 4f0d c8bd 88a3 793e 4992 dc3d
00000040: 7c14 43bf f500 29bd 41f3 cfbe 24ac 243d
00000050: 38c5 523e 6c57 863d fb99 f2be aeca 9f3c
00000060: 16cf 1fbc 47f0 efbc 93b5 d43d b72d 17be
00000070: 3f0e 093e 8a39 e83d 6043 033e 2354 133e
00000080: 03eb 473e dcfb d53d d8a7 e83d f6bf cebc
00000090: a88a c23d 982b f9bd d764 743e 4da6 313e
000000a0: de4b 0e3e 3998 6bbe 533d 61be e28b 4f3e
000000b0: d36c 31be db4c a33d af68 153e d1b4 333b
000000c0: 341c 023e 2270 d73d 55d5 d7bd 696b 0cbd
000000d0: 4235 ea3d a13c 36be cd79 543e 0e93 11be
000000e0: 9730 13be d0cd 64be d197 bdbe 9d6a 3d3d
000000f0: 6c25 d93e 7e59 1fbe b002 bd3e 47bb 1c3d
00000100: 9b4f c63d 7c56 603d 5937 0bbe aa99 95be
00000110: 879e 63be 162a 98bc 7b5d aebd a000 083e
00000120: a8c6 97bc b231 883c 4636 9fbd fc65 353e
00000130: 8911 013e 991a ad3e 19dd cebd 3159 693e
00000140: 9f1f a93c 0acb 28bd f63e a53e c243 e53d
00000150: fff3 473f 81b6 383d a497 08be e7e2 85bc
00000160: b4c6 203d 70dc 41bc 234b 5abe 423b efbd
00000170: 05b8 a43d b7a2 a7be 952b 363d 8760 2abe
00000180: 8704 733e 4601 b73e 563b 4cbd 71e3 1fbe
00000190: b281 4abd 2af2 d13d 31d2 82bc d320 183e
000001a0: 734d a9bc 85b1 163e 4cf8 9c3d 3796 333e
000001b0: ad66 c1bd 64bb 9ebd b3c2 3a3e 37c9 7c3e
000001c0: 87b6 71bd 490f f53d ef7e 09bb 1d41 b33e
000001d0: c395 c33c db95 44be 68af a93d 4f06 cabd
000001e0: b0ff fb3d 49d5 623e af70 cb3e 84c0 e43e
000001f0: e056 ad3c be23 9dbd d867 20be 373e f73d
00000200: 995e c8bc 1fca f5bc 0c3b 57bd 8ed7 733e
00000210: 701d b8be 039a e1be 234c c63d b1cd 993d
00000220: ce25 d63d 2cec 083d 6712 343e a4d0 453e
00000230: 4c29 ac3e 8764 d2bd b880 4d3e 326b 8fbd
00000240: b187 4aba ff03 543d e4aa 8bbe 4361 2ebe
00000250: feb0 073d 42bc 11bd 1746 b4be 4f92 073e
00000260: e847 49bf 62f2 cebd fc8d 17be eb3c f73c
00000270: 386a b33d 3a0a 4a3d 69f0 143f cffe 823b
00000280: 7e20 533d 89a1 8a3d fdf8 0c3e ed69 033e
00000290: b60e 0e3d d8e0 f93c 4f45 bb3b 5fae 253d
000002a0: 0f8f 703d 66df 3fbe c5cb 04be c86d aa3e
000002b0: 986c 0d3e 81cc 15bf 1de8 563e 450f 1fbe
000002c0: 1c29 b13d 0d24 a43e 69b5 f4bd caf9 87bc
000002d0: 6e8d acbd 9248 6fbd e048 6a3d 1271 c2bc
000002e0: 9aff 59be 315e e03d 0d2d 473d 3a34 0a3d
000002f0: eec0 613d 0c55 77bd 7910 a43d 4b7b 1a3e
00000300: f0ef c6bd a49a 9abc 4eb6 bebd 9525 b53d
00000310: 6baf 9b3d 24ca 4b3e ed9a 90be 3cd2 433e
00000320: 7435 3fbe c581 f83d 8993 2e3b 45da 5b3c
00000330: fed8 4b3e 0b8f 823e 76fc a13d b483 ca3d
00000340: d8b1 ddbd 7883 37bd 2596 4c3e 3da3 2f3e
00000350: c0b6 cc3c b7c2 00be 7e9e 9dbc fe65 d33c
00000360: 65ad 3b3e e1e9 b7bc 50e7 40be 782e 6dbd
00000370: 39df 54be 418c f33d 1d38 f43d 2e60 d03d
00000380: b2c1 8dbd 429e 263d aad6 353e 5044 44bd
00000390: 4d80 793e 2e67 5c3e 2a1b cf3d 5429 cd3d
000003a0: 3993 e03d 508c 56bd 23db 2f3d 5018 a3bc
000003b0: ab7b 7e3e be95 063e a862 31bc 6477 643e
000003c0: 3237 7b3e 6cea d43d 58b6 4c3f 479c c43d
000003d0: d8a7 a13c c5aa 8b3d c9e5 0b3e 42d2 003e
000003e0: b30d e63c 8c96 773e 408a 8ebd d59c 1bbd
000003f0: 584b df3d 4864 ad3d 0031 4e3c 89b4 be3d

fc2.bias f4 [128]
-0.09575602 -0.010981796 -0.11350127 0.15290058 0.18839653 0.013655379 0.08346341 -0.014932128
-0.0033107228 0.11705563 0.12893458 0.040799826 0.19604233 -0.009849467 0.0053721974 -0.008122596
0.03174252 -0.092548266 -0.05098258 -0.0034521911 0.07470565 0.21113196 0.18881206 -0.043696992
0.0035265824 -0.059823096 -0.06845249 0.039744645 -0.0814867 0.18679179 -0.15519944 0.09818562
0.08113511 -0.059374444 0.07181466 -0.07748395 0.13535547 -0.0121297 0.083409004 -0.07936392
0.096395425 0.19919983 0.028191967 0.051795393 -0.041916396 0.0916297 0.042115383 -0.06389478
-0.007293497 0.13076095 -0.07767578 0.043055587 0.14959303 0.22062868 -0.0034587958 0.0053586555
0.00035869784 -0.014937092 -0.07290079 -0.020387158 0.022579722 -0.0116721615 -0.07794346 -0.08917847
-0.0106549 0.0673836 0.01106931 -0.017234178 -0.084364384 0.048403546 0.21123037 0.03788933
0.004492375 0.0 -0.06105852 0.07130687 -0.080389254 0.124045976 0.15052438 -0.06383529
0.03783501 0.21224861 0.19943753 -0.018436905 -0.011231454 -0.042187717 0.051766094 0.13408802
-0.09599382 -0.008434937 0.12695439 -0.079123504 -0.004979111 0.001714572 0.031676296 0.120328255
-0.0026244652 0.032296766 0.115227394 -0.010208326 -0.041906238 -0.06866657 -0.01482729 -0.087413035
0.08808687 -0.08454997 -0.018933382 -0.12000291 0.08065839 -0.038505167 -0.09564168 -0.08687125
-0.040474914 0.14785516 0.115284115 -0.124689125 0.009029673 0.050560497 0.0093681095 0.03427833
0.16000019 -0.011595164 0.115632445 0.17206931 0.056147717 -0.0049920953 -0.21489705 0.11678555
00000000: bb1b c4bd feec 33bc 5b73 e8bd f891 1c3e
00000010: 05eb 403e d0ba 5f3c ddee aa3d e2a5 74bc
00000020: b6f8 58bb ddba ef3d 6d07 043e b81d 273d
00000030: 52bf 483e a95f 21bc 4209 b03b a314 05bc
00000040: 7204 023d f289 bdbd 1cd3 50bd 283e 62bb
00000050: 47ff 983d fa32 583e f357 413e 9efb 32bd
00000060: 3c1e 673b 1009 75bd d230 8cbd 48cb 223d
00000070: 80e2 a6bd 5946 3f3e 9aec 1ebe 8b15 c93d
00000080: 2a2a a63d 9e32 73bd 9113 933d e8af 9ebd
00000090: a09a 0a3e a6bb 46bc 57d2 aa3d 8d89 a2bd
000000a0: f76a c53d 0afb 4b3e d7f2 e63c 6827 543d
000000b0: 87b0 2bbd 5aa8 bb3d 2e81 2c3d 44db 82bd
000000c0: 4afe eebb 33e6 053e 7b14 9fbd 0e5b 303d
000000d0: ea2e 193e 7cec 613e f7ac 62bb a997 af3b
000000e0: 9c0f bc39 b4ba 74bc 024d 95bd f802 a7bc
000000f0: 1cf9 b83c 983c 3fbc d2a0 9fbd 34a3 b6bd
00000100: e491 2ebc 6a00 8a3d 0d5c 353c b12e 8dbc
00000110: 3cc7 acbd cc42 463d c64c 583e d831 1b3d
00000120: c634 933b 0000 0000 8018 7abd 5609 923d
00000130: 1fa3 a4bd d10b fe3d 1023 1a3e 14bc 82bd
00000140: e2f8 1a3d b357 593e 5a39 4c3e fe08 97bc
00000150: 2204 38bc 07cd 2cbd af08 543d 5f4e 093e
00000160: 6898 c4bd b132 0abc 5500 023e 810b a2bd
00000170: cf27 a3bb 7dbb e03a 01bf 013d a96e f63d
00000180: 38ff 2bbb 9d49 043d 57fc eb3d d340 27bc
00000190: e0a5 2bbd 0fa1 8cbd 29ee 72bc 9b05 b3bd
000001a0: e466 b43d 8928 adbd 2e1a 9bbc 16c4 f5bd
000001b0: 3a30 a53d 98b7 1dbd c9df c3bd 8ee9 b1bd
000001c0: 06c9 25bd 5867 173e 141a ec3d 035d ffbd
000001d0: 32f1 133c 8618 4f3d b37c 193c 6f67 0c3d
000001e0: 17d7 233e a5f9 3dbc b4d0 ec3d f032 303e
000001f0: 26fb 653d bb94 a3bb f90d 5cbe 432d ef3d

fc3.weight f4 [4, 128]
-0.24564077 0.11447198 -0.2834616 0.8991547 0.7976346 0.2024964 -0.2706987 -0.06721458
-0.321904 -0.21309033 -0.0048796916 0.5784731 0.8675252 -0.08772512 -0.64727557 -0.35418624
-0.67424345 -0.08317208 -0.47542584 -0.49987715 -0.22911918 0.8445299 0.7498978 -0.33777362
-0.28066728 -0.68711513 -0.32342976 0.032906562 -0.21126434 0.67746854 -0.101505615 -0.15029158
0.9364859 -0.1415026 -0.3745688 -0.16954108 0.5913724 -0.19288467 0.76404303 0.5799643
0.30365527 0.68754065 -0.39964446 0.5369831 -0.26384997 0.6325634 -0.32324916 -0.29325682
0.3816834 0.5845104 -0.42867497 0.567839 0.16722316 0.29412603 0.73678905 0.2813078
0.5565435 -0.1628135 -0.21902227 0.019295424 0.32626688 -0.0027071452 0.041879322 -0.3418468
-0.021871865 -0.3449545 0.12631325 0.03566242 -0.29177102 -0.2923276 0.5883553 -0.47917762
0.33908677 -0.26063657 -0.4591796 1.0550169 -0.5512736 1.4193232 0.47344115 -0.2542672
0.6777161 0.50658774 -0.70302 0.30735853 -0.33352083 -0.54225606 -0.3605792 0.5212071
-0.5702222 -0.072133265 -0.06303323 -0.62136704 -0.016546758 0.97506446 -0.24411249 0.5571283
0.5336392 -0.2946175 0.7573711 0.09868469 -0.24020228 -0.21678334 -0.13845347 -0.87668705
-0.244081 -0.20733011 0.35438788 0.18186207 0.63437486 0.017568897 -0.24611063 -0.1171593
-0.5725042 -0.06859107 -0.42196634 -0.24308082 -0.5111082 -0.25055727 0.1835126 -0.47172964
0.5596417 0.0024137597 0.12726395 0.39789525 -0.17487456 -0.18773298 -0.47348022 0.64902955
-0.28556317 0.02025896 -0.3038737 0.61166614 0.4496522 0.11634044 0.06687993 -0.026230363
0.26237306 0.13866434 0.9915315 0.10792034 -0.09046344 0.075452 -0.62954074 -0.2833337
-0.25689042 -0.14284764 -0.33515596 1.245721 0.29575887 0.8364675 0.4028155 -0.24527684
-0.3915617 -0.65309983 -0.36253506 0.7904001 -0.3815635 0.4707592 -0.42694587 -0.45748845
-0.21781369 -0.074086934 -0.23697314 -0.28005457 0.31698468 -0.34378672 0.22498107 -0.51954716
0.8566959 0.78571784 -0.23092669 0.029459853 -0.6692617 -0.39260966 -0.4463243 -0.20342964
0.08991988 -0.16639951 -0.3427235 0.20026973 0.3923399 0.3588487 0.29286206 0.6417951
0.6749688 0.10642459 -0.32798672 0.06967587 0.54008406 0.10883544 -0.6594355 -0.08167997
-0.016597843 0.14393003 -0.08392314 0.07303158 -0.2355995 -0.29332915 0.458464 -0.31355762
-0.027544416 0.076746464 0.1293751 0.5339068 -0.55884486 0.6535939 0.4771938 -0.43486995
0.041878376 0.6966143 0.24235733 0.29930058 -0.38624164 0.21460411 -0.52319896 0.639405
-0.06320456 -0.06839635 0.4752243 -0.48612374 0.11647916 -0.4367319 -0.3789432 0.46267676
0.35921815 0.15273777 0.9500784 0.13888822 0.3843092 -0.32304302 -0.056415282 -0.34899214
-0.49975654 -0.30078253 0.7665503 -0.43917382 -0.13233346 0.047346435 -0.1726102 -0.19083677
0.08054049 -0.17910942 -0.06530442 -0.77144974 -0.55544645 -0.36883193 0.24121782 -0.2429424
0.6801739 -0.08781845 0.39082676 -0.009586673 0.6477349 -0.7167691 0.29691604 -0.29435238
00000000: 4189 7bbe 4970 ea3d e121 91be 012f 663f
00000010: c831 4c3f 375b 4f3e 0599 8abe cca7 89bd
00000020: 9ad0 a4be 5a34 5abe d2e5 9fbb d016 143f
00000030: 2216 5e3f 3aa9 b3bd dab3 25bf e657 b5be
00000040: 389b 2cbf 2056 aabd 046b f3be e6ef ffbe
00000050: 389e 6abe 1d33 583f 4df9 3f3f aaf0 acbe
00000060: 9fb3 8fbe c7e6 2fbf 9698 a5be 08c9 063d
00000070: ae55 58be 946e 2d3f 2de2 cfbd 09e6 19be
00000080: 8abd 6f3f 0fe6 10be 7bc7 bfbe 2d9c 2dbe
00000090: 2e64 173f 8f83 45be 5398 433f 8a78 143f
000000a0: b478 9b3e aa02 303f 339e ccbe b977 093f
000000b0: 5817 87be adef 213f ea80 a5be c225 96be
000000c0: 026c c33e 79a2 153f 497b dbbe e65d 113f
000000d0: 8c3c 2b3e b097 963e 359e 3c3f 9307 903e
000000e0: a379 0e3f 95b8 26be 6047 60be 7011 9e3c
000000f0: 740c a73e 5c6a 31bb a789 2b3d 8b06 afbe
00000100: a02c b3bc e09d b0be 4358 013e c212 123d
00000110: 0363 95be f7ab 95be 749e 163f c556 f5be
00000120: c89c ad3e 2872 85be 9719 ebbe cb0a 873f
00000130: 4420 0dbf 62ac b53f e166 f23e 4f2f 82be
00000140: cd7e 2d3f bcaf 013f 1ef9 33bf 195e 9d3e
00000150: 3ec3 aabe 4bd1 0abf d69d b8be d46d 053f
00000160: 15fa 11bf 9bba 93bd 9117 81bd e911 1fbf
00000170: 118d 87bc d39d 793f a0f8 79be f69f 0e3f
00000180: 949c 083f 1bd8 96be 13e3 413f 331b ca3d
00000190: 96f7 75be 74fc 5dbe bfc6 0dbe 906e 60bf
000001a0: 5ff0 79be 584e 54be 5472 b53e 0d3a 3a3e
000001b0: 6466 223f a6ec 8f3c 6d04 7cbe 37f1 efbd
000001c0: a38f 12bf 7a79 8cbd f90b d8be 2eea 78be
000001d0: fdd7 02bf 0b49 80be baea 3b3e 8c86 f1be
000001e0: ae44 0f3f 2b30 1e3b 7b51 023e edb8 cb3e
000001f0: 5112 33be 133d 40be 006c f2be cd26 263f
00000200: 5635 92be 1ef6 a53c 5595 9bbe 2796 1c3f
00000210: d038 e63e e643 ee3d 58f8 883d 0fe1 d6bc
00000220: c355 863e 06fe 0d3e 02d5 7d3f 5705 dd3d
00000230: e544 b9bd 9486 9a3d 9529 21bf 1d11 91be
00000240: 2487 83be a746 12be 9099 abbe c973 9f3f
00000250: b56d 973e bc22 563f d53d ce3e da29 7bbe
00000260: c67a c8be 8d31 27bf 329e b9be a957 4a3f
00000270: 4b5c c3be 5a07 f13e a698 dabe ed3b eabe
00000280: 8d0a 5fbe e4ba 97bd 16a9 72be 5063 8fbe
00000290: d14b a23e d004 b0be 7061 663e 0b01 05bf
000002a0: 6c50 5b3f ce24 493f 0c78 6cbe ca55 f13c
000002b0: bc54 2bbf 2204 c9be 9e84 e4be dc4f 50be
000002c0: ea27 b83d a264 2abe 7479 afbe 8213 4d3e
000002d0: c6e0 c83e 04bb b73e 04f2 953e af4c 243f
000002e0: c1ca 2c3f 23f5 d93d e0ed a7be 39b2 8e3d
000002f0: f342 0a3f 1de5 de3d c4d0 28bf d447 a7bd
00000300: 33f8 87bc 6562 133e e5df abbd 9591 953d
00000310: ff40 71be 3d2f 96be cbbb ea3e a08a a0be
00000320: d4a4 e1bc 402d 9d3d e87a 043e 1eae 083f
00000330: 7510 0fbf ee51 273f bf52 f43e 46a7 debe
00000340: a988 2b3d 5155 323f 852c 783e ed3d 993e
00000350: 77c1 c5be 2ec1 5b3e 5ef0 05bf 0cb0 233f
00000360: 6471 81bd 6313 8cbd 9950 f33e 36e5 f8be
00000370: a08c ee3d 539b dfbe d804 c2be f8e3 ec3e
00000380: 71eb b73e 4a67 1c3e 5738 733f b738 0e3e
00000390: 2dc4 c43e e565 a5be b613 67bd 19af b2be
000003a0: 17e0 ffbe 2b00 9abe a43c 443f 64db e0be
000003b0: 6c82 07be 56ee 413d bac0 30be b76a 43be
000003c0: 6af2 a43d 7668 37be 53be 85bd bb7d 45bf
000003d0: bd31 0ebf 8ad7 bcbe ce01 773e e4c5 78be
000003e0: e01f 2e3f 29da b3bd 721a c83e 6c11 1dbc
000003f0: f4d1 253f 2e7e 37bf 6105 983e 5bb5 96be

fc3.bias f4 [4]
-0.030932212 0.04165867 0.052888192 0.06928476
00000000: 8d65 fdbc 48a2 2a3d 4aa1 583d 2be5 8d3d

fc1.weight f4 [256, 8]
-0.54553616 0.9780157 1.1864028 -0.79127574 -0.037643045 0.06658932 0.66003966 1.4474195
-0.40690765 0.18857296 0.31891677 0.33617234 1.7907947 -0.6493321 -0.5980421 0.16811842
0.8638153 -0.77498466 -0.36921194 0.4094533 -1.0221691 1.0292728 0.49302322 -0.82720804
0.5736429 -0.4501205 -0.8118589 -0.34988326 1.1362824 0.98206073 0.028003443 1.075604
1.0341475 0.8471968 0.92864937 0.16626401 0.27115303 -0.6750256 -0.1657848 -0.8766259
-0.29260322 -1.336187 -0.3669707 -0.65233076 -0.034246497 -0.7437168 -0.23075102 0.09518314
1.1047407 -1.432567 -0.14764969 -0.03467272 -0.14036714 -0.009765796 -0.43363267 0.7171153
0.7372673 -0.50345397 0.33619693 0.9231603 -1.4306507 0.80924976 -0.30974343 -0.18734051
-0.3669375 0.3117232 -0.11204605 -0.6881837 -0.31138706 -0.8175529 -1.3708698 -0.60032195
-1.2801285 0.5731035 -0.6403802 0.4216747 0.68690604 1.3096185 1.0336703 -0.7844281
0.0310398 0.4930207 -0.6881435 -0.25270304 1.2540594 -0.5299048 0.18882889 0.13918643
0.08591709 -2.841383 -0.026011162 -0.5394002 0.44782358 0.25544825 0.7013197 0.07018213
1.0751241 -0.12949526 -0.82229686 0.24279076 -1.2119656 1.2038766 1.0103482 -0.13061972
-0.37191138 0.64971083 0.8576568 -0.77440065 -0.8355514 -0.8689398 0.7400228 0.24222475
0.4001749 -0.0062472275 -0.35476235 -0.39193207 -0.42292902 -0.83222896 -0.7400245 0.3253541
-0.7065264 0.86069137 -0.42847648 -0.11618962 0.12975316 0.46278915 -0.100044586 -0.5049711
0.19765171 0.055548973 1.0611552 0.50842917 0.8393623 -0.09824412 -0.3774031 0.5141104
-0.8702855 -1.3496085 0.63447756 -0.008197277 -0.4764949 -1.16434 0.39840597 -0.114466935
0.1044289 -1.345948 0.7710718 0.533422 0.15423962 -0.22894134 0.6122772 1.2175452
0.76073545 -1.7999285 0.6600087 -0.40057155 0.42469856 0.1728209 1.0767794 0.59563416
0.37496823 -0.7052619 0.15770112 -0.66546845 -0.6869854 -0.28729114 0.022518946 0.25789797
0.37567002 -0.5486152 -0.86125726 -0.4054454 0.44868022 0.589449 0.5015705 0.8936908
0.8910422 -0.59253395 0.58028907 0.59121495 0.26547775 -0.5270022 -0.050158292 0.5979821
-0.85334086 0.13066332 0.39232844 -0.1934032 -0.0021243594 -0.26258433 0.43473062 1.2492177
0.25745744 -0.8804155 0.20031382 -0.64883137 0.5872664 -0.13162313 -0.5163928 -0.94711703
0.12809198 -1.3505394 0.46610233 -0.46240205 0.41760135 -0.65950465 0.7440962 0.06347388
0.45149353 -1.6838108 -0.6587033 -0.9519973 1.1243517 1.6640252 0.23561029 -0.3338969
0.06077276 -1.8948901 0.302557 -0.06340761 -1.1461118 0.90963805 -1.2302704 0.40368348
-0.53765035 1.2018422 -0.24660334 0.0093479045 0.18651627 0.18359797 0.31716433 0.2497247
-0.26763335 -0.23980507 -0.19206692 -0.30789557 1.19477 0.2658543 0.08679724 0.9450012
-0.4502542 -0.15165953 -0.17095035 1.0423105 -0.14625908 -1.0465856 -0.47988382 -0.86845905
0.3583844 1.2548975 0.39296126 0.41072738 -0.051344547 -0.9368862 -0.14022489 -0.8804951
00000000: 42a8 0bbf 3d5f 7a3f 0cdc 973f 0c91 4abf
00000010: 982f 1abd fb5f 883d 5cf8 283f 0b45 b93f
00000020: 3356 d0be 4519 413e 0f49 a33e c81e ac3e
00000030: c338 e53f a13a 26bf 4919 19bf 3c27 2c3e
00000040: 0023 5d3f 6565 46bf 5909 bdbe dda3 d13e
00000050: 70d6 82bf 36bf 833f 8a6d fc3e e8c3 53bf
00000060: 43da 123f 3276 e6be fcd5 4fbf e623 b3be
00000070: b471 913f 5568 7b3f 7a67 e53c 64ad 893f
00000080: f25e 843f e4e1 583f f7bb 6d3f 1d41 2a3e
00000090: 92d4 8a3e 7ace 2cbf 7ec3 29be 8e6a 60bf
000000a0: 17d0 95be 2d08 abbf 95e3 bbbe 26ff 26bf
000000b0: 0e46 0cbd 3964 3ebf ff49 6cbe 61ef c23d
000000c0: 2568 8d3f 5b5e b7bf 7b31 17be fb04 0ebd
000000d0: 67bc 0fbe b800 20bc 1a05 debe de94 373f
000000e0: 8dbd 3c3f 5ce2 00bf 0122 ac3e 3c54 6c3f
000000f0: 901f b7bf fe2a 4f3f b196 9ebe 31d6 3fbe
00000100: 3bdf bbbe 2f9a 9f3e 6678 e5bd cf2c 30bf
00000110: 206e 9fbe 264b 51bf a978 afbf b3ae 19bf
00000120: 40db a3bf e9b6 123f f5ef 23bf bfe5 d73e
00000130: 13d9 2f3f 94a1 a73f 4f4f 843f 48d0 48bf
00000140: 2e47 fe3c 366d fc3e 2c2a 30bf 4b62 81be
00000150: 0585 a03f d7a7 07bf 5c5c 413e e386 0e3e
00000160: 4df5 af3d 38d9 35c0 5c15 d5bc 2216 0abf
00000170: 2249 e53e 1dca 823e b089 333f a6bb 8f3d
00000180: ab9d 893f 689a 04be 0c82 52bf 249e 783e
00000190: b021 9bbf a118 9a3f 1753 813f 2dc1 05be
000001a0: 2b6b bebe 7353 263f 658f 5b3f 1f3f 46bf
000001b0: b2e6 55bf d772 5ebf 2272 3d3f c409 783e
000001c0: b9e3 cc3e 8bb5 ccbb 69a3 b5be 52ab c8be
000001d0: 278a d8be f50c 55bf 3f72 3dbf d094 a63e
000001e0: eade 34bf 4556 5c3f 4561 dbbe d3f4 edbd
000001f0: 03de 043e b3f2 ec3e 2de4 ccbd c945 01bf
00000200: 3665 4a3e 5287 633d efd3 873f 6a28 023f
00000210: 73e0 563f 3734 c9bd fb3a c1be bd9c 033f
00000220: 08cb 5ebf f9bf acbf 1f6d 223f df4d 06bc
00000230: 24f7 f3be 1809 95bf defb cb3e a46d eabd
00000240: d2de d53d 0648 acbf f664 453f 588e 083f
00000250: fef0 1d3e 996f 6abe 33be 1c3f 85d8 9b3f
00000260: 8fbf 423f 0f64 e6bf 55f6 283f b717 cdbe
00000270: 1772 d93e f6f7 303e e8d3 893f 7b7b 183f
00000280: d6fb bf3e 0b8c 34bf 677c 213e 245c 2abf
00000290: 46de 2fbf d317 93be a779 b83c 340b 843e
000002a0: d257 c03e 0c72 0cbf 5b7b 5cbf 8a96 cfbe
000002b0: 6ab9 e53e 21e6 163f ed66 003f ecc8 643f
000002c0: 571b 643f 4eb0 17bf d38d 143f dd59 173f
000002d0: b3ec 873e 9ee9 06bf c872 4dbd 5b15 193f
000002e0: 8c74 5abf 9bcc 053e 46df c83e 7d0b 46be
000002f0: d638 0bbb 7471 86be 0395 de3e 5ee6 9f3f
00000300: 76d1 833e e962 61bf 111f 4d3e d019 26bf
00000310: 1757 163f 37c8 06be 5232 04bf 4376 72bf
00000320: 8b2a 033e 7ade acbf f7a4 ee3e f6bf ecbe
00000330: d8cf d53e 4cd5 28bf 177d 3e3f 98fe 813d
00000340: 292a e73e 1d87 d7bf c8a0 28bf 18b6 73bf
00000350: c2ea 8f3f c7fe d43f d343 713e 89f4 aabe
00000360: dcec 783d c28b f2bf c0e8 9a3e d9db 81bd
00000370: cbb3 92bf 0ade 683f 8079 9dbf 9aaf ce3e
00000380: 74a3 09bf f7d5 993f 9685 7cbe f427 193c
00000390: 1ffe 3e3e 1b01 3c3e 5d63 a23e d5b7 7f3e
000003a0: 3d07 89be 768f 75be 31ad 44be 7da4 9dbe
000003b0: 39ee 983f 0e1e 883e c0c2 b13d 99eb 713f
000003c0: b887 e6be a34c 1bbe 9c0d 2fbe 6e6a 853f
000003d0: f1c4 15be 84f6 85bf 55b3 f5be 5553 5ebf
000003e0: 297e b73e 7ba0 a03f 3832 c93e dc4a d23e
000003f0: a94e 52bd c6d7 6fbf 1d97 0fbe 2068 61bf

fc1.bias f4 [256]
0.020028735 0.25985748 0.0017847001 0.27210695 0.067494206 -0.04738217 -0.12852648 0.24909644
0.10116457 -0.20874685 0.070334144 0.008870747 -0.2112234 0.212124 -0.110014394 0.13858443
0.017051877 -0.002838983 0.13788307 0.062304508 -0.05103603 0.3474703 0.13843162 0.1476669
0.11666186 -0.0073087155 0.17520039 0.037034567 0.36475194 0.2026236 -0.24980816 -0.075688854
0.012190595 0.10621085 -0.3511437 -0.051716965 -0.055781353 0.33428845 -0.032877937 -0.07409082
-0.042751946 0.18998349 0.22615397 -0.022388835 0.07404392 0.14933112 0.014748197 0.3883097
0.19721948 0.06835946 0.16863829 -0.12976845 0.1058441 0.20320939 0.054771025 0.18966317
0.11460409 0.5063247 0.1925979 0.0007213448 -0.29856056 0.0463157 0.20404156 0.09374348
0.08376421 -0.016633555 0.2429131 -0.036822923 0.18563423 0.022502217 0.1307254 0.014583117
0.15818545 0.04703852 0.32420978 0.16281617 -0.07081495 -0.3618927 0.29130918 0.082853526
0.34676516 0.4223695 0.0626243 0.25870427 -0.1621001 -0.09022566 0.12018492 -0.10264379
0.2800311 0.10646021 0.11523666 0.18873712 0.002718405 0.17869596 -0.005072495 0.24595594
0.27381167 0.075224064 0.15015395 -0.019994956 0.108077854 -0.031033639 -0.13732092 0.21046346
0.19247137 0.23110577 0.1172049 0.06174598 0.04511323 0.38672057 0.1058967 0.03297683
0.2242708 -0.00426684 -0.04604535 -0.028669668 0.14626011 0.022229688 -0.37125802 0.29209894
0.061176986 0.33610913 0.13873667 0.06747139 0.19267209 0.015437546 0.14817297 0.16153713
0.1524504 0.18988287 0.4206945 -0.11520788 0.450959 0.22100501 -0.019255964 0.25292572
-0.041192282 0.0018569018 0.017061515 -0.0920551 0.031201264 0.30845392 0.14588235 -0.0059858644
0.1502082 0.14815699 0.11026035 0.09758292 0.06371966 0.2426768 0.32967073 0.1039466
0.2966422 0.11042757 0.16837467 0.079841435 0.3228693 -0.14012584 -0.03278982 -0.27930617
0.13270855 0.40986094 -0.2458061 -0.031265505 0.035455618 -0.15508181 0.17058146 0.14472091
0.18704596 -0.08976276 0.19160417 0.14006934 0.16133763 -0.017386805 0.2639929 0.08403963
0.008132229 -0.10812361 0.1229758 0.16383368 0.04493592 0.39799297 -0.043275166 0.15233229
0.008119115 0.24096689 0.21924357 0.21319255 0.33894154 0.18382734 -0.13871075 -0.009717471
0.21148759 0.07794357 0.16115019 0.035137493 0.33995837 0.052811112 0.12995306 0.1635056
0.019906305 -0.019811388 0.107258365 -0.09412974 0.007848304 -0.06774285 0.37780142 -0.013051588
-0.00088731636 0.22887196 -0.5227893 0.11340889 -0.09390119 0.03825867 -0.14068405 -0.03543699
0.21316835 -0.12979057 0.23876113 0.09337464 -0.21183032 -0.21200587 0.1577975 0.17585343
0.2804597 0.25147456 -0.0040602884 0.19422756 -0.11056032 -0.19349355 0.1504002 0.3307152
0.08043037 -0.034111597 0.21310464 0.35997376 0.26752293 0.09365522 -0.013687266 -0.08467104
0.13672838 0.38214692 -0.14499846 -0.057266902 0.21077366 -0.009514877 0.2727114 -0.34496996
0.13773951 0.09583977 0.05241685 0.19539467 0.12703851 -0.07206629 0.015640393 0.40503162
00000000: 4d13 a43c 0a0c 853e 99ec e93a 9a51 8b3e
00000010: 673a 8a3d ce13 42bd 729c 03be 2313 7f3e
00000020: 5f2f cf3d bcc1 55be 590b 903d 9c56 113c
00000030: f24a 58be 0937 593e 3a4f e1bd 14e9 0d3e
00000040: 61b0 8b3c 3b0e 3abb 3831 0d3e 0333 7f3d
00000050: 280b 51bd a1e7 b13e 05c1 0d3e fe35 173e
00000060: 6aec ee3d f37d efbb bb67 333e 8fb1 173d
00000070: c4c0 ba3e 907c 4f3e b6cd 7fbe c202 9bbd
00000080: 10bb 473c 1385 d93d 1bc9 b3be 2bd5 53bd
00000090: fd7a 64bd db27 ab3e 04ab 06bd eebc 97bd
000000a0: aa1c 2fbd 088b 423e e894 673e ca68 b7bc
000000b0: 57a4 973d 42ea 183e 6ca2 713c 87d0 c63e
000000c0: e7f3 493e 0b00 8c3d 84af 2c3e 05e2 04be
000000d0: cbc4 d83d 1f16 503e 9557 603d 1037 423e
000000e0: 8db5 ea3d 7f9e 013f 6238 453e a118 3d3a
000000f0: eedc 98be 88b5 3d3d 45f0 503e 95fc bf3d
00000100: 928c ab3d 1843 88bc 36be 783e a2d3 16bd
00000110: e616 3e3e 9256 b83c e1dc 053e 07ee 6e3c
00000120: 5efb 213e 77ab 403d d3fe a53e 48b9 263e
00000130: 6e07 91bd 004a b9be 7a26 953e 1caf a93d
00000140: 348b b13e d140 d83e 2b41 803d e374 843e
00000150: 92fd 25be 3bc8 b8bd 8323 f63d e836 d2bd
00000160: 3d60 8f3e d007 da3d 3301 ec3d 4e44 413e
00000170: 4527 323b 13fc 363e 2c37 a6bb e0db 7b3e
00000180: 0b31 8c3e 130f 9a3d f5c1 193e 76cc a3bc
00000190: ec57 dd3d 423a febc db9d 0cbe bc83 573e
000001a0: 3717 453e fea6 6c3e 1f09 f03d 5ae9 7c3d
000001b0: a6c8 383d 3d00 c63e 5ee0 d83d b612 073d
000001c0: 3fa7 653e d9d0 8bbb 0d9a 3cbd a7dc eabc
000001d0: 36c5 153e 091b b63c 8815 bebe fe8d 953e
000001e0: b894 7a3d 7f16 ac3e fc10 0e3e 712e 8a3d
000001f0: d54b 453e c3ed 7c3c a8ba 173e fd69 253e
00000200: f51b 1c3e a870 423e 4565 d73e 1cf2 ebbd
00000210: 19e4 e63e 234f 623e afbe 9dbc 7b7f 813e
00000220: 3db9 28bd 4963 f33a 97c4 8b3c 6287 bcbd
00000230: cb99 ff3c aced 9d3e 2f62 153e 1225 c4bb
00000240: 2ed0 193e 77b6 173e 2ed0 e13d 8ed9 c73d
00000250: 747f 823d 4480 783e 9aca a83e f4e1 d43d
00000260: 7de1 973e da27 e23d 696a 2c3e e883 a33d
00000270: 204f a53e 267d 0fbe 9e4e 06bd 3801 8fbe
00000280: c0e4 073e 4bd9 d13e 98b4 7bbe 4210 00bd
00000290: e939 113d c4cd 1ebe e8ac 2e3e b831 143e
000002a0: fa88 3f3e 8ad5 b7bd e233 443e 566e 0f3e
000002b0: b135 253e c66e 8ebc 142a 873e f81c ac3d
000002c0: 0a3d 053c e96f ddbd bcda fb3d 04c4 273e
000002d0: ba0e 383d bcc5 cb3e 4d41 31bd fffc 1b3e
000002e0: 0906 053c 06c0 763e 6381 603e 264f 5a3e
000002f0: bf89 ad3e 3c3d 3c3e 310a 0ebe 0736 1fbc
00000300: 3490 583e e1a0 9f3d 8e04 253e 55ec 0f3d
00000310: 060f ae3e 7750 583d 6a12 053e 036e 273e
00000320: 8c12 a33c 7e4b a2bc 46aa db3d 18c7 c0bd
00000330: 2c96 003c c3bc 8abd 306f c13e 54d6 55bc
00000340: cb9a 68ba 695d 6a3e 85d5 05bf ec42 e83d
00000350: 444f c0bd 20b5 1c3d 7b0f 10be 6126 11bd
00000360: ce48 5a3e d2e7 04be cc7d 743e 343b bf3d
00000370: 0cea 58be 1118 59be ab95 213e ec12 343e
00000380: 6a98 8f3e 46c1 803e 2b0c 85bb 97e3 463e
00000390: 736d e2bd 2c23 46be 8302 1a3e 8153 a93e
000003a0: aeb8 a43d 9ab8 0bbd 1a38 5a3e 7b4e b83e
000003b0: c4f8 883e 4fce bf3d 8e40 60bc 0368 adbd
000003c0: 8602 0c3e c3a8 c33e 7a7a 14be b390 6abd
000003d0: 0dd5 573e 49e4 1bbc d4a0 8b3e e79f b0be
000003e0: 960b 0d3e a447 c43d 0db3 563d 8a15 483e
000003f0: 6216 023e 7e97 93bd 4820 803c 4e60 cf3e

fc2.weight f4 [128, 256]
-0.07137101 -0.121517695 0.05123857 0.17611031 0.1845408 0.004846312 -0.14394861 -0.27696294
0.014589991 0.2018569 -0.10526638 0.18210277 0.04812898 -0.097681634 0.24378788 0.10770089
-0.7620313 -0.04126068 -0.40615276 0.04020323 0.20583045 0.06559643 -0.47383103 0.019505825
-0.009753963 -0.029289378 0.10386195 -0.14763533 0.1338434 0.113391 0.1281867 0.14387564
0.19523244 0.10448429 0.11360139 -0.025238018 0.09499103 -0.12166518 0.23866592 0.17348595
0.13896129 -0.23007287 -0.2199605 0.20268205 -0.1732667 0.079736434 0.14590715 0.0027421007
0.12706071 0.105194345 -0.10538737 -0.03428212 0.11435939 -0.17796566 0.20749588 -0.14216253
-0.14374004 -0.22344136 -0.3702989 0.046244252 0.42411363 -0.15561482 0.36916113 0.03826454
0.09683152 0.054769978 -0.13595332 -0.292188 -0.22228442 -0.018574756 -0.08513924 0.13281488
-0.018527344 0.01662526 -0.07774024 0.17714685 0.12604345 0.33809355 -0.10100765 0.2278793
0.02064496 -0.04120926 0.32274598 0.111945644 0.78106683 0.045095924 -0.13339096 -0.016343547
0.039251998 -0.011832342 -0.21317725 -0.116812244 0.080429114 -0.3274133 0.044475157 -0.16638385
0.23732196 0.3574316 -0.049861275 -0.15614106 -0.049440093 0.10251267 -0.015969368 0.14856271
-0.020666813 0.14716156 0.07664546 0.17537771 -0.09443412 -0.07750586 0.18238334 0.24686132
-0.059011962 0.11965806 -0.00209802 0.35010615 0.023875123 -0.1919779 0.08285409 -0.098644845
0.12304628 0.22151674 0.39734408 0.44678128 0.02115959 -0.07672833 -0.15664613 0.120724134
-0.02445917 -0.030003605 -0.052546546 0.23812696 -0.3595996 -0.44062814 0.09682491 0.07509936
0.104564294 0.033428356 0.17585145 0.19317871 0.33625257 -0.1027308 0.20068634 -0.07002868
-0.0007725908 0.051761623 -0.27278817 -0.1702929 0.033127777 -0.035579927 -0.35209724 0.13239406
-0.78625345 -0.101048246 -0.14800256 0.030180415 0.08760494 0.04932616 0.58179337 0.0039976607
0.05154466 0.06769092 0.13766856 0.12833376 0.034682 0.030502722 0.0057150493 0.040449496
0.05873018 -0.18737563 -0.12968357 0.3328688 0.13810956 -0.58515173 0.20986982 -0.15533169
0.08650419 0.32058755 -0.11948664 -0.0165986 -0.08425413 -0.058418818 0.057198405 -0.023735557
-0.2128891 0.109554656 0.04862695 0.033741213 0.055115633 -0.06038384 0.080109544 0.15086095
-0.09713733 -0.018872567 -0.093121156 0.08845059 0.07601818 0.1990133 -0.282432 0.19123167
-0.18672734 0.121341266 0.002663823 0.013418739 0.19906995 0.25499758 0.07909481 0.09888402
-0.10824937 -0.044803113 0.1997915 0.17152114 0.024989486 -0.12574278 -0.019240614 0.02580547
0.18327864 -0.02245039 -0.18838239 -0.057905644 -0.20788278 0.11891986 0.11924765 0.10174595
-0.0692171 0.04067827 0.17757669 -0.04791671 0.24365349 0.21523735 0.10112603 0.10017648
0.109655805 -0.052379906 0.042933594 -0.019909054 0.24851863 0.1314306 -0.010826744 0.22311169
0.24532774 0.10396275 0.79965734 0.0960012 0.019733354 0.06819681 0.13661875 0.12580207
0.028082704 0.24178523 -0.06959963 -0.037991364 0.109030426 0.08466393 0.012584925 0.09311778
00000000: f72a 92bd 45de f8bd 89df 513d 4356 343e
00000010: 43f8 3c3e d0cd 9e3b 4467 13be 16ce 8dbe
00000020: dc0a 6f3c 93b3 4e3e e695 d7bd 2679 3a3e
00000030: e522 453d 4f0d c8bd 88a3 793e 4992 dc3d
00000040: 7c14 43bf f500 29bd 41f3 cfbe 24ac 243d
00000050: 38c5 523e 6c57 863d fb99 f2be aeca 9f3c
00000060: 16cf 1fbc 47f0 efbc 93b5 d43d b72d 17be
00000070: 3f0e 093e 8a39 e83d 6043 033e 2354 133e
00000080: 03eb 473e dcfb d53d d8a7 e83d f6bf cebc
00000090: a88a c23d 982b f9bd d764 743e 4da6 313e
000000a0: de4b 0e3e 3998 6bbe 533d 61be e28b 4f3e
000000b0: d36c 31be db4c a33d af68 153e d1b4 333b
000000c0: 341c 023e 2270 d73d 55d5 d7bd 696b 0cbd
000000d0: 4235 ea3d a13c 36be cd79 543e 0e93 11be
000000e0: 9730 13be d0cd 64be d197 bdbe 9d6a 3d3d
000000f0: 6c25 d93e 7e59 1fbe b002 bd3e 47bb 1c3d
00000100: 9b4f c63d 7c56 603d 5937 0bbe aa99 95be
00000110: 879e 63be 162a 98bc 7b5d aebd a000 083e
00000120: a8c6 97bc b231 883c 4636 9fbd fc65 353e
00000130: 8911 013e 991a ad3e 19dd cebd 3159 693e
00000140: 9f1f a93c 0acb 28bd f63e a53e c243 e53d
00000150: fff3 473f 81b6 383d a497 08be e7e2 85bc
00000160: b4c6 203d 70dc 41bc 234b 5abe 423b efbd
00000170: 05b8 a43d b7a2 a7be 952b 363d 8760 2abe
00000180: 8704 733e 4601 b73e 563b 4cbd 71e3 1fbe
00000190: b281 4abd 2af2 d13d 31d2 82bc d320 183e
000001a0: 734d a9bc 85b1 163e 4cf8 9c3d 3796 333e
000001b0: ad66 c1bd 64bb 9ebd b3c2 3a3e 37c9 7c3e
000001c0: 87b6 71bd 490f f53d ef7e 09bb 1d41 b33e
000001d0: c395 c33c db95 44be 68af a93d 4f06 cabd
000001e0: b0ff fb3d 49d5 623e af70 cb3e 84c0 e43e
000001f0: e056 ad3c be23 9dbd d867 20be 373e f73d
00000200: 995e c8bc 1fca f5bc 0c3b 57bd 8ed7 733e
00000210: 701d b8be 039a e1be 234c c63d b1cd 993d
00000220: ce25 d63d 2cec 083d 6712 343e a4d0 453e
00000230: 4c29 ac3e 8764 d2bd b880 4d3e 326b 8fbd
00000240: b187 4aba ff03 543d e4aa 8bbe 4361 2ebe
00000250: feb0 073d 42bc 11bd 1746 b4be 4f92 073e
00000260: e847 49bf 62f2 cebd fc8d 17be eb3c f73c
00000270: 386a b33d 3a0a 4a3d 69f0 143f cffe 823b
00000280: 7e20 533d 89a1 8a3d fdf8 0c3e ed69 033e
00000290: b60e 0e3d d8e0 f93c 4f45 bb3b 5fae 253d
000002a0: 0f8f 703d 66df 3fbe c5cb 04be c86d aa3e
000002b0: 986c 0d3e 81cc 15bf 1de8 563e 450f 1fbe
000002c0: 1c29 b13d 0d24 a43e 69b5 f4bd caf9 87bc
000002d0: 6e8d acbd 9248 6fbd e048 6a3d 1271 c2bc
000002e0: 9aff 59be 315e e03d 0d2d 473d 3a34 0a3d
000002f0: eec0 613d 0c55 77bd 7910 a43d 4b7b 1a3e
00000300: f0ef c6bd a49a 9abc 4eb6 bebd 9525 b53d
00000310: 6baf 9b3d 24ca 4b3e ed9a 90be 3cd2 433e
00000320: 7435 3fbe c581 f83d 8993 2e3b 45da 5b3c
00000330: fed8 4b3e 0b8f 823e 76fc a13d b483 ca3d
00000340: d8b1 ddbd 7883 37bd 2596 4c3e 3da3 2f3e
00000350: c0b6 cc3c b7c2 00be 7e9e 9dbc fe65 d33c
00000360: 65ad 3b3e e1e9 b7bc 50e7 40be 782e 6dbd
00000370: 39df 54be 418c f33d 1d38 f43d 2e60 d03d
00000380: b2c1 8dbd 429e 263d aad6 353e 5044 44bd
00000390: 4d80 793e 2e67 5c3e 2a1b cf3d 5429 cd3d
000003a0: 3993 e03d 508c 56bd 23db 2f3d 5018 a3bc
000003b0: ab7b 7e3e be95 063e a862 31bc 6477 643e
000003c0: 3237 7b3e 6cea d43d 58b6 4c3f 479c c43d
000003d0: d8a7 a13c c5aa 8b3d c9e5 0b3e 42d2 003e
000003e0: b30d e63c 8c96 773e 408a 8ebd d59c 1bbd
000003f0: 584b df3d 4864 ad3d 0031 4e3c 89b4 be3d

fc2.bias f4 [128]
-0.09575602 -0.010981796 -0.11350127 0.15290058 0.18839653 0.013655379 0.08346341 -0.014932128
-0.0033107228 0.11705563 0.12893458 0.040799826 0.19604233 -0.009849467 0.0053721974 -0.008122596
0.03174252 -0.092548266 -0.05098258 -0.0034521911 0.07470565 0.21113196 0.18881206 -0.043696992
0.0035265824 -0.059823096 -0.06845249 0.039744645 -0.0814867 0.18679179 -0.15519944 0.09818562
0.08113511 -0.059374444 0.07181466 -0.07748395 0.13535547 -0.0121297 0.083409004 -0.07936392
0.096395425 0.19919983 0.028191967 0.051795393 -0.041916396 0.0916297 0.042115383 -0.06389478
-0.007293497 0.13076095 -0.07767578 0.043055587 0.14959303 0.22062868 -0.0034587958 0.0053586555
0.00035869784 -0.014937092 -0.07290079 -0.020387158 0.022579722 -0.0116721615 -0.07794346 -0.08917847
-0.0106549 0.0673836 0.01106931 -0.017234178 -0.084364384 0.048403546 0.21123037 0.03788933
0.004492375 0.0 -0.06105852 0.07130687 -0.080389254 0.124045976 0.15052438 -0.06383529
0.03783501 0.21224861 0.19943753 -0.018436905 -0.011231454 -0.042187717 0.051766094 0.13408802
-0.09599382 -0.008434937 0.12695439 -0.079123504 -0.004979111 0.001714572 0.031676296 0.120328255
-0.0026244652 0.032296766 0.115227394 -0.010208326 -0.041906238 -0.06866657 -0.01482729 -0.087413035
0.08808687 -0.08454997 -0.018933382 -0.12000291 0.08065839 -0.038505167 -0.09564168 -0.08687125
-0.040474914 0.14785516 0.115284115 -0.124689125 0.009029673 0.050560497 0.0093681095 0.03427833
0.16000019 -0.011595164 0.115632445 0.17206931 0.056147717 -0.0049920953 -0.21489705 0.11678555
00000000: bb1b c4bd feec 33bc 5b73 e8bd f891 1c3e
00000010: 05eb 403e d0ba 5f3c ddee aa3d e2a5 74bc
00000020: b6f8 58bb ddba ef3d 6d07 043e b81d 273d
00000030: 52bf 483e a95f 21bc 4209 b03b a314 05bc
00000040: 7204 023d f289 bdbd 1cd3 50bd 283e 62bb
00000050: 47ff 983d fa32 583e f357 413e 9efb 32bd
00000060: 3c1e 673b 1009 75bd d230 8cbd 48cb 223d
00000070: 80e2 a6bd 5946 3f3e 9aec 1ebe 8b15 c93d
00000080: 2a2a a63d 9e32 73bd 9113 933d e8af 9ebd
00000090: a09a 0a3e a6bb 46bc 57d2 aa3d 8d89 a2bd
000000a0: f76a c53d 0afb 4b3e d7f2 e63c 6827 543d
000000b0: 87b0 2bbd 5aa8 bb3d 2e81 2c3d 44db 82bd
000000c0: 4afe eebb 33e6 053e 7b14 9fbd 0e5b 303d
000000d0: ea2e 193e 7cec 613e f7ac 62bb a997 af3b
000000e0: 9c0f bc39 b4ba 74bc 024d 95bd f802 a7bc
000000f0: 1cf9 b83c 983c 3fbc d2a0 9fbd 34a3 b6bd
00000100: e491 2ebc 6a00 8a3d 0d5c 353c b12e 8dbc
00000110: 3cc7 acbd cc42 463d c64c 583e d831 1b3d
00000120: c634 933b 0000 0000 8018 7abd 5609 923d
00000130: 1fa3 a4bd d10b fe3d 1023 1a3e 14bc 82bd
00000140: e2f8 1a3d b357 593e 5a39 4c3e fe08 97bc
00000150: 2204 38bc 07cd 2cbd af08 543d 5f4e 093e
00000160: 6898 c4bd b132 0abc 5500 023e 810b a2bd
00000170: cf27 a3bb 7dbb e03a 01bf 013d a96e f63d
00000180: 38ff 2bbb 9d49 043d 57fc eb3d d340 27bc
00000190: e0a5 2bbd 0fa1 8cbd 29ee 72bc 9b05 b3bd
000001a0: e466 b43d 8928 adbd 2e1a 9bbc 16c4 f5bd
000001b0: 3a30 a53d 98b7 1dbd c9df c3bd 8ee9 b1bd
000001c0: 06c9 25bd 5867 173e 141a ec3d 035d ffbd
000001d0: 32f1 133c 8618 4f3d b37c 193c 6f67 0c3d
000001e0: 17d7 233e a5f9 3dbc b4d0 ec3d f032 303e
000001f0: 26fb 653d bb94 a3bb f90d 5cbe 432d ef3d
