results/pcgrad_blind/models/checkpoint_ep200.pth (torch, 850414 bytes, 24 tensors)

fc1.weight f4 [256, 8]
00000000: 3f5f 28be 7b6b 9e3f 5683 a53f 6701 62bf
00000010: eea4 203e 9308 3f3d eb9a 293f ecae b03f
00000020: c747 a5be 12bc 6f3d f5fe e63e cfef ac3e
00000030: 453a ec3f 1b22 3cbf 0ad0 5abf 47cd 613d
00000040: 291b 8a3f 547a aebe a290 a2be 41eb cd3e
00000050: 763f 8ebf a335 a93f 3acf 053f 9d88 a1bf
00000060: 72a1 663e 4659 86be 1052 44bf a12d b2be
00000070: fb07 8c3f eb57 963f b3be 6b3e 6732 823f
00000080: 975d 853f a19e 6a3f c1b0 7e3f e37e ab3d
00000090: 5942 1a3e 8b7e 5abf e4fa f1bd 9c5b 6fbf
000000a0: f7b6 08bf bb50 01c0 4192 febe f4e3 3bbf
000000b0: cf2b 833a 876f 42bf b693 6cbe 489d 1b3e
000000c0: 6768 c23f 4e67 74bf 72db f8bd 4202 403e
000000d0: bc70 c93d c877 273d 49e8 0a3c 1061 4a3f
000000e0: c776 723f 4f07 1abf 7c89 e13d b330 913f
000000f0: d04f b3bf de6f 6a3f 4198 0ebe f915 92be
00000100: 1635 3fbe 1618 aa3e a310 ea3d 9036 42bf
00000110: 9224 0abf 991d 85bf f36c d7bf c186 1dbf
00000120: daa5 92bf 72cb 4c3f ebd1 36bf 5e75 043f
00000130: 895a 843f d849 a53f 4f6a a03f ea96 54bf
00000140: 2f5b c13d fb9d a43e 27e3 1fbf fdcc 5abe
00000150: 97b3 7b3f 73bf 3dbf 0f72 8d3e 8de0 c23c
00000160: 6ce4 84bd 58e5 02c0 357f 623c 86cb 34bf
00000170: f087 143f 2982 a83e a867 223f b1d6 f23d
00000180: 9341 a73f addc 8cbe f9a4 87bf b1bf 813e
00000190: 6584 97bf 6e91 9f3f ac02 873f 9177 e33d
000001a0: 8fef cebe afa0 a63f 59ce 8c3f c92a 4fbf
000001b0: f84f 67bf b4b3 3bbf 7a00 533f 9b90 113d
000001c0: 1b22 d93e 0b7c 0f3d 9db9 9bbe 72eb fabe
000001d0: ea0d e6be 4a38 4ebf 1d16 70bf 05eb da3d
000001e0: e192 6fbf 27f9 7f3f e9c7 efbe 20df 29be
000001f0: b4e2 923e eafe 353f 6639 4bbe f14c 1dbf
00000200: 0a92 d43d 3690 a73d 569b a23f ef09 153f
00000210: daee 563f 7af7 333c e0fb 27bf e5f8 b83e
00000220: 8453 81bf c258 29c0 0377 123f 2e8b 69bd
00000230: a6e9 ffbe 8754 97bf 8b9a be3e 23f4 1b3e
00000240: ef11 fbbd 646e debf 2d6f 1e3f 9302 083f
00000250: 7f91 613d a8bb 99be d54e 233f 4a13 a13f
00000260: 59b2 7a3f edb0 8ebf 9e1c 453f 7d55 edbe
00000270: 1ec5 e33e f306 b43e da2d 9d3f 7256 1a3f
00000280: 23a5 b53e f62a 70bf 7a39 8e3e d66c 20bf
00000290: 4dbe 33bf 0957 38be 409f f1bc 0b14 653e
000002a0: 5a6c 883d 4b72 e6be c702 62bf ede9 eabe
000002b0: dee7 003f 20cd 023f 4d16 203f d54e 5d3f
000002c0: dd74 923f 0139 5dbf 69b4 433f 3e4d 303f
000002d0: dd34 b43e 7846 efbe de01 b9bc 3520 bd3e
000002e0: 1b62 8bbf fff0 dd3d 1164 8b3e 6e69 2abe
000002f0: d763 b3bd 9857 75be 4e58 e23e 6ac7 9c3f
00000300: 26f8 963e 400a a4bf 83fa 6d3e bc63 31bf
00000310: 6bc5 383f 8796 10be 0be6 13bf 5526 8cbf
00000320: bb25 233c 4952 77bf a5d1 063f ff39 f0be
00000330: 8947 c33e 38fa 0cbf 8eec 753f 2f88 183e
00000340: 6d03 fe3e 6672 b2bf a2dd 04bf fb29 7ebf
00000350: 8575 a13f b292 e83f 693d 603d 340e 52be
00000360: 5db0 60bd ce0e b3bf 5e26 fc3e 1452 d2bb
00000370: 0f78 b0bf cc85 803f e87a a3bf 41d0 083f
00000380: f0f7 31bf 076a 993f 8465 3cbe b858 46bd
00000390: 761c 8a3e c3a9 633e 2958 863e deff b73e
000003a0: a6ad f9be b2fd 54be 8ae6 eebe a13b 95be
000003b0: 099c 973f 3d3a fd3c 2f89 293d 490f 683f
000003c0: 3cc3 24bf 2613 6cbe 9316 96bd 31e1 c23f
000003d0: 2109 1ebe 7b19 92bf 4e44 95be dda0 5bbf
000003e0: 62d0 e83e be0d a33f 1654 b73e 8a61 083f
000003f0: fbc4 f2bd 13d7 51bf 0c38 fe3a 0bc9 9ebf
-0.16442584 1.237655 1.2930706 -0.8828339 0.15687916 0.046639036 0.6625201 1.3803382
-0.32281324 0.058528967 0.45116392 0.3377671 1.8455282 -0.7348954 -0.8547369 0.05512741
1.0789539 -0.34077704 -0.3175097 0.40218547 -1.1113117 1.3219494 0.5226933 -1.2619816
0.22522524 -0.26239985 -0.7668772 -0.34800437 1.0939935 1.174558 0.23021965 1.0171632
1.0419186 0.916483 0.99488455 0.08373811 0.15064372 -0.8534934 -0.11815432 -0.9349916
-0.5340418 -2.0205524 -0.49720958 -0.73394704 0.0010007563 -0.7595143 -0.23103222 0.15196717
1.5188111 -0.9547013 -0.12151231 0.18750861 0.098359555 0.040885717 0.008478233 0.79054356
0.9471249 -0.601674 0.11012551 1.1342987 -1.4008732 0.91576946 -0.13925268 -0.2853239
-0.18672594 0.332215 0.114289545 -0.75864506 -0.5396205 -1.0399657 -1.6830124 -0.61533743
-1.1456864 0.7999793 -0.7141406 0.5174159 1.0340129 1.291316 1.2532443 -0.83042777
0.0944122 0.3215178 -0.6245598 -0.2136726 0.9832091 -0.74120253 0.27626082 0.023788715
-0.064888805 -2.045248 0.013824274 -0.7062305 0.58019924 0.32911804 0.63439417 0.118573554
1.3066887 -0.27512112 -1.0597221 0.2534156 -1.1837279 1.2466257 1.054769 0.1110679
-0.40417144 1.3017787 1.1000472 -0.8092466 -0.903564 -0.7332108 0.824226 0.035538297
0.42408833 0.035030406 -0.3041505 -0.49007756 -0.4493249 -0.8055464 -0.9378374 0.10689358
-0.93583494 0.9998955 -0.46832207 -0.16589022 0.28688586 0.71092093 -0.19846115 -0.6144553
0.10379417 0.08181803 1.2703655 0.5821828 0.8395821 0.010984296 -0.65618706 0.3612739
-1.0103612 -2.6460423 0.5721285 -0.057017498 -0.49982947 -1.1822671 0.37227282 0.1522985
-0.1225928 -1.7377439 0.6188839 0.5312893 0.055070397 -0.30025983 0.63792163 1.2584012
0.97928387 -1.1147743 0.7699679 -0.46354285 0.44486326 0.35161552 1.2279618 0.60288155
0.35477552 -0.93815553 0.27778226 -0.6266607 -0.7021225 -0.18001951 -0.029494882 0.22370927
0.066612914 -0.45009074 -0.8828549 -0.45881596 0.503538 0.51094246 0.6253403 0.86448413
1.1441914 -0.86415106 0.7644716 0.6886786 0.3519658 -0.4673345 -0.022583898 0.36938635
-1.0889314 0.10836982 0.27224782 -0.1664178 -0.08759277 -0.23959196 0.44207996 1.2248356
0.29486197 -1.2815628 0.23240094 -0.6929281 0.72176236 -0.14119922 -0.5777289 -1.0949198
0.009957726 -0.9660993 0.5266364 -0.46919248 0.38140514 -0.55069304 0.9606408 0.148957
0.4961199 -1.3941162 -0.51900685 -0.9928281 1.2613989 1.8169768 0.054746065 -0.2051323
-0.054855693 -1.3988893 0.49248022 -0.006418476 -1.3786639 1.0040832 -1.2771883 0.5344277
-0.6951895 1.1985482 -0.183981 -0.048424453 0.2697484 0.22232728 0.26239136 0.359374
-0.48765296 -0.20799902 -0.46660262 -0.29147056 1.1844493 0.03091156 0.041390594 0.90648323
-0.64360404 -0.2305418 -0.073285244 1.5224973 -0.1543317 -1.1414026 -0.29153675 -0.8579233
0.45471483 1.2738569 0.3580634 0.5327383 -0.11853977 -0.819688 0.0019395365 -1.2405103

fc1.bias f4 [256]
00000000: a1e6 453d 005f 813e 361a 0cbe 84a3 6c3c
00000010: 3f34 543e 5f55 5abe 1534 93be a4a5 353e
00000020: 3e50 7a3d 120f f9bd e5f0 ba3d 2315 103e
00000030: b27a 8cbe ec0c 953e a737 c4bd f4db ab3c
00000040: ccb4 24bc cda3 5bbd 3297 4f3e d9ce 80bd
00000050: c158 c3bd 731f aa3e 99d3 013e 8bdc bfbc
00000060: 63aa 373e b59f 77bd b1a8 5f3e 0ded 42bd
00000070: 0f0c ff3e af90 623e ec63 47be 5604 4cbd
00000080: 8e58 1f3e 972a e93c 58bf 12bf 0c6b 94bd
00000090: 19e4 37be 197e a83e 3e33 8ebd e2ed a7bd
000000a0: e2b4 4e3d 03f1 c53e 1bfe 66bc 3fb0 e03d
000000b0: 9a53 813d e916 503c 7d37 993c 5c95 013f
000000c0: 2c0b b13e 8907 99bc 8f1b 913e 092d 79be
000000d0: f5eb 3b3e 277c 583d b06f c9bc 6357 473e
000000e0: 0152 6a3e 7dfa 253f 7558 263e e0c0 74be
000000f0: 2150 99be 7785 963d ed10 ce3e 08f9 2cbd
00000100: c605 873c ade6 00be 9891 8b3e ca38 2fbe
00000110: 3ec0 e63d cf25 663e 0671 433e cf17 9c3d
00000120: 525e 0d3e bd2c 9cbb aa3b a83e 8362 1d3e
00000130: aa4d b7bc d057 e1be 3c2d b53e 3229 463e
00000140: 9489 e43e 3b49 063f 5039 333d 367e 213c
00000150: 1b5a 59be c2bc 46be dfab 773e 142a 1bbe
00000160: 1ddd ad3e 5156 823c 4cd2 3a3e 92ea 553e
00000170: 87fc 113e 3262 8a3e b8ae 6bbc 2eb6 e03e
00000180: c536 f13e 7c75 bf3d ff5e a93d 3859 b0bd
00000190: a447 b83d 190b 14bd 6c12 0bbe 79be 153e
000001a0: 865c 803d 0c82 543e 6f61 c2bd 377c 7dbb
000001b0: 3143 12bd 5c51 e13e 4b6a a93c 4d3b 29bd
000001c0: 10a0 8d3e 32c6 ab3d 6bf4 c3bd 72f2 acbd
000001d0: 52fe bc3d c999 11be 8227 17bf 5b0d de3e
000001e0: 128d ae3d 39e2 a53e 1a8e 063e ab5b 023e
000001f0: 38e8 5d3e 2822 893e 0271 143e aab8 573e
00000200: 59c7 b13d ab0a 953e 7a9e dd3e ec1d 06be
00000210: 5202 a63e 664e d03e 0de2 9a3d fa22 993e
00000220: 3e61 90be 95c6 693d d89d a83d 6cf5 74be
00000230: 4299 f8bc b352 b43e 2fb1 df3d b50c 1a3c
00000240: 1e6b 723e fe33 233e 3623 07bd 50fd 833e
00000250: b50a a73d 1e0b 123e fc24 833e 3f17 223e
00000260: b6b9 943e 6f18 2f3e 1b44 243e 2d12 4fbd
00000270: eec0 bb3e 50a4 82be 7e65 933d 6958 ecbe
00000280: ed72 5b3e db61 ab3e 44d1 e2bd a816 cbbc
00000290: 2f26 2a3e c076 21be ad24 663e 1fdf 523e
000002a0: 269c 983e 5b4a 6ebe 1e8b 9a3d e640 f33d
000002b0: 1d5b 913e 4aef 8cbd ef96 943e a843 293e
000002c0: a2df 2fbd bcf3 e9bd b87a 123e 1374 633e
000002d0: b6a5 8e3c 8bb8 ab3e 8c8f c5bd 09a5 473e
000002e0: 26d5 733e 0f82 9d3e a035 8e3e 587b be3d
000002f0: a04a e83e 5973 0a3e 03d2 a5be 6251 acbb
00000300: a54c 863e 52b5 ca3d d9ff ce3e 8946 333d
00000310: a070 c23e 74d2 cc3d a29c 643d 2341 d1bd
00000320: d69d 01be 2f39 0ebe a3b2 0b3e 4a48 e6bd
00000330: 2b97 f63c 33b1 913d afde f53e fb73 153e
00000340: f6ad 0d3d d33f b63e d210 4abf 3b57 583e
00000350: a095 b3bd c00e cabd 7d67 cabd d20e b3bd
00000360: e020 523e 400f 41be f84f 853e 929a 9e3d
00000370: e7cd 2dbe 6d5b 0cbe 44a6 0a3e c926 e63d
00000380: 47d0 653e 34cd 813e 6c4c e4bd 956d 8c3e
00000390: 2e56 b5bd 6ed0 aebe 9cf5 813e b7a5 1b3f
000003a0: 6210 043e 2d46 f6bd 21fa c53d 50fe a63e
000003b0: d8b9 973e 5d1e da3c a7fb 05be a56c 31bd
000003c0: 7c0a 103e a2d8 fd3e c50c d8bd dab5 0dbe
000003d0: 6d4d a33e bb1b 7f3d 1fb9 983e b8c7 0ebf
000003e0: 42a6 673e 3cbb 1c3e 9248 4e3d 48e6 5f3e
000003f0: e7a3 1c3e fc25 edbc f7e2 033c 7db3 d13e
0.048315648 0.25267792 -0.13681874 0.014443282 0.20723055 -0.21321629 -0.28750673 0.17738968
0.06111168 -0.121610776 0.09127978 0.14070563 -0.2743736 0.2911142 -0.09580927 0.020978905
-0.010052871 -0.05362301 0.2027252 -0.06289453 -0.09538413 0.3322712 0.12678374 -0.023420593
0.17936091 -0.060455043 0.21841694 -0.04758935 0.49813887 0.22125505 -0.19471711 -0.049808823
0.15561125 0.028462691 -0.5732322 -0.0724698 -0.17958106 0.32908705 -0.069433674 -0.081996694
0.050465472 0.3866044 -0.014098669 0.10971116 0.06314774 0.012700775 0.018703217 0.5061853
0.34578836 -0.01868035 0.28341338 -0.24333586 0.18351729 0.052852776 -0.02458939 0.19466929
0.22882845 0.6483534 0.16244681 -0.23901701 -0.29943946 0.07349675 0.40247288 -0.042229682
0.016482245 -0.12587996 0.27259517 -0.17111507 0.11267136 0.2247536 0.19086084 0.07621729
0.13805512 -0.0047660754 0.3285802 0.1536961 -0.0223759 -0.44012308 0.35386074 0.19351652
0.44636214 0.5245549 0.04375583 0.009856751 -0.21225779 -0.19407943 0.24186657 -0.1515277
0.3395776 0.0159103 0.18244284 0.20890263 0.14256488 0.27028042 -0.014384918 0.43888992
0.47112098 0.0934858 0.08270072 -0.08610767 0.08998039 -0.036143396 -0.13581246 0.14623441
0.062676474 0.20752734 -0.0949124 -0.0038678774 -0.03570861 0.44007385 0.020680567 -0.04131632
0.2766118 0.08387412 -0.095681034 -0.0844468 0.09228195 -0.1421882 -0.5904466 0.43369564
0.08523001 0.32399157 0.13140145 0.12730281 0.21670616 0.26783872 0.14496234 0.21066537
0.08680601 0.29109702 0.4328497 -0.13097352 0.32423645 0.40684813 0.07562647 0.29909497
-0.2819919 0.05707415 0.08233231 -0.23921746 -0.030346517 0.35219344 0.10922467 0.009402444
0.23673674 0.15937802 -0.032992564 0.257792 0.08156339 0.14262053 0.25614154 0.1582918
0.29047936 0.17099164 0.16041605 -0.050554443 0.3667063 -0.25515985 0.071970925 -0.46161202
0.2143056 0.33473095 -0.110750705 -0.024791077 0.16616128 -0.15767956 0.22474928 0.20592926
0.29806632 -0.23270552 0.07546066 0.11877613 0.28389826 -0.06881578 0.29021403 0.16529715
-0.042937882 -0.11423442 0.14304626 0.22212248 0.017413002 0.33539233 -0.0964652 0.1949655
0.23811778 0.3076329 0.27775288 0.0930087 0.45369434 0.13520564 -0.3238679 -0.005258725
0.2623035 0.09897865 0.4042957 0.04376844 0.3797655 0.10001078 0.05581344 -0.10217502
-0.12657866 -0.13889001 0.13642363 -0.11244257 0.03010138 0.07113876 0.48021457 0.14595024
0.03458973 0.3559557 -0.78931916 0.21127026 -0.08768773 -0.098660946 -0.0988302 -0.08743061
0.20520353 -0.18853474 0.26037574 0.07744326 -0.16973077 -0.13706751 0.13539988 0.112378664
0.22442733 0.2535187 -0.11147389 0.27427354 -0.08854328 -0.34143394 0.25382698 0.60799736
0.12896875 -0.12025104 0.09666849 0.326159 0.29633975 0.026625806 -0.13084279 -0.043316502
0.140665 0.4957934 -0.105493106 -0.13838902 0.3189501 0.062282305 0.29828736 -0.55773497
0.22622016 0.15305799 0.050362177 0.21865189 0.15296899 -0.028948776 0.008049718 0.4095725

fc2.weight f4 [128, 256]
00000000: 49ad dd3c 43b1 32bd f329 c0bc ec9a 333e
00000010: 7936 953e ec9a 84be b5f9 4d3e 0372 99be
00000020: fd50 8e3d 1681 9e3e 22cb 843d 227f ba3d
00000030: c0bf fd3d 5a80 16bd 7039 603e 10ab 7f3e
00000040: fba3 30bf 5222 39be 653e 81be 1d0e 5d3e
00000050: f847 273e a505 bf3d bcbf f7be 81f8 eb3d
00000060: c13c 20ba 1d0f 073c 8fc8 793d 8fda bcbd
00000070: a9a5 5e3e 9608 093e 68e1 c5bb f209 b53d
00000080: b761 ae3e 48e4 d53d c0d1 023e 93bd 04be
00000090: 7999 4e3e 3285 01be ff1e 753e 24a5 bd3e
000000a0: 428d 063b d9d4 cdbe 6771 18bf 4888 bb3d
000000b0: 91c0 2a3d d8e4 e73c 5603 043e 94cf e33b
000000c0: a883 303e 3389 6c3e a33f 90ba aa3d c93d
000000d0: 1c28 9c3e b5b6 58bc dd46 983e 1326 13be
000000e0: b483 3abe 089c b5be 4c63 c3be 2193 fa3c
000000f0: 9861 163f 199b 5bbb e344 773e cd5d c83b
00000100: 944d 353c 557c 58bd 71c6 563d a7a9 0bbf
00000110: 9d48 43be 137b 7bbd cec8 ccbd 624b de3d
00000120: 895c 10bd 9fec 613d 2ac0 d33c 6514 063e
00000130: 4f10 5e3e b9c0 343f 732f 10be e8e4 803e
00000140: 8825 6c3b e14a a5bd 1ef7 433e f5a0 a13d
00000150: 4a20 3b3f 1a84 e13d 3247 57be 47a9 f2bd
00000160: aeea 513b f718 003d 80f8 c1be fc56 e5bd
00000170: caa4 d33c 353b 8fbe 598f 8ebd 7cc2 8ebe
00000180: c730 dd3d b815 9d3e 27d4 55bd a0e4 b5be
00000190: f2a6 06be a8f3 793d 73de dbbc 9b13 343e
000001a0: 7734 263d 65e9 d03d 0a73 93bb d9ea 023e
000001b0: bd5e 29be 06d4 62bd 6a8d a43e ff55 353e
000001c0: 6723 3f3e 5f8e de3d 12ef c5bc 0287 2a3f
000001d0: 8dfa ea3b fecf 823e 9f1e 893e f53f aabd
000001e0: c328 343e b994 4c3e e1d3 c33e ed19 aa3e
000001f0: 64d6 9f3e 014f 30be 5f67 f0bd c944 8c3d
00000200: fcd5 af3c 4d6f f3be e81d 13be d3bf 6b3e
00000210: 2e90 87be 94f0 d2be 95d5 b63d 42fb fd3d
00000220: 230b 1b3e e124 b73d 0afd 973e 5487 b33e
00000230: 7e65 943e d97c 4ebd 1859 553e 6a2e 193c
00000240: 70c0 e43c 6f70 e3bd 798a a7be df6e c0be
00000250: 8b81 acbd fd99 143d 7cf6 38bf f817 003e
00000260: a1b3 0cbf 48af 0ebe af48 b1b9 d3ba a63c
00000270: ff6e cb3d cf2f 2e3e e4f5 fa3e 1b2e 87be
00000280: b95b 76bc f4c7 5f3e b2be aa3d 9655 363e
00000290: 5c1d eebd b661 a23e 91cd c63d e3c7 1c3e
000002a0: 4d8b 573e 2f4f 40be 0f36 22bd cd14 d13e
000002b0: 068d de3d 9f00 42bf bced ba3e 9658 bcbd
000002c0: d9b2 453e 0bcb 893e 96e6 54be 6148 213d
000002d0: b3cb 98bc c042 07bd bac0 063e bf17 063d
000002e0: 4516 95be e399 86bd efe4 d03d aec4 fc3c
000002f0: 958d 113e dc80 523d b574 223d 0e90 9f3e
00000300: 8aec 97be 285e 0ebe 47f7 12be 038b 5a3d
00000310: 75a2 f63d 140e 623e 5623 94be 2390 803e
00000320: 2145 713d 14e0 1e3e f6cb d2bd 8547 533e
00000330: 5db3 2b3e ce85 0a3e 9c18 643e b2ee 05bd
00000340: b60e 5abe 23ff 8cbc 9ead b53e bb11 443e
00000350: 9f3a 2dbd 2a3e 61bc 7dbe 913d 36d0 2dbd
00000360: 9017 133e a2c9 edbe 5e57 cabd 51f4 d6bd
00000370: 6d2f 60be acc2 b83d 2bd4 8e3c 5818 853e
00000380: 633d e9ba 7dc8 263e d53d 103e a82d 53bd
00000390: 6991 a83e 160d 963e dd1c 253e a56a ec3d
000003a0: 8c26 dd3d 9b1e 883e d956 a13d b98b f33d
000003b0: 46a3 903e fb20 293e 0ee6 973d b989 1b3e
000003c0: 8e22 663e aec2 813e 52cc 493f 2bbe 2b3d
000003d0: 8731 033e 9925 cabc 1d95 e53d 453a c73d
000003e0: c7d5 09be 7266 963e 88ed 7abb 07c9 4ebe
000003f0: ef11 473e 814d 69be 5d05 18bc 45c3 953e
0.027060168 -0.04362608 -0.023457503 0.17539567 0.29143122 -0.25899446 0.20114787 -0.29969797
0.06949041 0.3095786 0.06484057 0.0910628 0.12390089 -0.0367435 0.2189691 0.24967599
-0.69000214 -0.18079498 -0.25242916 0.21587415 0.16336048 0.093272485 -0.4838847 0.11522008
-0.00061125687 0.008243349 0.060982283 -0.09221374 0.21742882 0.13382182 -0.0060388334 0.088397875
0.34058926 0.10443932 0.12775326 -0.12962942 0.20175733 -0.12648466 0.23937605 0.37040055
0.0020530974 -0.40201452 -0.5954804 0.09156853 0.041687552 0.028307363 0.12891898 0.0069522355
0.17237723 0.23099212 -0.0011005293 0.098262146 0.3049935 -0.0132271545 0.29741564 -0.14369993
-0.18214303 -0.35470605 -0.38161695 0.030587735 0.58742666 -0.0033509193 0.24147372 0.0061146975
0.011065859 -0.052852947 0.052435342 -0.54555744 -0.19070669 -0.06139667 -0.09999238 0.10854222
-0.0352445 0.0551573 0.025848467 0.13093717 0.21685909 0.7060657 -0.140806 0.25174642
0.0036033113 -0.08070923 0.19137236 0.07892028 0.73096144 0.110115245 -0.21023253 -0.11848693
0.003203075 0.03127381 -0.37884903 -0.111982316 0.025835413 -0.2797486 -0.06960935 -0.27882755
0.10800319 0.30680633 -0.052204277 -0.3552599 -0.13149622 0.061023384 -0.02683947 0.17585604
0.040577378 0.102007665 -0.0044997977 0.127849 -0.16540046 -0.055377983 0.3213914 0.17708586
0.18665849 0.10866999 -0.02416185 0.66612256 0.0071709813 0.2554931 0.26781175 -0.0831298
0.17593674 0.19978608 0.38247588 0.33222905 0.31218255 -0.17217638 -0.117384665 0.06849057
0.02146434 -0.47545853 -0.14366877 0.23022394 -0.26477188 -0.41199172 0.08927456 0.12401439
0.15140967 0.08942581 0.2968524 0.35064185 0.28983682 -0.050412033 0.20834768 0.009349445
0.027923793 -0.111054294 -0.32722834 -0.37584588 -0.08423146 0.036279667 -0.72251105 0.12509143
-0.5496159 -0.13934052 -0.00033814224 0.020352757 0.0993328 0.17010425 0.49015725 -0.26402363
-0.015036517 0.2185362 0.083371535 0.17806086 -0.116266936 0.31715173 0.097071774 0.15310626
0.21049233 -0.18780206 -0.039602336 0.40836182 0.10866742 -0.757822 0.36509502 -0.09196584
0.19306506 0.26912722 -0.20791087 0.039375667 -0.018651819 -0.033022642 0.13159457 0.03273749
-0.29118553 -0.0657232 0.101999156 0.030855503 0.14214166 0.05139242 0.03966208 0.31164593
-0.29672652 -0.13903105 -0.14352141 0.05335523 0.12042705 0.22075683 -0.2893321 0.25109968
0.058903817 0.15515167 -0.10292809 0.20632751 0.1676764 0.13527605 0.22275013 -0.03269834
-0.21294674 -0.017211502 0.35484022 0.19147389 -0.042292234 -0.013747731 0.07116411 -0.042434894
0.14364457 -0.46442896 -0.09879945 -0.104958184 -0.21893091 0.09021506 0.017435154 0.25995135
-0.0017794784 0.16287418 0.14086087 -0.051557213 0.3292344 0.2930686 0.16124292 0.11543778
0.10798368 0.2658585 0.07877893 0.11891884 0.28249568 0.16516487 0.07416926 0.15189256
0.22474119 0.2534384 0.78827393 0.041929405 0.12811862 -0.024676131 0.11210082 0.09727911
-0.13460456 0.29375035 -0.0038288552 -0.20193873 0.19440435 -0.22783472 -0.009278622 0.2925054

fc2.bias f4 [128]
00000000: 95bc 2abd feec 33bc f4e4 eebc 262b e93d
00000010: 4c3b 1b3e 965b eebd e356 063e e2a5 74bc
00000020: fa82 0fbd e9be fc3d 8f7b 173d 8dc7 e33c
00000030: 75f1 8a3e a95f 21bc 8818 5d3d e5df aa3d
00000040: 1f77 e63d cdf7 22be b5c1 143d a5dd 9a3c
00000050: 0c95 f13b eeea ae3d ff91 073e 956a 5bbb
00000060: 94e2 163e 4e7f af3d 71cf 91bc be2e 2f3b
00000070: 8293 953c 36f4 a03e d39b 42be 53d0 223e
00000080: bb90 cf3b 5506 aebd c714 ff3d 9f77 1ebd
00000090: d3c6 d13d 7b4a 313d 0eb9 d53d 5122 2abe
000000a0: 1135 bf3d 83d3 b63d 5860 053e eac7 043d
000000b0: e954 d7bd c33b 133e f95b 0d3e 17e8 58bd
000000c0: 30e3 d13b aa2f 993e c284 52bd 5fd4 023b
000000d0: d5be 4c3e e79d be3e 211b bbbd b719 73bd
000000e0: accd 953d b4ba 74bc 4ecf eabc f802 a7bc
000000f0: 9caf 3ebd 983c 3fbc 5838 18be b2eb f5bd
00000100: e491 2ebc 7ea4 8b3e c3c6 0c3e a432 ffbc
00000110: 82ba 91bd ddb3 243d a90e 523e c027 033e
00000120: d298 083d 0000 0000 1d0e 0fbe bf76 edbc
00000130: f061 38be 8426 5b3e 9953 c33d fde7 723d
00000140: 7741 0ebc 44df 583e d34c 393e 5b5e 63be
00000150: 3455 953d fb39 1cbe b594 083e 5075 ca3d
00000160: 42c4 78be 7f34 c7bc b772 1c3d 20eb a9bc
00000170: cf27 a3bb ff6a d03c 30f9 5b3d 1b72 6b3e
00000180: 7f1f 23be ce70 20bd d19e 9b3d 84d7 d2bc
00000190: 9aeb 52bd 5741 aabc 29ee 72bc 599c a2bc
000001a0: 66d5 e43d 830c 09bd 8bd8 13be cb76 0cbe
000001b0: 5e0e 5c3c 98b7 1dbd 714e 37bd 9544 00be
000001c0: b100 c0bd 83e1 9b3e 551b 243e 2bc1 0d3e
000001d0: 18c1 6e3d 25f2 323e ff6c 703d f9d2 503e
000001e0: 702c 6d3e a5f9 3dbc 63b3 fa3d 4ea0 743e
000001f0: a4a3 463d 8ad0 343e 5994 a1be f779 a33d
-0.041683752 -0.010981796 -0.029161908 0.11385183 0.15159339 -0.116385624 0.13119082 -0.014932128
-0.03503702 0.12341101 0.03698307 0.027805114 0.27137342 -0.009849467 0.053978473 0.08343486
0.11253189 -0.15914841 0.036317546 0.018904516 0.007372504 0.08540903 0.13239287 -0.0033480276
0.1473487 0.08569203 -0.017799111 0.0026730741 0.018258814 0.31436318 -0.19004755 0.15899782
0.006334392 -0.084973015 0.12455135 -0.0386883 0.10243001 0.04328392 0.10435687 -0.16614653
0.093362935 0.089270614 0.13025033 0.032417215 -0.10514242 0.14378266 0.13804616 -0.052955713
0.0064052567 0.29919177 -0.05139614 0.0019963009 0.19994672 0.37229845 -0.09136034 -0.059350695
0.073146194 -0.014937092 -0.028663304 -0.020387158 -0.046554193 -0.0116721615 -0.14865243 -0.12007846
-0.0106549 0.27273935 0.13747697 -0.031152077 -0.07115652 0.040210593 0.20513405 0.12808132
0.033348866 0.0 -0.13970228 -0.028987287 -0.1800611 0.21401411 0.09537429 0.059303273
-0.0086826 0.21178919 0.18095712 -0.22203963 0.07291642 -0.15256493 0.13337977 0.09885657
-0.24293616 -0.024317024 0.038195338 -0.020742 -0.004979111 0.025441645 0.05370444 0.22992747
-0.15929984 -0.03917008 0.07598651 -0.025737531 -0.05149422 -0.02078311 -0.01482729 -0.019849943
0.11173515 -0.033459198 -0.14438073 -0.13717191 0.01343116 -0.038505167 -0.044752542 -0.12526162
-0.09375132 0.3044549 0.16026051 0.13843219 0.058289617 0.17475183 0.058697697 0.2039298
0.23161483 -0.011595164 0.122412466 0.23889276 0.048495904 0.17657676 -0.31558493 0.07982247

fc3.weight f4 [4, 128]
00000000: 8472 5bbe 4970 ea3d af22 98be 83a4 753f
00000010: 563c 813f cf7d 893e d84c c9be cca7 89bd
00000020: 9f46 c5be 5541 b8be e928 b23d 01df 3f3f
00000030: ddfe 953f 3aa9 b3bd da19 40bf eb4f ddbe
00000040: d4d5 fabe a167 15be ccdd 04bf 446f e6be
00000050: ae1a 3dbe fa63 b53f de27 6c3f 2442 b8be
00000060: 7df3 92be 1ae9 40bf 0a2b cfbe b526 c33d
00000070: a515 60be 0aff 4a3f 3700 85be 7293 aebe
00000080: 5394 b73f 09f6 63be 78b0 eebe efd5 72be
00000090: 5ae1 803f 10fc 7abe 22f9 723f 5285 a33f
000000a0: f8bb 2b3f 898c 963f 892a d5be 172f f23e
000000b0: 52e8 edbe 13fa 2a3f 73ed c3be 26dc bdbe
000000c0: 5d34 233f 78c2 383f d4ef 04bf 1325 183f
000000d0: 1db6 c43e 9a9b 1b3f 3297 643f 5247 bd3c
000000e0: 4ae3 723f 95b8 26be 7971 8bbe 7011 9e3c
000000f0: b117 bbbd 5c6a 31bb b6f2 00bd 1a73 d2be
00000100: a02c b3bc 55e7 e7be e76d fb3e c212 123d
00000110: 76b3 abbe be88 65be 7c09 273f 9201 fabe
00000120: b5cf e13e 2872 85be 1317 7fbe df74 9a3f
00000130: cbeb 30bf 876e b03f b9c8 123f 4676 09bf
00000140: de32 423f 4160 1e3f 7e9b 46bf 472b b43e
00000150: 687d cfbe affa 64bf cd72 f3be bb6f 143f
00000160: 9d19 41bf 9bba 93bd 4667 ba3e b9e9 1cbf
00000170: 118d 87bc af5f 5f3f 1dee c5be ee24 ac3f
00000180: 5f75 163f bc9b b5be 572c 873f 331b ca3d
00000190: 5bcb 0ebd 919f 8ebe bfc6 0dbe 3faf 6ebf
000001a0: df74 bbbe ac34 94be 5a8d d33e dc72 303f
000001b0: ecae 633f a6ec 8f3c 61c1 88be fe4c 3fbe
000001c0: f9b6 44bf f99b eebc c8cc 8dbe 2ada 1fbf
000001d0: a9bd 24bf 5115 bbbe 3748 c13e eb7b f5be
000001e0: 680c 263f 2b30 1e3b 018d 143f 0a5e 073f
000001f0: 6c62 93bd 9f84 a3be c660 56bf c68d 203f
00000200: 2897 b6be 1ef6 a53c 048e dfbe 268d 723f
00000210: aafc 183f 6daa 333e 1007 c73d 0fe1 d6bc
00000220: 0f82 983e 3e9c 963d d231 a43f 75aa 043f
00000230: 572f ebbd 9486 9a3d 9b35 57bf bd77 d4be
00000240: 6f9d d9be 88c3 85be e397 e4be 99e5 c43f
00000250: 97cb 053f d06a b43f 6369 183f af99 a8be
00000260: 634f 0fbf 640f 63bf 9f4c dfbe 6534 593f
00000270: cb44 f8be d170 1c3f d558 10bf a626 08bf
00000280: c0dd 063e f51c 20be fe36 b2be b4ab aabe
00000290: 5b62 233f d02a e8be 4fe8 d53e 1765 0cbf
000002a0: 6dba a53f 235e a53f 0a39 c4be 23a2 013e
000002b0: 294b 84bf 8103 1abf b5da 0bbf fe62 8dbe
000002c0: ad91 b1bb cdc7 1abe 39e8 f3be 76c1 773e
000002d0: d644 ed3e 08fb 323f 7911 643f 1786 923f
000002e0: 9fc8 a33f 23f5 d93d 3319 cabe 39b2 8e3d
000002f0: 4e5b 7f3f 1de5 de3d f36e 50bf 15ed 25be
00000300: 33f8 87bc f8b4 f0bb 99d5 42be 9591 953d
00000310: 6053 a3be 120d b5be 03dc 143f 8d8a c0be
00000320: 2a27 76be 402d 9d3d f72a 0b3f a9b8 463f
00000330: b47f 34bf 6962 423f f4ac 253f aa0c 22bf
00000340: 0568 de3d 92b5 753f a91c 923e cdbb 3d3f
00000350: 0d43 08bf ae24 fc3d 1db4 16bf f4cb 533f
00000360: 162a efbe b422 57bd cf51 493f a640 38bf
00000370: a08c ee3d 0ee2 22bf b1cb edbe de71 a83f
00000380: ba86 8e3f 6fe1 cb3d 9303 953f b738 0e3e
00000390: 6c85 313f 2f3a babe b613 67bd 4cf3 10bf
000003a0: 5654 0ebf 08f9 cdbe 6256 6c3f 3fea 2bbf
000003b0: b420 aebd 56ee 413d 4d98 9fbe d74b 73be
000003c0: 63f5 313e c5d4 5abe ad7d 1ebd 1164 7ebf
000003d0: ea5f 37bf 4f9a 04bf 1316 9c3e 4f61 e2be
000003e0: 929d 843f 29da b3bd cf6b 4d3f 6c0b 243c
000003f0: 8f6b 5a3f 87b4 7abf 1bba d03e 94ec f5be
-0.21430403 0.11447198 -0.2971396 0.9595415 1.0096538 0.26853797 -0.3931644 -0.06721458
-0.38530442 -0.35987344 0.08699209 0.7494965 1.1718403 -0.08772512 -0.75039446 -0.43225035
-0.48991263 -0.14590313 -0.51900935 -0.45006764 -0.18467209 1.4171135 0.9224833 -0.3598796
-0.28701392 -0.75355685 -0.40462524 0.09528867 -0.21883257 0.7929541 -0.25976726 -0.34096867
1.434214 -0.22261824 -0.4661901 -0.23714422 1.0068772 -0.24510217 0.94911397 1.2775061
0.6708369 1.1761638 -0.41634014 0.47301552 -0.4646631 0.6678783 -0.38267097 -0.37082022
0.63751775 0.72171736 -0.5192845 0.5943157 0.3842019 0.60784304 0.89293206 0.023105297
0.94878066 -0.1628135 -0.2723501 0.019295424 -0.09135378 -0.0027071452 -0.031481467 -0.4110344
-0.021871865 -0.4529368 0.49107286 0.03566242 -0.33535355 -0.22415444 0.65248847 -0.48829323
0.4410378 -0.26063657 -0.24911146 1.2066916 -0.6910979 1.378373 0.5733753 -0.53696096
0.7585887 0.6186562 -0.7758101 0.35189268 -0.40525365 -0.8944501 -0.47548524 0.5798299
-0.7542971 -0.072133265 0.36406916 -0.6129413 -0.016546758 0.87255377 -0.3865823 1.344877
0.58772844 -0.35470378 1.0560406 0.09868469 -0.034861904 -0.27856115 -0.13845347 -0.93236154
-0.36612603 -0.28946435 0.4131878 0.6892526 0.88938785 0.017568897 -0.26710036 -0.18681714
-0.76841694 -0.029127108 -0.27695298 -0.62442267 -0.643519 -0.365397 0.37750408 -0.47946104
0.6486268 0.0024137597 0.58027655 0.5287787 -0.07196507 -0.3193712 -0.83741415 0.6271633
-0.35662198 0.02025896 -0.43663037 0.94746625 0.59760535 0.17545481 0.09718144 -0.026230363
0.29786727 0.073540196 1.2827704 0.51822597 -0.11483639 0.075452 -0.8406617 -0.41497603
-0.42502925 -0.2612574 -0.4464713 1.5382568 0.5226378 1.4095097 0.5953581 -0.3292975
-0.5598051 -0.8869536 -0.43613145 0.8484557 -0.48489985 0.61109644 -0.56385547 -0.5318397
0.13170528 -0.15636046 -0.3480758 -0.33334124 0.63821954 -0.45345163 0.417788 -0.5484175
1.2947518 1.2919353 -0.38324767 0.12659506 -1.0335437 -0.60161597 -0.54630595 -0.27614588
-0.0054189772 -0.1511528 -0.4763811 0.24194893 0.4634158 0.69914293 0.8908916 1.1447171
1.27956 0.10642459 -0.3947235 0.06967587 0.99748695 0.10883544 -0.81419295 -0.16203721
-0.016597843 -0.007345792 -0.19026794 0.07303158 -0.31899548 -0.35361534 0.5814821 -0.37605706
-0.24038377 0.076746464 0.54362434 0.7762552 -0.7050736 0.7593141 0.6471703 -0.63300574
0.10859684 0.9598018 0.2853749 0.74114686 -0.5322731 0.123116836 -0.5886858 0.8273308
-0.46711797 -0.05252333 0.78640455 -0.71973646 0.11647916 -0.6362618 -0.46444467 1.315975
1.1134865 0.099551074 1.1641716 0.13888822 0.6934421 -0.36372516 -0.056415282 -0.5662124
-0.55597436 -0.40229058 0.9231931 -0.67154306 -0.085023314 0.047346435 -0.31170884 -0.237594
0.17378764 -0.21370228 -0.038694073 -0.9937144 -0.7163073 -0.51797956 0.3048559 -0.44214866
1.0360587 -0.08781845 0.8024263 0.010012489 0.8532037 -0.9793171 0.40766987 -0.48032057

fc3.bias f4 [4]
00000000: 19ec 76bd 2e59 01be 35b2 523e d736 31bc
-0.060283754 -0.12631676 0.20575793 -0.0108162975

fc1.weight f4 [256, 8]
00000000: 3f5f 28be 7b6b 9e3f 5683 a53f 6701 62bf
00000010: eea4 203e 9308 3f3d eb9a 293f ecae b03f
00000020: c747 a5be 12bc 6f3d f5fe e63e cfef ac3e
00000030: 453a ec3f 1b22 3cbf 0ad0 5abf 47cd 613d
00000040: 291b 8a3f 547a aebe a290 a2be 41eb cd3e
00000050: 763f 8ebf a335 a93f 3acf 053f 9d88 a1bf
00000060: 72a1 663e 4659 86be 1052 44bf a12d b2be
00000070: fb07 8c3f eb57 963f b3be 6b3e 6732 823f
00000080: 975d 853f a19e 6a3f c1b0 7e3f e37e ab3d
00000090: 5942 1a3e 8b7e 5abf e4fa f1bd 9c5b 6fbf
000000a0: f7b6 08bf bb50 01c0 4192 febe f4e3 3bbf
000000b0: cf2b 833a 876f 42bf b693 6cbe 489d 1b3e
000000c0: 6768 c23f 4e67 74bf 72db f8bd 4202 403e
000000d0: bc70 c93d c877 273d 49e8 0a3c 1061 4a3f
000000e0: c776 723f 4f07 1abf 7c89 e13d b330 913f
000000f0: d04f b3bf de6f 6a3f 4198 0ebe f915 92be
00000100: 1635 3fbe 1618 aa3e a310 ea3d 9036 42bf
00000110: 9224 0abf 991d 85bf f36c d7bf c186 1dbf
00000120: daa5 92bf 72cb 4c3f ebd1 36bf 5e75 043f
00000130: 895a 843f d849 a53f 4f6a a03f ea96 54bf
00000140: 2f5b c13d fb9d a43e 27e3 1fbf fdcc 5abe
00000150: 97b3 7b3f 73bf 3dbf 0f72 8d3e 8de0 c23c
00000160: 6ce4 84bd 58e5 02c0 357f 623c 86cb 34bf
00000170: f087 143f 2982 a83e a867 223f b1d6 f23d
00000180: 9341 a73f addc 8cbe f9a4 87bf b1bf 813e
00000190: 6584 97bf 6e91 9f3f ac02 873f 9177 e33d
000001a0: 8fef cebe afa0 a63f 59ce 8c3f c92a 4fbf
000001b0: f84f 67bf b4b3 3bbf 7a00 533f 9b90 113d
000001c0: 1b22 d93e 0b7c 0f3d 9db9 9bbe 72eb fabe
000001d0: ea0d e6be 4a38 4ebf 1d16 70bf 05eb da3d
000001e0: e192 6fbf 27f9 7f3f e9c7 efbe 20df 29be
000001f0: b4e2 923e eafe 353f 6639 4bbe f14c 1dbf
00000200: 0a92 d43d 3690 a73d 569b a23f ef09 153f
00000210: daee 563f 7af7 333c e0fb 27bf e5f8 b83e
00000220: 8453 81bf c258 29c0 0377 123f 2e8b 69bd
00000230: a6e9 ffbe 8754 97bf 8b9a be3e 23f4 1b3e
00000240: ef11 fbbd 646e debf 2d6f 1e3f 9302 083f
00000250: 7f91 613d a8bb 99be d54e 233f 4a13 a13f
00000260: 59b2 7a3f edb0 8ebf 9e1c 453f 7d55 edbe
00000270: 1ec5 e33e f306 b43e da2d 9d3f 7256 1a3f
00000280: 23a5 b53e f62a 70bf 7a39 8e3e d66c 20bf
00000290: 4dbe 33bf 0957 38be 409f f1bc 0b14 653e
000002a0: 5a6c 883d 4b72 e6be c702 62bf ede9 eabe
000002b0: dee7 003f 20cd 023f 4d16 203f d54e 5d3f
000002c0: dd74 923f 0139 5dbf 69b4 433f 3e4d 303f
000002d0: dd34 b43e 7846 efbe de01 b9bc 3520 bd3e
000002e0: 1b62 8bbf fff0 dd3d 1164 8b3e 6e69 2abe
000002f0: d763 b3bd 9857 75be 4e58 e23e 6ac7 9c3f
00000300: 26f8 963e 400a a4bf 83fa 6d3e bc63 31bf
00000310: 6bc5 383f 8796 10be 0be6 13bf 5526 8cbf
00000320: bb25 233c 4952 77bf a5d1 063f ff39 f0be
00000330: 8947 c33e 38fa 0cbf 8eec 753f 2f88 183e
00000340: 6d03 fe3e 6672 b2bf a2dd 04bf fb29 7ebf
00000350: 8575 a13f b292 e83f 693d 603d 340e 52be
00000360: 5db0 60bd ce0e b3bf 5e26 fc3e 1452 d2bb
00000370: 0f78 b0bf cc85 803f e87a a3bf 41d0 083f
00000380: f0f7 31bf 076a 993f 8465 3cbe b858 46bd
00000390: 761c 8a3e c3a9 633e 2958 863e deff b73e
000003a0: a6ad f9be b2fd 54be 8ae6 eebe a13b 95be
000003b0: 099c 973f 3d3a fd3c 2f89 293d 490f 683f
000003c0: 3cc3 24bf 2613 6cbe 9316 96bd 31e1 c23f
000003d0: 2109 1ebe 7b19 92bf 4e44 95be dda0 5bbf
000003e0: 62d0 e83e be0d a33f 1654 b73e 8a61 083f
000003f0: fbc4 f2bd 13d7 51bf 0c38 fe3a 0bc9 9ebf
-0.16442584 1.237655 1.2930706 -0.8828339 0.15687916 0.046639036 0.6625201 1.3803382
-0.32281324 0.058528967 0.45116392 0.3377671 1.8455282 -0.7348954 -0.8547369 0.05512741
1.0789539 -0.34077704 -0.3175097 0.40218547 -1.1113117 1.3219494 0.5226933 -1.2619816
0.22522524 -0.26239985 -0.7668772 -0.34800437 1.0939935 1.174558 0.23021965 1.0171632
1.0419186 0.916483 0.99488455 0.08373811 0.15064372 -0.8534934 -0.11815432 -0.9349916
-0.5340418 -2.0205524 -0.49720958 -0.73394704 0.0010007563 -0.7595143 -0.23103222 0.15196717
1.5188111 -0.9547013 -0.12151231 0.18750861 0.098359555 0.040885717 0.008478233 0.79054356
0.9471249 -0.601674 0.11012551 1.1342987 -1.4008732 0.91576946 -0.13925268 -0.2853239
-0.18672594 0.332215 0.114289545 -0.75864506 -0.5396205 -1.0399657 -1.6830124 -0.61533743
-1.1456864 0.7999793 -0.7141406 0.5174159 1.0340129 1.291316 1.2532443 -0.83042777
0.0944122 0.3215178 -0.6245598 -0.2136726 0.9832091 -0.74120253 0.27626082 0.023788715
-0.064888805 -2.045248 0.013824274 -0.7062305 0.58019924 0.32911804 0.63439417 0.118573554
1.3066887 -0.27512112 -1.0597221 0.2534156 -1.1837279 1.2466257 1.054769 0.1110679
-0.40417144 1.3017787 1.1000472 -0.8092466 -0.903564 -0.7332108 0.824226 0.035538297
0.42408833 0.035030406 -0.3041505 -0.49007756 -0.4493249 -0.8055464 -0.9378374 0.10689358
-0.93583494 0.9998955 -0.46832207 -0.16589022 0.28688586 0.71092093 -0.19846115 -0.6144553
0.10379417 0.08181803 1.2703655 0.5821828 0.8395821 0.010984296 -0.65618706 0.3612739
-1.0103612 -2.6460423 0.5721285 -0.057017498 -0.49982947 -1.1822671 0.37227282 0.1522985
-0.1225928 -1.7377439 0.6188839 0.5312893 0.055070397 -0.30025983 0.63792163 1.2584012
0.97928387 -1.1147743 0.7699679 -0.46354285 0.44486326 0.35161552 1.2279618 0.60288155
0.35477552 -0.93815553 0.27778226 -0.6266607 -0.7021225 -0.18001951 -0.029494882 0.22370927
0.066612914 -0.45009074 -0.8828549 -0.45881596 0.503538 0.51094246 0.6253403 0.86448413
1.1441914 -0.86415106 0.7644716 0.6886786 0.3519658 -0.4673345 -0.022583898 0.36938635
-1.0889314 0.10836982 0.27224782 -0.1664178 -0.08759277 -0.23959196 0.44207996 1.2248356
0.29486197 -1.2815628 0.23240094 -0.6929281 0.72176236 -0.14119922 -0.5777289 -1.0949198
0.009957726 -0.9660993 0.5266364 -0.46919248 0.38140514 -0.55069304 0.9606408 0.148957
0.4961199 -1.3941162 -0.51900685 -0.9928281 1.2613989 1.8169768 0.054746065 -0.2051323
-0.054855693 -1.3988893 0.49248022 -0.006418476 -1.3786639 1.0040832 -1.2771883 0.5344277
-0.6951895 1.1985482 -0.183981 -0.048424453 0.2697484 0.22232728 0.26239136 0.359374
-0.48765296 -0.20799902 -0.46660262 -0.29147056 1.1844493 0.03091156 0.041390594 0.90648323
-0.64360404 -0.2305418 -0.073285244 1.5224973 -0.1543317 -1.1414026 -0.29153675 -0.8579233
0.45471483 1.2738569 0.3580634 0.5327383 -0.11853977 -0.819688 0.0019395365 -1.2405103

fc1.bias f4 [256]
00000000: a1e6 453d 005f 813e 361a 0cbe 84a3 6c3c
00000010: 3f34 543e 5f55 5abe 1534 93be a4a5 353e
00000020: 3e50 7a3d 120f f9bd e5f0 ba3d 2315 103e
00000030: b27a 8cbe ec0c 953e a737 c4bd f4db ab3c
00000040: ccb4 24bc cda3 5bbd 3297 4f3e d9ce 80bd
00000050: c158 c3bd 731f aa3e 99d3 013e 8bdc bfbc
00000060: 63aa 373e b59f 77bd b1a8 5f3e 0ded 42bd
00000070: 0f0c ff3e af90 623e ec63 47be 5604 4cbd
00000080: 8e58 1f3e 972a e93c 58bf 12bf 0c6b 94bd
00000090: 19e4 37be 197e a83e 3e33 8ebd e2ed a7bd
000000a0: e2b4 4e3d 03f1 c53e 1bfe 66bc 3fb0 e03d
000000b0: 9a53 813d e916 503c 7d37 993c 5c95 013f
000000c0: 2c0b b13e 8907 99bc 8f1b 913e 092d 79be
000000d0: f5eb 3b3e 277c 583d b06f c9bc 6357 473e
000000e0: 0152 6a3e 7dfa 253f 7558 263e e0c0 74be
000000f0: 2150 99be 7785 963d ed10 ce3e 08f9 2cbd
00000100: c605 873c ade6 00be 9891 8b3e ca38 2fbe
00000110: 3ec0 e63d cf25 663e 0671 433e cf17 9c3d
00000120: 525e 0d3e bd2c 9cbb aa3b a83e 8362 1d3e
00000130: aa4d b7bc d057 e1be 3c2d b53e 3229 463e
00000140: 9489 e43e 3b49 063f 5039 333d 367e 213c
00000150: 1b5a 59be c2bc 46be dfab 773e 142a 1bbe
00000160: 1ddd ad3e 5156 823c 4cd2 3a3e 92ea 553e
00000170: 87fc 113e 3262 8a3e b8ae 6bbc 2eb6 e03e
00000180: c536 f13e 7c75 bf3d ff5e a93d 3859 b0bd
00000190: a447 b83d 190b 14bd 6c12 0bbe 79be 153e
000001a0: 865c 803d 0c82 543e 6f61 c2bd 377c 7dbb
000001b0: 3143 12bd 5c51 e13e 4b6a a93c 4d3b 29bd
000001c0: 10a0 8d3e 32c6 ab3d 6bf4 c3bd 72f2 acbd
000001d0: 52fe bc3d c999 11be 8227 17bf 5b0d de3e
000001e0: 128d ae3d 39e2 a53e 1a8e 063e ab5b 023e
000001f0: 38e8 5d3e 2822 893e 0271 143e aab8 573e
00000200: 59c7 b13d ab0a 953e 7a9e dd3e ec1d 06be
00000210: 5202 a63e 664e d03e 0de2 9a3d fa22 993e
00000220: 3e61 90be 95c6 693d d89d a83d 6cf5 74be
00000230: 4299 f8bc b352 b43e 2fb1 df3d b50c 1a3c
00000240: 1e6b 723e fe33 233e 3623 07bd 50fd 833e
00000250: b50a a73d 1e0b 123e fc24 833e 3f17 223e
00000260: b6b9 943e 6f18 2f3e 1b44 243e 2d12 4fbd
00000270: eec0 bb3e 50a4 82be 7e65 933d 6958 ecbe
00000280: ed72 5b3e db61 ab3e 44d1 e2bd a816 cbbc
00000290: 2f26 2a3e c076 21be ad24 663e 1fdf 523e
000002a0: 269c 983e 5b4a 6ebe 1e8b 9a3d e640 f33d
000002b0: 1d5b 913e 4aef 8cbd ef96 943e a843 293e
000002c0: a2df 2fbd bcf3 e9bd b87a 123e 1374 633e
000002d0: b6a5 8e3c 8bb8 ab3e 8c8f c5bd 09a5 473e
000002e0: 26d5 733e 0f82 9d3e a035 8e3e 587b be3d
000002f0: a04a e83e 5973 0a3e 03d2 a5be 6251 acbb
00000300: a54c 863e 52b5 ca3d d9ff ce3e 8946 333d
00000310: a070 c23e 74d2 cc3d a29c 643d 2341 d1bd
00000320: d69d 01be 2f39 0ebe a3b2 0b3e 4a48 e6bd
00000330: 2b97 f63c 33b1 913d afde f53e fb73 153e
00000340: f6ad 0d3d d33f b63e d210 4abf 3b57 583e
00000350: a095 b3bd c00e cabd 7d67 cabd d20e b3bd
00000360: e020 523e 400f 41be f84f 853e 929a 9e3d
00000370: e7cd 2dbe 6d5b 0cbe 44a6 0a3e c926 e63d
00000380: 47d0 653e 34cd 813e 6c4c e4bd 956d 8c3e
00000390: 2e56 b5bd 6ed0 aebe 9cf5 813e b7a5 1b3f
000003a0: 6210 043e 2d46 f6bd 21fa c53d 50fe a63e
000003b0: d8b9 973e 5d1e da3c a7fb 05be a56c 31bd
000003c0: 7c0a 103e a2d8 fd3e c50c d8bd dab5 0dbe
000003d0: 6d4d a33e bb1b 7f3d 1fb9 983e b8c7 0ebf
000003e0: 42a6 673e 3cbb 1c3e 9248 4e3d 48e6 5f3e
000003f0: e7a3 1c3e fc25 edbc f7e2 033c 7db3 d13e
0.048315648 0.25267792 -0.13681874 0.014443282 0.20723055 -0.21321629 -0.28750673 0.17738968
0.06111168 -0.121610776 0.09127978 0.14070563 -0.2743736 0.2911142 -0.09580927 0.020978905
-0.010052871 -0.05362301 0.2027252 -0.06289453 -0.09538413 0.3322712 0.12678374 -0.023420593
0.17936091 -0.060455043 0.21841694 -0.04758935 0.49813887 0.22125505 -0.19471711 -0.049808823
0.15561125 0.028462691 -0.5732322 -0.0724698 -0.17958106 0.32908705 -0.069433674 -0.081996694
0.050465472 0.3866044 -0.014098669 0.10971116 0.06314774 0.012700775 0.018703217 0.5061853
0.34578836 -0.01868035 0.28341338 -0.24333586 0.18351729 0.052852776 -0.02458939 0.19466929
0.22882845 0.6483534 0.16244681 -0.23901701 -0.29943946 0.07349675 0.40247288 -0.042229682
0.016482245 -0.12587996 0.27259517 -0.17111507 0.11267136 0.2247536 0.19086084 0.07621729
0.13805512 -0.0047660754 0.3285802 0.1536961 -0.0223759 -0.44012308 0.35386074 0.19351652
0.44636214 0.5245549 0.04375583 0.009856751 -0.21225779 -0.19407943 0.24186657 -0.1515277
0.3395776 0.0159103 0.18244284 0.20890263 0.14256488 0.27028042 -0.014384918 0.43888992
0.47112098 0.0934858 0.08270072 -0.08610767 0.08998039 -0.036143396 -0.13581246 0.14623441
0.062676474 0.20752734 -0.0949124 -0.0038678774 -0.03570861 0.44007385 0.020680567 -0.04131632
0.2766118 0.08387412 -0.095681034 -0.0844468 0.09228195 -0.1421882 -0.5904466 0.43369564
0.08523001 0.32399157 0.13140145 0.12730281 0.21670616 0.26783872 0.14496234 0.21066537
0.08680601 0.29109702 0.4328497 -0.13097352 0.32423645 0.40684813 0.07562647 0.29909497
-0.2819919 0.05707415 0.08233231 -0.23921746 -0.030346517 0.35219344 0.10922467 0.009402444
0.23673674 0.15937802 -0.032992564 0.257792 0.08156339 0.14262053 0.25614154 0.1582918
0.29047936 0.17099164 0.16041605 -0.050554443 0.3667063 -0.25515985 0.071970925 -0.46161202
0.2143056 0.33473095 -0.110750705 -0.024791077 0.16616128 -0.15767956 0.22474928 0.20592926
0.29806632 -0.23270552 0.07546066 0.11877613 0.28389826 -0.06881578 0.29021403 0.16529715
-0.042937882 -0.11423442 0.14304626 0.22212248 0.017413002 0.33539233 -0.0964652 0.1949655
0.23811778 0.3076329 0.27775288 0.0930087 0.45369434 0.13520564 -0.3238679 -0.005258725
0.2623035 0.09897865 0.4042957 0.04376844 0.3797655 0.10001078 0.05581344 -0.10217502
-0.12657866 -0.13889001 0.13642363 -0.11244257 0.03010138 0.07113876 0.48021457 0.14595024
0.03458973 0.3559557 -0.78931916 0.21127026 -0.08768773 -0.098660946 -0.0988302 -0.08743061
0.20520353 -0.18853474 0.26037574 0.07744326 -0.16973077 -0.13706751 0.13539988 0.112378664
0.22442733 0.2535187 -0.11147389 0.27427354 -0.08854328 -0.34143394 0.25382698 0.60799736
0.12896875 -0.12025104 0.09666849 0.326159 0.29633975 0.026625806 -0.13084279 -0.043316502
0.140665 0.4957934 -0.105493106 -0.13838902 0.3189501 0.062282305 0.29828736 -0.55773497
0.22622016 0.15305799 0.050362177 0.21865189 0.15296899 -0.028948776 0.008049718 0.4095725

fc2.weight f4 [128, 256]
00000000: 49ad dd3c 43b1 32bd f329 c0bc ec9a 333e
00000010: 7936 953e ec9a 84be b5f9 4d3e 0372 99be
00000020: fd50 8e3d 1681 9e3e 22cb 843d 227f ba3d
00000030: c0bf fd3d 5a80 16bd 7039 603e 10ab 7f3e
00000040: fba3 30bf 5222 39be 653e 81be 1d0e 5d3e
00000050: f847 273e a505 bf3d bcbf f7be 81f8 eb3d
00000060: c13c 20ba 1d0f 073c 8fc8 793d 8fda bcbd
00000070: a9a5 5e3e 9608 093e 68e1 c5bb f209 b53d
00000080: b761 ae3e 48e4 d53d c0d1 023e 93bd 04be
00000090: 7999 4e3e 3285 01be ff1e 753e 24a5 bd3e
000000a0: 428d 063b d9d4 cdbe 6771 18bf 4888 bb3d
000000b0: 91c0 2a3d d8e4 e73c 5603 043e 94cf e33b
000000c0: a883 303e 3389 6c3e a33f 90ba aa3d c93d
000000d0: 1c28 9c3e b5b6 58bc dd46 983e 1326 13be
000000e0: b483 3abe 089c b5be 4c63 c3be 2193 fa3c
000000f0: 9861 163f 199b 5bbb e344 773e cd5d c83b
00000100: 944d 353c 557c 58bd 71c6 563d a7a9 0bbf
00000110: 9d48 43be 137b 7bbd cec8 ccbd 624b de3d
00000120: 895c 10bd 9fec 613d 2ac0 d33c 6514 063e
00000130: 4f10 5e3e b9c0 343f 732f 10be e8e4 803e
00000140: 8825 6c3b e14a a5bd 1ef7 433e f5a0 a13d
00000150: 4a20 3b3f 1a84 e13d 3247 57be 47a9 f2bd
00000160: aeea 513b f718 003d 80f8 c1be fc56 e5bd
00000170: caa4 d33c 353b 8fbe 598f 8ebd 7cc2 8ebe
00000180: c730 dd3d b815 9d3e 27d4 55bd a0e4 b5be
00000190: f2a6 06be a8f3 793d 73de dbbc 9b13 343e
000001a0: 7734 263d 65e9 d03d 0a73 93bb d9ea 023e
000001b0: bd5e 29be 06d4 62bd 6a8d a43e ff55 353e
000001c0: 6723 3f3e 5f8e de3d 12ef c5bc 0287 2a3f
000001d0: 8dfa ea3b fecf 823e 9f1e 893e f53f aabd
000001e0: c328 343e b994 4c3e e1d3 c33e ed19 aa3e
000001f0: 64d6 9f3e 014f 30be 5f67 f0bd c944 8c3d
00000200: fcd5 af3c 4d6f f3be e81d 13be d3bf 6b3e
00000210: 2e90 87be 94f0 d2be 95d5 b63d 42fb fd3d
00000220: 230b 1b3e e124 b73d 0afd 973e 5487 b33e
00000230: 7e65 943e d97c 4ebd 1859 553e 6a2e 193c
00000240: 70c0 e43c 6f70 e3bd 798a a7be df6e c0be
00000250: 8b81 acbd fd99 143d 7cf6 38bf f817 003e
00000260: a1b3 0cbf 48af 0ebe af48 b1b9 d3ba a63c
00000270: ff6e cb3d cf2f 2e3e e4f5 fa3e 1b2e 87be
00000280: b95b 76bc f4c7 5f3e b2be aa3d 9655 363e
00000290: 5c1d eebd b661 a23e 91cd c63d e3c7 1c3e
000002a0: 4d8b 573e 2f4f 40be 0f36 22bd cd14 d13e
000002b0: 068d de3d 9f00 42bf bced ba3e 9658 bcbd
000002c0: d9b2 453e 0bcb 893e 96e6 54be 6148 213d
000002d0: b3cb 98bc c042 07bd bac0 063e bf17 063d
000002e0: 4516 95be e399 86bd efe4 d03d aec4 fc3c
000002f0: 958d 113e dc80 523d b574 223d 0e90 9f3e
00000300: 8aec 97be 285e 0ebe 47f7 12be 038b 5a3d
00000310: 75a2 f63d 140e 623e 5623 94be 2390 803e
00000320: 2145 713d 14e0 1e3e f6cb d2bd 8547 533e
00000330: 5db3 2b3e ce85 0a3e 9c18 643e b2ee 05bd
00000340: b60e 5abe 23ff 8cbc 9ead b53e bb11 443e
00000350: 9f3a 2dbd 2a3e 61bc 7dbe 913d 36d0 2dbd
00000360: 9017 133e a2c9 edbe 5e57 cabd 51f4 d6bd
00000370: 6d2f 60be acc2 b83d 2bd4 8e3c 5818 853e
00000380: 633d e9ba 7dc8 263e d53d 103e a82d 53bd
00000390: 6991 a83e 160d 963e dd1c 253e a56a ec3d
000003a0: 8c26 dd3d 9b1e 883e d956 a13d b98b f33d
000003b0: 46a3 903e fb20 293e 0ee6 973d b989 1b3e
000003c0: 8e22 663e aec2 813e 52cc 493f 2bbe 2b3d
000003d0: 8731 033e 9925 cabc 1d95 e53d 453a c73d
000003e0: c7d5 09be 7266 963e 88ed 7abb 07c9 4ebe
000003f0: ef11 473e 814d 69be 5d05 18bc 45c3 953e
0.027060168 -0.04362608 -0.023457503 0.17539567 0.29143122 -0.25899446 0.20114787 -0.29969797
0.06949041 0.3095786 0.06484057 0.0910628 0.12390089 -0.0367435 0.2189691 0.24967599
-0.69000214 -0.18079498 -0.25242916 0.21587415 0.16336048 0.093272485 -0.4838847 0.11522008
-0.00061125687 0.008243349 0.060982283 -0.09221374 0.21742882 0.13382182 -0.0060388334 0.088397875
0.34058926 0.10443932 0.12775326 -0.12962942 0.20175733 -0.12648466 0.23937605 0.37040055
0.0020530974 -0.40201452 -0.5954804 0.09156853 0.041687552 0.028307363 0.12891898 0.0069522355
0.17237723 0.23099212 -0.0011005293 0.098262146 0.3049935 -0.0132271545 0.29741564 -0.14369993
-0.18214303 -0.35470605 -0.38161695 0.030587735 0.58742666 -0.0033509193 0.24147372 0.0061146975
0.011065859 -0.052852947 0.052435342 -0.54555744 -0.19070669 -0.06139667 -0.09999238 0.10854222
-0.0352445 0.0551573 0.025848467 0.13093717 0.21685909 0.7060657 -0.140806 0.25174642
0.0036033113 -0.08070923 0.19137236 0.07892028 0.73096144 0.110115245 -0.21023253 -0.11848693
0.003203075 0.03127381 -0.37884903 -0.111982316 0.025835413 -0.2797486 -0.06960935 -0.27882755
0.10800319 0.30680633 -0.052204277 -0.3552599 -0.13149622 0.061023384 -0.02683947 0.17585604
0.040577378 0.102007665 -0.0044997977 0.127849 -0.16540046 -0.055377983 0.3213914 0.17708586
0.18665849 0.10866999 -0.02416185 0.66612256 0.0071709813 0.2554931 0.26781175 -0.0831298
0.17593674 0.19978608 0.38247588 0.33222905 0.31218255 -0.17217638 -0.117384665 0.06849057
0.02146434 -0.47545853 -0.14366877 0.23022394 -0.26477188 -0.41199172 0.08927456 0.12401439
0.15140967 0.08942581 0.2968524 0.35064185 0.28983682 -0.050412033 0.20834768 0.009349445
0.027923793 -0.111054294 -0.32722834 -0.37584588 -0.08423146 0.036279667 -0.72251105 0.12509143
-0.5496159 -0.13934052 -0.00033814224 0.020352757 0.0993328 0.17010425 0.49015725 -0.26402363
-0.015036517 0.2185362 0.083371535 0.17806086 -0.116266936 0.31715173 0.097071774 0.15310626
0.21049233 -0.18780206 -0.039602336 0.40836182 0.10866742 -0.757822 0.36509502 -0.09196584
0.19306506 0.26912722 -0.20791087 0.039375667 -0.018651819 -0.033022642 0.13159457 0.03273749
-0.29118553 -0.0657232 0.101999156 0.030855503 0.14214166 0.05139242 0.03966208 0.31164593
-0.29672652 -0.13903105 -0.14352141 0.05335523 0.12042705 0.22075683 -0.2893321 0.25109968
0.058903817 0.15515167 -0.10292809 0.20632751 0.1676764 0.13527605 0.22275013 -0.03269834
-0.21294674 -0.017211502 0.35484022 0.19147389 -0.042292234 -0.013747731 0.07116411 -0.042434894
0.14364457 -0.46442896 -0.09879945 -0.104958184 -0.21893091 0.09021506 0.017435154 0.25995135
-0.0017794784 0.16287418 0.14086087 -0.051557213 0.3292344 0.2930686 0.16124292 0.11543778
0.10798368 0.2658585 0.07877893 0.11891884 0.28249568 0.16516487 0.07416926 0.15189256
0.22474119 0.2534384 0.78827393 0.041929405 0.12811862 -0.024676131 0.11210082 0.09727911
-0.13460456 0.29375035 -0.0038288552 -0.20193873 0.19440435 -0.22783472 -0.009278622 0.2925054

fc2.bias f4 [128]
00000000: 95bc 2abd feec 33bc f4e4 eebc 262b e93d
00000010: 4c3b 1b3e 965b eebd e356 063e e2a5 74bc
00000020: fa82 0fbd e9be fc3d 8f7b 173d 8dc7 e33c
00000030: 75f1 8a3e a95f 21bc 8818 5d3d e5df aa3d
00000040: 1f77 e63d cdf7 22be b5c1 143d a5dd 9a3c
00000050: 0c95 f13b eeea ae3d ff91 073e 956a 5bbb
00000060: 94e2 163e 4e7f af3d 71cf 91bc be2e 2f3b
00000070: 8293 953c 36f4 a03e d39b 42be 53d0 223e
00000080: bb90 cf3b 5506 aebd c714 ff3d 9f77 1ebd
00000090: d3c6 d13d 7b4a 313d 0eb9 d53d 5122 2abe
000000a0: 1135 bf3d 83d3 b63d 5860 053e eac7 043d
000000b0: e954 d7bd c33b 133e f95b 0d3e 17e8 58bd
000000c0: 30e3 d13b aa2f 993e c284 52bd 5fd4 023b
000000d0: d5be 4c3e e79d be3e 211b bbbd b719 73bd
000000e0: accd 953d b4ba 74bc 4ecf eabc f802 a7bc
000000f0: 9caf 3ebd 983c 3fbc 5838 18be b2eb f5bd
00000100: e491 2ebc 7ea4 8b3e c3c6 0c3e a432 ffbc
00000110: 82ba 91bd ddb3 243d a90e 523e c027 033e
00000120: d298 083d 0000 0000 1d0e 0fbe bf76 edbc
00000130: f061 38be 8426 5b3e 9953 c33d fde7 723d
00000140: 7741 0ebc 44df 583e d34c 393e 5b5e 63be
00000150: 3455 953d fb39 1cbe b594 083e 5075 ca3d
00000160: 42c4 78be 7f34 c7bc b772 1c3d 20eb a9bc
00000170: cf27 a3bb ff6a d03c 30f9 5b3d 1b72 6b3e
00000180: 7f1f 23be ce70 20bd d19e 9b3d 84d7 d2bc
00000190: 9aeb 52bd 5741 aabc 29ee 72bc 599c a2bc
000001a0: 66d5 e43d 830c 09bd 8bd8 13be cb76 0cbe
000001b0: 5e0e 5c3c 98b7 1dbd 714e 37bd 9544 00be
000001c0: b100 c0bd 83e1 9b3e 551b 243e 2bc1 0d3e
000001d0: 18c1 6e3d 25f2 323e ff6c 703d f9d2 503e
000001e0: 702c 6d3e a5f9 3dbc 63b3 fa3d 4ea0 743e
000001f0: a4a3 463d 8ad0 343e 5994 a1be f779 a33d
-0.041683752 -0.010981796 -0.029161908 0.11385183 0.15159339 -0.116385624 0.13119082 -0.014932128
-0.03503702 0.12341101 0.03698307 0.027805114 0.27137342 -0.009849467 0.053978473 0.08343486
0.11253189 -0.15914841 0.036317546 0.018904516 0.007372504 0.08540903 0.13239287 -0.0033480276
0.1473487 0.08569203 -0.017799111 0.0026730741 0.018258814 0.31436318 -0.19004755 0.15899782
0.006334392 -0.084973015 0.12455135 -0.0386883 0.10243001 0.04328392 0.10435687 -0.16614653
0.093362935 0.089270614 0.13025033 0.032417215 -0.10514242 0.14378266 0.13804616 -0.052955713
0.0064052567 0.29919177 -0.05139614 0.0019963009 0.19994672 0.37229845 -0.09136034 -0.059350695
0.073146194 -0.014937092 -0.028663304 -0.020387158 -0.046554193 -0.0116721615 -0.14865243 -0.12007846
-0.0106549 0.27273935 0.13747697 -0.031152077 -0.07115652 0.040210593 0.20513405 0.12808132
0.033348866 0.0 -0.13970228 -0.028987287 -0.1800611 0.21401411 0.09537429 0.059303273
-0.0086826 0.21178919 0.18095712 -0.22203963 0.07291642 -0.15256493 0.13337977 0.09885657
-0.24293616 -0.024317024 0.038195338 -0.020742 -0.004979111 0.025441645 0.05370444 0.22992747
-0.15929984 -0.03917008 0.07598651 -0.025737531 -0.05149422 -0.02078311 -0.01482729 -0.019849943
0.11173515 -0.033459198 -0.14438073 -0.13717191 0.01343116 -0.038505167 -0.044752542 -0.12526162
-0.09375132 0.3044549 0.16026051 0.13843219 0.058289617 0.17475183 0.058697697 0.2039298
0.23161483 -0.011595164 0.122412466 0.23889276 0.048495904 0.17657676 -0.31558493 0.07982247
