results/shared_dqn_blind/models/checkpoint_ep800.pth (torch, 580718 bytes, 24 tensors)

fc1.weight f4 [256, 8]
-0.9917754 0.6392184 0.7054653 -0.024775341 -1.3404337 -1.0259253 -0.2874854 -0.33384377
0.053278133 0.5636086 -0.2693531 -0.14492309 -0.6238325 1.7087615 0.17828909 -0.26968104
0.80735666 0.27380016 0.7065677 -0.058636222 0.494876 -0.22869425 0.26232624 0.2950618
-0.09281405 1.2556471 0.7410129 -0.16454935 -0.61042476 -1.7757844 0.568328 0.33815157
-0.39663097 -0.84898555 -0.2880572 -0.7370505 1.0605315 0.8117367 0.47895598 -1.6581062
-0.29818982 0.048418965 -1.6089882 -1.0665549 0.71856105 -0.14083658 0.06579538 0.3000723
-0.31166306 1.0244619 0.068075925 1.5077351 0.5247561 -1.525106 -1.9394507 0.063081756
-0.18778262 -1.2895386 -1.1465037 -0.12878492 -1.0731883 -0.03453719 0.02889542 -0.32722312
-0.8076851 -2.8465872 -1.8394989 -0.8761829 0.08374716 -0.08543596 0.15516722 -0.59627527
1.2967654 -0.2578031 -0.5024141 -0.12535092 -1.3978219 -0.6665331 0.303166 0.10179079
-1.6440601 -0.50086397 -1.459009 1.0548488 0.041339487 -0.45167705 0.2699505 0.33243132
0.908361 0.20370924 -0.08464056 0.38980848 1.1006567 0.27768764 -0.11699902 -1.8264059
-1.0753638 0.3965018 0.7652425 0.37124363 -1.0295824 0.7521568 1.5426155 -1.6702214
0.19525571 -0.71435934 -0.5282083 -0.84175664 0.11470684 0.5336871 -0.30060908 -0.80666625
-0.045692317 0.93846476 -1.9750358 0.6060811 0.70560175 0.9837691 0.7645172 0.1663453
0.40536523 0.3097705 1.2967194 0.69031084 1.5189867 -0.64945394 -1.4125572 -0.34066528
-0.029533297 0.06494231 -1.6034048 -0.048491005 1.4562415 -0.54734486 -0.19585201 0.35747996
0.07919484 -2.8645477 0.059403412 -1.0842743 0.45496002 -1.0272149 -1.6436279 0.83250517
-1.1069446 -1.0620956 0.40131074 -0.9188553 0.047383785 1.298422 -0.028005254 -0.67416084
0.29903907 -0.8486615 0.7742241 -1.0196315 -1.4817058 -1.5542698 0.40070042 -0.15001932
0.8677133 -0.27616307 0.24186751 0.14654067 0.34434777 -0.011477081 0.5198052 -1.3112118
0.80356383 -1.784027 -0.18896754 -0.48883766 0.34629533 -0.2779357 -0.67574227 0.16635047
1.9115642 0.54832804 0.015345916 0.40948182 -0.8462305 0.44833213 -0.89134645 -0.76677114
0.011637171 -0.0027734623 0.022659965 0.009563008 -2.0270035 0.13581032 0.19930847 1.7583643
0.0005727581 0.17232104 -0.6723845 -0.8882821 0.039562065 0.13433933 0.12893492 0.37530887
-0.49946585 -1.0263126 -0.09838089 -0.74030477 -0.5705412 0.2851755 0.3824557 0.3631217
0.56831896 -0.5222509 -0.3204324 0.46334705 0.20597199 -1.0296882 1.0928628 0.3160226
0.14902085 0.7226899 -0.04866028 -0.92454475 0.27924836 -0.12269328 -0.811688 -0.9576728
-0.62952334 -0.03831191 -1.3897723 -0.48739928 0.66344637 0.51127183 -1.5500859 -0.3290608
0.48418346 -1.6268791 -1.1471204 -0.8991664 -0.5991013 0.5696129 -0.21900046 -1.0406144
0.088175625 -2.1757286 -0.3500084 -0.4198785 -0.5860983 0.91932315 0.026157483 0.4886285
-0.26086757 0.49379763 -0.35184857 -0.12638913 0.45220232 0.9600127 0.022156471 -0.44176903
00000000: fee4 7dbf d1a3 233f 6099 343f a8f5 cabc
00000010: 5593 abbf 8551 83bf 4931 93be 92ed aabe
00000020: 2c3a 5a3d a748 103f a6e8 89be b866 14be
00000030: 7db3 1fbf b2b8 da3f 6a91 363e a213 8abe
00000040: edae 4e3f 892f 8c3e 9fe1 343f 892c 70bd
00000050: 6360 fd3e d32e 6abe a04f 863e 5712 973e
00000060: 4b15 bebd 0bb9 a03f 05b3 3d3f a07f 28be
00000070: cc44 1cbf e74c e3bf f27d 113f 3422 ad3e
00000080: 3713 cbbe 1e57 59bf 3c7c 93be 57af 3cbf
00000090: 7fbf 873f facd 4f3f b839 f53e d33c d4bf
000000a0: 56ac 98be f752 463d 53f3 cdbf df84 88bf
000000b0: 9ef3 373f 7737 10be babf 863d 14a3 993e
000000c0: 4d92 9fbe 9121 833f 646b 8b3d 77fd c03f
000000d0: 6a56 063f ac36 c3bf ec3f f8bf 0231 813d
000000e0: 164a 40be 9a0f a5bf a2c0 92bf 32e0 03be
000000f0: 3c5e 89bf de76 0dbd 16b6 ec3c ca89 a7be
00000100: 73c4 4ebf 7c2e 36c0 b374 ebbf 864d 60bf
00000110: a283 ab3d 0cf9 aebd 28e4 1e3e 7fa5 18bf
00000120: 69fc a53f c5fe 83be 369e 00bf fe5b 00be
00000130: d4eb b2bf eaa1 2abf 9338 9b3e b177 d03d
00000140: 9070 d2bf 9f38 00bf cfc0 babf 4905 873f
00000150: 9853 293d 3742 e7be f436 8a3e 7034 aa3e
00000160: 598a 683f 2899 503e 0858 adbd fa94 c73e
00000170: 52e2 8c3f 132d 8e3e 2f9d efbd abc7 e9bf
00000180: 85a5 89bf 4902 cb3e efe6 433f a513 be3e
00000190: 5bc9 83bf 598d 403f 6d74 c53f d1c9 d5bf
000001a0: 1df1 473e 41e0 36bf a938 07bf 5d7d 57bf
000001b0: 6beb ea3d b89f 083f 6fe9 99be ae81 4ebf
000001c0: de27 3bbd 3a3f 703f f9cd fcbf 2228 1b3f
000001d0: 51a2 343f 4bd8 7b3f 66b7 433f 6c56 2a3e
000001e0: 088c cf3e 3d9a 9e3e e7fa a53f 36b8 303f
000001f0: 286e c23f 9d42 26bf adce b4bf ae6b aebe
00000200: d0ef f1bc 7900 853d 5e3c cdbf 819e 46bd
00000210: 1f66 ba3f cb1e 0cbf 6e8d 48be 9d07 b73e
00000220: e730 a23d c054 37c0 fe50 733d 80c9 8abf
00000230: 85f0 e83e c77b 83bf 6662 d2bf 0f1f 553f
00000240: 5cb0 8dbf c0f2 87bf 9a78 cd3e 1a3a 6bbf
00000250: 8015 423d b132 a63f 466b e5bc ce95 2cbf
00000260: a61b 993e e141 59bf 8d33 463f 4983 82bf
00000270: 89a8 bdbf 50f2 c6bf 9b28 cd3e aa9e 19be
00000280: 7522 5e3f 3f65 8dbe 1eac 773e c20e 163e
00000290: 5a4e b03e 5e0a 3cbc f411 053f cad5 a7bf
000002a0: 5cb6 4d3f ff5a e4bf b580 41be ee48 fabe
000002b0: 9f4d b13e 974d 8ebe 72fd 2cbf c757 2a3e
000002c0: 23ae f43f 3a5f 0c3f 706d 7b3c 9aa7 d13e
000002d0: 90a2 58bf ca8b e53e 482f 64bf 1d4b 44bf
000002e0: d5a9 3e3c fac2 35bb 64a1 b93c 2aae 1c3c
000002f0: 6dba 01c0 dc11 0b3e 8517 4c3e 1512 e13f
00000300: 2525 163a ed74 303e 6421 2cbf 7566 63bf
00000310: d50b 223d 4090 093e 8407 043e 7c28 c03e
00000320: fdb9 ffbe 365e 83bf ec7b c9bd 9d84 3dbf
00000330: fd0e 12bf 8602 923e 3cd1 c33e 16eb b93e
00000340: 5a7d 113f 3cb2 05bf b70f a4be d33b ed3e
00000350: 52ea 523e d3cc 83bf eee2 8b3f b7cd a13e
00000360: ec98 183e 3502 393f 0050 47bd f7ae 6cbf
00000370: a4f9 8e3e 9d46 fbbd c9ca 4fbf 0b2a 75bf
00000380: 7128 21bf f3ec 1cbd 0fe4 b1bf 668c f9be
00000390: 9fd7 293f b6e2 023f 3769 c6bf a87a a8be
000003a0: e5e6 f73e 933d d0bf d7d4 92bf c52f 66bf
000003b0: b45e 19bf 27d2 113f a841 60be da32 85bf
000003c0: 6c95 b43d 233f 0bc0 4d34 b3be 51fa d6be
000003d0: 8a0a 16bf c358 6b3f 3848 d63c 842d fa3e
000003e0: 6f90 85be 0bd3 fc3e 7f25 b4be 276c 01be
000003f0: 1087 e73e 64c3 753f 7d81 b53c 8d2f e2be

fc1.bias f4 [256]
-0.33066067 0.011303646 -0.50237113 0.52557224 0.051568758 0.07233583 0.5553718 0.2329645
-0.04125463 -0.043519124 0.07109644 -0.24463834 -0.3134468 -0.27004075 0.024102338 -0.004188306
-0.28081045 0.38131005 0.22533949 -0.32489157 0.21868476 0.5284804 -0.10337784 -0.00267171
-0.4789922 -0.11425705 0.45991054 0.034576695 0.065901294 0.25777647 0.24277903 -0.14058734
0.16475523 -0.005411894 -0.0397959 -0.36273623 -0.048940025 -0.46481195 0.26332924 0.2964328
0.033743612 0.049304012 -0.4619811 -0.37930456 -0.11466728 0.44208997 -0.014591732 -0.25089675
-0.40241835 0.5929721 0.0809629 0.032710936 0.3399253 0.08272385 -0.62995297 -0.14638618
-0.4828958 0.55419064 0.047467776 -0.040156625 -0.050920527 0.27927712 0.34097064 0.12172535
-0.017096048 -0.80872774 0.15815696 -0.0369307 0.1865828 0.270774 0.076982796 -0.5056422
-0.36900717 0.25182387 -0.014145996 0.24732143 0.113503374 -0.16100128 -0.7208525 -0.005007334
-0.0039542336 0.13457514 -0.30896616 -0.56480503 0.41604665 0.298992 0.032777272 -0.03615662
-0.6388762 -0.5836359 -0.096961066 0.17249994 0.17498606 -0.37798077 0.30198315 0.59440553
-0.20309623 0.3358821 -0.12116952 0.0037682492 0.38290277 0.088421 -0.6245784 -0.6642985
-0.13178407 0.6214701 0.2976938 -0.50447994 0.1525689 0.35762733 -0.37761992 0.63804847
-0.13959426 -0.10793176 -0.09859547 0.4268432 0.32999113 -0.08127561 -0.53221244 0.23373143
0.17797042 0.027104901 -0.62562823 -0.4008024 0.5087802 -0.6213155 -0.7151867 0.119596854
0.42503604 -0.20999323 -0.34976274 -0.591702 0.2883485 0.18255107 -0.26630595 -0.41142955
0.09342278 -0.14503099 -0.15967391 -1.1442481 -0.21631344 0.27020562 0.02981236 -0.3884404
-0.2127909 -0.028279975 0.52944845 0.5897783 0.014570039 -0.03636563 -0.16382474 -0.61971676
0.23162808 -0.0070500313 -0.3948131 0.31251577 0.08465753 0.19222154 -0.5867109 0.030201437
-0.17730722 -0.12514059 0.11653288 0.32276255 -0.52603745 0.43094623 0.3455416 0.25952652
0.0047504567 0.10980776 0.124983214 -0.059963394 0.6040261 -0.4649444 -0.45804977 -0.17746285
0.50846076 0.5572918 -0.40643224 0.024382986 -0.39589122 0.2858437 -0.4710442 0.9314323
0.11736969 -0.6127897 0.08529346 -0.07531596 -0.6329308 -0.03709859 0.096683756 0.5595554
-0.24713777 -0.27228567 0.19938348 0.10900966 -0.04007412 -0.021112239 0.14133406 0.56846744
0.2535002 -0.54227626 0.05380502 0.2127438 0.6829536 0.15374683 0.4807306 0.028822087
-0.5007327 0.22174218 -0.3209783 0.09689504 0.054130998 0.7860044 0.46636146 0.002452889
-0.76595724 -0.6583736 -0.13248166 0.65581 0.20432247 0.11446493 -0.26649326 -0.2846788
-0.22899418 -0.19805838 -0.010933713 0.39394653 0.30071852 -0.00041065272 -0.19361681 0.2318749
-0.49388412 -0.4023237 -0.1259222 0.13914563 -0.16138074 0.5879823 0.39933488 -0.48573777
0.16146962 0.15592048 -0.43008277 -0.14902815 0.37834898 0.03432771 0.10366373 -0.38535008
0.26276073 -0.032131672 -0.1693329 -0.2940117 -0.1805925 0.1387319 -0.0691653 0.24372919
00000000: 5b4c a9be ed32 393c 659b 00bf e78b 063f
00000010: c339 533d cf24 943d d92c 0e3f 3f8e 6e3e
00000020: 9dfa 28bd 1c41 32bd 039b 913d 7982 7abe
00000030: 197c a0be c842 8abe 4472 c53c 0f3e 89bb
00000040: 63c6 8fbe 123b c33e 65bf 663e 3058 a6be
00000050: e6ee 5f3e 7e4a 073f c3b7 d3bd db17 2fbb
00000060: 773e f5be 9aff e9bd 6579 eb3e 4ba0 0d3d
00000070: 42f7 863d 47fb 833e 119b 783e 21f6 0fbe
00000080: 98b5 283e 4256 b1bb 0701 23bd 90b8 b9be
00000090: 5675 48bd d5fb edbe 17d3 863e 0ac6 973e
000000a0: be36 0a3d 01f3 493d c988 ecbe 3534 c2be
000000b0: aed6 eabd 9e59 e23e 2912 6fbc 8a75 80be
000000c0: c709 cebe 05cd 173f e0cf a53d e7fb 053d
000000d0: b00a ae3e 1f6b a93d 9944 21bf 42e6 15be
000000e0: 1e3e f7be 70df 0d3f 926d 423d 467b 24bd
000000f0: 0b92 50bd 69fd 8e3e b493 ae3e 244b f93d
00000100: 030d 8cbc c808 4fbf e6f3 213e a544 17bd
00000110: 900f 3f3e e4a2 8a3e 28a9 9d3d c471 01bf
00000120: 82ee bcbe 0fef 803e 9cc4 67bc d441 7d3e
00000130: 7574 e83d 85dd 24be ca89 38bf 9014 a4bb
00000140: 8492 81bb 11ce 093e d030 9ebe 1097 10bf
00000150: 1104 d53e 7b15 993e 7641 063d f718 14bd
00000160: 648d 23bf 2a69 15bf 8693 c6bd d3a3 303e
00000170: 8c2f 333e b286 c1be 899d 9a3e f62a 183f
00000180: 75f8 4fbe bdf8 ab3e ba27 f8bd bbf4 763b
00000190: d50b c43e 1216 b53d 5fe4 1fbf 770f 2abf
000001a0: 67f2 06be aa18 1f3f 526b 983e 9925 01bf
000001b0: 063b 1c3e ee1a b73e 6657 c1be 2557 233f
000001c0: ccf1 0ebe 540b ddbd 6cec c9bd 318b da3e
000001d0: 99f4 a83e d473 a6bd 133f 08bf 4b57 6f3e
000001e0: e13d 363e 190b de3c 2c29 20bf f935 cdbe
000001f0: 6b3f 023f 880e 1fbf 7a16 37bf 32ef f43d
00000200: 539e d93e 7708 57be 1a14 b3be c879 17bf
00000210: 6aa2 933e abee 3a3e 4159 88be e5a6 d2be
00000220: 7154 bf3d 0183 14be 8f81 23be b976 92bf
00000230: 4581 5dbe 6458 8a3e 0d39 f43c a9e1 c6be
00000240: dce5 59be 68ab e7bc ef89 073f b6fb 163f
00000250: 2cb7 6e3c 20f4 14bd acc1 27be c2a5 1ebf
00000260: e92f 6d3e f303 e7bb f124 cabe 1102 a03e
00000270: ed60 ad3d b9d5 443e af32 16bf 0169 f73c
00000280: 0690 35be db24 00be caa8 ee3d 2241 a53e
00000290: 64aa 06bf fca4 dc3e d4ea b03e a9e0 843e
000002a0: b8a9 9b3b e4e2 e03d 33f7 ff3d 2d9c 75bd
000002b0: 74a1 1a3f 310d eebe 8085 eabe d2b8 35be
000002c0: 7c2a 023f adaa 0e3f e317 d0be d4be c73c
000002d0: 41b2 cabe 1b5a 923e b52c f1be 5972 6e3f
000002e0: 855f f03d c9df 1cbf 56ae ae3d 413f 9abd
000002f0: c107 22bf b1f4 17bd 2202 c63d 063f 0f3f
00000300: af11 7dbe 0769 8bbe 2f2b 4c3e 7540 df3d
00000310: c324 24bd 93f3 acbc e0b9 103e 1587 113f
00000320: c7ca 813e 9ed2 0abf a762 5c3d 83d9 593e
00000330: 0cd6 2e3f cf6f 1d3e 5222 f63e 4c1c ec3c
00000340: 0530 00bf 6210 633e 4557 a4be e870 c63d
00000350: 77b8 5d3d 9637 493f eec6 ee3e a6c0 203b
00000360: c615 44bf 2c8b 28bf 46a9 07be 2ae3 273f
00000370: e939 513e 976c ea3d ce71 88be 6bc1 91be
00000380: 737d 6abe d1cf 4abe 5123 33bc 5cb3 c93e
00000390: c7f7 993e e04c d7b9 7c43 46be 9d70 6d3e
000003a0: 61de fcbe 5ffd cdbe c0f1 00be 317c 0e3e
000003b0: fe40 25be 0286 163f 9f75 cc3e 9fb2 f8be
000003c0: 4b58 253e 9ea9 1f3e cf33 dcbe d69a 18be
000003d0: f5b6 c13e 369b 0c3d a64d d43d 9b4c c5be
000003e0: 9388 863e 809c 03bd 9b65 2dbe b488 96be
000003f0: 3eed 38be bc0f 0e3e 89a6 8dbd 2594 793e

fc2.weight f4 [128, 256]
-0.56692916 0.49840674 0.23055993 -0.6534467 0.5949012 0.17246945 -1.3065454 -0.535228
0.73530453 -0.83333886 0.03843437 -1.3179055 -0.23877539 -0.15754764 -0.47330302 -0.8661335
0.019672252 -0.28473976 0.43626624 0.062471412 -0.5385519 -0.24391218 0.3833897 -0.4439002
0.28859615 0.07016351 -0.16237018 -0.51493347 0.6543159 -0.30058402 0.09898345 0.040150046
-0.24500497 -0.09576676 -0.17466062 0.45458424 -0.15061086 -0.122956835 -0.7242147 -0.16202275
0.41941243 0.13799147 -0.22259448 0.09942819 -0.50708747 0.19209848 -1.2438616 0.31638533
0.23817955 0.21608105 -1.0346149 0.10127429 -0.54310036 0.21853167 0.16689916 0.19270344
-0.29492795 -0.60590655 -0.32212263 0.25638774 -0.0046388884 0.807741 0.32966307 0.5796302
0.28405654 0.32094505 -0.022822404 -0.50068235 0.74719286 -0.49129635 0.21973176 0.01696536
-0.6719833 0.66036934 -1.1962022 1.4692702 -0.32560313 0.12579788 0.28448233 -0.54655737
0.040983297 -0.22143139 0.47069797 -0.24746715 -0.10402815 -0.66458064 0.5247935 -0.328256
0.521322 0.4785239 -0.010128752 0.13981704 -0.37807804 0.35746068 -0.036766376 -0.5820325
0.087417275 0.33354196 0.27665797 -0.23318999 -1.0323989 -0.13333564 0.37731203 0.9915862
0.15698428 -0.78995144 0.18528818 0.035742383 -0.18554783 0.15933806 0.34924775 -0.10775868
-0.34438008 0.022816254 -0.40842387 0.34030607 0.13700306 0.3747348 0.0071497113 0.48891258
0.3589938 0.22507153 0.44095123 0.31015092 0.18120396 -0.058486484 0.69825006 0.30526745
-0.23317151 0.47102043 -0.17427073 0.3521372 -0.9443026 1.2625979 0.14106357 0.07184706
0.32336447 -0.044940986 0.13007903 -0.35093302 -0.061570726 0.30545217 -0.8723257 0.06999764
0.13668826 0.3291703 -0.25233305 0.40395567 0.6017982 0.17117743 -0.2623313 -0.022223141
0.4405399 0.45763263 -0.42167836 -0.44927955 -0.063672386 -0.0044764644 -0.58937895 0.49697
0.00065877166 0.2974172 0.30923003 0.22147128 0.39144844 0.23010106 0.06563426 0.0053020897
0.2529196 0.05278248 -0.085853435 -0.23669666 -0.6271011 0.3978941 -0.838245 -0.072503194
0.15441847 0.37324777 -0.17567755 0.33821723 0.00025650722 0.28811282 -0.09785554 -0.5067895
0.42661002 0.70945066 -0.0078954715 -0.81320566 0.21030748 -0.31095102 -0.13115814 -0.1039891
0.09268476 0.12005092 0.12745322 0.16091497 -0.56835055 0.42816004 0.42972258 -0.02882084
0.19725844 0.01825528 0.13508329 -0.021823382 0.1284956 -0.10157565 0.19824283 -0.42116958
-0.28294376 -1.3739816 0.28469354 0.2676708 -0.20990117 -0.6759064 1.1151513 0.10508816
-0.2908138 0.31861618 -0.06238525 -0.072202265 0.1289608 -0.9583506 -0.038410414 -0.42485175
0.048846643 0.40407372 -1.3025289 -0.9712254 0.073973715 -0.2163995 -0.18832095 0.21784
-0.6412399 0.11507327 -0.510113 0.10871171 -0.33227673 0.22168595 0.15004978 0.33832926
-0.33537734 0.15963873 0.23636825 -0.07052543 -1.1263207 0.52036226 -1.3069844 0.21892923
0.23117274 0.5372958 0.075307876 -0.8102686 -0.24055493 0.40420923 0.023955122 -0.18143287
00000000: 4522 11bf 2b2f ff3e e717 6c3e 4848 27bf
00000010: 724b 183f d59b 303e e13c a7bf b404 09bf
00000020: eb3c 3c3f b255 55bf 5c6d 1d3d 21b1 a8bf
00000030: 8981 74be 2b54 21be c654 f2be edba 5dbf
00000040: b427 a13c 69c9 91be 4a5e df3e 06e2 7f3d
00000050: 8ade 09bf 1dc4 79be a84b c43e e346 e3be
00000060: e0c2 933e e3b1 8f3d 5e44 26be aed2 03bf
00000070: 3f81 273f 26e6 99be d6b7 ca3d 6074 243d
00000080: 95e2 7abe 5d21 c4bd 3cda 32be 44bf e83e
00000090: bc39 1abe cbd0 fbbd 2266 39bf 4be9 25be
000000a0: 3abd d63e a34d 0d3e cfef 63be 02a1 cb3d
000000b0: 7cd0 01bf 77b5 443e db36 9fbf 42fd a13e
000000c0: 57e5 733e 5a44 5d3e 436e 84bf e568 cf3d
000000d0: a008 0bbf c4c6 5f3e 9de7 2a3e 0d54 453e
000000e0: cc00 97be b11c 1bbf 42ed a4be 4145 833e
000000f0: d101 98bb 1dc8 4e3f 99c9 a83e a562 143f
00000100: dc6f 913e e952 a43e 0df6 babc b82c 00bf
00000110: 0848 3f3f 328b fbbe 5d01 613e f0fa 8a3c
00000120: 1907 2cbf f70d 293f 271d 99bf 0c11 bc3f
00000130: 74b5 a6be 29d1 003e aba7 913e 2feb 0bbf
00000140: 1ade 273d e9be 62be 53ff f03e 0768 7dbe
00000150: b60c d5bd f521 2abf de58 063f 2c11 a8be
00000160: 5c75 053f 1601 f53e 11f3 25bc 332c 0f3e
00000170: 7293 c1be 1605 b73e 5798 16bd 1500 15bf
00000180: d407 b33d 03c6 aa3e 1da6 8d3e 5bc9 6ebe
00000190: a625 84bf 2389 08be 0b2f c13e 98d8 7d3f
000001a0: 7dc0 203e 423a 4abf 2fbc 3d3e 9b66 123d
000001b0: 4000 3ebe 8429 233e 9ad0 b23e 95b0 dcbd
000001c0: 9652 b0be 27e9 ba3c ef1c d1be 993c ae3e
000001d0: 884a 0c3e 3ddd bf3e 2048 ea3b c052 fa3e
000001e0: 09ce b73e 2779 663e 5cc4 e13e 1acc 9e3e
000001f0: 888d 393e 868f 6fbd 84c0 323f 044c 9c3e
00000200: 83c4 6ebe 9729 f13e 0774 32be 544b b43e
00000210: d1bd 71bf cf9c a13f f872 103e 8d24 933d
00000220: 0790 a53e 0a14 38bd 7033 053e 7ead b3be
00000230: 9631 7cbd 3a64 9c3e bd50 5fbf ec5a 8f3d
00000240: 02f8 0b3e 0289 a83e cc31 81be 47d3 ce3e
00000250: 720f 1a3f 2349 2f3e 4a50 86be 4e0d b6bc
00000260: 728e e13e d34e ea3e 3ae6 d7be f807 e6be
00000270: ab66 82bd 4eaf 92bb 8ae1 16bf da72 fe3e
00000280: 6bb1 2c3a 1147 983e 6653 9e3e 5ec9 623e
00000290: ee6b c83e 9d9f 6b3e 416b 863d 27bd ad3b
000002a0: ae7e 813e 7132 583d edd3 afbd 9c60 72be
000002b0: b389 20bf c7b8 cb3e 3997 56bf 8e7c 94bd
000002c0: e01f 1e3e 551a bf3e d1e4 33be cf2a ad3e
000002d0: d17b 8639 8683 933e 7c68 c8bd f5bc 01bf
000002e0: a16c da3e 8f9e 353f 025c 01bc 3f2e 50bf
000002f0: d85a 573e f934 9fbe 524e 06be 3df8 d4bd
00000300: 82d1 bd3d 42dd f53d 1983 023e e5c6 243e
00000310: 6c7f 11bf cb37 db3e 9904 dc3e af19 ecbc
00000320: 1efe 493e 198c 953c 4653 0a3e f3c6 b2bc
00000330: 5a94 033e e506 d0bd 2b00 4b3e 8aa3 d7be
00000340: 01de 90be a1de afbf 5ac3 913e 260c 893e
00000350: 55f0 56be 3408 2dbf 47bd 8e3f 7638 d73d
00000360: 8ce5 94be a921 a33e ad87 7fbd c8de 93bd
00000370: 4d0e 043e 7756 75bf 3d54 1dbd 2b86 d9be
00000380: 6b13 483d c0e2 ce3e 44b9 a6bf 3aa2 78bf
00000390: 887f 973d d597 5dbe 35d7 40be 7311 5f3e
000003a0: 4c28 24bf 89ab eb3d c496 02bf 3fa4 de3d
000003b0: 2d20 aabe a401 633e a6a6 193e 7e39 ad3e
000003c0: 94b6 abbe 5678 233e 850a 723e a36f 90bd
000003d0: 472b 90bf 7636 053f 444b a7bf fc2e 603e
000003e0: 8cb8 6c3e 388c 093f 043b 9a3d c36d 4fbf
000003f0: 0854 76be 83f4 ce3e 883d c43c 8ac9 39be

fc2.bias f4 [128]
0.07780461 -0.26861346 -0.26160213 0.018922605 0.19461046 -0.15290886 -0.17724566 -0.19908887
0.047380242 0.37751028 -0.2262392 0.15669037 -0.25958702 0.022814969 0.15286732 -0.34223187
0.03916407 0.00036005708 0.0042349747 -0.14840443 0.23049839 0.1842761 0.10849209 0.5847012
0.33743113 0.22595085 -0.16667758 -0.08297747 -0.28720847 0.0886234 -0.32223547 0.47091854
-0.043611627 -0.45035288 0.1405521 -0.19494689 -0.0082879225 0.16518706 -0.016704284 -0.27630785
-0.11039581 0.07493411 0.089179 0.47258604 0.26662263 -0.09268593 0.15673077 -0.22399352
-0.33369246 0.29946697 0.13111922 0.5176793 -0.26555747 0.12551136 -0.020625593 0.019917773
0.13281335 -0.1787268 -0.036206722 0.11392251 0.111266814 -0.09211814 -0.161886 -0.011030315
-0.10075372 0.00036772707 0.350129 -0.028732466 -0.11210327 0.47838214 -0.09469353 -0.15028368
0.3423621 -0.4000414 -0.33906597 -0.2921531 -0.016706642 -0.08830712 -0.41636488 0.28448105
0.2955114 -0.15357563 -0.6337631 -0.6739826 -0.066698864 0.093638934 -0.040573888 -0.004185063
0.45619604 -0.1941878 0.036889244 -0.20272855 0.036963467 -0.033362698 -0.10606686 -0.075368464
0.28321132 -0.17867662 -0.42072555 0.0042306418 -0.09190879 0.19839744 -0.3251348 -0.39372838
0.32329473 -0.2905024 0.14532122 0.07971078 -0.2595305 -0.17742907 -0.27860564 0.009669043
-0.1394753 -0.03089607 0.07055949 -0.1488934 0.12915848 -0.3947668 0.086916834 0.1339149
0.17044285 -0.6492253 -0.03284909 -0.037142195 -0.26896486 0.075679585 0.28941682 0.14464389
00000000: 0658 9f3d b487 89be b7f0 85be 9403 9b3c
00000010: f747 473e 2494 1cbe e37f 35be f4dd 4bbe
00000020: c911 423d 0749 c13e 40ab 67be 7173 203e
00000030: 97e8 84be 75e6 ba3c 4089 1c3e 0439 afbe
00000040: 816a 203d 0bc6 bc39 8bc5 8a3b 55f7 17be
00000050: c507 6c3e e0b2 3c3e 1a31 de3d faae 153f
00000060: c6c3 ac3e a95f 673e 87ad 2abe 17f0 a9bd
00000070: fd0c 93be 2f80 b53d 0cfc a4be 3c1c f13e
00000080: 1ba2 32bd a794 e6be e4ec 0f3e 28a0 47be
00000090: 11ca 07bc cc26 293e 6cd7 88bc 3978 8dbe
000000a0: 3317 e2bd 0e77 993d 7ba3 b63d ccf6 f13e
000000b0: c382 883e 1fd2 bdbd 087e 203e 8f5e 65be
000000c0: bdd9 aabe bc53 993e 1e44 063e a186 043f
000000d0: 26f7 87be 0d86 003e 01f7 a8bc 992a a33c
000000e0: 3900 083e 2904 37be 804d 14bd 3450 e93d
000000f0: dbdf e33d 6fa8 bcbd 72c5 25be 7fb8 34bc
00000100: f757 cebd 7ecb c039 1c44 b33e 5960 ebbc
00000110: 6696 e5bd 81ee f43e aeee c1bd f7e3 19be
00000120: 164a af3e 3ad2 ccbe 0e9a adbe 1795 95be
00000130: 5edc 88bc 5dda b4bd c72d d5be 80a7 913e
00000140: 454d 973e ee42 1dbe 4c3e 22bf 208a 2cbf
00000150: 6a99 88bd c5c5 bf3d ce30 26bd da22 89bb
00000160: 8792 e93e 2bd9 46be 2d19 173d 1398 4fbe
00000170: 0167 173d 53a7 08bd 9539 d9bd c85a 9abd
00000180: 1301 913e 01f7 36be 5769 d7be 32a1 8a3b
00000190: ad3a bcbd b328 4b3e 1278 a6be c496 c9be
000001a0: e386 a53e bbbc 94be 16cf 143e 683f a33d
000001b0: 2fe1 84be f7af 35be 66a5 8ebe e86a 1e3c
000001c0: 9dd2 0ebe c119 fdbc 7e81 903d 8377 18be
000001d0: 1f42 043e e01e cabe 7401 b23d fd20 093e
000001e0: 9288 2e3e a133 26bf c48c 06bd 6a22 18bd
000001f0: c3b5 89be e6fd 9a3d 712e 943e 871d 143e

fc3.weight f4 [4, 128]
-0.45884678 1.3473217 -0.18237011 -1.0570261 -0.2912269 -0.28295422 0.032581963 -0.5203862
-1.0492928 -0.86712396 0.8475894 -0.77215344 -0.45288795 0.3288686 0.43870547 -0.9381536
-0.09584237 -0.31755257 0.45397833 0.37677443 -1.9308275 0.46431085 1.0717795 -0.7244014
-0.3814417 -0.1859918 1.13242 0.53300077 0.9599519 -0.31078804 -0.2886058 -0.64121264
-0.10421688 0.1468311 0.076760694 -0.24876864 0.10125397 0.5857347 -0.16004549 0.12825379
1.0615121 0.89869833 0.6152489 0.1372412 -0.4202161 1.8864615 -0.29759157 -0.7733462
-1.1708269 0.77037376 1.0999782 1.2412183 -0.5842271 0.91105944 -1.0850697 -0.41729584
-0.9655854 -0.81938785 1.1605235 -0.82261026 0.20519073 -0.591605 -0.49748945 0.09888776
1.3752942 1.3072815 1.3245724 0.06314085 -0.051219873 1.5980408 -0.105794124 1.3218265
-0.81415796 1.4065621 0.33254838 1.1911262 -1.1543272 0.91030365 0.98779714 0.3650991
0.0011731008 -0.6083593 -1.2326807 1.4157605 -0.7770283 0.10648269 -0.09125021 -0.3638703
-1.068117 1.5086491 0.115201406 1.033083 -0.6721726 0.13757779 0.8903748 -0.25263014
-0.32574293 -0.5124715 -0.36669818 0.79737055 0.8713821 1.0303863 -0.45213717 0.14364135
1.2183183 -1.4546592 1.1103384 -0.5575503 -0.6818445 0.10777951 -0.5428505 1.4074297
-0.47924033 0.011972658 0.46016946 -0.5601771 0.06980407 0.39764425 1.1266419 0.79571956
0.14247373 0.5410824 0.02238832 0.021926405 -0.23097014 -0.43384653 -0.83730215 -0.037209205
-0.7843027 1.1936182 -0.31965896 -0.7982866 -0.5870558 -0.23799711 -0.37531716 -0.8424088
0.8320894 -0.31621128 -0.013103692 -0.8220566 -0.3098571 1.2240318 0.3346386 0.5276471
-0.66245717 -0.24345684 0.9915276 0.74582714 -0.99080837 0.37697765 1.1198456 -0.8826988
-0.95108205 -0.03381228 0.95383084 0.24568987 0.9047044 -0.99996936 -0.17290322 -0.5424894
0.050599013 0.508322 -0.3920706 -0.20748602 0.2405788 0.12008791 0.11093545 -0.10588865
1.2559466 0.9272776 0.41807532 -0.104361966 -0.28299904 2.024292 -0.31883124 -1.0637589
-0.93496674 1.0621835 1.0162655 1.2398946 -0.27668068 0.92960584 -0.6565268 -0.5134317
-0.87105185 -0.54544705 1.0382969 -0.0816853 -0.07512832 -0.37839705 -0.44187376 -0.076826826
0.314955 1.4685572 1.1923761 1.6385105 0.18755741 1.4567685 -0.12269424 1.0063304
-0.18544443 1.2224325 1.2804121 1.232136 1.0807726 0.60655314 0.7487447 0.30237153
-0.26053023 -0.41664478 -1.4365147 0.5604052 -0.9042831 -0.022954209 0.030815313 0.57584256
-1.0936209 -0.21566199 -0.86277026 0.93622756 -0.31891695 0.07718237 0.95584184 -0.5782732
-0.08997569 -0.7953164 -0.5520862 0.90839845 1.0764217 0.9519526 -1.0955968 -0.60442144
1.0578735 -0.91427666 1.3125653 -0.21686208 -1.0564145 -0.09152136 -0.59175646 1.3472914
-0.31127492 -0.0768366 0.22942084 -0.49806356 -0.20631057 0.6265583 1.2034166 1.2089578
0.43158844 1.1042665 0.040336914 -0.011879167 -0.256181 -0.25508264 -0.39767963 0.24437304
00000000: f7ed eabe 0a75 ac3f 3bbf 3abe a24c 87bf
00000010: b11b 95be 60df 90be aa74 053d 0838 05bf
00000020: 3a4f 86bf d6fb 5dbf 9efb 583f d9ab 45bf
00000030: eee0 e7be 7761 a83e 019e e03e d62a 70bf
00000040: 0149 c4bd 4096 a2be d96f e83e 94e8 c03e
00000050: 5b25 f7bf 27ba ed3e 1230 893f 5f72 39bf
00000060: 544c c3be a274 3ebe 23f3 903f bd72 083f
00000070: 68bf 753f 9c1f 9fbe 24c4 93be 8326 24bf
00000080: a96f d5bd e45a 163e b634 9d3d 35bd 7ebe
00000090: 3e5e cf3d b6f2 153f f7e2 23be f654 033e
000000a0: a1df 873f 1811 663f f480 1d3f f588 0c3e
000000b0: 9126 d7be 9277 f13f ec5d 98be 04fa 45bf
000000c0: a8dd 95bf 3737 453f 16cc 8c3f 3ee0 9e3f
000000d0: e88f 15bf 313b 693f 90e3 8abf cda7 d5be
000000e0: 9b30 77bf 67c3 51bf 098c 943f 9696 52bf
000000f0: 851d 523e 6d73 17bf f0b6 febe aa85 ca3d
00000100: a409 b03f 0055 a73f 978b a93f fd4f 813d
00000110: eecb 51bd 9a8c cc3f 97aa d8bd 9c31 a93f
00000120: a86c 50bf 3a0a b43f c843 aa3e d376 983f
00000130: fec0 93bf a909 693f 46e0 7c3f 45ee ba3e
00000140: bbc2 993a 6fbd 1bbf 7bc8 9dbf a437 b53f
00000150: 54eb 46bf 9913 da3d 64e1 babd 354d babe
00000160: 0fb8 88bf 6a1b c13f b7ee eb3d 103c 843f
00000170: 8113 2cbf 31e1 0c3e 9aef 633f bd58 81be
00000180: c7c7 a6be 5531 03bf ddbf bbbe 7a20 4c3f
00000190: e612 5f3f b3e3 833f 867e e7be b816 133e
000001a0: dbf1 9b3f 4632 babf 921f 8e3f 9ebb 0ebf
000001b0: 5c8d 2ebf 81bb dc3d 40f8 0abf a826 b43f
000001c0: fd5e f5be f828 443c 559b eb3e c467 0fbf
000001d0: 70f5 8e3d 0798 cb3e cd35 903f 47b4 4b3f
000001e0: a2e4 113e 6084 0a3f b667 b73c 019f b33c
000001f0: 7083 6cbe 2221 debe 6f59 56bf ae68 18bd
00000200: 10c8 48bf 7bc8 983f 57aa a3be 835c 4cbf
00000210: 4a49 16bf 84b5 73be 9229 c0be 1aa8 57bf
00000220: d003 553f 72e6 a1be deb0 56bc 4d72 52bf
00000230: 97a5 9ebe 13ad 9c3f c055 ab3e e113 073f
00000240: cb96 29bf c04c 79be c1d4 7d3f 87ee 3e3f
00000250: 9ea5 7dbf 3703 c13e 1a57 8f3f 8cf8 61bf
00000260: 1d7a 73bf bf7e 0abd 422e 743f 2096 7b3e
00000270: b59a 673f fefd 7fbf 8b0d 31be 96e0 0abf
00000280: e940 4f3d 6421 023f 7abd c8be 3777 54be
00000290: 4a5a 763e a6f0 f53d 2032 e33d 26dc d8bd
000002a0: dcc2 a03f 1162 6d3f f80d d63e babb d5bd
000002b0: 40e5 90be 008e 0140 d93d a3be 4029 88bf
000002c0: fb59 6fbf a1f5 873f fd14 823f deb4 9e3f
000002d0: 17a9 8dbe a6fa 6d3f 2412 28bf 4370 03bf
000002e0: 41fd 5ebf 6ba2 0bbf eae6 843f 9f4a a7bd
000002f0: e0dc 99bd 42bd c1be 473d e2be 6257 9dbd
00000300: c841 a13e aff9 bb3f c89f 983f b6ba d13f
00000310: 0d0f 403e 6477 ba3f 1e47 fbbd 6fcf 803f
00000320: 25e5 3dbe ab78 9c3f 8be4 a33f a2b6 9d3f
00000330: c256 8a3f 1147 1b3f bcad 3f3f 71d0 9a3e
00000340: 3864 85be 7752 d5be b7df b7bf b776 0f3f
00000350: 197f 67bf 770a bcbc 6570 fc3c 6b6a 133f
00000360: c5fb 8bbf 7fd6 5cbe 83de 5cbf 9cac 6f3f
00000370: 1549 a3be ca11 9e3d 0db2 743f b609 14bf
00000380: 2d45 b8bd db99 4bbf 8555 0dbf cd8c 683f
00000390: 30c8 893f 2ab3 733f 843c 8cbf 5dbb 1abf
000003a0: 6668 873f 090e 6abf 2402 a83f 1811 5ebe
000003b0: 9738 87bf 8d6f bbbd 5a7d 17bf 0b74 ac3f
000003c0: 6d5f 9fbe 825c 9dbd 4ced 6a3e 3002 ffbe
000003d0: 1443 53be 2066 203f 8e09 9a3f 21bf 9a3f
000003e0: 29f9 dc3e 9b58 8d3f 5238 253d d6a0 42bc
000003f0: 282a 83be 319a 82be aa9c cbbe ed3c 7a3e

fc3.bias f4 [4]
-0.30569243 -0.018759469 0.10774399 0.01238679
00000000: b883 9cbe 75ad 99bc e2a8 dc3d f6f1 4a3c

fc1.weight f4 [256, 8]
-0.9917754 0.6392184 0.7054653 -0.024775341 -1.3404337 -1.0259253 -0.2874854 -0.33384377
0.053278133 0.5636086 -0.2693531 -0.14492309 -0.6238325 1.7087615 0.17828909 -0.26968104
0.80735666 0.27380016 0.7065677 -0.058636222 0.494876 -0.22869425 0.26232624 0.2950618
-0.09281405 1.2556471 0.7410129 -0.16454935 -0.61042476 -1.7757844 0.568328 0.33815157
-0.39663097 -0.84898555 -0.2880572 -0.7370505 1.0605315 0.8117367 0.47895598 -1.6581062
-0.29818982 0.048418965 -1.6089882 -1.0665549 0.71856105 -0.14083658 0.06579538 0.3000723
-0.31166306 1.0244619 0.068075925 1.5077351 0.5247561 -1.525106 -1.9394507 0.063081756
-0.18778262 -1.2895386 -1.1465037 -0.12878492 -1.0731883 -0.03453719 0.02889542 -0.32722312
-0.8076851 -2.8465872 -1.8394989 -0.8761829 0.08374716 -0.08543596 0.15516722 -0.59627527
1.2967654 -0.2578031 -0.5024141 -0.12535092 -1.3978219 -0.6665331 0.303166 0.10179079
-1.6440601 -0.50086397 -1.459009 1.0548488 0.041339487 -0.45167705 0.2699505 0.33243132
0.908361 0.20370924 -0.08464056 0.38980848 1.1006567 0.27768764 -0.11699902 -1.8264059
-1.0753638 0.3965018 0.7652425 0.37124363 -1.0295824 0.7521568 1.5426155 -1.6702214
0.19525571 -0.71435934 -0.5282083 -0.84175664 0.11470684 0.5336871 -0.30060908 -0.80666625
-0.045692317 0.93846476 -1.9750358 0.6060811 0.70560175 0.9837691 0.7645172 0.1663453
0.40536523 0.3097705 1.2967194 0.69031084 1.5189867 -0.64945394 -1.4125572 -0.34066528
-0.029533297 0.06494231 -1.6034048 -0.048491005 1.4562415 -0.54734486 -0.19585201 0.35747996
0.07919484 -2.8645477 0.059403412 -1.0842743 0.45496002 -1.0272149 -1.6436279 0.83250517
-1.1069446 -1.0620956 0.40131074 -0.9188553 0.047383785 1.298422 -0.028005254 -0.67416084
0.29903907 -0.8486615 0.7742241 -1.0196315 -1.4817058 -1.5542698 0.40070042 -0.15001932
0.8677133 -0.27616307 0.24186751 0.14654067 0.34434777 -0.011477081 0.5198052 -1.3112118
0.80356383 -1.784027 -0.18896754 -0.48883766 0.34629533 -0.2779357 -0.67574227 0.16635047
1.9115642 0.54832804 0.015345916 0.40948182 -0.8462305 0.44833213 -0.89134645 -0.76677114
0.011637171 -0.0027734623 0.022659965 0.009563008 -2.0270035 0.13581032 0.19930847 1.7583643
0.0005727581 0.17232104 -0.6723845 -0.8882821 0.039562065 0.13433933 0.12893492 0.37530887
-0.49946585 -1.0263126 -0.09838089 -0.74030477 -0.5705412 0.2851755 0.3824557 0.3631217
0.56831896 -0.5222509 -0.3204324 0.46334705 0.20597199 -1.0296882 1.0928628 0.3160226
0.14902085 0.7226899 -0.04866028 -0.92454475 0.27924836 -0.12269328 -0.811688 -0.9576728
-0.62952334 -0.03831191 -1.3897723 -0.48739928 0.66344637 0.51127183 -1.5500859 -0.3290608
0.48418346 -1.6268791 -1.1471204 -0.8991664 -0.5991013 0.5696129 -0.21900046 -1.0406144
0.088175625 -2.1757286 -0.3500084 -0.4198785 -0.5860983 0.91932315 0.026157483 0.4886285
-0.26086757 0.49379763 -0.35184857 -0.12638913 0.45220232 0.9600127 0.022156471 -0.44176903
00000000: fee4 7dbf d1a3 233f 6099 343f a8f5 cabc
00000010: 5593 abbf 8551 83bf 4931 93be 92ed aabe
00000020: 2c3a 5a3d a748 103f a6e8 89be b866 14be
00000030: 7db3 1fbf b2b8 da3f 6a91 363e a213 8abe
00000040: edae 4e3f 892f 8c3e 9fe1 343f 892c 70bd
00000050: 6360 fd3e d32e 6abe a04f 863e 5712 973e
00000060: 4b15 bebd 0bb9 a03f 05b3 3d3f a07f 28be
00000070: cc44 1cbf e74c e3bf f27d 113f 3422 ad3e
00000080: 3713 cbbe 1e57 59bf 3c7c 93be 57af 3cbf
00000090: 7fbf 873f facd 4f3f b839 f53e d33c d4bf
000000a0: 56ac 98be f752 463d 53f3 cdbf df84 88bf
000000b0: 9ef3 373f 7737 10be babf 863d 14a3 993e
000000c0: 4d92 9fbe 9121 833f 646b 8b3d 77fd c03f
000000d0: 6a56 063f ac36 c3bf ec3f f8bf 0231 813d
000000e0: 164a 40be 9a0f a5bf a2c0 92bf 32e0 03be
000000f0: 3c5e 89bf de76 0dbd 16b6 ec3c ca89 a7be
00000100: 73c4 4ebf 7c2e 36c0 b374 ebbf 864d 60bf
00000110: a283 ab3d 0cf9 aebd 28e4 1e3e 7fa5 18bf
00000120: 69fc a53f c5fe 83be 369e 00bf fe5b 00be
00000130: d4eb b2bf eaa1 2abf 9338 9b3e b177 d03d
00000140: 9070 d2bf 9f38 00bf cfc0 babf 4905 873f
00000150: 9853 293d 3742 e7be f436 8a3e 7034 aa3e
00000160: 598a 683f 2899 503e 0858 adbd fa94 c73e
00000170: 52e2 8c3f 132d 8e3e 2f9d efbd abc7 e9bf
00000180: 85a5 89bf 4902 cb3e efe6 433f a513 be3e
00000190: 5bc9 83bf 598d 403f 6d74 c53f d1c9 d5bf
000001a0: 1df1 473e 41e0 36bf a938 07bf 5d7d 57bf
000001b0: 6beb ea3d b89f 083f 6fe9 99be ae81 4ebf
000001c0: de27 3bbd 3a3f 703f f9cd fcbf 2228 1b3f
000001d0: 51a2 343f 4bd8 7b3f 66b7 433f 6c56 2a3e
000001e0: 088c cf3e 3d9a 9e3e e7fa a53f 36b8 303f
000001f0: 286e c23f 9d42 26bf adce b4bf ae6b aebe
00000200: d0ef f1bc 7900 853d 5e3c cdbf 819e 46bd
00000210: 1f66 ba3f cb1e 0cbf 6e8d 48be 9d07 b73e
00000220: e730 a23d c054 37c0 fe50 733d 80c9 8abf
00000230: 85f0 e83e c77b 83bf 6662 d2bf 0f1f 553f
00000240: 5cb0 8dbf c0f2 87bf 9a78 cd3e 1a3a 6bbf
00000250: 8015 423d b132 a63f 466b e5bc ce95 2cbf
00000260: a61b 993e e141 59bf 8d33 463f 4983 82bf
00000270: 89a8 bdbf 50f2 c6bf 9b28 cd3e aa9e 19be
00000280: 7522 5e3f 3f65 8dbe 1eac 773e c20e 163e
00000290: 5a4e b03e 5e0a 3cbc f411 053f cad5 a7bf
000002a0: 5cb6 4d3f ff5a e4bf b580 41be ee48 fabe
000002b0: 9f4d b13e 974d 8ebe 72fd 2cbf c757 2a3e
000002c0: 23ae f43f 3a5f 0c3f 706d 7b3c 9aa7 d13e
000002d0: 90a2 58bf ca8b e53e 482f 64bf 1d4b 44bf
000002e0: d5a9 3e3c fac2 35bb 64a1 b93c 2aae 1c3c
000002f0: 6dba 01c0 dc11 0b3e 8517 4c3e 1512 e13f
00000300: 2525 163a ed74 303e 6421 2cbf 7566 63bf
00000310: d50b 223d 4090 093e 8407 043e 7c28 c03e
00000320: fdb9 ffbe 365e 83bf ec7b c9bd 9d84 3dbf
00000330: fd0e 12bf 8602 923e 3cd1 c33e 16eb b93e
00000340: 5a7d 113f 3cb2 05bf b70f a4be d33b ed3e
00000350: 52ea 523e d3cc 83bf eee2 8b3f b7cd a13e
00000360: ec98 183e 3502 393f 0050 47bd f7ae 6cbf
00000370: a4f9 8e3e 9d46 fbbd c9ca 4fbf 0b2a 75bf
00000380: 7128 21bf f3ec 1cbd 0fe4 b1bf 668c f9be
00000390: 9fd7 293f b6e2 023f 3769 c6bf a87a a8be
000003a0: e5e6 f73e 933d d0bf d7d4 92bf c52f 66bf
000003b0: b45e 19bf 27d2 113f a841 60be da32 85bf
000003c0: 6c95 b43d 233f 0bc0 4d34 b3be 51fa d6be
000003d0: 8a0a 16bf c358 6b3f 3848 d63c 842d fa3e
000003e0: 6f90 85be 0bd3 fc3e 7f25 b4be 276c 01be
000003f0: 1087 e73e 64c3 753f 7d81 b53c 8d2f e2be

fc1.bias f4 [256]
-0.33066067 0.011303646 -0.50237113 0.52557224 0.051568758 0.07233583 0.5553718 0.2329645
-0.04125463 -0.043519124 0.07109644 -0.24463834 -0.3134468 -0.27004075 0.024102338 -0.004188306
-0.28081045 0.38131005 0.22533949 -0.32489157 0.21868476 0.5284804 -0.10337784 -0.00267171
-0.4789922 -0.11425705 0.45991054 0.034576695 0.065901294 0.25777647 0.24277903 -0.14058734
0.16475523 -0.005411894 -0.0397959 -0.36273623 -0.048940025 -0.46481195 0.26332924 0.2964328
0.033743612 0.049304012 -0.4619811 -0.37930456 -0.11466728 0.44208997 -0.014591732 -0.25089675
-0.40241835 0.5929721 0.0809629 0.032710936 0.3399253 0.08272385 -0.62995297 -0.14638618
-0.4828958 0.55419064 0.047467776 -0.040156625 -0.050920527 0.27927712 0.34097064 0.12172535
-0.017096048 -0.80872774 0.15815696 -0.0369307 0.1865828 0.270774 0.076982796 -0.5056422
-0.36900717 0.25182387 -0.014145996 0.24732143 0.113503374 -0.16100128 -0.7208525 -0.005007334
-0.0039542336 0.13457514 -0.30896616 -0.56480503 0.41604665 0.298992 0.032777272 -0.03615662
-0.6388762 -0.5836359 -0.096961066 0.17249994 0.17498606 -0.37798077 0.30198315 0.59440553
-0.20309623 0.3358821 -0.12116952 0.0037682492 0.38290277 0.088421 -0.6245784 -0.6642985
-0.13178407 0.6214701 0.2976938 -0.50447994 0.1525689 0.35762733 -0.37761992 0.63804847
-0.13959426 -0.10793176 -0.09859547 0.4268432 0.32999113 -0.08127561 -0.53221244 0.23373143
0.17797042 0.027104901 -0.62562823 -0.4008024 0.5087802 -0.6213155 -0.7151867 0.119596854
0.42503604 -0.20999323 -0.34976274 -0.591702 0.2883485 0.18255107 -0.26630595 -0.41142955
0.09342278 -0.14503099 -0.15967391 -1.1442481 -0.21631344 0.27020562 0.02981236 -0.3884404
-0.2127909 -0.028279975 0.52944845 0.5897783 0.014570039 -0.03636563 -0.16382474 -0.61971676
0.23162808 -0.0070500313 -0.3948131 0.31251577 0.08465753 0.19222154 -0.5867109 0.030201437
-0.17730722 -0.12514059 0.11653288 0.32276255 -0.52603745 0.43094623 0.3455416 0.25952652
0.0047504567 0.10980776 0.124983214 -0.059963394 0.6040261 -0.4649444 -0.45804977 -0.17746285
0.50846076 0.5572918 -0.40643224 0.024382986 -0.39589122 0.2858437 -0.4710442 0.9314323
0.11736969 -0.6127897 0.08529346 -0.07531596 -0.6329308 -0.03709859 0.096683756 0.5595554
-0.24713777 -0.27228567 0.19938348 0.10900966 -0.04007412 -0.021112239 0.14133406 0.56846744
0.2535002 -0.54227626 0.05380502 0.2127438 0.6829536 0.15374683 0.4807306 0.028822087
-0.5007327 0.22174218 -0.3209783 0.09689504 0.054130998 0.7860044 0.46636146 0.002452889
-0.76595724 -0.6583736 -0.13248166 0.65581 0.20432247 0.11446493 -0.26649326 -0.2846788
-0.22899418 -0.19805838 -0.010933713 0.39394653 0.30071852 -0.00041065272 -0.19361681 0.2318749
-0.49388412 -0.4023237 -0.1259222 0.13914563 -0.16138074 0.5879823 0.39933488 -0.48573777
0.16146962 0.15592048 -0.43008277 -0.14902815 0.37834898 0.03432771 0.10366373 -0.38535008
0.26276073 -0.032131672 -0.1693329 -0.2940117 -0.1805925 0.1387319 -0.0691653 0.24372919
00000000: 5b4c a9be ed32 393c 659b 00bf e78b 063f
00000010: c339 533d cf24 943d d92c 0e3f 3f8e 6e3e
00000020: 9dfa 28bd 1c41 32bd 039b 913d 7982 7abe
00000030: 197c a0be c842 8abe 4472 c53c 0f3e 89bb
00000040: 63c6 8fbe 123b c33e 65bf 663e 3058 a6be
00000050: e6ee 5f3e 7e4a 073f c3b7 d3bd db17 2fbb
00000060: 773e f5be 9aff e9bd 6579 eb3e 4ba0 0d3d
00000070: 42f7 863d 47fb 833e 119b 783e 21f6 0fbe
00000080: 98b5 283e 4256 b1bb 0701 23bd 90b8 b9be
00000090: 5675 48bd d5fb edbe 17d3 863e 0ac6 973e
000000a0: be36 0a3d 01f3 493d c988 ecbe 3534 c2be
000000b0: aed6 eabd 9e59 e23e 2912 6fbc 8a75 80be
000000c0: c709 cebe 05cd 173f e0cf a53d e7fb 053d
000000d0: b00a ae3e 1f6b a93d 9944 21bf 42e6 15be
000000e0: 1e3e f7be 70df 0d3f 926d 423d 467b 24bd
000000f0: 0b92 50bd 69fd 8e3e b493 ae3e 244b f93d
00000100: 030d 8cbc c808 4fbf e6f3 213e a544 17bd
00000110: 900f 3f3e e4a2 8a3e 28a9 9d3d c471 01bf
00000120: 82ee bcbe 0fef 803e 9cc4 67bc d441 7d3e
00000130: 7574 e83d 85dd 24be ca89 38bf 9014 a4bb
00000140: 8492 81bb 11ce 093e d030 9ebe 1097 10bf
00000150: 1104 d53e 7b15 993e 7641 063d f718 14bd
00000160: 648d 23bf 2a69 15bf 8693 c6bd d3a3 303e
00000170: 8c2f 333e b286 c1be 899d 9a3e f62a 183f
00000180: 75f8 4fbe bdf8 ab3e ba27 f8bd bbf4 763b
00000190: d50b c43e 1216 b53d 5fe4 1fbf 770f 2abf
000001a0: 67f2 06be aa18 1f3f 526b 983e 9925 01bf
000001b0: 063b 1c3e ee1a b73e 6657 c1be 2557 233f
000001c0: ccf1 0ebe 540b ddbd 6cec c9bd 318b da3e
000001d0: 99f4 a83e d473 a6bd 133f 08bf 4b57 6f3e
000001e0: e13d 363e 190b de3c 2c29 20bf f935 cdbe
000001f0: 6b3f 023f 880e 1fbf 7a16 37bf 32ef f43d
00000200: 539e d93e 7708 57be 1a14 b3be c879 17bf
00000210: 6aa2 933e abee 3a3e 4159 88be e5a6 d2be
00000220: 7154 bf3d 0183 14be 8f81 23be b976 92bf
00000230: 4581 5dbe 6458 8a3e 0d39 f43c a9e1 c6be
00000240: dce5 59be 68ab e7bc ef89 073f b6fb 163f
00000250: 2cb7 6e3c 20f4 14bd acc1 27be c2a5 1ebf
00000260: e92f 6d3e f303 e7bb f124 cabe 1102 a03e
00000270: ed60 ad3d b9d5 443e af32 16bf 0169 f73c
00000280: 0690 35be db24 00be caa8 ee3d 2241 a53e
00000290: 64aa 06bf fca4 dc3e d4ea b03e a9e0 843e
000002a0: b8a9 9b3b e4e2 e03d 33f7 ff3d 2d9c 75bd
000002b0: 74a1 1a3f 310d eebe 8085 eabe d2b8 35be
000002c0: 7c2a 023f adaa 0e3f e317 d0be d4be c73c
000002d0: 41b2 cabe 1b5a 923e b52c f1be 5972 6e3f
000002e0: 855f f03d c9df 1cbf 56ae ae3d 413f 9abd
000002f0: c107 22bf b1f4 17bd 2202 c63d 063f 0f3f
00000300: af11 7dbe 0769 8bbe 2f2b 4c3e 7540 df3d
00000310: c324 24bd 93f3 acbc e0b9 103e 1587 113f
00000320: c7ca 813e 9ed2 0abf a762 5c3d 83d9 593e
00000330: 0cd6 2e3f cf6f 1d3e 5222 f63e 4c1c ec3c
00000340: 0530 00bf 6210 633e 4557 a4be e870 c63d
00000350: 77b8 5d3d 9637 493f eec6 ee3e a6c0 203b
00000360: c615 44bf 2c8b 28bf 46a9 07be 2ae3 273f
00000370: e939 513e 976c ea3d ce71 88be 6bc1 91be
00000380: 737d 6abe d1cf 4abe 5123 33bc 5cb3 c93e
00000390: c7f7 993e e04c d7b9 7c43 46be 9d70 6d3e
000003a0: 61de fcbe 5ffd cdbe c0f1 00be 317c 0e3e
000003b0: fe40 25be 0286 163f 9f75 cc3e 9fb2 f8be
000003c0: 4b58 253e 9ea9 1f3e cf33 dcbe d69a 18be
000003d0: f5b6 c13e 369b 0c3d a64d d43d 9b4c c5be
000003e0: 9388 863e 809c 03bd 9b65 2dbe b488 96be
000003f0: 3eed 38be bc0f 0e3e 89a6 8dbd 2594 793e

fc2.weight f4 [128, 256]
-0.56692916 0.49840674 0.23055993 -0.6534467 0.5949012 0.17246945 -1.3065454 -0.535228
0.73530453 -0.83333886 0.03843437 -1.3179055 -0.23877539 -0.15754764 -0.47330302 -0.8661335
0.019672252 -0.28473976 0.43626624 0.062471412 -0.5385519 -0.24391218 0.3833897 -0.4439002
0.28859615 0.07016351 -0.16237018 -0.51493347 0.6543159 -0.30058402 0.09898345 0.040150046
-0.24500497 -0.09576676 -0.17466062 0.45458424 -0.15061086 -0.122956835 -0.7242147 -0.16202275
0.41941243 0.13799147 -0.22259448 0.09942819 -0.50708747 0.19209848 -1.2438616 0.31638533
0.23817955 0.21608105 -1.0346149 0.10127429 -0.54310036 0.21853167 0.16689916 0.19270344
-0.29492795 -0.60590655 -0.32212263 0.25638774 -0.0046388884 0.807741 0.32966307 0.5796302
0.28405654 0.32094505 -0.022822404 -0.50068235 0.74719286 -0.49129635 0.21973176 0.01696536
-0.6719833 0.66036934 -1.1962022 1.4692702 -0.32560313 0.12579788 0.28448233 -0.54655737
0.040983297 -0.22143139 0.47069797 -0.24746715 -0.10402815 -0.66458064 0.5247935 -0.328256
0.521322 0.4785239 -0.010128752 0.13981704 -0.37807804 0.35746068 -0.036766376 -0.5820325
0.087417275 0.33354196 0.27665797 -0.23318999 -1.0323989 -0.13333564 0.37731203 0.9915862
0.15698428 -0.78995144 0.18528818 0.035742383 -0.18554783 0.15933806 0.34924775 -0.10775868
-0.34438008 0.022816254 -0.40842387 0.34030607 0.13700306 0.3747348 0.0071497113 0.48891258
0.3589938 0.22507153 0.44095123 0.31015092 0.18120396 -0.058486484 0.69825006 0.30526745
-0.23317151 0.47102043 -0.17427073 0.3521372 -0.9443026 1.2625979 0.14106357 0.07184706
0.32336447 -0.044940986 0.13007903 -0.35093302 -0.061570726 0.30545217 -0.8723257 0.06999764
0.13668826 0.3291703 -0.25233305 0.40395567 0.6017982 0.17117743 -0.2623313 -0.022223141
0.4405399 0.45763263 -0.42167836 -0.44927955 -0.063672386 -0.0044764644 -0.58937895 0.49697
0.00065877166 0.2974172 0.30923003 0.22147128 0.39144844 0.23010106 0.06563426 0.0053020897
0.2529196 0.05278248 -0.085853435 -0.23669666 -0.6271011 0.3978941 -0.838245 -0.072503194
0.15441847 0.37324777 -0.17567755 0.33821723 0.00025650722 0.28811282 -0.09785554 -0.5067895
0.42661002 0.70945066 -0.0078954715 -0.81320566 0.21030748 -0.31095102 -0.13115814 -0.1039891
0.09268476 0.12005092 0.12745322 0.16091497 -0.56835055 0.42816004 0.42972258 -0.02882084
0.19725844 0.01825528 0.13508329 -0.021823382 0.1284956 -0.10157565 0.19824283 -0.42116958
-0.28294376 -1.3739816 0.28469354 0.2676708 -0.20990117 -0.6759064 1.1151513 0.10508816
-0.2908138 0.31861618 -0.06238525 -0.072202265 0.1289608 -0.9583506 -0.038410414 -0.42485175
0.048846643 0.40407372 -1.3025289 -0.9712254 0.073973715 -0.2163995 -0.18832095 0.21784
-0.6412399 0.11507327 -0.510113 0.10871171 -0.33227673 0.22168595 0.15004978 0.33832926
-0.33537734 0.15963873 0.23636825 -0.07052543 -1.1263207 0.52036226 -1.3069844 0.21892923
0.23117274 0.5372958 0.075307876 -0.8102686 -0.24055493 0.40420923 0.023955122 -0.18143287
00000000: 4522 11bf 2b2f ff3e e717 6c3e 4848 27bf
00000010: 724b 183f d59b 303e e13c a7bf b404 09bf
00000020: eb3c 3c3f b255 55bf 5c6d 1d3d 21b1 a8bf
00000030: 8981 74be 2b54 21be c654 f2be edba 5dbf
00000040: b427 a13c 69c9 91be 4a5e df3e 06e2 7f3d
00000050: 8ade 09bf 1dc4 79be a84b c43e e346 e3be
00000060: e0c2 933e e3b1 8f3d 5e44 26be aed2 03bf
00000070: 3f81 273f 26e6 99be d6b7 ca3d 6074 243d
00000080: 95e2 7abe 5d21 c4bd 3cda 32be 44bf e83e
00000090: bc39 1abe cbd0 fbbd 2266 39bf 4be9 25be
000000a0: 3abd d63e a34d 0d3e cfef 63be 02a1 cb3d
000000b0: 7cd0 01bf 77b5 443e db36 9fbf 42fd a13e
000000c0: 57e5 733e 5a44 5d3e 436e 84bf e568 cf3d
000000d0: a008 0bbf c4c6 5f3e 9de7 2a3e 0d54 453e
000000e0: cc00 97be b11c 1bbf 42ed a4be 4145 833e
000000f0: d101 98bb 1dc8 4e3f 99c9 a83e a562 143f
00000100: dc6f 913e e952 a43e 0df6 babc b82c 00bf
00000110: 0848 3f3f 328b fbbe 5d01 613e f0fa 8a3c
00000120: 1907 2cbf f70d 293f 271d 99bf 0c11 bc3f
00000130: 74b5 a6be 29d1 003e aba7 913e 2feb 0bbf
00000140: 1ade 273d e9be 62be 53ff f03e 0768 7dbe
00000150: b60c d5bd f521 2abf de58 063f 2c11 a8be
00000160: 5c75 053f 1601 f53e 11f3 25bc 332c 0f3e
00000170: 7293 c1be 1605 b73e 5798 16bd 1500 15bf
00000180: d407 b33d 03c6 aa3e 1da6 8d3e 5bc9 6ebe
00000190: a625 84bf 2389 08be 0b2f c13e 98d8 7d3f
000001a0: 7dc0 203e 423a 4abf 2fbc 3d3e 9b66 123d
000001b0: 4000 3ebe 8429 233e 9ad0 b23e 95b0 dcbd
000001c0: 9652 b0be 27e9 ba3c ef1c d1be 993c ae3e
000001d0: 884a 0c3e 3ddd bf3e 2048 ea3b c052 fa3e
000001e0: 09ce b73e 2779 663e 5cc4 e13e 1acc 9e3e
000001f0: 888d 393e 868f 6fbd 84c0 323f 044c 9c3e
00000200: 83c4 6ebe 9729 f13e 0774 32be 544b b43e
00000210: d1bd 71bf cf9c a13f f872 103e 8d24 933d
00000220: 0790 a53e 0a14 38bd 7033 053e 7ead b3be
00000230: 9631 7cbd 3a64 9c3e bd50 5fbf ec5a 8f3d
00000240: 02f8 0b3e 0289 a83e cc31 81be 47d3 ce3e
00000250: 720f 1a3f 2349 2f3e 4a50 86be 4e0d b6bc
00000260: 728e e13e d34e ea3e 3ae6 d7be f807 e6be
00000270: ab66 82bd 4eaf 92bb 8ae1 16bf da72 fe3e
00000280: 6bb1 2c3a 1147 983e 6653 9e3e 5ec9 623e
00000290: ee6b c83e 9d9f 6b3e 416b 863d 27bd ad3b
000002a0: ae7e 813e 7132 583d edd3 afbd 9c60 72be
000002b0: b389 20bf c7b8 cb3e 3997 56bf 8e7c 94bd
000002c0: e01f 1e3e 551a bf3e d1e4 33be cf2a ad3e
000002d0: d17b 8639 8683 933e 7c68 c8bd f5bc 01bf
000002e0: a16c da3e 8f9e 353f 025c 01bc 3f2e 50bf
000002f0: d85a 573e f934 9fbe 524e 06be 3df8 d4bd
00000300: 82d1 bd3d 42dd f53d 1983 023e e5c6 243e
00000310: 6c7f 11bf cb37 db3e 9904 dc3e af19 ecbc
00000320: 1efe 493e 198c 953c 4653 0a3e f3c6 b2bc
00000330: 5a94 033e e506 d0bd 2b00 4b3e 8aa3 d7be
00000340: 01de 90be a1de afbf 5ac3 913e 260c 893e
00000350: 55f0 56be 3408 2dbf 47bd 8e3f 7638 d73d
00000360: 8ce5 94be a921 a33e ad87 7fbd c8de 93bd
00000370: 4d0e 043e 7756 75bf 3d54 1dbd 2b86 d9be
00000380: 6b13 483d c0e2 ce3e 44b9 a6bf 3aa2 78bf
00000390: 887f 973d d597 5dbe 35d7 40be 7311 5f3e
000003a0: 4c28 24bf 89ab eb3d c496 02bf 3fa4 de3d
000003b0: 2d20 aabe a401 633e a6a6 193e 7e39 ad3e
000003c0: 94b6 abbe 5678 233e 850a 723e a36f 90bd
000003d0: 472b 90bf 7636 053f 444b a7bf fc2e 603e
000003e0: 8cb8 6c3e 388c 093f 043b 9a3d c36d 4fbf
000003f0: 0854 76be 83f4 ce3e 883d c43c 8ac9 39be

fc2.bias f4 [128]
0.07780461 -0.26861346 -0.26160213 0.018922605 0.19461046 -0.15290886 -0.17724566 -0.19908887
0.047380242 0.37751028 -0.2262392 0.15669037 -0.25958702 0.022814969 0.15286732 -0.34223187
0.03916407 0.00036005708 0.0042349747 -0.14840443 0.23049839 0.1842761 0.10849209 0.5847012
0.33743113 0.22595085 -0.16667758 -0.08297747 -0.28720847 0.0886234 -0.32223547 0.47091854
-0.043611627 -0.45035288 0.1405521 -0.19494689 -0.0082879225 0.16518706 -0.016704284 -0.27630785
-0.11039581 0.07493411 0.089179 0.47258604 0.26662263 -0.09268593 0.15673077 -0.22399352
-0.33369246 0.29946697 0.13111922 0.5176793 -0.26555747 0.12551136 -0.020625593 0.019917773
0.13281335 -0.1787268 -0.036206722 0.11392251 0.111266814 -0.09211814 -0.161886 -0.011030315
-0.10075372 0.00036772707 0.350129 -0.028732466 -0.11210327 0.47838214 -0.09469353 -0.15028368
0.3423621 -0.4000414 -0.33906597 -0.2921531 -0.016706642 -0.08830712 -0.41636488 0.28448105
0.2955114 -0.15357563 -0.6337631 -0.6739826 -0.066698864 0.093638934 -0.040573888 -0.004185063
0.45619604 -0.1941878 0.036889244 -0.20272855 0.036963467 -0.033362698 -0.10606686 -0.075368464
0.28321132 -0.17867662 -0.42072555 0.0042306418 -0.09190879 0.19839744 -0.3251348 -0.39372838
0.32329473 -0.2905024 0.14532122 0.07971078 -0.2595305 -0.17742907 -0.27860564 0.009669043
-0.1394753 -0.03089607 0.07055949 -0.1488934 0.12915848 -0.3947668 0.086916834 0.1339149
0.17044285 -0.6492253 -0.03284909 -0.037142195 -0.26896486 0.075679585 0.28941682 0.14464389
00000000: 0658 9f3d b487 89be b7f0 85be 9403 9b3c
00000010: f747 473e 2494 1cbe e37f 35be f4dd 4bbe
00000020: c911 423d 0749 c13e 40ab 67be 7173 203e
00000030: 97e8 84be 75e6 ba3c 4089 1c3e 0439 afbe
00000040: 816a 203d 0bc6 bc39 8bc5 8a3b 55f7 17be
00000050: c507 6c3e e0b2 3c3e 1a31 de3d faae 153f
00000060: c6c3 ac3e a95f 673e 87ad 2abe 17f0 a9bd
00000070: fd0c 93be 2f80 b53d 0cfc a4be 3c1c f13e
00000080: 1ba2 32bd a794 e6be e4ec 0f3e 28a0 47be
00000090: 11ca 07bc cc26 293e 6cd7 88bc 3978 8dbe
000000a0: 3317 e2bd 0e77 993d 7ba3 b63d ccf6 f13e
000000b0: c382 883e 1fd2 bdbd 087e 203e 8f5e 65be
000000c0: bdd9 aabe bc53 993e 1e44 063e a186 043f
000000d0: 26f7 87be 0d86 003e 01f7 a8bc 992a a33c
000000e0: 3900 083e 2904 37be 804d 14bd 3450 e93d
000000f0: dbdf e33d 6fa8 bcbd 72c5 25be 7fb8 34bc
00000100: f757 cebd 7ecb c039 1c44 b33e 5960 ebbc
00000110: 6696 e5bd 81ee f43e aeee c1bd f7e3 19be
00000120: 164a af3e 3ad2 ccbe 0e9a adbe 1795 95be
00000130: 5edc 88bc 5dda b4bd c72d d5be 80a7 913e
00000140: 454d 973e ee42 1dbe 4c3e 22bf 208a 2cbf
00000150: 6a99 88bd c5c5 bf3d ce30 26bd da22 89bb
00000160: 8792 e93e 2bd9 46be 2d19 173d 1398 4fbe
00000170: 0167 173d 53a7 08bd 9539 d9bd c85a 9abd
00000180: 1301 913e 01f7 36be 5769 d7be 32a1 8a3b
00000190: ad3a bcbd b328 4b3e 1278 a6be c496 c9be
000001a0: e386 a53e bbbc 94be 16cf 143e 683f a33d
000001b0: 2fe1 84be f7af 35be 66a5 8ebe e86a 1e3c
000001c0: 9dd2 0ebe c119 fdbc 7e81 903d 8377 18be
000001d0: 1f42 043e e01e cabe 7401 b23d fd20 093e
000001e0: 9288 2e3e a133 26bf c48c 06bd 6a22 18bd
000001f0: c3b5 89be e6fd 9a3d 712e 943e 871d 143e
