results/shared_dqn_blind/models/checkpoint_ep500.pth (torch, 580718 bytes, 24 tensors)

fc1.weight f4 [256, 8]
000000 55 e8 7f bf 8b 59 37 3f c6 c0 43 3f e6 0e 95 be
       -0.99963886 0.71621007 0.76466024 -0.2911293
000010 ef 28 84 bf 54 ca 65 bf 51 0d de be 13 70 ad be
       -1.0324992 -0.89761853 -0.43369535 -0.33874568
000020 c3 21 8b 3e 8a e5 fd 3e 11 c0 db be 2c e9 86 be
       0.27174196 0.49589187 -0.42919973 -0.2634977
000030 91 47 3e bf 0d 34 b7 3f a7 89 ac 3d 10 f9 9b be
       -0.7432795 1.431276 0.084246926 -0.30463457
000040 df ed 0b 3f 32 f2 8a 3e fc ca 8a 3e 6c d4 df bd
       0.5465984 0.27137905 0.2710799 -0.10929188
000050 b2 14 e8 3e 8b 04 b5 be 49 bc 96 3e 9a fa 10 3f
       0.4532829 -0.3535503 0.29440525 0.5663239
000060 1b f4 60 be 9e 21 9d 3f 06 8b 39 3f 4c 4e 82 3c
       -0.21968119 1.2275884 0.7247776 0.015906475
000070 6a f5 38 bf 5b 7f fc bf b7 95 08 3f 05 ef 4b 3e
       -0.7224947 -1.9726366 0.53353447 0.19915397
000080 50 b6 95 be 3f f2 83 bf 9a 5d a0 be cb 10 d6 be
       -0.29240656 -1.0308303 -0.31321412 -0.41809687
000090 fa 4c 9d 3f 3a 30 d1 3e a9 f5 36 3f 8c 63 d0 bf
       1.2289116 0.40857106 0.714686 -1.6280379
0000a0 c5 86 09 bf 66 45 d5 bd 37 6a 90 bf af 2c 86 bf
       -0.53721267 -0.10413627 -1.1282414 -1.0482386
0000b0 b2 a3 54 3f 91 ef c8 3d e2 bd 39 3e fc 53 07 3f
       0.8306228 0.09811319 0.18138841 0.52862525
0000c0 61 e1 aa be c1 59 75 3f c6 16 7a be 80 5f a1 3f
       -0.33375075 0.9584008 -0.2442275 1.2607269
0000d0 b2 5c 88 3e 7a d7 cd bf 12 91 05 c0 bf 3a a4 be
       0.2663322 -1.6081383 -2.0869794 -0.3207607
0000e0 d9 1b bc bd 82 60 b8 bf 82 d7 85 bf 8b ec ab 3e
       -0.09184999 -1.4404452 -1.0456393 0.33578905
0000f0 d8 eb 77 bf 86 2a 98 3e 26 84 3b 3e e9 bd a0 be
       -0.96844244 0.29719943 0.1831213 -0.3139489
000100 75 44 48 bf e5 39 06 c0 cd 77 a2 bf 73 6b 2a bf
       -0.7822946 -2.0972836 -1.269281 -0.66570204
000110 4a f3 a5 3e d4 dc 2b be 04 a8 b0 3c f8 5f e4 be
       0.32412177 -0.16783458 0.021564491 -0.44604468
000120 42 a2 9f 3f d5 b3 05 bf 1a 43 b7 be 0d 5b d8 3d
       1.2471392 -0.52227527 -0.35793382 0.105642416
000130 08 1f a6 bf ea ed 49 bf 86 bb a0 3e 4e a1 8e 3d
       -1.297822 -0.78878653 0.3139307 0.0696436
000140 e6 df b2 bf b5 fa a5 be c3 f5 8d bf f8 99 ad 3f
       -1.3974578 -0.32417837 -1.1090626 1.3562613
000150 b4 4c 84 3e f5 73 21 bf 37 92 a4 3e 31 56 28 3f
       0.2583977 -0.6306756 0.32142803 0.6575652
000160 76 38 65 3f f5 39 b0 3e be 52 b5 bd 26 f6 2a 3f
       0.8953928 0.34419218 -0.088536724 0.6678184
000170 aa e2 8c 3f 29 9e 6b be 95 93 15 be 5e 2a c7 bf
       1.1006672 -0.23009552 -0.1460708 -1.5559804
000180 90 e3 48 bf ba 0a f7 3e 36 34 5e 3f 07 0e 07 3f
       -0.7847223 0.4825037 0.8679842 0.5275578
000190 0d 2b 2f bf 6a 3a 18 3f b4 da bb 3f a2 19 d0 bf
       -0.68425065 0.5946413 1.4676118 -1.6257823
0001a0 f3 b9 01 3e 7b c6 5b bf 04 7d e2 be ba 2e 45 bf
       0.1266859 -0.8584973 -0.44236004 -0.77024424
0001b0 95 25 ab bd b4 6c 00 3f 5c d7 f4 be 82 4f 65 bf
       -0.083567776 0.5016587 -0.47820556 -0.89574444
0001c0 57 41 50 be dc b9 36 3f ce 87 c3 bf 34 e5 11 3f
       -0.20337425 0.7137735 -1.5275819 0.5699036
0001d0 e0 38 61 3f 0b 15 8d 3f c4 ec 58 3f bd 36 1f 3e
       0.8797741 1.1022047 0.84736276 0.15548225
0001e0 37 a1 fd 3e e7 97 11 3f 0e c9 b6 3f 13 52 28 3f
       0.4953706 0.5687241 1.4280107 0.65750235
0001f0 35 84 bd 3f 94 04 84 bf e5 7c 85 bf 83 13 d1 be
       1.4805971 -1.0313897 -1.042874 -0.408352
000200 88 c9 1a bf e8 1c 71 3d 19 e5 ee bf ef 95 35 3e
       -0.6046376 0.058865458 -1.8663665 0.17732976
000210 dd 74 7d 3f 71 9d 95 bd 70 e0 2e bd f3 22 cb 3e
       0.99006444 -0.0730542 -0.04269451 0.39675102
000220 ef 86 05 bd 4d fd 08 c0 b9 3c 42 3e dc 5a 33 bf
       -0.032599386 -2.1404603 0.18968476 -0.70060515
000230 79 9c a3 3e 9f cc 63 bf f6 39 cf bf dd 3b 82 3f
       0.31955317 -0.889841 -1.6189563 1.0174519
000240 16 3c a8 bf 7a 26 77 bf c6 1e ad 3c 20 81 47 bf
       -1.3143337 -0.96543086 0.021132838 -0.77931404
000250 c6 b4 17 3e 3b 49 9a 3f 00 15 8d bd 9f 83 ff be
       0.14815053 1.2053598 -0.06888771 -0.49905106
000260 43 e3 e0 3d 6d ba 8b bf eb 57 05 3f c0 26 6a bf
       0.10980847 -1.0916268 0.5208728 -0.9146538
000270 98 45 a0 bf 82 33 9a bf a0 9a f1 3d 6c ef 8a 3d
       -1.2521238 -1.2046969 0.117970705 0.06783947
000280 60 10 84 3f a7 77 38 be 8b e4 a6 3e 12 06 cd 3e
       1.0317497 -0.18014394 0.3259624 0.40043694
000290 e4 99 9f 3d 3e da 4c 3e a7 a2 fc 3e 6c 92 a2 bf
       0.07793024 0.20005128 0.49342844 -1.2700934
0002a0 99 c2 06 3f 56 b6 f0 bf 3a 1b 89 be 02 16 80 be
       0.5264068 -1.8805645 -0.26778585 -0.2501679
0002b0 27 53 c3 3e 6c 8a ef bd ab 63 ba be d5 ad 04 3f
       0.38149378 -0.11696324 -0.36404166 0.51827747
0002c0 04 59 f2 3f 8c 65 1b 3f 98 ff ba bd b9 68 15 3e
       1.8933415 0.60701823 -0.09130782 0.1459073
0002d0 be 6f 26 bf 06 66 01 3f 8a 33 8b bf 48 e8 b3 be
       -0.65014255 0.505463 -1.0875103 -0.35138154
0002e0 f4 6a 08 3b e6 b2 24 3c 3b 67 19 3d 78 6c 16 3c
       0.0020815702 0.010052418 0.037451964 0.009181134
0002f0 94 11 d9 bf 48 fa 7d 3e 14 23 b8 3e b7 b5 f0 3f
       -1.695849 0.24802506 0.35964262 1.8805455
000300 f5 4d 6d 3e 94 e4 6b bd 57 01 c6 be dd 2d 7c bf
       0.2317427 -0.057591036 -0.38672897 -0.9850748
000310 b0 a4 79 be 73 ff 7b 3e 7b 2c 89 3e a5 cb b1 3e
       -0.2437923 0.24609165 0.26791748 0.3472568
000320 85 0a 4a bf 02 e1 68 bf 31 30 f8 3d e4 3c 72 bd
       -0.789223 -0.90968335 0.12118567 -0.0591401
000330 af ad 22 bf f0 4e a9 3e 3e 1e 19 3f 2b 30 0d 3f
       -0.6354627 0.33068037 0.5981177 0.55151623
000340 ac f2 13 3f 6f 83 48 bf 42 bf 32 be 82 70 41 3f
       0.5779216 -0.7832555 -0.17455772 0.755623
000350 3b a1 bb 3e a6 b6 33 bf b2 fa 9b 3f 57 46 fe 3e
       0.36646447 -0.70200574 1.2185881 0.4966304
000360 f4 e8 79 3e 06 f6 32 3f a3 d3 f5 3b a0 fe 61 bf
       0.24405271 0.6990665 0.0075020357 -0.8827915
000370 51 fb 8f 3e 1e 81 49 3c 36 d4 46 bf a9 cb 5e bf
       0.28121427 0.01229885 -0.7766756 -0.8702951
000380 28 9d 59 bf fc 01 7a bd 66 79 8b bf a1 6c 86 be
       -0.85005426 -0.06103705 -1.0896423 -0.26254752
000390 d0 6a 06 3f 1a e6 48 3f 69 71 a9 bf 9b 13 5d 3e
       0.5250673 0.7847611 -1.3237735 0.2158951
0003a0 fd a6 a0 3e e9 0c c2 bf 00 27 67 bf e5 04 3b bf
       0.31377402 -1.516019 -0.90293884 -0.73054343
0003b0 10 c3 13 bf 36 25 0f 3f 65 6e c7 bc df 1d 89 bf
       -0.57719517 0.55916154 -0.024344632 -1.0712241
0003c0 94 07 cd 3d 3c 4c f0 bf 6f 5b 3f bd 3a b0 f1 be
       0.10011211 -1.8773265 -0.046718057 -0.47204763
0003d0 99 0c aa be 60 cb 83 3f da e2 92 3e dc 21 2e 3f
       -0.33212736 1.029644 0.286887 0.68020415
0003e0 9f 3a 22 bf b4 5b 16 3f 50 c3 53 be 8a 67 13 be
       -0.633707 0.5873368 -0.20679975 -0.14394966
0003f0 39 c9 57 3e a5 5b 59 3f 33 18 44 bd 95 d4 8f be
       0.21072854 0.84905463 -0.04787464 -0.28091875

fc1.bias f4 [256]
000000 b9 fc 61 be 34 77 59 3c b8 89 ae be cf e7 ab 3e
       -0.22069062 0.013273049 -0.34089446 0.33575293
000010 d4 92 66 3e fe dc 31 3e 50 53 09 3f d7 87 88 3e
       0.22516948 0.17369458 0.5364275 0.26666138
000020 30 b8 c4 3d 23 54 de 3c f0 c6 8d 3c 94 3a 85 be
       0.096054435 0.027139729 0.017306775 -0.26021254
000030 15 5c 92 be 46 3c 6f be 8d d3 ae bc a2 7f c0 3b
       -0.28585878 -0.23362836 -0.02134111 0.00587459
000040 93 e7 30 be 5e 02 6f 3e 0a dc 1d 3e e6 03 32 bc
       -0.17275839 0.23340747 0.1541597 -0.010865187
000050 a9 d0 8c 3e 6f 8c c9 3e 5c 71 b4 3d 0c 53 10 bc
       0.27502945 0.39364955 0.08810684 -0.008808862
000060 7b 9f a8 be b2 a7 72 3d 9d f9 e6 3e 0d 08 29 3d
       -0.32934174 0.059241958 0.45112315 0.041267443
000070 e5 0b 98 3c 78 59 70 3e 7c a6 bc 3d 25 fa aa bd
       0.01856036 0.2347163 0.09211442 -0.083484925
000080 96 13 10 3e a4 af 60 bd 88 aa 9d 3d 34 09 06 be
       0.14069971 -0.054855004 0.07698542 -0.13089448
000090 d1 04 ab 3d 91 5c e9 be 69 ca d0 3e 0f 74 7b 3e
       0.08350528 -0.45578435 0.40779427 0.24555992
0000a0 77 91 c1 3d ba 3e f8 3d ba cf 90 be 8a 87 c7 be
       0.09451573 0.12121339 -0.28283483 -0.38970596
0000b0 3c 07 c9 bc ab 45 8e 3e 3e 4e 1c 3d 9f 22 8b be
       -0.024539582 0.27787527 0.038160555 -0.2717485
0000c0 cd 45 94 be 46 45 fe 3e 07 89 69 3e 13 25 54 3e
       -0.28959504 0.49662226 0.22806178 0.20717268
0000d0 1b ed c8 3e 20 96 a0 3e 6b 67 fc be 87 44 3f be
       0.39243397 0.31364536 -0.49297652 -0.18678485
0000e0 1d 86 ba bd 8f c9 f4 3e 1c 87 79 3a ed 5c 4f be
       -0.09107611 0.47810027 0.0009518729 -0.20250292
0000f0 bc c7 01 be fc 27 d9 3d 77 a4 00 3f 7c c3 09 3e
       -0.12673849 0.106033295 0.50250953 0.13453478
000100 e1 08 cb 3d 00 eb e2 be a9 da f2 3d af 48 1b bd
       0.09913803 -0.44319916 0.11858112 -0.037911113
000110 74 bd 39 3e cc 82 9f 3e 53 e9 2f 3e 46 6f 89 be
       0.18138677 0.31154478 0.1717885 -0.26842707
000120 b7 df a2 be b4 82 5b 3e 7b 0e ff 3d b4 2f 2e 3e
       -0.31811306 0.21436578 0.12453934 0.17010385
000130 49 bf c6 3d 73 34 63 bd ad 26 03 bf 7f 27 a7 3b
       0.097044535 -0.05546994 -0.5123089 0.005101144
000140 8b a8 a7 b9 0f eb bd 3d 4a ff b2 bd 62 22 9f be
       -0.00031978296 0.092733495 -0.08740099 -0.3108092
000150 b0 47 cc 3e 0b bf 1f 3e a0 6d b1 bc 46 f5 7d 3d
       0.39898443 0.15600221 -0.021658719 0.06200149
000160 ab 5a e4 be c2 8e b7 be e2 6c bd bd 95 df 8d 3d
       -0.44600424 -0.35851103 -0.092492834 0.069274105
000170 1d 0a 87 3e db 8a 17 be ab 6d 95 3e 88 45 03 3f
       0.26374903 -0.14799063 0.29185233 0.5127797
000180 b4 0c f3 bd c7 3e c1 3e c8 28 35 bd e6 6f 1c 3e
       -0.11867657 0.37743208 -0.044228345 0.15277061
000190 d0 57 97 3e 01 2f 97 be 2b 42 f5 be 9e 53 0c bf
       0.29559183 -0.2952805 -0.47902045 -0.5481509
0001a0 fa c0 aa bd a3 c5 03 3f 99 af e5 3d 4f a0 ad be
       -0.083375886 0.51473445 0.11215133 -0.33911368
0001b0 ea 28 7e 3e 7b 45 b6 3e 93 01 82 be b8 d1 05 3f
       0.24820295 0.35599884 -0.25391826 0.5227313
0001c0 e2 cd 0a bc 59 1b 87 bd 09 46 7f bc 9f ca d0 3e
       -0.008471938 -0.06597013 -0.0155806625 0.40779588
0001d0 7f c3 88 3e e3 8c cb 3c d5 2e bd be 64 fe cf 3d
       0.26711652 0.024847453 -0.36949793 0.10155943
0001e0 4b c6 70 3d b6 e5 0b 3e 5c aa 05 bf c1 2f ac be
       0.058782857 0.13661847 -0.5221307 -0.33630183
0001f0 3f db 11 3f 76 15 ea be 33 79 29 bf 31 26 58 3d
       0.5697517 -0.45719498 -0.6620056 0.052770797
000200 e2 67 c9 3e 88 a6 ed bd e9 83 d6 bd b6 3f 06 bf
       0.3933707 -0.11604029 -0.104743786 -0.52440965
000210 15 55 a1 3e 54 cb 16 3e 0f 34 11 be 24 ff 3d be
       0.31510225 0.14726001 -0.14180015 -0.1855436
000220 a5 a7 ad 3d 07 fe 04 be 6a 7d b4 3d 83 b2 6e bf
       0.08479241 -0.12987529 0.08812983 -0.9324114
000230 8b ab 13 bd c3 29 88 3e 13 ee 33 3d c1 26 98 be
       -0.036052268 0.26594362 0.043928217 -0.29717067
000240 68 5f 24 3d f1 4f 34 3e 27 7e 03 3f de 44 c9 3e
       0.04013005 0.1760862 0.5136437 0.39310354
000250 2d 7f 89 bc 7d 53 0e be 97 6f cd bd 13 51 8b be
       -0.016784275 -0.13899036 -0.1003105 -0.27210292
000260 b8 e7 03 3e be 1b 09 3e 76 1c a4 be ea b4 d4 3e
       0.12881362 0.13389489 -0.32052964 0.41544276
000270 30 c1 18 3e 89 28 04 3e 88 ca d4 be 87 c7 96 3d
       0.14917445 0.12906088 -0.4156077 0.073622756
000280 0b 08 5a be 02 51 ef bd 19 b9 38 3e 6e 26 72 3e
       -0.2129213 -0.11685373 0.18039359 0.23647472
000290 4b 23 9b be a2 ea cc 3e 73 2f a9 3e 00 e3 c4 3e
       -0.30300364 0.4002276 0.33044013 0.38454437
0002a0 36 0b 8a 3d 49 e0 71 3d d3 ea 91 bc 84 23 e9 3b
       0.067404196 0.059051786 -0.017812168 0.0071148295
0002b0 d5 84 d7 3e 13 19 69 be 59 19 8d be 48 ec 1c bd
       0.4209353 -0.22763471 -0.275584 -0.038311273
0002c0 6e bd ca 3e 13 c4 d7 3e 3a 3b 45 be c3 65 10 3d
       0.39597648 0.4214178 -0.19260874 0.035253298
0002d0 63 b6 b7 be c2 d0 9d 3e 7e 5c 8f be bc ed 46 3f
       -0.35881338 0.30823332 -0.28000253 0.77706504
0002e0 ca 4e 97 3d f9 e9 e5 be c3 bb 49 3d e4 64 74 3c
       0.07388075 -0.4490507 0.04925133 0.014916632
0002f0 85 b0 d8 be 46 e8 8b 3d dc 98 39 3d ed e6 05 3f
       -0.42322174 0.06831412 0.045311794 0.5230549
000300 52 bc 70 be 48 d0 ca 3c a1 8e 6c 3e 9d 3d 10 3e
       -0.23509338 0.02475752 0.23101284 0.14086004
000310 82 d3 a6 3b 01 5a 9e 3c e3 44 27 3e 6b 0c f2 3e
       0.0050911317 0.019330027 0.16334872 0.472751
000320 b5 1e 7d bd 6b 11 ea be 51 78 52 3e df 3d 38 3e
       -0.061796863 -0.45716414 0.2055371 0.17992352
000330 70 78 fd 3e 33 bc e7 3d 29 1c 44 3e e6 61 b2 3c
       0.4950595 0.11315193 0.19151367 0.021775197
000340 0c d6 10 bf df bd 30 3e e0 f3 85 be cf 31 5b 3e
       -0.5657661 0.1725993 -0.26162624 0.21405719
000350 f2 db 9d 3d 49 4d 20 3f 0f 83 7c 3e 07 ad 49 3c
       0.07707967 0.6261793 0.2465937 0.012309319
000360 1a dc 39 bf f0 39 0e bf ac 94 96 3c a2 cb 26 3f
       -0.72601473 -0.55557156 0.01838144 0.6515447
000370 60 4d 27 3e 82 79 86 3e 28 5e 66 bd aa 87 2d be
       0.1633811 0.26264578 -0.05624214 -0.16946283
000380 33 53 50 be f1 84 4e be 51 8c 78 bd 7f ad ce 3e
       -0.20344238 -0.201679 -0.06068069 0.40366742
000390 49 f5 9a 3c f8 a7 20 bd 42 ae 1f be 57 f8 96 3e
       0.01891579 -0.039222687 -0.15593818 0.29486343
0003a0 28 4a e6 be bd 39 56 be 8f 4b 6d bd c4 47 92 bd
       -0.44978452 -0.20920463 -0.057933386 -0.071425945
0003b0 4f 75 c7 bd e4 b4 f9 3e b5 d4 d7 3e d4 d2 a2 be
       -0.09739172 0.4877082 0.4215447 -0.31801474
0003c0 ea 89 57 3e 73 68 57 3e 13 ee 6e be 9b b1 b4 3d
       0.21048704 0.21035938 -0.23333006 0.08822938
0003d0 68 7d 02 3f 75 f8 d2 bd df 16 e3 3d 87 ea c4 be
       0.50972605 -0.10301296 0.11088347 -0.3846018
0003e0 1a 4a 1e 3e f1 2b cc 3c d4 bd a9 bd 57 c4 27 be
       0.15457955 0.024923297 -0.0828816 -0.16383491
0003f0 ba 93 83 bd 18 4a 18 3e 93 97 8c 3c 2e 1f 48 3e
       -0.06424661 0.14872015 0.01716212 0.19543144

fc2.weight f4 [128, 256]
000000 ae f9 91 be 43 2c e8 3e 8b dd 56 bd d5 e0 0d bf
       -0.28510803 0.4534627 -0.052457374 -0.5542119
000010 90 05 f6 3e 40 de 03 3e 58 e9 92 bf d4 33 f8 be
       0.4805112 0.1287775 -1.1477461 -0.48477042
000020 08 15 61 3e 97 6f 3f bf 0d 4d 66 3d 21 65 58 bf
       0.21980679 -0.7477965 0.056225825 -0.8452931
000030 6c 20 91 be e7 4e df be 7b 02 a3 be 29 d1 20 bf
       -0.28345048 -0.43614885 -0.3183783 -0.62819153
000040 8f d3 6a be 1a 05 2e be bf 57 f1 3d 4a 1e f2 3d
       -0.22932266 -0.16994134 0.11784314 0.118221834
000050 a1 7f e4 be 99 6b 84 bd 85 4e 91 3e 0f 0f 6c be
       -0.44628623 -0.06465835 0.28380218 -0.2305262
000060 ae 2b 78 3e 67 04 59 3d 18 7a 84 3c 44 5a 9a be
       0.24235412 0.052982714 0.0161715 -0.30146992
000070 9a 3a 9e 3e 42 32 8e be b5 65 97 3c 94 5a 6c bd
       0.30904084 -0.2777272 0.018481115 -0.05770357
000080 e9 21 8c be 81 08 6e be d0 16 60 bd 41 47 c1 3e
       -0.2736962 -0.23245431 -0.054709256 0.37749675
000090 1f f9 83 3d a8 0e 31 3e 01 a0 11 bf 17 b8 26 be
       0.064440005 0.17290747 -0.5688477 -0.16281162
0000a0 2b 48 26 3f 65 25 51 3e 2d b2 df bd 88 b1 8b bc
       0.6495387 0.20424421 -0.10922656 -0.017052427
0000b0 5e 7b 89 be 28 09 2e 3e 74 ab 77 bf 73 c1 bf bc
       -0.26851934 0.1699568 -0.9674599 -0.023407673
0000c0 85 51 1f 3e d6 ed 1a 3e 16 73 4f bf 6a b1 01 3e
       0.15558441 0.1512979 -0.8103498 0.12665334
0000d0 99 56 d6 be 8e d0 50 3e 3d 29 bc 3d a4 ca b9 3c
       -0.41862944 0.20392057 0.09187553 0.022679634
0000e0 1b 1f 7c be 36 7a 0f bf 39 90 51 be e3 cb f2 3d
       -0.24621241 -0.56045854 -0.20465173 0.118552946
0000f0 1f 06 4b 3d 6c a1 41 3f 1e fb a3 3e 9d 34 08 3f
       0.049566384 0.75636935 0.32027525 0.5320528
000100 4d d9 d8 3e c6 35 52 3f 2a f5 a8 3c 68 df a0 be
       0.42353287 0.821133 0.020624716 -0.31420445
000110 ff 83 ae 3e 1f f8 cb be 33 f7 94 3e 0a cd 2d 3e
       0.3408508 -0.3983774 0.29094848 0.16972747
000120 eb ad 6a be 61 55 5c 3f 50 dd 28 bf 83 bd aa 3f
       -0.22917907 0.8606778 -0.65962696 1.3339084
000130 33 37 39 bd de 92 6c 3e 29 17 77 3e 31 ac 6e be
       -0.045218658 0.231029 0.24129929 -0.23307873
000140 89 36 39 3d 33 14 3e be c3 4a 66 3e a6 29 c6 be
       0.045218024 -0.18562393 0.22489457 -0.3870365
000150 8c fb ca 3d 7a 0b 38 bf d8 60 f0 3e 75 ca 27 3d
       0.0991126 -0.7189251 0.46948886 0.040964562
000160 83 53 3c 3d c8 f9 c8 3e 8d 93 4c 3d 02 17 96 3e
       0.04597808 0.39253068 0.049945403 0.2931443
000170 8c 79 a4 be 2b 76 63 3e eb 48 79 3e f9 0e 37 bf
       -0.32123983 0.22213046 0.24344222 -0.7150722
000180 cd 4f d4 bb 67 00 2e 3e 1f e9 6b 3e 12 74 5c be
       -0.0064792396 0.16992341 0.23038147 -0.21528652
000190 67 16 54 bf e8 12 6d 3e 4a cd 3c 3e a8 ef fd 3e
       -0.82846683 0.23151743 0.18437687 0.49596906
0001a0 5c 2d 13 3e cd 28 38 be ff 05 7f 3c 68 ef 9c 3e
       0.14372772 -0.17984314 0.015565394 0.30651402
0001b0 ef 89 9f be b1 63 96 3c b6 1d 94 3e 63 ce 41 be
       -0.31159922 0.018358083 0.28928918 -0.18926387
0001c0 67 b3 2d be 5d 7d 00 3e 5d 83 f4 bd 62 f4 2a 3e
       -0.16962968 0.12547822 -0.11939118 0.16694787
0001d0 4f 67 60 3e 5e f5 d6 3e 2b 12 c0 3e 93 ab cb 3e
       0.21914409 0.41984075 0.3751386 0.39779338
0001e0 33 da 38 3e 67 11 8b 3e 30 5c c1 3e ee 57 2d 3f
       0.18051986 0.27161714 0.37765646 0.67712295
0001f0 72 dc ca 3a e0 64 c3 3d da 46 b6 3e 3c 0b 3e 3d
       0.0015477075 0.09540725 0.3560093 0.046397433
000200 dc c9 38 be 70 2d 15 3e 02 c5 b1 3d 2a 16 76 3e
       -0.18045753 0.14568114 0.086801544 0.24031892
000210 3c 2b 8a bf ec 62 42 3f c0 7b b5 3e 2e 25 1c 3d
       -1.0794444 0.7593219 0.35445976 0.038121395
000220 dc 4d b9 3d 52 6c 41 3e f2 07 b9 3e 95 a2 be bc
       0.090480536 0.18888977 0.36138874 -0.023270885
000230 e5 fd c0 3d 25 39 c1 3d 83 d5 26 bf 5d 54 49 3e
       0.094234265 0.094347276 -0.65169543 0.19661088
000240 47 88 de 3c c8 d5 8f 3e 35 cd 8d be 4b 32 90 3e
       0.027164591 0.2809279 -0.27695623 0.2816337
000250 d2 c6 f6 3e 12 19 bd bd 1e e6 68 3d 8c d4 93 3c
       0.48198563 -0.092332974 0.05686008 0.018045686
000260 78 ca 1f 3e 88 9c 7a 3e 90 b7 b9 be 6c 89 3c be
       0.1560458 0.24473774 -0.3627286 -0.18411797
000270 48 5b a9 bc 78 71 8b bd 29 dd d1 be 44 54 cb 3e
       -0.02067341 -0.06808752 -0.40989044 0.39712727
000280 56 63 06 3f b7 c8 51 3e df 93 8b 3d 81 ef 67 3e
       0.52495325 0.20486723 0.068153135 0.22649957
000290 3b e1 cd 3e 1f 12 74 3c de e0 b5 3d 40 2e 19 3e
       0.402109 0.0148968985 0.08880781 0.14959049
0002a0 8c 7c fe 3d 82 8b d2 3a 2d d7 1c be 30 bf f2 3d
       0.12426099 0.0016063305 -0.15316458 0.11852872
0002b0 9d 21 17 bf d8 a2 63 3d 4c 8e 97 be 05 bc 24 bd
       -0.59035665 0.05557522 -0.2960075 -0.040218372
0002c0 0d a3 1b bd 87 a9 8c 3e 29 ff af bd 4e ee 8f 3e
       -0.037997294 0.2747309 -0.0859359 0.281115
0002d0 7b 49 86 bb 4d e3 6f 3e ca f8 be 3e 5d 67 d5 be
       -0.004098115 0.23426552 0.37299186 -0.41680422
0002e0 48 51 13 3f 53 2c 05 3f 8b ad 8c bd 20 84 da be
       0.575459 0.5202076 -0.06869038 -0.42678928
0002f0 83 cf e6 3b 1e 56 ec be af ff 98 be 68 5c 8c be
       0.0070437803 -0.46159452 -0.2988257 -0.2741425
000300 39 16 51 3e c9 16 0f 3e 9b e8 73 3e 48 58 9b 3c
       0.20418634 0.13973536 0.238192 0.018962994
000310 04 be 65 be 46 37 f5 3e 25 a0 27 3e 5c 3e 9c 3b
       -0.22435766 0.47893733 0.16369684 0.004768176
000320 d8 82 07 3e 85 76 3f 3e 3a b9 8e bd 30 78 a7 3d
       0.13233507 0.18697555 -0.06968923 0.08177221
000330 81 cd 57 3d 9a 31 2a 3e 36 a6 53 3e e0 45 64 be
       0.05268622 0.16620484 0.20668873 -0.2229228
000340 70 10 0a be ad c6 af bf 13 6e 8c 3e 13 8c d9 3d
       -0.13482833 -1.3732506 0.2742773 0.1062242
000350 9c 33 59 3e ed 89 07 bf 4f f2 6a 3f c5 7c 22 bd
       0.21211094 -0.52944833 0.91775984 -0.03966977
000360 07 15 b1 be 1c 7d 48 3e c5 a5 67 3e 39 c6 61 bd
       -0.34586355 0.19578975 0.2262183 -0.05512068
000370 df 30 46 3e 82 c1 85 bf 52 69 cb 3c 5c f7 6c be
       0.1935458 -1.0449679 0.024830494 -0.23141235
000380 9c f0 0f 3e d5 38 6f 3e e6 99 0f bf 40 b0 8a bf
       0.14056629 0.23361523 -0.56094205 -1.0835037
000390 b5 53 a6 bd d1 a5 8d bc fa a7 2c 3e 33 7c e4 3d
       -0.081214346 -0.017290981 0.16860953 0.111565016
0003a0 7a 72 0a bf 2a 86 c6 3b 85 4d b5 be 3a 5f 04 be
       -0.5408093 0.006058474 -0.35410705 -0.12926951
0003b0 bc 40 7e bd f0 0a 55 3e 6e 06 59 3e 63 1f 07 3e
       -0.062073454 0.20804954 0.21193859 0.13195567
0003c0 f3 f7 ec be 9d aa ca 3d 7e 99 7d 3e 1a 15 90 bb
       -0.4628292 0.09895823 0.24765584 -0.0043970468
0003d0 c6 c0 4d bf bd 29 98 3e 49 21 01 bf e6 1a f4 3d
       -0.80372274 0.29719344 -0.50441414 0.11919193
0003e0 81 ac 44 3e 16 d4 24 3f 65 0f 24 3e b6 65 1a bf
       0.1920643 0.6438612 0.16021498 -0.6031145
0003f0 c5 e6 f3 bd 15 48 99 3e 31 56 a4 bd 3c 7f 1a be
       -0.1190925 0.29937807 -0.08024252 -0.15087599

fc2.bias f4 [128]
000000 33 95 a2 3d 69 bb 48 bd ed bd 2f bd 5f 97 21 3d
       0.07938614 -0.049006853 -0.042905737 0.039451
000010 10 b3 51 3e 58 6d ee bd 9d eb 01 3d dd 8d 68 be
       0.20478463 -0.116419494 0.03171884 -0.22710367
000020 b4 09 3e 3d a0 e8 2b 3e 6d 4b 6e be 00 36 15 3e
       0.046395972 0.16787958 -0.2327096 0.1457138
000030 d3 df a3 be 81 ae a4 bd 6f 0f b8 3d fd 7c 8f be
       -0.32006702 -0.080410965 0.08987319 -0.28025046
000040 d0 6b b9 3d ab 2e 38 3e 31 be 1f bd 9d ea 2c be
       0.09053767 0.17986552 -0.03899974 -0.16886373
000050 aa b1 85 3e 55 69 06 3e bc 7c 8d 3d a2 c4 da 3e
       0.2611211 0.13126118 0.06908557 0.42728144
000060 d8 46 98 3e b8 f3 53 3e 09 f6 e6 bd b5 ba b0 bd
       0.2974155 0.2069844 -0.11277396 -0.086293615
000070 d2 cc 3f be 8e cc 03 3e c6 22 0e be 32 6c 92 3e
       -0.18730476 0.12871 -0.13880453 0.2859817
000080 1b a2 32 bd e8 08 ae be df 13 ec 3d fd d5 a5 bc
       -0.043611627 -0.3399117 0.115272276 -0.02024364
000090 11 ca 07 bc 68 0a 8d 3e 6c d7 88 bc 50 af 95 be
       -0.0082879225 0.27547002 -0.016704284 -0.29235315
0000a0 ed 43 fe bd 22 be 43 3e e2 cb d9 3d 39 79 eb 3e
       -0.124152996 0.19115499 0.10634591 0.45990923
0000b0 b0 22 59 3e 85 68 01 be b1 c7 1e 3e 93 68 2c be
       0.21204638 -0.12637527 0.15505864 -0.16836767
0000c0 cb 64 12 be 80 38 ae 3e cb 5b a1 3d 57 c9 04 3f
       -0.14296262 0.3402748 0.07878836 0.5186972
0000d0 f0 c5 8e bd 89 e5 d4 3d b7 3e 71 3c 10 2b a6 bc
       -0.06971347 0.10395343 0.014724425 -0.020284206
0000e0 f7 56 fa 3d 1b c6 7f 3d ab 59 bf bd 2e 84 a0 3d
       0.122236185 0.062444787 -0.09343275 0.07837711
0000f0 ac 4f 30 3e 4d 04 c4 3d 42 45 91 3d 7f b8 34 bc
       0.17217892 0.09571133 0.07093288 -0.011030315
000100 d8 be c4 bd 4f 1e f5 3d 1c 9e 8f 3e a6 8a 7c 3a
       -0.09606713 0.119686715 0.28050315 0.00096336973
000110 96 59 a6 bd 29 cc 0f 3f b0 bd 85 3d 97 a2 21 be
       -0.08122556 0.561709 0.06530321 -0.1578468
000120 3f 8a 84 3e 77 ae 9c be 95 c1 28 be 3c a4 83 be
       0.25886723 -0.30601856 -0.16480096 -0.25711238
000130 54 d8 34 3c 0d de f2 3c 06 22 b7 be af d1 d9 3d
       0.011037905 0.029646898 -0.35768145 0.10635697
000140 20 67 0e 3e 35 d0 db 3c ec 1e 07 bf 92 17 37 bf
       0.13906527 0.02683268 -0.5278156 -0.7152034
000150 5e 4b a7 3d 34 ca 34 3e e3 9d 6d 3d 34 0f a7 3d
       0.08168672 0.1765526 0.0580119 0.08157197
000160 c9 21 60 3e 2c a3 5c be ef 8f 5e 3e a1 7b 15 be
       0.21887888 -0.2154662 0.21734594 -0.14597942
000170 2d f2 cf 3d 53 a7 08 bd 67 6d 25 be 2c 67 8e bc
       0.10153613 -0.033362698 -0.16155015 -0.01738318
000180 26 97 5e 3e f6 7a 5e bd 97 be fa bd 0c f2 c2 3d
       0.21737346 -0.054316483 -0.122433834 0.09518823
000190 e0 8d 27 3d c5 43 86 3e b3 30 74 be 98 fa 92 be
       0.040906787 0.2622358 -0.23846702 -0.28706813
0001a0 f3 64 c2 3e 79 ab 40 be f3 f1 96 3d 11 62 11 3e
       0.37967643 -0.18815412 0.07370367 0.14197566
0001b0 be 47 e4 bd 38 0d 9f bd c2 90 e9 bd 9a 4e 29 3c
       -0.11146496 -0.07766193 -0.114045635 0.0103336815
0001c0 67 1f cd bc 60 03 76 bc d1 84 90 bd 09 9f 22 3d
       -0.025039388 -0.015015453 -0.07056583 0.03970245
0001d0 65 42 02 3d c0 34 52 be d6 17 ba 3d ef a8 45 3d
       0.0318016 -0.20527935 0.090865776 0.04825681
0001e0 bf 6a f7 3d e4 fa 13 bf c4 8c 06 bd 6a 22 18 bd
       0.12080907 -0.57804704 -0.03284909 -0.037142195
0001f0 3a e1 75 bd d0 16 5f 3d 13 32 8e 3e 1b 76 57 3e
       -0.060029246 0.054465115 0.2777258 0.21041147

fc3.weight f4 [4, 128]
000000 2b 12 3d be 1c 52 ab 3f a2 45 68 be 35 4f 2a bf
       -0.18463962 1.3384433 -0.22682813 -0.6652711
000010 a2 6f 0e be 63 69 92 be 73 00 96 bd 23 ed ba bd
       -0.13909772 -0.2859603 -0.073243044 -0.091272615
000020 5c d4 57 bf db da 1b bf d5 37 77 3f 9b ea 3f bf
       -0.8430841 -0.6088082 0.9656957 -0.74967355
000030 a1 a8 0d bf 2b e8 08 bf 04 c6 06 3f 8d bf 2c bf
       -0.5533543 -0.5347926 0.526459 -0.67479783
000040 b5 55 09 be 3e a1 ee be c4 fa 82 3e 4e af d4 3e
       -0.13411601 -0.46607393 0.25581944 0.41539997
000050 b9 ba f8 bf 95 11 ef 3e 88 58 e5 3e 8a cc 0b bf
       -1.9431983 0.46693102 0.44794106 -0.54608977
000060 53 a5 b3 be 08 c0 90 be e3 01 9e 3f 60 14 1e 3f
       -0.3508707 -0.28271508 1.2344326 0.6174984
000070 46 96 58 3f 1d 99 9a 3c bf 79 2f bd a5 39 f4 be
       0.846043 0.018871838 -0.042840715 -0.4770023
000080 a9 6f d5 bd d3 36 a3 be 5b 92 f1 bd 04 61 4d be
       -0.10421688 -0.31877765 -0.11795493 -0.2005654
000090 3e 5e cf 3d d5 f1 a0 3e f7 e2 23 be f8 b4 2d bd
       0.10125397 0.31434503 -0.16004549 -0.042408913
0000a0 93 92 4f 3f 8e 5b 52 3f 1a 33 27 3f 3d d9 42 3d
       0.8108303 0.8217095 0.6531235 0.047570456
0000b0 ed c0 b2 be 9d 95 b2 3f 63 ab da be 3a 8e 21 bf
       -0.34912816 1.3951908 -0.42708883 -0.63107646
0000c0 20 a8 91 bf 18 b2 f6 3e 2a 9d a1 3f fe 0e 99 3f
       -1.1379433 0.4818275 1.2626088 1.19577
0000d0 fd 04 04 bf 32 e2 5e 3f 4a a6 71 bf 1c 14 b0 be
       -0.5157011 0.87063897 -0.9439436 -0.34390342
0000e0 bd 6d 2d bf 25 b1 12 bf c5 74 b0 3f b7 af 2b bf
       -0.6774557 -0.5730155 1.3785635 -0.67064995
0000f0 62 cf af bd 75 2d 1e bf 12 bd c7 be aa 85 ca 3d
       -0.08584477 -0.6178811 -0.39011437 0.09888776
000100 b3 d3 11 3f 87 ca 9e 3f 37 00 8f 3f 34 d1 cc be
       0.5696365 1.2405556 1.117194 -0.4000336
000110 d9 50 66 be 5a d6 d0 3f a3 56 32 be 26 e9 75 3f
       -0.22491778 1.6315415 -0.17415862 0.9605888
000120 0e ba 2e bf 0f 6d b0 3f 9e 3d 32 3f 8a b9 96 3f
       -0.68252647 1.3783282 0.6962527 1.1775372
000130 c5 90 6d bf 2a 69 7d 3f 25 33 6a 3f cc 78 eb 3e
       -0.92799026 0.9898859 0.9148429 0.45990598
000140 eb b7 25 be 7f f8 e1 be 9f 57 86 bf 3e f7 af 3f
       -0.1618344 -0.441349 -1.049549 1.3747327
000150 8c f8 0a bf e0 bf 88 be ea ff 16 be e6 88 7a be
       -0.542855 -0.2670889 -0.14746061 -0.24466285
000160 31 55 6a bf da 4a 21 3f 34 ad 99 3d 2c cd 5d 3f
       -0.9153624 0.6300484 0.07503739 0.8664119
000170 f3 a8 d3 be 31 e1 0c 3e 1d 4d 33 3f 40 97 1c bf
       -0.41339836 0.13757779 0.7003954 -0.6116829
000180 e9 07 b0 be 2b 2a 5c be 22 bd 1e be 5a 6c 27 3f
       -0.34381035 -0.21500461 -0.15501836 0.65399706
000190 f4 93 46 3f 8c 6c 79 3f 80 f0 04 3d ec 19 86 3e
       0.7756951 0.97431254 0.03245592 0.26191652
0001a0 de ec 6b 3f 79 47 c7 bf e4 7f 8b 3f e5 b4 0e bf
       0.92158306 -1.5568687 1.0898404 -0.55744773
0001b0 95 f0 07 bf 5c e3 69 be 2e fc 06 bf 77 43 bc 3f
       -0.53101474 -0.22840637 -0.52728546 1.4708089
0001c0 38 22 a0 be 0c 01 e4 3c 57 f6 0c 3f 8a 18 bf be
       -0.31276107 0.02783253 0.55063385 -0.3732341
0001d0 4e df 37 be 18 60 a9 bd 1a 8f 75 3f ef 75 35 3f
       -0.17956278 -0.082702816 0.9592148 0.7088308
0001e0 02 ce 9e bc de 7a ee 3e b6 67 b7 3c 01 9f b3 3c
       -0.019385342 0.46578115 0.02238832 0.021926405
0001f0 e1 4c 4c be fd 5f 96 be 34 13 39 bf d2 7a 42 be
       -0.19951202 -0.29370108 -0.72294927 -0.18992165
000200 a7 f2 0f bf 93 9b 95 3f 55 0a b6 be b6 b4 ca be
       -0.56229633 1.1688102 -0.35554758 -0.39590997
000210 70 7d e8 bd 65 f4 8f be 76 d5 db be 26 f7 df be
       -0.1135205 -0.28116146 -0.42936295 -0.43743247
000220 f7 8c 4e 3f a5 d4 83 be 02 bd 3e bd bd 9d 3f bf
       0.80683845 -0.25748172 -0.04656697 -0.74850065
000230 f7 56 58 be 41 ee 9e 3f d2 0e 9b 3e 4f aa 18 3f
       -0.21126924 1.2416459 0.30284745 0.5963487
000240 e0 1c 32 bf 2f 40 93 be 9c 62 52 3f fa 1a 5c 3f
       -0.6957531 -0.28759906 0.82181716 0.8597866
000250 7d 57 9c bf 8e 63 b6 3e d2 7d 26 3f 22 ad 5b bf
       -1.2214199 0.3562283 0.65035737 -0.85811055
000260 d2 e2 6e bf fe 93 35 be 26 33 cc 3e 5a 05 e9 3e
       -0.9331485 -0.17732236 0.39882773 0.45511895
000270 ba a7 4c 3f 93 87 99 bf b7 ba 72 bc d6 51 d0 be
       0.7994343 -1.1994499 -0.014815024 -0.40687436
000280 e9 40 4f 3d 33 2b 19 3f bc 16 80 be 30 e0 a6 be
       0.050599013 0.5983154 -0.25017345 -0.32592916
000290 4a 5a 76 3e 34 64 97 3d 20 32 e3 3d 52 3a 37 be
       0.2405788 0.07392159 0.11093545 -0.17893341
0002a0 59 11 b8 3f fc 1c 7f 3f 47 00 a9 3e d9 00 7f bc
       1.4380294 0.996536 0.33008024 -0.015564167
0002b0 5c ff 30 be 0a c1 a3 3f 4e f6 9d be 9e a1 5a bf
       -0.17284912 1.2793286 -0.30851978 -0.8540286
0002c0 ae f8 3b bf ed ee 3d 3f 2b f9 8e 3f 8b 18 b4 3f
       -0.7342633 0.74192697 1.116979 1.406999
0002d0 47 3d 49 be f0 3e 3b 3f 2c 10 c2 be 3a d4 3d bf
       -0.19652282 0.7314291 -0.37902963 -0.7415196
0002e0 84 82 26 bf 2c 39 9f be 81 ea c1 3f 4a 53 46 3c
       -0.650429 -0.31098306 1.514969 0.012104819
0002f0 d2 20 60 be e3 9d 94 be 1a 9e a9 be 62 57 9d bd
       -0.2188752 -0.29026708 -0.33128434 -0.076826826
000300 47 f8 06 3f a3 4e b2 3f 22 54 85 3f 61 95 c3 3f
       0.5272259 1.3930248 1.04163 1.5279962
000310 c4 81 d3 bb 27 54 f5 3f 94 ef 49 be 6e 28 ec 3e
       -0.0064546783 1.9166306 -0.19720298 0.46124595
000320 09 02 24 be ae 7d 4b 3f a4 06 af 3f 5d 52 5f 3f
       -0.16016401 0.79488647 1.3673902 0.8723505
000330 fa 03 62 3f 20 77 ef 3e d7 45 16 3f 0d c4 99 3e
       0.8828732 0.46770573 0.5870032 0.30032387
000340 e9 d4 a5 be 24 0c 9c be 37 07 91 bf de 2e 0b 3f
       -0.32389 -0.30478013 -1.1330327 0.5436839
000350 4b 7b 96 bf 5b 8c 42 be 5d ec 1b be 2b 62 18 3f
       -1.1756376 -0.18998854 -0.15226884 0.5952479
000360 24 8a 86 bf 62 05 10 bf 0a 8f 20 bf 54 4d 36 3f
       -1.0510907 -0.56258214 -0.6271826 0.71211743
000370 8a 16 51 be ca 11 9e 3d 05 56 f8 3e cb c0 a0 bf
       -0.20418754 0.07718237 0.48503128 -1.2558836
000380 4b d4 47 be f7 9c 0d bf 70 3a bc be ad fe 54 3f
       -0.19514577 -0.55317634 -0.36763334 0.83201104
000390 3c d0 80 3f 04 ef 8c 3f 82 42 4f bf ee 16 26 bf
       1.0063548 1.1010442 -0.8096086 -0.6487874
0003a0 63 65 82 3f c5 54 68 bf 3c 91 ac 3f 57 cf 79 be
       1.0187191 -0.9075435 1.3481822 -0.243955
0003b0 00 68 3f bf 7a d1 81 be 1e 7c 21 bf d9 41 a1 3f
       -0.74768066 -0.2535513 -0.6308001 1.259822
0003c0 d1 6d e3 bd 82 5c 9d bd 7e ed 8c 3e c6 7b c4 be
       -0.1110493 -0.0768366 0.27524942 -0.38375682
0003d0 29 3e 0c be 98 35 76 3e 3b 8c 8d 3f 2b 80 90 3f
       -0.13695587 0.24043882 1.105842 1.1289114
0003e0 b3 a0 a6 3d 32 49 23 3f 52 38 25 3d d6 a0 42 bc
       0.0813612 0.6378356 0.040336914 -0.011879167
0003f0 5a 65 a8 be 2e fc 51 be 8f a6 8a be 7f 5b 80 3e
       -0.32889825 -0.20506355 -0.270802 0.25069806

fc3.bias f4 [4]
000000 8c 76 c4 be 99 80 3b be 5b 01 7e 3d 85 67 ff bc
       -0.38371694 -0.18310775 0.06201301 -0.031177292

fc1.weight f4 [256, 8]
000000 55 e8 7f bf 8b 59 37 3f c6 c0 43 3f e6 0e 95 be
       -0.99963886 0.71621007 0.76466024 -0.2911293
000010 ef 28 84 bf 54 ca 65 bf 51 0d de be 13 70 ad be
       -1.0324992 -0.89761853 -0.43369535 -0.33874568
000020 c3 21 8b 3e 8a e5 fd 3e 11 c0 db be 2c e9 86 be
       0.27174196 0.49589187 -0.42919973 -0.2634977
000030 91 47 3e bf 0d 34 b7 3f a7 89 ac 3d 10 f9 9b be
       -0.7432795 1.431276 0.084246926 -0.30463457
000040 df ed 0b 3f 32 f2 8a 3e fc ca 8a 3e 6c d4 df bd
       0.5465984 0.27137905 0.2710799 -0.10929188
000050 b2 14 e8 3e 8b 04 b5 be 49 bc 96 3e 9a fa 10 3f
       0.4532829 -0.3535503 0.29440525 0.5663239
000060 1b f4 60 be 9e 21 9d 3f 06 8b 39 3f 4c 4e 82 3c
       -0.21968119 1.2275884 0.7247776 0.015906475
000070 6a f5 38 bf 5b 7f fc bf b7 95 08 3f 05 ef 4b 3e
       -0.7224947 -1.9726366 0.53353447 0.19915397
000080 50 b6 95 be 3f f2 83 bf 9a 5d a0 be cb 10 d6 be
       -0.29240656 -1.0308303 -0.31321412 -0.41809687
000090 fa 4c 9d 3f 3a 30 d1 3e a9 f5 36 3f 8c 63 d0 bf
       1.2289116 0.40857106 0.714686 -1.6280379
0000a0 c5 86 09 bf 66 45 d5 bd 37 6a 90 bf af 2c 86 bf
       -0.53721267 -0.10413627 -1.1282414 -1.0482386
0000b0 b2 a3 54 3f 91 ef c8 3d e2 bd 39 3e fc 53 07 3f
       0.8306228 0.09811319 0.18138841 0.52862525
0000c0 61 e1 aa be c1 59 75 3f c6 16 7a be 80 5f a1 3f
       -0.33375075 0.9584008 -0.2442275 1.2607269
0000d0 b2 5c 88 3e 7a d7 cd bf 12 91 05 c0 bf 3a a4 be
       0.2663322 -1.6081383 -2.0869794 -0.3207607
0000e0 d9 1b bc bd 82 60 b8 bf 82 d7 85 bf 8b ec ab 3e
       -0.09184999 -1.4404452 -1.0456393 0.33578905
0000f0 d8 eb 77 bf 86 2a 98 3e 26 84 3b 3e e9 bd a0 be
       -0.96844244 0.29719943 0.1831213 -0.3139489
000100 75 44 48 bf e5 39 06 c0 cd 77 a2 bf 73 6b 2a bf
       -0.7822946 -2.0972836 -1.269281 -0.66570204
000110 4a f3 a5 3e d4 dc 2b be 04 a8 b0 3c f8 5f e4 be
       0.32412177 -0.16783458 0.021564491 -0.44604468
000120 42 a2 9f 3f d5 b3 05 bf 1a 43 b7 be 0d 5b d8 3d
       1.2471392 -0.52227527 -0.35793382 0.105642416
000130 08 1f a6 bf ea ed 49 bf 86 bb a0 3e 4e a1 8e 3d
       -1.297822 -0.78878653 0.3139307 0.0696436
000140 e6 df b2 bf b5 fa a5 be c3 f5 8d bf f8 99 ad 3f
       -1.3974578 -0.32417837 -1.1090626 1.3562613
000150 b4 4c 84 3e f5 73 21 bf 37 92 a4 3e 31 56 28 3f
       0.2583977 -0.6306756 0.32142803 0.6575652
000160 76 38 65 3f f5 39 b0 3e be 52 b5 bd 26 f6 2a 3f
       0.8953928 0.34419218 -0.088536724 0.6678184
000170 aa e2 8c 3f 29 9e 6b be 95 93 15 be 5e 2a c7 bf
       1.1006672 -0.23009552 -0.1460708 -1.5559804
000180 90 e3 48 bf ba 0a f7 3e 36 34 5e 3f 07 0e 07 3f
       -0.7847223 0.4825037 0.8679842 0.5275578
000190 0d 2b 2f bf 6a 3a 18 3f b4 da bb 3f a2 19 d0 bf
       -0.68425065 0.5946413 1.4676118 -1.6257823
0001a0 f3 b9 01 3e 7b c6 5b bf 04 7d e2 be ba 2e 45 bf
       0.1266859 -0.8584973 -0.44236004 -0.77024424
0001b0 95 25 ab bd b4 6c 00 3f 5c d7 f4 be 82 4f 65 bf
       -0.083567776 0.5016587 -0.47820556 -0.89574444
0001c0 57 41 50 be dc b9 36 3f ce 87 c3 bf 34 e5 11 3f
       -0.20337425 0.7137735 -1.5275819 0.5699036
0001d0 e0 38 61 3f 0b 15 8d 3f c4 ec 58 3f bd 36 1f 3e
       0.8797741 1.1022047 0.84736276 0.15548225
0001e0 37 a1 fd 3e e7 97 11 3f 0e c9 b6 3f 13 52 28 3f
       0.4953706 0.5687241 1.4280107 0.65750235
0001f0 35 84 bd 3f 94 04 84 bf e5 7c 85 bf 83 13 d1 be
       1.4805971 -1.0313897 -1.042874 -0.408352
000200 88 c9 1a bf e8 1c 71 3d 19 e5 ee bf ef 95 35 3e
       -0.6046376 0.058865458 -1.8663665 0.17732976
000210 dd 74 7d 3f 71 9d 95 bd 70 e0 2e bd f3 22 cb 3e
       0.99006444 -0.0730542 -0.04269451 0.39675102
000220 ef 86 05 bd 4d fd 08 c0 b9 3c 42 3e dc 5a 33 bf
       -0.032599386 -2.1404603 0.18968476 -0.70060515
000230 79 9c a3 3e 9f cc 63 bf f6 39 cf bf dd 3b 82 3f
       0.31955317 -0.889841 -1.6189563 1.0174519
000240 16 3c a8 bf 7a 26 77 bf c6 1e ad 3c 20 81 47 bf
       -1.3143337 -0.96543086 0.021132838 -0.77931404
000250 c6 b4 17 3e 3b 49 9a 3f 00 15 8d bd 9f 83 ff be
       0.14815053 1.2053598 -0.06888771 -0.49905106
000260 43 e3 e0 3d 6d ba 8b bf eb 57 05 3f c0 26 6a bf
       0.10980847 -1.0916268 0.5208728 -0.9146538
000270 98 45 a0 bf 82 33 9a bf a0 9a f1 3d 6c ef 8a 3d
       -1.2521238 -1.2046969 0.117970705 0.06783947
000280 60 10 84 3f a7 77 38 be 8b e4 a6 3e 12 06 cd 3e
       1.0317497 -0.18014394 0.3259624 0.40043694
000290 e4 99 9f 3d 3e da 4c 3e a7 a2 fc 3e 6c 92 a2 bf
       0.07793024 0.20005128 0.49342844 -1.2700934
0002a0 99 c2 06 3f 56 b6 f0 bf 3a 1b 89 be 02 16 80 be
       0.5264068 -1.8805645 -0.26778585 -0.2501679
0002b0 27 53 c3 3e 6c 8a ef bd ab 63 ba be d5 ad 04 3f
       0.38149378 -0.11696324 -0.36404166 0.51827747
0002c0 04 59 f2 3f 8c 65 1b 3f 98 ff ba bd b9 68 15 3e
       1.8933415 0.60701823 -0.09130782 0.1459073
0002d0 be 6f 26 bf 06 66 01 3f 8a 33 8b bf 48 e8 b3 be
       -0.65014255 0.505463 -1.0875103 -0.35138154
0002e0 f4 6a 08 3b e6 b2 24 3c 3b 67 19 3d 78 6c 16 3c
       0.0020815702 0.010052418 0.037451964 0.009181134
0002f0 94 11 d9 bf 48 fa 7d 3e 14 23 b8 3e b7 b5 f0 3f
       -1.695849 0.24802506 0.35964262 1.8805455
000300 f5 4d 6d 3e 94 e4 6b bd 57 01 c6 be dd 2d 7c bf
       0.2317427 -0.057591036 -0.38672897 -0.9850748
000310 b0 a4 79 be 73 ff 7b 3e 7b 2c 89 3e a5 cb b1 3e
       -0.2437923 0.24609165 0.26791748 0.3472568
000320 85 0a 4a bf 02 e1 68 bf 31 30 f8 3d e4 3c 72 bd
       -0.789223 -0.90968335 0.12118567 -0.0591401
000330 af ad 22 bf f0 4e a9 3e 3e 1e 19 3f 2b 30 0d 3f
       -0.6354627 0.33068037 0.5981177 0.55151623
000340 ac f2 13 3f 6f 83 48 bf 42 bf 32 be 82 70 41 3f
       0.5779216 -0.7832555 -0.17455772 0.755623
000350 3b a1 bb 3e a6 b6 33 bf b2 fa 9b 3f 57 46 fe 3e
       0.36646447 -0.70200574 1.2185881 0.4966304
000360 f4 e8 79 3e 06 f6 32 3f a3 d3 f5 3b a0 fe 61 bf
       0.24405271 0.6990665 0.0075020357 -0.8827915
000370 51 fb 8f 3e 1e 81 49 3c 36 d4 46 bf a9 cb 5e bf
       0.28121427 0.01229885 -0.7766756 -0.8702951
000380 28 9d 59 bf fc 01 7a bd 66 79 8b bf a1 6c 86 be
       -0.85005426 -0.06103705 -1.0896423 -0.26254752
000390 d0 6a 06 3f 1a e6 48 3f 69 71 a9 bf 9b 13 5d 3e
       0.5250673 0.7847611 -1.3237735 0.2158951
0003a0 fd a6 a0 3e e9 0c c2 bf 00 27 67 bf e5 04 3b bf
       0.31377402 -1.516019 -0.90293884 -0.73054343
0003b0 10 c3 13 bf 36 25 0f 3f 65 6e c7 bc df 1d 89 bf
       -0.57719517 0.55916154 -0.024344632 -1.0712241
0003c0 94 07 cd 3d 3c 4c f0 bf 6f 5b 3f bd 3a b0 f1 be
       0.10011211 -1.8773265 -0.046718057 -0.47204763
0003d0 99 0c aa be 60 cb 83 3f da e2 92 3e dc 21 2e 3f
       -0.33212736 1.029644 0.286887 0.68020415
0003e0 9f 3a 22 bf b4 5b 16 3f 50 c3 53 be 8a 67 13 be
       -0.633707 0.5873368 -0.20679975 -0.14394966
0003f0 39 c9 57 3e a5 5b 59 3f 33 18 44 bd 95 d4 8f be
       0.21072854 0.84905463 -0.04787464 -0.28091875

fc1.bias f4 [256]
000000 b9 fc 61 be 34 77 59 3c b8 89 ae be cf e7 ab 3e
       -0.22069062 0.013273049 -0.34089446 0.33575293
000010 d4 92 66 3e fe dc 31 3e 50 53 09 3f d7 87 88 3e
       0.22516948 0.17369458 0.5364275 0.26666138
000020 30 b8 c4 3d 23 54 de 3c f0 c6 8d 3c 94 3a 85 be
       0.096054435 0.027139729 0.017306775 -0.26021254
000030 15 5c 92 be 46 3c 6f be 8d d3 ae bc a2 7f c0 3b
       -0.28585878 -0.23362836 -0.02134111 0.00587459
000040 93 e7 30 be 5e 02 6f 3e 0a dc 1d 3e e6 03 32 bc
       -0.17275839 0.23340747 0.1541597 -0.010865187
000050 a9 d0 8c 3e 6f 8c c9 3e 5c 71 b4 3d 0c 53 10 bc
       0.27502945 0.39364955 0.08810684 -0.008808862
000060 7b 9f a8 be b2 a7 72 3d 9d f9 e6 3e 0d 08 29 3d
       -0.32934174 0.059241958 0.45112315 0.041267443
000070 e5 0b 98 3c 78 59 70 3e 7c a6 bc 3d 25 fa aa bd
       0.01856036 0.2347163 0.09211442 -0.083484925
000080 96 13 10 3e a4 af 60 bd 88 aa 9d 3d 34 09 06 be
       0.14069971 -0.054855004 0.07698542 -0.13089448
000090 d1 04 ab 3d 91 5c e9 be 69 ca d0 3e 0f 74 7b 3e
       0.08350528 -0.45578435 0.40779427 0.24555992
0000a0 77 91 c1 3d ba 3e f8 3d ba cf 90 be 8a 87 c7 be
       0.09451573 0.12121339 -0.28283483 -0.38970596
0000b0 3c 07 c9 bc ab 45 8e 3e 3e 4e 1c 3d 9f 22 8b be
       -0.024539582 0.27787527 0.038160555 -0.2717485
0000c0 cd 45 94 be 46 45 fe 3e 07 89 69 3e 13 25 54 3e
       -0.28959504 0.49662226 0.22806178 0.20717268
0000d0 1b ed c8 3e 20 96 a0 3e 6b 67 fc be 87 44 3f be
       0.39243397 0.31364536 -0.49297652 -0.18678485
0000e0 1d 86 ba bd 8f c9 f4 3e 1c 87 79 3a ed 5c 4f be
       -0.09107611 0.47810027 0.0009518729 -0.20250292
0000f0 bc c7 01 be fc 27 d9 3d 77 a4 00 3f 7c c3 09 3e
       -0.12673849 0.106033295 0.50250953 0.13453478
000100 e1 08 cb 3d 00 eb e2 be a9 da f2 3d af 48 1b bd
       0.09913803 -0.44319916 0.11858112 -0.037911113
000110 74 bd 39 3e cc 82 9f 3e 53 e9 2f 3e 46 6f 89 be
       0.18138677 0.31154478 0.1717885 -0.26842707
000120 b7 df a2 be b4 82 5b 3e 7b 0e ff 3d b4 2f 2e 3e
       -0.31811306 0.21436578 0.12453934 0.17010385
000130 49 bf c6 3d 73 34 63 bd ad 26 03 bf 7f 27 a7 3b
       0.097044535 -0.05546994 -0.5123089 0.005101144
000140 8b a8 a7 b9 0f eb bd 3d 4a ff b2 bd 62 22 9f be
       -0.00031978296 0.092733495 -0.08740099 -0.3108092
000150 b0 47 cc 3e 0b bf 1f 3e a0 6d b1 bc 46 f5 7d 3d
       0.39898443 0.15600221 -0.021658719 0.06200149
000160 ab 5a e4 be c2 8e b7 be e2 6c bd bd 95 df 8d 3d
       -0.44600424 -0.35851103 -0.092492834 0.069274105
000170 1d 0a 87 3e db 8a 17 be ab 6d 95 3e 88 45 03 3f
       0.26374903 -0.14799063 0.29185233 0.5127797
000180 b4 0c f3 bd c7 3e c1 3e c8 28 35 bd e6 6f 1c 3e
       -0.11867657 0.37743208 -0.044228345 0.15277061
000190 d0 57 97 3e 01 2f 97 be 2b 42 f5 be 9e 53 0c bf
       0.29559183 -0.2952805 -0.47902045 -0.5481509
0001a0 fa c0 aa bd a3 c5 03 3f 99 af e5 3d 4f a0 ad be
       -0.083375886 0.51473445 0.11215133 -0.33911368
0001b0 ea 28 7e 3e 7b 45 b6 3e 93 01 82 be b8 d1 05 3f
       0.24820295 0.35599884 -0.25391826 0.5227313
0001c0 e2 cd 0a bc 59 1b 87 bd 09 46 7f bc 9f ca d0 3e
       -0.008471938 -0.06597013 -0.0155806625 0.40779588
0001d0 7f c3 88 3e e3 8c cb 3c d5 2e bd be 64 fe cf 3d
       0.26711652 0.024847453 -0.36949793 0.10155943
0001e0 4b c6 70 3d b6 e5 0b 3e 5c aa 05 bf c1 2f ac be
       0.058782857 0.13661847 -0.5221307 -0.33630183
0001f0 3f db 11 3f 76 15 ea be 33 79 29 bf 31 26 58 3d
       0.5697517 -0.45719498 -0.6620056 0.052770797
000200 e2 67 c9 3e 88 a6 ed bd e9 83 d6 bd b6 3f 06 bf
       0.3933707 -0.11604029 -0.104743786 -0.52440965
000210 15 55 a1 3e 54 cb 16 3e 0f 34 11 be 24 ff 3d be
       0.31510225 0.14726001 -0.14180015 -0.1855436
000220 a5 a7 ad 3d 07 fe 04 be 6a 7d b4 3d 83 b2 6e bf
       0.08479241 -0.12987529 0.08812983 -0.9324114
000230 8b ab 13 bd c3 29 88 3e 13 ee 33 3d c1 26 98 be
       -0.036052268 0.26594362 0.043928217 -0.29717067
000240 68 5f 24 3d f1 4f 34 3e 27 7e 03 3f de 44 c9 3e
       0.04013005 0.1760862 0.5136437 0.39310354
000250 2d 7f 89 bc 7d 53 0e be 97 6f cd bd 13 51 8b be
       -0.016784275 -0.13899036 -0.1003105 -0.27210292
000260 b8 e7 03 3e be 1b 09 3e 76 1c a4 be ea b4 d4 3e
       0.12881362 0.13389489 -0.32052964 0.41544276
000270 30 c1 18 3e 89 28 04 3e 88 ca d4 be 87 c7 96 3d
       0.14917445 0.12906088 -0.4156077 0.073622756
000280 0b 08 5a be 02 51 ef bd 19 b9 38 3e 6e 26 72 3e
       -0.2129213 -0.11685373 0.18039359 0.23647472
000290 4b 23 9b be a2 ea cc 3e 73 2f a9 3e 00 e3 c4 3e
       -0.30300364 0.4002276 0.33044013 0.38454437
0002a0 36 0b 8a 3d 49 e0 71 3d d3 ea 91 bc 84 23 e9 3b
       0.067404196 0.059051786 -0.017812168 0.0071148295
0002b0 d5 84 d7 3e 13 19 69 be 59 19 8d be 48 ec 1c bd
       0.4209353 -0.22763471 -0.275584 -0.038311273
0002c0 6e bd ca 3e 13 c4 d7 3e 3a 3b 45 be c3 65 10 3d
       0.39597648 0.4214178 -0.19260874 0.035253298
0002d0 63 b6 b7 be c2 d0 9d 3e 7e 5c 8f be bc ed 46 3f
       -0.35881338 0.30823332 -0.28000253 0.77706504
0002e0 ca 4e 97 3d f9 e9 e5 be c3 bb 49 3d e4 64 74 3c
       0.07388075 -0.4490507 0.04925133 0.014916632
0002f0 85 b0 d8 be 46 e8 8b 3d dc 98 39 3d ed e6 05 3f
       -0.42322174 0.06831412 0.045311794 0.5230549
000300 52 bc 70 be 48 d0 ca 3c a1 8e 6c 3e 9d 3d 10 3e
       -0.23509338 0.02475752 0.23101284 0.14086004
000310 82 d3 a6 3b 01 5a 9e 3c e3 44 27 3e 6b 0c f2 3e
       0.0050911317 0.019330027 0.16334872 0.472751
000320 b5 1e 7d bd 6b 11 ea be 51 78 52 3e df 3d 38 3e
       -0.061796863 -0.45716414 0.2055371 0.17992352
000330 70 78 fd 3e 33 bc e7 3d 29 1c 44 3e e6 61 b2 3c
       0.4950595 0.11315193 0.19151367 0.021775197
000340 0c d6 10 bf df bd 30 3e e0 f3 85 be cf 31 5b 3e
       -0.5657661 0.1725993 -0.26162624 0.21405719
000350 f2 db 9d 3d 49 4d 20 3f 0f 83 7c 3e 07 ad 49 3c
       0.07707967 0.6261793 0.2465937 0.012309319
000360 1a dc 39 bf f0 39 0e bf ac 94 96 3c a2 cb 26 3f
       -0.72601473 -0.55557156 0.01838144 0.6515447
000370 60 4d 27 3e 82 79 86 3e 28 5e 66 bd aa 87 2d be
       0.1633811 0.26264578 -0.05624214 -0.16946283
000380 33 53 50 be f1 84 4e be 51 8c 78 bd 7f ad ce 3e
       -0.20344238 -0.201679 -0.06068069 0.40366742
000390 49 f5 9a 3c f8 a7 20 bd 42 ae 1f be 57 f8 96 3e
       0.01891579 -0.039222687 -0.15593818 0.29486343
0003a0 28 4a e6 be bd 39 56 be 8f 4b 6d bd c4 47 92 bd
       -0.44978452 -0.20920463 -0.057933386 -0.071425945
0003b0 4f 75 c7 bd e4 b4 f9 3e b5 d4 d7 3e d4 d2 a2 be
       -0.09739172 0.4877082 0.4215447 -0.31801474
0003c0 ea 89 57 3e 73 68 57 3e 13 ee 6e be 9b b1 b4 3d
       0.21048704 0.21035938 -0.23333006 0.08822938
0003d0 68 7d 02 3f 75 f8 d2 bd df 16 e3 3d 87 ea c4 be
       0.50972605 -0.10301296 0.11088347 -0.3846018
0003e0 1a 4a 1e 3e f1 2b cc 3c d4 bd a9 bd 57 c4 27 be
       0.15457955 0.024923297 -0.0828816 -0.16383491
0003f0 ba 93 83 bd 18 4a 18 3e 93 97 8c 3c 2e 1f 48 3e
       -0.06424661 0.14872015 0.01716212 0.19543144
