results/shared_dqn_blind/models/checkpoint_ep400.pth (torch, 580718 bytes, 24 tensors)

fc1.weight f4 [256, 8]
-0.941529 0.7726365 0.6390963 -0.33181876 -0.98217016 -0.95362085 -0.39311513 -0.553959
0.24701034 0.5269631 -0.40025017 -0.18304835 -0.7788307 1.2891467 0.09410816 -0.3374255
0.62262917 0.2132345 0.18999729 -0.091300555 0.32213393 -0.45507857 0.28397164 0.5546825
-0.22419716 1.2033496 0.76042324 0.042665705 -0.84303343 -1.9789566 0.4886611 0.23809867
-0.2894108 -1.1744201 -0.47624487 -0.13253304 1.1980435 0.31462958 0.6017844 -1.4869426
-0.73976433 -0.125474 -1.1165727 -0.86472625 0.7544354 -0.04125312 0.10484825 0.47186735
-0.20144856 0.794137 -0.31141287 1.1904566 0.44401357 -1.7167813 -1.8100549 -0.0699685
-0.0650979 -1.550999 -1.0511274 0.38802996 -0.9594556 0.21602483 0.28439638 -0.364407
-0.9167637 -1.8605005 -1.1665049 -0.4919219 0.35069993 -0.111691885 0.089001626 -0.35091138
1.3370101 -0.8356291 -0.36421514 0.109540656 -1.3808793 -0.7484306 0.35207358 0.10812365
-1.4537412 -0.16441707 -1.1555865 1.1417296 0.20813113 -0.4837928 0.3556395 0.73428947
0.86734235 0.415276 -0.057664942 0.7409728 0.92900383 -0.1167393 -0.20124762 -1.2483747
-0.75603527 0.43362105 0.88201106 0.4948649 -0.6402931 0.52247894 1.4240484 -1.4904141
0.17021154 -1.007075 -0.29671797 -0.6549444 -0.16139184 0.47563022 -0.8783898 -0.46033004
-0.28236112 0.5976544 -1.0682365 0.70499414 1.1737604 1.1309141 0.83646876 0.0758872
0.4532484 0.5490935 1.3088665 0.6456645 1.489059 -1.1285784 -0.94790787 -0.24949008
-0.58862036 -0.047173005 -1.4239295 0.15753126 0.92837554 -0.11191423 0.03585234 0.55978286
0.06998959 -2.0060391 0.07609101 -0.6124973 0.27142328 -0.90720576 -1.2722311 1.1000639
-1.3535852 -0.74161863 -0.081502154 -0.70109206 0.09184522 1.0795441 -0.11710742 -0.5337221
0.20293027 -1.4321337 0.30489925 -0.88020265 -1.1620508 -1.2512033 0.17112547 -0.056963548
0.9390932 -0.20086439 0.30551642 0.40812945 -0.14451833 -0.042193446 0.47019115 -1.1100498
0.43843514 -2.1712215 -0.24008483 -0.1925183 0.4767354 -0.074349545 -0.1846127 0.7201385
1.9261093 0.6674563 -0.105020344 -0.006479832 -0.6437542 0.5012145 -1.0066352 -0.25211743
-0.004161388 0.03647197 0.035076186 -0.021245962 -1.4871767 0.40580347 0.6025929 1.9137979
0.2256223 -0.23778743 -0.33710343 -0.82138413 -0.23119523 0.25131232 0.36895025 0.42371932
-0.8342395 -0.7795602 0.17399488 -0.005623685 -0.5723543 0.3558172 0.57977706 0.65577006
0.7087807 -0.7833646 -0.112174675 0.7572599 0.34651402 -0.69670117 1.2570598 0.49206802
0.3348992 0.6710704 0.0816727 -0.7388057 0.36744094 0.08976065 -0.8273923 -0.7954258
-0.9979399 -0.011926157 -1.132195 -0.22402534 0.33756807 0.5884277 -1.1204401 0.30887878
0.37032408 -1.6321682 -0.6963489 -0.68603754 -0.6201049 0.534555 0.009786376 -1.0587201
0.018250816 -1.0455642 -0.109701626 -0.29668817 -0.10099496 1.1506944 0.40856653 0.7114137
-0.6250542 0.60177785 -0.19468321 0.10337811 0.26066765 0.79733217 -0.032880697 -0.08885421
00000000: 0b08 71bf 81cb 453f d19b 233f 26e4 a9be
00000010: 816f 7bbf 7f20 74bf 6346 c9be 42d0 0dbf
00000020: 47f0 7c3e 0ee7 063f 97ed ccbe 0771 3bbe
00000030: 7361 47bf c202 a53f c7bb c03d 09c3 acbe
00000040: a064 1f3f 255a 5a3e a68e 423e c9fb babd
00000050: bdee a43e 0f00 e9be bb64 913e acff 0d3f
00000060: f193 65be 5c07 9a3f 19ab 423f 3cc2 2e3d
00000070: 0ad1 57bf 734e fdbf ca31 fa3e 23d0 733e
00000080: a72d 94be 6653 96bf 5ed6 f3be beb6 07be
00000090: 7d59 993f 2117 a13e 8b0e 1a3f 2354 bebf
000000a0: 3261 3dbf 427c 00be dbeb 8ebf b35e 5dbf
000000b0: ae22 413f 08f9 28bd aeba d63d 9998 f13e
000000c0: 8848 4ebe 904c 4b3f 8271 9fbe e260 983f
000000d0: bf55 e33e 7dbf dbbf e1af e7bf a54b 8fbd
000000e0: 0c52 85bd 2387 c6bf 588b 86bf ddab c63e
000000f0: e29e 75bf 9d35 5d3e 679c 913e 8e93 babe
00000100: 07b1 6abf e124 eebf 0850 95bf 30dd fbbe
00000110: f18e b33e b7be e4bd 7c46 b63d a8aa b3be
00000120: 2623 ab3f caeb 55bf 687a babe da56 e03d
00000130: a7c0 b0bf 2699 3fbf fd42 b43e ef6f dd3d
00000140: 3114 babf f35c 28be 42ea 93bf 3224 923f
00000150: 5420 553e b1b3 f7be 6116 b63e 65fa 3b3f
00000160: 260a 5e3f 0e9f d43e 1332 6cbd 65b0 3d3f
00000170: 32d3 6d3f 0415 efbd db13 4ebe beca 9fbf
00000180: 878b 41bf 9403 de3e 7acb 613f ef5e fd3e
00000190: 40ea 23bf 2ec1 053f 3847 b63f e4c5 bebf
000001a0: ef4b 2e3e d5e7 80bf 6beb 97be 70aa 27bf
000001b0: e743 25be ce85 f33e 27de 60bf 61b0 ebbe
000001c0: a391 90be e1ff 183f f9bb 88bf 7f7a 343f
000001d0: c83d 963f cbc1 903f d122 563f c06a 9b3d
000001e0: 2d10 e83e 6491 0c3f f088 a73f 454a 253f
000001f0: 7c99 be3f 4275 90bf 17aa 72bf 547a 7fbe
00000200: d3af 16bf 7b38 41bd 5243 b6bf e04f 213e
00000210: 05aa 6d3f 4a33 e5bd e7d9 123d ee4d 0f3f
00000220: b456 8f3d f262 00c0 9ad5 9b3d a0cc 1cbf
00000230: fef7 8a3e a33e 68bf 78d8 a2bf e5ce 8c3f
00000240: 4842 adbf b8da 3dbf 9aea a6bd c57a 33bf
00000250: 5919 bc3d 802e 8a3f 04d6 efbd 03a2 08bf
00000260: f4cc 4f3e 2850 b7bf c11b 9c3e f654 61bf
00000270: 15be 94bf 6e27 a0bf 843b 2f3e 9c52 69bd
00000280: 6968 703f 65af 4dbe a66c 9c3e 58f6 d03e
00000290: 9dfc 13be 09d3 2cbd e5bc f03e 1d16 8ebf
000002a0: 927a e03e 4bf5 0ac0 ccd8 75be 8423 45be
000002b0: aa16 f43e 9344 98bd 1d0b 3dbe ff5a 383f
000002c0: c08a f63f 6bde 2a3f e814 d7bd c554 d4bb
000002d0: 13cd 24bf 984f 003f 6cd9 80bf 8915 81be
000002e0: 415c 88bb a263 153d 0cac 0f3d 030c aebc
000002f0: ce5b bebf 79c5 cf3e 8743 1a3f 54f7 f43f
00000300: 8809 673e 8c7e 73be d298 acbe 3b46 52bf
00000310: 71be 6cbe 02ac 803e 0ce7 bc3e bdf1 d83e
00000320: b890 55bf 4291 47bf b72b 323e e446 b8bb
00000330: d085 12bf ac2d b63e 456c 143f 8ce0 273f
00000340: a772 353f 958a 48bf d6bb e5bd c9db 413f
00000350: 496a b13e 025b 32bf 56e7 a03f 57f0 fb3e
00000360: e877 ab3e 45cb 2b3f 0444 a73d 5f22 3dbf
00000370: 3821 bc3e 6fd4 b73d fbcf 53bf 06a1 4bbf
00000380: fd78 7fbf ee65 43bc c4eb 90bf e666 65be
00000390: b9d5 ac3e 33a3 163f 956a 8fbf 5c25 9e3e
000003a0: 1e9b bd3e e3ea d0bf ec43 32bf 28a0 2fbf
000003b0: 32bf 1ebf 99d8 083f 0957 203c 2484 87bf
000003c0: bc82 953c 0cd5 85bf 3fab e0bd 83e7 97be
000003d0: 72d6 cebd f449 933f a22f d13e 351f 363f
000003e0: 8d03 20bf 1d0e 1a3f 095b 47be e7b7 d33d
000003f0: 3b76 853e f61d 4c3f e9ad 06bd 32f9 b5bd

fc1.bias f4 [256]
-0.20081486 0.08087012 -0.30068657 0.24532142 0.26550233 0.08924098 0.6085096 0.2637439
0.14191419 0.038975958 -0.031982265 -0.2501092 -0.26054263 -0.22914924 0.020415409 0.041949816
-0.10981837 0.23564348 0.114531204 0.18367301 0.29025114 0.30531156 0.19565013 -0.022944102
-0.22597347 0.07752531 0.36915675 0.022259051 0.0766844 0.19579045 0.08255368 -0.13473384
0.19259466 -0.07920262 0.119982414 -0.030662727 0.10157094 -0.3072626 0.3120172 0.23630193
0.06809287 0.091148585 -0.18699019 -0.45827955 0.0005118715 0.21345246 -0.006319132 -0.2430985
-0.21823673 0.4575835 0.24179113 0.22458556 0.40026158 0.35260642 -0.31074148 -0.24113911
-0.010954491 0.4725219 -0.011481149 -0.20034705 -0.077135004 0.07144463 0.445976 0.1482158
0.05430947 -0.32716125 0.12902321 -0.024438076 0.2707873 0.3649172 0.20116135 -0.20787288
-0.3829928 0.21660025 0.07005138 0.16759247 0.055688802 -0.10484076 -0.47690406 0.0074471557
-0.019132296 0.14488004 -0.0028335715 -0.21846835 0.4063667 0.06570659 -0.027656117 0.15902022
-0.3826954 -0.2692057 -0.011171082 0.050418667 0.24494806 -0.04471026 0.25922918 0.3852931
-0.12631305 0.258751 -0.0059005255 0.22450072 0.22048035 -0.10159847 -0.3524228 -0.39673075
-0.030314557 0.38974443 0.01932205 -0.24822465 0.04298939 0.31844458 -0.22802672 0.34533152
0.22727312 0.098416865 0.128052 0.40891683 0.301035 0.09179561 -0.254042 -0.018805029
0.06547415 0.10949849 -0.47177815 -0.30665305 0.5130578 -0.1890671 -0.5422076 0.066484116
0.37665534 -0.042849187 0.044246983 -0.37298533 0.098150976 0.17685574 -0.11221981 -0.18197131
0.063852064 -0.07405006 -0.005875276 -0.85769194 -0.044886205 0.27858666 0.0754229 -0.13997261
0.033900175 0.24348667 0.4970835 0.35286403 0.011424845 -0.12576215 -0.066043355 -0.16356026
0.18861091 0.18340605 -0.24752188 0.371175 0.1288775 0.12611355 -0.3720461 0.09204361
-0.107423164 -0.06995622 0.14928918 0.27991024 -0.26722324 0.39639848 0.29699445 0.3258084
0.14224143 -0.034919214 -0.038815495 0.049843505 0.3399758 -0.19391833 -0.27652964 0.021414923
0.37711564 0.37182096 -0.13863672 -0.014033868 -0.18659116 0.29349962 -0.2269291 0.66223675
0.06362522 -0.27064335 0.15883602 0.0421112 -0.31657228 0.09478917 -0.014203519 0.41923678
-0.25211084 0.0088985 0.20978393 0.15956265 0.02438316 0.047598127 0.23902003 0.36799258
0.015172969 -0.33222616 0.2386237 0.2192365 0.48065075 0.10914447 0.092968136 0.07967047
-0.42187515 0.029784366 -0.25101444 0.26155096 0.06425011 0.5927434 0.18344797 0.035948604
-0.6867021 -0.48522952 0.037487883 0.6016332 0.15016352 0.2312655 -0.051919986 -0.1728447
-0.058486708 -0.1123144 -0.07577408 0.3527745 0.05303279 -0.084762275 -0.094014 0.2404195
-0.432632 -0.13674286 -0.045164157 -0.068148315 -0.08849288 0.4339432 0.3999227 -0.26711446
0.23318382 0.27234355 -0.25804928 0.1477139 0.555525 -0.058297075 0.1347486 -0.23257974
0.17129433 0.023746235 0.026991382 -0.12926905 -0.012761189 0.03139998 0.14692178 0.106169365
00000000: 69a2 4dbe 3c9f a53d 97f3 99be 8a35 7b3e
00000010: ecef 873e fac3 b63d 49c7 1b3f 7109 873e
00000020: f451 113e 41a5 1f3d d6ff 02bd 500e 80be
00000030: d865 85be 19a6 6abe 373e a73c 92d3 2b3d
00000040: 74e8 e0bd 864c 713e 568f ea3d c714 3c3e
00000050: cc9b 943e cc51 9c3e 8258 483e 45f5 bbbc
00000060: 9765 67be 97c5 9e3d 1d02 bd3e 9d58 b63c
00000070: b60c 9d3d 4b7d 483e e711 a93d abf7 09be
00000080: 8937 453e fc34 a2bd 57b9 f53d 6630 fbbc
00000090: 6d04 d03d 8651 9dbe b8c0 9f3e 22f9 713e
000000a0: 4674 8b3d 1cac ba3d 5b7a 3fbe 9ea3 eabe
000000b0: 1d2f 063a 4893 5a3e b910 cfbb d0ee 78be
000000c0: 7379 5fbe 6248 ea3e 1898 773e c2f9 653e
000000d0: 16ef cc3e d488 b43e 8219 9fbe 2ced 76be
000000e0: 777a 33bc 64ee f13e 6e1b 3cbc c727 4dbe
000000f0: f5f8 9dbd 9051 923d f756 e43e e2c5 173e
00000100: 9b73 5e3d ae81 a7be a91e 043e 5c32 c8bc
00000110: a2a4 8a3e 6dd6 ba3e 3efd 4d3e a1dc 54be
00000120: a217 c4be 75cc 5d3e 1977 8f3d 5c9d 2b3e
00000130: f119 643d c1b6 d6bd c52c f4be 4507 f43b
00000140: 55bb 9cbc 6f5b 143e 71b3 39bb 2bb6 5fbe
00000150: 4c0f d03e 2d91 863d 158f e2bc 32d6 223e
00000160: a7f0 c3be 54d5 89be ea06 37bc ce83 4e3d
00000170: aad3 7a3e 1b22 37bd b0b9 843e 2345 c53e
00000180: 3558 01be 037b 843e 3259 c1bb 84e3 653e
00000190: 9ac5 613e dc12 d0bd c370 b4be 4b20 cbbe
000001a0: 3c56 f8bc 958c c73e 4749 9e3c 9a2e 7ebe
000001b0: a515 303d 2b0b a33e d67f 69be 4bcf b03e
000001c0: 49ba 683e c88e c93d 1020 033e 8c5d d13e
000001d0: 4221 9a3e 56ff bb3d cb11 82be 010d 9abc
000001e0: 5017 863d bf40 e03d e88c f1be a101 9dbe
000001f0: c257 033f ce9a 41be 1ece 0abf d328 883d
00000200: f8d8 c03e a182 2fbd 533c 353d eff7 bebe
00000210: 6103 c93d ac19 353e 80d3 e5bd b056 3abe
00000220: dfc4 823d 8fa7 97bd 6385 c0bb b391 5bbf
00000230: 99da 37bd e9a2 8e3e 5277 9a3d fb54 0fbe
00000240: e9da 0a3d 9254 793e ba81 fe3e 98aa b43e
00000250: 462f 3b3c cbc7 00be bd41 87bd 577c 27be
00000260: 3823 413e ccce 3b3e 6076 7dbe a60a be3e
00000270: 77f8 033e e923 013e d47c bebe 5c81 bc3d
00000280: ad00 dcbd 3545 8fbd 43df 183e 6550 8f3e
00000290: 7cd1 88be bef4 ca3e a80f 983e 5cd0 a63e
000002a0: bda7 113e 7307 0fbd fffc 1ebd b428 4c3d
000002b0: 4f11 ae3e 8792 46be 4b95 8dbe 596e af3c
000002c0: 4d15 c13e 515f be3e c9f6 0dbe 4fee 65bc
000002d0: c111 3fbe 9545 963e 1a60 68be 5988 293f
000002e0: f04d 823d c491 8abe e9a5 223e cb7c 2c3d
000002f0: c315 a2be d320 c23d e0b5 68bc 34a6 d63e
00000300: ac14 81be 04cb 113c 99d1 563e 6464 233e
00000310: 31bf c73c 41f6 423d abc1 743e 8669 bc3e
00000320: 0b98 783c 8c19 aabe c559 743e 887f 603e
00000330: db17 f63e 2387 df3d 1466 be3d 452a a33d
00000340: 0500 d8be 58fe f33c f784 80be 02ea 853e
00000350: 9095 833d 08be 173f c9d9 3b3e d83e 133d
00000360: b5cb 2fbf 0170 f8be e58c 193d a204 1a3f
00000370: 77c4 193e ddd0 6c3e 0daa 54bd 33fe 30be
00000380: c28f 6fbd 1805 e6bd 712f 9bbd dc9e b43e
00000390: e938 593d d897 adbd 698a c0bd 8830 763e
000003a0: f181 ddbe 5206 0cbe 0dfe 38bd 5891 8bbd
000003b0: c13b b5bd ce2d de3e abc2 cc3e 3ac3 88be
000003c0: bdc7 6e3e 9d70 8b3e 091f 84be 5042 173e
000003d0: e336 0e3f eac8 6ebd 89fb 093e 6229 6ebe
000003e0: c867 2f3e 7787 c23c 081d dd3c 1b5f 04be
000003f0: 4e14 51bc 449d 003d aa72 163e 536f d93d

fc2.weight f4 [128, 256]
-0.3181012 0.35143748 -0.13895138 -0.5557673 0.50059795 0.08359718 -0.9898519 -0.5963875
0.17230847 -0.8244071 0.0755018 -0.5773133 -0.13829294 -0.19006827 -0.30747092 -0.9494318
-0.11678335 -0.009804322 0.06541961 0.08396275 -0.38780096 0.0954955 0.36136836 -0.23829824
0.058685537 0.04088618 0.08719343 -0.18495706 0.18504591 -0.13552938 -0.003012703 -0.13450204
-0.23492788 0.017275874 0.01960598 0.25263217 0.08972522 0.05032956 -0.43704247 -0.13235177
0.53916025 0.16050316 -0.20481095 -0.14589061 -0.08960943 0.12786521 -0.6984399 -0.1090953
0.13355748 0.22046623 -0.7433049 0.120192215 -0.33115512 0.2003408 0.09287853 0.16028607
-0.22686867 -0.5561554 -0.21507591 0.30027136 -0.10359514 0.6944064 0.26853877 0.41201138
0.47550783 0.6762668 -0.038216054 -0.3335663 0.36292443 -0.364573 0.22963464 0.07348113
-0.2637347 0.9359722 -0.39219114 1.2194082 -0.06770175 0.26624975 0.19396597 -0.23033372
-0.028992089 -0.2456605 0.16960235 -0.33192953 0.17807557 -0.46864465 0.4548476 -0.05376478
0.0037459151 0.2640166 0.024699513 0.22799867 -0.2689655 0.14143561 0.21542744 -0.46586674
-0.043212123 0.24033663 0.16508186 -0.0969179 -0.66790485 0.12163705 0.07737544 0.230254
0.13830402 -0.030350946 0.075016215 0.16343744 -0.19168474 -0.05474024 0.25090325 -0.093034506
-0.21400155 0.02942028 -0.10301837 0.25259304 0.2700022 0.3530533 0.28219482 0.5927986
0.10915444 0.19177519 0.31801462 0.5467017 -0.01940874 -0.056756884 0.22856143 -0.008409712
-0.11603224 0.031328246 0.045248635 0.22412309 -0.69412404 0.70495385 0.29414397 -0.020999266
0.11079694 0.083614066 0.33283746 -0.059083037 0.061479 0.08542326 -0.52039695 0.13109273
0.00010186729 0.26874304 -0.16363598 0.28054565 0.4290945 0.06734516 0.03940477 -0.0063821827
0.415618 0.17295234 -0.3655849 0.035961132 -0.06877719 -0.15370862 -0.466694 0.30331653
0.34153605 0.19654593 0.034906194 0.25202668 0.28357273 -0.019343644 0.039463937 0.2142358
0.031572364 -0.023204934 -0.32392237 0.25791678 -0.32390225 0.058906697 -0.2901982 -0.05491954
-0.009058838 0.3399142 -0.1334685 0.22160578 -0.095696345 0.20032434 0.22632065 -0.3300832
0.51790607 0.34657067 -0.1388683 -0.29325977 0.03741533 -0.49428976 -0.26422474 -0.12500334
0.23869638 0.08982587 0.20384254 0.10080665 -0.027179703 0.41400734 0.09059162 -0.0013344748
0.27192965 0.07619061 0.036789607 0.187154 0.18824154 0.10284091 0.299517 -0.24982384
-0.23834576 -0.96328515 0.17861444 0.045679715 0.16010763 -0.45268452 0.84363586 -0.1382473
-0.3163763 0.14915262 0.19897534 0.06363792 0.13516131 -0.8693872 -0.013890062 -0.16578351
0.08012803 0.20477375 -0.46406153 -0.763374 -0.033648934 -0.033718515 0.31919456 0.12174506
-0.60091513 -0.063356616 -0.38016137 -0.087691806 -0.1188167 0.215049 0.24273638 0.10523305
-0.4004082 0.15807115 0.15851279 -0.008591443 -0.6107561 0.17932062 -0.12297242 -0.011054458
0.1082663 0.6516959 0.07241163 -0.5793774 -0.06140291 0.26766697 -0.03598505 -0.14953054
00000000: 29de a2be 9def b33e 4549 0ebe c446 0ebf
00000010: 3027 003f 0035 ab3d ef66 7dbf daac 18bf
00000020: a271 303e 580c 53bf b0a0 9a3d ceca 13bf
00000030: aa9c 0dbe 42a1 42be d46c 9dbe f60d 73bf
00000040: 1c2c efbd 4fa2 20bc b7fa 853d aaf4 ab3d
00000050: d98d c6be 2593 c33d 4605 b93e 7404 74be
00000060: 3f60 703d 4478 273d 7892 b23d 6265 3dbe
00000070: ad7c 3d3e 37c8 0abe c570 45bb e7ba 09be
00000080: ef90 70be 2286 8d3c b89c a03c 0159 813e
00000090: dbc1 b73d 5e26 4e3d 08c4 dfbe 3987 07be
000000a0: 6806 0a3f f15a 243e f6b9 51be 5964 15be
000000b0: 2685 b7bd 19ef 023e f5cc 32bf 5b6d dfbd
000000c0: 4bc3 083e e6c1 613e 3b49 3ebf 5627 f63d
000000d0: 2a8d a9be 2426 4d3e 1937 be3d 0822 243e
000000e0: 4350 68be 3360 0ebf dc3c 5cbe 2bbd 993e
000000f0: b029 d4bd 9ec4 313f ea7d 893e 28f3 d23e
00000100: c375 f33e d21f 2d3f 7088 1cbd 34c9 aabe
00000110: 3bd1 b93e 50a9 babe 5825 6b3e 467d 963d
00000120: 3c08 87be e09b 6f3f 47cd c8be 9115 9c3f
00000130: 37a7 8abd e351 883e 049f 463e 9adc 6bbe
00000140: d180 edbc 6d8e 7bbe 3dac 2d3e abf2 a9be
00000150: 7159 363e 31f2 efbe c9e1 e83e 7538 5cbd
00000160: 077e 753b 2f2d 873e a256 ca3c 7c78 693e
00000170: d9b5 89be 7fd4 103e 0399 5c3e 1686 eebe
00000180: 32ff 30bd ce1a 763e 380b 293e e47c c6bd
00000190: d0fb 2abf d81c f93d 0477 9e3d b4c7 6b3e
000001a0: 929f 0d3e 8ca2 f8bc 1aa2 993d 255c 273e
000001b0: 0149 44be 4d37 60bd 6476 803e e088 bebd
000001c0: 3923 5bbe cd02 f13c 4cfb d2bd e053 813e
000001d0: ba3d 8a3e 67c3 b43e d77b 903e a6c1 173f
000001e0: 5d8c df3d b760 443e d0d2 a23e a5f4 0b3f
000001f0: 14ff 9ebc e879 68bd 020c 6a3e e4c8 09bc
00000200: 50a2 edbd 0c52 003d a256 393d 8680 653e
00000210: 1db2 31bf db77 343f 0a9a 963e a706 acbc
00000220: 82e9 e23d da3d ab3d ac69 aa3e 0e01 72bd
00000230: 67d1 7b3d 64f2 ae3d bc38 05bf 2c3d 063e
00000240: 96a1 d538 b098 893e 3190 27be aea3 8f3e
00000250: 46b2 db3e 42ec 893d e566 213d a121 d1bb
00000260: e2cb d43e 6b1a 313e f22d bbbe fb4b 133d
00000270: 0edb 8cbd cb65 1dbe 84f2 eebe 4e4c 9b3e
00000280: d0dd ae3e 5643 493e ccf9 0e3d a409 813e
00000290: 7230 913e 9076 9ebc f0a4 213d a160 5b3e
000002a0: 0652 013d 4618 bebc 27d9 a5be ab0d 843e
000002b0: 84d6 a5be 2648 713d dc94 94be 50f3 60bd
000002c0: 856b 14bc 3c09 ae3e f7ab 08be a0ec 623e
000002d0: 72fc c3bd d321 4d3e 9ac0 673e aa00 a9be
000002e0: 7e95 043f b671 b13e 7e33 0ebe 2526 96be
000002f0: d140 193d 8c13 fdbe 7748 87be e000 00be
00000300: d36c 743e a0f6 b73d 19bc 503e b873 ce3d
00000310: f8a7 debc c5f8 d33e 1988 b93d 8be9 aeba
00000320: 5d3a 8b3e d309 9c3d b3b0 163d 4ca5 3f3e
00000330: 64c2 403e 419e d23d 4b5a 993e d2d1 7fbe
00000340: e910 74be db99 76bf b4e6 363e a71a 3b3d
00000350: 41f3 233e 44c6 e7be 85f8 573f b390 0dbe
00000360: 13fc a1be 77bb 183e 31c0 4b3e 9954 823d
00000370: ba67 0a3e 2990 5ebf 2593 63bc 27c3 29be
00000380: 2a1a a43d 36b0 513e 7999 edbe 7a6c 43bf
00000390: 77d3 09bd 6d1c 0abd 786d a33e 7955 f93d
000003a0: 93d5 19bf 1dc1 81bd 83a4 c2be c397 b3bd
000003b0: 2c56 f3bd ce35 5c3e e38f 783e 6d84 d73d
000003c0: 4e02 cdbe 67dd 213e 2d51 223e 20c3 0cbc
000003d0: 835a 1cbf d39f 373e f7d8 fbbd c21d 35bc
000003e0: b9ba dd3d 8bd5 263f 8c4c 943d 1452 14bf
000003f0: 9e81 7bbd a50b 893e 0f65 13bd 891e 19be

fc2.bias f4 [128]
0.14926769 0.06735815 0.06596221 0.14884792 0.19881399 -0.07825672 0.051378448 -0.20862876
0.08818509 0.24291778 -0.26890665 0.15100993 -0.3364316 -0.13961495 0.057890836 -0.2411116
0.14187829 0.2222631 -0.04407897 -0.03130897 0.22830716 0.08551449 0.092401676 0.36750728
0.20662192 0.21974416 -0.1326189 -0.023888677 -0.095625214 0.029208874 -0.1540604 0.24830712
-0.043611627 -0.2809957 0.13111722 0.050233267 -0.0082879225 0.26927596 -0.016704284 -0.18782274
-0.11456995 0.21737781 0.04831185 0.54158276 0.20012258 -0.1556056 0.15372221 -0.19566348
-0.22138979 0.23252867 0.04664586 0.52547777 -0.04072707 0.14261945 -0.08476031 -0.122916564
0.11830582 0.08405815 -0.047052175 0.07313896 0.11966548 0.17945543 0.10904829 -0.011030315
-0.036021866 0.14433798 0.20384753 -0.000776022 -0.020379528 0.5895308 0.062445175 -0.19367819
0.18904844 -0.25372538 -0.062119406 -0.2039971 0.009104827 0.015803728 -0.31850258 0.07960999
0.053704 0.057324395 -0.48760843 -0.6788412 0.08223535 0.13483536 0.09759168 0.1788952
0.23629995 0.038311623 0.22581376 -0.19039102 0.11853525 -0.033362698 -0.12252932 0.029838761
0.22720717 -0.05972452 -0.025681132 0.110917345 0.0368415 0.17896186 -0.1749219 -0.21983847
0.31651732 -0.19167928 0.06146157 0.17811012 -0.08654619 -0.02680705 -0.017735537 0.049379613
0.014218306 -0.015015453 -0.08472873 0.0803442 0.089710936 -0.12701677 0.06969547 -0.012352605
0.11096296 -0.5296823 -0.03284909 -0.037142195 0.03410852 0.06532011 0.20311485 0.17576233
00000000: a1d9 183e 12f3 893d 3217 873d 976b 183e
00000010: e595 4b3e 0f45 a0bd 3572 523d c7a2 55be
00000020: 629a b43d 70bf 783e 22ae 89be 59a2 1a3e
00000030: c340 acbe 39f7 0ebe f11e 6d3d f6e5 76be
00000040: 8b48 113e f098 633e 268c 34bd d63d 00bd
00000050: 5ac9 693e 3922 af3d 173d bd3d ea29 bc3e
00000060: b294 533e 9d04 613e 40cd 07be 30b2 c3bc
00000070: 27d7 c3bd 7347 ef3c 02c2 1dbe 3944 7e3e
00000080: 1ba2 32bd abde 8fbe 9843 063e 66c1 4d3d
00000090: 11ca 07bc 8ade 893e 6cd7 88bc 9b54 40be
000000a0: a6a3 eabd 4a98 5e3e a5e2 453d 2ba5 0a3f
000000b0: efec 4c3e 1357 1fbe 5b69 1d3e 025c 48be
000000c0: 01b4 62be ff1b 6e3e bb0f 3f3d b685 063f
000000d0: 6ed1 26bd d50a 123e d096 adbd aebb fbbd
000000e0: 524a f23d ae26 ac3d c8b9 40bd e1c9 953d
000000f0: 2d13 f53d 2ac3 373e b654 df3d 7fb8 34bc
00000100: aa8b 13bd 56cd 133e 68bd 503e f46d 4bba
00000110: f8f2 a6bc 7eeb 163f 83c6 7f3d 9353 46be
00000120: ea95 413e 4be8 81be eb70 7ebd 9ee4 50be
00000130: 6a2c 153c d276 813c c512 a3be 900a a33d
00000140: baf8 5b3d fccc 6a3d d0a7 f9be 89c8 2dbf
00000150: 026b a83d 4812 0a3e 26de c73d 4e30 373e
00000160: 9df8 713e a6ec 1c3d b93b 673e ddf5 42be
00000170: 9cc2 f23d 53a7 08bd a7f0 fabd 6b70 f43c
00000180: ffa8 683e b3a1 74bd 3d61 d2bc a228 e33d
00000190: 1de7 163d c741 373e ba1e 33be 561d 61be
000001a0: 8f0e a23e 9347 44be 21bf 7b3d 8062 363e
000001b0: 213f b1bd 759a dbbc 1e4a 91bc 4742 4a3d
000001c0: e6f3 683c 6003 76bc 4286 adbd 808b a43d
000001d0: 5eba b73d af10 02be 80bc 8e3d 9562 4abc
000001e0: 8c40 e33d 4299 07bf c48c 06bd 6a22 18bd
000001f0: 60b5 0b3d 8dc6 853d 57fd 4f3e 0afb 333e

fc3.weight f4 [4, 128]
-0.096172355 1.3375334 -0.23603547 -0.66501236 -0.20441934 -0.28190538 -0.07603557 -0.07679435
-0.50837237 -0.64406836 1.0588322 -0.54917747 -0.56312394 -0.6750682 0.5357435 -0.45112428
-0.13058157 -0.45843384 0.07312182 0.4463286 -1.5753808 0.48754922 0.277244 -0.40341267
-0.2396884 -0.36083308 1.1247735 0.6166776 0.66248345 0.24588913 -0.061048232 -0.4431135
-0.10421688 -0.26324978 -0.1847775 -0.3222697 0.10125397 0.32459924 -0.16004549 -0.1091056
0.52132046 0.668686 0.7406139 -0.045185633 -0.41495818 1.368049 -0.3648179 -0.6496041
-1.1435221 0.36808407 1.249637 1.0987262 -0.47753984 0.8187669 -0.9207109 -0.30772847
-0.63374126 -0.53986746 1.214392 -0.63297415 -0.17360486 -0.6112331 -0.3297264 0.09888776
0.37206134 1.2053801 0.98769844 -0.36907744 -0.2189197 1.5740978 -0.04069165 0.78893185
-0.5545641 1.0110155 0.65648794 0.8472988 -0.5998008 1.032101 0.9362329 0.47005865
-0.24226077 -0.37902728 -1.0387145 1.1423422 -0.35878655 -0.29032508 -0.1617455 -0.24153385
-0.8207035 0.5558998 -0.082016535 0.9076476 -0.39453703 0.13757779 0.6018636 -0.3074648
-0.41627234 -0.14950022 -0.20385398 0.71187955 0.71740675 0.8401579 0.11061902 0.32111955
0.88473445 -1.1896929 1.0383401 -0.5644904 -0.37598115 -0.2611153 -0.5390134 1.3622042
-0.22883844 0.02783253 0.626578 -0.3389241 -0.13801631 -0.08846398 0.96614605 0.72231156
-0.09389906 0.45274648 0.02238832 0.021926405 -0.21430258 -0.29355618 -0.7186714 -0.16355479
-0.521695 1.3707881 -0.40099785 -0.40637252 -0.14058284 -0.22160116 -0.450312 -0.34839004
1.3142018 -0.26390296 -0.10624594 -0.71607864 -0.13621372 1.1585734 0.36171317 0.6816845
-0.62378913 -0.25959778 0.8790701 0.85763204 -1.253935 0.36389068 0.42679092 -0.86841464
-0.7632336 -0.16219527 0.5186428 0.5745928 0.6320418 -0.9465402 0.012463671 -0.33696243
0.050599013 0.45246246 -0.3139076 -0.33465508 0.2405788 -0.056964792 0.11093545 -0.15240368
1.4309766 0.82266796 0.38908276 -0.03558636 -0.12634963 1.410671 -0.20391369 -0.71800375
-0.70147055 0.72585803 1.1097687 1.279797 -0.13975933 0.74804574 -0.3475697 -0.7255847
-0.5830849 -0.25523916 1.3992298 0.021514565 -0.20235898 -0.29619664 -0.37745386 -0.076826826
0.7915967 1.3580588 1.0833591 1.5242404 0.059040856 1.6394385 -0.19821039 0.40363592
-0.106792614 0.8400058 1.5233492 0.9856565 1.2911333 0.2817056 0.57598 0.32665962
-0.25919655 -0.34476408 -1.1157234 0.511536 -1.0029225 -0.18824515 -0.13906784 0.61250377
-0.98229605 -0.34090045 -0.6566571 0.6305902 -0.12661013 0.07718237 0.4402034 -0.8978439
-0.19752079 -0.4886694 -0.4037383 0.8585937 0.95052934 0.9068707 -0.783861 -0.6531418
0.8355774 -1.288221 1.1921827 -0.24117504 -0.7682267 -0.37317035 -0.6668301 1.3308015
-0.08209575 -0.0768366 0.2217075 -0.39110982 -0.117946945 0.2113331 1.0139782 1.0960456
-0.03400028 0.77285576 0.040336914 -0.011879167 -0.3472745 -0.2748628 -0.30707696 0.23238604
00000000: 03f6 c4bd 4b34 ab3f 48b3 71be 403e 2abf
00000010: 4e53 51be e755 90be 89b8 9bbd 5b46 9dbd
00000020: b124 02bf aae1 24bf d087 873f e596 0cbf
00000030: e428 10bf 45d1 2cbf 7c26 093f c3f9 e6be
00000040: 2db7 05be d7b7 eabe e5c0 953d 2f85 e43e
00000050: 14a6 c9bf 0da0 f93e edf2 8d3e 1b8c cebe
00000060: e070 75be 1dbf b8be 94f8 8f3f 95de 1d3f
00000070: 8498 293f 5cca 7b3e b60d 7abd c6df e2be
00000080: a96f d5bd adc8 86be 5036 3dbe 8900 a5be
00000090: 3e5e cf3d df31 a63e f7e2 23be c272 dfbd
000000a0: 4275 053f 012f 2b3f df98 3d3f 9214 39bd
000000b0: 6675 d4be 3b1c af3f 69c9 babe 744c 26bf
000000c0: ef5e 92bf 8475 bc3e 1bf4 9f3f 0fa3 8c3f
000000d0: 1a80 f4be b59a 513f b6b3 6bbf 968e 9dbe
000000e0: de3c 22bf c134 0abf 3271 9b3f 980a 22bf
000000f0: 79c5 31be c679 1cbf e6d1 a8be aa85 ca3d
00000100: d37e be3e e549 9a3f ced9 7c3f b8f7 bcbe
00000110: 7c2c 60be 097c c93f 4aac 26bd 70f7 493f
00000120: eaf7 0dbf f568 813f 980f 283f 93e8 583f
00000130: 8c8c 19bf e31b 843f f6ac 6f3f 87ab f03e
00000140: 3513 78be dd0f c2be 99f4 84bf 4538 923f
00000150: dfb2 b7be 7da5 94be 9da0 25be a654 77be
00000160: a019 52bf 734f 0e3f 49f8 a7bd 985b 683f
00000170: c200 cabe 31e1 0c3e bc13 1a3f 076c 9dbe
00000180: a621 d5be 9616 19be 19bf 50be bd3d 363f
00000190: f8a7 373f 9714 573f 3a8c e23d c869 a43e
000001a0: f57d 623f db47 98bf 54e8 843f 7182 10bf
000001b0: 9a80 c0be e8b0 85be c8fc 09bf b55c ae3f
000001c0: a054 6abe 0c01 e43c 6a67 203f 7687 adbe
000001d0: 2654 0dbe 9a2c b5bd 5955 773f 69e9 383f
000001e0: 264e c0bd 63ce e73e b667 b73c 019f b33c
000001f0: 2372 5bbe ff4c 96be d9fa 37bf e87a 27be
00000200: ce8d 05bf fc75 af3f 974f cdbe 0f10 d0be
00000210: f3f4 0fbe 6aeb 62be 4b8f e6be 2e60 b2be
00000220: c437 a83f 4a1e 87be 7997 d9bd ee50 37bf
00000230: 9c7b 0bbe 224c 943f 7832 b93e e082 2e3f
00000240: a5b0 1fbf 00ea 84be bd0a 613f c68d 5b3f
00000250: f180 a0bf e14f ba3e 5784 da3e 6c50 5ebf
00000260: 4763 43bf 8416 26be c6c5 043f 8418 133f
00000270: 7ecd 213f 7550 72bf 6d34 4c3c 5786 acbe
00000280: e940 4f3d 29a9 e73e 7fb8 a0be e957 abbe
00000290: 4a5a 763e ea53 69bd 2032 e33d b60f 1cbe
000002a0: 3e2a b73f 5e9a 523f db35 c73e 01c3 11bd
000002b0: cc61 01be de90 b43f c0ce 50be 18cf 37bf
000002c0: 9393 33bf d5d1 393f e70c 8e3f 63d0 a33f
000002d0: 121d 0fbe ed7f 3f3f a8f4 b1be ebbf 39bf
000002e0: 0d45 15bf b5ae 82be f619 b33f 503f b03c
000002f0: 3137 4fbe 16a7 97be a241 c1be 6257 9dbd
00000300: 15a6 4a3f dfd4 ad3f 83ab 8a3f 4f1a c33f
00000310: d3d4 713d 1fd9 d13f aaf7 4abe 5ea9 ce3e
00000320: 16b6 dabd 9f0a 573f 1bfd c23f fc53 7c3f
00000330: db43 a53f b73b 903e 6d73 133f ee3f a73e
00000340: 69b5 84be eb84 b0be 06d0 8ebf 06f4 023f
00000350: c45f 80bf 56c3 40be cd67 0ebe 0ccd 1c3f
00000360: c177 7bbf 818a aebe ae1a 28bf 5c6e 213f
00000370: 16a6 01be ca11 9e3d 5762 e13e 19d9 65bf
00000380: e442 4abe e032 fabe c9b6 cebe cccc 5b3f
00000390: e455 733f ae28 683f 1dab 48bf 4d34 27bf
000003a0: 67e8 553f 6de4 a4bf 7199 983f 97f6 76be
000003b0: 81aa 44bf 2f10 bfbe 61b5 2abf b457 aa3f
000003c0: d121 a8bd 825c 9dbd 4a07 633e 8c3f c8be
000003d0: 2b8e f1bd b467 583e 0aca 813f 394b 8c3f
000003e0: e143 0bbd e0d9 453f 5238 253d d6a0 42bc
000003f0: f7cd b1be d1ba 8cbe 3139 9dbe 9bf6 6d3e

fc3.bias f4 [4]
-0.33962157 -0.15352724 0.03692985 -0.015080185
00000000: e1e2 adbe 3f36 1dbe c143 173d e112 77bc

fc1.weight f4 [256, 8]
-0.941529 0.7726365 0.6390963 -0.33181876 -0.98217016 -0.95362085 -0.39311513 -0.553959
0.24701034 0.5269631 -0.40025017 -0.18304835 -0.7788307 1.2891467 0.09410816 -0.3374255
0.62262917 0.2132345 0.18999729 -0.091300555 0.32213393 -0.45507857 0.28397164 0.5546825
-0.22419716 1.2033496 0.76042324 0.042665705 -0.84303343 -1.9789566 0.4886611 0.23809867
-0.2894108 -1.1744201 -0.47624487 -0.13253304 1.1980435 0.31462958 0.6017844 -1.4869426
-0.73976433 -0.125474 -1.1165727 -0.86472625 0.7544354 -0.04125312 0.10484825 0.47186735
-0.20144856 0.794137 -0.31141287 1.1904566 0.44401357 -1.7167813 -1.8100549 -0.0699685
-0.0650979 -1.550999 -1.0511274 0.38802996 -0.9594556 0.21602483 0.28439638 -0.364407
-0.9167637 -1.8605005 -1.1665049 -0.4919219 0.35069993 -0.111691885 0.089001626 -0.35091138
1.3370101 -0.8356291 -0.36421514 0.109540656 -1.3808793 -0.7484306 0.35207358 0.10812365
-1.4537412 -0.16441707 -1.1555865 1.1417296 0.20813113 -0.4837928 0.3556395 0.73428947
0.86734235 0.415276 -0.057664942 0.7409728 0.92900383 -0.1167393 -0.20124762 -1.2483747
-0.75603527 0.43362105 0.88201106 0.4948649 -0.6402931 0.52247894 1.4240484 -1.4904141
0.17021154 -1.007075 -0.29671797 -0.6549444 -0.16139184 0.47563022 -0.8783898 -0.46033004
-0.28236112 0.5976544 -1.0682365 0.70499414 1.1737604 1.1309141 0.83646876 0.0758872
0.4532484 0.5490935 1.3088665 0.6456645 1.489059 -1.1285784 -0.94790787 -0.24949008
-0.58862036 -0.047173005 -1.4239295 0.15753126 0.92837554 -0.11191423 0.03585234 0.55978286
0.06998959 -2.0060391 0.07609101 -0.6124973 0.27142328 -0.90720576 -1.2722311 1.1000639
-1.3535852 -0.74161863 -0.081502154 -0.70109206 0.09184522 1.0795441 -0.11710742 -0.5337221
0.20293027 -1.4321337 0.30489925 -0.88020265 -1.1620508 -1.2512033 0.17112547 -0.056963548
0.9390932 -0.20086439 0.30551642 0.40812945 -0.14451833 -0.042193446 0.47019115 -1.1100498
0.43843514 -2.1712215 -0.24008483 -0.1925183 0.4767354 -0.074349545 -0.1846127 0.7201385
1.9261093 0.6674563 -0.105020344 -0.006479832 -0.6437542 0.5012145 -1.0066352 -0.25211743
-0.004161388 0.03647197 0.035076186 -0.021245962 -1.4871767 0.40580347 0.6025929 1.9137979
0.2256223 -0.23778743 -0.33710343 -0.82138413 -0.23119523 0.25131232 0.36895025 0.42371932
-0.8342395 -0.7795602 0.17399488 -0.005623685 -0.5723543 0.3558172 0.57977706 0.65577006
0.7087807 -0.7833646 -0.112174675 0.7572599 0.34651402 -0.69670117 1.2570598 0.49206802
0.3348992 0.6710704 0.0816727 -0.7388057 0.36744094 0.08976065 -0.8273923 -0.7954258
-0.9979399 -0.011926157 -1.132195 -0.22402534 0.33756807 0.5884277 -1.1204401 0.30887878
0.37032408 -1.6321682 -0.6963489 -0.68603754 -0.6201049 0.534555 0.009786376 -1.0587201
0.018250816 -1.0455642 -0.109701626 -0.29668817 -0.10099496 1.1506944 0.40856653 0.7114137
-0.6250542 0.60177785 -0.19468321 0.10337811 0.26066765 0.79733217 -0.032880697 -0.08885421
00000000: 0b08 71bf 81cb 453f d19b 233f 26e4 a9be
00000010: 816f 7bbf 7f20 74bf 6346 c9be 42d0 0dbf
00000020: 47f0 7c3e 0ee7 063f 97ed ccbe 0771 3bbe
00000030: 7361 47bf c202 a53f c7bb c03d 09c3 acbe
00000040: a064 1f3f 255a 5a3e a68e 423e c9fb babd
00000050: bdee a43e 0f00 e9be bb64 913e acff 0d3f
00000060: f193 65be 5c07 9a3f 19ab 423f 3cc2 2e3d
00000070: 0ad1 57bf 734e fdbf ca31 fa3e 23d0 733e
00000080: a72d 94be 6653 96bf 5ed6 f3be beb6 07be
00000090: 7d59 993f 2117 a13e 8b0e 1a3f 2354 bebf
000000a0: 3261 3dbf 427c 00be dbeb 8ebf b35e 5dbf
000000b0: ae22 413f 08f9 28bd aeba d63d 9998 f13e
000000c0: 8848 4ebe 904c 4b3f 8271 9fbe e260 983f
000000d0: bf55 e33e 7dbf dbbf e1af e7bf a54b 8fbd
000000e0: 0c52 85bd 2387 c6bf 588b 86bf ddab c63e
000000f0: e29e 75bf 9d35 5d3e 679c 913e 8e93 babe
00000100: 07b1 6abf e124 eebf 0850 95bf 30dd fbbe
00000110: f18e b33e b7be e4bd 7c46 b63d a8aa b3be
00000120: 2623 ab3f caeb 55bf 687a babe da56 e03d
00000130: a7c0 b0bf 2699 3fbf fd42 b43e ef6f dd3d
00000140: 3114 babf f35c 28be 42ea 93bf 3224 923f
00000150: 5420 553e b1b3 f7be 6116 b63e 65fa 3b3f
00000160: 260a 5e3f 0e9f d43e 1332 6cbd 65b0 3d3f
00000170: 32d3 6d3f 0415 efbd db13 4ebe beca 9fbf
00000180: 878b 41bf 9403 de3e 7acb 613f ef5e fd3e
00000190: 40ea 23bf 2ec1 053f 3847 b63f e4c5 bebf
000001a0: ef4b 2e3e d5e7 80bf 6beb 97be 70aa 27bf
000001b0: e743 25be ce85 f33e 27de 60bf 61b0 ebbe
000001c0: a391 90be e1ff 183f f9bb 88bf 7f7a 343f
000001d0: c83d 963f cbc1 903f d122 563f c06a 9b3d
000001e0: 2d10 e83e 6491 0c3f f088 a73f 454a 253f
000001f0: 7c99 be3f 4275 90bf 17aa 72bf 547a 7fbe
00000200: d3af 16bf 7b38 41bd 5243 b6bf e04f 213e
00000210: 05aa 6d3f 4a33 e5bd e7d9 123d ee4d 0f3f
00000220: b456 8f3d f262 00c0 9ad5 9b3d a0cc 1cbf
00000230: fef7 8a3e a33e 68bf 78d8 a2bf e5ce 8c3f
00000240: 4842 adbf b8da 3dbf 9aea a6bd c57a 33bf
00000250: 5919 bc3d 802e 8a3f 04d6 efbd 03a2 08bf
00000260: f4cc 4f3e 2850 b7bf c11b 9c3e f654 61bf
00000270: 15be 94bf 6e27 a0bf 843b 2f3e 9c52 69bd
00000280: 6968 703f 65af 4dbe a66c 9c3e 58f6 d03e
00000290: 9dfc 13be 09d3 2cbd e5bc f03e 1d16 8ebf
000002a0: 927a e03e 4bf5 0ac0 ccd8 75be 8423 45be
000002b0: aa16 f43e 9344 98bd 1d0b 3dbe ff5a 383f
000002c0: c08a f63f 6bde 2a3f e814 d7bd c554 d4bb
000002d0: 13cd 24bf 984f 003f 6cd9 80bf 8915 81be
000002e0: 415c 88bb a263 153d 0cac 0f3d 030c aebc
000002f0: ce5b bebf 79c5 cf3e 8743 1a3f 54f7 f43f
00000300: 8809 673e 8c7e 73be d298 acbe 3b46 52bf
00000310: 71be 6cbe 02ac 803e 0ce7 bc3e bdf1 d83e
00000320: b890 55bf 4291 47bf b72b 323e e446 b8bb
00000330: d085 12bf ac2d b63e 456c 143f 8ce0 273f
00000340: a772 353f 958a 48bf d6bb e5bd c9db 413f
00000350: 496a b13e 025b 32bf 56e7 a03f 57f0 fb3e
00000360: e877 ab3e 45cb 2b3f 0444 a73d 5f22 3dbf
00000370: 3821 bc3e 6fd4 b73d fbcf 53bf 06a1 4bbf
00000380: fd78 7fbf ee65 43bc c4eb 90bf e666 65be
00000390: b9d5 ac3e 33a3 163f 956a 8fbf 5c25 9e3e
000003a0: 1e9b bd3e e3ea d0bf ec43 32bf 28a0 2fbf
000003b0: 32bf 1ebf 99d8 083f 0957 203c 2484 87bf
000003c0: bc82 953c 0cd5 85bf 3fab e0bd 83e7 97be
000003d0: 72d6 cebd f449 933f a22f d13e 351f 363f
000003e0: 8d03 20bf 1d0e 1a3f 095b 47be e7b7 d33d
000003f0: 3b76 853e f61d 4c3f e9ad 06bd 32f9 b5bd

fc1.bias f4 [256]
-0.20081486 0.08087012 -0.30068657 0.24532142 0.26550233 0.08924098 0.6085096 0.2637439
0.14191419 0.038975958 -0.031982265 -0.2501092 -0.26054263 -0.22914924 0.020415409 0.041949816
-0.10981837 0.23564348 0.114531204 0.18367301 0.29025114 0.30531156 0.19565013 -0.022944102
-0.22597347 0.07752531 0.36915675 0.022259051 0.0766844 0.19579045 0.08255368 -0.13473384
0.19259466 -0.07920262 0.119982414 -0.030662727 0.10157094 -0.3072626 0.3120172 0.23630193
0.06809287 0.091148585 -0.18699019 -0.45827955 0.0005118715 0.21345246 -0.006319132 -0.2430985
-0.21823673 0.4575835 0.24179113 0.22458556 0.40026158 0.35260642 -0.31074148 -0.24113911
-0.010954491 0.4725219 -0.011481149 -0.20034705 -0.077135004 0.07144463 0.445976 0.1482158
0.05430947 -0.32716125 0.12902321 -0.024438076 0.2707873 0.3649172 0.20116135 -0.20787288
-0.3829928 0.21660025 0.07005138 0.16759247 0.055688802 -0.10484076 -0.47690406 0.0074471557
-0.019132296 0.14488004 -0.0028335715 -0.21846835 0.4063667 0.06570659 -0.027656117 0.15902022
-0.3826954 -0.2692057 -0.011171082 0.050418667 0.24494806 -0.04471026 0.25922918 0.3852931
-0.12631305 0.258751 -0.0059005255 0.22450072 0.22048035 -0.10159847 -0.3524228 -0.39673075
-0.030314557 0.38974443 0.01932205 -0.24822465 0.04298939 0.31844458 -0.22802672 0.34533152
0.22727312 0.098416865 0.128052 0.40891683 0.301035 0.09179561 -0.254042 -0.018805029
0.06547415 0.10949849 -0.47177815 -0.30665305 0.5130578 -0.1890671 -0.5422076 0.066484116
0.37665534 -0.042849187 0.044246983 -0.37298533 0.098150976 0.17685574 -0.11221981 -0.18197131
0.063852064 -0.07405006 -0.005875276 -0.85769194 -0.044886205 0.27858666 0.0754229 -0.13997261
0.033900175 0.24348667 0.4970835 0.35286403 0.011424845 -0.12576215 -0.066043355 -0.16356026
0.18861091 0.18340605 -0.24752188 0.371175 0.1288775 0.12611355 -0.3720461 0.09204361
-0.107423164 -0.06995622 0.14928918 0.27991024 -0.26722324 0.39639848 0.29699445 0.3258084
0.14224143 -0.034919214 -0.038815495 0.049843505 0.3399758 -0.19391833 -0.27652964 0.021414923
0.37711564 0.37182096 -0.13863672 -0.014033868 -0.18659116 0.29349962 -0.2269291 0.66223675
0.06362522 -0.27064335 0.15883602 0.0421112 -0.31657228 0.09478917 -0.014203519 0.41923678
-0.25211084 0.0088985 0.20978393 0.15956265 0.02438316 0.047598127 0.23902003 0.36799258
0.015172969 -0.33222616 0.2386237 0.2192365 0.48065075 0.10914447 0.092968136 0.07967047
-0.42187515 0.029784366 -0.25101444 0.26155096 0.06425011 0.5927434 0.18344797 0.035948604
-0.6867021 -0.48522952 0.037487883 0.6016332 0.15016352 0.2312655 -0.051919986 -0.1728447
-0.058486708 -0.1123144 -0.07577408 0.3527745 0.05303279 -0.084762275 -0.094014 0.2404195
-0.432632 -0.13674286 -0.045164157 -0.068148315 -0.08849288 0.4339432 0.3999227 -0.26711446
0.23318382 0.27234355 -0.25804928 0.1477139 0.555525 -0.058297075 0.1347486 -0.23257974
0.17129433 0.023746235 0.026991382 -0.12926905 -0.012761189 0.03139998 0.14692178 0.106169365
00000000: 69a2 4dbe 3c9f a53d 97f3 99be 8a35 7b3e
00000010: ecef 873e fac3 b63d 49c7 1b3f 7109 873e
00000020: f451 113e 41a5 1f3d d6ff 02bd 500e 80be
00000030: d865 85be 19a6 6abe 373e a73c 92d3 2b3d
00000040: 74e8 e0bd 864c 713e 568f ea3d c714 3c3e
00000050: cc9b 943e cc51 9c3e 8258 483e 45f5 bbbc
00000060: 9765 67be 97c5 9e3d 1d02 bd3e 9d58 b63c
00000070: b60c 9d3d 4b7d 483e e711 a93d abf7 09be
00000080: 8937 453e fc34 a2bd 57b9 f53d 6630 fbbc
00000090: 6d04 d03d 8651 9dbe b8c0 9f3e 22f9 713e
000000a0: 4674 8b3d 1cac ba3d 5b7a 3fbe 9ea3 eabe
000000b0: 1d2f 063a 4893 5a3e b910 cfbb d0ee 78be
000000c0: 7379 5fbe 6248 ea3e 1898 773e c2f9 653e
000000d0: 16ef cc3e d488 b43e 8219 9fbe 2ced 76be
000000e0: 777a 33bc 64ee f13e 6e1b 3cbc c727 4dbe
000000f0: f5f8 9dbd 9051 923d f756 e43e e2c5 173e
00000100: 9b73 5e3d ae81 a7be a91e 043e 5c32 c8bc
00000110: a2a4 8a3e 6dd6 ba3e 3efd 4d3e a1dc 54be
00000120: a217 c4be 75cc 5d3e 1977 8f3d 5c9d 2b3e
00000130: f119 643d c1b6 d6bd c52c f4be 4507 f43b
00000140: 55bb 9cbc 6f5b 143e 71b3 39bb 2bb6 5fbe
00000150: 4c0f d03e 2d91 863d 158f e2bc 32d6 223e
00000160: a7f0 c3be 54d5 89be ea06 37bc ce83 4e3d
00000170: aad3 7a3e 1b22 37bd b0b9 843e 2345 c53e
00000180: 3558 01be 037b 843e 3259 c1bb 84e3 653e
00000190: 9ac5 613e dc12 d0bd c370 b4be 4b20 cbbe
000001a0: 3c56 f8bc 958c c73e 4749 9e3c 9a2e 7ebe
000001b0: a515 303d 2b0b a33e d67f 69be 4bcf b03e
000001c0: 49ba 683e c88e c93d 1020 033e 8c5d d13e
000001d0: 4221 9a3e 56ff bb3d cb11 82be 010d 9abc
000001e0: 5017 863d bf40 e03d e88c f1be a101 9dbe
000001f0: c257 033f ce9a 41be 1ece 0abf d328 883d
00000200: f8d8 c03e a182 2fbd 533c 353d eff7 bebe
00000210: 6103 c93d ac19 353e 80d3 e5bd b056 3abe
00000220: dfc4 823d 8fa7 97bd 6385 c0bb b391 5bbf
00000230: 99da 37bd e9a2 8e3e 5277 9a3d fb54 0fbe
00000240: e9da 0a3d 9254 793e ba81 fe3e 98aa b43e
00000250: 462f 3b3c cbc7 00be bd41 87bd 577c 27be
00000260: 3823 413e ccce 3b3e 6076 7dbe a60a be3e
00000270: 77f8 033e e923 013e d47c bebe 5c81 bc3d
00000280: ad00 dcbd 3545 8fbd 43df 183e 6550 8f3e
00000290: 7cd1 88be bef4 ca3e a80f 983e 5cd0 a63e
000002a0: bda7 113e 7307 0fbd fffc 1ebd b428 4c3d
000002b0: 4f11 ae3e 8792 46be 4b95 8dbe 596e af3c
000002c0: 4d15 c13e 515f be3e c9f6 0dbe 4fee 65bc
000002d0: c111 3fbe 9545 963e 1a60 68be 5988 293f
000002e0: f04d 823d c491 8abe e9a5 223e cb7c 2c3d
000002f0: c315 a2be d320 c23d e0b5 68bc 34a6 d63e
00000300: ac14 81be 04cb 113c 99d1 563e 6464 233e
00000310: 31bf c73c 41f6 423d abc1 743e 8669 bc3e
00000320: 0b98 783c 8c19 aabe c559 743e 887f 603e
00000330: db17 f63e 2387 df3d 1466 be3d 452a a33d
00000340: 0500 d8be 58fe f33c f784 80be 02ea 853e
00000350: 9095 833d 08be 173f c9d9 3b3e d83e 133d
00000360: b5cb 2fbf 0170 f8be e58c 193d a204 1a3f
00000370: 77c4 193e ddd0 6c3e 0daa 54bd 33fe 30be
00000380: c28f 6fbd 1805 e6bd 712f 9bbd dc9e b43e
00000390: e938 593d d897 adbd 698a c0bd 8830 763e
000003a0: f181 ddbe 5206 0cbe 0dfe 38bd 5891 8bbd
000003b0: c13b b5bd ce2d de3e abc2 cc3e 3ac3 88be
000003c0: bdc7 6e3e 9d70 8b3e 091f 84be 5042 173e
000003d0: e336 0e3f eac8 6ebd 89fb 093e 6229 6ebe
000003e0: c867 2f3e 7787 c23c 081d dd3c 1b5f 04be
000003f0: 4e14 51bc 449d 003d aa72 163e 536f d93d

fc2.weight f4 [128, 256]
-0.3181012 0.35143748 -0.13895138 -0.5557673 0.50059795 0.08359718 -0.9898519 -0.5963875
0.17230847 -0.8244071 0.0755018 -0.5773133 -0.13829294 -0.19006827 -0.30747092 -0.9494318
-0.11678335 -0.009804322 0.06541961 0.08396275 -0.38780096 0.0954955 0.36136836 -0.23829824
0.058685537 0.04088618 0.08719343 -0.18495706 0.18504591 -0.13552938 -0.003012703 -0.13450204
-0.23492788 0.017275874 0.01960598 0.25263217 0.08972522 0.05032956 -0.43704247 -0.13235177
0.53916025 0.16050316 -0.20481095 -0.14589061 -0.08960943 0.12786521 -0.6984399 -0.1090953
0.13355748 0.22046623 -0.7433049 0.120192215 -0.33115512 0.2003408 0.09287853 0.16028607
-0.22686867 -0.5561554 -0.21507591 0.30027136 -0.10359514 0.6944064 0.26853877 0.41201138
0.47550783 0.6762668 -0.038216054 -0.3335663 0.36292443 -0.364573 0.22963464 0.07348113
-0.2637347 0.9359722 -0.39219114 1.2194082 -0.06770175 0.26624975 0.19396597 -0.23033372
-0.028992089 -0.2456605 0.16960235 -0.33192953 0.17807557 -0.46864465 0.4548476 -0.05376478
0.0037459151 0.2640166 0.024699513 0.22799867 -0.2689655 0.14143561 0.21542744 -0.46586674
-0.043212123 0.24033663 0.16508186 -0.0969179 -0.66790485 0.12163705 0.07737544 0.230254
0.13830402 -0.030350946 0.075016215 0.16343744 -0.19168474 -0.05474024 0.25090325 -0.093034506
-0.21400155 0.02942028 -0.10301837 0.25259304 0.2700022 0.3530533 0.28219482 0.5927986
0.10915444 0.19177519 0.31801462 0.5467017 -0.01940874 -0.056756884 0.22856143 -0.008409712
-0.11603224 0.031328246 0.045248635 0.22412309 -0.69412404 0.70495385 0.29414397 -0.020999266
0.11079694 0.083614066 0.33283746 -0.059083037 0.061479 0.08542326 -0.52039695 0.13109273
0.00010186729 0.26874304 -0.16363598 0.28054565 0.4290945 0.06734516 0.03940477 -0.0063821827
0.415618 0.17295234 -0.3655849 0.035961132 -0.06877719 -0.15370862 -0.466694 0.30331653
0.34153605 0.19654593 0.034906194 0.25202668 0.28357273 -0.019343644 0.039463937 0.2142358
0.031572364 -0.023204934 -0.32392237 0.25791678 -0.32390225 0.058906697 -0.2901982 -0.05491954
-0.009058838 0.3399142 -0.1334685 0.22160578 -0.095696345 0.20032434 0.22632065 -0.3300832
0.51790607 0.34657067 -0.1388683 -0.29325977 0.03741533 -0.49428976 -0.26422474 -0.12500334
0.23869638 0.08982587 0.20384254 0.10080665 -0.027179703 0.41400734 0.09059162 -0.0013344748
0.27192965 0.07619061 0.036789607 0.187154 0.18824154 0.10284091 0.299517 -0.24982384
-0.23834576 -0.96328515 0.17861444 0.045679715 0.16010763 -0.45268452 0.84363586 -0.1382473
-0.3163763 0.14915262 0.19897534 0.06363792 0.13516131 -0.8693872 -0.013890062 -0.16578351
0.08012803 0.20477375 -0.46406153 -0.763374 -0.033648934 -0.033718515 0.31919456 0.12174506
-0.60091513 -0.063356616 -0.38016137 -0.087691806 -0.1188167 0.215049 0.24273638 0.10523305
-0.4004082 0.15807115 0.15851279 -0.008591443 -0.6107561 0.17932062 -0.12297242 -0.011054458
0.1082663 0.6516959 0.07241163 -0.5793774 -0.06140291 0.26766697 -0.03598505 -0.14953054
00000000: 29de a2be 9def b33e 4549 0ebe c446 0ebf
00000010: 3027 003f 0035 ab3d ef66 7dbf daac 18bf
00000020: a271 303e 580c 53bf b0a0 9a3d ceca 13bf
00000030: aa9c 0dbe 42a1 42be d46c 9dbe f60d 73bf
00000040: 1c2c efbd 4fa2 20bc b7fa 853d aaf4 ab3d
00000050: d98d c6be 2593 c33d 4605 b93e 7404 74be
00000060: 3f60 703d 4478 273d 7892 b23d 6265 3dbe
00000070: ad7c 3d3e 37c8 0abe c570 45bb e7ba 09be
00000080: ef90 70be 2286 8d3c b89c a03c 0159 813e
00000090: dbc1 b73d 5e26 4e3d 08c4 dfbe 3987 07be
000000a0: 6806 0a3f f15a 243e f6b9 51be 5964 15be
000000b0: 2685 b7bd 19ef 023e f5cc 32bf 5b6d dfbd
000000c0: 4bc3 083e e6c1 613e 3b49 3ebf 5627 f63d
000000d0: 2a8d a9be 2426 4d3e 1937 be3d 0822 243e
000000e0: 4350 68be 3360 0ebf dc3c 5cbe 2bbd 993e
000000f0: b029 d4bd 9ec4 313f ea7d 893e 28f3 d23e
00000100: c375 f33e d21f 2d3f 7088 1cbd 34c9 aabe
00000110: 3bd1 b93e 50a9 babe 5825 6b3e 467d 963d
00000120: 3c08 87be e09b 6f3f 47cd c8be 9115 9c3f
00000130: 37a7 8abd e351 883e 049f 463e 9adc 6bbe
00000140: d180 edbc 6d8e 7bbe 3dac 2d3e abf2 a9be
00000150: 7159 363e 31f2 efbe c9e1 e83e 7538 5cbd
00000160: 077e 753b 2f2d 873e a256 ca3c 7c78 693e
00000170: d9b5 89be 7fd4 103e 0399 5c3e 1686 eebe
00000180: 32ff 30bd ce1a 763e 380b 293e e47c c6bd
00000190: d0fb 2abf d81c f93d 0477 9e3d b4c7 6b3e
000001a0: 929f 0d3e 8ca2 f8bc 1aa2 993d 255c 273e
000001b0: 0149 44be 4d37 60bd 6476 803e e088 bebd
000001c0: 3923 5bbe cd02 f13c 4cfb d2bd e053 813e
000001d0: ba3d 8a3e 67c3 b43e d77b 903e a6c1 173f
000001e0: 5d8c df3d b760 443e d0d2 a23e a5f4 0b3f
000001f0: 14ff 9ebc e879 68bd 020c 6a3e e4c8 09bc
00000200: 50a2 edbd 0c52 003d a256 393d 8680 653e
00000210: 1db2 31bf db77 343f 0a9a 963e a706 acbc
00000220: 82e9 e23d da3d ab3d ac69 aa3e 0e01 72bd
00000230: 67d1 7b3d 64f2 ae3d bc38 05bf 2c3d 063e
00000240: 96a1 d538 b098 893e 3190 27be aea3 8f3e
00000250: 46b2 db3e 42ec 893d e566 213d a121 d1bb
00000260: e2cb d43e 6b1a 313e f22d bbbe fb4b 133d
00000270: 0edb 8cbd cb65 1dbe 84f2 eebe 4e4c 9b3e
00000280: d0dd ae3e 5643 493e ccf9 0e3d a409 813e
00000290: 7230 913e 9076 9ebc f0a4 213d a160 5b3e
000002a0: 0652 013d 4618 bebc 27d9 a5be ab0d 843e
000002b0: 84d6 a5be 2648 713d dc94 94be 50f3 60bd
000002c0: 856b 14bc 3c09 ae3e f7ab 08be a0ec 623e
000002d0: 72fc c3bd d321 4d3e 9ac0 673e aa00 a9be
000002e0: 7e95 043f b671 b13e 7e33 0ebe 2526 96be
000002f0: d140 193d 8c13 fdbe 7748 87be e000 00be
00000300: d36c 743e a0f6 b73d 19bc 503e b873 ce3d
00000310: f8a7 debc c5f8 d33e 1988 b93d 8be9 aeba
00000320: 5d3a 8b3e d309 9c3d b3b0 163d 4ca5 3f3e
00000330: 64c2 403e 419e d23d 4b5a 993e d2d1 7fbe
00000340: e910 74be db99 76bf b4e6 363e a71a 3b3d
00000350: 41f3 233e 44c6 e7be 85f8 573f b390 0dbe
00000360: 13fc a1be 77bb 183e 31c0 4b3e 9954 823d
00000370: ba67 0a3e 2990 5ebf 2593 63bc 27c3 29be
00000380: 2a1a a43d 36b0 513e 7999 edbe 7a6c 43bf
00000390: 77d3 09bd 6d1c 0abd 786d a33e 7955 f93d
000003a0: 93d5 19bf 1dc1 81bd 83a4 c2be c397 b3bd
000003b0: 2c56 f3bd ce35 5c3e e38f 783e 6d84 d73d
000003c0: 4e02 cdbe 67dd 213e 2d51 223e 20c3 0cbc
000003d0: 835a 1cbf d39f 373e f7d8 fbbd c21d 35bc
000003e0: b9ba dd3d 8bd5 263f 8c4c 943d 1452 14bf
000003f0: 9e81 7bbd a50b 893e 0f65 13bd 891e 19be

fc2.bias f4 [128]
0.14926769 0.06735815 0.06596221 0.14884792 0.19881399 -0.07825672 0.051378448 -0.20862876
0.08818509 0.24291778 -0.26890665 0.15100993 -0.3364316 -0.13961495 0.057890836 -0.2411116
0.14187829 0.2222631 -0.04407897 -0.03130897 0.22830716 0.08551449 0.092401676 0.36750728
0.20662192 0.21974416 -0.1326189 -0.023888677 -0.095625214 0.029208874 -0.1540604 0.24830712
-0.043611627 -0.2809957 0.13111722 0.050233267 -0.0082879225 0.26927596 -0.016704284 -0.18782274
-0.11456995 0.21737781 0.04831185 0.54158276 0.20012258 -0.1556056 0.15372221 -0.19566348
-0.22138979 0.23252867 0.04664586 0.52547777 -0.04072707 0.14261945 -0.08476031 -0.122916564
0.11830582 0.08405815 -0.047052175 0.07313896 0.11966548 0.17945543 0.10904829 -0.011030315
-0.036021866 0.14433798 0.20384753 -0.000776022 -0.020379528 0.5895308 0.062445175 -0.19367819
0.18904844 -0.25372538 -0.062119406 -0.2039971 0.009104827 0.015803728 -0.31850258 0.07960999
0.053704 0.057324395 -0.48760843 -0.6788412 0.08223535 0.13483536 0.09759168 0.1788952
0.23629995 0.038311623 0.22581376 -0.19039102 0.11853525 -0.033362698 -0.12252932 0.029838761
0.22720717 -0.05972452 -0.025681132 0.110917345 0.0368415 0.17896186 -0.1749219 -0.21983847
0.31651732 -0.19167928 0.06146157 0.17811012 -0.08654619 -0.02680705 -0.017735537 0.049379613
0.014218306 -0.015015453 -0.08472873 0.0803442 0.089710936 -0.12701677 0.06969547 -0.012352605
0.11096296 -0.5296823 -0.03284909 -0.037142195 0.03410852 0.06532011 0.20311485 0.17576233
00000000: a1d9 183e 12f3 893d 3217 873d 976b 183e
00000010: e595 4b3e 0f45 a0bd 3572 523d c7a2 55be
00000020: 629a b43d 70bf 783e 22ae 89be 59a2 1a3e
00000030: c340 acbe 39f7 0ebe f11e 6d3d f6e5 76be
00000040: 8b48 113e f098 633e 268c 34bd d63d 00bd
00000050: 5ac9 693e 3922 af3d 173d bd3d ea29 bc3e
00000060: b294 533e 9d04 613e 40cd 07be 30b2 c3bc
00000070: 27d7 c3bd 7347 ef3c 02c2 1dbe 3944 7e3e
00000080: 1ba2 32bd abde 8fbe 9843 063e 66c1 4d3d
00000090: 11ca 07bc 8ade 893e 6cd7 88bc 9b54 40be
000000a0: a6a3 eabd 4a98 5e3e a5e2 453d 2ba5 0a3f
000000b0: efec 4c3e 1357 1fbe 5b69 1d3e 025c 48be
000000c0: 01b4 62be ff1b 6e3e bb0f 3f3d b685 063f
000000d0: 6ed1 26bd d50a 123e d096 adbd aebb fbbd
000000e0: 524a f23d ae26 ac3d c8b9 40bd e1c9 953d
000000f0: 2d13 f53d 2ac3 373e b654 df3d 7fb8 34bc
00000100: aa8b 13bd 56cd 133e 68bd 503e f46d 4bba
00000110: f8f2 a6bc 7eeb 163f 83c6 7f3d 9353 46be
00000120: ea95 413e 4be8 81be eb70 7ebd 9ee4 50be
00000130: 6a2c 153c d276 813c c512 a3be 900a a33d
00000140: baf8 5b3d fccc 6a3d d0a7 f9be 89c8 2dbf
00000150: 026b a83d 4812 0a3e 26de c73d 4e30 373e
00000160: 9df8 713e a6ec 1c3d b93b 673e ddf5 42be
00000170: 9cc2 f23d 53a7 08bd a7f0 fabd 6b70 f43c
00000180: ffa8 683e b3a1 74bd 3d61 d2bc a228 e33d
00000190: 1de7 163d c741 373e ba1e 33be 561d 61be
000001a0: 8f0e a23e 9347 44be 21bf 7b3d 8062 363e
000001b0: 213f b1bd 759a dbbc 1e4a 91bc 4742 4a3d
000001c0: e6f3 683c 6003 76bc 4286 adbd 808b a43d
000001d0: 5eba b73d af10 02be 80bc 8e3d 9562 4abc
000001e0: 8c40 e33d 4299 07bf c48c 06bd 6a22 18bd
000001f0: 60b5 0b3d 8dc6 853d 57fd 4f3e 0afb 333e
