results/shared_dqn_blind/models/checkpoint_ep300.pth (torch, 580718 bytes, 24 tensors)

fc1.weight f4 [256, 8]
00000000: dfd8 39bf 27c4 373f 06a6 0d3f b2c7 81be
00000010: 0f56 87bf 987a 84bf 7876 ccbe 13db 22bf
00000020: 5654 4d3e 1f96 ea3e 3f65 bfbe 1174 1ebe
00000030: d99d 1ebf bc81 ac3f decb e83d 4ca2 8bbe
00000040: d460 083f bc1d 943e e2a3 883e a137 88bd
00000050: 126c 523e b975 f8be fffd b73e 16fc 283f
00000060: be1a 35be d0f1 9d3f fa96 453f a934 a33d
00000070: be3a 53bf 4b43 03c0 d1eb dd3e bd01 873e
00000080: 6481 53be 82e3 adbf a87e d8be 75be 2abe
00000090: b128 8b3f 0924 433e 5414 f73e 63e9 bbbf
000000a0: b212 32bf a95f 4dbe 5398 8bbf be00 6bbf
000000b0: a44c 2a3f 3dda 8ebd cd50 ab3d 5a2c f23e
000000c0: cfc3 70be 4ce6 3c3f c1c7 dcbe 9cc1 8c3f
000000d0: 4e24 253f bcc6 d6bf d440 d9bf eacf 8cbb
000000e0: 449f c8bb 4027 98bf 5aff 98bf fd8c c23e
000000f0: 0db5 5bbf f29d 853e 06a4 d43e d3db cdbe
00000100: ffaf 65bf 62f9 cfbf 90ec 94bf 7813 eabe
00000110: a260 793e c955 2fbe c100 0e3e 1e63 b8be
00000120: ec6e b63f 5543 5ebf a61d bdbe 86fd 373e
00000130: 6569 babf b946 3ebf 184d b53e c5f5 303d
00000140: f29e b1bf 0f9a 4ebd 9674 93bf 95ef 723f
00000150: 5c92 4f3e 6aa3 e5be 6d01 ae3e 402f 393f
00000160: ffc4 633f 01d3 be3e e175 38bd e798 503f
00000170: 244d 613f a507 3dbe 47de 0abe beca 9fbf
00000180: 6727 36bf 2f30 f33e 5380 603f 437a ec3e
00000190: eb40 24bf 9db8 be3e 13e7 ad3f daaa 9fbf
000001a0: d385 633e d0e1 95bf 3e7e 44be c65a 11bf
000001b0: 9037 73be d93c eb3e aeaf 64bf 3798 b4be
000001c0: de6b c7be 2571 0e3f cb7c 53bf fba3 3e3f
000001d0: fdfd ac3f d0b0 9f3f c455 573f 608b 883d
000001e0: 7aa6 cd3e 3c39 f83e ad2b a43f db78 2d3f
000001f0: e38f a73f 9f67 9bbf 62af 5cbf 4881 87be
00000200: 1628 2cbf 09e0 c8bd 93c2 a2bf a860 063e
00000210: 2cef 703f c22a 09be 69f6 2c3d d0bb 183f
00000220: 1f6f 403e b389 d4bf 463d 013e 28b5 0fbf
00000230: 964d 813e e077 6ebf 31fe 86bf 94f9 993f
00000240: d037 92bf ceeb 6ebf 857a 23be c8c5 2fbf
00000250: c059 943c 37b4 863f 9291 433d 9f4c 24bf
00000260: 7124 293e 1c10 e5bf be8c aa3e a57e 63bf
00000270: b40c 98bf d5bd 8dbf 99b3 7a3e bb60 9d3d
00000280: be2f 863f f06a 10be 4394 633e 35b3 de3e
00000290: ce39 0bbe d2e4 3bbe 49cb c33e ed34 83bf
000002a0: b2a8 b73e 7f62 d6bf ffc4 84be 1207 39be
000002b0: 0054 193f 6a55 bb3d 76b4 803c 50e4 5a3f
000002c0: 22b3 e03f 46ea 323f fe65 6bbe 7e22 953d
000002d0: b0cb 04bf cedf 013f 0f6f 94bf 7098 bcbd
000002e0: 9c05 d63d 251c 683d fa80 6dbd 2ef9 ba3d
000002f0: b642 a9bf 5ac2 003f ed15 323f f7d4 f93f
00000300: 582a 393e 52c6 72be 1cc7 cdbe 3228 22bf
00000310: 85c2 21bb eed7 b73e be9b e73e 279a e03e
00000320: 34d1 6abf 5eff 4abf 954a 4c3e 6a9a 13bc
00000330: 8737 09bf 4127 773e 7060 163f a71d 243f
00000340: ec69 333f 5fc3 26bf 6b44 84be 2586 323f
00000350: 5c29 a83e 8dc1 27bf 4f19 a43f c091 d93e
00000360: 4a7a 983e 550b 2d3f 61b4 073e 7a51 30bf
00000370: cdf9 8c3e 757e b23d 5ed2 4fbf 3d3d 42bf
00000380: b69d 7bbf 7d5b 4cbd 217c 90bf e173 7fbe
00000390: 8e47 ee3e c36d eb3e 5a2d 8abf 4ffb 013f
000003a0: 0abe 4b3e 817b c9bf 8626 4ebf 6865 00bf
000003b0: f158 05bf 00b0 073f 3623 c4bd 6c17 72bf
000003c0: b7de e93c 2989 69bf 8728 83bd 1693 0abe
000003d0: 91f0 fd3c 2e67 a83f aef4 ee3e 0558 3a3f
000003e0: cbfd e7be b446 053f 5fd0 05be 40e2 de3d
000003f0: 613f 8d3e 2eab 3d3f 27d9 753d c815 0bbe
-0.72596544 0.7178368 0.55331457 -0.25347668 -1.0573138 -1.0349913 -0.39934134 -0.6361553
0.20051703 0.45817658 -0.37381932 -0.15473963 -0.61959606 1.3477092 0.113670096 -0.2727226
0.5327275 0.28928936 0.26687533 -0.06651235 0.20549038 -0.48527315 0.3593597 0.6600965
-0.17685983 1.233942 0.77183497 0.079690285 -0.8251151 -2.0509822 0.43343976 0.26368514
-0.20654827 -1.3585055 -0.4228413 -0.16674216 1.0871793 0.19056715 0.48257697 -1.4680599
-0.69559777 -0.20056023 -1.0905861 -0.9179801 0.66523194 -0.069752194 0.08365021 0.47299463
-0.23512195 0.73788905 -0.4312115 1.0996585 0.6450852 -1.6779399 -1.6972909 -0.004297246
-0.0061225016 -1.1886978 -1.1952927 0.3799819 -0.85823137 0.26097065 0.4153139 -0.40206775
-0.89721674 -1.624798 -1.1634693 -0.45717978 0.24353269 -0.17122568 0.13867475 -0.3601312
1.4252601 -0.8682149 -0.36936682 0.17967805 -1.4563414 -0.74326664 0.3541038 0.043203134
-1.3876631 -0.05043989 -1.1519954 0.94896823 0.20270675 -0.44851238 0.33985463 0.7233772
0.8897247 0.37270358 -0.045034293 0.8148331 0.8800833 -0.18459947 -0.13561355 -1.2483747
-0.71153873 0.474977 0.8769581 0.46187028 -0.64161557 0.37250224 1.3586143 -1.2474015
0.22219019 -1.1709538 -0.19188783 -0.56779134 -0.23751664 0.4594486 -0.89330566 -0.3527238
-0.38949484 0.55641395 -0.82612294 0.74468964 1.3515011 1.2475834 0.8411524 0.06667209
0.40166074 0.48481166 1.2825829 0.67762536 1.3090786 -1.2140998 -0.8620511 -0.2646582
-0.67248666 -0.09808356 -1.2715629 0.13122809 0.9411495 -0.13395217 0.042227183 0.5966158
0.1879239 -1.6604522 0.1262103 -0.561358 0.25254506 -0.93151665 -1.0546323 1.202929
-1.1423283 -0.9332856 -0.15964706 -0.68661165 0.018109202 1.0523747 0.04774625 -0.64179415
0.16517808 -1.7895541 0.33310503 -0.8886512 -1.1878877 -1.1073557 0.24482574 0.076844655
1.048332 -0.14103293 0.22224526 0.434961 -0.1359627 -0.18349007 0.38241032 -1.0250527
0.35870892 -1.6748809 -0.25931546 -0.18069103 0.598938 0.09147151 0.01571105 0.8550463
1.7554667 0.6988872 -0.22988126 0.072819695 -0.518733 0.50732124 -1.1596392 -0.09208763
0.10450289 0.056667466 -0.05798433 0.091295585 -1.3223484 0.50296557 0.69564706 1.9518117
0.18082559 -0.23708466 -0.4019097 -0.63342583 -0.0024682593 0.3590693 0.4523601 0.4386761
-0.9172547 -0.7929591 0.19950326 -0.009008983 -0.53600353 0.24136068 0.587409 0.64107746
0.700835 -0.6514186 -0.2583345 0.6973594 0.32844055 -0.6552971 1.2820224 0.4249401
0.297808 0.67595416 0.13252403 -0.68874323 0.27534333 0.08715526 -0.8118037 -0.7587469
-0.9828752 -0.049891938 -1.1287881 -0.24946548 0.46538967 0.4598218 -1.079509 0.5077409
0.19896713 -1.5740815 -0.8052753 -0.50154734 -0.5208884 0.5300293 -0.095770285 -0.9456699
0.028548582 -0.91224915 -0.06404214 -0.13532671 0.0309985 1.3156488 0.4667105 0.7279056
-0.45310816 0.5206101 -0.13067769 0.108829975 0.27587417 0.74089324 0.060021546 -0.13582528

fc1.bias f4 [256]
00000000: 2045 32be 991c c43d 9394 14be 1045 4e3e
00000010: fe03 9e3e b494 263d 6ff9 f13e 39ac 983d
00000020: c68e f93d 0b28 253d 8ef5 1abd b80b 34be
00000030: 97f5 5abe c65f 16be b059 9abb ae9a ce3d
00000040: 4f26 71bd 03da 6c3e 7cd8 dd3d e6b5 223e
00000050: d0d9 4c3e ab7f 9d3e b0b3 313e 253f 1abd
00000060: 07e2 47be 60a1 b33d 484d 8b3e c7bb a63d
00000070: 1960 8e3d 1d69 c03d 71ff 293e 6102 a8bd
00000080: 803f 153e d18c 7dbd ca10 143e dee5 5bbb
00000090: ff2d 953d 4f93 27be 6687 7f3e 78e9 7e3e
000000a0: 8d45 293d ab87 053e 7dc0 eabd 55a1 adbe
000000b0: 6da0 babc cee4 513e 2759 34bb b077 41be
000000c0: 694b e2bd a470 c83e 66cc 293e a1c6 743e
000000d0: f953 e33e 910c a23e 43c3 6dbe 3864 f1bd
000000e0: 01c6 d4bb 2c24 c63e 8c4c 713c 6126 d4bd
000000f0: 8d37 b0bd 3e4b 023e 82f5 bf3e 8426 3a3e
00000100: df26 2a3d 46f4 84be 67b2 b63d 9962 e3bc
00000110: 4391 813e 5725 893e 02c6 423e 7fa9 46be
00000120: d641 b2be f9b4 693e d5bc 3d3d cc2c 123e
00000130: bef1 5b3d 0463 14be e1aa b8be 6ce9 383d
00000140: dcb0 83bd 6843 c53d fd7c 253d 1bbd 69be
00000150: ab61 bc3e 4e81 a8bc f21f 323d 2691 4b3e
00000160: f79f 8fbe 7d3c f8bd 0220 6f3d bcd0 e13d
00000170: 0401 343e 3b54 c93c 854d 5c3e e477 b63e
00000180: 4eca 6fbd b6e0 4b3e 7f3a 7c3d 44a2 6a3e
00000190: f055 403e 955b 0fbd ecf0 4abe 7787 80be
000001a0: b0cc 993b da12 b23e f98b ad3c 5ef7 22be
000001b0: c2fe 1e3d 5f22 613e 96bd d5bd d073 8c3e
000001c0: 1913 943e 399d 1b3e fabf 373e ef7d d33e
000001d0: 201b 5f3e d346 2a3e f5b6 13be b3f2 dfbc
000001e0: 0516 f63d c0b0 013e b4cb a1be ce8c 66be
000001f0: bd54 d53e a597 b4bd dc6f e6be d557 5c3d
00000200: 894b b03e fbb5 fbbc d7dc d33d 601f 57be
00000210: 9076 633d 6eb1 093e a7b6 b8bd 234f dbbd
00000220: f571 4e3d 0c9e 9fbd 57d2 c03d 540f 2ebf
00000230: 5b88 6bbd 3997 d33e ef0f e83d 52ca ddbb
00000240: a394 4b3d 09df 523e a247 e13e 93a3 9b3e
00000250: 184c 3e3d 46e3 0ebe dae0 fe3c 6bba 1abe
00000260: 3490 5e3e 1ce1 553e 7ddf 86be 71d6 d43e
00000270: 0f7e d83d 647b ee3d 2498 c1be 789f 983d
00000280: 0956 acbd f872 d43c 4a05 453e b4d5 a33e
00000290: bd1f 36be 1e2c c03e 3bd0 1c3e 62aa 7e3e
000002a0: 8a46 853e 0467 e1bd fd58 10bd 56b5 0c3d
000002b0: 20b3 853e 486e 96bd f003 30be dd18 573d
000002c0: 47f7 c93e da84 a53e 8a50 05be 1353 0bbd
000002d0: 8d4a ecbd 1172 483e 2432 38be 795f 113f
000002e0: 3755 af3d c912 30be 4321 2b3e 336b 343e
000002f0: e145 43be 4078 253d 9585 70bd ad38 8d3e
00000300: f061 fcbd a482 7f3d a6c5 843d 40e4 8c3d
00000310: eef0 d73d eb09 ad3d c0b3 633e 18ee b83e
00000320: 2c07 f83c 30cd a5be a5ca 723e 6f91 513e
00000330: c96f d13e 5dd9 e63b be58 403d c21c 323d
00000340: 5d16 91be a246 7bbd 6142 43be 03d4 9d3e
00000350: 4efe a7bc 28d8 083f e0c6 1b3e 5882 173d
00000360: 45fa 2cbf 1978 a3be 036e a63d 13f2 073f
00000370: d8ab 2c3e 77ec 263e d0e5 153c da72 48be
00000380: ac79 db3b 4a9b f7bd 8dcb d6bd e40d ac3e
00000390: 5ee7 253d 400e c7bd 7bd3 08bd cde0 663e
000003a0: f0cb c8be eba1 e4bc 3c21 b1bc 637a 94bc
000003b0: f9da 273d 9d19 b53e e8f2 be3e 70a6 64be
000003c0: b48e 513e fc2f 983e 9ff7 50be 9cb5 1e3e
000003d0: 55de d03e 378e 06bd ead2 ab3d 52e8 4abe
000003e0: 9bd3 f13d a9b0 373a 75df 0d3d 645c debd
000003f0: 5a53 1f3c 23af ae3c a853 2c3e bea9 f83c
-0.17409182 0.09575767 -0.14509802 0.20143533 0.3086242 0.040669158 0.47260615 0.07454724
0.12185435 0.04032139 -0.037831835 -0.17582595 -0.21382748 -0.14684972 -0.0047103986 0.100880966
-0.058874425 0.2313004 0.10832307 0.15889701 0.20004964 0.30761465 0.17353702 -0.037657876
-0.19519816 0.08771014 0.27207398 0.081412844 0.06951923 0.09395049 0.1660135 -0.08203579
0.14575005 -0.06190187 0.1445953 -0.003355376 0.07284164 -0.16364788 0.24953994 0.24893749
0.041326094 0.13040034 -0.114624955 -0.3391215 -0.022781575 0.20497438 -0.002751896 -0.18893313
-0.110495396 0.39148438 0.16581878 0.23903896 0.44400004 0.31650212 -0.23219018 -0.11786693
-0.0064933305 0.38699472 0.014727723 -0.10358883 -0.086043455 0.12724015 0.37491995 0.18178755
0.041540977 -0.25967616 0.08920746 -0.027756976 0.25306138 0.267863 0.19020846 -0.19400595
-0.34815854 0.22822942 0.046322662 0.14274901 0.05369734 -0.14490896 -0.3606787 0.045144483
-0.064302176 0.09631997 0.0404024 -0.22826044 0.36793265 -0.02056947 0.043487497 0.19879588
-0.2805173 -0.12120912 0.058380134 0.11026141 0.17578512 0.024576297 0.21513946 0.35638344
-0.058542542 0.19909939 0.061579224 0.22913462 0.18782783 -0.03499945 -0.19818467 -0.2510335
0.00469359 0.34780008 0.021184908 -0.15914676 0.038817175 0.21985768 -0.10436551 0.27432108
0.2892082 0.15196694 0.17944327 0.41307017 0.21787691 0.1662858 -0.14425261 -0.027337408
0.12015919 0.12665081 -0.31600726 -0.2251465 0.41666213 -0.088179864 -0.45007217 0.0537947
0.3443263 -0.030726423 0.10344856 -0.21008062 0.055532992 0.1344659 -0.09019213 -0.107084535
0.050401647 -0.07793817 0.09415119 -0.6799214 -0.057503086 0.4132631 0.11331164 -0.006768503
0.049702298 0.20592894 0.43999964 0.30398235 0.046459287 -0.13953885 0.031113077 -0.15110175
0.21734697 0.20886654 -0.26342383 0.41569856 0.10570919 0.11644629 -0.37811387 0.07452291
-0.084148474 0.025933728 0.19240299 0.3199898 -0.17785545 0.3753366 0.15313809 0.24869683
0.2603038 -0.11005977 -0.035241116 0.034352623 0.26113224 -0.07345253 -0.17189002 0.052513946
0.3944647 0.3232792 -0.13019004 -0.034014773 -0.11537657 0.19574763 -0.17987877 0.56786305
0.08561175 -0.17194666 0.16711907 0.17619018 -0.19069625 0.040397882 -0.058721144 0.27582303
-0.123233676 0.062380448 0.06483011 0.06879473 0.105440006 0.08449157 0.22236538 0.3611915
0.030276857 -0.32383108 0.23710115 0.20465635 0.40905598 0.0070449547 0.04695963 0.043484457
-0.28337374 -0.061346658 -0.1906829 0.30825815 -0.020507004 0.5345483 0.15212584 0.03698954
-0.6756938 -0.31927565 0.08126452 0.5310375 0.16862428 0.16301142 0.00914903 -0.19575062
0.006697854 -0.12090166 -0.10488043 0.33604348 0.040503852 -0.09719515 -0.03340481 0.22546692
-0.39218092 -0.02790924 -0.021622293 -0.018124765 0.040980313 0.35371104 0.37294698 -0.22329116
0.20464593 0.2972411 -0.2040696 0.15498966 0.40794626 -0.03285047 0.08389838 -0.19815186
0.11807939 0.00070072204 0.034636933 -0.10857466 0.009724462 0.021323746 0.16828787 0.030354377

fc2.weight f4 [128, 256]
00000000: 506d a3be 7d4e 833e 2efd 3abe c9a6 22bf
00000010: 7f8e d03e 8eee b23d 4542 4dbf 932c 04bf
00000020: d51f ef3d 9b51 66bf 7c3a a63a 6301 25bf
00000030: 5eb9 dabd 0d94 d3bd 9cdd 98be bf9c 8cbf
00000040: 5e71 a7bd b0c5 5f3d d18a aebc e1d1 a73c
00000050: 4760 d5be 41ad 293e e398 683e 44db 38be
00000060: e687 913d 4c5f 9a3c 00e1 693e e83b 81be
00000070: d5ac 143e 6816 babd 1acc 603d 0587 61be
00000080: f9b1 0ebe fc3f 273e 19da dcbc 8968 183e
00000090: 91de c53d cc74 e33d 02c3 97be 0e19 67be
000000a0: c8aa d73e 2155 ef3d 7bdf 77be 4d20 a8bd
000000b0: 6fa8 a9bc 24da 803d 2cca 45bf 83cf 2cbe
000000c0: 8772 ce3d 8dbc 9d3e 2a86 0cbf b60b 0a3d
000000d0: 58d2 c8be 670f 8e3e 838b 8b3d 9857 173e
000000e0: 8da8 4abe ae3d 1abf 6fc0 85be 403f a33e
000000f0: bc02 3cbe 328b f93e 1692 7d3e 5099 c33e
00000100: 0bd1 b83e 9fee 3b3f 45cc 4dbc 11a4 90be
00000110: 1d9e 873e 3e04 82be 5040 803e 57bb 553d
00000120: 97a6 30be ea86 513f 3369 e3be 7992 843f
00000130: ed5d 9dbd b2e2 973e a996 bb3d 8647 82be
00000140: 0c76 26bb 6a84 8bbe b970 253e f7b6 a4be
00000150: 8efc 8a3e bb18 b0be 3854 a83e ee30 6a3c
00000160: 5f21 a43c bc63 873e 0650 c23c 33fa 7c3e
00000170: 86aa 8dbe f509 b63d 71d9 2e3d 6383 1bbf
00000180: 8bfc b7bd 2da8 9f3e f5f7 263e 73af 8cbc
00000190: b1a4 06bf cc9d bf3d b5c5 aa3d 6320 053e
000001a0: b23b 013e a30c bd3d dbc1 cd3d 41ac 833d
000001b0: 1022 54be d937 5abe 25f7 923e 4981 c6bd
000001c0: 9609 0dbe 68f0 99bd c23a e0bd 6d6f 533e
000001d0: 778d 483e 7364 a63e 99a6 843e 4bce 033f
000001e0: d466 d63d 1596 093d 8969 503e 05d4 0f3f
000001f0: 50c9 203c 5ba0 92bc 76a8 2d3e 77de 89bd
00000200: f5b5 abbe cc2f d2bc b2c4 9e3d eb83 823e
00000210: 2f20 16bf 9b27 053f ae9d 733e f666 ccb7
00000220: e7ee b43d 375e 963d 9e29 af3e 8c3c 58be
00000230: 9c98 653e 419c 863c 8afe c8be d194 923d
00000240: 97a8 37bd d09d 3f3e fde4 93be a69d 2b3e
00000250: 2798 aa3e 9798 103e 971a 253e 39c8 1ebd
00000260: 371c bf3e 8e71 b93d d659 c5be 8b1b 1b3e
00000270: 6c2b 06be 8dfa 36be 03a2 fcbe 1d74 6e3e
00000280: 8bd7 2d3e deaf 6b3e f59d b03c c962 6d3e
00000290: 8f84 803e 07e5 91be 5c9c f7bc 676e 953e
000002a0: c5b5 9d3d ac89 0dbd 3038 c5be aa8e 9f3e
000002b0: 1187 37be 574a 283d 9dd4 97be bcd7 80bd
000002c0: 4002 2c3d d114 a83e ad12 c8be d03a d3bc
000002d0: 7cac fdbd 7202 103e 55cf 923e 7356 b0be
000002e0: 9e05 d03e d76a 8c3e 8f01 43be 2aae 91be
000002f0: 455a dbbc 7c1d e1be 0e89 b9be 1eef 443c
00000300: f22b 373e 2329 a23d 8685 c13d 518b ac3d
00000310: 0e50 013d d3b2 af3e 90bc 163d 4f4c 97bd
00000320: 8e9c 8c3e 1693 43be a0c7 6c3d cf54 133e
00000330: e95c 403e 72ae 3d3d 1810 693e 75dd 82be
00000340: 0fd7 8fbe 619d 48bf 8e7d be3d aa72 713d
00000350: 3ea5 fd3b df1a f8be 181d 2d3f 6c9e 0bbe
00000360: 814b 9cbe 4eec 663b b390 153e 9042 2a3e
00000370: 3ddb c13d 6fe0 3fbf 75bd f4bb 9f01 3cbe
00000380: d608 973d e001 643e 0f4c b2be 484a 17bf
00000390: f3b5 e0bc 504e 1f3b 78cd 423e 9b16 c23d
000003a0: 3f8f 22bf e117 fcbd 54f3 12bf 43cd 14be
000003b0: a5b8 26be b61b 0b3e d1de a53e 28ea 0cbc
000003c0: 7c21 a5be 1a30 af3d 858a 0f3d 46b9 273d
000003d0: fdaf 8cbe b26e d93d d036 acbd 13f8 79bd
000003e0: 51ee 70bb 5fa3 163f 8d53 9a3d fe30 d5be
000003f0: 9b74 9abc df0d 563e ec00 54be 3523 80bd
-0.31919336 0.2564582 -0.18260643 -0.63535744 0.40733716 0.08736907 -0.80179244 -0.51630515
0.11675993 -0.8996827 0.0012682225 -0.6445524 -0.10679887 -0.10330973 -0.29856575 -1.0985335
-0.0817592 0.05463189 -0.021306427 0.02048582 -0.41675016 0.16569997 0.22714572 -0.18052393
0.07105999 0.01884427 0.22839737 -0.25241017 0.14519055 -0.09086305 0.054882146 -0.22024162
-0.13935079 0.16333002 -0.026959466 0.14883627 0.09661592 0.111062616 -0.29640967 -0.22568151
0.42122483 0.11686159 -0.24206345 -0.08209286 -0.020710198 0.06291607 -0.77261615 -0.16876034
0.10080438 0.30807915 -0.5489222 0.033702575 -0.3922298 0.27746126 0.06813719 0.14779508
-0.1979086 -0.60250366 -0.26123378 0.31884193 -0.18360418 0.4873901 0.24762759 0.38202906
0.36096987 0.7341098 -0.012560909 -0.28250173 0.26487818 -0.25393862 0.25049067 0.052180614
-0.17251049 0.8184649 -0.44416198 1.03572 -0.076839305 0.29665142 0.091595955 -0.25445193
-0.0025399951 -0.2724946 0.16156282 -0.3217084 0.2714581 -0.34393868 0.32876754 0.014293892
0.020035444 0.2644328 0.023719799 0.24704818 -0.27669162 0.08888618 0.042687837 -0.60747355
-0.089837156 0.31182995 0.16305526 -0.017173504 -0.5259505 0.09356269 0.08338491 0.13000636
0.12620428 0.09230926 0.100467406 0.06429339 -0.20716119 -0.21310367 0.2870418 -0.09692628
-0.13773188 -0.07516557 -0.10948707 0.20647974 0.19585215 0.32498512 0.25908354 0.51486653
0.10468832 0.033590395 0.20352758 0.5618289 0.009813622 -0.01789873 0.16958794 -0.06731885
-0.3353726 -0.025657557 0.077523604 0.2549127 -0.5864286 0.5201356 0.23790619 -2.436664e-05
0.088346295 0.07342189 0.3421144 -0.21116847 0.22421497 0.01643193 -0.39256698 0.07157291
-0.044838514 0.18712544 -0.28885642 0.16759357 0.33319208 0.14120708 0.16123424 -0.038765166
0.37326214 0.09054862 -0.38545102 0.15147226 -0.13102502 -0.17869015 -0.49342355 0.23286481
0.16976754 0.23016307 0.021559695 0.23182215 0.25101134 -0.28495046 -0.030225925 0.29185793
0.077006854 -0.034555122 -0.3851943 0.31163532 -0.17922617 0.04108652 -0.296544 -0.06291148
0.041994333 0.32828382 -0.39076748 -0.02578488 -0.123864144 0.14063433 0.28673807 -0.34440956
0.40629286 0.27425262 -0.19043563 -0.2845319 -0.026776442 -0.43967807 -0.36237377 0.012019901
0.17887858 0.079180025 0.09449296 0.0842501 0.031570487 0.3431612 0.03680092 -0.073876016
0.27463192 -0.19099078 0.057807565 0.1438782 0.18785442 0.046308942 0.22760046 -0.25559583
-0.28093764 -0.7836514 0.093012914 0.058947243 0.0077406457 -0.48458 0.6762252 -0.13634652
-0.30526355 0.0035236063 0.1460598 0.16626954 0.094656445 -0.74951833 -0.007468874 -0.18359993
0.07374732 0.2226634 -0.34823653 -0.5909772 -0.02743051 0.0024308152 0.19023693 0.09476968
-0.63499826 -0.12309242 -0.5740254 -0.14531426 -0.16281374 0.1358479 0.32396558 -0.008600749
-0.3225211 0.085540965 0.035044212 0.040948175 -0.27478018 0.106168166 -0.08408892 -0.061027598
-0.0036763141 0.58843035 0.07535467 -0.4163894 -0.01885443 0.20903729 -0.20703477 -0.06256715

fc2.bias f4 [128]
00000000: 87dc bd3d 5514 7d3d 464f 4b3d e863 223e
00000010: b280 413e b55e 45bd a1a0 9a3d 1f89 0bbe
00000020: 8fb9 373d 1777 703e b03a acbe c302 1e3e
00000030: 12a5 b2be 5959 4abe 9e53 a5bb 4091 0dbe
00000040: cfd8 2e3e 423b 2e3e 8653 a2bc 1f21 8b3c
00000050: 3c50 3e3e 1519 ed3d 6910 a03d df3b 983e
00000060: c73d 153e e8de 513e 7921 debd 41ba 1c3d
00000070: f623 9abc fccc 57bd 8844 2bbe c4b9 3e3e
00000080: bc0e 03bd 318c 65be d31d fb3d d4ed e03d
00000090: 11ca 07bc b09e 803e 6cd7 88bc 7fbd 43bd
000000a0: 5682 21be acc0 6b3e 010f 813c 2175 fe3e
000000b0: 5c8c 343e 7696 69be 5d7b c13d 1c3e 0fbe
000000c0: f057 0abe bfc3 4f3e 5a7a c73d 4c44 0d3f
000000d0: 64f4 4a3c 3ac0 4b3e 0b76 9fbd 7b5a 0abe
000000e0: f76b 433e 494d c93d 4030 2d3b f1f1 d43d
000000f0: 4ac8 d33d 7fad 373e d0db 6d3e 7fb8 34bc
00000100: f65a 7fbd 127f 013e 21d2 063e f110 e33b
00000110: 5527 043c cb8b 123f 9d9c a53d 6a4f 3abe
00000120: 6c8a c03d 58d2 7dbe 108b dcbd 4055 63be
00000130: 90ad c9bc 4886 6a3c 3059 80be ce01 843d
00000140: a08f 8d3d d0de 923d 1771 bcbe 19f5 22bf
00000150: 5869 9e3d d8ef 8e3d 2081 f53d 1555 7f3e
00000160: e7cc 513e 9380 bc3d 921d 3b3e d9d4 02be
00000170: ecef 1b3e 53a7 08bd abda 81bb 12ba ec3c
00000180: 9fe3 503e cbed 6dbd 5902 b03c d830 c83d
00000190: 96fd ee3d 7b87 223e 6279 eabd 7afe 0abe
000001a0: 44fd 713e e811 1fbe 2e8d 6f3d 3e3a 213e
000001b0: 9243 0f3c 977d 973d ba54 ad3c 2e99 da3b
000001c0: ab6d 843d 6003 76bc 0c07 49bc 322f 0b3e
000001d0: d4c7 b63d 6a88 26bd d985 043e e9a0 afbd
000001e0: da7e af3d 38e7 c7be c48c 06bd 6a22 18bd
000001f0: 5a32 d33d c3d1 aa3d d747 6e3e 2c8f c73d
0.09270578 0.06178697 0.049636148 0.15858424 0.1889675 -0.048186023 0.07550169 -0.13626526
0.044854697 0.23482929 -0.33638525 0.15430741 -0.34891564 -0.19760646 -0.0050453683 -0.1382494
0.17074893 0.17014793 -0.019815218 0.016983567 0.18585294 0.1157705 0.0781563 0.29733178
0.14574347 0.20495188 -0.10846228 0.038263563 -0.018815976 -0.052685723 -0.16725361 0.18625551
-0.031996474 -0.2241676 0.12261548 0.10982862 -0.0082879225 0.2512107 -0.016704284 -0.04778814
-0.15772375 0.23022717 0.015754225 0.49698737 0.17631668 -0.22811303 0.09447358 -0.13988537
-0.13510108 0.20289515 0.097401336 0.5518234 0.012387369 0.19897547 -0.07786187 -0.13511078
0.19084154 0.09829194 0.0026426464 0.10397709 0.103409365 0.17937277 0.23228383 -0.011030315
-0.062342606 0.1264613 0.13166095 0.00692951 0.008066018 0.5724456 0.08086512 -0.18194357
0.09401402 -0.24787271 -0.107687116 -0.22200489 -0.024618894 0.014314242 -0.25068045 0.06445657
0.0691216 0.07171404 -0.3680503 -0.6365524 0.077349365 0.0697934 0.11987519 0.249348
0.2048832 0.09204211 0.18272999 -0.12776507 0.15228242 -0.033362698 -0.003962835 0.028897319
0.2039933 -0.058088105 0.021485494 0.09774941 0.116694614 0.15871994 -0.11448933 -0.13573638
0.2363177 -0.15534174 0.05848425 0.15744874 0.008744137 0.07397001 0.021158565 0.0066710925
0.0646623 -0.015015453 -0.0122697465 0.13592222 0.08924833 -0.04065744 0.12941684 -0.08575613
0.08569117 -0.39043593 -0.03284909 -0.037142195 0.10312338 0.0834079 0.23269592 0.09744105

fc3.weight f4 [4, 128]
00000000: c1b1 b03c c99a 9f3f f4fd 7abe 65e0 28bf
00000010: e8d6 71be 309c 71be f0db cfbd c178 31be
00000020: 5afd 47bf ba86 16bf bdb1 8c3f 5ace 86be
00000030: 3ea0 cbbe 2e83 66bf dfe7 f63e 1ced dcbe
00000040: ccfc b7bd e01d dbbe 25b1 1a3e 546d ec3e
00000050: 8393 a3bf 8f98 fb3e 8fde 4c3e e210 82be
00000060: 8eef 07be 62fb dbbe 5d5d 623f 5023 093f
00000070: d3df c73e 63e6 d83e ffca 973d aa1f d2be
00000080: a96f d5bd 344b 82be 730d 5ebe e3d4 bcbe
00000090: 3e5e cf3d 5d69 253e f7e2 23be 12d7 2fbe
000000a0: 12b1 623e b941 e63e e2c1 533f 8a59 05be
000000b0: ba2f fcbe e4ac 783f 78e0 81be 9b9b 2dbf
000000c0: 9416 93bf 4f1b b53d 0aec 963f 8dba 8f3f
000000d0: 4224 d3be 9642 463f a0d9 6dbf 482c 94be
000000e0: 4ae0 13bf dfee f5be 1073 813f 8692 17bf
000000f0: d440 81be e806 13bf 164c 95be aa85 ca3d
00000100: 7e50 b43d 6539 633f 6b33 373f afb3 03bf
00000110: 9dd9 8cbe 1a47 7e3f 04d6 e2bd 73ad 393f
00000120: fd1b 05bf a38f 413f 267f 193f 8271 943e
00000130: d701 80bf daf0 8b3f 23b7 603f a71b f93e
00000140: 7619 95be ce78 9bbe 64ce 82bf 5ee5 693f
00000150: 2d0e 02be be0e a9be 886d 1bbe 5640 9bbe
00000160: b675 25bf eca8 f63e b44d 0bbd 7f59 6c3f
00000170: 766f e5be 31e1 0c3e 5135 093f c031 50be
00000180: 1f08 ecbe 397c a9bd f453 72be 15c2 3d3f
00000190: 5916 0a3f 2be6 983e 1b72 d73d c18c c73e
000001a0: 75c3 363f 503c 4dbf 28a5 533f 0a78 0cbf
000001b0: 2346 96be 0217 8abe de90 05bf d942 993f
000001c0: 78dd b8be 0c01 e43c eaf5 223f 8905 8abe
000001d0: 6b9b 2abe b8ec 3ebe a2fb 543f 0df7 273f
000001e0: ef6c b0bd efb2 223e b667 b73c 019f b33c
000001f0: a4a0 83be 4434 aabe bc55 4ebf a9ac 06be
00000200: 3eb0 0fbf 79bb a03f fd07 dfbe 1381 c0be
00000210: 87a7 43be da26 19be 5b82 0ebf aed8 b1be
00000220: 3137 983f e436 7ebe 562a b7bd a4fc 0bbf
00000230: ffa2 97be afaf 623f 649c 9d3e c78c 0c3f
00000240: 16c2 14bf 72e6 72be fcd5 783f 6f7a 603f
00000250: f756 a2bf 5bd4 c03e 0cc9 9f3e 078c 5fbf
00000260: 172e 07bf 6377 3cbe 4685 d93e 70c8 183f
00000270: 1897 f83e e815 47bf a47c ee3c 438d aebe
00000280: b933 0e3d 1593 d63e 38c6 b2be ab4d afbe
00000290: 4a5a 763e dcb9 03be 2032 e33d 8e8e f0bd
000002a0: af00 9b3f c4e8 273f 429a a03e f3da 07bc
000002b0: 5a69 babd bcd2 9a3f abc8 15be d925 2abf
000002c0: 6496 08bf 4402 393f c967 763f f3ef 803f
000002d0: b6a4 b8bd a83b 483f 8936 8fbe 4bd8 1fbf
000002e0: da34 1bbf 9b1b 71be ffb2 9f3f 7113 7f3d
000002f0: 5b1c 85be 580d 90be d3c1 b5be 6257 9dbd
00000300: 6bc1 423f 5c70 a33f 41a7 743f 654d b43f
00000310: 1e25 d53d cc14 953f cb48 1fbe e7a4 c03e
00000320: 3a8c 04be 6e8b 593f b68d c03f 7dd7 4f3f
00000330: a37f 843f edb3 0e3d beb8 103f 37d5 8e3e
00000340: a5e9 86be 05e1 9dbe 5421 59bf 8903 d13e
00000350: 283a 5abf 1ac2 42be 809c 02be 3471 203f
00000360: 095f 76bf 30f4 88be 8ea0 2cbf 09d3 113f
00000370: 4693 c5bd ca11 9e3d c375 9d3e d353 39bf
00000380: ba4d 66be 98b3 eebe 3760 e1be df86 563f
00000390: c706 433f e542 653f aa3d 4abf c67b 1bbf
000003a0: 457c 413f a25e 9bbf ab7b 7e3f e25a 64be
000003b0: 0305 29bf 1e06 d4be 307d 28bf 534c 9b3f
000003c0: 7204 5cbd 825c 9dbd 91f0 5f3e 1a7b b8be
000003d0: 9112 e1bd 0777 783e d3b9 5d3f e040 8e3f
000003e0: 3c07 0cbd 5093 093f 5238 253d d6a0 42bc
000003f0: 9a5a bcbe 3ff8 78be f401 afbe 8122 593e
0.021569135 1.2469112 -0.24510938 -0.659674 -0.23617136 -0.23594737 -0.101493716 -0.1733122
-0.7812096 -0.58799326 1.0991741 -0.2632931 -0.39770693 -0.90043914 0.4822378 -0.4314965
-0.08983764 -0.4279623 0.15106638 0.4617716 -1.2779392 0.4913983 0.20006774 -0.25403506
-0.13274977 -0.42965227 0.8842371 0.5356951 0.39037952 0.4236327 0.07411765 -0.41039783
-0.10421688 -0.25448 -0.21684818 -0.3688117 0.10125397 0.16153474 -0.16004549 -0.17171887
0.2213786 0.44972017 0.82717717 -0.13022438 -0.49255162 0.9713881 -0.2536657 -0.6781556
-1.1491265 0.08843099 1.1790783 1.1228806 -0.412386 0.7744535 -0.92910194 -0.28940034
-0.5776411 -0.48033807 1.0113239 -0.5920795 -0.25244772 -0.57432413 -0.2915961 0.09888776
0.08804415 0.8875945 0.7156283 -0.5144605 -0.27509776 0.9932724 -0.110759765 0.7253029
-0.5199583 0.756098 0.5995964 0.2899285 -1.0000561 1.0932877 0.87779444 0.4865391
-0.29120988 -0.30365604 -1.0219235 0.9136561 -0.1270072 -0.3301906 -0.15178502 -0.30322522
-0.6463274 0.48175752 -0.03400965 0.9232406 -0.448116 0.13757779 0.5359698 -0.20331478
-0.46099946 -0.08275647 -0.23664838 0.7412427 0.5394035 0.29863104 0.10519811 0.38974574
0.71391994 -0.80170155 0.82673883 -0.54870665 -0.29350385 -0.2697068 -0.52174175 1.1973525
-0.36106467 0.02783253 0.63656485 -0.26957348 -0.1666085 -0.18644989 0.8319646 0.65611345
-0.086145274 0.1588857 0.02238832 0.021926405 -0.25708497 -0.33243 -0.8059957 -0.13151802
-0.561283 1.2557212 -0.43560782 -0.37598476 -0.19106875 -0.14956227 -0.55667657 -0.34735626
1.1891843 -0.24825627 -0.08943622 -0.54682374 -0.29616544 0.8854932 0.3078338 0.5490231
-0.5810865 -0.2372072 0.97201514 0.8768682 -1.268279 0.37662014 0.31208074 -0.8732304
-0.528047 -0.18404917 0.42484492 0.59680843 0.48552775 -0.777678 0.029112168 -0.3409215
0.034717295 0.4190909 -0.34916854 -0.34238943 0.2405788 -0.12863868 0.11093545 -0.1174594
1.2109584 0.6558955 0.3136769 -0.008291948 -0.091021255 1.2095561 -0.1462733 -0.66464
-0.5335448 0.7226908 0.96252114 1.0073227 -0.09015791 0.7821603 -0.27971295 -0.6243941
-0.6062752 -0.23545687 1.24765 0.0622744 -0.25998196 -0.2813518 -0.3549944 -0.076826826
0.7607638 1.2768664 0.9556771 1.4086119 0.1040747 1.1646972 -0.15555112 0.3762581
-0.12944117 0.8497838 1.5043247 0.81188184 1.0351452 0.03483956 0.56531894 0.27897045
-0.26350132 -0.3083574 -0.8481648 0.4082301 -0.8524499 -0.19019356 -0.12755013 0.62672734
-0.9623876 -0.267488 -0.67432487 0.5696264 -0.09647231 0.07718237 0.30753908 -0.7239353
-0.22490588 -0.46621394 -0.4401872 0.83799547 0.76182216 0.895552 -0.7900034 -0.6073574
0.75580245 -1.2138255 0.9940745 -0.22300294 -0.6602327 -0.41410917 -0.6581602 1.2132667
-0.053715177 -0.0768366 0.21869113 -0.3603142 -0.109898694 0.24264155 0.8661167 1.1113548
-0.034186587 0.53740406 0.040336914 -0.011879167 -0.36787874 -0.24313448 -0.34181178 0.21204568

fc3.bias f4 [4]
00000000: 8f95 8abe 4f96 f0bd 67ba 393c 2e85 91bc
-0.2706723 -0.11747419 0.011335946 -0.0177637

fc1.weight f4 [256, 8]
00000000: dfd8 39bf 27c4 373f 06a6 0d3f b2c7 81be
00000010: 0f56 87bf 987a 84bf 7876 ccbe 13db 22bf
00000020: 5654 4d3e 1f96 ea3e 3f65 bfbe 1174 1ebe
00000030: d99d 1ebf bc81 ac3f decb e83d 4ca2 8bbe
00000040: d460 083f bc1d 943e e2a3 883e a137 88bd
00000050: 126c 523e b975 f8be fffd b73e 16fc 283f
00000060: be1a 35be d0f1 9d3f fa96 453f a934 a33d
00000070: be3a 53bf 4b43 03c0 d1eb dd3e bd01 873e
00000080: 6481 53be 82e3 adbf a87e d8be 75be 2abe
00000090: b128 8b3f 0924 433e 5414 f73e 63e9 bbbf
000000a0: b212 32bf a95f 4dbe 5398 8bbf be00 6bbf
000000b0: a44c 2a3f 3dda 8ebd cd50 ab3d 5a2c f23e
000000c0: cfc3 70be 4ce6 3c3f c1c7 dcbe 9cc1 8c3f
000000d0: 4e24 253f bcc6 d6bf d440 d9bf eacf 8cbb
000000e0: 449f c8bb 4027 98bf 5aff 98bf fd8c c23e
000000f0: 0db5 5bbf f29d 853e 06a4 d43e d3db cdbe
00000100: ffaf 65bf 62f9 cfbf 90ec 94bf 7813 eabe
00000110: a260 793e c955 2fbe c100 0e3e 1e63 b8be
00000120: ec6e b63f 5543 5ebf a61d bdbe 86fd 373e
00000130: 6569 babf b946 3ebf 184d b53e c5f5 303d
00000140: f29e b1bf 0f9a 4ebd 9674 93bf 95ef 723f
00000150: 5c92 4f3e 6aa3 e5be 6d01 ae3e 402f 393f
00000160: ffc4 633f 01d3 be3e e175 38bd e798 503f
00000170: 244d 613f a507 3dbe 47de 0abe beca 9fbf
00000180: 6727 36bf 2f30 f33e 5380 603f 437a ec3e
00000190: eb40 24bf 9db8 be3e 13e7 ad3f daaa 9fbf
000001a0: d385 633e d0e1 95bf 3e7e 44be c65a 11bf
000001b0: 9037 73be d93c eb3e aeaf 64bf 3798 b4be
000001c0: de6b c7be 2571 0e3f cb7c 53bf fba3 3e3f
000001d0: fdfd ac3f d0b0 9f3f c455 573f 608b 883d
000001e0: 7aa6 cd3e 3c39 f83e ad2b a43f db78 2d3f
000001f0: e38f a73f 9f67 9bbf 62af 5cbf 4881 87be
00000200: 1628 2cbf 09e0 c8bd 93c2 a2bf a860 063e
00000210: 2cef 703f c22a 09be 69f6 2c3d d0bb 183f
00000220: 1f6f 403e b389 d4bf 463d 013e 28b5 0fbf
00000230: 964d 813e e077 6ebf 31fe 86bf 94f9 993f
00000240: d037 92bf ceeb 6ebf 857a 23be c8c5 2fbf
00000250: c059 943c 37b4 863f 9291 433d 9f4c 24bf
00000260: 7124 293e 1c10 e5bf be8c aa3e a57e 63bf
00000270: b40c 98bf d5bd 8dbf 99b3 7a3e bb60 9d3d
00000280: be2f 863f f06a 10be 4394 633e 35b3 de3e
00000290: ce39 0bbe d2e4 3bbe 49cb c33e ed34 83bf
000002a0: b2a8 b73e 7f62 d6bf ffc4 84be 1207 39be
000002b0: 0054 193f 6a55 bb3d 76b4 803c 50e4 5a3f
000002c0: 22b3 e03f 46ea 323f fe65 6bbe 7e22 953d
000002d0: b0cb 04bf cedf 013f 0f6f 94bf 7098 bcbd
000002e0: 9c05 d63d 251c 683d fa80 6dbd 2ef9 ba3d
000002f0: b642 a9bf 5ac2 003f ed15 323f f7d4 f93f
00000300: 582a 393e 52c6 72be 1cc7 cdbe 3228 22bf
00000310: 85c2 21bb eed7 b73e be9b e73e 279a e03e
00000320: 34d1 6abf 5eff 4abf 954a 4c3e 6a9a 13bc
00000330: 8737 09bf 4127 773e 7060 163f a71d 243f
00000340: ec69 333f 5fc3 26bf 6b44 84be 2586 323f
00000350: 5c29 a83e 8dc1 27bf 4f19 a43f c091 d93e
00000360: 4a7a 983e 550b 2d3f 61b4 073e 7a51 30bf
00000370: cdf9 8c3e 757e b23d 5ed2 4fbf 3d3d 42bf
00000380: b69d 7bbf 7d5b 4cbd 217c 90bf e173 7fbe
00000390: 8e47 ee3e c36d eb3e 5a2d 8abf 4ffb 013f
000003a0: 0abe 4b3e 817b c9bf 8626 4ebf 6865 00bf
000003b0: f158 05bf 00b0 073f 3623 c4bd 6c17 72bf
000003c0: b7de e93c 2989 69bf 8728 83bd 1693 0abe
000003d0: 91f0 fd3c 2e67 a83f aef4 ee3e 0558 3a3f
000003e0: cbfd e7be b446 053f 5fd0 05be 40e2 de3d
000003f0: 613f 8d3e 2eab 3d3f 27d9 753d c815 0bbe
-0.72596544 0.7178368 0.55331457 -0.25347668 -1.0573138 -1.0349913 -0.39934134 -0.6361553
0.20051703 0.45817658 -0.37381932 -0.15473963 -0.61959606 1.3477092 0.113670096 -0.2727226
0.5327275 0.28928936 0.26687533 -0.06651235 0.20549038 -0.48527315 0.3593597 0.6600965
-0.17685983 1.233942 0.77183497 0.079690285 -0.8251151 -2.0509822 0.43343976 0.26368514
-0.20654827 -1.3585055 -0.4228413 -0.16674216 1.0871793 0.19056715 0.48257697 -1.4680599
-0.69559777 -0.20056023 -1.0905861 -0.9179801 0.66523194 -0.069752194 0.08365021 0.47299463
-0.23512195 0.73788905 -0.4312115 1.0996585 0.6450852 -1.6779399 -1.6972909 -0.004297246
-0.0061225016 -1.1886978 -1.1952927 0.3799819 -0.85823137 0.26097065 0.4153139 -0.40206775
-0.89721674 -1.624798 -1.1634693 -0.45717978 0.24353269 -0.17122568 0.13867475 -0.3601312
1.4252601 -0.8682149 -0.36936682 0.17967805 -1.4563414 -0.74326664 0.3541038 0.043203134
-1.3876631 -0.05043989 -1.1519954 0.94896823 0.20270675 -0.44851238 0.33985463 0.7233772
0.8897247 0.37270358 -0.045034293 0.8148331 0.8800833 -0.18459947 -0.13561355 -1.2483747
-0.71153873 0.474977 0.8769581 0.46187028 -0.64161557 0.37250224 1.3586143 -1.2474015
0.22219019 -1.1709538 -0.19188783 -0.56779134 -0.23751664 0.4594486 -0.89330566 -0.3527238
-0.38949484 0.55641395 -0.82612294 0.74468964 1.3515011 1.2475834 0.8411524 0.06667209
0.40166074 0.48481166 1.2825829 0.67762536 1.3090786 -1.2140998 -0.8620511 -0.2646582
-0.67248666 -0.09808356 -1.2715629 0.13122809 0.9411495 -0.13395217 0.042227183 0.5966158
0.1879239 -1.6604522 0.1262103 -0.561358 0.25254506 -0.93151665 -1.0546323 1.202929
-1.1423283 -0.9332856 -0.15964706 -0.68661165 0.018109202 1.0523747 0.04774625 -0.64179415
0.16517808 -1.7895541 0.33310503 -0.8886512 -1.1878877 -1.1073557 0.24482574 0.076844655
1.048332 -0.14103293 0.22224526 0.434961 -0.1359627 -0.18349007 0.38241032 -1.0250527
0.35870892 -1.6748809 -0.25931546 -0.18069103 0.598938 0.09147151 0.01571105 0.8550463
1.7554667 0.6988872 -0.22988126 0.072819695 -0.518733 0.50732124 -1.1596392 -0.09208763
0.10450289 0.056667466 -0.05798433 0.091295585 -1.3223484 0.50296557 0.69564706 1.9518117
0.18082559 -0.23708466 -0.4019097 -0.63342583 -0.0024682593 0.3590693 0.4523601 0.4386761
-0.9172547 -0.7929591 0.19950326 -0.009008983 -0.53600353 0.24136068 0.587409 0.64107746
0.700835 -0.6514186 -0.2583345 0.6973594 0.32844055 -0.6552971 1.2820224 0.4249401
0.297808 0.67595416 0.13252403 -0.68874323 0.27534333 0.08715526 -0.8118037 -0.7587469
-0.9828752 -0.049891938 -1.1287881 -0.24946548 0.46538967 0.4598218 -1.079509 0.5077409
0.19896713 -1.5740815 -0.8052753 -0.50154734 -0.5208884 0.5300293 -0.095770285 -0.9456699
0.028548582 -0.91224915 -0.06404214 -0.13532671 0.0309985 1.3156488 0.4667105 0.7279056
-0.45310816 0.5206101 -0.13067769 0.108829975 0.27587417 0.74089324 0.060021546 -0.13582528

fc1.bias f4 [256]
00000000: 2045 32be 991c c43d 9394 14be 1045 4e3e
00000010: fe03 9e3e b494 263d 6ff9 f13e 39ac 983d
00000020: c68e f93d 0b28 253d 8ef5 1abd b80b 34be
00000030: 97f5 5abe c65f 16be b059 9abb ae9a ce3d
00000040: 4f26 71bd 03da 6c3e 7cd8 dd3d e6b5 223e
00000050: d0d9 4c3e ab7f 9d3e b0b3 313e 253f 1abd
00000060: 07e2 47be 60a1 b33d 484d 8b3e c7bb a63d
00000070: 1960 8e3d 1d69 c03d 71ff 293e 6102 a8bd
00000080: 803f 153e d18c 7dbd ca10 143e dee5 5bbb
00000090: ff2d 953d 4f93 27be 6687 7f3e 78e9 7e3e
000000a0: 8d45 293d ab87 053e 7dc0 eabd 55a1 adbe
000000b0: 6da0 babc cee4 513e 2759 34bb b077 41be
000000c0: 694b e2bd a470 c83e 66cc 293e a1c6 743e
000000d0: f953 e33e 910c a23e 43c3 6dbe 3864 f1bd
000000e0: 01c6 d4bb 2c24 c63e 8c4c 713c 6126 d4bd
000000f0: 8d37 b0bd 3e4b 023e 82f5 bf3e 8426 3a3e
00000100: df26 2a3d 46f4 84be 67b2 b63d 9962 e3bc
00000110: 4391 813e 5725 893e 02c6 423e 7fa9 46be
00000120: d641 b2be f9b4 693e d5bc 3d3d cc2c 123e
00000130: bef1 5b3d 0463 14be e1aa b8be 6ce9 383d
00000140: dcb0 83bd 6843 c53d fd7c 253d 1bbd 69be
00000150: ab61 bc3e 4e81 a8bc f21f 323d 2691 4b3e
00000160: f79f 8fbe 7d3c f8bd 0220 6f3d bcd0 e13d
00000170: 0401 343e 3b54 c93c 854d 5c3e e477 b63e
00000180: 4eca 6fbd b6e0 4b3e 7f3a 7c3d 44a2 6a3e
00000190: f055 403e 955b 0fbd ecf0 4abe 7787 80be
000001a0: b0cc 993b da12 b23e f98b ad3c 5ef7 22be
000001b0: c2fe 1e3d 5f22 613e 96bd d5bd d073 8c3e
000001c0: 1913 943e 399d 1b3e fabf 373e ef7d d33e
000001d0: 201b 5f3e d346 2a3e f5b6 13be b3f2 dfbc
000001e0: 0516 f63d c0b0 013e b4cb a1be ce8c 66be
000001f0: bd54 d53e a597 b4bd dc6f e6be d557 5c3d
00000200: 894b b03e fbb5 fbbc d7dc d33d 601f 57be
00000210: 9076 633d 6eb1 093e a7b6 b8bd 234f dbbd
00000220: f571 4e3d 0c9e 9fbd 57d2 c03d 540f 2ebf
00000230: 5b88 6bbd 3997 d33e ef0f e83d 52ca ddbb
00000240: a394 4b3d 09df 523e a247 e13e 93a3 9b3e
00000250: 184c 3e3d 46e3 0ebe dae0 fe3c 6bba 1abe
00000260: 3490 5e3e 1ce1 553e 7ddf 86be 71d6 d43e
00000270: 0f7e d83d 647b ee3d 2498 c1be 789f 983d
00000280: 0956 acbd f872 d43c 4a05 453e b4d5 a33e
00000290: bd1f 36be 1e2c c03e 3bd0 1c3e 62aa 7e3e
000002a0: 8a46 853e 0467 e1bd fd58 10bd 56b5 0c3d
000002b0: 20b3 853e 486e 96bd f003 30be dd18 573d
000002c0: 47f7 c93e da84 a53e 8a50 05be 1353 0bbd
000002d0: 8d4a ecbd 1172 483e 2432 38be 795f 113f
000002e0: 3755 af3d c912 30be 4321 2b3e 336b 343e
000002f0: e145 43be 4078 253d 9585 70bd ad38 8d3e
00000300: f061 fcbd a482 7f3d a6c5 843d 40e4 8c3d
00000310: eef0 d73d eb09 ad3d c0b3 633e 18ee b83e
00000320: 2c07 f83c 30cd a5be a5ca 723e 6f91 513e
00000330: c96f d13e 5dd9 e63b be58 403d c21c 323d
00000340: 5d16 91be a246 7bbd 6142 43be 03d4 9d3e
00000350: 4efe a7bc 28d8 083f e0c6 1b3e 5882 173d
00000360: 45fa 2cbf 1978 a3be 036e a63d 13f2 073f
00000370: d8ab 2c3e 77ec 263e d0e5 153c da72 48be
00000380: ac79 db3b 4a9b f7bd 8dcb d6bd e40d ac3e
00000390: 5ee7 253d 400e c7bd 7bd3 08bd cde0 663e
000003a0: f0cb c8be eba1 e4bc 3c21 b1bc 637a 94bc
000003b0: f9da 273d 9d19 b53e e8f2 be3e 70a6 64be
000003c0: b48e 513e fc2f 983e 9ff7 50be 9cb5 1e3e
000003d0: 55de d03e 378e 06bd ead2 ab3d 52e8 4abe
000003e0: 9bd3 f13d a9b0 373a 75df 0d3d 645c debd
000003f0: 5a53 1f3c 23af ae3c a853 2c3e bea9 f83c
-0.17409182 0.09575767 -0.14509802 0.20143533 0.3086242 0.040669158 0.47260615 0.07454724
0.12185435 0.04032139 -0.037831835 -0.17582595 -0.21382748 -0.14684972 -0.0047103986 0.100880966
-0.058874425 0.2313004 0.10832307 0.15889701 0.20004964 0.30761465 0.17353702 -0.037657876
-0.19519816 0.08771014 0.27207398 0.081412844 0.06951923 0.09395049 0.1660135 -0.08203579
0.14575005 -0.06190187 0.1445953 -0.003355376 0.07284164 -0.16364788 0.24953994 0.24893749
0.041326094 0.13040034 -0.114624955 -0.3391215 -0.022781575 0.20497438 -0.002751896 -0.18893313
-0.110495396 0.39148438 0.16581878 0.23903896 0.44400004 0.31650212 -0.23219018 -0.11786693
-0.0064933305 0.38699472 0.014727723 -0.10358883 -0.086043455 0.12724015 0.37491995 0.18178755
0.041540977 -0.25967616 0.08920746 -0.027756976 0.25306138 0.267863 0.19020846 -0.19400595
-0.34815854 0.22822942 0.046322662 0.14274901 0.05369734 -0.14490896 -0.3606787 0.045144483
-0.064302176 0.09631997 0.0404024 -0.22826044 0.36793265 -0.02056947 0.043487497 0.19879588
-0.2805173 -0.12120912 0.058380134 0.11026141 0.17578512 0.024576297 0.21513946 0.35638344
-0.058542542 0.19909939 0.061579224 0.22913462 0.18782783 -0.03499945 -0.19818467 -0.2510335
0.00469359 0.34780008 0.021184908 -0.15914676 0.038817175 0.21985768 -0.10436551 0.27432108
0.2892082 0.15196694 0.17944327 0.41307017 0.21787691 0.1662858 -0.14425261 -0.027337408
0.12015919 0.12665081 -0.31600726 -0.2251465 0.41666213 -0.088179864 -0.45007217 0.0537947
0.3443263 -0.030726423 0.10344856 -0.21008062 0.055532992 0.1344659 -0.09019213 -0.107084535
0.050401647 -0.07793817 0.09415119 -0.6799214 -0.057503086 0.4132631 0.11331164 -0.006768503
0.049702298 0.20592894 0.43999964 0.30398235 0.046459287 -0.13953885 0.031113077 -0.15110175
0.21734697 0.20886654 -0.26342383 0.41569856 0.10570919 0.11644629 -0.37811387 0.07452291
-0.084148474 0.025933728 0.19240299 0.3199898 -0.17785545 0.3753366 0.15313809 0.24869683
0.2603038 -0.11005977 -0.035241116 0.034352623 0.26113224 -0.07345253 -0.17189002 0.052513946
0.3944647 0.3232792 -0.13019004 -0.034014773 -0.11537657 0.19574763 -0.17987877 0.56786305
0.08561175 -0.17194666 0.16711907 0.17619018 -0.19069625 0.040397882 -0.058721144 0.27582303
-0.123233676 0.062380448 0.06483011 0.06879473 0.105440006 0.08449157 0.22236538 0.3611915
0.030276857 -0.32383108 0.23710115 0.20465635 0.40905598 0.0070449547 0.04695963 0.043484457
-0.28337374 -0.061346658 -0.1906829 0.30825815 -0.020507004 0.5345483 0.15212584 0.03698954
-0.6756938 -0.31927565 0.08126452 0.5310375 0.16862428 0.16301142 0.00914903 -0.19575062
0.006697854 -0.12090166 -0.10488043 0.33604348 0.040503852 -0.09719515 -0.03340481 0.22546692
-0.39218092 -0.02790924 -0.021622293 -0.018124765 0.040980313 0.35371104 0.37294698 -0.22329116
0.20464593 0.2972411 -0.2040696 0.15498966 0.40794626 -0.03285047 0.08389838 -0.19815186
0.11807939 0.00070072204 0.034636933 -0.10857466 0.009724462 0.021323746 0.16828787 0.030354377

fc2.weight f4 [128, 256]
00000000: 506d a3be 7d4e 833e 2efd 3abe c9a6 22bf
00000010: 7f8e d03e 8eee b23d 4542 4dbf 932c 04bf
00000020: d51f ef3d 9b51 66bf 7c3a a63a 6301 25bf
00000030: 5eb9 dabd 0d94 d3bd 9cdd 98be bf9c 8cbf
00000040: 5e71 a7bd b0c5 5f3d d18a aebc e1d1 a73c
00000050: 4760 d5be 41ad 293e e398 683e 44db 38be
00000060: e687 913d 4c5f 9a3c 00e1 693e e83b 81be
00000070: d5ac 143e 6816 babd 1acc 603d 0587 61be
00000080: f9b1 0ebe fc3f 273e 19da dcbc 8968 183e
00000090: 91de c53d cc74 e33d 02c3 97be 0e19 67be
000000a0: c8aa d73e 2155 ef3d 7bdf 77be 4d20 a8bd
000000b0: 6fa8 a9bc 24da 803d 2cca 45bf 83cf 2cbe
000000c0: 8772 ce3d 8dbc 9d3e 2a86 0cbf b60b 0a3d
000000d0: 58d2 c8be 670f 8e3e 838b 8b3d 9857 173e
000000e0: 8da8 4abe ae3d 1abf 6fc0 85be 403f a33e
000000f0: bc02 3cbe 328b f93e 1692 7d3e 5099 c33e
00000100: 0bd1 b83e 9fee 3b3f 45cc 4dbc 11a4 90be
00000110: 1d9e 873e 3e04 82be 5040 803e 57bb 553d
00000120: 97a6 30be ea86 513f 3369 e3be 7992 843f
00000130: ed5d 9dbd b2e2 973e a996 bb3d 8647 82be
00000140: 0c76 26bb 6a84 8bbe b970 253e f7b6 a4be
00000150: 8efc 8a3e bb18 b0be 3854 a83e ee30 6a3c
00000160: 5f21 a43c bc63 873e 0650 c23c 33fa 7c3e
00000170: 86aa 8dbe f509 b63d 71d9 2e3d 6383 1bbf
00000180: 8bfc b7bd 2da8 9f3e f5f7 263e 73af 8cbc
00000190: b1a4 06bf cc9d bf3d b5c5 aa3d 6320 053e
000001a0: b23b 013e a30c bd3d dbc1 cd3d 41ac 833d
000001b0: 1022 54be d937 5abe 25f7 923e 4981 c6bd
000001c0: 9609 0dbe 68f0 99bd c23a e0bd 6d6f 533e
000001d0: 778d 483e 7364 a63e 99a6 843e 4bce 033f
000001e0: d466 d63d 1596 093d 8969 503e 05d4 0f3f
000001f0: 50c9 203c 5ba0 92bc 76a8 2d3e 77de 89bd
00000200: f5b5 abbe cc2f d2bc b2c4 9e3d eb83 823e
00000210: 2f20 16bf 9b27 053f ae9d 733e f666 ccb7
00000220: e7ee b43d 375e 963d 9e29 af3e 8c3c 58be
00000230: 9c98 653e 419c 863c 8afe c8be d194 923d
00000240: 97a8 37bd d09d 3f3e fde4 93be a69d 2b3e
00000250: 2798 aa3e 9798 103e 971a 253e 39c8 1ebd
00000260: 371c bf3e 8e71 b93d d659 c5be 8b1b 1b3e
00000270: 6c2b 06be 8dfa 36be 03a2 fcbe 1d74 6e3e
00000280: 8bd7 2d3e deaf 6b3e f59d b03c c962 6d3e
00000290: 8f84 803e 07e5 91be 5c9c f7bc 676e 953e
000002a0: c5b5 9d3d ac89 0dbd 3038 c5be aa8e 9f3e
000002b0: 1187 37be 574a 283d 9dd4 97be bcd7 80bd
000002c0: 4002 2c3d d114 a83e ad12 c8be d03a d3bc
000002d0: 7cac fdbd 7202 103e 55cf 923e 7356 b0be
000002e0: 9e05 d03e d76a 8c3e 8f01 43be 2aae 91be
000002f0: 455a dbbc 7c1d e1be 0e89 b9be 1eef 443c
00000300: f22b 373e 2329 a23d 8685 c13d 518b ac3d
00000310: 0e50 013d d3b2 af3e 90bc 163d 4f4c 97bd
00000320: 8e9c 8c3e 1693 43be a0c7 6c3d cf54 133e
00000330: e95c 403e 72ae 3d3d 1810 693e 75dd 82be
00000340: 0fd7 8fbe 619d 48bf 8e7d be3d aa72 713d
00000350: 3ea5 fd3b df1a f8be 181d 2d3f 6c9e 0bbe
00000360: 814b 9cbe 4eec 663b b390 153e 9042 2a3e
00000370: 3ddb c13d 6fe0 3fbf 75bd f4bb 9f01 3cbe
00000380: d608 973d e001 643e 0f4c b2be 484a 17bf
00000390: f3b5 e0bc 504e 1f3b 78cd 423e 9b16 c23d
000003a0: 3f8f 22bf e117 fcbd 54f3 12bf 43cd 14be
000003b0: a5b8 26be b61b 0b3e d1de a53e 28ea 0cbc
000003c0: 7c21 a5be 1a30 af3d 858a 0f3d 46b9 273d
000003d0: fdaf 8cbe b26e d93d d036 acbd 13f8 79bd
000003e0: 51ee 70bb 5fa3 163f 8d53 9a3d fe30 d5be
000003f0: 9b74 9abc df0d 563e ec00 54be 3523 80bd
-0.31919336 0.2564582 -0.18260643 -0.63535744 0.40733716 0.08736907 -0.80179244 -0.51630515
0.11675993 -0.8996827 0.0012682225 -0.6445524 -0.10679887 -0.10330973 -0.29856575 -1.0985335
-0.0817592 0.05463189 -0.021306427 0.02048582 -0.41675016 0.16569997 0.22714572 -0.18052393
0.07105999 0.01884427 0.22839737 -0.25241017 0.14519055 -0.09086305 0.054882146 -0.22024162
-0.13935079 0.16333002 -0.026959466 0.14883627 0.09661592 0.111062616 -0.29640967 -0.22568151
0.42122483 0.11686159 -0.24206345 -0.08209286 -0.020710198 0.06291607 -0.77261615 -0.16876034
0.10080438 0.30807915 -0.5489222 0.033702575 -0.3922298 0.27746126 0.06813719 0.14779508
-0.1979086 -0.60250366 -0.26123378 0.31884193 -0.18360418 0.4873901 0.24762759 0.38202906
0.36096987 0.7341098 -0.012560909 -0.28250173 0.26487818 -0.25393862 0.25049067 0.052180614
-0.17251049 0.8184649 -0.44416198 1.03572 -0.076839305 0.29665142 0.091595955 -0.25445193
-0.0025399951 -0.2724946 0.16156282 -0.3217084 0.2714581 -0.34393868 0.32876754 0.014293892
0.020035444 0.2644328 0.023719799 0.24704818 -0.27669162 0.08888618 0.042687837 -0.60747355
-0.089837156 0.31182995 0.16305526 -0.017173504 -0.5259505 0.09356269 0.08338491 0.13000636
0.12620428 0.09230926 0.100467406 0.06429339 -0.20716119 -0.21310367 0.2870418 -0.09692628
-0.13773188 -0.07516557 -0.10948707 0.20647974 0.19585215 0.32498512 0.25908354 0.51486653
0.10468832 0.033590395 0.20352758 0.5618289 0.009813622 -0.01789873 0.16958794 -0.06731885
-0.3353726 -0.025657557 0.077523604 0.2549127 -0.5864286 0.5201356 0.23790619 -2.436664e-05
0.088346295 0.07342189 0.3421144 -0.21116847 0.22421497 0.01643193 -0.39256698 0.07157291
-0.044838514 0.18712544 -0.28885642 0.16759357 0.33319208 0.14120708 0.16123424 -0.038765166
0.37326214 0.09054862 -0.38545102 0.15147226 -0.13102502 -0.17869015 -0.49342355 0.23286481
0.16976754 0.23016307 0.021559695 0.23182215 0.25101134 -0.28495046 -0.030225925 0.29185793
0.077006854 -0.034555122 -0.3851943 0.31163532 -0.17922617 0.04108652 -0.296544 -0.06291148
0.041994333 0.32828382 -0.39076748 -0.02578488 -0.123864144 0.14063433 0.28673807 -0.34440956
0.40629286 0.27425262 -0.19043563 -0.2845319 -0.026776442 -0.43967807 -0.36237377 0.012019901
0.17887858 0.079180025 0.09449296 0.0842501 0.031570487 0.3431612 0.03680092 -0.073876016
0.27463192 -0.19099078 0.057807565 0.1438782 0.18785442 0.046308942 0.22760046 -0.25559583
-0.28093764 -0.7836514 0.093012914 0.058947243 0.0077406457 -0.48458 0.6762252 -0.13634652
-0.30526355 0.0035236063 0.1460598 0.16626954 0.094656445 -0.74951833 -0.007468874 -0.18359993
0.07374732 0.2226634 -0.34823653 -0.5909772 -0.02743051 0.0024308152 0.19023693 0.09476968
-0.63499826 -0.12309242 -0.5740254 -0.14531426 -0.16281374 0.1358479 0.32396558 -0.008600749
-0.3225211 0.085540965 0.035044212 0.040948175 -0.27478018 0.106168166 -0.08408892 -0.061027598
-0.0036763141 0.58843035 0.07535467 -0.4163894 -0.01885443 0.20903729 -0.20703477 -0.06256715

fc2.bias f4 [128]
00000000: 87dc bd3d 5514 7d3d 464f 4b3d e863 223e
00000010: b280 413e b55e 45bd a1a0 9a3d 1f89 0bbe
00000020: 8fb9 373d 1777 703e b03a acbe c302 1e3e
00000030: 12a5 b2be 5959 4abe 9e53 a5bb 4091 0dbe
00000040: cfd8 2e3e 423b 2e3e 8653 a2bc 1f21 8b3c
00000050: 3c50 3e3e 1519 ed3d 6910 a03d df3b 983e
00000060: c73d 153e e8de 513e 7921 debd 41ba 1c3d
00000070: f623 9abc fccc 57bd 8844 2bbe c4b9 3e3e
00000080: bc0e 03bd 318c 65be d31d fb3d d4ed e03d
00000090: 11ca 07bc b09e 803e 6cd7 88bc 7fbd 43bd
000000a0: 5682 21be acc0 6b3e 010f 813c 2175 fe3e
000000b0: 5c8c 343e 7696 69be 5d7b c13d 1c3e 0fbe
000000c0: f057 0abe bfc3 4f3e 5a7a c73d 4c44 0d3f
000000d0: 64f4 4a3c 3ac0 4b3e 0b76 9fbd 7b5a 0abe
000000e0: f76b 433e 494d c93d 4030 2d3b f1f1 d43d
000000f0: 4ac8 d33d 7fad 373e d0db 6d3e 7fb8 34bc
00000100: f65a 7fbd 127f 013e 21d2 063e f110 e33b
00000110: 5527 043c cb8b 123f 9d9c a53d 6a4f 3abe
00000120: 6c8a c03d 58d2 7dbe 108b dcbd 4055 63be
00000130: 90ad c9bc 4886 6a3c 3059 80be ce01 843d
00000140: a08f 8d3d d0de 923d 1771 bcbe 19f5 22bf
00000150: 5869 9e3d d8ef 8e3d 2081 f53d 1555 7f3e
00000160: e7cc 513e 9380 bc3d 921d 3b3e d9d4 02be
00000170: ecef 1b3e 53a7 08bd abda 81bb 12ba ec3c
00000180: 9fe3 503e cbed 6dbd 5902 b03c d830 c83d
00000190: 96fd ee3d 7b87 223e 6279 eabd 7afe 0abe
000001a0: 44fd 713e e811 1fbe 2e8d 6f3d 3e3a 213e
000001b0: 9243 0f3c 977d 973d ba54 ad3c 2e99 da3b
000001c0: ab6d 843d 6003 76bc 0c07 49bc 322f 0b3e
000001d0: d4c7 b63d 6a88 26bd d985 043e e9a0 afbd
000001e0: da7e af3d 38e7 c7be c48c 06bd 6a22 18bd
000001f0: 5a32 d33d c3d1 aa3d d747 6e3e 2c8f c73d
0.09270578 0.06178697 0.049636148 0.15858424 0.1889675 -0.048186023 0.07550169 -0.13626526
0.044854697 0.23482929 -0.33638525 0.15430741 -0.34891564 -0.19760646 -0.0050453683 -0.1382494
0.17074893 0.17014793 -0.019815218 0.016983567 0.18585294 0.1157705 0.0781563 0.29733178
0.14574347 0.20495188 -0.10846228 0.038263563 -0.018815976 -0.052685723 -0.16725361 0.18625551
-0.031996474 -0.2241676 0.12261548 0.10982862 -0.0082879225 0.2512107 -0.016704284 -0.04778814
-0.15772375 0.23022717 0.015754225 0.49698737 0.17631668 -0.22811303 0.09447358 -0.13988537
-0.13510108 0.20289515 0.097401336 0.5518234 0.012387369 0.19897547 -0.07786187 -0.13511078
0.19084154 0.09829194 0.0026426464 0.10397709 0.103409365 0.17937277 0.23228383 -0.011030315
-0.062342606 0.1264613 0.13166095 0.00692951 0.008066018 0.5724456 0.08086512 -0.18194357
0.09401402 -0.24787271 -0.107687116 -0.22200489 -0.024618894 0.014314242 -0.25068045 0.06445657
0.0691216 0.07171404 -0.3680503 -0.6365524 0.077349365 0.0697934 0.11987519 0.249348
0.2048832 0.09204211 0.18272999 -0.12776507 0.15228242 -0.033362698 -0.003962835 0.028897319
0.2039933 -0.058088105 0.021485494 0.09774941 0.116694614 0.15871994 -0.11448933 -0.13573638
0.2363177 -0.15534174 0.05848425 0.15744874 0.008744137 0.07397001 0.021158565 0.0066710925
0.0646623 -0.015015453 -0.0122697465 0.13592222 0.08924833 -0.04065744 0.12941684 -0.08575613
0.08569117 -0.39043593 -0.03284909 -0.037142195 0.10312338 0.0834079 0.23269592 0.09744105
